wandb/run-20251109_192043-8tjszy6u/files/best_model.pth (torch, 860297 bytes, 25 tensors)

network.0.weight f4 [512, 70]
000000 e7 33 1d 3e 88 a1 fc 3d a1 eb dd bd 39 70 2e 3d
       0.1535183 0.12335497 -0.10835958 0.042587493
000010 4c d7 2d bd eb dd 8c bc 8a e5 36 be 79 58 06 be
       -0.04244165 -0.017195662 -0.17861 -0.13119687
000020 e5 f2 f7 3d 72 25 69 3d af 9b 12 3e 67 d0 29 be
       0.12106875 0.056920476 0.14317201 -0.16583405
000030 1f 26 9d 3d 20 4a e5 bd e9 54 f2 3d 43 d6 c2 bd
       0.07673287 -0.11195779 0.118326016 -0.095135234
000040 6a e2 88 bc aa a6 d4 bb c2 17 5c 3d 19 55 b5 bd
       -0.016709525 -0.0064895945 0.053733595 -0.08854122
000050 a1 e2 d1 3d cf 53 88 3d 1e dc 44 3d 59 46 87 bc
       0.10248304 0.0665661 0.048061483 -0.016513037
000060 10 7d 22 3d ab 5d 9b bd 24 bf e7 bb 89 fa 10 3d
       0.03967005 -0.07586225 -0.0070723463 0.03539518
000070 c4 00 c2 3d 31 98 a3 bc bd 6b f1 bd ac e0 1c 3e
       0.09472802 -0.019970031 -0.117881276 0.1532008
000080 e3 45 b4 bd 37 0d c3 3c 39 ad 90 3a 4d bb 12 bd
       -0.08802392 0.023810012 0.0011037952 -0.035823155
000090 cd b6 53 3b dc 03 50 be e9 53 d3 bd 09 53 15 be
       0.0032305003 -0.20313972 -0.10318739 -0.14582457
0000a0 ba dc 11 bd 74 30 b5 3c 35 b4 e2 bc e1 da e9 bd
       -0.035610892 0.02211783 -0.02767382 -0.11418701
0000b0 17 90 10 3e d6 50 20 bb db 8d eb 3b d6 d6 cd bd
       0.14117466 -0.0024462244 0.0071885413 -0.10050742
0000c0 07 75 0f bd 99 b1 83 bd 12 4f 9c bd b0 c9 93 bd
       -0.035023715 -0.064303584 -0.07632269 -0.07216203
0000d0 c6 2b 93 bd f4 32 5d bd 4a be 15 be d6 d8 92 3c
       -0.071860835 -0.05400367 -0.14623371 0.017925661
0000e0 ca 8f c8 3d f2 90 fe bc ff 8f 26 3c fc 4d c1 bd
       0.097930506 -0.031074975 0.010166167 -0.094387025
0000f0 3d 6c 1c 3e 68 53 d9 3b 6c dd 86 3d 98 00 02 be
       0.15275665 0.0066322573 0.065852016 -0.12695539
000100 fa 40 d0 bd 83 e5 c8 3d 40 a0 7d bd 3f dc 19 3d
       -0.10168643 0.09809401 -0.061920404 0.03756356
000110 3b a4 f2 3d 85 26 cb 3c 79 b1 03 be df 58 ae bd
       0.11847731 0.024798641 -0.12860669 -0.085130446
000120 ee 4d 0f 3d 0d f2 7b 3d 0e e3 02 3e 8c 13 fb bb
       0.03498643 0.061510134 0.12781927 -0.0076622423
000130 b5 85 81 3d c6 e1 47 3b ef c3 2f 3e c4 02 01 3d
       0.06324331 0.0030499562 0.17164586 0.031496778
000140 5d bd 86 3c 95 12 05 3e e1 36 ff bd 2d ef 2d bc
       0.016447717 0.1299537 -0.12461639 -0.010616106
000150 56 03 50 bd 7b 97 2f be 0a 45 b8 bd ed 7c 1b bd
       -0.05078443 -0.17147629 -0.08997543 -0.037960935
000160 c7 03 06 3e 63 93 f9 bd 97 0e 07 3d 1b c0 fe bc
       0.13087378 -0.12186315 0.0329729 -0.031097462
000170 33 8c a5 bd 52 83 75 bd 5b b1 2a be 25 6e 21 3d
       -0.080833815 -0.05993969 -0.16669218 0.039411683
000180 10 66 d9 3d 96 8c e7 3d b2 23 eb 3d be 80 ce 3d
       0.1061517 0.113061115 0.11481418 0.100831494
000190 3f bd 02 3d 18 4e 77 3d 07 6c d7 3d 39 5f 11 bd
       0.03191876 0.06037721 0.105186515 -0.035491202
0001a0 db 4f 0b 3e 4c 6e e1 bd 47 e9 dd 3d 77 fa 07 be
       0.13604681 -0.110073656 0.1083551 -0.13279139
0001b0 ab 21 25 bc 31 35 37 3d fa a5 05 3e 87 24 f9 3c
       -0.010078828 0.04472846 0.13051596 0.030412925
0001c0 dd 5f 9a 3d 44 a2 2f bd 1a 0a b3 3b c0 66 87 bd
       0.07537816 -0.042879358 0.0054638507 -0.06611395
0001d0 e3 38 26 3d 25 9b 65 bc 04 39 eb bd 00 8d 09 bd
       0.040581595 -0.01401404 -0.11485484 -0.033581734
0001e0 ee ee de 3d 28 89 20 be cf a3 6b be 17 d8 94 3d
       0.10885416 -0.15677321 -0.23011707 0.07267778
0001f0 f0 2c 63 3d 2d ae 17 bd 49 2c 2b be 1c d8 b1 bd
       0.055462778 -0.03703134 -0.16716112 -0.08683798
000200 5a 3d d6 3d 46 25 75 bd 06 40 93 bd a1 24 36 3e
       0.10460921 -0.05985 -0.07189946 0.1778741
000210 a5 57 57 be 2e 22 cc 3c 89 15 34 3e 83 c2 b6 3c
       -0.21029527 0.024918642 0.1758634 0.022309547
000220 86 32 98 bd 33 4f 0a be 4c a2 ff 3c 4a 55 78 be
       -0.074315116 -0.13506775 0.031205319 -0.24251285
000230 9a 87 e0 3c 17 2f cd bd b3 d3 d0 3d c7 65 c6 bd
       0.02740841 -0.10018747 0.101966284 -0.09687381
000240 4d 7f 97 3d 9b 77 3e 3d d5 20 a7 3d 2b 84 19 be
       0.073973276 0.046500783 0.08160559 -0.14991824
000250 42 b8 3f bc 0c 83 e5 3c eb f1 08 3e d8 b1 23 bc
       -0.011701645 0.02801659 0.13373534 -0.009991132
000260 70 84 55 3c d2 62 08 bd c2 89 b7 3d 65 1c d8 bc
       0.013032064 -0.033297367 0.08961822 -0.026380727
000270 de bb f6 3b e7 a0 c1 bd 5f 27 3e 3e a0 b0 9e bd
       0.0075297197 -0.09454518 0.18569706 -0.07748532
000280 f6 d2 c3 bc 75 85 2b be 5b e1 5e 3d 5c f9 f7 bc
       -0.023904305 -0.16750129 0.054414134 -0.030270271
000290 1c aa 9d bd 54 38 33 3d 3e d8 34 be fc 38 39 3c
       -0.076984614 0.04375489 -0.17660615 0.01130509
0002a0 9f f9 dd bd 24 40 d8 bd e7 42 5f bd 65 bf b3 bd
       -0.10838627 -0.10559109 -0.054507162 -0.0877674
0002b0 10 ba 7e 3d 42 10 8b bc c0 16 54 ba 4c 17 de bd
       0.06218916 -0.016975526 -0.0008090548 -0.10844287
0002c0 1a 90 4c 3e d4 c5 fb bb f0 8d 5d bd 57 3a e9 bd
       0.19976845 -0.007683495 -0.05409044 -0.113880806
0002d0 7c 9e af bd 4d 07 59 bd 63 1c fd bc 05 0f 01 be
       -0.0857515 -0.05298548 -0.030897325 -0.12603386
0002e0 b6 79 10 be 4c 1d 44 3e 06 40 7e bd 91 b3 81 bd
       -0.14108929 0.19151801 -0.062072776 -0.06333078
0002f0 51 f6 17 3d 08 8e 0c bd fa 1c dd 3d ca 7d c8 3d
       0.03710014 -0.03431514 0.107965425 0.09789617
000300 1c 27 ba bc e0 12 48 bd 54 d9 22 be 02 c7 69 bd
       -0.022723727 -0.048846126 -0.15903217 -0.057074554
000310 eb 96 32 be 9c c6 69 3d d4 a1 f4 bc a8 7d 10 3c
       -0.17440383 0.057074174 -0.029862322 0.008819021
000320 ac e6 ac 3b b3 59 af bd 6a a4 f8 3b dc 94 34 bd
       0.0052765217 -0.08562031 0.007587959 -0.044087276
000330 cf 36 39 3e 13 af 4b bd 6c 33 24 bd 33 c7 b5 bc
       0.18087314 -0.04972751 -0.040088102 -0.022189712
000340 80 3b e9 3c 17 fa 1f be ee 2d 9c bd c1 a9 41 3c
       0.028470755 -0.15622745 -0.07625948 0.011820258
000350 9b fb 9d bd 3d 34 77 3d 74 fc 2c bd 2e 7a 99 3b
       -0.077140056 0.060352553 -0.042232946 0.0046837544
000360 74 8e d4 3d 7e 99 31 be 59 3b 27 3d 33 0c 11 3e
       0.10378733 -0.17343709 0.040828083 0.1416481
000370 89 b3 9a 3d 02 c1 f4 bd 9e a5 e2 bd 8a e5 91 3b
       0.07553775 -0.11950876 -0.11066745 0.004452412
000380 78 99 17 3c 24 04 f2 bd 75 b7 26 3e 69 af be bd
       0.009252898 -0.11817196 0.16280921 -0.093108006
000390 97 d3 1a 3d 42 62 b7 3d 91 cb fa 3c 1a 75 1c bd
       0.037799444 0.08954288 0.030614646 -0.038197614
0003a0 34 e5 0f bd 2a e9 1c 3e 75 4a d6 bd 11 2e eb bd
       -0.035130695 0.1532332 -0.1046342 -0.11483396
0003b0 a1 d3 23 3d a4 ce ed bb 28 2a f5 bc 5e 1e 51 3e
       0.039996747 -0.0072572995 -0.029927328 0.2042174
0003c0 91 8a 90 3d 5c 04 66 3c 17 57 c3 3d 8c f7 08 3d
       0.070576794 0.014039125 0.095380954 0.033439204
0003d0 92 ee e6 3d 51 c4 20 be 33 87 0c be b0 96 00 3b
       0.112759724 -0.15699889 -0.1372345 0.0019621067
0003e0 bf a4 b8 bd f2 da 86 3d 99 1b a1 bc 63 0b 44 3c
       -0.09015798 0.06584729 -0.01966648 0.011965605
0003f0 2e f3 2e 3e c8 01 f2 bd 8b 33 8c 3d 43 4a 18 3d
       0.17084953 -0.11816746 0.068457685 0.037180196

network.0.bias f4 [512]
000000 39 68 3b bd a2 d3 15 bd 97 c8 2d bd da 63 e1 bd
       -0.04575369 -0.036578782 -0.042427626 -0.11005373
000010 73 fb 93 bc aa e8 e1 3d 93 4b fa 3c 12 43 a9 bd
       -0.018064236 0.11030705 0.030553615 -0.08264746
000020 72 8d 72 bd 8a 8f 51 bd 5f d9 ee 3a e9 6f c6 3d
       -0.059216924 -0.05116228 0.0018222741 0.09689314
000030 f8 aa 3c bd fe 7a 82 bb 25 8e 04 3b 81 f8 81 3d
       -0.046061486 -0.003981947 0.0020226326 0.063462265
000040 ff 95 b7 3c 91 c7 84 3d f9 f4 8e 3d b8 f8 d5 3d
       0.02241039 0.06483377 0.069803186 0.1044783
000050 d0 a5 9a bd 14 da 82 3d 01 ac f4 bc b4 14 06 3d
       -0.075511575 0.06389251 -0.029867174 0.032734588
000060 7e 95 6b 3d d2 11 b8 3d ea c3 07 3c ce 56 b2 3d
       0.057515614 0.08987774 0.008286456 0.08707963
000070 07 1b 62 bd 00 40 89 3d 5f e8 b8 bd 73 21 da 3d
       -0.055201557 0.0670166 -0.09028696 0.10650911
000080 4b ee dc bd f4 cf a5 bd 2d 4b 6b 3b 10 d9 9e 3d
       -0.10787638 -0.080963045 0.0035902963 0.07756245
000090 83 8e c8 3d 20 11 a1 bd f1 73 94 bd 89 10 d1 bd
       0.09792807 -0.078645945 -0.072486766 -0.10208232
0000a0 d2 e1 ba bd ab 4f e8 bd 3e c7 b6 3d b6 02 e8 bd
       -0.09125103 -0.113433205 0.08924721 -0.11328642
0000b0 ad 51 b5 bc 0c 15 62 3d 08 9d 6e 3d f8 96 72 bd
       -0.022133673 0.055195853 0.058255225 -0.059226006
0000c0 3a 1f 98 3d 0e a8 45 bc ed 24 47 3c 87 73 6f 3d
       0.07427831 -0.012063993 0.0121548 0.058459785
0000d0 56 4f 5d 3d 52 71 a2 bd 6d fa e5 3d b6 e3 23 3a
       0.05403074 -0.079317704 0.112294056 0.0006251888
0000e0 c1 1e aa bc 73 7d 99 3c 00 05 d7 3d 2c 03 b2 3d
       -0.020766618 0.018736577 0.104990005 0.08692011
0000f0 ec aa df 3c ef f1 ee 3d ee 8e 1c 3d 30 bd 6f 3c
       0.027303182 0.11667239 0.038222246 0.014632508
000100 d1 71 a5 3c 42 15 38 bd 67 4f b9 3d 9b f7 c2 bd
       0.020195873 -0.044942148 0.09048348 -0.09519883
000110 54 a5 46 bd d7 66 70 bd 59 08 b9 bd b3 59 3e bd
       -0.048497513 -0.058691826 -0.09034795 -0.046472263
000120 6a 2f ab 3d 21 28 e7 3c 1f 36 95 bc 78 87 bf 3c
       0.08358653 0.028217377 -0.018214284 0.023380026
000130 a6 e0 e9 bd 9f 57 db bd 08 0d f1 3d 2d 12 0e 3d
       -0.114198014 -0.10710072 0.11770064 0.034685303
000140 08 f9 8c 3d 49 b5 b9 bd 82 63 b5 bd 0f 86 36 bd
       0.068834364 -0.090677805 -0.0885687 -0.044561442
000150 f1 b7 68 3c d8 fe 25 bb a9 27 f7 3c 46 0a 18 3d
       0.014204011 -0.00253289 0.030170279 0.037119173
000160 1c dc b3 bd 73 bc dc 3d d9 7a 9e 3c 37 15 4e 3d
       -0.08782217 0.10778131 0.019345688 0.0503132
000170 f2 4e ce bd 85 75 d0 3d 5d a7 e3 bb 90 3d cb bd
       -0.100736514 0.10178665 -0.0069474415 -0.099238515
000180 a3 d6 8f bc 01 0e 31 bd 77 b1 ec 3d 9a 5d 57 3d
       -0.017558401 -0.043226246 0.11557286 0.0525795
000190 0b f2 ed bd 80 34 a2 bb 6f ad 9a 3d cd 1c c1 bc
       -0.11618432 -0.004950106 0.07552611 -0.023573304
0001a0 54 b0 82 3d 62 8f c4 bc 9f fa 41 bd 5d 38 7c bd
       0.06381288 -0.023994152 -0.04735815 -0.06157719
0001b0 9f d1 e0 3d 5a d6 9b 3d 5e dc e9 bd f7 fb 76 bd
       0.10977482 0.07609244 -0.11418985 -0.060298886
0001c0 96 03 88 3d d1 f2 11 bd 52 26 ad bc b7 54 ae 3d
       0.06641309 -0.03563196 -0.021136437 0.08512252
0001d0 62 f9 a3 bd f3 c4 ba bb ce 57 ed bd 22 85 56 bd
       -0.0800655 -0.0056997477 -0.11589013 -0.05237306
0001e0 12 dd b0 3c d0 48 38 3d 6f 94 11 bd ea 9c 01 3d
       0.02158979 0.044991314 -0.035541948 0.031643786
0001f0 51 10 dc 3d 3c d1 c3 3d 84 a2 87 bd 5d 74 02 3b
       0.107452996 0.09561393 -0.06622794 0.0019905784
000200 c9 21 c9 ba 03 0e ea bd 06 fe 5f 3d f6 95 b8 3d
       -0.0015345152 -0.11428454 0.054685615 0.09012978
000210 47 51 8a bd a5 96 b0 bd 97 91 dd bc 78 25 a1 3c
       -0.06753784 -0.08622483 -0.027046962 0.019671187
000220 00 41 32 3d 78 e8 17 bd 7f 4d da 3d 71 ed f4 bd
       0.04351902 -0.037086934 0.106593125 -0.11959351
000230 64 f8 14 3d 58 0d 61 3d ca b3 ca bd d1 5d 3b bd
       0.036369696 0.054944366 -0.09897573 -0.045743767
000240 3d 9d a4 bb 0c aa 48 3d 8f 62 c4 3d c6 8a 5c bd
       -0.005023627 0.048990294 0.09589111 -0.053843282
000250 51 63 e8 3d af 7e ca bd ac e6 42 3d e8 7d a3 bd
       0.11347068 -0.09887444 0.047583267 -0.07982999
000260 f1 c1 1b 3d 40 06 64 bd 99 f0 35 bd 6d 5d d1 bd
       0.038026754 -0.055670023 -0.044418905 -0.10222898
000270 a9 26 be 3d 64 cf 4f 3d 1e cd c4 3d 75 cc c8 bd
       0.092847176 0.050734892 0.096094355 -0.09804622
000280 34 9a 8e bd c9 66 5b 3d 08 7a a3 3d 43 07 97 bd
       -0.06963006 0.05356482 0.0798226 -0.07374432
000290 98 63 c9 3d 03 6d b9 3b 52 b6 28 bd 84 6e dc 3c
       0.09833449 0.005658747 -0.0411895 0.026908167
0002a0 8b 55 75 bd 1e b3 bf 3d d9 e4 2e bd 44 5b 22 3d
       -0.059896033 0.09360336 -0.042698715 0.03963782
0002b0 35 ac 1b bd 38 80 d0 3c 04 bc 76 3d 0c 85 c7 bd
       -0.038006026 0.025451764 0.0602379 -0.097421736
0002c0 ca cd 01 bd c3 45 07 bc 53 6d 81 3d 21 ff 45 3d
       -0.031690396 -0.008256379 0.0631968 0.048339013
0002d0 5b e8 ef bd 09 56 0c 3d 93 ea d9 3c c3 59 d2 bd
       -0.1171424 0.034261737 0.026601112 -0.10271027
0002e0 94 7a da bd 37 93 90 3c dd a5 f1 bd b8 70 66 bd
       -0.10667911 0.017648323 -0.11799214 -0.05625984
0002f0 0a b0 7d 3d e1 a5 85 bd 77 90 6e 3d 01 3d bc 3d
       0.061935462 -0.065257795 0.05824324 0.09191323
000300 de 8a 4f bc 96 93 a5 3d 7b f3 a0 3d 38 72 1d bd
       -0.012667386 0.080847904 0.0785894 -0.038439006
000310 f7 fc bf bb 31 ba d4 bd bf 32 ac 3d 0f 9c a3 3d
       -0.005859013 -0.10387076 0.084081165 0.0798875
000320 ba be e8 bc d5 0f c0 3c a0 93 be 3d 9f e3 85 3d
       -0.028411258 0.02344505 0.09305501 0.06537556
000330 2c 59 a6 3d d1 af 9d 3d 90 b5 86 bd ab 2c e6 bc
       0.08122477 0.0769955 -0.06577599 -0.028097471
000340 63 e8 6d bc 8a b7 7d bc ee 57 bb 3c 5a 5c 4e bd
       -0.014520737 -0.015485654 0.022869077 -0.050381042
000350 7b 70 8f 3d a4 ac ff bc 37 fb 8f 3d 5e 5c 37 bd
       0.07003876 -0.031210251 0.07030337 -0.044765823
000360 08 b5 ac 3d e1 5e d5 bd a4 58 83 bd b5 2d 52 3d
       0.084329665 -0.10418487 -0.06413391 0.05131312
000370 e3 43 c9 3b ee c7 b9 bd ba 2d 8b bb 4f 7b 6b 3d
       0.006142126 -0.09071337 -0.0042473944 0.057490643
000380 31 43 56 3c ba 99 a7 bd 70 22 29 3d 99 ba f6 3c
       0.013077543 -0.08183618 0.041292608 0.030118274
000390 a7 be e2 b8 35 84 b9 bd 4c 47 66 bd 3b 6d b4 3d
       -0.000108120315 -0.090584196 -0.056220338 0.088098966
0003a0 b1 32 21 bc 68 8f ae 3c 5f 25 ac bd 7a 67 97 bd
       -0.009838746 0.021308616 -0.084055655 -0.073927835
0003b0 2d d0 39 3b f0 c5 87 bc 78 27 e1 bd fc f4 92 3d
       0.0028352842 -0.016573876 -0.10993856 0.07175633
0003c0 81 66 82 3d e0 40 5f bd 65 0e e2 bd 5e 5b fc bd
       0.06367207 -0.05450523 -0.11037902 -0.123221144
0003d0 4b 3a b4 3b 7b e8 42 3c f2 0d 96 bd 7e 0c 09 bd
       0.005500113 0.011896248 -0.073268786 -0.03345918
0003e0 ef 1e 75 3d a1 7b af 3d 75 12 50 bd 0d 55 78 bd
       0.059843954 0.08568502 -0.050798852 -0.060627986
0003f0 13 40 e4 3d f5 cc 82 bd cc b2 38 3d a8 38 ab bc
       0.11145034 -0.06386749 0.04509239 -0.02090104

network.1.weight f4 [512]
000000 8a 64 72 3f 06 60 82 3f 70 b7 88 3f d6 36 7b 3f
       0.9468466 1.0185554 1.0680981 0.9813055
000010 1f a7 7e 3f 42 55 6f 3f ce 0f 75 3f 04 f8 6e 3f
       0.99473757 0.9348947 0.9572724 0.9334719
000020 77 4e 6f 3f 5a 12 80 3f b5 61 86 3f 26 d8 76 3f
       0.934791 1.00056 1.0498568 0.96423566
000030 0e eb 77 3f 5e 76 7d 3f f7 53 82 3f d2 81 75 3f
       0.9684304 0.9900874 1.0181874 0.95901215
000040 53 2f 82 3f f2 2b 75 3f 98 49 86 3f 0e ee 69 3f
       1.0170692 0.9577018 1.0491209 0.9137887
000050 b5 02 92 3f b2 bc 8a 3f 98 12 7a 3f f1 37 68 3f
       1.1407076 1.0838835 0.9768462 0.9071036
000060 21 de 7a 3f e7 b2 92 3f 8c f2 83 3f 18 64 7d 3f
       0.9799519 1.1460847 1.0308394 0.98980856
000070 71 83 84 3f e6 69 75 3f e9 a2 6b 3f e9 3c 83 3f
       1.0352613 0.95864713 0.92045456 1.0252963
000080 51 54 80 3f 41 65 85 3f 07 05 6b 3f 11 52 70 3f
       1.0025731 1.0421525 0.91804546 0.93875223
000090 4c 76 78 3f 65 d2 86 3f d1 3d 87 3f 91 46 78 3f
       0.97055507 1.0532957 1.056574 0.96982676
0000a0 2b 9d 7d 3f 5d e6 6f 3f 29 5c 85 3f 41 57 83 3f
       0.99067944 0.9371088 1.041875 1.0261003
0000b0 fd 4e 80 3f 54 21 78 3f 0d b2 79 3f 4a 89 82 3f
       1.0024105 0.96925855 0.9753731 1.0198147
0000c0 13 5b 7d 3f 0e 19 68 3f b6 e6 66 3f e9 ec 74 3f
       0.98967093 0.9066323 0.90195787 0.95673996
0000d0 f7 e8 5b 3f 1c 4b 80 3f 5e 01 6d 3f a8 ff 77 3f
       0.8590235 1.0022922 0.9258021 0.96874475
0000e0 03 84 79 3f d9 7f 80 3f e1 87 8a 3f 7f d4 84 3f
       0.9746706 1.0039016 1.0822717 1.0377349
0000f0 50 bf 88 3f 42 b7 88 3f 6c 3c 6c 3f 20 71 6f 3f
       1.0683384 1.0680926 0.92279696 0.9353199
000100 eb 83 7e 3f 31 c3 85 3f 1b fc 93 3f 45 94 89 3f
       0.9942004 1.0450193 1.1561311 1.0748373
000110 79 96 89 3f 4f 15 83 3f e0 3b 80 3f 71 eb 74 3f
       1.0749046 1.0240878 1.0018272 0.95671755
000120 64 2b 8b 3f 2c 5b 86 3f 39 66 86 3f c8 99 87 3f
       1.0872617 1.0496573 1.0499946 1.0593805
000130 66 7a 82 3f b7 c6 6f 3f d5 71 7a 3f 20 11 84 3f
       1.0193603 0.9366259 0.97829944 1.0317726
000140 0b f5 69 3f 81 ea 83 3f 19 49 7f 3f 1e e3 86 3f
       0.9138953 1.030594 0.99720913 1.0538061
000150 86 72 82 3f ba 8f 83 3f db ab 70 3f 13 84 68 3f
       1.01912 1.0278237 0.9401223 0.9082653
000160 92 61 90 3f 77 f7 8b 3f 1b 0d 68 3f 3c 94 6b 3f
       1.1279776 1.0934895 0.90645 0.9202306
000170 3c 5f 6b 3f 55 35 6b 3f 57 30 86 3f 74 d4 89 3f
       0.9194219 0.91878253 1.0483502 1.076796
000180 a2 a7 80 3f 65 10 81 3f 4c 26 79 3f a6 ce 7f 3f
       1.0051157 1.0083128 0.9732406 0.99924695
000190 89 ce 87 3f b9 0d 7d 3f f7 b8 71 3f e8 ab 79 3f
       1.0609905 0.98849064 0.9442286 0.97527933
0001a0 98 27 7b 3f c5 05 7f 3f eb d6 7f 3f 07 e0 89 3f
       0.9810729 0.9961818 0.99937314 1.0771493
0001b0 b8 a3 87 3f d9 26 75 3f 3b cf 73 3f c0 9e 82 3f
       1.0596838 0.957624 0.95238084 1.0204697
0001c0 15 9b 7f 3f 6b 5b 85 3f 2c 8a 61 3f fb ba 7c 3f
       0.9984601 1.0418524 0.8810146 0.9872281
0001d0 7f 7a 87 3f 17 3c 7c 3f b5 07 75 3f ef ef 74 3f
       1.0584258 0.9852919 0.95714885 0.9567861
0001e0 1e 6d 88 3f 95 00 72 3f a3 cd 6f 3f d1 e1 6c 3f
       1.06583 0.9453214 0.9367315 0.9253207
0001f0 e0 d9 8a 3f 0f 3d 8b 3f ab fa 7f 3f a5 a6 85 3f
       1.084774 1.0878009 0.99991864 1.0441481
000200 20 88 88 3f e9 1d 74 3f 3a 88 83 3f e8 f6 82 3f
       1.0666542 0.9535814 1.0275948 1.02316
000210 be 53 8d 3f 13 e4 69 3f 70 3e 83 3f 82 2b 7c 3f
       1.1041181 0.9136364 1.025343 0.9850389
000220 4d c6 82 3f 7e 73 8b 3f 9e f2 8a 3f 19 50 6d 3f
       1.0216767 1.089462 1.0855291 0.92700344
000230 39 40 73 3f 3c 52 86 3f 9e 94 71 3f 70 ab 7d 3f
       0.9501987 1.0493846 0.94367397 0.9908972
000240 8f 61 7a 3f 1d e8 8a 3f 0e 33 80 3f 1d c5 76 3f
       0.9780511 1.0852085 1.0015581 0.9639452
000250 29 f7 86 3f 53 a8 7c 3f 56 72 84 3f e6 6d 79 3f
       1.0544177 0.9869434 1.0347393 0.97433317
000260 3e fa 6e 3f ff 0c 7b 3f f5 8e 77 3f ed 24 87 3f
       0.9335059 0.98066705 0.9670251 1.0558144
000270 68 58 82 3f a9 12 76 3f 48 18 76 3f d9 5c 82 3f
       1.018323 0.96122223 0.961308 1.0184585
000280 fe 4e 6f 3f 29 96 82 3f 54 ca 77 3f 74 9b 75 3f
       0.9347991 1.0202075 0.96793103 0.9594033
000290 c1 8d 80 3f 64 cd 84 3f c9 fd 77 3f 81 ba 70 3f
       1.004326 1.037518 0.9687162 0.9403458
0002a0 a8 c3 71 3f b1 32 8a 3f fb f4 80 3f f6 29 86 3f
       0.9443917 1.079672 1.0074762 1.0481555
0002b0 03 88 73 3f 63 0f 70 3f dd ca 8b 3f 96 db 82 3f
       0.9512941 0.9377348 1.0921284 1.0223262
0002c0 dd a6 8c 3f af f5 68 3f 81 77 87 3f e5 7c 6f 3f
       1.0988423 0.90999883 1.0583345 0.9354995
0002d0 67 ad 84 3f a7 91 85 3f e1 11 8d 3f 68 34 6b 3f
       1.0365418 1.0435075 1.1021081 0.9187684
0002e0 83 79 64 3f 09 bd 73 3f b6 82 7e 3f 49 c0 80 3f
       0.8924791 0.9521032 0.994182 1.0058681
0002f0 91 59 84 3f 61 2d 72 3f 60 86 6e 3f 04 21 83 3f
       1.0339833 0.9460049 0.9317379 1.024445
000300 dc 8d 7a 3f be 6d 82 3f 4c 18 81 3f ff a9 7e 3f
       0.9787271 1.0189741 1.008554 0.99478143
000310 be c9 7e 3f b2 86 84 3f 77 70 72 3f 68 a3 8d 3f
       0.99526584 1.0353606 0.9470286 1.1065493
000320 34 10 80 3f 18 c0 81 3f 91 f1 7b 3f 06 51 76 3f
       1.0004945 1.0136747 0.98415476 0.9621738
000330 e9 de 78 3f 0c c6 71 3f 65 a6 80 3f f8 3c 70 3f
       0.97215134 0.9444282 1.005078 0.9384303
000340 87 1f 83 3f 79 aa 80 3f cd 16 76 3f ea 3d 86 3f
       1.0243996 1.0052024 0.9612854 1.0487645
000350 32 2d 70 3f 7f 7d 8b 3f 72 ff 86 3f ef 6f 84 3f
       0.9381896 1.0897673 1.0546706 1.034666
000360 3a 39 86 3f ee c7 76 3f c1 6c 80 3f 98 f7 80 3f
       1.0486214 0.9639882 1.0033189 1.007556
000370 4e 23 7a 3f c7 fc 7f 3f 16 a4 7e 3f 1b e8 71 3f
       0.9771012 0.9999508 0.99469125 0.9449479
000380 6c 68 84 3f 10 14 5f 3f b5 b8 67 3f 2b 07 87 3f
       1.0344367 0.8713999 0.90516216 1.0549062
000390 52 6f 6e 3f 18 a9 83 3f 9e 85 85 3f 4f c6 6d 3f
       0.9313861 1.0285978 1.0431402 0.9288072
0003a0 4a 68 82 3f 58 15 7c 3f f1 41 89 3f 3e 23 85 3f
       1.0188076 0.9847007 1.0723249 1.040138
0003b0 9c 6f 7a 3f 90 ca 6c 3f 75 c8 82 3f f8 66 6c 3f
       0.9782655 0.92496586 1.0217425 0.9234462
0003c0 8b 6c 80 3f f6 72 8a 3f ea cf 78 3f 1e fb 86 3f
       1.0033125 1.0816333 0.9719225 1.0545385
0003d0 a3 dc 83 3f c0 8b 84 3f 24 3c 7d 3f da e5 80 3f
       1.0301708 1.0355148 0.9891989 1.0070145
0003e0 9c 51 8e 3f 3b 23 80 3f 33 2e 80 3f 68 c7 6e 3f
       1.1118655 1.0010751 1.0014099 0.9327302
0003f0 aa 5d 86 3f 36 7d 79 3f 9a 41 87 3f 2e 36 85 3f
       1.0497334 0.9745668 1.0566895 1.0407159

network.1.bias f4 [512]
000000 a1 2d f2 bd e3 bb 4b bd fa f0 3f 3d 66 73 0b bd
       -0.11825109 -0.04973973 0.046860673 -0.0340456
000010 67 3d 57 3d 29 ce 73 bd 1a ef b9 3b de 2b 8a bd
       0.052548792 -0.05952278 0.005674255 -0.06746648
000020 c6 6c e2 bd ee 20 2f bc 21 ac b9 3c d3 ed 16 bd
       -0.11055903 -0.010689003 0.022665085 -0.0368479
000030 a2 26 85 bc d1 45 0c 3d 0b 92 ec 3c ff d6 36 bd
       -0.016253773 0.03424627 0.028878232 -0.04463863
000040 f3 2b 21 3a 0e 6f ca bd a8 59 40 3d 99 df 88 3c
       0.00061482115 -0.09884463 0.046960503 0.016708182
000050 53 b4 dd 3d 13 a6 17 bc 7e d7 73 3c 41 72 73 bd
       0.1082541 -0.009255904 0.01488292 -0.059435133
000060 17 42 d5 3b 86 85 bb 3d cf cf c6 3c f7 f8 21 bd
       0.0065081227 0.09156327 0.024269013 -0.039544072
000070 d6 aa 56 3d 8c 0d 05 bd fd a5 ce bd ff 6b df 3d
       0.052409016 -0.032483622 -0.100902535 0.109092705
000080 0c 0a 29 bd dc b5 b4 bb 41 ef 86 3d 1b 48 28 bd
       -0.041269347 -0.0055148434 0.06588603 -0.04108439
000090 dc d8 96 3d 34 e8 7a 3c e5 1f 81 3b 90 eb 84 bd
       0.073655814 0.015314151 0.0039405697 -0.064902425
0000a0 db e5 0c be 07 fb 3c bd 42 67 b6 3d 31 b0 39 3d
       -0.13759558 -0.046137836 0.089064136 0.045334045
0000b0 f2 d1 04 bc 57 af 40 bc 60 ac 5f bc 62 d8 62 bd
       -0.0081066955 -0.011760554 -0.013651937 -0.05538214
0000c0 56 59 6b bd 82 8d ff bd 6f 37 3f bd c2 09 8a bd
       -0.057458244 -0.12478162 -0.046683725 -0.067401424
0000d0 12 41 76 bd 79 4e 54 bc 70 4c c1 bd 7f 37 c6 bd
       -0.06012065 -0.012958162 -0.094384074 -0.09678554
0000e0 9a 1a ec 3c d4 32 95 bc f0 f5 82 3d 2c 89 51 3d
       0.028821278 -0.018212713 0.06394565 0.051156208
0000f0 c0 84 c6 bc c5 45 ef b9 1a 8f 9c bd ae 3e 90 bd
       -0.024233222 -0.00045637615 -0.07644482 -0.07043205
000100 c2 c1 29 bd 61 6b 18 3d 97 fb 62 3d 8a eb b7 3d
       -0.041444547 0.03721178 0.055415716 0.089804724
000110 2e 3e 22 3c 94 6c 94 bc 6d 69 90 bc 9f b7 96 bc
       0.00990252 -0.01811818 -0.017628396 -0.018398104
000120 82 bf 8d 3d df 14 bf 3d a3 50 9e 3d 36 3f fc 3b
       0.06921293 0.09330153 0.07730224 0.007697965
000130 95 b5 bf bc 1e 86 f0 bd 0f 57 07 bd 98 be 4f bd
       -0.023402015 -0.11744331 -0.03304201 -0.050718874
000140 df 7c 9c bd 3c 49 52 bd 61 df fb 3c 32 87 51 3c
       -0.07641005 -0.051339373 0.030746164 0.012788581
000150 c3 4a 22 3d 15 47 06 be b8 bc e4 bc ef a4 84 3c
       0.03962208 -0.13113053 -0.02792202 0.016191928
000160 59 bc cc 3d e3 12 84 3d 19 0d c7 bd 76 e1 29 bb
       0.09996862 0.06448915 -0.09719295 -0.0025921739
000170 6d 62 b4 bd d8 96 b0 bd 7a 17 40 3d 0e 74 05 3d
       -0.08807836 -0.08622521 0.04689739 0.03258138
000180 69 25 b3 bd c4 b6 1e 3d 93 70 c0 bd 19 bd ac bc
       -0.0874737 0.038748518 -0.09396472 -0.021086263
000190 5a e3 18 bc 2a 14 c6 bd eb 86 fc bc 42 d8 b2 bd
       -0.009331549 -0.09671815 -0.030826053 -0.08732654
0001a0 71 b5 af 3d 90 41 29 3d 3e 78 e8 39 d3 b1 dc 3c
       0.08579529 0.04132229 0.00044340076 0.026940262
0001b0 da 9c ab 3d fe ab a2 3c 1d 65 c4 3c 95 94 58 3d
       0.083795264 0.019857403 0.023973996 0.052876074
0001c0 b2 30 a4 3b b1 28 7d 3d e8 c9 eb bd fc c3 63 bc
       0.0050106877 0.061806384 -0.1151312 -0.013901707
0001d0 b2 03 59 3c 69 94 77 bd b3 98 2e bd d6 d0 4c ba
       0.01324551 -0.06044427 -0.042626094 -0.00078131014
0001e0 4c 6c 3e 3c e4 44 bd bd ea c9 74 bc fa 2c 96 bd
       0.0116225 -0.092416555 -0.014940718 -0.07332797
0001f0 fd 0e 7f 3d 3f e6 78 3d 52 05 d8 bc e2 ba c9 bc
       0.062270153 0.060766455 -0.026369724 -0.024625245
000200 ff ea 32 3d 13 7a 91 bc 00 ff b0 3c e6 da e7 bc
       0.04368114 -0.017758405 0.021605968 -0.028302621
000210 2c 8a b1 3c 52 c9 96 bd cd 69 3e 3d 76 fb 74 bd
       0.02167233 -0.073626176 0.04648762 -0.059810124
000220 f9 8a dd 3c c3 66 1a 3d 9f 2b ad bc ff 83 1d 3c
       0.027043806 0.037695657 -0.021138964 0.00961399
000230 1c bc 7d 3c b8 5f e5 3d b6 25 80 bd 74 b8 b0 bd
       0.015486743 0.111998975 -0.06257193 -0.08628932
000240 9e e6 92 bd 96 ce 78 3d 7b 2b 05 3c 87 c1 c4 bd
       -0.07172893 0.06074389 0.008128042 -0.09607225
000250 b1 5c ab 3c 63 13 21 3d bd d6 c4 bc ec f0 72 bd
       0.020918222 0.03932513 -0.024028176 -0.059311792
000260 21 56 9e bd 02 2d 3a bd f5 26 71 bd b0 30 12 bd
       -0.077312715 -0.04545308 -0.058875043 -0.035690963
000270 2f ce bb bd 2e e1 be bb 4d 4a 73 bd 04 72 af 3c
       -0.09170186 -0.0058251834 -0.05939703 0.021416672
000280 14 01 70 bd 35 0b 7a bd ac b6 ab ba 34 bd 41 3c
       -0.05859478 -0.061045844 -0.0013100705 0.011824895
000290 6c 0e 75 bc 6f 54 e6 3c 7c 07 96 bc 61 f9 91 bd
       -0.014957052 0.028116433 -0.018314116 -0.071276434
0002a0 a5 5e 0e bd 34 14 05 3e a3 c5 1c 3c 22 f2 13 3d
       -0.03475823 0.12995988 0.009568605 0.036119588
0002b0 be 3d bb 3c f5 6e 83 bd ec f4 cb 3c fb b6 8c 3d
       0.02285659 -0.06417648 0.024897061 0.06870838
0002c0 ae c2 a7 3d 70 b3 be bd 24 2f 60 bd 9a 71 35 3c
       0.08191429 -0.09311569 -0.054732457 0.011074448
0002d0 9d 46 49 bb 17 4f f3 3c 44 3a fe 3c cf bc cf bd
       -0.0030712255 0.029700799 0.031033643 -0.10143434
0002e0 c1 f8 c2 bd 7c 9f 6e bd 26 6b 6f bd 35 05 0e 3d
       -0.09520102 -0.058257565 -0.058451794 0.034672935
0002f0 5d c5 a5 3c a8 52 ac bd 8d 20 88 bd 0b e8 67 3d
       0.020235712 -0.08414203 -0.066468336 0.056617778
000300 d3 29 9f bc 1f 2f aa bc f8 fc 6f bd 89 7e 80 bd
       -0.019429123 -0.020774422 -0.05859086 -0.06274135
000310 97 99 89 bd 00 8e 34 3b 30 6a 89 bd d0 88 86 3d
       -0.06718748 0.002755046 -0.06709707 0.06569064
000320 6a 45 7a 3d b6 98 3e bd 97 74 65 bd 8a 7f b7 bc
       0.061101355 -0.046532355 -0.056019392 -0.022399683
000330 dc e7 1e bd bf 37 09 bd 72 47 bd bb a8 1d 3d bd
       -0.038795337 -0.03350043 -0.005776339 -0.04617086
000340 09 d6 0f 3d 56 44 73 3d 07 87 95 bd db 03 e1 3b
       0.03511623 0.059391342 -0.07301145 0.0068669147
000350 17 8d 5c bd a0 d0 c4 3c b1 8a 44 3d a3 19 de 3b
       -0.05384549 0.024025261 0.04798383 0.0067779585
000360 1b 5a 77 3d 20 5f ff bc 5a 4f 99 3d a7 de 6a 3d
       0.060388666 -0.031173289 0.07485838 0.057341244
000370 0e b8 a4 bd 8c 47 a4 3c 16 c0 bc 3c 59 8d 38 bc
       -0.08042918 0.020053647 0.023040812 -0.011264169
000380 92 7c 86 3d 7c 09 15 be d3 43 45 bd a4 8a 5a bd
       0.06566729 -0.14554399 -0.048160385 -0.053354874
000390 8c 3d c1 bd bb 7a 2c 3d 4f fe 61 bb de 4a 97 bd
       -0.09435567 0.042109232 -0.0034483855 -0.07387327
0003a0 09 db f0 bb e8 6a 0a 3c 38 87 81 3c e5 ec 37 bd
       -0.00735033 0.00844834 0.015811548 -0.044903655
0003b0 ff 40 5c bd 03 72 d7 bc 7a d2 47 bd 7d 27 bf bd
       -0.053772923 -0.026299482 -0.04878471 -0.09333704
0003c0 c1 f7 cb bd 4f 34 2a 3d 39 b8 69 bd 71 95 4e bd
       -0.09959365 0.04155379 -0.057060454 -0.050435487
0003d0 0e 43 0f 3d 98 d2 a0 3a 98 98 2d 3d 1e 1c ac bc
       0.034976058 0.0012269793 0.042381853 -0.021009501
0003e0 69 52 4e 3c d8 f7 da 3c 6b af e5 bc fc 29 a7 bd
       0.01259289 0.02672951 -0.028037747 -0.08162305
0003f0 00 ff 84 3d 16 af 53 3d 84 3d 06 3d 14 c2 97 3d
       0.0649395 0.051680647 0.03277351 0.07410064

network.1.running_mean f4 [512]
000000 ca c8 1b 3e f9 b6 36 be 0a b0 76 bd 36 1f 39 bd
       0.15213314 -0.17843236 -0.060226478 -0.04519578
000010 05 20 90 bd ef b0 de 3c 02 13 9b bb 32 9d 26 be
       -0.07037357 0.027183978 -0.0047324905 -0.16270903
000020 16 a4 2c be 48 6e c6 3c 2c f4 72 3d 64 02 fa 3d
       -0.16859469 0.024222508 0.05931489 0.12207487
000030 ed 39 ac 3c 5e 57 51 bd 4d 73 83 bd 99 48 34 3b
       0.021023715 -0.05110871 -0.06418476 0.0027509092
000040 cc 83 ac 3a 06 aa 34 bd fa de 16 bc 16 42 30 3e
       0.0013161837 -0.04410746 -0.009208435 0.1721271
000050 3b 10 af bd 8b 4d 50 3d 72 4c 80 bd e1 86 14 bd
       -0.085480176 0.0508552 -0.06264581 -0.036261443
000060 06 89 ef bc 02 04 03 3e 86 ab 1b 3e 61 6d 23 3e
       -0.029240143 0.12794498 0.1520215 0.15959693
000070 7e 48 2a bd ae c4 02 bd b3 cf d1 3c b6 1f 33 3e
       -0.04157304 -0.03192585 0.025611734 0.17492566
000080 47 54 7b be 3b cb f1 bd 82 d1 3a be b0 ad f0 bc
       -0.24543868 -0.11806341 -0.18243983 -0.029379696
000090 df c1 ed bc 03 60 5c bd fc 86 58 bd cc ee d8 bd
       -0.029023109 -0.0538025 -0.052863106 -0.10592422
0000a0 87 f3 ab bd cf 25 54 be 99 f9 f9 3d 4c 9e e9 bd
       -0.083960585 -0.20717548 0.1220581 -0.11407146
0000b0 0e 8b 02 bd f2 7d eb 3d d6 67 11 be 69 79 e7 bc
       -0.031870894 0.114986315 -0.14199767 -0.028256135
0000c0 56 b1 05 3e e7 e9 a2 bd 8a 5e 0a bd 66 79 8c 3d
       0.1305593 -0.079547696 -0.033781566 0.068590924
0000d0 29 ba 07 bc 92 17 8c bd 99 6b ec 3d 5e 46 e1 bd
       -0.00828413 -0.06840433 0.1154396 -0.109997496
0000e0 12 9f 94 bc a4 23 b3 3d dc a0 42 3e 1c f4 d1 3d
       -0.018142257 0.08747032 0.19006675 0.10251638
0000f0 1d 76 90 bb c3 a9 42 3e a3 64 59 3d 74 07 11 3d
       -0.0044086115 0.19010071 0.05307449 0.0354075
000100 b4 58 be bc bd 81 34 be cc 1c e2 3d de 7b 3b be
       -0.023235656 -0.17627616 0.11040649 -0.1830897
000110 b5 17 4a 3d 1c 6a ad bd e0 2e 1f be ad cd 97 bd
       0.049339015 -0.084675044 -0.15545225 -0.074122764
000120 a9 29 af 3d cf dc 14 3d ed f2 8a bd 23 6a e3 3d
       0.08552868 0.036343392 -0.06784616 0.11104228
000130 fb d4 c3 bc 96 32 98 bd 85 f8 19 3e 22 83 fc 3d
       -0.023905268 -0.074315235 0.15036209 0.12329699
000140 61 5d fd 3d 6b e2 1a be 0e 2a 51 3c d3 a6 15 be
       0.12371326 -0.15125434 0.012766374 -0.1461442
000150 ab dd da 3c 3c 7f c9 3d 54 5e 99 3c 88 fe 07 3e
       0.026717028 0.09838721 0.018721737 0.1328069
000160 4c e4 44 bd 56 58 5c 3e 69 61 5c 3d ef 37 a6 bd
       -0.048069283 0.21518072 0.053803835 -0.08116137
000170 8b a0 24 be d6 11 21 3d 70 25 ef 3c af e6 6d be
       -0.16076867 0.03932365 0.029192656 -0.2323253
000180 2c af db bd 77 d2 01 3d 0c c0 3f 3e 98 4c e0 3d
       -0.10726771 0.031694856 0.18725604 0.10952109
000190 62 55 2c be 36 c5 85 bc 17 9c 36 3e 56 2f cf bd
       -0.16829446 -0.016329389 0.17832981 -0.101164505
0001a0 0b 6a 6f 3d 98 33 4f be 38 3c 40 3d ed d7 1c be
       0.05845074 -0.20234525 0.04693243 -0.15316744
0001b0 74 ff e4 bd 90 b8 4b 3e 63 ce ec bc ea d6 51 bd
       -0.11181536 0.19894624 -0.028907007 -0.05123035
0001c0 9e b3 61 bd 42 14 c2 3d 8c 1c 2e 3d 1c 28 e0 3d
       -0.055102937 0.0947652 0.042507693 0.1094515
0001d0 ef 3e a2 bd 47 58 6c bd 6e 28 2a be 55 31 39 be
       -0.0792216 -0.057701375 -0.16616985 -0.18085225
0001e0 22 46 9e bc 59 22 1d bc 70 64 af 3d b9 7e d1 bd
       -0.019320551 -0.009590709 0.08564079 -0.102292486
0001f0 48 c0 38 3e d1 0d 2e 3d 5a 52 91 bd 98 6a ee bd
       0.180421 0.042493645 -0.070957854 -0.11641425
000200 29 6e 04 be 57 02 f9 bd c6 6e ab bd 88 68 4c 3e
       -0.12932648 -0.121586494 -0.08370738 0.1996175
000210 b0 6d e9 bb fe eb 04 be 83 21 b3 bd 22 00 63 3d
       -0.0071236715 -0.12980649 -0.08746626 0.05542005
000220 ba c9 54 bc b4 91 45 be f3 99 27 3e 4b 91 83 3c
       -0.0129875485 -0.19293863 0.1636732 0.016060492
000230 ea 53 ac bd 0c e7 c3 3c 60 2d 54 be 93 d2 05 bd
       -0.08414443 0.023913883 -0.20720434 -0.032671522
000240 84 01 26 bd 4a e8 3c be 60 a2 35 3e 0e d6 03 be
       -0.04052879 -0.18447986 0.17737722 -0.12874624
000250 a1 83 c5 3d 14 a9 3a be b0 39 11 3e e3 4c 50 be
       0.09644247 -0.1822856 0.14182162 -0.2034183
000260 36 90 16 ba f5 70 ca bd a9 87 48 be be a0 11 be
       -0.0005743535 -0.09884826 -0.19583 -0.14221475
000270 93 ae 3a bc 66 a1 ca 3d 45 67 05 3e 1c 4d 17 be
       -0.011394161 0.098940656 0.13027675 -0.14775509
000280 4e 8b e8 3d de 9f 99 bb b8 45 32 3d 4a a9 08 be
       0.11354695 -0.004688247 0.04352352 -0.13345829
000290 e5 ba c7 3d 04 2b 79 3d 80 2e 30 be 5d 5e 86 3c
       0.09752444 0.06083204 -0.17205238 0.016402418
0002a0 94 f1 2a bd 50 24 3c 3d 77 4b 14 bd 0a e4 ae bc
       -0.041734293 0.045933068 -0.03620478 -0.021348972
0002b0 2e 5c b4 bd 74 a9 0a be 51 dd 51 3d 93 fe bb bd
       -0.088066444 -0.13541204 0.051236454 -0.091794156
0002c0 71 06 1f bd ff 86 bb bd cf 34 15 3e 02 89 7d bc
       -0.038824502 -0.09156608 0.14570926 -0.01547456
0002d0 a1 62 06 be 65 7c 1f 3d 50 bd 4a bc 9f 6c c4 bd
       -0.13123561 0.03893699 -0.012374237 -0.0959103
0002e0 b5 8d 1d 3d 8e 93 fc 3d 10 90 75 be 8c 65 3d be
       0.03846522 0.12332831 -0.23980737 -0.18495768
0002f0 25 a8 1e 3d 32 ce 5c bd 5a 94 cb 3d 94 01 2a 3e
       0.038734574 -0.05390758 0.09940405 0.16602165
000300 3d 12 6b bd cf b0 4d 3e a4 6d 3d 3d be d7 78 bd
       -0.05739044 0.20086978 0.04624714 -0.060752623
000310 5a 40 c9 bd c4 8c c2 bd b7 f5 56 bd 66 4a 8d bd
       -0.09826727 -0.09499505 -0.052480426 -0.06898956
000320 b0 b3 56 bd 7e 71 0e bd 2e bf af 3c 62 66 18 3d
       -0.052417457 -0.034776203 0.021453466 0.037207015
000330 b8 6d 86 3d ee 84 14 bd b7 c8 cd bd 34 16 64 bc
       0.06563896 -0.036259584 -0.10048049 -0.013921309
000340 96 2b 7c bd a6 e9 e8 bc fa db 51 3c 4a 38 5c bd
       -0.061565004 -0.028431725 0.012808794 -0.05376462
000350 98 81 23 3e 4c a9 b7 bb 31 37 df 3d 62 a6 dd bd
       0.15967405 -0.0056048986 0.10899199 -0.10822751
000360 c1 f3 13 3e 4e 8e f8 bd c5 00 f8 3c f8 5a 5c bc
       0.14448453 -0.121365175 0.030273804 -0.013449423
000370 40 f9 95 bd 65 da 2a be 4c c9 7f bd 4e 51 3a 3e
       -0.07322931 -0.16684873 -0.06244783 0.18195078
000380 67 79 f4 bd e8 0d 75 bd 4f 77 0e 3d 2a b2 fc 3a
       -0.11937218 -0.059827715 0.03478175 0.0019279171
000390 4a ce df 3b 07 de 5a bd 19 c8 43 bd a8 8b a1 3d
       0.0068300115 -0.053434398 -0.04779825 0.078879654
0003a0 f9 d6 13 be 14 cb 53 3e d0 de 3e bd b0 92 04 be
       -0.14437474 0.20682937 -0.04659921 -0.12946582
0003b0 14 b9 af bd a8 6a 04 3e a0 27 20 bd f5 15 38 3e
       -0.08580223 0.12931311 -0.03910029 0.17977126
0003c0 e5 53 ab bd a8 07 93 3a fa fa 06 3d 88 31 9e bd
       -0.08365611 0.0011217492 0.032954194 -0.07724291
0003d0 74 fc 4b 3c 32 40 91 3d 70 10 15 be e1 f9 ea bd
       0.012450326 0.070923224 -0.14557052 -0.11473442
0003e0 60 18 7a 3d 47 5a f5 3d ff ba ce 3d d3 7f 7d bd
       0.061058402 0.1198011 0.100942604 -0.06188948
0003f0 27 34 09 3e 00 20 90 bd 01 73 c2 3b 8a e7 4e 3d
       0.13398801 -0.070373535 0.0059341197 0.05051378

network.1.running_var f4 [512]
000000 cb a4 0b 3f 02 30 1b 3f ae b1 45 3f e2 13 11 3f
       0.5454833 0.6062013 0.7722424 0.56670964
000010 10 5f 60 3f 9e 15 0b 3f 33 68 1d 3f 11 cd 03 3f
       0.87645054 0.5432986 0.6148712 0.5148478
000020 e7 98 2d 3f 22 a6 d8 3e ab 1d 3b 3f b0 7d 20 3f
       0.67811435 0.4231425 0.73092145 0.62691784
000030 7c 34 1a 3f 7a e7 15 3f 7e 1f d2 3e f4 5e 03 3f
       0.60236335 0.5855633 0.41039652 0.5131676
000040 65 2d fd 3e 52 e8 e0 3e 26 12 f4 3e be a8 f2 3e
       0.49448696 0.43927246 0.47670096 0.47394365
000050 12 7d 13 3f c4 07 0f 3f 6a 04 38 3f 5f 96 ea 3e
       0.5761272 0.55871224 0.71881735 0.4581785
000060 57 ca 3b 3f e3 dd 00 3f 2b 43 d3 3e 32 a3 0b 3f
       0.7335562 0.5033857 0.41262183 0.5454589
000070 4b bd 49 3f e0 d8 19 3f 51 91 ea 3e 18 64 19 3f
       0.78804463 0.6009655 0.45813993 0.59918356
000080 1b d8 06 3f 19 73 ed 3e 6d 04 15 3f 0e 59 07 3f
       0.526735 0.46376875 0.5820988 0.5287026
000090 e0 72 30 3f b5 4e f9 3e 39 f4 27 3f 52 9d 4d 3f
       0.68925285 0.4869286 0.6560703 0.80318177
0000a0 fb 89 32 3f 70 42 1f 3f a5 54 01 3f 33 04 1c 3f
       0.6974179 0.6221075 0.5051978 0.6094391
0000b0 50 3c f9 3e 38 6d 58 3f f1 da 25 3f 03 f0 08 3f
       0.48678827 0.84541655 0.64787203 0.5349123
0000c0 18 83 29 3f e0 f9 2a 3f 61 bc 28 3f f0 7e e5 3e
       0.6621566 0.6678753 0.65912443 0.44823408
0000d0 60 87 28 3f c1 30 3c 3f 90 03 2c 3f 88 97 f7 3e
       0.65831566 0.7351189 0.67192936 0.48357797
0000e0 2a 04 ef 3e b1 98 01 3f a7 56 3e 3f a4 32 19 3f
       0.46682864 0.50623614 0.7435097 0.59842896
0000f0 bf e3 2c 3f 43 e0 12 3f 35 f1 11 3f a2 af 1a 3f
       0.6753501 0.57373446 0.5700868 0.60424244
000100 bf 3f 43 3f 74 e2 5e 3f 97 99 f8 3e 0c 21 2f 3f
       0.76269144 0.8706429 0.4855468 0.684098
000110 14 6c ea 3e 32 fb 0a 3f 6c 9d fc 3e 02 d2 04 3f
       0.45785582 0.54289544 0.49338853 0.51882946
000120 9a cf 08 3f d9 f4 0a 3f 6a f4 0d 3f c2 a4 3f 3f
       0.53441775 0.5427986 0.5545107 0.74860775
000130 f8 c4 d0 3e cf 0f eb 3e 95 6a 0f 3f f3 5a 33 3f
       0.40775275 0.45910498 0.56022006 0.7006065
000140 76 db 0f 3f 2a cb f6 3e 95 74 3b 3f ff e5 01 3f
       0.56194246 0.48201877 0.73224765 0.5074157
000150 f1 0a 50 3f e3 ed 27 3f 2e 8c fd 3e f6 02 3c 3f
       0.81266695 0.6559736 0.4952101 0.7344202
000160 aa b1 fb 3e bd dd 13 3f 3d 72 ff 3e 37 18 33 3f
       0.49158984 0.5776022 0.49891844 0.69958824
000170 65 38 31 3f ba d4 55 3f 3a 3f 50 3f 15 1f e1 3e
       0.69226676 0.8352772 0.81346476 0.43969026
000180 a8 bf 7e 3f 71 85 da 3e 17 49 03 3f 2f 8a 17 3f
       0.99511194 0.42679933 0.512834 0.59195226
000190 1e bb f3 3e ea be fe 3e 1d d6 2e 3f 3f b3 fd 3e
       0.47603697 0.4975503 0.6829546 0.49550816
0001a0 f0 cc e4 3e 3c 76 17 3f 69 5a 1b 3f b4 f0 3e 3f
       0.44687605 0.59164786 0.6068483 0.74586034
0001b0 c0 a3 2f 3f 5c f8 49 3f d0 9b 0e 3f db d6 1c 3f
       0.6860924 0.7889459 0.557065 0.61265343
0001c0 96 83 09 3f 53 f9 42 3f f6 c9 07 3f e9 6a 29 3f
       0.5371641 0.7616169 0.5304254 0.66178757
0001d0 95 ab 1b 3f 86 d4 07 3f 1d 5c 28 3f 39 d7 17 3f
       0.6080869 0.5305866 0.65765554 0.5931278
0001e0 ab 8c 17 3f 94 7e e9 3e 32 a2 4b 3f 28 82 20 3f
       0.5919902 0.45604384 0.79544365 0.626986
0001f0 ae 14 07 3f c5 47 14 3f 1a 00 18 3f e3 8c fc 3e
       0.5276593 0.5792201 0.59375155 0.49326238
000200 cd dd 45 3f 98 1a dd 3e fd e5 fe 3e 52 24 fb 3e
       0.77291566 0.43184352 0.49784842 0.49051148
000210 48 90 f1 3e 40 c6 1b 3f 5c b6 20 3f a7 a5 d3 3e
       0.4718039 0.6084938 0.6277826 0.4133732
000220 43 a3 18 3f ba e5 22 3f 8a 76 27 3f 47 9d 3a 3f
       0.5962412 0.63631785 0.6541525 0.72896236
000230 2d 3c ff 3e 0e ca 3f 3f 66 31 c7 3e bb fa 06 3f
       0.49850598 0.74917686 0.38904876 0.52726334
000240 2a ed 0a 3f ad c2 08 3f 08 ca 4d 3f f9 85 07 3f
       0.54268134 0.5342205 0.803864 0.529388
000250 19 1d 24 3f 4d 55 db 3e fa 7f 57 3f 80 f6 5a 3f
       0.641069 0.42838517 0.8417965 0.8553238
000260 e9 2b f3 3e 63 f8 f2 3e ee 76 2e 3f 3e 53 13 3f
       0.47494438 0.4745513 0.6815022 0.5754889
000270 a6 fc 52 3f a8 10 3a 3f 9f bd 25 3f 8d e4 0d 3f
       0.8241676 0.72681665 0.64742464 0.55426866
000280 95 1c 2e 3f 09 eb 0d 3f 76 e8 02 3f 32 19 0c 3f
       0.6801236 0.5543676 0.5113596 0.54725945
000290 26 3e 08 3f e6 33 49 3f e1 3d 26 3f d5 41 bc 3e
       0.5321983 0.78594816 0.6493817 0.36768976
0002a0 bf bc 0f 3f 69 0e 2d 3f ff 5a 1e 3f 5a 3c 3d 3f
       0.5614738 0.67600113 0.618576 0.73920214
0002b0 43 1a 15 3f a3 d2 3e 3f ce 6b 17 3f 7d 7c 30 3f
       0.582432 0.74540156 0.5914887 0.68939954
0002c0 8b 30 10 3f 2f da fa 3e 64 bc 02 3f 08 ca 74 3f
       0.5632407 0.48994586 0.5106871 0.95620775
0002d0 e6 bb 3a 3f ba 76 20 3f 4c 16 00 3f 7f 29 7a 3f
       0.7294296 0.6268116 0.5003402 0.9771957
0002e0 87 b9 26 3f 0b b9 63 3f cf 1c 23 3f 4b 35 3f 3f
       0.6512684 0.8895423 0.63715833 0.74690694
0002f0 01 1c 27 3f 92 10 01 3f ab bd ec 3e 92 d3 33 3f
       0.65277106 0.5041591 0.46238455 0.70244706
000300 20 73 16 3f 9a 42 0f 3f b5 20 e7 3e 28 8d 40 3f
       0.58769417 0.55961 0.4514214 0.7521539
000310 9e f4 f9 3e 79 3c 00 3f 13 67 25 3f 2d 37 31 3f
       0.4881944 0.50092274 0.64610404 0.69224817
000320 79 d2 1b 3f bd 9f c9 3e 8d d9 35 3f cb 52 05 3f
       0.6086803 0.39379683 0.7103508 0.5207946
000330 ca 7a 05 3f d9 9a 2c 3f c3 96 36 3f 6e c7 27 3f
       0.52140486 0.6742378 0.71323794 0.6553868
000340 09 e0 37 3f a9 7e 21 3f 89 10 2c 3f 02 b2 32 3f
       0.71826226 0.63083893 0.6721273 0.6980287
000350 58 f9 09 3f ec a3 2c 3f 1f ea 73 3f 61 3a 01 3f
       0.53896093 0.67437625 0.95279115 0.50479704
000360 7c b1 01 3f c6 30 1b 3f ce c2 00 3f 1c 29 41 3f
       0.50661445 0.606213 0.5029725 0.7545335
000370 b3 8f 3b 3f 7a 0b e4 3e 2e d5 30 3f 22 53 1a 3f
       0.7326614 0.44540006 0.69075286 0.602831
000380 d7 4f 0f 3f fe fb 85 3f ae fe 16 3f 3c 50 33 3f
       0.559812 1.0467527 0.5898236 0.700443
000390 01 35 28 3f c6 00 f6 3e 92 ce 18 3f 98 58 29 3f
       0.6570588 0.48047465 0.596902 0.6615081
0003a0 a3 7d fb 3e 52 56 06 3f 80 d6 10 3f dc 38 07 3f
       0.4911929 0.52475464 0.565773 0.52821136
0003b0 40 e5 39 3f ad 60 20 3f 19 86 04 3f 71 f5 2e 3f
       0.7261543 0.62647516 0.51767117 0.68343264
0003c0 84 fe a4 3f f8 15 08 3f ec e1 1d 3f 65 81 b4 3e
       1.2890172 0.5315852 0.61672854 0.3525497
0003d0 e5 f2 17 3f f6 e4 16 3f c9 2f 10 3f 5d 8a 82 3f
       0.59355 0.58943117 0.56322914 1.0198475
0003e0 0d 98 08 3f 63 e8 24 3f dd ef 3c 3f e8 1c e3 3e
       0.5335701 0.64417094 0.738035 0.4435799
0003f0 70 4b 04 3f a9 9c e2 3e 25 8b f7 3e 7b 71 2f 3f
       0.5167761 0.44260147 0.48348346 0.6853253

network.4.weight f4 [256, 512]
000000 15 bf 1d bd 94 78 2a bb f3 07 6b 3d f8 22 99 bd
       -0.03851231 -0.0026011812 0.057380628 -0.07477373
000010 51 5e 02 3c b7 23 be ba 49 26 de bb 40 1b a6 bd
       0.007957057 -0.0014506493 -0.0067794663 -0.08110666
000020 37 f1 5f 3d 9d dc 54 3c 9d b6 0f bd b9 0c 2c 3d
       0.0546734 0.012992051 -0.035086263 0.04200432
000030 76 40 53 bd ce 39 06 3d 3f 77 7d bd 0b 86 55 3d
       -0.051575147 0.03276997 -0.0618813 0.052129786
000040 2d 72 89 3d 91 49 94 3d 94 67 a0 bc 28 d7 5d bd
       0.067112304 0.07240594 -0.01958064 -0.054160267
000050 76 ef f6 3d b8 f5 83 3d c8 9f 7e 3c 6f 44 dc bd
       0.12057392 0.064433515 0.0155410245 -0.1075524
000060 6c 84 84 bd 34 1b af bc 02 92 b0 bd 12 e2 84 3d
       -0.0647057 -0.021375276 -0.08621599 0.06488432
000070 2c 45 64 bd f3 43 0a bc b0 c8 8b 3c 54 d6 ff 3d
       -0.05573003 -0.008439052 0.017063469 0.12492052
000080 ba d4 b8 3b b5 d9 98 bd 57 c4 3c bd 33 46 21 bb
       0.0056405934 -0.07463399 -0.04608568 -0.0024608492
000090 b0 92 44 bd 8a 52 f9 bc 25 4d 75 bd fd 92 b2 3c
       -0.047991455 -0.030434866 -0.059888024 0.021798605
0000a0 10 03 e9 3b 3c 34 b1 bd fb 40 dc 3d 16 ce ac 3d
       0.007110961 -0.08652541 0.107545815 0.08437745
0000b0 3d 95 ef bd ed 78 45 bd 42 e0 96 3c b7 d2 32 3d
       -0.11698387 -0.048211027 0.018417481 0.043657985
0000c0 1d ba 41 3d 9f 43 90 bd 1a 63 3f 3d 7a d2 5c bd
       0.047296632 -0.07044148 0.04672537 -0.053911664
0000d0 20 cb 01 bd a5 0c 40 3d 68 16 34 3d 79 64 ac bc
       -0.031687856 0.04688706 0.04396668 -0.021044003
0000e0 a8 af 20 bd de 37 35 bc d6 d7 d8 bc 21 7a 91 3d
       -0.03923002 -0.011060683 -0.026470106 0.07103372
0000f0 f5 26 aa 3d e0 2a f7 ba 9d f1 99 3c 7d 97 ef 3c
       0.08308212 -0.0018857382 0.018791968 0.02924704
000100 ac 0a 96 3d 7e 1b 0a bd 02 b1 64 bd 71 c7 d1 bd
       0.07326254 -0.033717625 -0.05583287 -0.102431186
000110 18 95 93 bd ce 26 5e bd 43 8b a7 3c 2e 55 86 b8
       -0.07206172 -0.054236226 0.020452147 -6.405484e-05
000120 3e ba ad 3d 6b cb 0b 3d 82 0c be bd 66 45 08 bd
       0.084827885 0.03412954 -0.092797294 -0.03326931
000130 f5 ae 97 3b 26 8d 3b 3c 9f 49 2a bd 91 81 e1 3c
       0.004629011 0.011447227 -0.041574117 0.027527602
000140 8a c4 07 bd 9a 6d a8 3d 56 5c 96 bb ad bb e9 bc
       -0.03314642 0.0822403 -0.004588644 -0.028531874
000150 b2 40 f9 3d 7d 7c 96 bc 68 09 57 bc a4 b7 14 bd
       0.12170543 -0.018369908 -0.013124801 -0.036307946
000160 2b ea d5 bd 42 3e 22 3d f8 6c e5 3d 1a 34 10 bc
       -0.104450546 0.039610155 0.11202425 -0.0088014845
000170 6a 4a 23 bd 13 83 f1 bc 0c 5c fc bb db 07 e9 bd
       -0.03986589 -0.029481446 -0.0077014025 -0.113784514
000180 6a 03 94 3d 3d 95 cd bd bb b6 8b 3d db c6 bf bd
       0.07227214 -0.100382306 0.068219624 -0.093641005
000190 fb 17 82 3d 04 3f 04 3e 39 6e ac 3d b7 19 a0 bc
       0.0635223 0.12914664 0.08419461 -0.019543512
0001a0 7c dd 1e 3d aa 51 6d bd 80 ac d0 bc 8b 83 72 3d
       0.038785443 -0.05793921 -0.02547288 0.05920748
0001b0 18 15 c8 3b 42 75 2b bd 8b 8e bf 3d e2 ff aa 3d
       0.00610603 -0.041859873 0.0935336 0.08349587
0001c0 61 43 ca bd 05 c6 bf 3d 68 fe 77 3d 88 49 a9 3d
       -0.09876133 0.09363941 0.060545355 0.08265978
0001d0 5e d4 30 bd 33 01 be 3d 66 28 b0 bd fb 9e fe 3d
       -0.04317128 0.092775725 -0.086014554 0.12432667
0001e0 61 e8 93 3d c2 01 b4 3d a3 2f e9 bd 84 99 9c bd
       0.07222057 0.08789398 -0.11386039 -0.07646468
0001f0 82 4a 01 bd a5 ba 35 3b 37 a6 a3 bd 15 d3 83 bd
       -0.031565197 0.0027729657 -0.07990687 -0.06436745
000200 07 3a 3f 3d 19 47 c3 3c 4c a4 83 3d a9 06 06 3d
       0.0466862 0.023837613 0.064278215 0.032721195
000210 f8 76 47 bd 09 ce 37 bd 00 46 76 3d a4 9c 6c bd
       -0.04869744 -0.044874225 0.06012535 -0.05776657
000220 ea a3 81 bd 22 39 d9 3c 95 4b 1d 3c 0b 78 d4 3d
       -0.06330092 0.0265165 0.00960054 0.10374459
000230 35 dd 88 bc 64 9f 8a 3d 99 38 bb 3c 22 67 b9 3d
       -0.016707042 0.067686826 0.022854136 0.09052874
000240 2f 93 63 3d ca 09 7a 3d b4 3e 09 b9 db 08 90 bd
       0.055560287 0.06104449 -0.00013088697 -0.07032939
000250 f5 d5 15 bc 93 ff 89 3d 7e 2b df 3b 01 2b f5 3d
       -0.00914525 0.067382 0.0068106046 0.11971093
000260 5e 45 92 3c d3 bf a7 3d 71 95 3c bd be 3c 0f 3e
       0.017855342 0.081908844 -0.046040956 0.13988015
000270 8f b1 f1 3d af d2 e4 bc 5d 92 59 bd 9f 16 a2 3d
       0.11801445 -0.027932493 -0.0531181 0.07914471
000280 63 f6 9c 3d 4c 2b ab bd 33 77 57 bd a9 53 b7 bc
       0.07664182 -0.083578676 -0.05260391 -0.02237876
000290 c9 f2 c3 bc f6 fa 4a bd 01 71 6d bd a8 dc 89 bd
       -0.02391948 -0.04955574 -0.057969097 -0.0673154
0002a0 fb 5e 85 3c 91 09 af bd 21 dd 66 3d 35 f3 8e bc
       0.016280642 -0.085467465 0.05636323 -0.017449955
0002b0 4a 43 ac bd 77 f8 b0 3d 24 c7 69 bd 8e 4b 04 3e
       -0.08411272 0.08641141 -0.05707468 0.12919447
0002c0 72 c3 2e 3c d0 2e 0a 3e 54 18 4f 3d 75 c4 2f bc
       0.010666715 0.1349442 0.05056031 -0.010727991
0002d0 38 77 08 3e c8 36 1a bd 09 97 a9 bc 88 8a a2 3b
       0.13326728 -0.0376499 -0.020701902 0.004960362
0002e0 c4 f4 da bc 0e 00 7b bc 90 b5 df 3d 01 64 c5 bb
       -0.026728041 -0.015319837 0.10923302 -0.0060238843
0002f0 f8 78 bc 3d 63 08 a1 3d 80 61 94 3b 96 20 2a 3d
       0.092027605 0.07862928 0.0045282245 0.041534983
000300 ef 3c 78 bd 2e 7e ba 3d 92 ef 02 3e 39 ad 15 3e
       -0.060604986 0.09106098 0.12786701 0.1461686
000310 9d c0 50 3d a5 ce f8 bd 81 b0 a5 bd 00 02 1e bd
       0.05096494 -0.12148789 -0.08090306 -0.038576126
000320 86 9f fa bb d5 4d 95 bc 98 95 8b 3d 47 78 86 bd
       -0.007648411 -0.01822559 0.06815642 -0.0656591
000330 b1 56 94 3d a5 e4 a1 3d 8f 91 d5 bc 53 9c ee 3d
       0.072430976 0.079049386 -0.026070384 0.1165091
000340 8f e9 85 3c 4c 00 c7 3d a6 c6 be bc e3 55 cf 3c
       0.016346721 0.097168535 -0.023288082 0.025309509
000350 ff 9a 38 3c 27 6e 7e 3d 9a 97 9c 3d f6 32 90 bd
       0.011267423 0.06211677 0.07646103 -0.0704097
000360 23 8e 98 bd dc d8 06 bc bb c1 cf 3d 40 81 46 3d
       -0.074489854 -0.008230414 0.10144373 0.048463106
000370 55 2d 1c 3d c2 32 43 bd d0 76 f6 3d bc 1c 8c 3d
       0.03812917 -0.04765583 0.120343804 0.06841418
000380 66 14 85 3d 92 d6 b8 3d 6a f0 0e 3a de c5 7f bd
       0.06498031 0.09025301 0.00054526946 -0.06244456
000390 37 0b 7a 3c 54 81 09 bd 48 3b b6 3d 82 96 e2 3c
       0.015261463 -0.033570603 0.08898026 0.027659658
0003a0 dd 8a 32 3d a6 13 5c 3d 2d d6 91 bd c1 09 b7 bb
       0.04358946 0.053729676 -0.07120929 -0.0055858796
0003b0 86 d7 02 3d e9 04 89 3d 80 06 79 bd 86 18 07 3d
       0.03194382 0.0669039 -0.060797215 0.03298237
0003c0 4c cb a4 bc ca ec 9f 3d f1 36 74 3d 1f da 5f bd
       -0.02011647 0.07808836 0.05962271 -0.054651376
0003d0 63 dd 86 3c a7 4f a3 3d 03 53 01 3d b1 d8 ae bd
       0.016462987 0.07974177 0.031573307 -0.08537424
0003e0 b2 4e af bd d9 16 d2 bc ba 15 eb 3c 35 0d c9 3d
       -0.08559932 -0.02564566 0.028696883 0.09816972
0003f0 86 fb 81 bc c7 26 f4 3b 6c c3 04 bd eb 60 71 3d
       -0.015867006 0.0074509117 -0.03241293 0.05893032
