projekt1/wandb/run-20251109_185347-h1r5i609/files/best_model.pth (torch, 824478 bytes, 19 tensors)

network.0.weight f4 [512, 70]
0.05922226 0.064848006 -0.10462197 0.0085040545 0.042419497 -0.006235031 -0.11782617 -0.050605934
0.046715543 0.041089375 0.11553113 -0.11292941 0.113982975 -0.09113185 0.12150147 -0.1026698
-0.03391196 -0.012993716 0.054630455 -0.122863606 0.009828518 0.11567721 0.03186421 0.08222377
0.01216389 -0.04675973 -0.04449368 -0.0026967244 0.06025076 0.04162454 -0.10299353 0.08184285
-0.02986918 0.040887106 -0.035908535 0.029499313 0.07764943 -0.1120575 -0.011045574 -0.12443903
0.018121159 0.06189154 -0.092558816 0.0066490946 0.09961194 0.025959784 0.006373808 -0.00898371
0.04572699 -0.00083225814 -0.034631185 -0.046421897 0.04211762 -0.021958409 -0.055422734 0.08142905
0.09052417 0.029938212 -0.00603951 -0.102206625 0.07960168 0.057713524 0.11740816 -0.0771919
-0.04952503 0.0060497248 -0.09567774 0.067492835 0.08854809 0.14234191 -0.09425063 -0.080209896
0.0922274 0.08581258 0.05340422 -0.048424713 0.105734624 0.050430965 0.13621713 -0.00604049
-0.0854017 0.08874104 -0.054893486 0.08698516 -0.0027958842 -0.11732957 -0.12455881 0.08215778
0.087038085 -0.07224079 -0.0059218393 -0.038654774 -0.08086696 -0.02346026 -0.12178056 0.009080972
0.07101923 -0.010492847 0.048308626 0.045966897 -0.036263913 -0.01615026 0.10739397 -0.120030425
0.018535126 -0.076824255 0.040338118 -0.058821008 -0.0905702 -0.008909159 0.12648131 0.07773086
0.069299005 -0.06722149 -0.06835356 -0.09612005 -0.028037544 -0.0040059243 -0.024477495 -0.0056616254
0.05130677 -0.09996744 -0.08564116 0.044986036 -0.0049991407 -0.084266186 -0.08780351 -0.021191645
-0.011704523 0.020730818 -0.08337329 0.10287576 -0.11825871 0.022452751 0.075284906 -0.04288167
0.009442248 0.014708205 -0.11857061 -0.049060445 -0.0033348263 -0.03620458 0.09135534 -0.03009376
0.04935136 -0.021538174 0.054089222 -0.105756275 0.0055104936 0.059031535 0.10089179 0.033814434
0.05285959 0.0059051905 0.09321313 -0.018937334 0.021649262 -0.08694649 0.062198058 0.029044626
-0.011083877 -0.038089722 0.055706255 -0.07815114 -0.059576783 0.032149073 -0.08201883 0.085639104
-0.103493884 -0.10201658 -0.10530857 -0.10962785 0.03096283 -0.08968594 -0.07312533 -0.09203519
0.12633096 -0.050941426 -0.095758244 -0.038690574 -0.043659404 -0.0048317695 0.032202687 -0.02702291
-0.11595933 0.10720187 -0.09706887 -0.0098472 0.09178259 -0.014324741 0.05360137 0.068851605
-0.01232181 -0.0093410425 -0.036783196 0.0066340836 -0.09937533 -0.061405364 -0.100566246 -0.060202394
0.097273685 -0.01056708 -0.044115398 -0.012047143 0.033769112 0.0062734573 0.03308714 -0.02701228
0.03329334 -0.0644797 -0.11557525 -0.066446505 -0.07721155 0.03263479 0.010200847 0.033692203
0.06661471 -0.102190256 -0.02202014 0.08202233 0.1353569 -0.03839284 -0.10093235 -0.08909992
-0.034557663 -0.089269824 0.11020866 -0.06905328 0.049733344 0.050512373 0.009362694 0.028631382
-0.02802246 0.10712175 -0.07946812 -0.108975984 0.10541632 0.044354938 -0.00441903 0.046750236
-0.017100876 -0.07577913 0.0035216247 -0.09005045 0.06325437 -0.07720081 -0.09088086 -0.04382845
-0.0823878 0.07111365 -0.0030278014 0.018688044 0.089597076 -0.06703954 0.087253846 0.03860204
00000000: 0a93 723d 08cf 843d 0b44 d6bd 9754 0b3c
00000010: 11c0 2d3d 3b4f ccbb d94e f1bd 2b48 4fbd
00000020: cc58 3f3d 554d 283d 969b ec3d 8947 e7bd
00000030: e86f e93d 56a3 babd c3d5 f83d 8b44 d2bd
00000040: 44e7 0abd 98e3 54bc 2fc4 5f3d ea9f fbbd
00000050: cb07 213c 2ce8 ec3d 0c84 023d f064 a83d
00000060: 0d4b 473c 2187 3fbd 013f 36bd 87bb 30bb
00000070: 80c9 763d 7e7e 2a3d 46ee d2bd 399d a73d
00000080: 36b0 f4bc 3d79 273d d414 13bd 8ba8 f13c
00000090: aa06 9f3d 677e e5bd 7ff8 34bc e4d9 febd
000000a0: d372 943c fc81 7d3d 7a8f bdbd a6e0 d93b
000000b0: 5801 cc3d 9da9 d43c 60db d03b 6930 13bc
000000c0: 394c 3b3d e62b 5aba 6ed9 0dbd e324 3ebd
000000d0: 8783 2c3d 1fe2 b3bc f302 63bd 46c4 a63d
000000e0: bc64 b93d fb40 f53c 15e7 c5bb b551 d1bd
000000f0: 3506 a33d 0465 6c3d b073 f03d c916 9ebd
00000100: c2da 4abd c53c c63b b1f2 c3bd af39 8a3d
00000110: b358 b53d 14c2 113e 7906 c1bd 1645 a4bd
00000120: b8e1 bc3d 82be af3d 62be 5a3d fe58 46bd
00000130: 658b d83d b390 4e3d 817c 0b3e 4eef c5bb
00000140: 16e7 aebd ddbd b53d fed7 60bd 4725 b23d
00000150: 273b 37bb 7c4a f0bd b018 ffbd 5742 a83d
00000160: 0641 b23d fbf2 93bd fd0b c2bb 7854 1ebd
00000170: 949d a5bd bb2f c0bc 1668 f9bd 5bc8 143c
00000180: 8872 913d 31ea 2bbc 44df 453d c947 3c3d
00000190: 7889 14bd 8d4d 84bc 5ff1 db3d 83d2 f5bd
000001a0: fad6 973c 0956 9dbd 9539 253d 4cee 70bd
000001b0: de7c b9bd b9f7 11bc 5184 013e 5b31 9f3d
000001c0: a3ec 8d3d 6cab 89bd f4fc 8bbd 97da c4bd
000001d0: feae e5bc 2144 83bb 0785 c8bc 2885 b9bb
000001e0: 0c27 523d bbbb ccbd a264 afbd 4743 383d
000001f0: d5cf a3bb c093 acbd 54d2 b3bd 1a9a adbc
00000200: 54c4 3fbc add3 a93c 9ebf aabd 87b0 d23d
00000210: 9f31 f2bd d5ee b73c f92e 9a3d b1a4 2fbd
00000220: a9b3 1a3c affa 703c 26d5 f2bd 9bf3 48bd
00000230: 1a8d 5abb 414b 14bd 8218 bb3d 3087 f6bc
00000240: a724 4a3d d370 b0bc a98c 5d3d bf96 d8bd
00000250: 5f91 b43b 0dcb 713d 5ba0 ce3d 0181 0a3d
00000260: 4c83 583d 5480 c13b 87e6 be3d 7822 9bbc
00000270: cb59 b13c 0011 b2bd 64c3 7e3d ffee ed3c
00000280: 2699 35bc f803 1cbd 3e2c 643d b40d a0bd
00000290: c906 74bd bfae 033d 7df9 a7bd 8e63 af3d
000002a0: 9af4 d3bd 12ee d0bd 05ac d7bd 9184 e0bd
000002b0: c3a5 fd3c 43ad b7bd bcc2 95bd f27c bcbd
000002c0: e75c 013e f5a7 50bd e61c c4bd 027a 1ebd
000002d0: 34d4 32bd d253 9ebb f7e6 033d 265f ddbc
000002e0: 167c edbd a78c db3d 0bcc c6bd 2656 21bc
000002f0: 83f8 bb3d 52b2 6abc 1c8d 5b3d 1202 8d3d
00000300: 6be1 49bc 2c0b 19bc faa9 16bd ba62 d93b
00000310: 4b85 cbbd 3184 7bbd adf5 cdbd c996 76bd
00000320: 6d37 c73d 8c21 2dbc 59b2 34bd 6161 45bc
00000330: 7b51 0a3d 9391 cd3b 6286 073d db48 ddbc
00000340: 995e 083d ef0d 84bd b7b2 ecbd 1b15 88bd
00000350: 1721 9ebd 0fac 053d 7421 273c d600 0a3d
00000360: 4b6d 883d 2049 d1bd 9563 b4bc 53fb a73d
00000370: 009b 0a3e d041 1dbd 9fb5 cebd 057a b6bd
00000380: 568c 0dbd 19d3 b6bd 14b5 e13d ce6b 8dbd
00000390: 31b5 4b3d 10e6 4e3d fc65 193c 5c8c ea3c
000003a0: 5c8f e5bc a662 db3d 2fc0 a2bd cd2e dfbd
000003b0: 83e4 d73d 86ad 353d 83cd 90bb 2d7d 3f3d
000003c0: 2317 8cbc 1732 9bbd 0fcb 663b 5f6c b8bd
000003d0: 828b 813d 751b 9ebd bf1f babd 7685 33bd
000003e0: efba a8bd 09a4 913d 146e 46bb ab17 993c
000003f0: ac7e b73d 074c 89bd 25b2 b23d 2c1d 1e3d

network.0.bias f4 [512]
-0.047765706 -0.03687958 -0.040505912 -0.10944401 -0.021627137 0.109681174 0.030049108 -0.07982319
-0.057832588 -0.052132186 0.0033761505 0.097488 -0.042452127 -0.005810828 0.0017052654 0.061814595
0.023288418 0.06984708 0.06862395 0.101492845 -0.07709186 0.064585455 -0.030931424 0.035258606
0.05779941 0.08917357 0.0053179096 0.08499468 -0.05470865 0.06823732 -0.09218627 0.104932636
-0.107466035 -0.08400636 0.001432031 0.0755258 0.096804485 -0.07683287 -0.06808896 -0.104249135
-0.09255899 -0.11258608 0.09020506 -0.11273305 -0.025728993 0.05536891 0.05681447 -0.061510447
0.07619954 -0.012299238 0.016781693 0.05662443 0.05125536 -0.079323344 0.11130831 0.0007629783
-0.019754706 0.016744522 0.10361109 0.08750285 0.026651185 0.11684769 0.035426732 0.0156896
0.023573264 -0.045459833 0.09394787 -0.095447 -0.05066512 -0.05614473 -0.08746754 -0.04937004
0.085119255 0.03452407 -0.019936556 0.023169123 -0.11205498 -0.1080277 0.11658037 0.03606574
0.06572563 -0.09285494 -0.086865656 -0.045662984 0.012928306 -0.0028484745 0.031320155 0.041240185
-0.086897425 0.106875755 0.018920537 0.050556604 -0.10077916 0.10242125 -0.006674387 -0.100170135
-0.019508272 -0.039485004 0.1115742 0.052063394 -0.11475936 -0.0011491372 0.077366985 -0.021241533
0.06328282 -0.027034242 -0.045226898 -0.06357738 0.10817055 0.07575313 -0.11134457 -0.062312886
0.06362511 -0.036753632 -0.020871835 0.08711826 -0.08030454 -0.0071065454 -0.11415293 -0.053997077
0.018531676 0.044247046 -0.028584618 0.03283543 0.108126804 0.09394599 -0.06429075 0.0010655212
-0.0039916015 -0.11496648 0.053587236 0.08933696 -0.06501475 -0.08238808 -0.026677832 0.021158738
0.041941073 -0.032168154 0.103801034 -0.11771622 0.037632596 0.056372188 -0.10134815 -0.04612163
-0.0031765106 0.05108696 0.09637638 -0.05635306 0.11421453 -0.10115862 0.049135204 -0.07848509
0.037060205 -0.056116164 -0.045562904 -0.10471521 0.096229516 0.048154578 0.094683595 -0.09918863
-0.06920678 0.05651508 0.08137689 -0.06889477 0.10000565 0.007547178 -0.03868645 0.025928678
-0.06026818 0.092257045 -0.043582465 0.041354157 -0.037889224 0.023708422 0.061249737 -0.09521547
-0.03109584 -0.010015969 0.058671024 0.048080046 -0.11646735 0.03307771 0.025418699 -0.10046529
-0.10865813 0.021077862 -0.118987374 -0.05158218 0.066473745 -0.06791248 0.05877324 0.08996549
-0.012253144 0.08108482 0.073516704 -0.038692117 -0.0055127195 -0.10193285 0.08185509 0.07840046
-0.026992865 0.022737347 0.093976445 0.06519264 0.083323434 0.07452807 -0.065360665 -0.026915407
-0.013545077 -0.015008103 0.020811507 -0.04865579 0.0710959 -0.03255865 0.073194414 -0.042041443
0.08247604 -0.10609828 -0.06304387 0.05111969 0.0055792755 -0.09001343 -0.0073249154 0.06272908
0.009671433 -0.081799425 0.039626114 0.032588534 -0.00032685947 -0.093098775 -0.055796918 0.08783237
-0.011925168 0.020244347 -0.08557072 -0.073477305 0.005183425 -0.0130973 -0.108197585 0.06961247
0.062419828 -0.05314534 -0.112478584 -0.118005164 0.0027743282 0.010722407 -0.07544828 -0.032112774
0.057620984 0.0868146 -0.048316695 -0.06206625 0.11291953 -0.065964215 0.045944963 -0.020637736
00000000: f9a5 43bd 0b0f 17bd 87e9 25bd 2e24 e0bd
00000010: 652b b1bc 86a0 e03d 8c29 f63c 577a a3bd
00000020: dde1 6cbd 8f88 55bd 6842 5d3b caa7 c73d
00000030: 48e2 2dbd c268 bebb 3683 df3a 4d31 7d3d
00000040: 5ac7 be3c fc0b 8f3d b78a 8c3d 7bdb cf3d
00000050: 56e2 9dbd 6145 843d e663 fdbc 546b 103d
00000060: 13bf 6c3d a2a0 b63d dc41 ae3b b111 ae3d
00000070: 2d16 60bd 02c0 8b3d 28cc bcbd ece6 d63d
00000080: 2717 dcbd 870b acbd fdb2 bb3a 45ad 9a3d
00000090: 6e41 c63d 8d5a 9dbd 3a72 8bbd 9280 d5bd
000000a0: 918f bdbd 8893 e6bd 6ebd b83d 96e0 e6bd
000000b0: 9cc5 d2bc 83ca 623d 4ab6 683d 61f2 7bbd
000000c0: 810e 9c3d be82 49bc c379 893c 05ef 673d
000000d0: 24f1 513d 4774 a2bd 9cf5 e33d 9b02 483a
000000e0: 9fd4 a1bc cf2b 893c 0d32 d43d b234 b33d
000000f0: 9653 da3c d74d ef3d 9f1b 113d 7a87 803c
00000100: b81c c13c 1734 3abd be67 c03d b779 c3bd
00000110: 3b86 4fbd 04f8 65bd 2e22 b3bd 3d38 4abd
00000120: 0153 ae3d 1c69 0d3d fd51 a3bc 2ccd bd3c
00000130: 157d e5bd a03d ddbd b0c1 ee3d abb9 133d
00000140: 299b 863d bb2a bebd 9fe6 b1bd 1c09 3bbd
00000150: 3fd1 533c 79ad 3abb 9049 003d 78eb 283d
00000160: 47f7 b1bd ade1 da3d 3eff 9a3c 7114 4f3d
00000170: 4e65 cebd 3bc2 d13d d1b4 dabb 0026 cdbd
00000180: d0cf 9fbc 07bb 21bd 0481 e43d 6d40 553d
00000190: f506 ebbd a59e 96ba 9572 9e3d b902 aebc
000001a0: 6c9a 813d ea76 ddbc d73f 39bd db34 82bd
000001b0: 8588 dd3d 7524 9b3d 9f08 e4bd cc3b 7fbd
000001c0: e24d 823d fa8a 16bd 69fb aabc 0f6b b23d
000001d0: b576 a4bd 06de e8bb 03c9 e9bd 0a2c 5dbd
000001e0: becf 973c 643c 353d 4a2a eabc 727e 063d
000001f0: 9671 dd3d c166 c03d deaa 83bd f5a8 8b3a
00000200: fbcb 82bb 8c73 ebbd 4a7e 5b3d 4cf6 b63d
00000210: 7426 85bd 15bb a8bd 788b dabc 1755 ad3c
00000220: 67ca 2b3d c1c2 03bd a395 d43d 3415 f1bd
00000230: a324 1a3d 86e6 663d 9e8f cfbd 09ea 3cbd
00000240: 012d 50bb 8f40 513d fb60 c53d 77d2 66bd
00000250: 4fe9 e93d 402c cfbd ff41 493d cabc a0bd
00000260: 71cc 173d 10da 65bd 2ba0 3abd ee74 d6bd
00000270: fb13 c53d bc3d 453d 79e9 c13d 6923 cbbd
00000280: 49bc 8dbd 5b7c 673d eda8 a63d b418 8dbd
00000290: c3cf cc3d 514e f73b af75 1ebd 6168 d43c
000002a0: c4db 76bd 43f1 bc3d 8783 32bd fa62 293d
000002b0: bb31 1bbd 2a38 c23c 01e1 7a3d 5400 c3bd
000002c0: b4bc febc 051a 24bc 0751 703d 95ef 443d
000002d0: 6f86 eebd 7e7c 073d e03a d03c bfc0 cdbd
000002e0: 2788 debd 7bab ac3c a7af f3bd d647 53bd
000002f0: 6323 883d b315 8bbd 35bc 703d d43f b83d
00000300: 69c1 48bc cc0f a63d ed8f 963d a07b 1ebd
00000310: 0ba4 b4bb 2cc2 d0bd a4a3 a73d 6c90 a03d
00000320: 2420 ddbc ac43 ba3c b976 c03d b883 853d
00000330: 7aa5 aa3d 2ca2 983d d0db 85bd b37d dcbc
00000340: 2cec 5dbc 8ce4 75bc e57c aa3c 4b4b 47bd
00000350: ba9a 913d 385c 05bd f4e6 953d a633 2cbd
00000360: 33e9 a83d 0e4a d9bd 251d 81bd e162 513d
00000370: 5bd2 b63b f658 b8bd d805 f0bb 1b78 803d
00000380: ee74 1e3c 7586 a7bd fe4e 223d 8e7b 053d
00000390: 565e abb9 92aa bebd 4f8b 64bd 75e1 b33d
000003a0: c861 43bc 79d7 a53c b43f afbd 457b 96bd
000003b0: b8d9 a93b 0f96 56bc b296 ddbd fc90 8e3d
000003c0: efab 7f3d eeae 59bd 2c5b e6bd b1ac f1bd
000003d0: 81d1 353b 09ad 2f3c a184 9abd af88 03bd
000003e0: fb03 6c3d dacb b13d bae7 45bd 2e39 7ebd
000003f0: 5b42 e73d 3f18 87bd c930 3c3d 7810 a9bc

network.1.weight f4 [512]
0.9995107 0.9855783 1.0059046 1.015195 1.0220853 1.0018938 0.99250656 1.005
0.9886359 0.99922925 0.98151535 1.0084711 0.99514055 0.99039125 1.0138713 1.0138886
1.0119815 0.9912522 1.004926 0.98800915 0.9852073 0.99052274 0.996835 1.0057737
1.0059043 1.0080309 1.0136291 0.99902445 0.9977004 0.9976506 0.9838435 0.9816506
1.0061631 1.017105 1.0055904 0.9923761 0.9965816 1.0139635 1.0001012 0.9897577
0.9981803 0.99209344 0.9830733 0.9974178 1.0172029 0.9973473 1.0225521 0.9784015
0.9986607 0.9875174 1.0079427 0.9931239 1.001256 0.99734885 0.9993447 0.98732823
0.9918389 1.0087513 1.0056287 1.013042 0.9894821 0.9956876 0.9930625 0.99906003
1.0027584 0.9964649 1.0042354 1.0114627 1.0020734 1.0071224 1.0000287 0.99131197
0.99864316 1.0162665 0.99419343 1.0082915 0.98651046 1.005336 1.0005513 0.9937808
1.0077351 0.99805576 0.9976597 1.0054288 1.0115476 0.9957029 1.0071996 1.0002495
1.0003785 1.0105766 1.0121151 1.000323 1.0027212 0.9951731 1.0031617 1.0033766
1.0114781 0.9934956 0.98829496 1.0183971 0.99129045 1.0005138 1.0078686 1.0139849
0.9943403 1.000708 1.0028906 1.009911 0.99251795 1.0081278 0.99680424 1.0080811
0.99710107 0.98663425 0.99084836 0.9973467 0.9865265 1.0070727 1.0054832 0.9977927
0.9990497 0.99910873 0.9851515 0.98763824 1.0087538 0.99937326 0.99515575 1.003291
0.98673683 0.9945427 0.9913164 1.0142817 1.0052842 1.0049797 0.98703516 1.0066986
0.9888667 0.9961603 1.0058831 1.0119336 1.0006857 1.0036075 0.99999684 0.9931848
1.0027926 0.99828815 1.0037998 0.99474275 0.9962226 1.0027298 0.9932568 0.9965179
1.0012527 1.0002093 1.0166496 0.99756503 0.99994546 0.99712443 0.99560195 1.0005008
1.0007123 1.000121 1.0159807 0.9953609 0.9869495 0.9999685 1.0087377 1.0000031
0.99573356 1.0144358 0.9888295 0.99956435 0.99374974 0.9951423 1.0088925 1.0001522
0.9999428 1.0131327 1.0071803 0.998594 1.0183456 1.003279 1.0047278 0.9907002
0.9990266 0.9940411 1.0010465 1.0064156 1.004605 0.99987996 1.0007703 1.0034064
0.99367297 1.0152664 1.0101093 0.99922925 1.0216602 0.9971586 0.9738657 1.0122656
0.9897094 0.98788524 1.0097897 0.981678 0.9944624 1.0012106 1.0032742 0.98722017
1.0071018 1.0112952 0.9986982 0.99109256 1.0054717 0.9826816 0.9986394 1.0158479
1.0173115 1.0112759 0.9856256 0.9920083 1.0027422 1.0030738 0.99962205 1.010654
1.0013256 0.9975306 0.98456275 0.9988387 1.0001215 1.0061029 1.0199524 0.98300683
0.9975558 1.0008203 1.0188766 1.004225 0.9833413 0.9985354 1.0159719 0.99329495
1.0021966 1.0063746 0.99540675 1.0055135 0.9998856 0.9858839 0.9976505 1.0104252
1.008054 1.0001103 0.99273443 1.0019525 0.99363506 0.98186404 0.992866 1.000047
00000000: efdf 7f3f dc4e 7c3f 7bc1 803f e9f1 813f
00000010: b1d3 823f 0e3e 803f e914 7e3f d7a3 803f
00000020: 3e17 7d3f 7dcd 7f3f 9744 7b3f 9515 813f
00000030: 88c1 7e3f 488a 7d3f 89c6 813f 1ac7 813f
00000040: 9c88 813f b4c2 7d3f 6aa1 803f 2bee 7c3f
00000050: 8c36 7c3f e692 7d3f 9430 7f3f 31bd 803f
00000060: 79c1 803f 2807 813f 99be 813f 11c0 7f3f
00000070: 4b69 7f3f 0866 7f3f 2bdd 7b3f 744d 7b3f
00000080: f4c9 803f 7f30 823f 30b7 803f 5c0c 7e3f
00000090: f91f 7f3f 8ec9 813f 5103 803f c360 7d3f
000000a0: bf88 7f3f d6f9 7d3f b1aa 7b3f c656 7f3f
000000b0: b433 823f 2752 7f3f fde2 823f 8578 7a3f
000000c0: 3aa8 7f3f f1cd 7c3f 4404 813f 5e3d 7e3f
000000d0: 2829 803f 4152 7f3f 0ed5 7f3f 8bc1 7c3f
000000e0: 27e9 7d3f c31e 813f 71b8 803f 5cab 813f
000000f0: b34e 7d3f 62e5 7e3f 5839 7e3f 66c2 7f3f
00000100: 635a 803f 5318 7f3f c98a 803f 9c77 813f
00000110: f143 803f 63e9 803f f100 803f 9fc6 7d3f
00000120: 14a7 7f3f 0515 823f 7683 7e3f b20f 813f
00000130: f38b 7c3f daae 803f 1112 803f 6b68 7e3f
00000140: 77fd 803f 9580 7f3f a066 7f3f e4b1 803f
00000150: 647a 813f 63e6 7e3f ebeb 803f 2d08 803f
00000160: 670c 803f 935a 813f fd8c 813f 960a 803f
00000170: 2b59 803f aac3 7e3f 9a67 803f a56e 803f
00000180: 1d78 813f ba55 7e3f e600 7d3f d65a 823f
00000190: 36c5 7d3f d610 803f d701 813f 42ca 813f
000001a0: 168d 7e3f 3317 803f b85e 803f c344 813f
000001b0: a815 7e3f 550a 813f 902e 7f3f cd08 813f
000001c0: 0442 7f3f 1094 7c3f 3da8 7d3f 1d52 7f3f
000001d0: 008d 7c3f c2e7 803f acb3 803f 586f 7f3f
000001e0: b9c1 7f3f 97c5 7f3f e432 7c3f dcd5 7c3f
000001f0: d81e 813f edd6 7f3f 87c2 7e3f d76b 803f
00000200: c99a 7c3f 5a9a 7e3f e9c6 7d3f fcd3 813f
00000210: 27ad 803f 2da3 803f 56ae 7c3f 80db 803f
00000220: 5e26 7d3f 5d04 7f3f c7c0 803f 0a87 813f
00000230: 7816 803f 3676 803f cbff 7f3f 5c41 7e3f
00000240: 825b 803f d08f 7f3f 837c 803f 76a7 7e3f
00000250: 7208 7f3f 7359 803f 1446 7e3f cc1b 7f3f
00000260: 0c29 803f dc06 803f 9321 823f 6c60 7f3f
00000270: 6dfc 7f3f 8c43 7f3f c5df 7e3f 6910 803f
00000280: 5717 803f f703 803f a80b 823f f9cf 7e3f
00000290: b9a8 7c3f f0fd 7f3f 511e 813f 1a00 803f
000002a0: 65e8 7e3f 08d9 813f ee23 7d3f 73e3 7f3f
000002b0: 6266 7e3f a5c1 7e3f 6423 813f fd04 803f
000002c0: 40fc 7f3f 55ae 813f 49eb 803f dba3 7f3f
000002d0: 2659 823f 726b 803f ec9a 803f 879e 7d3f
000002e0: 35c0 7f3f 7a79 7e3f 4b22 803f 3ad2 803f
000002f0: e696 803f 22f8 7f3f 3e19 803f 9f6f 803f
00000300: 5a61 7e3f 40f4 813f 434b 813f 7dcd 7f3f
00000310: c3c5 823f c945 7f3f 434f 793f eb91 813f
00000320: 985d 7d3f 0ce6 7c3f ca40 813f 404f 7b3f
00000330: 1695 7e3f ab27 803f 4a6b 803f 76ba 7c3f
00000340: b6e8 803f 1f72 813f afaa 7f3f 3eb8 7d3f
00000350: 4cb3 803f 0591 7b3f d5a6 7f3f 4e07 823f
00000360: 4337 823f 7d71 813f f651 7c3f 42f4 7d3f
00000370: db59 803f b964 803f 3be7 7f3f 1c5d 813f
00000380: 702b 803f 2a5e 7f3f 4e0c 7c3f e5b3 7f3f
00000390: fb03 803f fbc7 803f cd8d 823f 56a6 7b3f
000003a0: d15f 7f3f e11a 803f 8c6a 823f 728a 803f
000003b0: 41bc 7b3f 04a0 7f3f 5e0b 823f 9448 7e3f
000003c0: fa47 803f e2d0 803f fad2 7e3f abb4 803f
000003d0: 81f8 7f3f e362 7c3f 0666 7f3f 9d55 813f
000003e0: ea07 813f 9d03 803f d823 7e3f fb3f 803f
000003f0: de5e 7e3f 715b 7b3f 772c 7e3f 8a01 803f

network.1.bias f4 [512]
0.009266115 -0.012694846 0.011322894 -0.003127808 0.009215679 0.026667671 -0.01007612 0.0033048068
-0.0030762164 -0.011146706 -0.014114606 0.00940608 -0.002727198 -0.010322501 -0.011377893 0.008352211
0.004944341 -0.022515561 0.0066762054 -0.01547423 -0.0137501545 0.0015577091 -0.0058225887 0.0018300879
0.0069247815 0.0019408786 -0.002945804 0.00035597276 0.0011747419 -0.0013634643 -0.016495261 -0.011344089
-0.0017702434 0.008806103 0.009631174 -0.0034432358 -0.0064411387 0.009739552 0.0004085988 -0.003234415
-0.0041054436 -0.021373779 -0.009430922 -0.0013665655 -0.002808328 -0.0076101194 0.012718375 -0.014713713
-0.0096694315 -0.0067902342 0.0064929863 0.0015274918 0.0091581065 -0.012703182 -0.0059525585 -0.004040281
-0.00096023316 -0.0059624994 -0.0037201666 0.010009872 -0.0135320965 0.000714158 -0.0081987735 -0.0103371395
-0.010747675 -0.0068437536 -0.008703307 0.014071974 0.0105619 0.008158982 0.0058222013 -0.009713218
0.004798671 0.0029908225 -0.0033140443 -0.0038903768 -0.012327304 0.007179445 -0.0026067712 -0.008699127
0.01171133 -0.029125594 0.00810729 -0.0068481495 -0.00025505957 -0.00063871866 0.014223954 -0.0092195235
0.00049984804 -0.003710562 -0.0016646535 -0.01536296 0.008328893 -0.01060899 -0.0026982997 0.010109507
-0.012182938 -0.0096405195 0.0016917335 0.013759977 -0.0033876034 0.0010817846 0.0021940158 -0.005567102
0.0057777544 0.00095257594 -0.0020944842 0.0067162653 -0.003915154 -0.0058228597 -0.010211629 0.013170573
-0.0079152025 -0.005659186 -0.013566689 0.010956645 -0.012336293 -0.011226698 -0.00507623 0.0025108638
0.0027030508 -0.014202355 -0.014299981 -0.017522661 0.009901173 0.0046307016 -0.0016224666 0.0007539086
-0.013518352 0.0052329386 -0.015592859 0.0098950695 -0.016506627 -0.009768166 -0.011215837 -0.0016283452
-0.0004344068 0.00033474926 -0.011571554 0.008258211 0.00083455176 0.0005500957 -0.012468313 -0.010682482
-0.00075474044 -0.0012185072 0.014509733 0.00095856993 -0.0064978204 -0.012759697 -0.004208039 0.002075301
-0.015566461 -0.00858916 0.006835584 -0.0069910306 0.00084528053 -0.009864468 -0.0037461934 -0.01478781
-0.0039005976 -0.010823433 0.012919652 -0.010977313 -0.00032465032 0.005562895 -0.006033261 -0.002021141
0.0052514267 0.0069003077 -0.005072748 -0.017534472 -0.008919459 0.0028666474 -0.0014689787 0.0039084833
-0.014017013 -0.000354463 -0.010438843 0.0027299535 0.0150705995 -0.008182554 -0.00084051926 -0.0056252507
-0.0035568615 -0.032542493 -0.008805398 0.00840424 -0.008600685 -0.008502741 0.0038432337 0.0021313832
-0.007256619 0.009391715 -0.0075062127 0.016273513 0.019571755 -0.0035325321 -0.020099338 0.005763447
-0.0048666373 -0.0064639575 -0.013191044 -0.0070284205 0.009239346 -0.0075186756 0.00238488 -0.0048793294
0.005376312 0.010552412 0.0023535064 -0.008609949 0.010181261 -0.022559235 -0.01774367 0.002382811
-0.0045818593 0.0018468584 0.003512965 -0.01167479 -0.0037031723 0.008365371 -0.0024344074 -0.009802024
0.0054214615 -0.0005216234 -0.01838139 -0.009461407 -0.00900118 -0.0046308963 0.006123033 -0.0042994036
-0.0015271455 0.00087535795 0.00691687 -0.009903728 -0.022342335 0.0008913835 0.012431263 -0.011132185
-0.00027591473 -0.013656755 0.00239456 -0.018904943 0.012010109 -0.018419836 -0.019084316 -0.009772824
-0.00019123609 -0.0034022906 -0.0136670275 0.008535622 0.017412445 -0.004547644 -0.0039139753 -0.009744733
00000000: e7d0 173c 0bfe 4fbc a983 393c e9fb 4cbb
00000010: 5cfd 163c 2976 da3c 4f16 25bc 7595 583b
00000020: 599a 49bb aca0 36bc f340 67bc f51b 1a3c
00000030: caba 32bb b51f 29bc 586a 3abc b6d7 083c
00000040: 2304 a23b 8e72 b8bc 12c4 da3b a087 7dbc
00000050: 5448 61bc 0b2c cc3a 6acb bebb 8fdf ef3a
00000060: 47e9 e23b 1465 fe3a 640e 41bb dba1 ba39
00000070: ccf9 993a 45b6 b2ba 1221 87bc 8fdc 39bc
00000080: 8307 e8ba 7947 103c 12cc 1d3c e9a7 61bb
00000090: 3010 d3bb a492 1f3c 3439 d639 7bf8 53bb
000000a0: f586 86bb 1018 afbc 2784 1abc 541e b3ba
000000b0: ed0b 38bb 4f5e f9bb bb60 503c c911 71bc
000000c0: 896c 1ebc 9d80 debb 1ec3 d43b 1f36 c83a
000000d0: e20b 163c 0221 50bc ae0d c3bb 5564 84bb
000000e0: 28b8 7bba 1261 c3bb 0ace 73bb 7200 243c
000000f0: bab5 5dbc 5536 3b3a 2654 06bc 1b5d 29bc
00000100: 0417 30bc 9141 e0bb 5198 0ebc 238e 663c
00000110: d20b 2d3c 40ad 053c 2ac8 be3b 3024 1fbc
00000120: 2c3e 9d3b ad01 443b 7030 59bb b1f5 7ebb
00000130: 76f8 49bc 8d41 eb3b 5dd6 2abb c886 0ebc
00000140: e1e0 3f3c cc98 eebc 70d4 043c 7166 e0bb
00000150: 84b9 85b9 af6f 27ba 960b 693c 7c0d 17bc
00000160: 3c08 033a e62c 73bb 8130 daba edb4 7bbc
00000170: e975 083c 54d1 2dbc f5d5 30bb 58a2 253c
00000180: f29a 47bc 45f3 1dbc 28bd dd3a 8771 613c
00000190: 8e02 5ebb abca 8d3a 7ac9 0f3b 3d6c b6bb
000001a0: 5153 bd3b 4ab6 793a 9d43 09bb 1e14 dc3b
000001b0: b14a 80bb b0cd bebb ad4e 27bc 63c9 573c
000001c0: c4ae 01bc b170 b9bb d146 5ebc 8083 333c
000001d0: 2a1e 4abc 2ff0 37bc 8156 a6bb 4e8d 243b
000001e0: ab25 313b ffb0 68bc 784a 6abc af8b 8fbc
000001f0: 8838 223c 24bd 973b f2a8 d4ba f3a1 453a
00000200: 147c 5dbc 1279 ab3b 3179 7fbc ee1e 223c
00000210: e838 87bc a80a 20bc a1c2 37bc 336e d5ba
00000220: 18c1 e3b9 4981 af39 9d96 3dbc 734d 073c
00000230: d2c5 5a3a 4c34 103a e547 4cbc 9405 2fbc
00000240: c6d9 45ba 51b6 9fba 3bba 6d3c 8a48 7b3a
00000250: abeb d4bb 0c0e 51bc 97e3 89bb c601 083b
00000260: 780a 7fbc 8cb9 0cbc 09fd df3b 0415 e5bb
00000270: d195 5d3a 949e 21bc b282 75bb 9248 72bc
00000280: 2ba1 7fbb c554 31bc f3ac 533c 30da 33bc
00000290: d435 aab9 f248 b63b a9b2 c5bb 1e75 04bb
000002a0: 2914 ac3b fa1b e23b 4b39 a6bb 74a4 8fbc
000002b0: ec22 12bc 5dde 3b3b bf8a c0ba bc12 803b
000002c0: 9da7 65bc 38d7 b9b9 ae07 2bbc 05e9 323b
000002d0: adea 763c 1e10 06bc 4b56 5cba 0654 b8bb
000002e0: 3c1a 69bb 474b 05bd 8444 10bc f0b1 093c
000002f0: e3e9 0cbc 154f 0bbc c3de 7b3b adae 0b3b
00000300: efc8 edbb b5df 193c adf6 f5bb 0850 853c
00000310: f254 a03c 0e82 67bb 5ea7 a4bc 4cdb bc3b
00000320: 5078 9fbb 9bcf d3bb 401f 58bc aa4e e6bb
00000330: a060 173c 395f f6bb a64b 1c3b c8e2 9fbb
00000340: c62b b03b 06e4 2c3c 493d 1a3b be10 0dbc
00000350: 4ecf 263c 25ce b8bc 2c5b 91bc ef28 1c3b
00000360: 6c23 96bb 4912 f23a c639 663b 9e47 3fbc
00000370: ecb0 72bb e90e 093c 948a 1fbb ab98 20bc
00000380: 84a6 b13b 8ebd 08ba 9294 96bc 0404 1bbc
00000390: af79 13bc c6be 97bb b9a3 c83b 03e2 8cbb
000003a0: 802a c8ba 4778 653a e9a6 e23b 3f43 22bc
000003b0: 4607 b7bc bcab 693a 7fac 4b3c c563 36bc
000003c0: a6a8 90b9 95c0 5fbc 0dee 1c3b 8ade 9abc
000003d0: 0cc6 443c 32e5 96bc b656 9cbc 321e 20bc
000003e0: 8c86 48b9 f7f8 5ebb abeb 5fbc fed8 0b3c
000003f0: 8ba4 8e3c 6704 95bb ce40 80bb 5fa8 1fbc

network.1.running_mean f4 [512]
0.11942956 -0.18667302 -0.02347185 -0.048179645 -0.08658295 0.021401199 0.05425463 -0.14012663
-0.1581391 0.028442286 0.08153105 0.14628881 -0.016933793 -0.04216407 -0.034945965 -0.028705351
0.0454689 -0.09720447 0.006777576 0.12755314 -0.10217247 0.057952173 -0.016616568 -0.011294783
-0.025489679 0.120068714 0.13898087 0.13487296 -0.029363886 -0.069262035 0.031980373 0.17299968
-0.28618994 -0.15880907 -0.168881 -0.03544361 -0.030334217 -0.09371324 -0.08488214 -0.08965695
-0.09767119 -0.16809247 0.15092215 -0.14884602 -0.008338285 0.090604864 -0.11758368 -0.049147673
0.17412037 -0.11368616 -0.0491086 0.10670961 -0.061527327 -0.0892546 0.14924484 -0.08451524
-0.059911694 0.096263826 0.24714836 0.12090294 -0.0011897468 0.14837337 0.04221509 0.059714973
-0.04584815 -0.17917408 0.0957576 -0.15754749 0.023659198 -0.12902284 -0.12462778 -0.13015258
0.11330472 0.022747353 -0.06284164 0.09795899 -0.009442391 -0.082534365 0.10463667 0.1399639
0.103508435 -0.15047428 -0.026691351 -0.16591294 0.046790406 0.08658465 0.021641223 0.15011154
-0.03508928 0.21876177 0.09744772 -0.026668431 -0.16819291 0.02724487 0.049303796 -0.24596885
-0.10317468 0.031526748 0.20716701 0.09606896 -0.18276516 -0.0025250025 0.17704763 -0.081143156
0.032599386 -0.24337436 0.04887487 -0.11518917 -0.0758492 0.21083754 -0.013609625 -0.06328314
-0.05873812 0.075762145 0.072394066 0.15253597 -0.1272407 -0.072845444 -0.16356942 -0.16558774
0.015667057 0.026196517 0.10297901 -0.10853258 0.20660746 0.025373356 -0.056061033 -0.10254184
-0.10505194 -0.08295505 -0.08638961 0.14776388 -0.004262138 -0.103833474 -0.08690158 0.03544002
0.021648495 -0.21686372 0.14987034 0.031035082 -0.08058504 0.04653559 -0.207634 -0.06077207
-0.03051308 -0.17042698 0.18101685 -0.16330394 0.11030798 -0.12233638 0.12518562 -0.17805246
-0.032312036 -0.10664713 -0.16813071 -0.15138745 0.011934684 0.09999776 0.13826117 -0.17511508
0.08046314 -0.012557081 0.06173527 -0.14958546 0.120988026 0.055823427 -0.18671438 0.02600358
-0.0043870737 0.071907 -0.013657456 -0.04759867 -0.053843655 -0.14202836 0.087082684 -0.08101852
-0.055620357 -0.0876443 0.18383479 -0.029970186 -0.13510154 0.032246858 -0.010247665 -0.073222816
0.0567 0.06387552 -0.20911491 -0.15437755 0.059832264 -0.07830699 0.11070463 0.19539909
-0.007874465 0.19762921 0.03997655 -0.07682545 -0.098179705 -0.10562228 -0.043128084 -0.08599856
-0.057616085 -0.031446464 0.03014071 0.04944948 0.08241356 0.00835481 -0.073671214 -0.021917144
-0.018437054 -0.03361891 -0.06085026 -0.047761075 0.2022057 -0.008316795 0.113956995 -0.122568145
0.15034756 -0.10065512 -0.010267798 -0.0074444218 -0.0787575 -0.19203304 -0.0635094 0.17096473
-0.14547914 -0.031404536 0.012857842 -0.010325764 -0.0036689024 -0.039288864 -0.07498986 0.08759654
-0.15891479 0.20265487 -0.040217273 -0.12372122 -0.08969629 0.14822282 -0.044938564 0.15822735
-0.12787384 -0.01617359 0.036895275 -0.09329007 0.024919823 0.09869523 -0.124373086 -0.121011026
0.07991281 0.11678687 0.09258486 -0.03719536 0.11284905 -0.04577482 -0.013865939 0.033054385
00000000: 7c97 f43d 3627 3fbe 0a48 c0bc 0558 45bd
00000010: 6752 b1bd 9151 af3c 1a3a 5e3d 5b7d 0fbe
00000020: 37ef 21be ccff e83c c0f9 a63d bccc 153e
00000030: bdb8 8abc 3bb4 2cbd 8023 0fbd 7c27 ebbc
00000040: 993d 3a3d 2313 c7bd 6e16 de3b 4a9d 023e
00000050: cd3f d1bd 425f 6d3d 781f 88bc c10d 39bc
00000060: bbcf d0bc 96e6 f53d 0051 0e3e 231c 0a3e
00000070: 888c f0bc 41d9 8dbd dafd 023d d426 313e
00000080: 7d87 92be d89e 22be 24ef 2cbe 522d 11bd
00000090: 777f f8bc baec bfbd b0d6 adbd 109e b7bd
000000a0: d507 c8bd 6f20 2cbe 568b 1a3e 176b 18be
000000b0: 4d9d 08bc 0b8f b93d b6cf f0bd 124f 49bd
000000c0: 9c4c 323e 4ad4 e8bd 1926 49bd 918a da3d
000000d0: 1404 7cbd 1ecb b6bd a4d3 183e 5316 adbd
000000e0: f765 75bd f825 c53d 7614 7d3e f69b f73d
000000f0: 47f1 9bba 30ef 173e bbe9 2c3d b097 743d
00000100: 45cb 3bbd 6979 37be 901c c43d 2154 21be
00000110: efd0 c13c 901e 04be d93c ffbd b846 05be
00000120: 4e0c e83d a858 ba3c 1eb3 80bd b99e c83d
00000130: 42b4 1abc c707 a9bd c04b d63d b252 0f3e
00000140: 3bfc d33d ee15 1abe d2a7 dabc 15e5 29be
00000150: 4ca7 3f3d 4b53 b13d ef48 b13c d7b6 193e
00000160: c7b9 0fbd 1603 603e ac92 c73d c177 dabc
00000170: c33a 2cbe a230 df3c c7f2 493d 42df 7bbe
00000180: 3f4d d3bd 3122 013d 9723 543e cebf c43d
00000190: ca26 3bbe 837a 25bb f94b 353e 622e a6bd
000001a0: ef86 053d 2137 79be 0431 483d 4de8 ebbd
000001b0: d356 9bbd cce5 573e e8fa 5ebc 979a 81bd
000001c0: 6297 70bd 2f29 9b3d 5743 943d 6432 1c3e
000001d0: 634b 02be fe2f 95bd be7e 27be d58f 29be
000001e0: 3358 803c 149a d63c a9e6 d23d 5446 debd
000001f0: e890 533e c9db cf3c 41a0 65bd 7501 d2bd
00000200: 7925 d7bd 56e4 a9bd 09ed b0bd 6a4f 173e
00000210: 68a9 8bbb a5a6 d4bd 75f9 b1bd 8e29 113d
00000220: 2f58 b13c 8611 5ebe 9c77 193e 493d fe3c
00000230: c509 a5bd 1a9c 3e3d 029e 54be 22ec 78bd
00000240: 91f6 f9bc 6984 2ebe 7b5c 393e 2639 27be
00000250: 26e9 e13d 7f8b fabd a930 003e 6253 36be
00000260: a059 04bd cf69 dabd 752a 2cbe 5005 1bbe
00000270: b189 433c a0cb cc3d 5694 0d3e 5e51 33be
00000280: dcc9 a43d 37bc 4dbc 1fde 7c3d ee2c 19be
00000290: 92c8 f73d 1ba7 643d 0e32 3fbe 7605 d53c
000002a0: 71c1 8fbb fa43 933d 86c3 5fbc d3f6 42bd
000002b0: 2a8b 5cbd e26f 11be 6858 b23d 0aed a5bd
000002c0: 2cd2 63bd db7e b3bd 303f 3c3e 0984 f5bc
000002d0: 0f58 0abe 4815 043d d3e5 27bc d8f5 95bd
000002e0: 423e 683d 2bd1 823d 3822 56be 2615 1ebe
000002f0: ad12 753d 6a5f a0bd 1cb9 e23d b316 483e
00000300: e603 01bc 505f 4a3e 73be 233d a956 9dbd
00000310: 7112 c9bd 7e50 d8bd 13a7 30bd 0320 b0bd
00000320: d8fe 6bbd 02ce 00bd a6e9 f63c 8a8b 4a3d
00000330: 71c8 a83d 9de2 083c efe0 96bd 958b b3bc
00000340: 4e09 97bc fbb3 09bd 1f3e 79bd 1ea1 43bd
00000350: 030f 4f3e 2b43 08bc 4962 e93d 0205 fbbd
00000360: b6f4 193e 4624 cebd 443a 28bc 56f0 f3bb
00000370: 9d4b a1bd 4fa4 44be 3711 82bd 6111 2f3e
00000380: 7cf8 14be 0ba2 00bd b3a9 523c 652d 29bc
00000390: f871 70bb 5ced 20bd 4994 99bd d165 b33d
000003a0: 8fba 22be c284 4f3e deba 24bd 8d61 fdbd
000003b0: b0b2 b7bd b9c7 173e 8011 38bd 5a06 223e
000003c0: 5cf1 02be 7a7e 84bc 801f 173d dd0e bfbd
000003d0: a824 cc3c ba20 ca3d 51b7 febd a1d4 f7bd
000003e0: 54a9 a33d f42d ef3d 229d bd3d 295a 18bd
000003f0: 671d e73d 617e 3bbd f72d 63bc 0964 073d

network.1.running_var f4 [512]
0.2002931 0.25728154 0.36773393 0.33530352 0.31934473 0.35869762 0.21287234 0.28673044
0.28749734 0.23948064 0.3005441 0.2699233 0.24933751 0.31033093 0.21624272 0.15749027
0.24769297 0.23962781 0.23358254 0.22000886 0.23930441 0.2539209 0.29484057 0.21540031
0.27778837 0.3731569 0.21188478 0.20460585 0.24597782 0.3306563 0.2542262 0.2035783
0.35252208 0.24760602 0.31547788 0.23911916 0.276442 0.23027626 0.22707802 0.42004025
0.40738648 0.47206867 0.29171184 0.20802918 0.21869183 0.30218905 0.33655715 0.28371266
0.40236565 0.2938455 0.23468001 0.29263884 0.21892802 0.25481075 0.35004747 0.28119513
0.21516599 0.29609764 0.36483812 0.27321753 0.22651641 0.22139478 0.26894218 0.2171424
0.27137882 0.30162045 0.2835131 0.31548077 0.22578232 0.25748846 0.27657917 0.26110736
0.22265589 0.3034348 0.29689038 0.32915017 0.21169353 0.1344336 0.25185934 0.21470776
0.26354894 0.30807284 0.27123216 0.36132634 0.3682177 0.30094203 0.18188289 0.24700257
0.28195837 0.23921631 0.23493426 0.38497272 0.26179078 0.30720076 0.29826844 0.26490185
0.5609175 0.25327793 0.30077416 0.4019911 0.23713839 0.22901449 0.40865332 0.26026678
0.22259738 0.2770519 0.2761524 0.3830076 0.1938318 0.37845668 0.23825024 0.33152565
0.2767153 0.31914788 0.23741423 0.31965485 0.23254642 0.30104616 0.2222569 0.2835306
0.3592589 0.25983512 0.21473704 0.27328908 0.19928585 0.29291594 0.38339227 0.24927057
0.3743881 0.25165302 0.30084673 0.23041596 0.24795231 0.24046502 0.31888792 0.23571427
0.23071602 0.2665805 0.31811497 0.21268241 0.339925 0.20545158 0.27403024 0.23526272
0.25211218 0.2749691 0.41581085 0.27501076 0.25589725 0.24809723 0.2790443 0.31044102
0.2665131 0.32301027 0.2518619 0.26513278 0.35715228 0.238104 0.3484771 0.27681383
0.29829454 0.31651303 0.23604563 0.32975993 0.2340964 0.30422106 0.27002656 0.25856075
0.25456786 0.38280928 0.32108858 0.20044501 0.41654864 0.32459643 0.22818574 0.3679967
0.31739286 0.18260245 0.25435784 0.30334166 0.2670711 0.35987157 0.31366605 0.2963831
0.25989163 0.418516 0.25303024 0.3543655 0.2074975 0.2261253 0.26358944 0.37911648
0.2416249 0.28674266 0.28702474 0.4325274 0.221281 0.25605017 0.2807818 0.3334438
0.24907677 0.2600366 0.26407412 0.30489007 0.3203176 0.3103816 0.4156035 0.37090993
0.2417461 0.2630238 0.22327378 0.26749915 0.31006092 0.31903818 0.35971433 0.2864873
0.29843137 0.2549219 0.22449249 0.32049987 0.4036612 0.23264533 0.20562369 0.28640538
0.26374856 0.28341028 0.2541101 0.29979125 0.32514593 0.27770796 0.28675133 0.35343271
0.21596271 0.2767284 0.29095194 0.3080329 0.31874076 0.25965202 0.32366398 0.26479536
0.5646819 0.29899374 0.30613828 0.17873356 0.33520043 0.30295053 0.30834082 0.5369164
0.21580724 0.2646573 0.21995445 0.20794597 0.26770264 0.25668013 0.36530772 0.2296913
00000000: a219 4d3e 68ba 833e 9f47 bc3e e7ac ab3e
00000010: 2781 a33e 37a7 b73e 35fb 593e 55ce 923e
00000020: da32 933e 6a3a 753e ebe0 993e 6333 8a3e
00000030: 5552 7f3e b2e3 9e3e bb6e 5d3e 2145 213e
00000040: 3aa3 7d3e fe60 753e 4330 6f3e 014a 613e
00000050: 370c 753e ec01 823e 58f5 963e e691 5c3e
00000060: 473a 8e3e 6c0e bf3e 53f8 583e 3284 513e
00000070: 9ce1 7b3e c84b a93e f029 823e d476 503e
00000080: c67d b43e 6f8c 7d3e 5186 a13e a7db 743e
00000090: ce89 8d3e 8acd 6b3e 2487 683e 840f d73e
000000a0: f694 d03e fcb2 f13e 415b 953e 9a05 553e
000000b0: c0f0 5f3e 86b8 9a3e 3851 ac3e c942 913e
000000c0: df02 ce3e eb72 963e f54f 703e c2d4 953e
000000d0: ab2e 603e 8e76 823e 6c39 b33e cff8 8f3e
000000e0: 7954 5c3e 1c9a 973e 10cc ba3e 2be3 8b3e
000000f0: ebf3 673e 50b5 623e cab2 893e 945a 5e3e
00000100: 2af2 8a3e ff6d 9a3e a128 913e b286 a13e
00000110: 7b33 673e 87d5 833e c99b 8d3e ddaf 853e
00000120: e8ff 633e ce5b 9b3e 0402 983e 5f86 a83e
00000130: 30c6 583e f6a8 093e b5f3 803e 5adc 5b3e
00000140: e3ef 863e b9bb 9d3e f1de 8a3e c4ff b83e
00000150: 0887 bc3e 1315 9a3e 823f 3a3e 3eee 7c3e
00000160: d95c 903e 1ff5 743e 9b92 703e 251b c53e
00000170: 7109 863e 6b49 9d3e a4b6 983e 37a1 873e
00000180: 4a98 0f3f a5ad 813e 12ff 993e c7d1 cd3e
00000190: 68d4 723e c682 6a3e 023b d13e b041 853e
000001a0: 91f0 633e bfd9 8d3e d963 8d3e 9219 c43e
000001b0: d87b 463e 13c5 c13e dff7 733e bbbd a93e
000001c0: a1ad 8d3e 5a67 a33e b71c 733e cda9 a33e
000001d0: a620 6e3e b922 9a3e 5097 633e ec2a 913e
000001e0: c8f0 b73e 1c09 853e 07e4 5b3e 8cec 8b3e
000001f0: 9711 4c3e 14f9 953e fe4b c43e c940 7f3e
00000200: ccaf bf3e aad8 803e 9508 9a3e 29f2 6b3e
00000210: 36e7 7d3e 763c 763e 4745 a33e 155f 713e
00000220: d240 6c3e 3d7d 883e f7df a23e 6bc9 593e
00000230: a60a ae3e e661 523e b14d 8c3e b6e8 703e
00000240: d914 813e c0c8 8c3e 29e5 d43e 36ce 8c3e
00000250: f704 833e 330d 7e3e e5de 8e3e 20f2 9e3e
00000260: 6874 883e 9a61 a53e 0bf4 803e 7cbf 873e
00000270: aadc b63e 89d1 733e 976b b23e 8bba 8d3e
00000280: 10ba 983e ff0d a23e f2b5 713e 4bd6 a83e
00000290: f7b6 6f3e ddc2 9b3e ec40 8a3e 1362 843e
000002a0: b856 823e 94ff c33e b965 a43e 7541 4d3e
000002b0: dd45 d53e 8131 a63e 86a9 693e 106a bc3e
000002c0: 5181 a23e 23fc 3a3e 313b 823e 994f 9b3e
000002d0: 8bbd 883e 1641 b83e d698 a03e 87bf 973e
000002e0: 8410 853e bb47 d63e 2e8d 813e 656f b53e
000002f0: 3a7a 543e 648d 673e 32f5 863e 8e1b c23e
00000300: 856c 773e efcf 923e e8f4 923e 3b74 dd3e
00000310: 7d97 623e 0219 833e a2c2 8f3e 25b9 aa3e
00000320: fb0d 7f3e 8423 853e b934 873e 8d1a 9c3e
00000330: ab00 a43e 56ea 9e3e fbc9 d43e e8e7 bd3e
00000340: 4a8c 773e 0eab 863e e2a1 643e a6f5 883e
00000350: 4ec0 9e3e f958 a33e 7a2c b83e 77ae 923e
00000360: ffcb 983e 2085 823e 5ce1 653e 8f18 a43e
00000370: aeac ce3e 943a 6e3e 048f 523e baa3 923e
00000380: 0d0a 873e 271b 913e b81a 823e 3d7e 993e
00000390: 8779 a63e bd2f 8e3e 12d1 923e 22f5 b43e
000003a0: 5425 5d3e 58af 8d3e a7f7 943e 7db6 9d3e
000003b0: fd31 a33e 1cf1 843e 49b7 a53e 4293 873e
000003c0: fe8e 103f b515 993e 28be 9c3e ee05 373e
000003d0: 649f ab3e 551c 9b3e d9de 9d3e 5a73 093f
000003e0: 93fc 5c3e 2981 873e bd3b 613e caef 543e
000003f0: 5210 893e 946b 833e 9d09 bb3e 3234 6b3e

network.4.weight f4 [256, 512]
0.033978615 -0.013173506 0.014005134 -0.018525388 -0.039125595 -0.012980616 -0.023020515 -0.04282918
-0.039073132 -0.05184829 0.042363103 0.0019034474 0.02816334 0.0328956 -0.019652866 0.015007232
-0.007517145 -0.03207136 0.009202316 0.022437198 0.030686159 -0.033381272 0.010999325 -0.011616301
-0.023324545 0.030836718 0.013200633 -0.0031543102 -0.028631074 -0.03670263 -0.035906944 -0.017189428
0.026859071 -0.0073327804 0.011984047 -0.02673889 -0.00021717777 -0.013854067 0.020356849 0.011231724
0.016078783 -0.041763496 0.005116061 0.0014385087 -0.034598846 -0.025544694 0.018200967 0.011735264
0.020541925 0.027272912 -0.00083956646 -0.037579626 -0.016941516 -0.051506873 -0.0014750033 0.034516677
-0.05022548 0.026190048 -0.01866467 0.040506035 -0.008649744 -0.01516661 0.03968588 0.03574219
-0.021217773 0.020242848 0.012495865 -0.03196169 0.011210049 0.00303771 0.029610885 -0.009786111
-0.008019054 -0.028070137 -0.04155813 0.014815346 -0.04006581 0.043161876 -0.03234787 -0.009761063
-0.03424393 0.0084553445 -0.01329327 0.0091700675 0.003638525 0.036459535 0.007889262 -0.038774386
-0.020952096 -0.0011604088 0.037808083 -0.009236559 -0.026869712 -0.009032326 -0.012132957 -0.02394215
0.026503455 -0.022623653 0.055007987 -0.023125606 0.033421047 0.0051086773 -0.009796134 -0.036833663
0.022498125 0.006047544 0.0213685 -0.042851757 -0.04087543 -0.0152079845 0.0016612727 0.0059585427
-0.01133741 0.031248026 -0.01266427 0.024752203 -0.03510101 0.007836325 -0.039306905 0.048582617
-0.0035005813 -0.00487579 -0.024341876 -0.018869033 -0.047229335 -0.03380959 -0.03908001 -0.022368977
-0.03850391 0.007543519 0.004127469 -0.020080661 -0.021529904 0.004411497 -0.0475489 -0.01863333
-0.004998733 -0.018567964 -0.014448276 0.02112615 -0.04541104 0.0108394185 -0.022685194 0.029873611
-0.042787716 -0.015939182 -0.03494612 -0.0147695495 -0.0011441581 0.0049079717 -0.026886024 0.04691332
0.013364481 0.014363639 0.02702749 0.03806325 0.021379258 0.0028623636 -0.014916431 0.005454803
0.015115456 -0.040640187 -0.013124655 0.0037794963 -0.023986269 0.002231221 0.012531899 0.034832187
0.047082573 0.0054209474 0.030231848 -0.03416508 -0.016220823 -0.00347525 -0.019583667 0.03258884
-0.00034720328 -0.03140212 -0.0152332755 -0.041106906 0.020102121 0.030300312 0.028823484 0.010326509
-0.032635763 -0.005023437 0.025904913 0.033928376 0.011844642 0.0065581845 -0.028503457 0.0028690842
-0.029587852 0.010739615 0.003662394 0.036315564 0.014179843 -0.0526633 -0.022680258 -0.0073241247
0.014082248 0.025010264 0.00096621254 -0.0060750963 0.014988546 -0.011915688 0.012622263 0.04365957
0.047617573 -0.004490921 0.02290623 -0.03497846 0.004904392 0.0078796055 0.01738477 0.00029015198
0.033165514 0.033025272 0.0062254984 0.025206776 -0.0124764545 0.018581517 0.046324573 0.014194923
0.059094377 0.020379478 0.0051958323 -0.017969811 -0.026709812 -0.044583566 0.012097616 -0.02067003
0.04046701 0.023959242 -0.030366076 0.04369543 -0.01636902 -0.007973724 0.0067011975 0.04241335
0.0047746385 0.026362762 0.03405511 -0.01877818 0.0065724067 0.027546443 0.039365556 0.008221294
-0.034176268 -0.013012695 -0.0071855714 0.04334709 -0.033472735 -0.05372647 -0.028482528 0.02529589
00000000: 292d 0b3d b0d5 57bc ca75 653c 8ec2 97bc
00000010: 2942 20bd a6ac 54bc 8595 bcbc a66d 2fbd
00000020: 260b 20bd df5e 54bd ef84 2d3d 197d f93a
00000030: ceb6 e63c 89bd 063d 0cff a0bc e5e0 753c
00000040: 6252 f6bb 425d 03bd 50c5 163c 37ce b73c
00000050: 8a61 fb3c cdba 08bd 8336 343c 4c52 3ebc
00000060: 1e13 bfbc 499d fc3c 7847 583c 8bb8 4ebb
00000070: b78b eabc 7f55 16bd 2913 13bd d8d0 8cbc
00000080: 8e07 dc3c d247 f0bb bc58 443c 840b dbbc
00000090: 37ba 63b9 2bfc 62bc 68c3 a63c 4405 383c
000000a0: a7b7 833c 3310 2bbd a1a4 a73b 588c bc3a
000000b0: 85b7 0dbd 1b43 d1bc 321a 953c 4445 403c
000000c0: 8a47 a83c 716b df3c 5a16 5cba 18ed 19bd
000000d0: efc8 8abc dff8 52bd e654 c1ba 5c61 0d3d
000000e0: 3cb9 4dbd 838c d63c a6e6 98bc a8e9 253d
000000f0: a8b7 0dbc 5f7d 78bc a98d 223d 6766 123d
00000100: e5d0 adbc 54d4 a53c 75bb 4c3c 43ea 02bd
00000110: 5aaa 373c 5114 473b 8792 f23c ed55 20bc
00000120: 5a62 03bc 58f3 e5bc dc38 2abd 11bc 723c
00000130: 0c1c 24bd 82ca 303d 337f 04bd deec 1fbc
00000140: 5d43 0cbd 4988 0a3c 04cc 59bc 0d3e 163c
00000150: 5274 6e3b 9856 153d f741 013c e4d1 1ebd
00000160: bba3 abbc dc18 98ba a6dc 1a3d f054 17bc
00000170: df1d dcbc 52fc 13bc 4fc9 46bc 5422 c4bc
00000180: c61d d93c 3d55 b9bc 0e50 613d e971 bdbc
00000190: 82e4 083d b166 a73b f77f 20bc e5de 16bd
000001a0: fd4d b83c 7a2a c63b fe0c af3c 5385 2fbd
000001b0: ff6c 27bd e92a 79bc 10bf d93a e13f c33b
000001c0: 8bc0 39bc dcfb ff3c cc7d 4fbc 22c5 ca3c
000001d0: 14c6 0fbd ee63 003c 4700 21bd 91fe 463d
000001e0: 026a 65bb 17c5 9fbb 9d68 c7bc 3b93 9abc
000001f0: 8c73 41bd ed7b 0abd 5c12 20bd 253f b7bc
00000200: 47b6 1dbd a02f f73b b83f 873b 3380 a4bc
00000210: 7b5f b0bc 528e 903b a3c2 42bd eda4 98bc
00000220: 69cc a3bb d81b 98bc 76b8 6cbc bf10 ad3c
00000230: ed00 3abd d197 313c 4dd6 b9bc 81b9 f43c
00000240: 2c42 2fbd e392 82bc aa23 0fbd fbfb 71bc
00000250: 93f7 95ba 0dd3 a03b 1440 dcbc 2e28 403d
00000260: b2f6 5a3c 7855 6b3c c168 dd3c 36e8 1b3d
00000270: 8e23 af3c 7e96 3b3b 0c64 74bc 34be b23b
00000280: d1a6 773c 5376 26bd cb08 57bc 6db1 773b
00000290: da7e c4bc ad39 123b 9852 4d3c 32ac 0e3d
000002a0: a8d9 403d 34a2 b13b c8a8 f73c aff0 0bbd
000002b0: 88e1 84bc 05c1 63bb ed6d a0bc e07b 053d
000002c0: d608 b6b9 829f 00bd fd94 79bc b75f 28bd
000002d0: 34ad a43c 5c38 f83c 3a1f ec3c 8530 293c
000002e0: 14ad 05bd a59b a4bb 8a36 d43c 7bf8 0a3d
000002f0: 0810 423c 0ae6 d63b 1580 e9bc 3f07 3c3b
00000300: 3962 f2bc 36f5 2f3c c604 703b a1bf 143d
00000310: 9252 683c 79b5 57bd f3cb b9bc 36ff efbb
00000320: 3bb9 663c 53e2 cc3c 6d49 7d3a 9a11 c7bb
00000330: 8592 753c 053a 43bc 9ccd 4e3c 61d4 323d
00000340: a50a 433d 9328 93bb d9a5 bb3c 9345 0fbd
00000350: 06b5 a03b 7619 013c 816a 8e3c 8a1f 9839
00000360: 90d8 073d 8245 073d 44ff cb3b 717e ce3c
00000370: 0b6a 4cbc 4438 983c d6be 3d3d d391 683c
00000380: f20c 723d ddf2 a63c cd41 aa3b 6d35 93bc
00000390: 89ce dabc 429d 36bd 1435 463c 3254 a9bc
000003a0: bcc0 253d 2c46 c43c 47c2 f8bc fbf9 323d
000003b0: 5318 86bc 39a4 02bc b895 db3b 9fb9 2d3d
000003c0: 9274 9c3b b8f6 d73c 5f7d 0b3d b3d4 99bc
000003d0: 585d d73b 14a9 e13c c73d 213d 9bb2 063c
000003e0: 6afc 0bbd 3333 55bc f174 ebbb b88c 313d
000003f0: b51a 09bd 4910 5cbd 3154 e9bc 5439 cf3c

network.4.bias f4 [256]
0.03257252 0.021560956 -0.0037631139 -0.009618506 -0.008189677 -0.0424798 0.02425487 0.027042115
0.032439403 0.0026533012 -0.012071253 0.0030712485 -0.025358733 0.038192086 -0.026262363 0.034807537
0.0387004 0.018358637 -0.032843992 -0.03919484 0.008141491 0.0384372 -0.0033492541 0.026834644
-0.0122784525 -0.020893002 -0.002459162 0.02756916 0.019255709 -0.022792293 -0.008165161 0.02574819
-0.017036194 -0.019878052 0.020357441 0.040530328 -0.038714193 -0.02308286 0.017329091 0.0039413488
-0.02211622 0.036528815 0.0420878 -0.043678388 0.037700593 0.03979258 -0.027288152 -0.031528253
0.022678146 0.028080938 0.008900769 0.017673895 -0.036589317 0.041757047 -0.028633023 -0.030125493
0.029993538 -0.041394707 -0.023838265 0.010522111 -0.040557623 -0.032455333 -0.005990326 -0.022086307
-0.0136574665 -0.031258762 -0.0061778417 0.039005965 0.022853903 0.021656437 -0.0010908273 -0.007488847
-0.03589325 0.041007936 -0.008472844 -0.018536849 -0.026897037 0.008442757 -0.038696025 0.004255764
-0.0013346422 -0.008036789 -0.021374252 0.0016390494 -0.023860972 -0.009421483 0.0046796408 -0.019830858
-0.02090282 0.011480787 0.0058094496 0.015935512 0.039040916 0.029222794 0.041339893 -0.037731025
0.011252602 -0.031296466 -0.019444423 0.029167851 0.04085977 0.030799786 0.0018126197 0.0031872848
0.006743198 0.01894296 -0.025583982 -0.02649559 0.010988193 -0.0134252915 0.02550577 -0.0014904886
-0.038761187 0.027429035 -0.04052963 -0.040071227 0.03204359 -0.005137069 -0.034343023 -0.031734664
-0.008244637 0.040506225 -0.040776245 0.043004636 0.03162423 0.012932033 0.0071507934 -0.022005942
0.019548513 0.028685318 -0.023791535 -0.04091692 0.039505567 -0.035732158 0.0013903133 -0.03547033
-0.030557325 0.03418721 0.004921986 -0.04168119 0.010438568 -0.015937679 0.04187037 0.034492012
-0.02817897 0.031144759 0.0077082673 0.039940517 -0.0424804 -0.035280377 0.019474063 0.03362651
0.017546786 0.009360456 0.03799623 0.0153392535 -0.0071914173 0.0192375 -0.030848047 0.010259531
0.028631771 -0.025538951 -0.013855099 -0.025947776 -0.029691694 0.02979901 -0.0034765913 0.013520341
0.012604846 0.022401674 0.04295429 -0.008029625 0.034151986 0.01995394 -0.03956224 0.028394198
0.029256018 -0.0031558396 -0.017789498 0.019343793 0.026337458 0.03482884 0.0021674396 -0.036314808
-0.033160836 0.03528386 -0.026395772 -0.004385993 0.0016142024 0.034949742 0.0048041726 -0.018432908
0.014726157 -0.0037427323 0.031135906 -0.02705123 -0.00010619937 0.026452692 0.025436811 -0.016995605
-0.02548382 -0.0003623122 -0.00030353753 0.03172644 -0.001724862 -0.026294136 -0.024478259 0.0060063167
-0.0006850722 -0.025078308 -0.0036939785 0.023031408 0.035046328 0.02658509 0.03852055 0.026256246
-0.021173125 -0.04067913 0.0255927 0.016367128 -0.013766308 -0.005374392 -0.04196771 0.043526284
-0.013619862 0.004672362 0.0021329152 -0.02770668 0.018384239 -0.024728598 0.043005627 0.018677754
-0.032986958 0.008199483 0.031437617 -0.039972477 0.021021554 -0.03935841 -0.03244876 0.029398
0.009752626 0.0079734195 -0.014210374 -0.022317287 0.03915034 0.033004634 -0.02799334 -0.012848903
-0.013460608 0.013309825 0.042097438 -0.011459334 -0.019450309 -0.027999848 0.019654887 0.034953568
00000000: c36a 053d 9aa0 b03c 939e 76bb f096 1dbc
00000010: ff2d 06bc 4cff 2dbd 26b2 c63c 6d87 dd3c
00000020: 2edf 043d 02e3 2d3b 81c6 45bc 0047 493b
00000030: 1ebd cfbc 4e6f 1c3d 2b24 d7bc 5992 0e3d
00000040: 5084 1e3d da64 963c 6c87 06bd c58a 20bd
00000050: e363 053c 5370 1d3d 297f 5bbb 54d4 db3c
00000060: 902b 49bc cd27 abbc e429 21bb b8d8 e13c
00000070: 26be 9d3c e7b6 babc 2bc7 05bc deed d23c
00000080: 7d8f 8bbc 4cd7 a2bc a6c4 a63c 2103 263d
00000090: c692 1ebd 4418 bdbc bdf5 8d3c 6e26 813b
000000a0: 132d b5bc 3d9f 153d 4264 2c3d 1ce8 32bd
000000b0: f06b 1a3d 8bfd 223d 678b dfbc c523 01bd
000000c0: 85c7 b93c ff09 e63c 88d4 113c d8c8 903c
000000d0: aede 15bd 7009 2b3d cd8f eabc bdc9 f6bc
000000e0: 02b5 f53c 7f8d 29bd 7748 c3bc ef64 2c3c
000000f0: c01f 26bd e2ef 04bd 7f4a c4bb 58ee b4bc
00000100: 91c3 5fbc 3009 00bd 7e6f cabb b8c4 1f3d
00000110: 1c38 bb3c d768 b13c 17fa 8eba 0065 f5bb
00000120: cd04 13bd f0f7 273d afd1 0abc 97da 97bc
00000130: 2d57 dcbc 7d53 0a3c b97f 1ebd f073 8b3b
00000140: 29ef aeba bcac 03bc 0e19 afbc 5fd5 d63a
00000150: 1678 c3bc 905c 1abc ac57 993b 5374 a2bc
00000160: 643c abbc e919 3c3c 325d be3b 318b 823c
00000170: 5ee9 1f3d a464 ef3c 0554 293d d98b 1abd
00000180: d55c 383c b930 00bd e949 9fbc 6bf1 ee3c
00000190: 935c 273d d54f fc3c 6d95 ed3a c4e1 503b
000001a0: 0bf6 dc3b 442e 9b3c 8095 d1bc 480d d9bc
000001b0: d207 343c c1f5 5bbc 7af1 d03c 805c c3ba
000001c0: 0dc4 1ebd dbb2 e03c 6602 26bd ba21 24bd
000001d0: 2440 033d dc54 a8bb 45ab 0cbd 35fc 01bd
000001e0: 8414 07bc dbe9 253d fe04 27bd a125 303d
000001f0: 6988 013d e1e0 533c 3451 ea3b ce45 b4bc
00000200: 3424 a03c 79fd ea3c 77e6 c2bc 8098 27bd
00000210: 97d0 213d e25b 12bd 2c3b b63a 5649 11bd
00000220: 5b53 fabc e307 0c3d 9c48 a13b e5b9 2abd
00000230: 8706 2b3c bc8f 82bc 4480 2b3d 7f47 0d3d
00000240: 95d7 e6bc 4b23 ff3c a295 fc3b ab98 233d
00000250: eeff 2dbd 2882 10bd 1288 9f3c f4bb 093d
00000260: 47be 8f3c 995c 193c efa1 1b3d 7e51 7b3c
00000270: fba5 ebbb f697 9d3c 0bb5 fcbc 9817 283c
00000280: 2d8d ea3c 1037 d1bc 7f00 63bc 6e90 d4bc
00000290: ff3b f3bc 0e1d f43c 86d7 63bb 6c84 5d3c
000002a0: 8e84 4e3c b783 b73c d6f0 2f3d b08e 03bc
000002b0: f4e2 0b3d 7276 a33c 040c 22bd f39a e83c
000002c0: 51aa ef3c 34d2 4ebb 48bb 91bc e076 9e3c
000002d0: a7c1 d73c b0a8 0e3d 9a0b 0e3b d6be 14bd
000002e0: a8d3 07bd cf85 103d f23b d8bc 60b8 8fbb
000002f0: a593 d33a 7627 0f3d 526c 9d3b 9c00 97bc
00000300: fb45 713c a148 75bb ba10 ff3c 8b9a ddbc
00000310: 5ab7 deb8 51b3 d83c dc60 d03c 5e3a 8bbc
00000320: 72c3 d0bc b8f4 bdb9 1e24 9fb9 95f3 013d
00000330: c414 e2ba cd66 d7bc a186 c8bc a3d0 c43b
00000340: 6b96 33ba 0671 cdbc ad16 72bb 5dac bc3c
00000350: bd8c 0f3d fac8 d93c b9c7 1d3d 5717 d73c
00000360: 4373 adbc 299f 26bd c8a7 d13c 5b14 863c
00000370: 158c 61bc ab1b b0bb 55e6 2bbd 9e48 323d
00000380: d725 5fbc 9d1a 993b 61c8 0b3b 1ff9 e2bc
00000390: 8b9a 963c a193 cabc ab26 303d 1702 993c
000003a0: 551d 07bd 2057 063c bbc4 003d 2eba 23bd
000003b0: 6535 ac3c 4936 21bd fee8 04bd 13d4 f03c
000003c0: 7ac9 1f3c f2a2 023c a1d2 68bc bed2 b6bc
000003d0: 1b5c 203d de2f 073d 4a52 e5bc 3584 52bc
000003e0: e289 5cbc 7411 5a3c 5d6e 2c3d eebf 3bbc
000003f0: 4156 9fbc f05f e5bc 4903 a13c 792b 0f3d
