wandb/run-20251108_183434-c1wygq3a/files/best_model.pth (torch, 765637 bytes, 9 tensors)

network.0.weight f4 [512, 34]
0	0x3dcc4ec0	0.09975958
1	0x3d671eca	0.056425847
2	0xbe2847f4	-0.16433698
3	0xbbb223d9	-0.0054364023
4	0x3ca9c7d0	0.02072516
5	0xbd88bc4e	-0.06676541
6	0xbe24773c	-0.1606111
7	0xbdee586d	-0.1163796
8	0x3d70f392	0.058826037
9	0x3ccecd28	0.02524431
10	0x3e082013	0.13293485
11	0xbe173ad9	-0.14768542
12	0x3de9afc4	0.11410478
13	0xbe397510	-0.18111062
14	0x3e1cc09d	0.15307851
15	0xbe2b2ae0	-0.16715574
16	0xbcfaf9ca	-0.030636687
17	0xbc907639	-0.017634498
18	0x3d8fefb0	0.07028139
19	0xbe18a0d1	-0.14905097
20	0x3d6b15b2	0.057393737
21	0x3e154681	0.14577676
22	0x3d809015	0.062774815
23	0x3e09fc1b	0.13475077
24	0x3c253662	0.010083767
25	0xbdbda9b0	-0.09260881
26	0xbd82c5e7	-0.06385403
27	0xbac26a38	-0.0014832681
28	0x3d9d0ae3	0.07668092
29	0x3c5e85e7	0.0135817295
30	0xbe06a9ed	-0.13150759
31	0x3dc1557e	0.094401345
32	0xbd332be8	-0.043743044
33	0x3d8607ed	0.065444805
34	0xbd4e2269	-0.050325785
35	0x3c88c3e5	0.016694972
36	0x3dd7a631	0.10529745
37	0xbe549151	-0.20758559
38	0xbcddc23a	-0.027070154
39	0xbe43ecd9	-0.19133319
40	0x3cc00c66	0.023443412
41	0x3cf423a2	0.029802147
42	0xbe1506d6	-0.14553389
43	0xbc8098c3	-0.015697842
44	0x3e0acc14	0.13554412
45	0x3dac8d1a	0.084253505
46	0x3c334e2d	0.0109439315
47	0xbd0fa361	-0.03506792
48	0x3d823ee0	0.06359649
49	0x3c95ae1a	0.018271495
50	0xbceffeb9	-0.029296266
51	0xbd9781f4	-0.073978335
52	0x3ddab892	0.10679735
53	0x3d5ed71b	0.05440436
54	0xbe0dfa7c	-0.13865083
55	0x3d991b6e	0.07475935
56	0x3e0cc840	0.13748264
57	0x3d95e0d0	0.0731827
58	0xbb833c24	-0.004004972
59	0xbe4b8486	-0.19874772
60	0x3e0384de	0.12843654
61	0x3df5fb7e	0.12010859
62	0x3dfd9168	0.1238125
63	0xbdef925c	-0.11697838
64	0xbe00301d	-0.12518354
65	0x3d6f3f8e	0.05841022
66	0xbe0b01ce	-0.13574907
67	0x3d76f495	0.060291845
68	0x3def2587	0.1167708
69	0x3e32f4a0	0.1747613
70	0xbe417d6e	-0.18895504
71	0xbe036e0a	-0.12834945
72	0x3de512b8	0.11185211
73	0x3e11caa9	0.14237465
74	0x3d9effb0	0.07763612
75	0xbda441e0	-0.08020377
76	0x3dda4357	0.10657375
77	0x3d920f0f	0.071317784
78	0x3e2afb0d	0.16697331
79	0xbd94c212	-0.072635785
80	0xbdede7d3	-0.116164826
81	0x3e01996b	0.1265618
82	0xbdca68ac	-0.09883246
83	0x3de3f2a9	0.11130268
84	0x3c002fa1	0.007823856
85	0xbe64352e	-0.22285911
86	0xbe18a32c	-0.14905995
87	0x3dace57f	0.084422104
88	0x3de08a4c	0.10963878
89	0xbddc8c09	-0.10768897
90	0xbd9637c5	-0.07334856
91	0xbc2ecaf1	-0.010668502
92	0xbe047513	-0.12935285
93	0xbd22dae3	-0.039759528
94	0xbdfb4166	-0.12268333
95	0x3cdf9176	0.02729104
96	0x3dc6cc3e	0.09706925
97	0xbc8879da	-0.016659666
98	0x3c96a5f8	0.018389687
99	0x3d5125f1	0.051061574
100	0xbd490729	-0.049079094
101	0xbc44d130	-0.012012765
102	0x3dd51963	0.10405233
103	0xbe3e4669	-0.18581547
104	0x3c80663d	0.015673751
105	0xbdfd563c	-0.123699635
106	0x3d3924b4	0.04520102
107	0xbdf906f0	-0.12159526
108	0xbe284ca1	-0.16435482
109	0xbd4dc3fb	-0.05023573
110	0x3e124995	0.14285882
111	0x3ddd1742	0.10795452
112	0x3df02fdf	0.11727881
113	0xbdbf27e0	-0.093337774
114	0xbdc833e1	-0.0977552
115	0xbe0d1d91	-0.1378081
116	0xbd08fca3	-0.03344406
117	0xbd13243e	-0.035923235
118	0xbd3fab97	-0.0467945
119	0x3c3a317b	0.011364336
120	0x3d0fbd45	0.03509261
121	0xbd94fbd8	-0.07274598
122	0xbe130c9b	-0.14360277
123	0x3cbe44af	0.02322611
124	0x3d53f72e	0.0517494
125	0xbdfe1125	-0.12405614
126	0xbda8a8d6	-0.08235328
127	0xbd1f3058	-0.038864464
128	0x3cccb3af	0.024988024
129	0xbc2a8592	-0.010407822
130	0xbddaf4c8	-0.106912196
131	0x3e3e3786	0.18575868
132	0xbe34b70e	-0.17647955
133	0x3d00b9ec	0.03142731
134	0x3e29f1c6	0.16596135
135	0xbd862e9d	-0.065518595
136	0xbd016424	-0.031589642
137	0xbc0e2063	-0.008674714
138	0xbe119319	-0.1421627
139	0xbe1a7f54	-0.15087634
140	0xbcfa3e08	-0.030547157
141	0xbd5298db	-0.051415306
142	0x3dd85aaa	0.10564168
143	0xbd4d403d	-0.05011009
144	0x3d43a3b1	0.04776353
145	0xbd8f25c8	-0.06989628
146	0x3dd793f3	0.10526266
147	0xbe282efe	-0.16424176
148	0xbc3e6f36	-0.011623194
149	0x3ddcf53a	0.10788961
150	0x3db9d5a3	0.09073951
151	0x3d4c78d9	0.049919937
152	0x3db4d758	0.08830136
153	0x3c6f8d53	0.014621097
154	0x3d9759a0	0.073901415
155	0xbc0cbd6b	-0.008590083
156	0xbc19d3cb	-0.009388874
157	0xbe14f4f3	-0.14546566
158	0x3dc9433d	0.09827278
159	0x3da10dda	0.0786397
160	0x3c98d636	0.018656831
161	0xbcc3b845	-0.023891577
162	0x3d9fee0b	0.07809075
163	0xbd90a7fe	-0.07063292
164	0xbe04369f	-0.12911461
165	0x3db31781	0.087447174
166	0xbdfa53c0	-0.12223005
167	0x3e08e968	0.13370287
168	0xbe0d29c7	-0.13785468
169	0xbe3c13e1	-0.18366958
170	0xbe508b99	-0.20365752
171	0xbe1a7915	-0.15085252
172	0x3d745704	0.059653297
173	0xbe44c0f3	-0.1921423
174	0xbdbb0c8a	-0.09133251
175	0xbe06b2b9	-0.13154115
176	0x3e164c7d	0.14677615
177	0xbdff0c48	-0.12453514
178	0xbdedcff3	-0.11611929
179	0xbda8f797	-0.08250349
180	0xbd0aa3a2	-0.03384746
181	0x3c804343	0.015657073
182	0x3d023aa0	0.03179419
183	0xbcc0b163	-0.023522085
184	0xbe3d565e	-0.18489978
185	0x3de52524	0.11188725
186	0xbe1a75e9	-0.15084042
187	0xbc1e126b	-0.009647946
188	0x3e2613c6	0.1621848
189	0x3d5f9108	0.054581672
190	0x3da710b3	0.08157482
191	0x3dc789a1	0.097430475
192	0xbc738a23	-0.014864477
193	0x3b7c531c	0.0038501685
194	0x3c5e356c	0.013562541
195	0x3d8d2ca5	0.06893281
196	0xbe0953b2	-0.13410833
197	0xbcb8d2d4	-0.022561468
198	0xbd2af2b9	-0.041735385
199	0xbd8d0f52	-0.06887688
200	0x3de978fb	0.11400028
201	0x3c12d0f6	0.008960953
202	0xbd07e39c	-0.03317605
203	0xbc1009fb	-0.008791442
204	0x3c810e2a	0.015753824
205	0xbd142607	-0.03616908
206	0x3cfdebf7	0.030996306
207	0xbc821b33	-0.01588211
208	0xbc45f037	-0.012081197
209	0xbd5eca03	-0.054391872
210	0xbe39e2a6	-0.18152866
211	0xbd8e9ffe	-0.0696411
212	0xbdec00a4	-0.1152356
213	0x3d4bfe5a	0.049803115
214	0x3b3f02e9	0.0029146022
215	0x3d36d15f	0.044633266
216	0x3de760a7	0.11297732
217	0xbe0f8ee1	-0.14019348
218	0xbcb73cb9	-0.022367822
219	0x3de74244	0.11291936
220	0x3e1752a7	0.14777623
221	0xbdb41d8c	-0.08794698
222	0xbdd2b4bc	-0.102883786
223	0xbde4adf2	-0.1116599
224	0xbd05c628	-0.03265968
225	0xbe15b950	-0.14621472
226	0x3e312f48	0.17303193
227	0xbd7ed4b7	-0.06221458
228	0x3d46ee81	0.0485673
229	0x3d837924	0.0641959
230	0xbbbe5fa4	-0.005809741
231	0x3d205a6d	0.039148737
232	0xbd927eea	-0.07153113
233	0x3e0ce64e	0.1375973
234	0xbdeb9713	-0.115034245
235	0xbe572e0c	-0.21013659
236	0x3e20a00d	0.15686055
237	0xbcde5284	-0.027138956
238	0x3ae3a17a	0.0017366849
239	0x3de4ce22	0.11172129
240	0xbb7f3bdb	-0.0038945589
241	0xbe39c60d	-0.18141957
242	0xbb49d564	-0.0030797357
243	0xbe5498f2	-0.20761469
244	0x3d898252	0.0671431
245	0xbdd5254c	-0.104075044
246	0xbdd5b41e	-0.10434745
247	0xbdbe309c	-0.09286615
248	0xbdcef1ee	-0.10104738
249	0x3dd389cc	0.10329017
250	0xbbd38c68	-0.0064559467
251	0xbcdeea85	-0.027211437
252	0x3ddb1cb0	0.10698831
253	0xbdc64f09	-0.096830435
254	0x3e0c2cf1	0.13689019
255	0x3d0b62b3	0.034029674

network.0.bias f4 [512]
0	0x3b4de79b	0.0031418565
1	0xbd6f53bb	-0.05842946
2	0xbd963c71	-0.07335747
3	0xbcf8ed9c	-0.030386738
4	0x3e4a1b7c	0.19737047
5	0xbdf85ab9	-0.12126679
6	0x3ca00737	0.01953469
7	0x3d2ab838	0.04167959
8	0x3dd38547	0.10328155
9	0x3d2ec2d9	0.04266629
10	0x3da85433	0.08219185
11	0x3d31aa90	0.04337555
12	0x3d866a5e	0.06563257
13	0x3d372d72	0.044721074
14	0xbc86f616	-0.016474765
15	0xbd835143	-0.06411984
16	0x3e033ca9	0.12816109
17	0xbe010004	-0.12597662
18	0x3cd3df41	0.025863292
19	0x3e1ffe0c	0.15624255
20	0xbe2cb861	-0.1686721
21	0x3d3a52d9	0.045489166
22	0xbe137470	-0.14399886
23	0x3da407fb	0.08009335
24	0x3dbcb52a	0.09214242
25	0xbdb2223e	-0.086979374
26	0x3d023a5c	0.031793937
27	0xbe02385a	-0.12716809
28	0x3d2cc8c5	0.042183656
29	0xbccdeb5a	-0.025136638
30	0xbd6f64b0	-0.058445632
31	0xbdbe433f	-0.0929017
32	0xbb8cc9ad	-0.0042965026
33	0xbe1d7200	-0.15375519
34	0x3b1ed5c3	0.0024236299
35	0x3e2a49d5	0.16629727
36	0x3d9f4b82	0.07778074
37	0xbcdef701	-0.02721739
38	0x3c886763	0.016650861
39	0xbc56afbe	-0.013103424
40	0x3d13b7f0	0.03606409
41	0xbd6960f7	-0.05697724
42	0x3e0e9c91	0.13926913
43	0xbca704a5	-0.020387957
44	0xbcee1bc5	-0.029065976
45	0xbdad5208	-0.08462912
46	0x3d173b2a	0.036921658
47	0xbe2efff6	-0.17089829
48	0xbe23e156	-0.16003928
49	0x3e2cfeeb	0.16894118
50	0x3c69165e	0.014226524
51	0x3dcbbbd9	0.099479385
52	0x3d25f9c8	0.040521413
53	0x3cc501c4	0.024048693
54	0x3d64d66e	0.05586856
55	0xbc3699ef	-0.011145099
56	0x3cb80161	0.022461595
57	0xbdc1a7cd	-0.094558336
58	0xbe18c356	-0.14918265
59	0x3ce8e665	0.028430173
60	0x3c5896a4	0.013219509
61	0x3d8fda5f	0.07024073
62	0xbe15cbcf	-0.14628528
63	0xbd087c92	-0.033321925
64	0x3ddd3d0b	0.10802659
65	0x3d98c88d	0.07460127
66	0x3da07ccb	0.07836302
67	0x3d30aba0	0.043132424
68	0x3e15f28b	0.14643304
69	0x3d9e6cfe	0.07735632
70	0x3d772f63	0.060347926
71	0x3dbce6e6	0.09223728
72	0xbde32d7a	-0.11092658
73	0xbe2389e5	-0.15970571
74	0x3deb592f	0.1149162
75	0x3d22eb90	0.03977543
76	0x3d0c7dac	0.034299538
77	0x3d2d6e48	0.0423415
78	0xbd45a937	-0.04825708
79	0xbd5b8c72	-0.053600736
80	0x3dd54781	0.10414029
81	0x3e056b31	0.13029172
82	0x3dfd5f17	0.123716526
83	0xbd481fa6	-0.048858307
84	0xbdafd37a	-0.08585258
85	0xbe0e62ae	-0.13904831
86	0x3de3e5af	0.11127793
87	0xbe458236	-0.19287953
88	0xbd72c0ea	-0.05926601
89	0x3d187bfc	0.037227616
90	0x3e18558a	0.1487638
91	0x3dee9dae	0.11651169
92	0xbd85138b	-0.06497868
93	0x3c82ea1c	0.015980773
94	0xbe096022	-0.13415578
95	0x3d37e445	0.04489543
96	0x3e1f1a49	0.1553737
97	0xbd564b74	-0.05231805
98	0x3e208812	0.15676907
99	0xbd9ff367	-0.07810097
100	0x3dfb61a4	0.12274483
101	0xbde168cb	-0.11006316
102	0xbd01c493	-0.03168161
103	0xbd8abc4f	-0.06774198
104	0x3bb5c522	0.0055471817
105	0x3e12eba4	0.14347702
106	0x3daa12c8	0.083043635
107	0xbd55408a	-0.052063502
108	0x3d0b84c4	0.034062162
109	0x3ce9745d	0.02849787
110	0xbdcf391c	-0.101183146
111	0x3da6484c	0.08119258
112	0xbd90383f	-0.07041978
113	0x3c8fe84c	0.017566822
114	0xbd9ff51d	-0.078104235
115	0xbb94231e	-0.004520788
116	0x3db642c2	0.08899452
117	0x3d4e8272	0.05041737
118	0xbe12b739	-0.14327706
119	0xbe0140ac	-0.12622327
120	0xbe0d1910	-0.13779092
121	0xbd6ff260	-0.058580756
122	0xbdcd10f6	-0.10013001
123	0xbdf0a031	-0.11749304
124	0x3b66ae96	0.0035199276
125	0x3d833432	0.0640644
126	0x3cf68366	0.030091953
127	0x3dbca94a	0.09211977
128	0xbca53fba	-0.020171989
129	0xbc2b4cc5	-0.010455315
130	0xbe0c118c	-0.13678569
131	0x3d01211c	0.031525716
132	0xbd36d666	-0.04463806
133	0x3dbe031b	0.09277936
134	0xbdb16da6	-0.08663492
135	0x3de6a3df	0.11261725
136	0x3d9019d7	0.070361786
137	0xbe188f5e	-0.1489844
138	0xbb8e94b0	-0.004351221
139	0x3e04b4e4	0.1295963
140	0x3d8f95a4	0.070109636
141	0x3dc82607	0.09772878
142	0x3d7eb267	0.062181856
143	0x3cf201e6	0.02954192
144	0x3d3f2e55	0.046675045
145	0x3d16e9bb	0.036843996
146	0xbdd3c781	-0.10340787
147	0x3d194082	0.037415035
148	0x3d8b2cd5	0.067956604
149	0x3e268905	0.16263206
150	0xbc76fa02	-0.015074255
151	0x3dde6782	0.10859586
152	0x3e0f48b9	0.13992585
153	0xbe17d6c2	-0.14828017
154	0x3dbe7d35	0.09301225
155	0xbc9d5cbf	-0.019209264
156	0x3b539204	0.0032283077
157	0x3ba2f473	0.0049729883
158	0x3e1a4a31	0.15067364
159	0x3c814752	0.015781078
160	0x3daeaa4a	0.08528574
161	0xbde7ec71	-0.113243945
162	0x3c8a6d2d	0.016897762
163	0xbe015341	-0.12629415
164	0x3e3a5f90	0.18200517
165	0xbdab2c73	-0.083580874
166	0xbd80386f	-0.06260764
167	0x3cbdb81c	0.02315908
168	0xbd77ef07	-0.06053069
169	0xbdbd5298	-0.09244269
170	0x3cf446df	0.02981895
171	0x3dceafa5	0.10092095
172	0xbd60a688	-0.054846317
173	0xbafdfe27	-0.0019378111
174	0x3db45190	0.08804619
175	0xbe0991e2	-0.13434556
176	0x3cd47ab2	0.025937412
177	0x3dd44df7	0.10366433
178	0x3dafa576	0.08576481
179	0xbdc01e73	-0.09380808
180	0x3e257e2e	0.16161415
181	0x3dc5963d	0.09647796
182	0x3d329cf8	0.04360673
183	0xbc15b648	-0.0091376975
184	0x3dc5471e	0.09632705
185	0x3b8ac592	0.004234978
186	0xbe478dda	-0.19487706
187	0xbd6bc09a	-0.057556726
188	0xbdbea75c	-0.09309265
189	0xbdea9b55	-0.114554085
190	0xbe3512ce	-0.17682955
191	0xbe36c552	-0.17848709
192	0x3daac643	0.08338597
193	0xbdc93c11	-0.0982591
194	0x3d200baa	0.039073624
195	0xbc0454a6	-0.008076822
196	0x3de3a053	0.11114564
197	0x3cf27fda	0.02960198
198	0xbe12a7ed	-0.14321871
199	0x3e24ed93	0.16106252
200	0x3de14b1a	0.110006526
201	0x3dae00a6	0.084962174
202	0xb918802e	-0.000145436
203	0xbdb9b058	-0.09066838
204	0xbd889bf8	-0.06670374
205	0xbd56ab7f	-0.052409645
206	0xbe0f1e4b	-0.139764
207	0xbd4bbafc	-0.04973887
208	0x3db65091	0.089020856
209	0x3d6443ad	0.055728603
210	0xbe00d718	-0.12582052
211	0xbde7138e	-0.11283027
212	0x3d9da118	0.07696742
213	0xbc59f324	-0.013302598
214	0xbdc50134	-0.0961937
215	0x3cfef953	0.031124746
216	0x3da720c1	0.08160544
217	0xbd9eb983	-0.07750227
218	0x3d5f7846	0.05455806
219	0x3d934ffc	0.0719299
220	0x3e0a3039	0.13494958
221	0xbe26dbb4	-0.16294748
222	0xbc8c58bc	-0.017132156
223	0xbe2bc67a	-0.16774932
224	0x3e038fbe	0.12847802
225	0x3d9513fe	0.07279204
226	0xbdff82b1	-0.12476099
227	0x3dfd5123	0.12368991
228	0x3d157cbd	0.036495913
229	0xbdd91e1d	-0.10601447
230	0xbc7a4f79	-0.015277737
231	0xbda5dd33	-0.08098831
232	0xbdeb9bfc	-0.11504361
233	0x3ced958e	0.029001977
234	0x3e1c0dff	0.15239714
235	0x3e0f83d9	0.1401514
236	0xbdb3e5b9	-0.087840505
237	0xbdf54912	-0.11976828
238	0xbe34a871	-0.1764238
239	0xbd8463ad	-0.06464324
240	0xbbbacfc4	-0.005701037
241	0x3c9d90b0	0.019234031
242	0x3e0464dc	0.129291
243	0x3ca70b7c	0.020391218
244	0xbd1ad541	-0.03780103
245	0x3db1c479	0.08680052
246	0x3d610712	0.054938383
247	0x3df5cbef	0.12001788
248	0xbe32208e	-0.17395231
249	0x3e0d6fd9	0.13812198
250	0xba03587a	-0.00050104375
251	0xbd96b96c	-0.07359585
252	0xbbae9f8e	-0.005329079
253	0xbdd16333	-0.10223999
254	0xbdc7b46f	-0.09751212
255	0xbc1df101	-0.009639979

network.3.weight f4 [256, 512]
0	0x3c45b562	0.012067171
1	0x3bcd5a42	0.006266863
2	0xbcbabc9a	-0.02279501
3	0x3d49cea3	0.04926933
4	0x3c351487	0.011052257
5	0x3d87619a	0.06610413
6	0xbcea02ee	-0.02856585
7	0xbc33ccc7	-0.010974116
8	0x3cc62692	0.024188314
9	0xbd35d9e9	-0.04439727
10	0x3d09f9f4	0.03368564
11	0x3d7f00c4	0.06225659
12	0xbd39a5ec	-0.04532425
13	0xbd3cd5d2	-0.046102352
14	0xbd4e0e5b	-0.05030666
15	0x3c11d06f	0.008899792
16	0x3c1f99f6	0.009741297
17	0x3cd9bcf2	0.026579354
18	0xbc2a5648	-0.010396548
19	0xbd45713c	-0.04820369
20	0xbbf2b9e2	-0.007407413
21	0x3c64e739	0.013971143
22	0x3b53a745	0.0032295745
23	0x3ac19aca	0.0014770862
24	0xbc782f1e	-0.015147952
25	0xbd3bc706	-0.0458441
26	0x3d149fb8	0.036285132
27	0x3d544c7e	0.05183076
28	0xbd3b3760	-0.045707107
29	0x3c27217d	0.010200855
30	0xbc8dbfae	-0.017303314
31	0xbc88edd2	-0.016714964
32	0x3d2121be	0.03933882
33	0x3c9e3530	0.019312471
34	0xbce6ffa2	-0.028198067
35	0x3d254fd2	0.040359326
36	0xbd0f6f7d	-0.035018433
37	0x3bcf73bf	0.0063309367
38	0xb8eafdb2	-0.00011205244
39	0x3d1705a8	0.03687063
40	0x3accf754	0.0015637674
41	0xbcb1e675	-0.021716336
42	0xbd3d83df	-0.04626834
43	0xbcf11adc	-0.029431753
44	0xbcda4de7	-0.026648475
45	0x3bbf4e93	0.005838224
46	0xbd21251d	-0.039342035
47	0xbd71de36	-0.059049807
48	0x3d08d1b2	0.033403106
49	0x3cc0ac89	0.023519771
50	0xbd155f17	-0.036467638
51	0x3cf3fca0	0.029783547
52	0xbca65a2c	-0.02030667
53	0xbc78a46c	-0.01517592
54	0xbb7290a7	-0.003701249
55	0x3d122e6e	0.03568881
56	0x3b1b5cd0	0.0023706444
57	0x3cc1c19c	0.02365189
58	0xbd57136e	-0.052508764
59	0xbc342d8d	-0.010997188
60	0x3ccbe5fc	0.024889939
61	0xbce344ce	-0.02774277
62	0xbcb4c8d3	-0.022068417
63	0xbd24d02f	-0.0402376
64	0x3cead248	0.028664723
65	0x3d110878	0.035408467
66	0x3b4f6a46	0.0031649037
67	0xbce35ed7	-0.027755184
68	0xbc6d80bc	-0.014496025
69	0x3d1a98bc	0.037743315
70	0xbcb55852	-0.022136841
71	0xbc3429e9	-0.01099632
72	0x3c9da798	0.019244954
73	0x3d07d5a1	0.033162717
74	0xbd09e5f0	-0.03366655
75	0xbd34920c	-0.044084594
76	0x3ce02d7d	0.02736544
77	0xbbd32fb3	-0.006444895
78	0xbcc4dcc6	-0.024031054
79	0xbaacfbca	-0.0013197598
80	0x3ca9aeb4	0.020713188
81	0xbd22d067	-0.03974953
82	0xbca52315	-0.02015833
83	0x3a6a0398	0.0008926927
84	0xbc4390a0	-0.011936337
85	0xbd1eeb47	-0.038798597
86	0xbd15ea03	-0.036600124
87	0x3bc327ed	0.0059556873
88	0xbcd44a0e	-0.025914218
89	0xbc878130	-0.016541094
90	0xbd0e2480	-0.034702778
91	0x3d25d067	0.04048195
92	0x3b71e78d	0.0036911697
93	0xbc195d4d	-0.009360624
94	0x3cbd6969	0.023121553
95	0xbd240c6e	-0.040050916
96	0x3d2c5c43	0.042080175
97	0xbd3fd612	-0.046835013
98	0x3d09fd2c	0.03368871
99	0x3c1d874a	0.009614775
100	0xbcd20f36	-0.025642019
101	0xbd4aad59	-0.049481723
102	0xbb9cc4e2	-0.0047842124
103	0xbc854804	-0.016269691
104	0xbc513751	-0.012769536
105	0x3ab15c18	0.0013531474
106	0xbcd6c69e	-0.026217755
107	0xbcffc1b9	-0.031220304
108	0xbc4b2ccb	-0.012400816
109	0xbd3acf12	-0.045607634
110	0x3cc35388	0.023843542
111	0x3b0030ca	0.001956033
112	0xbc620fe3	-0.013797733
113	0xbc3c97a2	-0.011510761
114	0x3cb3e1d2	0.021958265
115	0x3d20b4f0	0.039235055
116	0xbd42a0b9	-0.04751656
117	0xbd20d78e	-0.03926807
118	0xba74934c	-0.000932981
119	0x3ce295f2	0.02765939
120	0x3bc3cb86	0.0059751896
121	0x3c4b7204	0.01241732
122	0x3c212aee	0.009836895
123	0x3c348145	0.011017148
124	0x3bfc4769	0.0076989424
125	0x3d30d93a	0.043175913
126	0xbcab8a1c	-0.02093988
127	0xbb098356	-0.0020982823
128	0xbd251ddf	-0.04031169
129	0xbd7f48b4	-0.062325194
130	0xbd2b0dbb	-0.04176114
131	0xbc35e6ce	-0.011102391
132	0x3cb79c1f	0.022413312
133	0x3d138c38	0.036022395
134	0xbb09b6dc	-0.0021013534
135	0xbb2112d7	-0.002457788
136	0xbcc8658c	-0.024462484
137	0x3d24e429	0.040256653
138	0xbd1a0f59	-0.037612293
139	0xbcc4d6cf	-0.02402821
140	0xbacffdb8	-0.0015868461
141	0xbc67dd3c	-0.0141518675
142	0xbc385cf2	-0.011252629
143	0xbd1ed1f9	-0.038774464
144	0xbd2a59a1	-0.041589383
145	0xbc1f1db6	-0.0097116735
146	0x3d37d51a	0.044880964
147	0xbc736551	-0.014855699
148	0xbd04c496	-0.03241404
149	0x3cd4dfc4	0.025985606
150	0xbd14672f	-0.036231216
151	0xbba7c74e	-0.0051201945
152	0x3d4e8681	0.05042124
153	0xbc01f570	-0.007932052
154	0x3d1f6f3e	0.03892445
155	0xbd0197a4	-0.031638756
156	0x3cd3acbd	0.025839204
157	0xbcdcb3f2	-0.026941273
158	0xbc7001cf	-0.014648869
159	0x395bda4c	0.0002096679
160	0x3c9876ec	0.018611394
161	0xbbed49a6	-0.0072414456
162	0x3a9aefcc	0.0011820733
163	0x3d4913c4	0.049091116
164	0xbc351ab6	-0.011053732
165	0xbd61d908	-0.055138618
166	0xbd5882a8	-0.05285898
167	0xbcab516f	-0.020912854
168	0xbd47af03	-0.04875089
169	0xbb3d085b	-0.0028844092
170	0xbc1d09a4	-0.009584818
171	0xbd665576	-0.056233846
172	0x3c639b65	0.013892029
173	0x3cdfd941	0.027325274
174	0x3cb273d3	0.021783745
175	0xbc22d3b5	-0.00993817
176	0xbd5877bb	-0.05284856
177	0xbcb416f2	-0.021983597
178	0xbc34abdd	-0.0110273035
179	0xbd01a166	-0.031648062
180	0x3ba6f579	0.0050951806
181	0xbc1964be	-0.009362398
182	0x3be036eb	0.006842484
183	0xbd3138e7	-0.043267157
184	0xbccd3114	-0.025047816
185	0x3c62972d	0.013829988
186	0xbcbf3d52	-0.02334467
187	0xbc559e40	-0.013038218
188	0xbd00eb21	-0.031474236
189	0xbc8415ff	-0.01612377
190	0xbc460ed2	-0.012088494
191	0x3cfd2513	0.030901467
192	0xbc5a15cf	-0.013310864
193	0xbd0d766d	-0.034536768
194	0x3d103e7b	0.035215836
195	0xbc00a0aa	-0.007850805
196	0x3d2b9b9e	0.041896455
197	0xbd133aaa	-0.03594462
198	0xbc2157b9	-0.009847575
199	0x3d2fc54f	0.042912778
200	0xbc71cbba	-0.014758045
201	0x3ce61dce	0.028090384
202	0xbc193c1b	-0.009352709
203	0xbc877bc9	-0.016538518
204	0x3cd22425	0.025652
205	0x3d276fd6	0.04087814
206	0xbbfda81b	-0.007740987
207	0xbcef52ff	-0.02921438
208	0x3cb56919	0.022144841
209	0x3cb4a163	0.022049611
210	0x3c4989c0	0.012300909
211	0xbd51c2ac	-0.051211044
212	0xbc933355	-0.017968813
213	0xbc94d9b6	-0.018170219
214	0x3c9c1bd3	0.019056236
215	0xbad64ee3	-0.0016350414
216	0x3ccc788f	0.02495983
217	0xbc64621f	-0.0139394095
218	0x3d0b16c4	0.033957258
219	0x3d263270	0.040575445
220	0xbcadd47f	-0.02121949
221	0xbc5a312b	-0.013317387
222	0x3bb8b4f2	0.0056368047
223	0x3d2a9053	0.041641545
224	0x3d099573	0.03358979
225	0xbc997f63	-0.0187375
226	0x3b5143ad	0.0031931207
227	0x3baa9c6b	0.0052066348
228	0x3d2ab99b	0.041680913
229	0xbcb968c0	-0.022632957
230	0xbaceff88	-0.0015792707
231	0xbcc61064	-0.024177738
232	0x3c0c41cd	0.00856061
233	0x3a72a71d	0.0009256469
234	0x3cf4eedb	0.029899051
235	0x3b8189fb	0.003953216
236	0xbd488d26	-0.048962735
237	0x3cfa982c	0.03059014
238	0x3d0bfcbf	0.034176584
239	0x3cbe8b85	0.023259887
240	0xbb52a787	-0.003214331
241	0x3d0a2c04	0.033733383
242	0x3bd2b069	0.006429721
243	0xbbf342a2	-0.0074237147
244	0xbd17bd72	-0.037045904
245	0x3ca300db	0.019897869
246	0x3b49ed45	0.003081159
247	0x3d32c02c	0.0436403
248	0xbb598b78	-0.0033194702
249	0xbca282e1	-0.019837799
250	0xbd234ea3	-0.039869916
251	0x3cc863db	0.024461677
252	0x3d143799	0.036185835
253	0xbcc4a86e	-0.024006095
254	0x3cc95e73	0.02458117
255	0x3d95ed1a	0.07320614

network.3.bias f4 [256]
0	0xbd59673e	-0.053076975
1	0x3d39c759	0.04535613
2	0xbd21d04b	-0.039505284
3	0xbd27cf3b	-0.040969115
4	0x3cdc78eb	0.026913127
5	0x3c6bd5a6	0.0143941995
6	0x3c9ca53e	0.019121762
7	0xbc286126	-0.010277068
8	0xbd20e7c8	-0.039283544
9	0x3c198bc1	0.009371699
10	0xbb4567db	-0.0030121717
11	0xbd0e3490	-0.034718096
12	0x3d242743	0.040076505
13	0xbd5711e2	-0.05250729
14	0x3bb033a8	0.0053772517
15	0xbcfed06b	-0.03110524
16	0xbc242bbd	-0.010020194
17	0x3c24548f	0.010029926
18	0xbcd29e7b	-0.025710335
19	0xb97d9997	-0.00024185177
20	0x3c791e49	0.015204974
21	0xbd4bdabc	-0.04976915
22	0xbd1f2de6	-0.03886213
23	0x3cc900c9	0.024536507
24	0xbd2b348f	-0.04179817
25	0x3d2bf792	0.04198415
26	0x3d375e87	0.044767883
27	0x3c3b9954	0.0114501305
28	0xbd645812	-0.055748053
29	0x3c95ada7	0.01827128
30	0x3b0058dd	0.0019584217
31	0x3caa8fff	0.020820616
32	0x3d1f9065	0.038956065
33	0x3d39dd6a	0.045377173
34	0x3b2cb9ce	0.0026355865
35	0x3c2c6d24	0.010524068
36	0x3bec3229	0.007208128
37	0xbcf78d55	-0.03021876
38	0xbd05f98e	-0.032708697
39	0x3d206bda	0.039165355
40	0x3c365bac	0.011130255
41	0xbd0288eb	-0.031868856
42	0x3cf00041	0.029296996
43	0xbcc0cb2a	-0.023534376
44	0x3b962d97	0.0045830715
45	0xbc061b25	-0.008185183
46	0x3d2eb17e	0.04264974
47	0x3d3108d1	0.0432213
48	0xbb4950d5	-0.0030718346
49	0xbc57772d	-0.013150972
50	0xbcede27c	-0.02903866
51	0x3cd85643	0.02640832
52	0xbc1327f0	-0.00898169
53	0x3cbf205a	0.023330856
54	0x3d285a34	0.04110165
55	0x3bb3dff0	0.005489342
56	0xbd5bd47f	-0.05366945
57	0x3d17b365	0.03703632
58	0x3b734b4b	0.0037123736
59	0xbc904e4c	-0.01761546
60	0xbb8ea0f3	-0.0043526827
61	0xbd03eda3	-0.03220905
62	0x3b39b794	0.002833818
63	0x3cfc00e2	0.03076214
64	0xbc97ff58	-0.018554375
65	0x3c48602c	0.01222996
66	0xbc77fffd	-0.015136716
67	0xbc87561d	-0.016520554
68	0x3ce18a48	0.027531758
69	0x3cadc70c	0.021213077
70	0xbcac8b83	-0.021062618
71	0x3ae4be18	0.0017451672
72	0xbd5a9498	-0.053364366
73	0x3cd2e2df	0.025742946
74	0xbcfb740a	-0.03069498
75	0xbc89c9b2	-0.016819809
76	0x3c6cd7a7	0.014455712
77	0x3c9ce35f	0.019151388
78	0x3cbd97a6	0.0231436
79	0xbd111f38	-0.035430163
80	0xbccd7460	-0.025079906
81	0x3d1b59c6	0.03792741
82	0x3c40a078	0.011757009
83	0xbd0df625	-0.03465857
84	0x3d2c4db8	0.042066306
85	0xbba030cf	-0.004888631
86	0xbc925a81	-0.017865421
87	0x3c8e713d	0.01738798
88	0xbd041236	-0.03224393
89	0x3c25da2b	0.010122816
90	0x3d15b360	0.03654802
91	0x3ca71208	0.02039434
92	0xbc963504	-0.018335827
93	0x3d3624c8	0.04446867
94	0xbd47a00b	-0.048736613
95	0xbc39699e	-0.011316685
96	0x3d2fb709	0.042899165
97	0x3d2566e3	0.040381324
98	0x3d2ed311	0.042681757
99	0x3c3caffe	0.011516569
100	0xbafedf76	-0.0019445259
101	0xbcae6a2f	-0.021290867
102	0xbd1d3517	-0.03838071
103	0xbd3554c5	-0.044270296
104	0x3b3de860	0.0028977618
105	0x3bba4bc9	0.005685304
106	0xbc85abe9	-0.016317325
107	0xbb11acb2	-0.0022228179
108	0xbbd4abba	-0.006490198
109	0x3bf0340a	0.0073304223
110	0xbd302c8f	-0.043011244
111	0xbce8c244	-0.028412946
112	0xbcb4ded8	-0.022078916
113	0xbbfe52e7	-0.0077613476
114	0x3c6e76da	0.014554704
115	0xbcaefadc	-0.021359853
116	0xbccdab98	-0.025106236
117	0x3c97916a	0.018501956
118	0x3c76e96e	0.015070302
119	0xbcdeda03	-0.027203565
120	0xbd4fb8c4	-0.050713316
121	0x3d4be955	0.04978307
122	0xbcedc609	-0.029025095
123	0xb9f81ba7	-0.0004732285
124	0x3bd19dc8	0.006396983
125	0x3c8472b1	0.01616797
126	0xbb15b272	-0.0022841957
127	0x3d077201	0.033067707
128	0x3c6aa43b	0.014321382
129	0x3cf67a94	0.030087747
130	0xbd0a496e	-0.033761434
131	0x3d056f60	0.03257692
132	0x3c554618	0.0130172
133	0x3ca1d221	0.019753518
134	0xbc274c47	-0.010211057
135	0xbd163157	-0.036668148
136	0xbd657239	-0.056017134
137	0xbd636f02	-0.055525787
138	0x3ccbe84e	0.024891045
139	0x3cf4396a	0.029812533
140	0xbc576e19	-0.013148808
141	0x3d3b5507	0.045735385
142	0x3bc04d7b	0.0058686114
143	0xbce1b410	-0.02755168
144	0x3a1d9b1f	0.00060121896
145	0xbb2eec1a	-0.002669102
146	0x3c4c0b69	0.012453892
147	0x3d1faf90	0.03898579
148	0x3cbc46a7	0.022982908
149	0x3d35a2c2	0.04434467
150	0x3c86f2bb	0.016473165
151	0xbb950f65	-0.0045489543
152	0xbcb1b886	-0.021694433
153	0xbc1db6fc	-0.009626146
154	0xbcf9f876	-0.030513983
155	0x3c25543e	0.010090886
156	0x3cb7b01d	0.022422845
157	0xbb79d9d8	-0.003812423
158	0xbd01f05d	-0.03172337
159	0x3cc741cc	0.024323367
160	0x3d6606ed	0.05615895
161	0x3d4cb0cc	0.049973294
162	0x3c3e697f	0.011621832
163	0xbd6a103a	-0.05714438
164	0x3cb58b3d	0.02216112
165	0x3ca4a54e	0.020098355
166	0x3d35ce06	0.044385932
167	0x3c3bdde6	0.011466479
168	0x3c497b87	0.012297518
169	0x3bc6568a	0.0060527967
170	0x3d0a9c45	0.033840436
171	0xbcbebda4	-0.023283787
172	0x3ca91a2f	0.020642368
173	0xbd7a5b4b	-0.06112222
174	0xbd0ec6bc	-0.034857497
175	0xbd1a0315	-0.037600596
176	0x3c9f8ae1	0.019475402
177	0xbcbf85ca	-0.023379225
178	0x3cb26043	0.021774417
179	0xbcd1b02f	-0.025596706
180	0xbcef78d9	-0.02923243
181	0x3af31316	0.0018545117
182	0xbc0fb1d8	-0.008770429
183	0xbd36f2a4	-0.044664994
184	0xbcacbfdd	-0.021087581
185	0x3d3bdce5	0.04586496
186	0xbc61686e	-0.013757808
187	0xbd192f23	-0.03739847
188	0x3cda8bfc	0.026678078
189	0xbcb56c2b	-0.022146305
190	0x3c5f4d10	0.013629213
191	0x3c36b621	0.011151821
192	0x3d0c455b	0.03424583
193	0xbc4b6739	-0.012414747
194	0x3d08280d	0.03324132
195	0xbc9946ed	-0.018710578
196	0xbb91bc3b	-0.0044474876
197	0xbd1fcd43	-0.039014112
198	0x3ca34795	0.019931594
199	0xbd12501f	-0.03572094
200	0x3cde1a6c	0.027112208
201	0xbce86c0c	-0.028371833
202	0x3d1f1e8e	0.0388475
203	0xbbf1e400	-0.007381916
204	0xbd1187bd	-0.03552984
205	0x3cb9df7f	0.022689579
206	0x3cd30422	0.025758807
207	0x3c5fd98c	0.013662707
208	0xbd42fd71	-0.04760498
209	0x3cec26ea	0.02882715
210	0x3c3cb2aa	0.011517206
211	0x3d3fb754	0.046805695
212	0x3cb0bea0	0.021575272
213	0x3c8f04a0	0.01745826
214	0xbd2c56d4	-0.042074993
215	0x3d13b5ad	0.03606193
216	0x3d11a7bb	0.03556035
217	0x389bfdc8	7.4382464e-05
218	0xbd0fff4b	-0.035155576
219	0xbba3156b	-0.0049769185
220	0xbbcc3e0e	-0.0062329834
221	0xbd018533	-0.03162117
222	0x3baaa310	0.005207427
223	0xbd758c94	-0.05994852
224	0xbd00ee72	-0.0314774
225	0x3ce5faab	0.02807363
226	0xbd51db12	-0.051234312
227	0x3ca94207	0.020661367
228	0xbccb05e5	-0.024783084
229	0xbd3677f3	-0.044547986
230	0x3d1d4dc5	0.038404245
231	0xbc13318e	-0.008983983
232	0x3c401526	0.011723792
233	0x3bbfcc72	0.005853229
234	0xbcb097ce	-0.021556761
235	0x3d557daa	0.052121796
236	0xbcd09757	-0.02546279
237	0xbcac9804	-0.02106858
238	0xbcdda42e	-0.027055826
239	0x3d06fece	0.032957844
240	0xbcbd1bbb	-0.023084512
241	0x3d164ddf	0.036695357
242	0xbd35e5ba	-0.044408537
243	0x3d2cd6cc	0.042197034
244	0xbcdbec01	-0.026845934
245	0x3cadd8dd	0.021221573
246	0xbd6783e6	-0.056522273
247	0xbcff59f6	-0.031170826
248	0x3c02a437	0.007973722
249	0x3cb543ee	0.022127118
250	0x3cd26a8d	0.025685573
251	0x3d1da6f0	0.038489282
252	0xbb61d6d3	-0.003446032
253	0x3ca60340	0.020265222
254	0x3d0737c8	0.03301218
255	0x3b90130f	0.004396803

network.6.weight f4 [128, 256]
0	0xbcf32b8c	-0.02968385
1	0xbbd4e7e5	-0.0064973705
2	0x3cad3571	0.021143647
3	0xbc8232b4	-0.015893318
4	0xbd1edad8	-0.038782924
5	0x3c988e95	0.018622676
6	0x3d0e961c	0.034811124
7	0xbb3acbb6	-0.002850277
8	0xbd570d7b	-0.05250309
9	0xbcf17487	-0.02947451
10	0xbcb786dc	-0.022403173
11	0x3d2588ee	0.04041379
12	0xbda21ea3	-0.07916
13	0xbcdbed00	-0.026846409
14	0x3d413d0c	0.04717736
15	0xbd539a9d	-0.051661123
16	0xbb97c11e	-0.0046311757
17	0xbd8e42c3	-0.069463275
18	0xbadd075c	-0.0016863155
19	0x3c266052	0.0101548005
20	0xbc37bea5	-0.011214887
21	0xbd5fed7a	-0.054669835
22	0x3d3c7e90	0.046019137
23	0xbb59d1b5	-0.0033236567
24	0xbd4163c5	-0.04721429
25	0xbb122f50	-0.0022306032
26	0x3d14a512	0.036290236
27	0xbd8f1242	-0.06985904
28	0xbb976a06	-0.0046207933
29	0xbd658f58	-0.056044906
30	0x3cee23bc	0.029069774
31	0x3cdc2581	0.026873352
32	0x3c1e648e	0.009667529
33	0x3c3157e3	0.0108241765
34	0xbd458c56	-0.048229538
35	0xbd760848	-0.06006649
36	0x3ca02bb9	0.019552099
37	0xbccd5d34	-0.025068857
38	0xbd92637a	-0.0714788
39	0xbca59391	-0.020211967
40	0xbd9815d3	-0.07426038
41	0x3d65b8c4	0.05608441
42	0xbd473de8	-0.048643023
43	0x3d114692	0.03546769
44	0xbbd25aec	-0.00641953
45	0xbcbb53cf	-0.022867111
46	0x3d62611f	0.055268403
47	0x3d375efe	0.044768326
48	0xbd209476	-0.039204083
49	0xbd83fd19	-0.06444759
50	0xbcc3077d	-0.023807282
51	0xbccc4694	-0.024935998
52	0x3d0ed01c	0.034866437
53	0xbd800cc8	-0.06252438
54	0x3c340b75	0.01098906
55	0x3d504b5f	0.05085313
56	0xbd86187f	-0.06547641
57	0x3b03916d	0.0020075694
58	0x3c3fbdda	0.011702979
59	0xbd8701c0	-0.06592131
60	0xbc0ff8f8	-0.008787386
61	0xbb38f247	-0.002822058
62	0x3b8f01b0	0.004364215
63	0x3d24c8bb	0.040230494
64	0xbd4c89ec	-0.04993622
65	0xbd32aefe	-0.043623917
66	0xbcbebabe	-0.023282405
67	0xbd1ef0f2	-0.038804002
68	0x3cf579d5	0.02996532
69	0x3d5ccfad	0.053908993
70	0x3cdfd631	0.027323814
71	0x3d0182d5	0.03161891
72	0xbd8dfbaa	-0.06932767
73	0x3ce5f7ac	0.0280722
74	0x3c8957b9	0.016765462
75	0xbb483bda	-0.0030553252
76	0xbd85842f	-0.06519353
77	0xbb503ec8	-0.0031775702
78	0x3d4fbd3c	0.050717577
79	0xbd11739d	-0.035510648
80	0x3cf79d0d	0.030226255
81	0xbd29a754	-0.041419342
82	0xbccbebae	-0.024892654
83	0xbd18d216	-0.03730973
84	0x3d6a37db	0.057182174
85	0xbcae3827	-0.02126701
86	0xbd2d1f38	-0.0422661
87	0x3d2fce80	0.042921543
88	0xbb98421b	-0.0046465523
89	0x3d1a613e	0.037690394
90	0xbc9d4fb8	-0.019203052
91	0xbbdde1d5	-0.006771306
92	0x3ba7de08	0.0051229037
93	0xbbfd3c49	-0.007728134
94	0x3d130533	0.03589363
95	0xbd67f37b	-0.056628685
96	0x3ca92acf	0.020650296
97	0x3d4cbb58	0.049983352
98	0xbc00ecde	-0.007868974
99	0x3cffd8ad	0.031231249
100	0x3c61fbf4	0.01379298
101	0xbd47f07e	-0.048813336
102	0x3cdd9df7	0.027052863
103	0xbc8b65bb	-0.017016282
104	0xbc24680d	-0.010034573
105	0x3b6bf8b7	0.00360064
106	0xbd442f4e	-0.047896676
107	0xbc51a7e6	-0.012796378
108	0xbce34c82	-0.027746443
109	0x3d4c80e1	0.049927596
110	0xbc6585d4	-0.014008958
111	0xbd811c50	-0.06304228
112	0xbd2d2e3c	-0.04228042
113	0x3d68d518	0.056843847
114	0x3cc569e3	0.024098342
115	0x3d92c6f9	0.07166857
116	0x3c46de5e	0.012137977
117	0xbc24ebcd	-0.010065985
118	0x3cec0f7f	0.028815983
119	0xbd38bfb5	-0.0451047
120	0xbd364fcb	-0.04450969
121	0xbb451018	-0.0030069407
122	0x3b9e77d6	0.004836063
123	0x3b370734	0.0027927877
124	0xbb2ede34	-0.0026682736
125	0xbcf486e5	-0.029849479
126	0x3cf4fd4a	0.029905934
127	0x3cd6f509	0.026239889
128	0x3d20041b	0.039066415
129	0xbcb29db5	-0.021803716
130	0x3d545077	0.05183455
131	0x3cb2ad4a	0.021811146
132	0x3cf96421	0.030443253
133	0xbd8b2105	-0.06793407
134	0xbcaebd2c	-0.021330439
135	0xbd7eb6bb	-0.062185984
136	0xbc07e64a	-0.008294651
137	0xbd4ad78d	-0.04952197
138	0xbd0ce8df	-0.03440177
139	0xbc9d183a	-0.019176591
140	0x3c4d866a	0.012544254
141	0xbcfaaeb3	-0.030600881
142	0x3cc598ed	0.024120772
143	0x3c4c8ccf	0.012484743
144	0xbd485b1e	-0.04891502
145	0xbbf038b8	-0.00733098
146	0xbca8815e	-0.0205695
147	0x3d284ec2	0.041090734
148	0xbcc074a8	-0.023493126
149	0x3d35039e	0.044192903
150	0xbc2905d2	-0.010316329
151	0xbd06b379	-0.032886002
152	0xbc89f67e	-0.01684117
153	0x3d27a6c8	0.04093054
154	0xbcb9f423	-0.022699421
155	0xbb7329e1	-0.003710382
156	0x3d0c15f0	0.03420061
157	0x3d593918	0.053032964
158	0xbd8870c3	-0.066621326
159	0xbd75c491	-0.060001913
160	0x3d5d0aaf	0.053965267
161	0xbd7cd03c	-0.061722025
162	0xbca1d227	-0.019753529
163	0xbd8843bd	-0.06653545
164	0xbce6ba28	-0.028164938
165	0xbd3409bc	-0.043954596
166	0xbbb2b733	-0.005453968
167	0xbd7c5d32	-0.061612315
168	0xbd5df678	-0.05419013
169	0x3cd1648f	0.025560645
170	0xbd4f591b	-0.050622087
171	0x3d018c02	0.031627662
172	0xbcbe4c3a	-0.023229707
173	0xbd721431	-0.059101287
174	0x3ce16ae9	0.027516799
175	0xbd84baac	-0.06480917
176	0x3c9392b9	0.018014299
177	0xbd44a335	-0.04800721
178	0x3d25d4a0	0.040485978
179	0x3d371935	0.044701774
180	0x3ce34532	0.027742956
181	0xbcc710be	-0.024299975
182	0x3d3d280c	0.04618077
183	0x3c6511b2	0.01398127
184	0xbcfda7cb	-0.030963799
185	0xbd6f4fb9	-0.05842564
186	0x3d1d1aa8	0.0383555
187	0xbd0bd2de	-0.034136645
188	0xbb89e779	-0.004208502
189	0xbcfe3962	-0.031033222
190	0xbcaead2a	-0.021322805
191	0xbcd49d72	-0.025953982
192	0x3d1673d5	0.03673156
193	0x3d44e660	0.048071265
194	0xbc3a3f30	-0.011367604
195	0xbd10cbbb	-0.035350543
196	0x3d046273	0.03232045
197	0x3d103462	0.035206206
198	0xbc9425cc	-0.01808443
199	0xbd4c7c5c	-0.049923286
200	0xbd26ae0f	-0.04069334
201	0xbc10fc3d	-0.008849201
202	0x3d06b7ce	0.032890134
203	0x3c0b7707	0.008512265
204	0x3cfb6d8b	0.030691883
205	0x3c840103	0.016113764
206	0xbb8b97f5	-0.004260058
207	0xbd40f28b	-0.047106307
208	0x3d24dfce	0.0402525
209	0x3bd85b16	0.006602655
210	0x3d415eed	0.04720967
211	0xbbdf032e	-0.006805799
212	0xbd5bac03	-0.05363084
213	0xbc32934f	-0.010899379
214	0xbd19ca83	-0.037546646
215	0x3d02441a	0.031803228
216	0x3d00c6b3	0.031439494
217	0xbad806fe	-0.0016481576
218	0x3b56c92b	0.0032773714
219	0xbd4fde2c	-0.05074899
220	0xbd4856f3	-0.048911046
221	0xbcd31c1f	-0.025770245
222	0xbd036441	-0.03207803
223	0xbd906c76	-0.07051937
224	0xbd00d120	-0.031449437
225	0x3d166bd6	0.036723934
226	0xbd27c1df	-0.040956374
227	0xbd1f5cab	-0.038906734
228	0x3d3f3cd8	0.046688884
229	0xbc2e63a5	-0.010643874
230	0xbd2e066c	-0.042486593
231	0xbcf59684	-0.029978998
232	0xbc346a86	-0.011011725
233	0x3cc28c72	0.02374861
234	0xbd3ac935	-0.045602042
235	0x3d350743	0.04419638
236	0x3c02af42	0.007976355
237	0xbcf52494	-0.029924668
238	0xbc52aea1	-0.012859018
239	0xbc8c5e60	-0.017134845
240	0xbcfff258	-0.031243488
241	0xbd1372dc	-0.03599821
242	0xbd21cf9a	-0.039504625
243	0xbc57c39a	-0.013169194
244	0x3d179a65	0.037012476
245	0x3d13c976	0.0360808
246	0xbd8439c4	-0.064563304
247	0xbb43a08e	-0.0029850337
248	0xbd59c85f	-0.053169604
249	0x3cc32088	0.023819223
250	0xbd632cd5	-0.055462677
251	0xbd80d3b4	-0.06290379
252	0xbccb1af8	-0.024793133
253	0x3cdada2a	0.026715357
254	0xbc8f680e	-0.017505672
255	0xbda383ae	-0.079841

network.6.bias f4 [128]
0	0xbd9f0160	-0.07763934
1	0xbcaf7a38	-0.021420583
2	0xbc4b940a	-0.012425432
3	0xbd0babba	-0.034099318
4	0xbc8ac382	-0.016938929
5	0x3cbf4062	0.02334613
6	0x3c571cd3	0.013129431
7	0x3d124f57	0.035720196
8	0x3d39298a	0.04520563
9	0xbaaba008	-0.0013093958
10	0x3d9c38c1	0.076280124
11	0x3d37f247	0.044908788
12	0xbcf97c2e	-0.030454721
13	0xbd5e6e98	-0.05430469
14	0xbc9f4c5e	-0.019445594
15	0xbc2ec940	-0.010668099
16	0xbd275912	-0.04085643
17	0xbc2f54fe	-0.010701416
18	0xbd2a8c73	-0.04163785
19	0x3ce4c39d	0.027925307
20	0x3c9b5177	0.018959744
21	0x3ad21bc4	0.0016030003
22	0x3d547ea2	0.05187858
23	0x3db9ddea	0.0907553
24	0xbbe517f2	-0.00699138
25	0x3d76e3cb	0.060275834
26	0x3c8ec913	0.017429864
27	0xbcb102fa	-0.021607865
28	0x3bc16c8d	0.005902833
29	0x3d8cb750	0.068709016
30	0x3d1370e1	0.03599632
31	0x3d81e467	0.063423924
32	0xbc891382	-0.016732935
33	0x3b3c6357	0.0028745735
34	0x3d38003e	0.044922106
35	0x3c927abe	0.017880794
36	0x3cb19ad4	0.021680273
37	0x3c1917a9	0.00934402
38	0x3d1b8784	0.037971035
39	0x3d2f348f	0.042774733
40	0x3d0fa74d	0.03507166
41	0x3d807f85	0.062743224
42	0xbd802200	-0.06256485
43	0xbd22675e	-0.03964936
44	0xbcef4edd	-0.02921241
45	0x3a1d5d90	0.00060030166
46	0x3c8f11e7	0.017464591
47	0x3b84e46e	0.0040555513
48	0xbb6dcabc	-0.003628417
49	0x3c11af45	0.008891885
50	0xbb3d455f	-0.002888046
51	0xbd576ad1	-0.052592102
52	0xbbbe7dd5	-0.00581334
53	0x3d40d4c8	0.047077924
54	0xbc686aaa	-0.014185587
55	0xbd32d3d8	-0.04365906
56	0xbd86b9cd	-0.065784074
57	0x3b6127eb	0.0034356068
58	0xbc8cc648	-0.017184392
59	0x3cf41796	0.029796403
60	0x3c9d1069	0.019172864
61	0x3d5de310	0.05417162
62	0x3d4ff7ed	0.05077355
63	0x3cef2a15	0.029194871
64	0x3bacdfa5	0.005275684
65	0xbc147945	-0.009062116
66	0x3c8841c8	0.01663293
67	0x3ce13b39	0.02749406
68	0x3d07cf11	0.03315646
69	0x3c8ba2a1	0.017045321
70	0x3d6f2688	0.058386356
71	0x3d6b476a	0.057441153
72	0xbd2a50fb	-0.041581135
73	0x3c2b67fc	0.0104618035
74	0xbd16a33d	-0.03677677
75	0xbd3510a0	-0.044205308
76	0x3c910b69	0.017705636
77	0xbbd30016	-0.006439219
78	0xbc0f6173	-0.008751261
79	0xbc4a7d52	-0.01235898
80	0xbd3f7e30	-0.0467512
81	0xbd873a28	-0.06602889
82	0x3d3b3393	0.045703482
83	0xbc6453f0	-0.013936028
84	0xbc33f392	-0.010983365
85	0xbd67fcb9	-0.0566375
86	0xbc923176	-0.01784585
87	0x3d827390	0.06369698
88	0xbd389d07	-0.045071628
89	0x3d554d23	0.052075516
90	0xbd95dd0b	-0.07317551
91	0x3c92aecd	0.017905617
92	0xbcfe1e88	-0.031020418
93	0x3d475491	0.048664633
94	0xbd51d6f8	-0.0512304
95	0x3d643312	0.055712767
96	0xbd52fb0b	-0.051508944
97	0x3c0d5819	0.008626961
98	0x3be4ab6a	0.006978442
99	0x3c2d5dcd	0.010581446
100	0x3cf51f98	0.029922292
101	0x3cf5a364	0.029985137
102	0x3bdf01c7	0.006805632
103	0xbd446e05	-0.047956485
104	0x3c880db9	0.016608106
105	0x3d1b7340	0.037951708
106	0x3c1ec85f	0.009691327
107	0x3d5652db	0.05232511
108	0x3d56beda	0.052428104
109	0xbcb1d121	-0.021706166
110	0x3c1295a3	0.008946809
111	0xbd39afd4	-0.0453337
112	0xbd2e8579	-0.04260776
113	0x3d18c393	0.03729589
114	0x3d6e102a	0.058120884
115	0xbd9f7966	-0.07786827
116	0x3ce11abf	0.027478574
117	0xbc76dd13	-0.015067357
118	0x3c962eb5	0.018332819
119	0xbb3239fd	-0.0027195208
120	0x3c7468bb	0.014917548
121	0xbd121909	-0.035668407
122	0x3c28c8f9	0.010301822
123	0x3d2595bc	0.040426
124	0xbd4ca3d2	-0.04996092
125	0x3c6b19e0	0.014349431
126	0x3cd2c104	0.025726803
127	0xbc91af87	-0.017783893

network.9.weight f4 [64, 128]
0	0x3d0979d8	0.033563465
1	0xbdac862b	-0.08424028
2	0xba4829e6	-0.0007635638
3	0xbd88a6ff	-0.06672477
4	0x3cb8b85f	0.022548852
5	0x3d9131b5	0.07089559
6	0xbc845fb6	-0.01615892
7	0x3d0c526e	0.0342583
8	0xbd598624	-0.053106442
9	0xbd1fadf5	-0.038984258
10	0xbdba05db	-0.09083148
11	0xbcfcafea	-0.030845601
12	0x3d7d52a4	0.06184639
13	0x3d27761b	0.04088412
14	0x3d2e76e0	0.042593837
15	0x3d8a9ccd	0.067681886
16	0x3d969856	0.073532745
17	0x3d2b11aa	0.041764893
18	0x3c67c164	0.014145229
19	0xbd88582f	-0.06657445
20	0xbd3388ad	-0.043831516
21	0xbd7ce4ec	-0.061741754
22	0x3dc01e80	0.093808174
23	0xbdab0520	-0.08350587
24	0xbd809b23	-0.0627959
25	0xbb70cc49	-0.0036742857
26	0xbd85f081	-0.06540013
27	0x3d99b344	0.07504895
28	0x3da06a40	0.078327656
29	0x3dd0e649	0.102001734
30	0xbd8b9bf4	-0.06816855
31	0xbd79b0a3	-0.06095947
32	0xbcbae963	-0.022816366
33	0x3d7ba0eb	0.06143276
34	0xbd5ef205	-0.054430027
35	0x3c243d62	0.0100244
36	0x3c435451	0.011921958
37	0x3d8ebccf	0.06969606
38	0x3d15c035	0.036560256
39	0x3c7a0d0e	0.015261902
40	0xbd9cabdb	-0.07649966
41	0x3ced2492	0.028948102
42	0x3db95b4f	0.09050619
43	0x3d13c818	0.036079496
44	0x3d071f20	0.032988667
45	0xbdac9357	-0.0842654
46	0xbd7a80be	-0.061157934
47	0x3c00809c	0.007843163
48	0x3d84d490	0.064858556
49	0xbdb42919	-0.08796901
50	0x3d1f4a49	0.038889203
51	0x3d10bd74	0.035336927
52	0x3d7c9fc6	0.06167581
53	0xbc3beed6	-0.011470517
54	0xbc988e94	-0.018622674
55	0xbdd13a6d	-0.10216222
56	0x392a88f2	0.0001626348
57	0xbd23891a	-0.039925672
58	0x3cc3b65b	0.023890665
59	0x3dae0aad	0.0849813
60	0x3daaa6ac	0.083325714
61	0x3d8650af	0.06558358
62	0xbd25f88f	-0.040520247
63	0xbc93b363	-0.018029874
64	0x3d17a4e6	0.037022494
65	0xbd8d3dbd	-0.06896541
66	0xbcf91dd3	-0.03040973
67	0xbcd3d1e0	-0.025856912
68	0x3c66a37c	0.014077064
69	0xbdc09d7d	-0.094050385
70	0x3d3ca826	0.046058796
71	0xbd8b8687	-0.068127684
72	0x3db1572e	0.08659206
73	0xbcbc7ef2	-0.023009751
74	0x3db4c49c	0.08826563
75	0xbcb3dc84	-0.021955736
76	0xbd81e39c	-0.06342241
77	0xbce8de29	-0.028426247
78	0xbd8a8234	-0.067631155
79	0x3dbab47f	0.09116458
80	0x3d88ee09	0.066860266
81	0xbd3cf0bc	-0.04612802
82	0xbdbbb1d2	-0.09164776
83	0x3ca638ca	0.020290751
84	0x3d9921d8	0.07477158
85	0xbd65f543	-0.056142103
86	0xbd467332	-0.048449703
87	0x3d0f7fc2	0.03503395
88	0x3d8892ba	0.06668611
89	0x3d12256a	0.035680212
90	0xbd416e92	-0.04722459
91	0x3d8d150c	0.0688878
92	0x3ce1ec32	0.027578447
93	0x3c25bbe0	0.010115594
94	0x3d2725ba	0.040807463
95	0x3d8dca8e	0.069234
96	0xbcef14df	-0.029184757
97	0x3d6187ab	0.055061024
98	0xbd9c80f3	-0.076417826
99	0xbddb586e	-0.10710226
100	0xbd0a71ad	-0.033799816
101	0xbd28e09a	-0.04122982
102	0xbcc95e36	-0.024581056
103	0x3c8176f5	0.015803793
104	0x3d7d1f78	0.06179759
105	0x3c9f4755	0.019443193
106	0x3c67752b	0.014127056
107	0x3c136cea	0.008998135
108	0xbcbd5221	-0.023110451
109	0x3dbc953c	0.09208152
110	0x3d188087	0.03723195
111	0x3d44936a	0.047992148
112	0x3d0406d5	0.032233078
113	0x3dba7363	0.091040395
114	0xbd92d56a	-0.07169612
115	0x3db4ff9f	0.08837818
116	0xbcd40693	-0.025882041
117	0x3d0e08c3	0.034676325
118	0xbd9ba727	-0.07600241
119	0x3d3c06c1	0.04590488
120	0xbce088d8	-0.027409002
121	0xbc9afa98	-0.01891832
122	0x3d1cf432	0.03831882
123	0xbd1a47a3	-0.037665974
124	0x3b22a75c	0.0024818992
125	0xbd172711	-0.03690249
126	0xbd77c2a4	-0.06048836
127	0x3d1211c1	0.035661463
128	0x3dbe48a1	0.092911966
129	0x3db6f92c	0.089342445
130	0xbd5d04ac	-0.053959534
131	0x3c8c8c79	0.017156826
132	0xbc1d0334	-0.009583283
133	0x3db5da79	0.08879561
134	0xbd090980	-0.033456326
135	0xbb8f645d	-0.004375978
136	0x3d911966	0.070849225
137	0x3dc6d991	0.09709466
138	0xbc9f1a7d	-0.01942181
139	0x3d8438f2	0.06456174
140	0xbcc53071	-0.02407095
141	0x3d946aba	0.07246919
142	0x3dc9f3c6	0.09860949
143	0x3dc4a9e4	0.096027166
144	0xbc24abf4	-0.010050762
145	0xbd558b15	-0.052134592
146	0xbd965bee	-0.07341753
147	0x3dc544cc	0.096322626
148	0xbd0a67e0	-0.03379047
149	0x3a9e59a8	0.0012081163
150	0xbb33fb0a	-0.0027462863
151	0xbd86fb33	-0.06590881
152	0x3c978834	0.018497564
153	0xbb07ab8c	-0.0020701615
154	0x3cc6f42a	0.024286348
155	0x3dfd1344	0.1235719
156	0x3ba457ea	0.005015363
157	0x3c836937	0.016041381
158	0xbca1cbbf	-0.019750474
159	0x3d6b79ba	0.057489134
160	0xbd479132	-0.048722453
161	0x3dbaf836	0.09129374
162	0xbd572204	-0.052522674
163	0x3df8f0c9	0.12155301
164	0x3dc34efd	0.0953655
165	0xbd8d2453	-0.06891694
166	0xbd173da3	-0.036924016
167	0x3d8fd035	0.07022134
168	0x3b83ea05	0.0040257
169	0xbc52e245	-0.01287133
170	0x3c7cd8cd	0.015432549
171	0x3b429602	0.0029691462
172	0x3c86afd4	0.016441263
173	0xbd2b2134	-0.04177971
174	0x3d8ef7af	0.06980836
175	0xbc53a796	-0.012918374
176	0xbc309ac8	-0.01077909
177	0x3d27acf3	0.04093642
178	0x3b0a824d	0.0021134794
179	0x3acc34cc	0.00155797
180	0x3de30b76	0.110861704
181	0x3d74fd21	0.059811715
182	0xbcbdd001	-0.023170473
183	0x3da9e422	0.08295466
184	0x3ca5f709	0.020259397
185	0x3d7487b7	0.05969974
186	0x3d980b6a	0.07424052
187	0xbd835a1a	-0.0641367
188	0x3c389749	0.011266538
189	0x3dbe8d8c	0.09304342
190	0x3c2b2ed5	0.010448177
191	0xbc5e841e	-0.013581304
192	0xbd05195c	-0.032494888
193	0xbcb8a92c	-0.022541605
194	0xbbad84dc	-0.005295379
195	0x3d8bb40c	0.068214506
196	0x3d3efcc1	0.046627764
197	0x3bbe2df5	0.0058038183
198	0x3c709819	0.0146847
199	0xbc2b3330	-0.010449216
200	0x3c032f0c	0.008006822
201	0xbcfa2a79	-0.03053783
202	0x3de77af7	0.113027506
203	0xbd04b480	-0.0323987
204	0xbcd1bc48	-0.025602475
205	0xbcb48690	-0.02203682
206	0x3d6fe7a3	0.058570515
207	0x3da99d4d	0.08281956
208	0xbd061ff4	-0.032745317
209	0x3d316282	0.043306835
210	0x3c551ee6	0.013007855
211	0x3dfa7f6b	0.12231334
212	0x3daec606	0.08533864
213	0x3dbee856	0.09321658
214	0x3d57c289	0.052675758
215	0x3de5027d	0.11182115
216	0xbbfbf5d3	-0.0076892166
217	0x3d05a595	0.032628614
218	0x3d9cd759	0.07658262
219	0x3dfaf384	0.12253478
220	0x3de1bdcd	0.1102253
221	0xbd8dbdc7	-0.06920963
222	0xbce1cc97	-0.027563376
223	0xbd2ffd7a	-0.042966343
224	0x3ddfe3d1	0.109321244
225	0xbc33cb84	-0.010973815
226	0x3dac19b7	0.08403342
227	0xbccee432	-0.025255296
228	0x3c094a07	0.008379466
229	0x3c6df786	0.014524346
230	0x3d7db881	0.061943535
231	0x3dc65a9c	0.09685251
232	0x3db19d30	0.08672559
233	0x3dc374a4	0.09543732
234	0x3dbee63f	0.0932126
235	0xbd2ec4ce	-0.042668156
236	0x3d40de10	0.047086775
237	0x3deafe83	0.114743255
238	0x3b2348e6	0.0024915277
239	0x3d9f26a3	0.07771041
240	0x3d8cb859	0.06871099
241	0xbc306a91	-0.010767595
242	0x3ce81c5b	0.028333833
243	0x3ced21ed	0.028946841
244	0x3d01a788	0.03165391
245	0x3dcdab47	0.10042434
246	0xbd0eb67f	-0.03484201
247	0x3de505d2	0.11182751
248	0xbd115e92	-0.03549058
249	0xbcdfd8b8	-0.02732502
250	0xbd8c960e	-0.06864558
251	0x3d9be339	0.07611699
252	0x3d2fab00	0.042887688
253	0x3dad6b49	0.08467729
254	0x3d433ecf	0.04766732
255	0x3dbc9d40	0.092096806

network.9.bias f4 [64]
0	0x3d94af56	0.07260005
1	0xbb892083	-0.004184784
2	0xbcfa14bb	-0.030527463
3	0xbc338a3a	-0.010958249
4	0x3d59eb88	0.053203136
5	0x3cf4fe47	0.029906405
6	0x3d6abe35	0.0573103
7	0xbd0b7b3c	-0.034053072
8	0x3df59c0a	0.11992653
9	0x3a78b114	0.0009486836
10	0xbd25d02d	-0.040481735
11	0x3c5e4a02	0.0135674495
12	0x3cd93230	0.02651319
13	0xbb84ed03	-0.0040565743
14	0xbc327059	-0.010891044
15	0xbdd82bae	-0.10555206
16	0xbd431122	-0.04762376
17	0x3cfd6809	0.030933397
18	0xbcc705e9	-0.02429481
19	0x3d4d95c5	0.05019166
20	0x3ccccad7	0.024999065
21	0xbdbf04dd	-0.093270995
22	0xbc7bba4c	-0.015364241
23	0x3d25c554	0.04047139
24	0x3d49cc90	0.04926735
25	0x3db43119	0.08798427
26	0x3d2f8bb4	0.04285784
27	0xbcab3a5f	-0.020901857
28	0xbdcac4ee	-0.099008426
29	0x3c8dd179	0.017311798
30	0x3d192f16	0.03739842
31	0xbd2e17c2	-0.042503126
32	0xbd6b04ab	-0.0573775
33	0x3dd4aea7	0.10384875
34	0xbcf44b38	-0.029821023
35	0x3dc143cd	0.0943676
36	0xbbee8709	-0.007279281
37	0xbd08f5c8	-0.03343752
38	0xb9e1a171	-0.00043035627
39	0xbd91877a	-0.07105918
40	0x3d2b6ae1	0.041849975
41	0xbcc31ef6	-0.023818474
42	0xbce1449a	-0.027498532
43	0x3b0c11e8	0.0021372978
44	0x3d15ff78	0.036620587
45	0x3d9f46cf	0.077771775
46	0x3d9d074c	0.076674074
47	0x3dae028f	0.08496582
48	0x3da5ce51	0.08095992
49	0x3d47b51c	0.048756704
50	0x3d3bc013	0.045837473
51	0xbd7e64d4	-0.062107876
52	0xbd1fa52a	-0.038975872
53	0xbc75326e	-0.014965637
54	0xb7108e00	-8.616131e-06
55	0x3d938454	0.07202974
56	0xbcdd0893	-0.026981628
57	0x3e02f9bf	0.12790583
58	0x3d11f5a8	0.035634667
59	0x3d069a38	0.03286192
60	0x3bf7af47	0.0075587365
61	0x3deaf1d6	0.11471908
62	0x3cbdf213	0.023186719
63	0x3db946b0	0.09046686

network.12.weight f4 [1, 64]
0	0xbdca1f25	-0.098692216
1	0xbd1be7c2	-0.03806282
2	0xbd274244	-0.04083468
3	0xbdbfa9fb	-0.09358593
4	0xbd10c4a8	-0.035343796
5	0xbd569a69	-0.05239335
6	0xbd430edd	-0.047621597
7	0xbd6ee21a	-0.058321096
8	0x3e001269	0.12507023
9	0xbdde0ef9	-0.108426996
10	0xbd433c47	-0.047664907
11	0xbda41558	-0.080118835
12	0x3d66a1cb	0.05630664
13	0x3d68a362	0.05679644
14	0xbd35f60f	-0.044424113
15	0x3ca3e3e4	0.020006128
16	0xbd0cbbcd	-0.03435879
17	0xbd0e7014	-0.034774855
18	0xbd8e5a4b	-0.06950816
19	0xbdbd49e8	-0.09242612
20	0x3c7b2c1c	0.015330341
21	0x3d6d01c6	0.05786302
22	0xbd64f2e0	-0.055895686
23	0xbd219256	-0.039446197
24	0xbd248526	-0.040166043
25	0xbce3275c	-0.027728729
26	0x3d4dbb39	0.050227378
27	0xbdb99055	-0.09060732
28	0x3d538f13	0.051650118
29	0x3d97c901	0.07411385
30	0x3e0dc10f	0.13843177
31	0xbd77ead9	-0.060526703
32	0xbd5bdc56	-0.053676926
33	0x3e07938d	0.1323988
34	0xbd43d31c	-0.04780875
35	0x3e139e97	0.14415966
36	0x3d393639	0.045217726
37	0x3e017702	0.12643054
38	0xbd4ec727	-0.050482895
39	0xbd0f0726	-0.034918927
40	0xbd775983	-0.0603881
41	0xbd6c96dc	-0.05776106
42	0x3d1ee2cd	0.038790513
43	0xbdb062a1	-0.08612562
44	0xbd5e1b3e	-0.0542252
45	0x3c84c8bf	0.016209004
46	0x3df85375	0.12125293
47	0x3d1935b5	0.037404735
48	0x3ddf2931	0.108965285
49	0xbcc1dc66	-0.023664664
50	0xbdab0de4	-0.08352259
51	0xbd510161	-0.051026706
52	0xbd8d29b8	-0.06892723
53	0xbd2ea723	-0.042639863
54	0xbd3d2037	-0.0461733
55	0xbd44c586	-0.048039936
56	0xbdc4fe95	-0.0961887
57	0x3e099a73	0.13437824
58	0xbd608028	-0.05480972
59	0x3ddd2ec8	0.107999384
60	0xbd870976	-0.065936014
61	0x3dd765f5	0.10517494
62	0x3d2d6c41	0.042339567
63	0x3ded8038	0.115967214
