projekt1/wandb/run-20251110_094416-w14ip3sj/files/best_model.pth (torch, 430921 bytes, 25 tensors)

blocks.0.0.weight f4 [256, 70]
00000000: efcd 9d3d 31b0 843d 0d16 c0bd b166 223c
00000010: fb75 0a3d eee3 19bc 6518 e1bd f5f0 74bd
00000020: 5867 5a3d f3bf f33c 8428 d23d 0a87 d2bd
00000030: 911a d93d b01f cdbd de18 e83d 4d15 dcbd
00000040: e89f 07bd ef85 81bc ec00 273d d233 e6bd
00000050: de63 8f3c 4b1b e83d a066 063d a877 d03d
00000060: 8d18 533c 96bf 74bd f32b 35bd 4476 12bc
00000070: 85e9 263d 9415 8a3c 36aa cebd ebd7 9d3d
00000080: 248b 27bd bb2b 393d 2ca6 3abd 7edf af3b
00000090: ff8a 833d 583e febd b06a 8abc 4ea8 00be
000000a0: a42f 6a3c 2051 233d 279c 04be fe6b 0e3c
000000b0: 3343 ce3d 5b45 bf3c d34b b83c 851c fb3b
000000c0: 6f79 543d 9bb5 a339 ac8f 34bd 3753 48bd
000000d0: bc3b 303d 06e5 07bd d6fc 80bd d9d7 933d
000000e0: a65c a53d 3957 ed3c 19c7 a7bc 8ae9 efbd
000000f0: c834 a63d 4c0f a13d e1f9 c83d 9ce0 a7bd
00000100: 1db6 96bd 92e2 163d 3f80 c3bd fa53 a43d
00000110: 663e 9b3d 9bb1 ee3d cf7d c1bd ca92 b9bd
00000120: 80e9 b83d a445 aa3d d699 413d bcd2 1bbd
00000130: 2bd7 c53d 2271 9b3d 81ce 053e 810e 60bc
00000140: fe6d b7bd 112d e13d 2abf 1cbd 93fb cc3d
00000150: 0dfa 823c b6f1 cfbd fb5e d9bd e51f b53d
00000160: c8a9 b13d 7a12 babd 005f 7cbc 3d3b b8bc
00000170: 9701 b3bd c3f6 1dbc d41b f3bd 030d 113c
00000180: 8031 993d 3646 cabb 2b92 793d 0cb5 443d
00000190: 3719 f4bc 792e 0fbd bbdf c93d bf7d ffbd
000001a0: dfdd b13c a617 98bd 3dfc 603d 1808 92bd
000001b0: e23e d0bd bf7b fbbc e49a df3d 4ee2 a13d
000001c0: a458 7f3d 1a6a a7bd 3c10 92bd a69b c5bd
000001d0: 7bfe dcbc 29fe 2abc 2f63 f4bc 9d40 2dbc
000001e0: fa1a 1e3d e39f aabd 570d bebd a122 343d
000001f0: e0e4 ffbb 169c a4bd 97b0 acbd df63 d4bc
00000200: e913 733c 8fff 203c 62f2 b6bd 91ee e23d
00000210: f4d5 d9bd 91ff df3c a86a a23d 555c 4ebd
00000220: ca93 84bc d755 e93b 2f4b e3bd a9fb 4cbd
00000230: 1382 733a e9eb 02bc fc3b b63d 0cfd 0bbd
00000240: a2f3 813c 87c6 d9bc b3c7 793d 66e2 f2bd
00000250: a592 a8bc f8c6 8b3d 4cd5 dc3d 24e2 043d
00000260: beeb 483d 7302 c93b a9f5 c33d 3ea2 ccbc
00000270: e8e6 dc3c 7fb4 c1bd 2579 603d 92b1 533d
00000280: e5e4 ddbc 6f78 51bd 4fc9 8c3d 17b4 83bd
00000290: b38f a7bd 6ff7 e33c ee90 abbd 725a 8c3d
000002a0: fa05 f8bd 4a74 acbd f3ca d4bd 1c92 c1bd
000002b0: cc62 3a3d 0cfb bebd b66f 41bd 8a24 e9bd
000002c0: 388f d43d 7826 88bd 6e23 b1bd 06cf 10bd
000002d0: 90a1 31bd 0368 8c3b 8c83 153d 5f74 c7bc
000002e0: dec2 dcbd 4482 b53d 1cfd c2bd be1b afbc
000002f0: 1837 c43d 3230 51bc 4be6 323d d2fd 943d
00000300: fd4e 12bc af35 fbbc 45df febc 705f 043d
00000310: 9f6d bbbd c490 56bd fcc3 dbbd 6a86 5ebd
00000320: 3cea b73d 3b02 74bc fdda 37bd 7b4e 103c
00000330: 03d3 673c 0e18 3fbb 37b9 3c3d a0ea a2bc
00000340: f25e d63c 31ff 1fbd f986 ebbd b72c 25bd
00000350: 073e 97bd 1f67 443d 5c30 66ba bf78 523c
00000360: c0e7 ba3d 2471 f0bd 597f 18bc 80c4 bf3d
00000370: bc47 d13d 95e7 88bd 74f9 b8bd fda2 c9bd
00000380: c3b0 09bd c41e adbd bc91 cd3d 2f2e 69bd
00000390: 9a0c 493d 7bbd 963d 0036 343c fccf 023d
000003a0: ece3 44bd 9583 a33d e5de dabd aa5d 03be
000003b0: f282 a73d 8752 043c f3d0 e4bc 4470 a43c
000003c0: 3d3a 26bd 07ef c2bd 18be c5bc 8b02 e1bd
000003d0: 537a 453d b1a3 9fbd fda4 b0bd 049a 17bd
000003e0: cd8c 9dbd 538d 9a3d 1a92 fcba d640 0cbc
000003f0: 2220 993d cf98 6abd 2b92 b33d 28db 293d
0.07705294 0.06478918 -0.09379206 0.009912179 0.03380392 -0.009392722 -0.10990981 -0.059800107
0.053321213 0.029754614 0.10261634 -0.10279663 0.1060077 -0.100158095 0.11332868 -0.1074625
-0.033111483 -0.015810935 0.040772364 -0.11240353 0.017503675 0.11333331 0.032812715 0.101790726
0.012884271 -0.059753023 -0.044231366 -0.00893933 0.040750045 0.016855992 -0.10091059 0.07707199
-0.04090418 0.04520772 -0.04556863 0.0053672185 0.06422996 -0.12414235 -0.016896576 -0.12564203
0.014293585 0.03987229 -0.12950192 0.0086927395 0.10071411 0.023348501 0.022497093 0.007663312
0.05187362 0.0003122509 -0.04408233 -0.048907485 0.043025717 -0.0331774 -0.06298225 0.07218904
0.08074312 0.028972255 -0.02048068 -0.11714466 0.08115536 0.07864246 0.098132856 -0.08197138
-0.07358954 0.036837168 -0.095459454 0.0802383 0.07580261 0.11654969 -0.09447824 -0.09061201
0.090289116 0.08314064 0.04726585 -0.03804277 0.09660181 0.07589938 0.13067056 -0.013675333
-0.08956526 0.10994924 -0.038268246 0.100089215 0.015988374 -0.101535246 -0.10613819 0.08843974
0.08674961 -0.090855554 -0.015403509 -0.022489185 -0.087405376 -0.009641352 -0.11870542 0.0088532
0.074801445 -0.0061729206 0.060930412 0.048024222 -0.02979718 -0.03495643 0.09857126 -0.12475156
0.021712242 -0.074263856 0.054928053 -0.0713045 -0.10168244 -0.030698655 0.10918215 0.07904492
0.062340394 -0.08174534 -0.07132003 -0.09648828 -0.026976814 -0.010436573 -0.02983245 -0.010574487
0.038599946 -0.08331277 -0.09279888 0.043978337 -0.0078092664 -0.080375835 -0.08432119 -0.025926528
0.01483629 0.009826555 -0.089329496 0.11080659 -0.106365114 0.027343543 0.07930499 -0.050381023
-0.016183753 0.0071208286 -0.110983245 -0.05004469 0.0009289097 -0.007990816 0.0889816 -0.03417687
0.015863243 -0.026583923 0.060981464 -0.11859588 -0.020577738 0.0682506 0.10782871 0.032442227
0.049052946 0.006134325 0.0956834 -0.024979707 0.026965573 -0.09458255 0.054803032 0.051683016
-0.027086684 -0.051140245 0.06874334 -0.06430834 -0.08181705 0.027827946 -0.083772525 0.068531886
-0.12110515 -0.08420618 -0.10390272 -0.09451696 0.045504376 -0.09325227 -0.047225676 -0.113839224
0.10378879 -0.06647962 -0.08649336 -0.035353683 -0.04336697 0.00428486 0.036502406 -0.024347482
-0.107793555 0.08862737 -0.09520933 -0.021375533 0.09580821 -0.012767838 0.043676656 0.07274975
-0.008929965 -0.030665247 -0.031112323 0.03231758 -0.09151768 -0.052384153 -0.107307404 -0.054327406
0.089802235 -0.01489311 -0.044886578 0.008807774 0.01414943 -0.0029158625 0.046075072 -0.019887269
0.02616832 -0.03906173 -0.11500353 -0.040325847 -0.07384878 0.047949906 -0.000878101 0.012846171
0.09126234 -0.1174033 -0.009307706 0.09363651 0.1021876 -0.06684796 -0.090319544 -0.09845541
-0.03361584 -0.08453134 0.10037562 -0.05692881 0.049084283 0.07360359 0.010999203 0.03193663
-0.048068926 0.07984082 -0.10687045 -0.12828699 0.08179273 0.008076317 -0.027931666 0.020073064
-0.040582884 -0.09518247 -0.024138495 -0.10986813 0.04821236 -0.077948935 -0.08625219 -0.037012115
-0.07692871 0.07546487 -0.0019269616 -0.00856038 0.07476832 -0.057274636 0.08768114 0.04146877

blocks.0.0.bias f4 [256]
00000000: db7c 4abb 60a7 52bc 8cea 7fbd 39c7 9d3d
00000010: 8a78 9b3c c130 ed3d a1bb 8ebd b85b 2dbd
00000020: 31fe 0c3d 498d d9bd 4df7 d13d 5969 ab3d
00000030: bb5b c6bd 1ef5 dabd a69c adbd 5ece da3c
00000040: 780b 8a3d 1ca3 c63d 24bf 61bd 7d8a d8bd
00000050: 63ed 603d 1ff1 9b3d 601a 193b c711 d33b
00000060: 6016 06bd 0d47 b9bd 0ec0 af3d c481 f03d
00000070: d2c8 c4bd eede 433d f7a2 8fbd fb3f 403c
00000080: 2a2e e03d da2c 303d f0dc 43bd b5bd 5e3d
00000090: 7abf 46bd 0996 0b3d 7b8c dfbc f7dc 913d
000000a0: af3b 84bd ab72 1ebd 94cc c6bd 4f1e b2bd
000000b0: b6b0 22bd 3a57 d43c fe28 4bbd b3e2 93bd
000000c0: 203b e33d 43ba 0c3d d00d b0bc 5c81 953d
000000d0: 1698 aabc b6bf 7c3c 7179 8f3c 8d43 c93d
000000e0: 0061 5b3c 7d7b 923d c4b8 d8bd df68 b6bc
000000f0: c561 b23d 1aad b4bd 091f b3bd 987b a1bd
00000100: d17d 973d cb38 d43d 2946 d13b 100d ecbd
00000110: 996e 71bd ef16 a53d 2d4a c1bd 7602 96bc
00000120: 175f a43d dd9c ee3d f80c 83bd 2f95 bdbd
00000130: c491 533d 9884 4d3d f15e 44bd 6584 e33c
00000140: 0c5b 843d efe2 babd 7669 19bd 7942 603b
00000150: b7e8 8a3c 4649 6cbd fa89 c0bd 21fe dabc
00000160: a4e8 4ebd c1f4 8738 6ac4 e0bd fa11 c83d
00000170: 62e0 ba39 e114 873d eb44 883d fa61 b6bd
00000180: a6bf ab3d ad2e e2bd d999 913d 7c3f 8d3d
00000190: ec0b 19bc 109a bdbd 3221 d53c 4bd7 f0bc
000001a0: 7feb 883c 3bde 1dbd 2bb0 5fbd 59be b0bd
000001b0: 1af5 843b e2b3 e3bd 05ec 873c 252f a6bc
000001c0: c741 10bd e101 a9bd 9df4 883d 0861 d93d
000001d0: 1b98 3fbd ddfd 67bd 09b7 cfbc 235f 243d
000001e0: 61a8 d83c 2c7a ddbc e384 d7bb 2452 e83c
000001f0: 08c8 923d d48a eb3d 631a a0bd 818e 91bc
00000200: f9ad bebd 8bbb d8bd e4d9 a9bd 5618 ffbc
00000210: 0f0c d23d a102 c53d 9911 763d 2558 043a
00000220: b16e b4bd 97f8 af3d 9dfd 25bd 8f8e 8bbc
00000230: 1576 583c 1919 4dbd 0c90 09bb 0a16 edbd
00000240: 5de8 96bd 7a57 86bd 7473 d83d 45ad 6f3b
00000250: 2c33 68bc 437c f13d e59c e7bd 3cbf 0fbd
00000260: 68a4 e23d 25df 57bc 7724 a23d 0fb9 22bc
00000270: 636b a83d 00a1 62bd d88f b7bc e845 883c
00000280: 6704 1dbd 3251 3fbd 0b7c ac3c cbe8 e43d
00000290: 9643 2bbd 10c5 debd 0d45 eabd 91ce aabd
000002a0: 816b b5bd fc4b 5dbd 482b 773c d2ba bcbd
000002b0: eeda f33d ab04 863d 450c e23d da04 92bd
000002c0: d19b bbbd 5d87 99bc 0e9c ebbc 2fd0 89bd
000002d0: a720 373d 5bb8 1dbd c1ef b23c 21d4 d0bd
000002e0: 778d b9bd cc3c a63c 3d5f 18bc d125 34bd
000002f0: b232 a9bb 13cf 423b 131f 69bd a642 ee3d
00000300: cca2 8dbc 2eec f0bd 57a7 cd3d dcde b13b
00000310: ceee d73d 59eb 87bd 4bdd 92bb 558e c03d
00000320: c488 e83c 80d8 a83c becb b6bd 45ce 46bd
00000330: db5c 4b3d 069c e63d b9b4 493d 7cc1 7ebd
00000340: 4bdf 593d 9a64 be3d 95f3 68bb 863b 4bbd
00000350: 45a3 14bd 53b4 0cbd 7fc6 d83c 909d 863d
00000360: 17a8 cf3d 0f43 9abd e239 2d3d 13eb cf3d
00000370: 78f4 e2bc 551f 25bc 5115 723d 8eae cd3d
00000380: 13b4 593d 2f8e 31bd ad7c 8b3d 0c59 073d
00000390: 6f72 b93d 7fd2 95bd fa60 b4bb f462 a8bd
000003a0: 3832 aabc 77ed f63c 6290 bd3d 2c64 833c
000003b0: bde9 abbd 4512 943d 5d97 ba3c 3fed d83d
000003c0: 46b5 aa3c 9f2e d63d d110 4a3d 66ee a43c
000003d0: 0ed1 08bd 9dbb 673d 3bb6 943c 90fd bf3d
000003e0: 3988 08bc 8162 35bd 450a d1bd abd7 e43c
000003f0: 03b3 913d 44a8 a9bd 9e57 833d 499f df3d
-0.0030897174 -0.012857288 -0.06247954 0.07704014 0.018978376 0.11581565 -0.06969381 -0.042323798
0.034422103 -0.10622651 0.10252247 0.08369703 -0.09685465 -0.10691284 -0.08477144 0.026709732
0.06740469 0.096990794 -0.055113927 -0.105732895 0.05491389 0.076143496 0.0023361668 0.006441328
-0.032736182 -0.09046755 0.085815534 0.11743501 -0.09608616 0.047820024 -0.07013505 0.011734004
0.10946305 0.043011524 -0.047818124 0.054380137 -0.04852245 0.03407863 -0.027288666 0.07122224
-0.06456696 -0.038683575 -0.09706989 -0.08697187 -0.039719306 0.0259205 -0.04959964 -0.07220974
0.110952616 0.03435732 -0.021490961 0.07300064 -0.020824473 0.015426567 0.017513962 0.098273374
0.013389826 0.0715246 -0.10582116 -0.022266803 0.08710054 -0.08822079 -0.08746154 -0.07884902
0.073970445 0.10362395 0.0063865376 -0.11525929 -0.058943365 0.08061015 -0.09437976 -0.01831172
0.080259494 0.11651013 -0.06398958 -0.0925697 0.051652685 0.05017528 -0.047942106 0.027773092
0.06462678 -0.091253154 -0.03745409 0.0034219308 0.01695667 -0.057687066 -0.09401317 -0.026732506
-0.050514832 6.4828906e-05 -0.10974963 0.09769054 0.00035643863 0.06595779 0.0665377 -0.08905406
0.083861634 -0.11044059 0.07109422 0.06896874 -0.009341221 -0.09257901 0.026016805 -0.029399535
0.016713856 -0.038542014 -0.054611366 -0.08630056 0.0040575387 -0.11118294 0.016592035 -0.020286152
-0.03521898 -0.082523115 0.06687281 0.1061421 -0.04677592 -0.056638587 -0.025355833 0.040129792
0.026447477 -0.027035795 -0.0065771206 0.02835948 0.07167059 0.11501089 -0.07817533 -0.017768146
-0.093105264 -0.10582646 -0.082935125 -0.031139534 0.10256206 0.09619642 0.060075376 0.0005048535
-0.08810175 0.085923366 -0.040525068 -0.01703575 0.013211747 -0.050072763 -0.00209904 -0.11576469
-0.073685385 -0.065596536 0.10568896 0.0036571783 -0.014172357 0.11791279 -0.11309222 -0.035094485
0.11066514 -0.01317576 0.07917111 -0.009931817 0.082236074 -0.055329323 -0.022407457 0.016634896
-0.038334277 -0.046708293 0.021055242 0.11177214 -0.0418125 -0.108774304 -0.11438952 -0.08340181
-0.08858395 -0.054027542 0.015086003 -0.09215321 0.11906992 0.06543859 0.110374965 -0.071298316
-0.09160579 -0.018741304 -0.028760936 -0.06729161 0.044708874 -0.038505893 0.02184284 -0.101967104
-0.090601854 0.020292662 -0.00930005 -0.043981377 -0.005163514 0.0029725477 -0.0569144 0.11633806
-0.017289542 -0.11763798 0.10041683 0.0054281782 0.10543595 -0.06636686 -0.0044819466 0.09402148
0.028385527 0.020611048 -0.089255795 -0.048536558 0.0496491 0.11260228 0.049244616 -0.06219624
0.053191464 0.09296532 -0.0035545577 -0.049617313 -0.03628852 -0.034351658 0.026461838 0.065730214
0.101394825 -0.07532322 0.04229153 0.10152259 -0.027704462 -0.010078271 0.05910236 0.10043059
0.053150248 -0.043348487 0.068108894 0.033043906 0.090550296 -0.073155396 -0.0055047246 -0.08221999
-0.0207759 0.030142529 0.092560545 0.016038977 -0.083941914 0.07230047 0.022777254 0.10592126
0.020838391 0.10458111 0.049332444 0.020133208 -0.033402495 0.056575406 0.0181533 0.09374535
-0.008333259 -0.044283394 -0.10207037 0.02793487 0.07114222 -0.08284047 0.06413196 0.10919053

blocks.0.1.weight f4 [256]
00000000: 8146 7d3f 5115 7f3f b319 7e3f 9cac 7c3f
00000010: 52a5 7f3f a76f 803f c5c6 803f 57a5 803f
00000020: 68db 7e3f ade1 7f3f 676b 813f e355 813f
00000030: ccfd 7d3f bdfc 7d3f d6ae 7b3f 0e2e 7d3f
00000040: 863a 813f ae67 803f c706 7e3f df9e 7e3f
00000050: 2858 7d3f 35ee 803f 9c64 803f 7874 7e3f
00000060: 0fa0 803f 459e 7e3f 609c 803f 97a2 7c3f
00000070: defb 803f 1aa0 7f3f 146e 813f 3c41 813f
00000080: 4284 7e3f a85d 7c3f 948b 7d3f 4b18 803f
00000090: c58e 7f3f 4721 803f 761d 803f 994d 7f3f
000000a0: 8a96 7d3f f92f 7f3f adc3 7d3f 1491 7e3f
000000b0: c1bc 7e3f ec35 803f 5901 803f c34a 803f
000000c0: 6b0f 7f3f 136a 7f3f 125e 7c3f 16d9 803f
000000d0: bb77 7f3f 210e 813f 20bc 7b3f 05c8 813f
000000e0: 1990 813f ade2 7d3f d442 813f a916 7d3f
000000f0: 2a05 803f a493 7e3f 065d 803f 7009 803f
00000100: a168 7d3f 7691 803f 58e6 7b3f 99da 7c3f
00000110: 04cd 813f b7a4 7f3f b805 813f 9aa9 7e3f
00000120: ec33 7e3f 442c 813f 3656 813f 2e8a 803f
00000130: ebf2 7e3f 1873 803f 8d79 803f 5548 7d3f
00000140: bdfe 7f3f d333 803f c8b9 7c3f f005 803f
00000150: e7d8 7e3f 985b 803f c240 803f b1a4 7d3f
00000160: 9435 7d3f 49a4 803f af66 7e3f ce8d 7d3f
00000170: c807 7f3f 0b8a 803f a0b1 7d3f 6983 7d3f
00000180: 7238 813f cfbb 7c3f ac50 7e3f e208 803f
00000190: 9216 7e3f 9751 803f b012 813f 0c82 7f3f
000001a0: ac4d 7c3f a582 813f 6ae3 7f3f d5ba 7c3f
000001b0: f3c3 803f 969f 7e3f 5898 7d3f e7f8 7d3f
000001c0: 2d99 7f3f 61d8 803f e40f 7f3f 7d57 7d3f
000001d0: f28e 7d3f 8506 803f de8a 7d3f fc3f 7f3f
000001e0: f1d6 7c3f cf34 813f 1259 7d3f 0015 7f3f
000001f0: 6791 7d3f 6b63 813f 46f9 7e3f df4d 803f
00000200: 01cd 7b3f 3fd2 7f3f ea5b 7f3f 4e25 803f
00000210: 2513 813f c2c3 7d3f 3821 7f3f 35e5 803f
00000220: 1856 7b3f c9d2 7f3f 3108 7e3f 859e 7d3f
00000230: 2953 7f3f 3900 7f3f e901 803f a4dd 803f
00000240: 04e4 803f 27ac 803f 9134 803f 2a7c 7e3f
00000250: 3799 803f 03b0 803f 84bd 803f 5e3e 7f3f
00000260: daf9 803f 1a90 803f 82e2 7f3f f224 813f
00000270: de54 813f 7a95 803f e1b2 7e3f 6233 813f
00000280: 9e3d 803f ab27 803f 512a 7d3f 446c 7e3f
00000290: 98b6 803f a9f2 7d3f 52f3 803f ff57 7f3f
000002a0: e03c 7f3f f5d0 803f 92eb 803f 9c7a 7e3f
000002b0: b5dc 7b3f 89fc 7f3f f262 7e3f 0274 803f
000002c0: f410 803f 2067 803f 4257 7f3f 1a3c 7e3f
000002d0: 4a19 813f 5185 803f bf5f 813f 6128 7c3f
000002e0: accf 803f 7515 7d3f 79be 7f3f 1de0 7d3f
000002f0: 385c 7f3f a4b9 803f 8cb4 803f b330 803f
00000300: 9940 803f ec01 813f 0493 813f d102 7f3f
00000310: ebe5 803f 98fd 803f ad25 7c3f 2bff 803f
00000320: efee 7c3f 3ba2 7f3f fab4 803f 97bd 803f
00000330: 03f1 803f e168 813f 5c39 7f3f 4c54 7e3f
00000340: e21d 803f 3217 803f 9e14 803f d582 7e3f
00000350: 9d70 7d3f d3ba 813f e85a 7d3f 2ed9 813f
00000360: f199 7d3f 8eaa 7e3f f69a 7c3f 6db2 7d3f
00000370: 9264 7e3f 02b6 813f a3ec 7e3f e655 813f
00000380: 8785 813f c130 803f 5516 7c3f b7d2 803f
00000390: 7eb1 803f d718 7f3f 10b7 7f3f 8e2e 7c3f
000003a0: cb1c 7e3f c9a2 7d3f 03ad 803f fc45 7e3f
000003b0: 5f39 7b3f 2a1d 803f 0a21 7c3f 126c 803f
000003c0: 8637 7e3f 8c94 7e3f 3e38 803f ac54 823f
000003d0: ae2e 803f 124d 803f d92a 7d3f c611 803f
000003e0: 56d5 7c3f 0af6 803f 1d46 7e3f 28b5 7d3f
000003f0: ea69 7c3f 1d1c 7d3f c7ff 7f3f 796c 7d3f
0.98935705 0.996419 0.99257964 0.9870088 0.99861634 1.0034074 1.006066 1.0050458
0.9955354 0.9995373 1.0110902 1.0104336 0.9921539 0.99213773 0.98313653 0.988984
1.0095985 1.003164 0.9922909 0.9946117 0.9896264 1.0072695 1.0030704 0.9939647
1.0048846 0.9946025 1.0047722 0.9868559 1.0076864 0.9985367 1.0111718 1.0098033
0.9942056 0.9858041 0.99041104 1.0007414 0.99827224 1.0010155 1.0008991 0.9972778
0.9905783 0.99682575 0.991267 0.9944012 0.99506766 1.0016456 1.0000411 1.0022815
0.996329 0.9977123 0.9858104 1.0066249 0.9979207 1.0082437 0.9833393 1.0139166
1.01221 0.99174005 1.0098519 0.988627 1.0001576 0.9944403 1.0028389 1.000288
0.98987776 1.0044391 0.9839835 0.98771054 1.0140691 0.9986071 1.007987 0.9947754
0.99297976 1.0091634 1.0104434 1.0042169 0.99589413 1.0035124 1.0037094 0.98938495
0.99998075 1.0015815 0.9872098 1.0001812 0.99549717 1.0027952 1.0019763 0.99079424
0.9890988 1.0050136 0.9937543 0.990445 0.9962125 1.0042127 0.9909916 0.9902864
1.0095351 0.98724073 0.99341846 1.0002711 0.9925319 1.0024899 1.0083828 0.9980781
0.9855602 1.0117995 0.9995638 0.98722583 1.0059799 0.9946226 0.99060583 0.9920792
0.998431 1.0066034 0.9963362 0.9896162 0.9904624 1.000199 0.9904002 0.9970701
0.98765475 1.0094241 0.98964036 0.9964142 0.9904999 1.0108465 0.9959911 1.0023764
0.98359686 0.99930185 0.99749625 1.0011384 1.0083967 0.9912683 0.9966006 1.0069948
0.98178244 0.9993101 0.9923125 0.99070007 0.9973627 0.99609715 1.0000583 1.0067639
1.0069585 1.0052537 1.0016042 0.9940821 1.0046757 1.0053715 1.0057836 0.9970454
1.0076249 1.0043976 0.99955 1.00894 1.0104024 1.0045617 0.994917 1.0093806
1.0018804 1.0012106 0.98892695 0.9938395 1.0055723 0.99198395 1.0074255 0.99743646
0.9970226 1.0063769 1.007189 0.9940584 0.9838365 0.99994713 0.9936973 1.0035403
1.0005174 1.0031471 0.9974252 0.9931046 1.0085843 1.0040685 1.0107344 0.98499113
1.0063376 0.98860866 0.99900013 0.99170095 0.9975009 1.0056653 1.0055099 1.0014862
1.0019714 1.0078712 1.0122991 0.9961367 1.0070165 1.0077391 0.9849499 1.0077871
0.98802084 0.9985692 1.005523 1.0057858 1.0073551 1.0110132 0.996969 0.99347377
1.000912 1.0007079 1.0006292 0.99418384 0.9899996 1.0135139 0.98966837 1.0144403
0.9906302 0.99478996 0.9867395 0.9910038 0.9937221 1.0133669 0.9957983 1.0104339
1.0118874 1.0014879 0.98471576 1.0064305 1.0054166 0.9964728 0.99888706 0.98508537
0.99262685 0.99076515 1.0052799 0.9932554 0.98134416 1.00089 0.98487914 1.003298
0.9930347 0.99445415 1.0017164 1.018209 1.0014246 1.002352 0.98893505 1.0005424
0.98763025 1.0075085 0.99325734 0.9910455 0.9859911 0.9887102 0.9999966 0.9899364

blocks.0.1.bias f4 [256]
00000000: d8d5 2fbc 1cc9 ebbb 0ecf b8ba fd21 5cbc
00000010: 8b93 cebb 5dbe ff3b 1544 333b a691 973b
00000020: f545 1239 8ae7 62bb e35f 063c eff2 5a3c
00000030: acc6 1dbc 94b7 56bc 2a29 febb 8bfb 15bb
00000040: 17ac 7c3a 60b0 763a e8aa 80b8 f0b2 a53b
00000050: 310c febb bc2a 183c a1a4 ee3b 5a7a 93bb
00000060: 9164 503c 8da4 83bb 2d11 8f3b 8b05 1dbc
00000070: 73b4 4d3b 13d8 053b 331b e83b 4d60 553c
00000080: 7dfb 38bc 90cb bfbb 3369 39bc 65de 18bc
00000090: 5f43 15bc 889d de3a 08ae 48ba fd82 943b
000000a0: 9a41 003b 437d 27bc 857c 61bc c235 03bb
000000b0: 969a c6ba d095 d83a 9c02 bf3b d805 2c3b
000000c0: 0e63 003c 9fbc fcbb d26b 4cbc 98f5 3b3c
000000d0: f64a f1bb 8041 f93b 508f 87bc 7c7e 443c
000000e0: dcc7 803c 0a49 7fbc ebbc 8c3b b033 11bc
000000f0: 00f7 70bb 30dd f5bb 42df dc3b ac7f 86b9
00000100: 3bc7 dbbb a3cc f33b 0fe0 51bc e6bb ccbb
00000110: d9cd 663a bafa 193c 678b e33a 7750 7ebb
00000120: 9a15 89bc dcf4 743c 64b1 1e3c e260 31ba
00000130: c61c f439 ecd8 9dbb f03e 1b3b d228 30bc
00000140: eca8 0bb9 99a8 ecbb 0667 dfbb 41f2 31bb
00000150: 5ae9 3fbb 1049 253a 0817 823a 2a17 39bc
00000160: d42b 93bb 8e67 6d3b 213c 5ebb c40d ccbb
00000170: 8afa f5bb 2a85 8fbb dead a4bb fbfa d1bb
00000180: 4df3 fd3b c5fd 83bc a031 88bb ca71 07ba
00000190: 641c ddbb 262c 9a3b 1b86 0c3c 34ec 03bc
000001a0: 8c32 22bc dae4 1cba 3407 a33b dae7 48bc
000001b0: 8021 533c 6c10 c6b8 7ad7 4bbc d01f 15bc
000001c0: c819 f83b 3c33 583c f86b 4abc 446d bc3b
000001d0: b9d1 babb 5357 a13a 083f a1bb ef84 9cbb
000001e0: b92f 2abc b3ab d13b 9068 5abc 41af babb
000001f0: 8a08 2dbc 52d5 553c 3b42 6cbb 4e4d 463b
00000200: c1c5 45bc a029 243c 3afc 0cbb c472 2b3b
00000210: 5a16 963b dc4c dcbb 906e 16bc 2ad8 7e3b
00000220: 5484 9abc f1fa d4ba a89c 853b 4086 ecbb
00000230: 16a0 093b 196d ab3b 7119 d03b eff4 36bb
00000240: bb70 e43b 51a3 01bb 9c45 b53b ac17 95bb
00000250: ca26 81b9 27b9 373c 0795 0eba 13e3 1fba
00000260: 7c0a 193c 4c13 40bc 6c8c 573b 1b40 1e3b
00000270: 4791 283c eadc fc3a 2873 22bb 82b8 8a3b
00000280: 2822 063b 8b18 ab3b d600 4ebc b26d 293b
00000290: ab6e b73b d4d6 f9bb 77dc d5bb 3b91 9eba
000002a0: 8bf6 d53b 2eb1 343c ac3d 2f3c f115 1dbc
000002b0: 55c9 a0bc 05f7 5d3b 48de 8dbb 07c6 8d3b
000002c0: eab8 a63b c346 543c 193a c53b f918 d1bb
000002d0: 3aeb b83a bb90 353a 6407 233b 3e62 44bc
000002e0: c21a 633b ad15 50bc d833 293a acfd 0ebc
000002f0: 5038 7f39 761e 1a3b b3ea 823b 832c 023b
00000300: b138 1cbc ab9b 053c b5a3 763c 2679 363a
00000310: 4b55 1c3c d686 bb3b 0b4b cabb 4f76 6e3b
00000320: 9ae1 80bc 4a23 01ba af13 cd3b 4675 8e3a
00000330: 158e 323c 00bf c23b da71 11bc 2dbb c9bb
00000340: aa11 3f3c b76e 413c b714 b83b f996 0d39
00000350: 0d67 9abb 747a 143c 3759 9cbb 76b1 573c
00000360: 5803 843a ee95 5dbc 0227 0dbc 1430 91bb
00000370: dc3f 3cbc 28b1 8f3c 0dcb 30bb ffb1 1f3c
00000380: 6d33 dd39 0352 8f3b f754 7dbc 460d 3ab9
00000390: 7534 cdb9 d0f0 8339 db06 91bb 3db2 e1bb
000003a0: 06a0 31bc f5e7 62bc c1e4 013b d152 46bc
000003b0: 5e1b 31bc 4f57 013c d6aa 35bc aeaf c53b
000003c0: 9620 fabb d291 ebbb c0cb a23b 68b8 603c
000003d0: 8e1f 203b d275 03ba b934 bebb f133 92bb
000003e0: 8530 c3bb 04be 053c a2a1 25bb 01fb 2abc
000003f0: 40a2 6bbc af27 9ebb 5f72 beba de3f 75bc
-0.010732137 -0.007195605 -0.0014099793 -0.013435838 -0.0063042096 0.0078046755 0.0027353812 0.004625517
0.00013949706 -0.0034622871 0.008201572 0.013363584 -0.009629887 -0.013105292 -0.007756372 -0.0022885527
0.00096386805 0.0009410437 -6.1353494e-05 0.0050567314 -0.007752918 0.009287532 0.007282809 -0.0045006694
0.012719289 -0.0040174187 0.004366061 -0.009583841 0.0031388074 0.002042298 0.0070833205 0.013023448
-0.011290428 -0.005853124 -0.011316585 -0.009330367 -0.009110301 0.0016984204 -0.0007655327 0.0045322166
0.0019570352 -0.010222736 -0.013762598 -0.0020021056 -0.0015152271 0.001652414 0.0058291685 0.00262486
0.0078361165 -0.007712915 -0.012476878 0.011472128 -0.0073636724 0.007606685 -0.016547829 0.011993047
0.0157203 -0.015581379 0.0042949817 -0.008862421 -0.0036768317 -0.0075031742 0.0067404816 -0.00025653595
-0.0067070997 0.007440166 -0.012809767 -0.006247985 0.00088044774 0.009398157 0.0017360271 -0.0038805285
-0.016733933 0.014950957 0.009685848 -0.0006766451 0.00046560745 -0.004817119 0.0023688637 -0.01075192
-0.00013319001 -0.007222247 -0.0068177013 -0.0027152451 -0.0029283375 0.00063051376 0.0009925077 -0.011297027
-0.0044913087 0.0036225053 -0.0033910351 -0.006227227 -0.007506673 -0.004379888 -0.0050256094 -0.006408093
0.007749951 -0.016112218 -0.0041563064 -0.0005166797 -0.006747769 0.00470497 0.008576895 -0.008051921
-0.009899747 -0.0005985029 0.004975224 -0.012262309 0.012886405 -9.4444345e-05 -0.01244151 -0.009101823
0.0075714327 0.013195809 -0.012354843 0.00575033 -0.0057012704 0.001230935 -0.004920844 -0.004776589
-0.0103873545 0.006398642 -0.013330594 -0.0056971614 -0.010561118 0.013051348 -0.0036050219 0.003025848
-0.012071074 0.01001969 -0.0021512643 0.0026160935 0.004580301 -0.0067230295 -0.009181634 0.0038886168
-0.018861927 -0.0016249103 0.004077513 -0.0072181523 0.002099996 0.0052315113 0.006350689 -0.0027916988
0.0069714463 -0.0019781182 0.0055319797 -0.004549941 -0.00024633697 0.011213577 -0.0005439077 -0.00060992053
0.009340879 -0.011723351 0.0032890094 0.0024147097 0.010288543 0.0019291912 -0.0024787877 0.004233421
0.0020467136 0.0052214316 -0.0125734415 0.0025852737 0.0055979094 -0.0076244865 -0.0065265256 -0.0012097725
0.0065296344 0.011028571 0.010695856 -0.009587751 -0.019627253 0.003386916 -0.0043294765 0.004326585
0.0050879614 0.012956324 0.0060188887 -0.006381151 0.0014108189 0.00069261686 0.0024876231 -0.011986313
0.00346534 -0.01270048 0.00064545637 -0.008727472 0.00024339673 0.0023516691 0.0039952635 0.0019862957
-0.009535001 0.00815479 0.015053679 0.00069608015 0.00954182 0.005722861 -0.0061734966 0.0036386435
-0.015732575 -0.0004926218 0.00625845 0.001086869 0.010898133 0.005943179 -0.008877242 -0.0061563463
0.011661926 0.011806182 0.005617704 0.0001350305 -0.0047119916 0.009062398 -0.0047713774 0.013164869
0.0010071797 -0.013524516 -0.008615257 -0.00443078 -0.011489835 0.01754053 -0.0026976496 0.009747027
0.0004219072 0.00437379 -0.015462152 -0.00017743287 -0.0003913973 0.00025165686 -0.004425866 -0.0068877027
-0.010841375 -0.013849248 0.0019820186 -0.012104706 -0.0108097475 0.007894351 -0.011088094 0.0060329055
-0.007633279 -0.007189014 0.0049681365 0.013715841 0.002443287 -0.000501481 -0.005804625 -0.0044617583
-0.0059567117 0.008162979 -0.0025273343 -0.010435821 -0.014381945 -0.004826508 -0.0014529935 -0.01496884

blocks.0.1.running_mean f4 [256]
00000000: 2fe8 243e ffde 1fbe b0b6 3ebd cf31 0f3e
00000010: dbe6 14bd adb3 e63c d340 59bd 33b7 cabd
00000020: 212c 64bd 8664 93bc 0d26 2f3e d85c 053e
00000030: 933c 6abd 0435 0bbe 81b2 dbbd 3d5c 6abd
00000040: fad4 bd3d 9aa4 97bd cde6 dbbd 47c3 94bd
00000050: 01fe cd3c 0e00 8b3d 2ec8 52ba 7a3d 19bd
00000060: c62e ebbd c2af 72bd 9f59 573e c862 1d3e
00000070: 1722 83bd 8990 a4bd ba9e 383d 9001 9f3d
00000080: b069 88bd ada7 29bd 8e2a 5fbe 6f7e 5dbd
00000090: 321b 39be 1565 9c3c e9d5 2abd 6510 a93d
000000a0: 5480 90bd e0b3 a3bd 14ce d6bc 3de9 ecbd
000000b0: 759b a4bc 583d 863d 87d5 55be c611 80bd
000000c0: 9339 4d3e f2d7 6fbd 2f54 abbd 39f2 e83d
000000d0: dfa9 eebd e041 32bb 3635 683d cc59 7c3c
000000e0: 9a7c e2bc a212 193e ce77 f13c baea af3c
000000f0: cf4a 713d 72db 5bbd 88b2 a2bd 9d77 f9bc
00000100: 7c52 533c 2e74 0dbd 748b fb3b 17e6 3bbe
00000110: 6c7d ab3c 80ec 343c 443f 01be ac0f abbd
00000120: bac0 d73d f4ae d83d d1de c6bd 0a7a e4bb
00000130: e979 0a3e 1419 9a3d a47f 52bd 390c ff3d
00000140: 7d4c c23d 546e 0abe ad61 303c 78ee d7bd
00000150: 60ab 3d3d 926d 193d b421 aebd c17f 8f3d
00000160: 845b a83b 5428 da3d 7625 b6bc 584a 1d3c
00000170: bc57 92bd 778d dabb 2bbc eb3d e115 65be
00000180: 3dc9 daba c8ec 24bd 321c 143e e272 f53d
00000190: da8a 98bd 5b33 c7bd b253 f13d 9a4e adbd
000001a0: 8814 89bc a1f7 7abe 0bcb f83c 4079 0bbe
000001b0: b99f 2fbe d42a ca3c 74b6 dc3d 248e fdbc
000001c0: 1986 0cbe 90fc d73c 90d1 193e 1900 2c3e
000001d0: 69e5 b9bd 4628 d9bd fd0e 8abd 6605 8ebd
000001e0: dca2 a83c a0cc 16bd 49f3 e43d f737 e0bd
000001f0: b2af 2e3e 3b71 423d 89de 73bd e4c3 ebbd
00000200: ae17 3bbe 24b6 8ebd 2aea 64be 0305 c03c
00000210: a87f 273e 412a 8b3d 9716 34bb e023 933c
00000220: af13 d4bd 828f d7bd e862 9ebb 9bed 043e
00000230: 5607 cbbd 7800 71bd 8f84 d9bd 26e4 f9bd
00000240: e12d d0bd 6762 91be 9b55 443e 9f96 c5bd
00000250: 0da4 6dbc 2849 c03d aba8 11bd 3e91 09be
00000260: 9694 1d3d f896 73bd b071 36bd da66 73bd
00000270: ca65 6cbb e903 0ebc 581c 0c3c 7d3e 61bd
00000280: dc14 eb3d 1f50 dbbd 4e26 463c 605e 173d
00000290: b254 00bd 733e 24bd f879 76be c687 abbd
000002a0: c0ef 1ebd 07ff 7bbd cc55 363d fe41 2fbe
000002b0: 3889 d33d 066c c4bd f703 103e 8e43 77bd
000002c0: 24b7 e6bd 5ed8 b1bd 1248 be3d 04ba 0dbe
000002d0: 6ef2 fc3c 2930 1abd 8508 a5bc 02be a0bd
000002e0: 5ee2 913d 6f99 673d 14ce c9bd 51ac 12be
000002f0: ca45 04bc e55d b5bb 5cac 49bb 3864 563e
00000300: 6d30 48bc 8863 d7bb 4a58 9a3d 97e9 d9bc
00000310: ebd1 be3b 1595 8abd 6618 f6bd 3668 9bbd
00000320: a368 f0bb 3daa eabc 9753 13be 8bbb 92bd
00000330: 32cf 2c3d 34da 4a3d 4eb7 033d 59d0 5bbd
00000340: a505 293d f04d 9d3d 7f5b a5bd be1f 59bd
00000350: c489 be3d aafd 08bc f7c7 623d d06d 6dbc
00000360: f791 213e fccd 8dbd b67c b23d 1343 153d
00000370: ea19 dcbd 6c5d d7bd 6b93 873b 8845 4d3e
00000380: 8372 cbbd 77c7 953a 3969 2f3d 3f62 19bc
00000390: be9d 9b3d 0392 75bc cbc4 e4bc 18f3 abbd
000003a0: 237b 1dbe 6cd3 4b3e f1bc 043e 42f5 20bd
000003b0: 0b9f 22be b7c1 633e 9b5d ba3d bdf3 3c3e
000003c0: 52db 2bbe bbf8 083e 80c3 473e 22d3 203d
000003d0: b6b2 aebc d0b7 093e f131 fcbc 246b 8dba
000003e0: d4cb a93b bd31 cebc d228 f23c bf26 673d
000003f0: 899b 7a3d 82cd 79bd f6e6 3ebb 12e5 173e
0.16104196 -0.1561241 -0.046560943 0.13983844 -0.036352973 0.028161848 -0.053040337 -0.09898224
-0.055706147 -0.01799227 0.17104359 0.13023698 -0.057186674 -0.13594443 -0.10727406 -0.05721687
0.09269138 -0.07404442 -0.10737381 -0.07263809 0.025145533 0.0678712 -0.00080406934 -0.037412144
-0.11483531 -0.059249647 0.21030281 0.15369713 -0.064029865 -0.080353804 0.04507325 0.0776397
-0.06660783 -0.041419674 -0.21793577 -0.054075655 -0.1807678 0.019091168 -0.041707907 0.0825508
-0.07055727 -0.07993293 -0.026221313 -0.11567924 -0.020093659 0.06554669 -0.20882235 -0.0625339
0.20041494 -0.05855555 -0.08365666 0.11374325 -0.11653494 -0.002719991 0.05669137 0.015402269
-0.027647305 0.14948514 0.029476073 0.021474231 0.058909234 -0.053676076 -0.079442084 -0.030452544
0.012898084 -0.034534626 0.007676536 -0.18349491 0.02093383 0.011042714 -0.1262179 -0.083525985
0.105348065 0.10580245 -0.097104676 -0.006972556 0.13523068 0.075243145 -0.05139126 0.12453503
0.09487245 -0.1351865 0.010765475 -0.10543531 0.046306014 0.03745801 -0.08502522 0.07006789
0.0051378626 0.10652223 -0.02223466 0.009600244 -0.0714564 -0.006669696 0.115104996 -0.22371627
-0.0016692054 -0.040264875 0.1446388 0.11984803 -0.07448359 -0.09726592 0.11783542 -0.08462258
-0.016733423 -0.24508525 0.030370256 -0.13620472 -0.17150773 0.024678625 0.10776988 -0.030951567
-0.13723029 0.026365548 0.15021348 0.16796912 -0.0907696 -0.10603385 -0.0674114 -0.069346234
0.02058547 -0.03681624 0.111792155 -0.109481744 0.1705921 0.047471266 -0.059538398 -0.115119725
-0.18270752 -0.06968334 -0.22354952 0.02343989 0.1635729 0.06795169 -0.0027479285 0.017961442
-0.10355317 -0.10525419 -0.004833568 0.12981264 -0.099135086 -0.058838338 -0.10620987 -0.12201719
-0.10165001 -0.28395388 0.19173281 -0.09647869 -0.014504445 0.093889534 -0.035561245 -0.13434312
0.03847178 -0.059470147 -0.044542015 -0.05942426 -0.0036071413 -0.008667924 0.00855168 -0.054991234
0.11478588 -0.10708641 0.0120940935 0.036955237 -0.03133077 -0.04009862 -0.24069965 -0.08375506
-0.038802862 -0.06152251 0.044515416 -0.17115018 0.10328907 -0.09590916 0.14064012 -0.06036716
-0.112654 -0.08683847 0.0929109 -0.1384049 0.030877318 -0.037643585 -0.020145664 -0.07848741
0.07123254 0.05654281 -0.098537594 -0.14323546 -0.00807328 -0.0055348747 -0.00307729 0.20936668
-0.012218577 -0.0065731443 0.07536371 -0.026600642 0.005823364 -0.067667164 -0.120163724 -0.07588236
-0.0073366924 -0.028645629 -0.14387356 -0.07164677 0.042189784 0.0495245 0.032157235 -0.053665493
0.04126515 0.07680881 -0.08074092 -0.053008787 0.093036205 -0.0083612595 0.055366483 -0.014491513
0.15778337 -0.06924054 0.08715193 0.03644092 -0.1074713 -0.10515866 0.0041374466 0.20046055
-0.09933951 0.0011427243 0.042824958 -0.009361803 0.07598446 -0.014988425 -0.02792587 -0.08395976
-0.15379004 0.1990487 0.129627 -0.039296396 -0.15880983 0.22241865 0.09099885 0.18452354
-0.16782883 0.13376133 0.19508171 0.039263852 -0.02132545 0.13449025 -0.030785533 -0.0010789377
0.005181769 -0.025170201 0.02956048 0.056433436 0.061183486 -0.060987003 -0.0029129363 0.14833477

blocks.0.1.running_var f4 [256]
00000000: fa86 643e a19e 923e 2132 b73e a18d d23e
00000010: bd3b b13e 45ba bc3e 9b96 783e f32d ab3e
00000020: edab a33e 91c7 8a3e edcd b33e f962 973e
00000030: 76eb 8f3e 41a1 a83e bfbf 7b3e 9be8 4b3e
00000040: 7655 963e 843b 873e a83a 8a3e 452a 7c3e
00000050: 496f 843e eaca 8a3e d999 a73e 955c 823e
00000060: 54ec 9e3e 88a4 d83e d4d0 713e 1e50 6a3e
00000070: 9375 8c3e dbb7 c43e 0fc1 9a3e 48a9 793e
00000080: 53b4 d13e 8ebd 943e 526e 9d3e ddf3 813e
00000090: 7a35 9b3e c8b9 8c3e ff9c 863e df6a fb3e
000000a0: 749f c83e 1503 f03e 68d8 a13e fd5b 753e
000000b0: 366a 883e 78ca a23e fb60 c23e 4ad9 a23e
000000c0: 9057 da3e f330 9d3e f3dc 903e 4363 ab3e
000000d0: 4015 863e 7215 993e c6ab b63e 3fbf 9f3e
000000e0: 0664 713e a974 a03e fd94 c53e b92c 8e3e
000000f0: ec29 833e c8ca 883e 5c6c 9a3e de75 7a3e
00000100: 2ca9 9b3e 6127 b53e 97da 993e eb7a b63e
00000110: c2fa 883e e13e 8f3e 3e03 a13e 39ef 8f3e
00000120: 6f30 8d3e 3fdb ae3e 9852 b33e 4b3c b83e
00000130: 6f13 5e3e 28e1 263e ee3e 953e 01db 7d3e
00000140: 953c b43e 964b ac3e b0c2 973e 6cb8 d23e
00000150: 77be d23e 9e23 a83e 32fd 583e 7d9d 903e
00000160: ca30 993e de8a 893e 597b 873e 647e c93e
00000170: 534a 873e aa72 a73e 134e 9e3e ed68 933e
00000180: 3d8a 1a3f 5d92 863e 6672 a23e e0c8 c83e
00000190: d814 893e 2747 8a3e da8a de3e 3e6a 813e
000001a0: 4bd6 7d3e 38da 9f3e 2379 9d3e c2bb ce3e
000001b0: 4baa 803e b224 d03e 0004 8b3e be9c a23e
000001c0: 80a6 903e e8e3 b53e 5533 8b3e fdd2 9b3e
000001d0: 9c16 803e 1857 a63e 1356 963e 9605 9b3e
000001e0: 3a81 c23e 7982 9f3e e781 773e 9edd a03e
000001f0: ea42 6f3e ca4d a13e 1f9c da3e b39e a23e
00000200: 9ac8 c83e 3ea4 9a3e 57f8 a73e d5cf 843e
00000210: 1c22 923e 6991 873e b5db c63e 7450 8b3e
00000220: e9fa 833e 7b14 993e 1fc0 b23e ecb2 773e
00000230: e3e1 c83e 9d28 833e 50dc 903e 0fcb 8a3e
00000240: 03b7 883e e030 913e acf7 e03e 1196 a13e
00000250: fd00 963e 4322 983e dc51 a83e 90db b63e
00000260: d8bd 953e fae7 aa3e daab 9a3e 1263 963e
00000270: 268b bb3e 31c3 903e c084 b43e 39f4 9b3e
00000280: 6a35 a53e d260 a63e dd9c 8d3e f31d b33e
00000290: c226 8d3e ab4c ab3e 8b60 9a3e a8eb 8d3e
000002a0: 555e 9e3e 04de c53e deed b03e bcbf 5e3e
000002b0: 7158 e23e 96d7 b83e 9107 863e f2aa ca3e
000002c0: 860b b63e 740d 533e bcd7 a43e f959 9b3e
000002d0: 11b0 ad3e 0c8c d13e 2f7c b33e a25b a73e
000002e0: 17ae 9b3e 387f dc3e a277 a13e bb28 c43e
000002f0: 2563 793e 874c 843e d408 8f3e 4f3a bb3e
00000300: ef33 963e 595d 9b3e 8177 a53e 0151 da3e
00000310: 128e 823e 8e4e 963e 1f56 a13e b786 bd3e
00000320: b6e3 8b3e cfa0 883e e452 a83e 4ac8 ac3e
00000330: b2ad b33e 3165 ab3e 3f53 d03e 0465 ca3e
00000340: 1f51 863e 9ef9 993e 9132 823e 50e0 9b3e
00000350: c761 a63e e574 c03e 5a4e ca3e 4108 a03e
00000360: e1c5 ab3e e17b 8d3e adfd 8e3e 7cf1 ac3e
00000370: cd89 d53e 1471 853e bdd6 743e 6909 9e3e
00000380: 37ae 913e c1cf ae3e d4e8 9b3e b6c5 a83e
00000390: 7078 ae3e bdcf 963e 8864 883e 09e2 c03e
000003a0: f86c 7f3e 2a16 993e 9c00 b73e ecfa b33e
000003b0: b7ca b63e 7dd5 993e bbe0 c53e 636a a33e
000003c0: 172f 113f e522 a73e 080a 9e3e 18aa 623e
000003d0: a39c b43e ae26 b03e f9cd a93e 09b4 143f
000003e0: b25a 803e 0d68 9a3e cb13 853e 055f 833e
000003f0: e988 873e 444b 933e dbbc ce3e ace7 843e
0.22317114 0.2863665 0.35780433 0.4112368 0.3461589 0.36860862 0.24276201 0.33433494
0.31967106 0.27105382 0.35118046 0.29567698 0.2810933 0.32935527 0.24584864 0.1991295
0.29362077 0.26412594 0.26997876 0.246255 0.25866154 0.27107936 0.32734564 0.2546126
0.3103968 0.42313027 0.23614818 0.22882125 0.27433452 0.3842152 0.30225417 0.24380982
0.4095789 0.2905087 0.3074823 0.25381365 0.30314237 0.2748549 0.26291654 0.49104974
0.39184153 0.4687735 0.31610417 0.23960872 0.26643533 0.31795096 0.37964615 0.31806403
0.4264493 0.30701408 0.2829357 0.33474168 0.26188087 0.29899174 0.35677928 0.31200597
0.23573312 0.31339005 0.38590232 0.27768496 0.2561792 0.2671721 0.30160797 0.24459025
0.30402505 0.35381606 0.30049583 0.35640654 0.26753813 0.2797766 0.31447786 0.281122
0.27576014 0.34151646 0.35023952 0.359835 0.21687101 0.16296828 0.29149574 0.24790575
0.3520247 0.33651417 0.29640722 0.41156328 0.41160938 0.32839674 0.21190336 0.28245154
0.29920036 0.2686376 0.26461294 0.3935424 0.26423892 0.3270467 0.3091894 0.2879099
0.60367185 0.2628354 0.31727904 0.39215755 0.26773715 0.2700741 0.4346531 0.2527637
0.24788778 0.31221175 0.30756482 0.40377623 0.25129923 0.40652996 0.2715149 0.3176021
0.2825203 0.3552544 0.271876 0.3043441 0.2501725 0.32488322 0.29362544 0.302777
0.37989217 0.3115423 0.24170648 0.3141908 0.2336537 0.3150466 0.42697236 0.31761703
0.39215547 0.30203432 0.32806656 0.25939813 0.28541648 0.26478127 0.38839498 0.27209818
0.25777367 0.29898438 0.34912202 0.24189347 0.39234838 0.25616923 0.28293085 0.27108046
0.26702127 0.283576 0.4393896 0.31559804 0.2929763 0.2971364 0.32874954 0.35714388
0.29246402 0.3338011 0.30209237 0.2937246 0.366296 0.2827392 0.3525753 0.30459765
0.32267314 0.32495743 0.2765874 0.34983787 0.27568632 0.3345693 0.3015178 0.27718854
0.30931345 0.38645947 0.34556478 0.21752828 0.442081 0.3610198 0.26177648 0.39583546
0.35555667 0.206106 0.32195842 0.3034208 0.3392339 0.4092716 0.35055682 0.32687098
0.30406258 0.4306581 0.31536585 0.38312325 0.24354227 0.25839636 0.27936423 0.36567923
0.29336497 0.30344656 0.32317737 0.42639926 0.25499016 0.29356807 0.31511018 0.37016842
0.27322167 0.26685187 0.3287574 0.33746558 0.35093457 0.3347564 0.40688512 0.39530194
0.26233765 0.30073255 0.25429204 0.30444574 0.32496473 0.37589183 0.39512902 0.31256297
0.33549407 0.27633575 0.27927914 0.33777988 0.41706696 0.26062834 0.23910041 0.30866554
0.28453228 0.3414288 0.3045107 0.3296334 0.34076262 0.29455367 0.266392 0.3767245
0.24943912 0.29899722 0.35742652 0.35152376 0.35701534 0.3004569 0.38648018 0.31917104
0.5671248 0.3264381 0.30867028 0.22135198 0.35275754 0.3440451 0.33164957 0.5808721
0.25069195 0.3015751 0.25991663 0.25658432 0.26471642 0.2876836 0.4037846 0.25958002

blocks.1.0.weight f4 [128, 256]
00000000: f473 423d 3445 58bc f49f b03c b002 07bd
00000010: 2fec 3abd eb58 f0bb 665e 22bd 4c91 4dbd
00000020: a5dc 20bd 83fe 6ebd 118c fe3c 9adf 2fbb
00000030: 693b b53c d764 4d3d d85a 26bd e740 e93c
00000040: c135 71bc 69c3 1dbd a1bf 503c f07d ec3c
00000050: d586 f63c 8051 6cbd 1729 253d efd2 ecbc
00000060: bb08 63bc 43a8 6e3d f1fb ad3b 65fd c93b
00000070: c67d 19bd 5703 bebc f47d 25bd 278e 39bc
00000080: a610 113d ba3c f6bc 6957 fb3b ccb7 3cbd
00000090: c015 d23b 7cf4 00bc b11f 1b3d d23a bf3c
000000a0: d26d af3c 941a 13bd c05d b13c d095 2cbc
000000b0: 676a 5cbd 0710 b8bc f760 d33c 9bd4 6d3c
000000c0: 9667 3c3d db16 3b3d 76d1 b1bc 0435 48bd
000000d0: 2885 e7bc 4db8 7ebd ee87 b23a c1b4 183d
000000e0: 9a44 5ebd 7a57 0b3d a208 29bd c506 673d
000000f0: f66f 4dbc eef1 82bc 971c 633d d5fe 7b3d
00000100: 6946 19bd 2059 ed3c 945f e53b f75a 49bd
00000110: aeba ab3b d2a6 583c c415 263d 93d9 303b
00000120: 89fe 99bc a719 3cbd 1299 89bd c446 df3b
00000130: 0ae2 46bd 34db 833d e6e4 42bd 1366 2abc
00000140: 7c18 53bd bc96 583c ce43 e5bc 8f85 223c
00000150: dba9 a83c 9171 503d 7133 b53b b762 88bd
00000160: 5241 51bd 1340 a43c 0f19 123d b44a 08bb
00000170: 7ad0 febc e6d0 93bc e642 16bd be50 0dbd
00000180: 30ab 213d 454d fdbc c759 683d ea08 eabc
00000190: 31d2 0d3d bbb5 efbb 4645 c0bc 18d4 4fbd
000001a0: d767 d13c c7b4 a03c 3e2b 163d f284 43bd
000001b0: f5f8 46bd 7d1f 56bc 4bc0 1e3c eaa8 943b
000001c0: 37a5 e5bb 2dc6 873d 2c8e 01bc f683 e33c
000001d0: 6868 38bd 0a75 7cba 742c dabc d0fa 5c3d
000001e0: 1ee2 7fba 7fe6 bc3c 4ee5 39bd 67e2 c8bc
000001f0: 85de 43bd 8a84 56bd 4348 09bd 0af6 46bd
00000200: 5368 8ebd ae65 e43b 9a59 ad3c 8f87 8cbc
00000210: d861 f4bc 80a1 0d3c c1b8 8ebd 4e33 edbc
00000220: 329e fdbc 3c57 98bc 96c8 cbbc ac36 d63c
00000230: 4858 39bd 9ff1 713c 3907 29bd 0795 013d
00000240: a2aa 40bd 39b1 d2bc 91e2 fcbc 0430 86bc
00000250: e628 ae3c cfc0 5f3c a9be 7fbd 2055 6c3d
00000260: 7151 9f3c 8b8a e23c 41d5 343c a0ae 7b3d
00000270: ab36 503d 74c3 a53b c89c 3dba 6f92 f83c
00000280: bad9 013d 2b44 3abd 46c6 b4bc c074 153d
00000290: 5b9c 12bd a151 6aba 21b0 1c3c 9584 5b3d
000002a0: 0573 453d 208f dc3b a141 523c 2a8f 20bd
000002b0: 149b 95bc bced 61bc ce57 f7bc 0162 373d
000002c0: f592 10bb 5e60 dabc b977 89bc 5efa 5ebd
000002d0: c61e d53c bded 623d e60b 123d 698f 183c
000002e0: d80f 48bd 59ea 0fbc 87f5 023d bcd4 6b3d
000002f0: 717d 883c bd11 a73c 2c98 5abd 5c30 803b
00000300: 53c2 0fbd 4b62 0a3d 6f02 7d3c dcf8 793d
00000310: b387 773c 9ab1 86bd 2670 c7bc 2bbb 8d3b
00000320: ab89 bb3c f0c9 943c 19ad fdba e435 b0bc
00000330: edf1 253c e0b8 91bb 0756 b03c fec8 633d
00000340: 9bd4 5b3d 450a babb 77f2 bb3c 7e02 1ebd
00000350: c41d 733b b57e b13c 0a7d 383d 225e 7ebb
00000360: 87af 5f3d 5408 813d 7353 593c b71b 123d
00000370: 9940 9bba 68cc 323d 45c0 633d f087 1f3d
00000380: 0633 813d d6f5 703c 9db4 483c b4ac 23bd
00000390: 7a9c 1fbd be95 51bd 09fc 3b3c 5d24 85bc
000003a0: 308d 383d 7dde e03c 5d43 50bd 68b2 7d3d
000003b0: 976d 0dbd a268 3abc a2a0 eaba 10ae 5e3d
000003c0: f596 3c3c 9ead 473d 6f95 193d 38b6 9fbc
000003d0: c46c 1c3c 2c91 2c3d 12b2 2d3d a21b 473c
000003e0: ddae 75bd 090c 20bc 913e 8bbc 4e51 313d
000003f0: 9439 79bd 24c2 7bbd d777 14bd 788d 293d
0.047473863 -0.013200093 0.021560647 -0.032961547 -0.0456354 -0.0073348186 -0.039640807 -0.050187394
-0.039272923 -0.05834819 0.031072648 -0.0026836158 0.022123056 0.050144996 -0.04061398 0.02847333
-0.014722289 -0.038516436 0.012741 0.028868645 0.03009359 -0.057694912 0.04032239 -0.028909175
-0.013857062 0.058265936 0.005309575 0.00616424 -0.037473463 -0.023194952 -0.04040332 -0.011325396
0.035416268 -0.030058254 0.007670332 -0.04607372 0.006411284 -0.00787079 0.03787202 0.023343477
0.021414671 -0.03591402 0.021651149 -0.010533765 -0.05381241 -0.02246858 0.025803072 0.014516021
0.045997225 0.045676094 -0.021706324 -0.048878685 -0.028261736 -0.06218748 0.0013620832 0.037281755
-0.054264642 0.03401897 -0.041268 0.05640294 -0.012538901 -0.015984502 0.055447187 0.061522324
-0.037420664 0.028973162 0.006999919 -0.049159016 0.00524076 0.013223367 0.0405481 0.0026985153
-0.01879813 -0.0459229 -0.06718649 0.006813856 -0.04855541 0.06438294 -0.047581576 -0.010400313
-0.051537022 0.013219532 -0.027986433 0.009919538 0.020588806 0.050889555 0.005529814 -0.06659453
-0.051087685 0.020050084 0.03566843 -0.002079648 -0.031105269 -0.018043946 -0.036684893 -0.03450083
0.039469898 -0.030920634 0.056726243 -0.028568704 0.034624282 -0.007315365 -0.023470532 -0.050739378
0.02556221 0.019617451 0.036662333 -0.04773421 -0.048577268 -0.013069031 0.009689401 0.0045367377
-0.0070082205 0.06629596 -0.007907432 0.027772885 -0.045021445 -0.0009630477 -0.026632525 0.05395013
-0.0009761172 0.023059128 -0.045384698 -0.02452202 -0.047819633 -0.052372493 -0.03351618 -0.048574485
-0.06953492 0.006970129 0.02116089 -0.017154483 -0.029831812 0.008644462 -0.06968833 -0.028955128
-0.030959222 -0.018596284 -0.02487592 0.026149116 -0.045250207 0.01476708 -0.041266654 0.031636264
-0.047037728 -0.025719272 -0.030869754 -0.016380318 0.021259736 0.013656809 -0.062437687 0.05769837
0.019448014 0.027653953 0.011037172 0.061445832 0.050833385 0.0050587 -0.000723314 0.030343262
0.03170178 -0.045475166 -0.0220672 0.036488295 -0.035793643 -0.0008938555 0.009563477 0.053593237
0.048205394 0.006730929 0.01283303 -0.039199032 -0.018262424 -0.01378959 -0.030193236 0.0447712
-0.002206025 -0.02665728 -0.016780721 -0.054437988 0.02601565 0.055402506 0.03565588 0.009311535
-0.048843235 -0.0087839 0.031972434 0.057575926 0.016661378 0.0203942 -0.05336778 0.003912015
-0.03509743 0.033785146 0.015442475 0.061028346 0.015108037 -0.065768436 -0.024345469 0.0043252907
0.022892794 0.018162698 -0.0019353955 -0.021510072 0.01012848 -0.0044470876 0.021525396 0.055611603
0.053669553 -0.0056774938 0.022942765 -0.038576595 0.00370966 0.021666864 0.04504112 -0.0038813432
0.054610755 0.063004166 0.013264525 0.035670962 -0.0011844813 0.04365197 0.055603284 0.038948
0.0630856 0.014707049 0.012250093 -0.039959624 -0.038967587 -0.051168196 0.011473664 -0.01625269
0.045056522 0.02744984 -0.050845493 0.06193772 -0.03452834 -0.0113774855 -0.0017900656 0.054365218
0.0115106 0.04874956 0.037496027 -0.019496068 0.009547416 0.042130634 0.04240615 0.012152584
-0.059981216 -0.009768494 -0.016997607 0.04329043 -0.060845926 -0.061464444 -0.0362471 0.04139468

blocks.1.0.bias f4 [128]
00000000: 602d 113d 0b7d 283d b072 553a f1e5 e03c
00000010: b988 62bd b8a0 cdbc 1aaf d43c 7a9a 4d3d
00000020: 0e2d 0d3b 76b3 48bd 77f7 4bbc cd80 40bc
00000030: a316 6bbc 6b7d 6c3b d05e 213b 1f72 863b
00000040: 60ac d0bb 66cb ffbc 3474 ccbc dc7a 283d
00000050: 2908 ccbc 9d9f 05bd 931c f3bb d516 16bd
00000060: 5b19 293d c3e0 3e3d bfdb 03bd 9568 403c
00000070: 2e27 c73b c704 b13c f34c 1fbd 834b 2d3d
00000080: ea6e 6cbd aa46 c43c 47a4 a1bb 9566 71bd
00000090: 650b 4f3d efcf 7e3a bf81 7e3b 2113 b1bc
000000a0: 5caf 8f3b d91e 0dbd 1ad1 91bc 3941 c6bc
000000b0: 7659 283d 7ada c13c d5c8 73bd d459 603d
000000c0: 903b 253d 8ca4 42bd 0bba 583d 391b 453d
000000d0: 9ba0 543d 7af0 4ebb 1a58 803c 818e 1abd
000000e0: ddbe 24bd bb00 f23c a213 0c3d eee1 19bd
000000f0: 696f 0e3d e54b 013d 7ce5 663d 8d0a 203d
00000100: cff4 dcbc ebce 66bd 6b7f 553d f9f2 be3c
00000110: ddc9 2abd dfb7 1a3d 2ea9 223d 1990 023d
00000120: a2d1 913c f596 71bd 33cb 2ebd dff8 2dbb
00000130: 203f 49ba d0ff 493d c214 1dbd 2e8f 6abc
00000140: e8d4 f2bc 0d0d 4f3d 0b84 df3c 81e1 75bd
00000150: a60e 143d c72d 58bd eac5 78bc 85a2 113d
00000160: 956e 0f3d aac2 ba3c b398 c73c b24d 123d
00000170: 5f39 a5bc 8936 963c ce77 593d 7771 75bb
00000180: f46b 45bd 6ff3 1dbd c168 763d 89c0 433d
00000190: e664 17bd 9888 2abd 0914 b33c 7c85 503c
000001a0: dbf6 a4bc 0f64 313d dc72 3a3d 21ea a93c
000001b0: e38c ff3b 8471 d33c 63ab af3c 33aa 31bd
000001c0: 3cab b53c aa25 6c3d 5b85 253c 0dae 26bd
000001d0: f5f7 afbc e900 debc 91bc 90bc 4432 1e3d
000001e0: f20f 5a3d a60f 49bc ae9c 48bd eb93 8ebc
000001f0: 5268 eebc ac68 643d c680 62bc 73d1 24bc
0.035443664 0.041134875 0.0008142395 0.027453395 -0.05530617 -0.02510105 0.025962401 0.05019615
0.0021541747 -0.048999272 -0.012449137 -0.0117494585 -0.014348659 0.0036085497 0.0024623163 0.0041029598
-0.006368205 -0.031224918 -0.024957754 0.041132793 -0.024906235 -0.032622922 -0.007419178 -0.036642868
0.041283946 0.04660107 -0.032191988 0.011743684 0.0060776686 0.021608723 -0.038891744 0.04230834
-0.057722963 0.023959477 -0.0049329135 -0.05893572 0.050547976 0.00097203156 0.003883466 -0.021615567
0.004384918 -0.034453247 -0.017799903 -0.024201022 0.04110094 0.023663748 -0.0595177 0.054773167
0.040340006 -0.047520205 0.0529118 0.048121665 0.051910978 -0.003157644 0.01566701 -0.03773356
-0.040221084 0.029541364 0.03419841 -0.03756898 0.034774218 0.03156652 0.056371197 0.039072562
-0.026972203 -0.056349676 0.05212347 0.023309218 -0.041696418 0.03777301 0.039712124 0.031875703
0.017800156 -0.058981854 -0.042674255 -0.0026546044 -0.0007676948 0.049316227 -0.038349874 -0.014316363
-0.029642537 0.050549556 0.027284643 -0.06002951 0.036146782 -0.05277803 -0.015183905 0.03555538
0.03501757 0.022797901 0.024364805 0.035718627 -0.020168958 0.018336551 0.05309277 -0.0037451664
-0.048198655 -0.038562234 0.060158495 0.047791038 -0.03696146 -0.041634172 0.02186014 0.012727138
-0.020137241 0.043308314 0.045519695 0.020741524 0.0077987774 0.025810964 0.021444028 -0.043375205
0.022176377 0.057653107 0.010102595 -0.04069333 -0.02148054 -0.027100043 -0.01766804 0.038622156
0.053237863 -0.012271797 -0.048977546 -0.017404517 -0.029102478 0.055763885 -0.013824647 -0.010059702

blocks.1.1.weight f4 [128]
00000000: 9abd 823f 3432 7d3f 3030 7d3f 2cf8 803f
00000010: 77c6 813f 325d 7c3f 93d0 7d3f 842a 7f3f
00000020: dab1 803f 45d9 803f 291c 7d3f 98b8 813f
00000030: 13db 813f 9f89 7c3f c209 7c3f 3c84 813f
00000040: ec04 813f 77fd 813f 4b1f 7d3f 6a5c 813f
00000050: bbf9 7d3f 8ef3 7b3f bd22 813f 4c2b 813f
00000060: 6900 7f3f ab90 813f 43a8 7e3f d464 823f
00000070: 7881 7b3f 0bdd 7c3f d303 7d3f 47d3 7b3f
00000080: 655b 7d3f f9d7 813f f71f 823f b6fd 813f
00000090: b1b3 7e3f b036 7c3f e9d8 813f 5e75 7c3f
000000a0: 560e 823f c208 823f 8443 823f 7a52 7c3f
000000b0: 85f8 803f 3e14 7c3f d155 7c3f 77df 7c3f
000000c0: f02e 7c3f 11aa 813f 3699 813f 8fbd 813f
000000d0: bf2e 7c3f 0a3a 7f3f 1338 823f d5f0 813f
000000e0: a688 803f 8347 7d3f 00f5 7f3f 92a9 823f
000000f0: c029 823f 9604 823f 149a 7c3f a0f7 7d3f
00000100: aac2 7c3f 772b 823f 2f71 7c3f 2e3c 7d3f
00000110: 2947 7d3f a098 803f 8999 803f c6b5 7e3f
00000120: addc 813f 732e 823f 0c19 7d3f b5be 7c3f
00000130: 54de 7b3f 904c 7d3f 269a 7c3f eea6 823f
00000140: 5399 7d3f abca 823f 159e 7c3f 3a72 823f
00000150: 74a7 7b3f 82bb 813f 9ae6 7b3f 992e 7c3f
00000160: 56ac 813f 40a0 7c3f f1ef 813f f97a 813f
00000170: 7a3a 823f 48a0 813f 1a3a 823f 6089 813f
00000180: fc2c 7c3f 4ca5 7f3f dde1 7c3f 16a9 7d3f
00000190: 3b19 823f 90b5 803f e97b 813f b184 813f
000001a0: ce81 803f f4f9 7b3f c063 7c3f 4dab 813f
000001b0: 70b0 7c3f 8938 823f d049 823f 6c68 813f
000001c0: d9d5 7b3f b254 7c3f 6e3d 823f c4ba 7d3f
000001d0: 02d8 7c3f 8265 7c3f d0f2 7b3f 330c 823f
000001e0: 7d75 823f ccf3 813f 2862 803f fd92 7d3f
000001f0: 0ee8 813f 3f97 7d3f 1564 823f 14c0 803f
1.0214112 0.9890473 0.98901653 1.0075736 1.0138692 0.98579705 0.99146384 0.9967425
1.0054276 1.0066305 0.98871094 1.0134459 1.0144981 0.98647493 0.9845239 1.011848
1.0079627 1.0155476 0.98875874 1.0106328 0.99209183 0.9841851 1.0088726 1.0091338
0.9961 1.0122274 0.99475497 1.018702 0.9824443 0.98774785 0.9883396 0.9836926
0.9896758 1.0144035 1.0166005 1.0155551 0.9949294 0.98520947 1.0144321 0.9861659
1.0160625 1.0158923 1.0176854 0.9856335 1.0075842 0.9846839 0.98568445 0.9877848
0.9850912 1.0130025 1.0124881 1.0135974 0.9850883 0.99697936 1.0173362 1.0151621
1.0041702 0.98937243 0.99983215 1.0207999 1.0168991 1.015765 0.98672605 0.9920597
0.98734534 1.0169514 0.98610204 0.9891995 0.98936707 1.0046577 1.0046855 0.99496114
1.014547 1.0170425 0.98866343 0.98728496 0.9838612 0.9894495 0.9867271 1.0207193
0.9906208 1.0218099 0.98678714 1.0191109 0.9830239 1.0135348 0.98398745 0.985086
1.0130718 0.9868202 1.0151349 1.0115653 1.0174096 1.0127039 1.0173981 1.0120049
0.9850614 0.998616 0.9878214 0.9908613 1.016395 1.0055408 1.0115939 1.0118619
1.0039613 0.98428273 0.98589706 1.0130402 0.9870672 1.0173503 1.0178776 1.0109992
0.9837318 0.98566735 1.0174997 0.99113107 0.987671 0.9859239 0.9841738 1.0159973
1.0192105 1.0152526 1.0029955 0.9905241 1.0148942 0.9905891 1.0186793 1.0058618
