projekt1/wandb/run-20251108_163404-lzhf4at1/files/best_model.pth (torch, 72469 bytes, 5 tensors)

network.0.weight f4 [128, 70]
00000000: 5821 a63d 395a a43d 4310 a2bd 3b6b 62bd
00000010: 4fd1 2b3d 7d2b e1bc ffe3 28bd 496b 9d3c
00000020: 4d9c 9b3b afd5 31bd 3759 b93d 55b4 46bd
00000030: 2b84 903d 5e87 e6bd 74b3 c33d c469 05be
00000040: e84b fcbc 295b 06bd ce59 753d d67a acbd
00000050: ddf5 2abd 71c6 d93d a56d 0ebb ce70 c93d
00000060: 80a5 9538 2055 afbd 3ecf 22bd 6186 15bd
00000070: a08e 68bc 9b7d 33bc bd5b ebbd 9aa2 6b3d
00000080: f20f 8abd a128 183d f662 5ebd 30fc 82bc
00000090: 198a 5a3d 0d57 90bd f44a c8bb dbeb 9abd
000000a0: 9ab5 4e3d 048a 173c ed48 a5bd b65a 16bd
000000b0: 99ee 573d 8851 ed39 1fd7 b33c 6c90 b4bc
000000c0: 3893 b03d ae0c 903c 2297 a3bd 5188 8dbd
000000d0: b338 203d 0817 87bc c978 75bd 2c27 4a3d
000000e0: a4d2 8d3d 6534 e5bc a983 b8bd 8a9d 35be
000000f0: 702d 1e3c 06e8 f9bb e213 ec3c c940 00be
00000100: 9508 0abe 7254 08bd 6abe 25be c630 8a3b
00000110: 9828 023c d7bf 883c 83ba d4bd 28f0 b4bc
00000120: 01b8 c23d 0edf 873d 5dac 903d a3cb 69bc
00000130: 2b35 0b3e 2ae1 5d3d a61f ef3c 2589 58bc
00000140: ff55 90bc 5608 b03d 508b cdbd 57c8 623d
00000150: 7407 dbbc a952 0cbe f22a ddbd 4045 543d
00000160: 27ce 793d 8d68 c9bd e07d fbbb 5a94 1cbc
00000170: 58f5 b23a 8d97 d3ba 44ad 77bd 9f87 183d
00000180: bb5e 803d 58e3 73bc e408 c83d 4498 06bb
00000190: 98d2 e8bc 043c 2fbd 93d1 743d 2acb c7bd
000001a0: 4ac0 7a3c 5a43 5abd 6c17 d53d 46fc 493c
000001b0: bbf5 adbd 5439 65bc 0220 ea3d 7598 a63d
000001c0: 1759 913c 9922 5fbd 272d 81bd 72a2 19be
000001d0: fe92 07bc f45e 543a 3ea2 b2bc afc2 733c
000001e0: 8f37 493d 90bd 56bd 2c0a afbd 3335 bd3c
000001f0: ee92 18bd a200 0cbe 4d55 f1bd 04b5 9abd
00000200: 7a45 d2bb 7f57 6fbc 39d3 edbd 4281 5f3d
00000210: 097a 25be 262f b2bc 91b6 ba3d 829e 97bd
00000220: 2009 80bd 3bd0 dbbc 0398 21be 6b7d 08be
00000230: 00c6 933b a232 d3bc 4e6a 0c3e 339e 81bd
00000240: 9869 bc3d 07a6 983c 8128 683d 1a48 c8bd
00000250: d049 c63b 34c3 673d ec5d 0b3e 7d16 12ba
00000260: dda0 05bd 1d8d 43bd 44a1 da3c 9807 d5bd
00000270: be90 a7bc a7bf 2fbe 1cf5 093e f1c0 253d
00000280: 4466 47bd 81fb e3bd bd0f 313d 173f d2bd
00000290: dd37 88bd 8bb1 f53c 5959 c2bd 828d bb3d
000002a0: 42ed d1bd 1fa4 38be 2c5f 0bbe 62f6 f5bd
000002b0: 2dc3 dfbc 2dd4 f2bd e5cc d7bd e8f7 dcbd
000002c0: f527 1d3e 5d51 24bd 7759 e3bd 4174 76bd
000002d0: b24f 96bd 45dd ce3c 8cb4 583d 235f 59bd
000002e0: ae19 f5bd b5b2 e73d acb7 8cbd cafd fc3c
000002f0: 9a94 6e3d 3ee8 4cbd 3f2e 9f3d 321c 683d
00000300: 42d4 c1bc ede3 22bd 90bd c7bd c3dc 75bd
00000310: b65b 30be 5c88 33bd 0470 68bd 1a69 00bd
00000320: 1fce e53d d8d0 063c 2197 f2bc 87f2 ac3c
00000330: a293 5c3d a2ae bc3c 53f2 223d 1aeb eb3b
00000340: 4e89 1a3d 1cce b5bc 176a 8cbd 2a40 8ebd
00000350: 2dd3 d2bb eb7a 683d 6946 693d b9da 703d
00000360: d2a2 a13d e765 cebd bce9 d5bc 5a14 0d3d
00000370: 09f9 313e b21e b83b 7148 20be 5348 ecbd
00000380: 6cc4 89bd b90d 14be 0203 873d e1a7 14be
00000390: b42b 3f3d f48f 553d b8f3 54bd 004d a63b
000003a0: e6d3 133c b7f3 c03d 0959 33bd 2f56 d2bd
000003b0: b336 d23d 00ad 473d f8a8 2d3a 61a4 0fbd
000003c0: 6005 32bd d4a2 ddbd ebc2 94bd 763f c9bd
000003d0: 4286 b9ba 644e 0ebd f932 99bd 4ec8 f7bb
000003e0: a7ac 8abd 6ae4 d43d 7409 fe3b bbe6 403d
000003f0: d7ee ef3d 673a 8ebd 466f 653d 6837 58ba
0.081118286 0.08025021 -0.07913258 -0.055278044 0.04194766 -0.027486557 -0.04123306 0.019216197
0.004748857 -0.043416675 0.090502195 -0.04851182 0.07056459 -0.11256288 0.09555712 -0.13028628
-0.030797914 -0.03280178 0.059900098 -0.084218666 -0.04173838 0.10633553 -0.0021732834 0.09835969
7.1357004e-05 -0.08561158 -0.039748423 -0.036505107 -0.014194161 -0.01095524 -0.11492107 0.057528116
-0.067413226 0.03714812 -0.054293595 -0.015989393 0.053354356 -0.070478536 -0.0061124507 -0.07564517
0.050466157 0.009249214 -0.0807055 -0.036707602 0.05271778 0.00045264908 0.021953164 -0.022041522
0.0862183 0.017584171 -0.07987811 -0.06910766 0.039116573 -0.016490474 -0.059929643 0.049353763
0.06924942 -0.027979085 -0.09009487 -0.17735878 0.009654388 -0.0076265363 0.028818075 -0.12524714
-0.13479836 -0.03328366 -0.16185918 0.00421724 0.007944249 0.016693039 -0.10387137 -0.022087172
0.09507752 0.06634341 0.07064126 -0.014269742 0.135945 0.05416981 0.029189896 -0.013216292
-0.017619131 0.0859534 -0.100363374 0.05536684 -0.026736952 -0.13703407 -0.10799207 0.051823854
0.060987618 -0.098343946 -0.0076749176 -0.009556854 0.001365344 -0.0016143188 -0.060467973 0.037238713
0.062680684 -0.014885746 0.09767321 -0.0020537535 -0.028420731 -0.042781845 0.059770178 -0.09755547
0.015304634 -0.053286888 0.10404858 0.012328213 -0.08494135 -0.013990719 0.11431886 0.081345476
0.017742677 -0.054476354 -0.0630744 -0.15003374 -0.008274792 0.00081013073 -0.021805879 0.014877959
0.04912525 -0.052426875 -0.08546862 0.023096656 -0.037249498 -0.13672116 -0.11783848 -0.07554057
-0.0064169737 -0.014608263 -0.11612553 0.05456663 -0.16159834 -0.021750998 0.09116853 -0.0740328
-0.062517405 -0.02683269 -0.15780644 -0.13329093 0.0045096874 -0.02578098 0.13712427 -0.06329002
0.09199828 0.018633856 0.056679253 -0.09779377 0.0060512796 0.056582645 0.13610047 -0.0005572809
-0.032624114 -0.047741998 0.026688226 -0.10401839 -0.02045476 -0.17162953 0.13472408 0.040467206
-0.048681512 -0.11131955 0.0432279 -0.1026594 -0.0665128 0.029991886 -0.09489698 0.0915785
-0.102503315 -0.18031357 -0.13610524 -0.120098844 -0.027314747 -0.118568756 -0.105371274 -0.10789472
0.15347274 -0.040116657 -0.111010484 -0.060169462 -0.073394194 0.025251994 0.052906558 -0.053069245
-0.11967789 0.113133825 -0.0687097 0.030882735 0.058247186 -0.05002617 0.077724926 0.056667514
-0.023660783 -0.03976815 -0.09752953 -0.060024988 -0.17222485 -0.043831214 -0.05674745 -0.031350233
0.11220955 0.008228503 -0.02961308 0.02111174 0.05385173 0.02303249 0.03978188 0.007199657
0.0377286 -0.022193007 -0.068561725 -0.06945832 -0.0064338655 0.05675785 0.056951914 0.05880234
0.07892384 -0.1007803 -0.02611243 0.034443237 0.17380156 0.0056188935 -0.15652634 -0.11537232
-0.067269176 -0.1445836 0.065923706 -0.14517166 0.046672538 0.052139238 -0.05199024 0.005075097
0.0090226885 0.09421485 -0.043786082 -0.102703445 0.10264339 0.04874897 0.00066246046 -0.035068873
-0.043462157 -0.108220726 -0.0726374 -0.09826557 -0.0014154392 -0.034742728 -0.074804254 -0.00756172
-0.06771212 0.10395129 0.0077525917 0.04709504 0.11715477 -0.06944733 0.05601432 -0.0008248002

network.0.bias f4 [128]
00000000: e440 ac3b 791d 2cbd 2ae1 27bd 4d6e 34bd
00000010: 8503 cf3c cb65 8a3c 2ace 38bd 2b5d 83bd
00000020: 9553 3e3c cba6 1cbe 472a e83c 74ed 13bd
00000030: 78ec c43d 755c 8ebc 7653 38bd 36ef d13d
00000040: e7a2 533c 429d b63c 5660 a33c 3289 e9bd
00000050: 28c3 34be 35e5 89bd 6a73 4a3d aec4 36bd
00000060: c4b3 8abd 7087 fb3d 7619 bfbd 6226 10bd
00000070: 8028 90bc 5ae7 3cbd fccd 83bd 22cc 003d
00000080: bce0 ff3d 2e29 4fbc bf78 8cbd 6073 0cbe
00000090: 53a2 4dbd ea42 3dbc 3fef d4bd d86c 783d
000000a0: 2491 c0bd b91d 19be 39d0 26be 30b5 d33d
000000b0: f41a ff3d c6ee c33c a384 5b3d 4628 d9bc
000000c0: 411e e63d 6ed5 11be 7253 f93c 29c5 debd
000000d0: 332f ba3d 5255 34be bd8d b2bd 906b 5abd
000000e0: 1680 a23d 6b3b 263c 7f84 24be 317e 53bd
000000f0: 7018 a7bc 906d 363d bff4 b2bd 3ab0 38be
00000100: afe4 a73d 6395 71bd 11f0 5fbd daae d23a
00000110: 7bac ddbc 446b 543c 2463 45bb 127d 68bc
00000120: 1b6f c8bc baa9 89bd 6a8f 8fbc 89b1 963c
00000130: 3a7a c7bd e960 6b3d 4635 153d c8ff df39
00000140: 002d 0ebe de34 e13c 19aa b0bc f94a 8c3d
00000150: 9332 a13d f562 2bbd e08d b6bd d893 793d
00000160: 24be 26bd 3e8d c4bd d877 3d3d 1030 b6bc
00000170: 30e5 82bb 9de2 d4bd 844a f5b9 f462 90bd
00000180: 1a1e 6b3d b055 c83c ae3b a13d 8f0f 86bd
00000190: 5288 e9bc df41 933c 16d7 e8bd a040 d53d
000001a0: ebb3 20bd d795 8c3d 0450 3cbd d85b 0e3d
000001b0: 3da1 7ebd f833 a23d 7618 853d 3bec adbc
000001c0: e9ce 10be d29e 003d 8f0e fb3d a254 753d
000001d0: c646 e43d b4ab 28bc 2fc8 52bd 4db3 b03c
000001e0: 6822 e8bc 8a8d dcbd 522c 2bbe 22b6 b23d
000001f0: 20d4 e9bd 63d7 403d 91fc 8bbc 943c 12be
0.005256759 -0.042020295 -0.040986218 -0.044050504 0.025270233 0.016894242 -0.04511849 -0.06414255
0.011616607 -0.15298001 0.028340472 -0.036115125 0.09615415 -0.017378071 -0.04500147 0.10250704
0.012917257 0.022291783 0.019943397 -0.11403121 -0.17652571 -0.06733171 0.049426474 -0.044621162
-0.06772569 0.12281692 -0.09331028 -0.035192855 -0.017597437 -0.04611907 -0.06435773 0.031444676
0.124940366 -0.012644095 -0.06858968 -0.13715887 -0.050203633 -0.011551598 -0.10397195 0.060650676
-0.094026834 -0.14952745 -0.16290368 0.10337293 0.12456313 0.023917567 0.05359329 -0.026508462
0.11236239 -0.14241573 0.030435298 -0.10877449 0.09091034 -0.17610672 -0.08718441 -0.053325236
0.07934587 0.010146002 -0.16066168 -0.051634017 -0.020397395 0.04453808 -0.08738088 -0.18035975
0.08197915 -0.058980357 -0.054672305 0.0016073838 -0.027059784 0.012965027 -0.0030118907 -0.014189975
-0.024467042 -0.06721826 -0.01752444 0.018395202 -0.0974011 0.057465468 0.03642776 0.00042724446
-0.13884354 0.02749103 -0.021565484 0.068502374 0.078709744 -0.04184242 -0.08913779 0.06093201
-0.040708676 -0.09597252 0.04625687 -0.022239715 -0.0039946064 -0.103947856 -0.0004678556 -0.07050124
0.057401754 0.024454921 0.07872711 -0.06545936 -0.028507385 0.017975746 -0.113691494 0.10412717
-0.039234083 0.06864517 -0.045974746 0.034755558 -0.062165488 0.079200685 0.06498806 -0.021230808
-0.1414143 0.031401463 0.12258636 0.059895165 0.111463115 -0.010294843 -0.05146044 0.021569872
-0.028336719 -0.10769184 -0.16716126 0.08726145 -0.11417413 0.04708041 -0.017088206 -0.14280921

network.3.weight f4 [64, 128]
00000000: fdae c1bd 4b42 793d 4854 003e 6f18 c73c
00000010: 69d9 d73d 3319 903d c216 bf3c a294 3d3c
00000020: 62b3 81bd 4e94 f9bc b10e 9d3d 7b64 a3bc
00000030: 2c30 f93d da5c 843d ad70 ee3c 2da8 8d3c
00000040: 9132 bf3d 9974 e8bc e01f 363d 97c7 21bd
00000050: 9979 86bd 1632 c2bc 8d07 bebd 3283 58bd
00000060: 0916 093d 0772 9a3c 8ea2 ef3d 1c28 f13d
00000070: 70e3 c03d ec8c 4e3d 4a15 c4bd dc5f a43d
00000080: 4b55 693d f0f8 f73b 81f8 dabb 211e 0e3d
00000090: dc8c d8bc 40e5 c1bc 5302 7f3d de1a 4e3b
000000a0: a8e8 8cbd 7edd f1bc 6cdb fe3b ff66 d33d
000000b0: 69ba 863d 23af 8e3c 03c6 23bd 8850 d53b
000000c0: bcb8 dd3d 696a 98bc 674b c4bd 3843 bbbd
000000d0: f0b8 9f3d dd7f 573c 0259 9e3d 1fda 623d
000000e0: 5e23 df3d 1471 19bd 9e2e 323d 17b2 0e3d
000000f0: e45f e83d ff0c 77bd 3f45 32bd f7af f93a
00000100: 50b3 90bb 1a5d cf3d 9b7c ce3d f424 9e3d
00000110: 88bb 923d 923d 04bd 3428 eb3d 044a 20bd
00000120: 175f ef3d eb67 cdbc 9508 b23c c9c6 38bc
00000130: 0d83 80bd 417d d0bc cd57 8dbc 9c8a 9ebd
00000140: 061d 7abd 888e 72bd 99d1 31bd 7f61 f53d
00000150: 3a87 ea3c d99b 35bd cead 0cbc 2cba a9bd
00000160: 5d71 023d b846 adbd 7b80 0a3d 9cba 953d
00000170: e1d9 0f3b ff84 853d fef8 73bc a461 723d
00000180: 7054 2a3d ecc6 223d 6b92 a33d 3cff 863d
00000190: 075b d93b 4bd5 a7bc 0dcf 843d d3a4 c83d
000001a0: 9ed5 793c 03ee f83c 1bc6 af3d 99d2 b03d
000001b0: 14dd 78bd 1205 84bc 0bcf d73d 7b8d 5d3d
000001c0: 18c2 1bbd 0952 123d a89e d73d 2ff1 a33c
000001d0: b789 f0bc 310a 643d d425 f33c d41f d5bb
000001e0: 3843 05bc 64cd 2bbd 8c80 9dbd a145 52bd
000001f0: 1cd8 d43b 259a a7bd 3113 95bb 9345 b93d
00000200: 3ceb ec3b de52 b73d 2a05 4dbd 7dc8 f23d
00000210: 1a30 da3c 9591 ad3d 5b80 263c c4bc 2e3d
00000220: 55c4 a2bc 708f a8bd e799 6b3d dea8 f43c
00000230: c668 253d 5c02 a43d 9686 0f3e b181 a33d
00000240: 7272 98bd 67cb 60bd 5b51 53bd 2089 6ab9
00000250: 6770 bbbc 7d42 973d 8cf2 5fbc dd13 443d
00000260: 7d49 563d bb13 5a3c ab1f c9bc 60df c93c
00000270: 9387 293d 406e 75b9 e913 c9bd b24e bebc
00000280: acfe ed3d e37a b13c 975e c43d d604 3bbd
00000290: baba fe3c ac7e 0c3c 69c6 b4bd a913 a7bd
000002a0: ebcd 303c 2f37 da3d aabc 17bd 19df 003e
000002b0: d59e f9bc fdbb bbbc 141f bd3c 6338 dcbc
000002c0: 5a70 753c 58dc 33bd e35f 7abc 1494 e6bd
000002d0: c7d4 d5bc 966e 8b3c 633b cfbd e59e 4b3d
000002e0: 8c9f e03d 30e9 21bd 70cc d93d 97ae 85bd
000002f0: 128b e63d aeb0 04bd 08c0 7ebc daa3 c23c
00000300: 4331 073d 0439 bb3d f468 20bc 95d5 68bd
00000310: 5960 353c f1a1 91bc 5a9e 1cbc b747 f23c
00000320: d465 b73d 7da3 30bd 1170 5ebd be81 1abd
00000330: 5cd2 debc 75b9 17bd 3ced 72bd 1e5d 373d
00000340: 36a2 1d3d cbf5 41bd de0e 4c3d 974b 13bd
00000350: 9c89 393c 7152 283d 05d9 17bd 165f 553d
00000360: ef16 233d e70f 673d 1390 c0bd d286 dc3c
00000370: 7f76 213d 5d0d b83c 3bfc 283d 6bdf 0d3c
00000380: b6f2 0dbd 0635 493d 477e a63d 74a0 c9bd
00000390: 2979 b33c 839f 283c e627 53bd 256c 993d
000003a0: 1c33 a93d 2924 9a3d 27fa 03bd 21d6 99bd
000003b0: c484 913d 79ff 593d c1b1 813d 9b52 cfbd
000003c0: c87b 293d 3a3c abba 1b44 9dbc 2e73 02bd
000003d0: 9c87 b03d 9875 323b afb2 5bbd c8c0 c8bd
000003e0: f645 da3b b28e 953d 19b4 c2bc a6b3 e13c
000003f0: 3037 caba c02e 8db9 4440 1c3d 9690 b5bd
-0.094572045 0.060854238 0.12532151 0.024303643 0.105395146 0.07036056 0.023326281 0.011571081
-0.06333043 -0.030466225 0.07668818 -0.019945374 0.12167391 0.064630225 0.029106462 0.017292107
0.09335817 -0.02837591 0.044463992 -0.039496984 -0.06566162 -0.023705523 -0.09278784 -0.052859493
0.03346828 0.0188532 0.11700927 0.117752284 0.0941838 0.050427362 -0.09574373 0.08026096
0.056966107 0.0075675175 -0.006682456 0.034696702 -0.026434354 -0.023668885 0.062258076 0.003144912
-0.06880313 -0.029524561 0.007777622 0.10322379 0.06578524 0.017417496 -0.03998376 0.006509844
0.10826251 -0.018605428 -0.09584694 -0.0914368 0.07798946 0.013153044 0.07731821 0.055383798
0.10895418 -0.037461355 0.04350149 0.03483781 0.11346415 -0.06031513 -0.04352307 0.0019049634
-0.004415907 0.101251796 0.1008236 0.07721892 0.07164675 -0.03228528 0.114822775 -0.039133087
0.11688059 -0.025073966 0.021732608 -0.011277863 -0.06274996 -0.02545035 -0.01725378 -0.077412814
-0.061062835 -0.05921796 -0.04341278 0.119814865 0.028628934 -0.04433808 -0.00858636 -0.082874626
0.031846393 -0.08460754 0.033813935 0.073109835 0.0021949934 0.065195076 -0.014890907 0.05917515
0.041584432 0.039740488 0.079869114 0.06591651 0.0066331658 -0.020487448 0.06484804 0.09797063
0.015248684 0.03038693 0.085827075 0.08633918 -0.06075771 -0.016115699 0.10537537 0.054090004
-0.0380269 0.035722766 0.10528308 0.020012466 -0.029362543 0.05567378 0.029681124 -0.0065040383
-0.008133702 -0.041943923 -0.07690534 -0.051335935 0.006495489 -0.081836976 -0.004549407 0.09046473
0.0072301906 0.089513525 -0.050053753 0.11854646 0.026634265 0.08475033 0.010162438 0.04266049
-0.019869009 -0.082304835 0.05751982 0.029865678 0.040383123 0.080082625 0.14016184 0.07983721
-0.07443704 -0.05488148 -0.05159126 -0.00022367062 -0.022880746 0.073857285 -0.0136686675 0.047870506
0.052316178 0.013310368 -0.024551233 0.024642646 0.04138906 -0.00023406092 -0.09818251 -0.023230884
0.116208404 0.021665042 0.09588354 -0.04565891 0.031094898 0.008575123 -0.08826906 -0.08158047
0.010791282 0.10655057 -0.03704516 0.12585105 -0.030471245 -0.022916788 0.023086108 -0.026882356
0.0149804 -0.043911308 -0.01528165 -0.112587124 -0.026102437 0.017020505 -0.10118749 0.04971208
0.10967931 -0.039529026 0.106346965 -0.06527441 0.11256994 -0.032395057 -0.0155487135 0.023759771
0.033005964 0.09141734 -0.009790648 -0.056844313 0.011070334 -0.017777415 -0.009559238 0.029575212
0.08954969 -0.043124665 -0.054306094 -0.037721388 -0.027199917 -0.0370421 -0.059308276 0.044766538
0.038484775 -0.047353547 0.049818866 -0.03596076 0.011324313 0.041094247 -0.0370722 0.052092634
0.039816793 0.05641165 -0.0940248 0.026919756 0.039419647 0.02246731 0.04125617 0.008659224
-0.034655295 0.049122833 0.08129554 -0.09845057 0.02190836 0.010291937 -0.051551722 0.0749133
0.082617015 0.07526428 -0.032220986 -0.07511545 0.07105401 0.053222153 0.06332732 -0.101231776
0.041377813 -0.0013064214 -0.019197514 -0.031848125 0.086196154 0.0027230736 -0.053637203 -0.09802395
0.006661172 0.073026076 -0.023767518 0.027551483 -0.0015427824 -0.00026928447 0.038147226 -0.08865468

network.3.bias f4 [64]
00000000: 1c46 7a3c 83a5 6ebd 8413 6ebd f716 e23c
00000010: 720b d4bd 9d73 6abd 90f0 b93b 9ec0 84bd
00000020: cc94 993d 0445 f4bd b6cb 3b3d c267 32bd
00000030: 5c64 d93d 7a25 e8bd 5d6d c63c 0fe3 b23d
00000040: 8c79 9e3d bb11 d03c ef1d 55bd 7012 923d
00000050: 86be bbbd 82f4 303d d28d d03c 770c b03b
00000060: d811 e6bc ddbd b23d 7abf 15bd 048a 783b
00000070: 6f9e 59bd f589 ebbd 0f28 33bc 8867 b53d
00000080: 3e41 2f3d f015 bbbc a36c 063d 7584 02be
00000090: 4a75 163c 53ca afbc d8d8 cc3d 2e36 523d
000000a0: 9a86 6b3d 3c8f fc3c 5c42 afbb 14f7 3cbd
000000b0: a2b0 56bd e4ea 15bd 4fc1 02be bf8a 00be
000000c0: 850c 963c 9363 293d eac6 cf3d db7c dc3c
000000d0: 18bc 623c b77f 9fbd 0f24 0ebd 7254 2abc
000000e0: 5cb3 cb3d 84b5 3e3d e25d b7bd 2483 57bd
000000f0: dc2a e73d 6189 bbbc ed1b 2dbd c9d9 a13d
0.015275504 -0.058263313 -0.05812408 0.027598841 -0.103537455 -0.057239164 0.0056744292 -0.06482051
0.07499084 -0.11927226 0.04584857 -0.043555982 0.10614845 -0.11335273 0.02422207 0.08734714
0.07738027 0.02539908 -0.0520305 0.07132423 -0.09167199 0.04320193 0.02545825 0.0053725797
-0.02808468 0.0872762 -0.03655956 0.003792406 -0.05312961 -0.115009226 -0.010934844 0.08857638
0.04278683 -0.022837609 0.032818448 -0.12745841 0.009183237 -0.02145878 0.10002297 0.0513212
0.057501413 0.030830018 -0.005348487 -0.04613407 -0.052414544 -0.036600962 -0.12769054 -0.12552927
0.018316517 0.041354727 0.10145362 0.026915004 0.01383879 -0.077880315 -0.034702357 -0.01039611
0.099463195 0.046559826 -0.089534536 -0.0526153 0.11287472 -0.022892656 -0.04226296 0.07902867

network.6.weight f4 [1, 64]
00000000: 63c8 d7bd e64f 3abd 7a16 18bd d20d dcbc
00000010: ffc6 28bd 7b55 0ebc af03 2ebd cec0 94bd
00000020: 9c1c c5bd af99 9fbb eaa2 e83c 0146 f8bd
00000030: ba2b bcbd 5cd2 653d 3965 2fbd 83a6 f6bd
00000040: ff20 b0bd 0994 f0bb b8d1 6e3d 380f b8bc
00000050: f438 4d3d 8eab 623c b75e 9a3c 5847 87bd
00000060: 10af 8dbc 10bc a5bc 2d69 863d f74b d5bd
00000070: bf0f f6bd 830f 933d e55e 96bc 5fc1 d6bc
00000080: 415f abbb d4b8 06bc eb25 1abd 3f2c a43d
00000090: d3e0 61bd 5842 b43c 175d e0bd d865 0bbd
000000a0: 3c87 05bd 312c 95bc a622 ccbc ee9b 433d
000000b0: c908 843c a789 a2bd b385 b4bc 95f9 443d
000000c0: a7ac fabc 2dc9 3d3d 411e 07be 74e8 babd
000000d0: 39e7 81bc 0e77 02bd a698 813d f90e 9dbd
000000e0: ff1c 18bd 614f d6bc d5e9 3b3c f06b ccbd
000000f0: 201f afbd f44a d6bd de30 9abc bc06 0ebe
-0.105362676 -0.045486353 -0.03713081 -0.026862059 -0.041205402 -0.008687372 -0.04248398 -0.07263337
-0.096245974 -0.0048706154 0.028397996 -0.12122727 -0.09188028 0.056108817 -0.042821143 -0.12043478
-0.086000435 -0.007341866 0.058305472 -0.022468194 0.050103143 0.013834847 0.018843992 -0.066054046
-0.01729539 -0.020231277 0.065630294 -0.1041488 -0.12014722 0.07180693 -0.018355796 -0.026215253
-0.005229861 -0.008222777 -0.037633818 0.08016252 -0.05514605 0.022004291 -0.109552555 -0.034032673
-0.032599673 -0.018209549 -0.024918865 0.047756128 0.01611747 -0.07936411 -0.022036409 0.048089582
-0.030599905 0.046334434 -0.13195135 -0.09126368 -0.015857326 -0.03185182 0.063279435 -0.076688714
-0.037137028 -0.026160898 0.011469324 -0.09981525 -0.085508585 -0.10463515 -0.01882213 -0.13869756
