projekt1/wandb/run-20251108_170935-bs0shqwq/files/best_model.pth (torch, 839365 bytes, 9 tensors)

network.0.weight f4 [512, 70]
000000 f7 77 99 3d 23 99 91 3d 36 90 ad bd 1b cd fd ba
       0.074935846 0.07109287 -0.08474772 -0.0019363494
000010 e5 5a c5 3c 44 a2 04 bd 67 df c5 bd 3f b4 5b bd
       0.024091193 -0.03238131 -0.09661751 -0.053638693
000020 c8 34 41 3d ad 90 da 3c 60 b8 c5 3d bf 2d de bd
       0.047169477 0.026680315 0.09654307 -0.10848569
000030 5e 07 de 3d 1d 0c bc bd 98 8c 00 3e 44 6e b9 bd
       0.10841249 -0.09181998 0.12553632 -0.090542346
000040 d2 88 de bc 71 dd f5 bb dd 45 0e 3d 13 d3 b1 bd
       -0.02716485 -0.0075032045 0.034734596 -0.08682837
000050 b8 39 36 3c 81 1d c8 3d 12 c4 45 3d 86 a7 bd 3d
       0.01112216 0.097712524 0.04828269 0.09260468
000060 f0 be 45 3c 17 ca 6d bd e9 ea 45 bd d0 b4 a6 bc
       0.012069449 -0.058054056 -0.04831973 -0.02034989
000070 ec 1f 27 3d c7 96 e7 3c 5f dc c2 bd 74 59 93 3d
       0.040801927 0.028270138 -0.09514689 0.07194796
000080 24 40 16 bd 87 a6 2a 3d e9 b5 07 bd 48 ff 94 3a
       -0.036682263 0.04166272 -0.033132467 0.0011367584
000090 38 1c 79 3d 80 e9 d6 bd 5f 64 ea bb a6 f4 dc bd
       0.060817927 -0.10493755 -0.0071530784 -0.107888505
0000a0 89 eb ff 3c 53 e2 e8 3c 10 05 df bd ae e9 e6 3c
       0.031240242 0.028428232 -0.108896375 0.028187599
0000b0 d5 28 bd 3d 1f dc 11 3c ae c6 84 3c 16 7f ce bb
       0.09236304 0.008902579 0.01620802 -0.006301771
0000c0 60 58 65 3d 6d 4e 5c 3c 5a 82 fe bc e6 8d 39 bd
       0.055992484 0.013446433 -0.031068016 -0.04530134
0000d0 4b e3 2a 3d 43 e4 99 bc 81 45 4c bd 35 f6 a0 3d
       0.04172067 -0.018785601 -0.04987097 0.0785946
0000e0 47 53 bd 3d 7b a4 c6 3c 43 bd e0 bc 5c cf f2 bd
       0.092443995 0.024248352 -0.027433997 -0.11855957
0000f0 de 82 8e 3d 66 08 93 3d ac a4 af 3d 3a 18 df bd
       0.06958555 0.07179336 0.085763305 -0.10893293
000100 29 fc bb bd db a8 f7 3c 40 a2 c5 bd 30 ba 8b 3d
       -0.09178955 0.030231884 -0.09650087 0.06822622
000110 d1 f6 8f 3d 96 1c b1 3d 12 1d c0 bd d4 4c 9b bd
       0.07029498 0.086480305 -0.09380545 -0.07583013
000120 0e ba 9f 3d 3c c1 aa 3d 60 31 48 3d a2 f9 ce bc
       0.07799159 0.08337638 0.048875213 -0.025265519
000130 8c 20 d6 3d d9 48 6a 3d bc 15 00 3e 3b 81 b8 bb
       0.104554266 0.05719838 0.12508291 -0.00563064
000140 57 53 8a bd 43 44 ab 3d ad 9b f0 bc 4b e2 d5 3d
       -0.06754177 0.08362629 -0.029371107 0.104435526
000150 f7 2b b0 3c c0 47 bd bd 76 0a ab bd 5f 1e d9 3d
       0.02150534 -0.09242201 -0.08351605 0.10601496
000160 1d 63 a3 3d 58 cb bd bd 96 76 4f bc 56 3e ba bc
       0.07977889 -0.092673 -0.01266255 -0.022734802
000170 29 1d 8e bd ec ac 9e bb c0 bf c3 bd bc a6 63 3c
       -0.069391556 -0.0048423912 -0.09558058 0.013894733
000180 f3 94 b4 3d f3 9d d5 3b f9 93 86 3d 4f bf 5c 3d
       0.08817472 0.006519073 0.06571192 0.053893384
000190 41 af ad bc b4 e6 c0 bc 31 30 f9 3d 6c 5d d5 bd
       -0.021201732 -0.023547508 0.12167395 -0.104182094
0001a0 65 27 40 3d 5b 01 83 bd a8 1b 4a 3d 0b a5 32 bd
       0.04691257 -0.06396743 0.04934278 -0.04361443
0001b0 ad 00 9f bd 46 79 e9 bc c9 38 e2 3d 97 ba 7e 3d
       -0.07763801 -0.02850021 0.11045987 0.062189665
0001c0 90 aa 88 3d 50 f7 84 bd ab ce 8c bd 86 a5 d1 bd
       0.06673157 -0.064924836 -0.06875356 -0.10236649
0001d0 3e 67 8f bc 21 32 0d bc 47 6e ea bc ea 6b 33 bc
       -0.017505284 -0.008617909 -0.028617037 -0.010951022
0001e0 d7 f8 23 3d 71 d0 95 bd db f7 b0 bd af e8 05 3d
       0.040032234 -0.07315148 -0.08641025 0.032692607
0001f0 78 09 8b 3c 2b 6d 92 bd cf a8 9c bd 3c 9d 2c bd
       0.016972288 -0.071497284 -0.07649385 -0.042142138
000200 a0 3a dc 3b 0f 62 7f bb ee 68 b3 bd af c6 ad 3d
       0.006720856 -0.003896836 -0.08760248 0.084851615
000210 5e 20 05 be 15 a0 e4 3b e4 50 9f 3d 61 38 48 bd
       -0.13000628 0.006977091 0.077791005 -0.048881892
000220 3f c0 d3 bc 90 fc 02 3c 4f 35 05 be 8f 3c af bd
       -0.025848506 0.007994786 -0.13008617 -0.085564725
000230 72 95 c3 bb f2 ad 5b bc f1 64 96 3d da d4 0c bd
       -0.005968743 -0.013408171 0.07343472 -0.03438268
000240 bb 77 24 3c d6 66 b3 bc c2 b6 72 3d f0 57 d7 bd
       0.010038312 -0.021899622 0.059256323 -0.105148196
000250 63 79 c6 bc 6c 14 94 3d 59 88 99 3d 29 7c 3e 3d
       -0.024227804 0.07230458 0.074967094 0.046505127
000260 a7 bf 4b 3d cc 76 5f 3a 42 3d a7 3d d9 bf 8f bc
       0.04974332 0.0008524477 0.08165981 -0.017547535
000270 8e fb 93 3c d1 ad a7 bd 7e 45 7b 3d 87 2d 0f 3d
       0.018064287 -0.0818745 0.06134557 0.034955528
000280 59 7b ac bc e4 f9 32 bd a2 56 7a 3d c8 98 90 bd
       -0.02105491 -0.043695346 0.061117776 -0.07060391
000290 7e 3c 5a bd 81 45 fe 3c ad 96 88 bd 2d 29 8f 3d
       -0.053280346 0.031039001 -0.06669364 0.069902755
0002a0 50 58 c1 bd 3b 1e 8f bd bc b1 ae bd 23 0b 9e bd
       -0.094406724 -0.06988188 -0.08529994 -0.07716968
0002b0 17 18 43 3d f3 c1 9f bd ab 6f 59 bd c5 05 d4 bd
       0.047630396 -0.07800665 -0.05308501 -0.10352663
0002c0 20 d8 d2 3d 6e 11 47 bd 5c 89 a3 bd 43 f5 69 bc
       0.10295129 -0.048600607 -0.079851836 -0.014279666
0002d0 9f a8 95 bc 1e c3 9c 3b 0e f3 18 3d 56 8f 84 bc
       -0.018268881 0.004784002 0.03734117 -0.01618163
0002e0 fd c8 c9 bd 12 cd 9f 3d 31 fd bb bd 94 c3 57 bc
       -0.098527886 0.07802786 -0.09179152 -0.013169188
0002f0 10 61 ee 3d 2b 3a df 3b 49 76 6b 3d 4d 86 b4 3d
       0.11639607 0.006812354 0.057485852 0.08814678
000300 87 e4 6b bc 4a a5 20 bc 12 92 a4 bc 70 e7 1e 3d
       -0.014397747 -0.009805033 -0.020089183 0.038794935
000310 e0 cd b1 bd a1 3d 9c bd 7c d1 d9 bd c6 1a ad bd
       -0.08681846 -0.07628942 -0.10635659 -0.08452372
000320 8d 1b 9e 3d 4b be 41 bc ab 6c 5b bd bc ec f6 bb
       0.07720099 -0.011825155 -0.05357043 -0.007535545
000330 08 be b9 3c 60 8b bf bc 83 89 80 3c 53 3b d7 bc
       0.022673622 -0.023381889 0.01569057 -0.026273405
000340 a8 29 77 bb bd 7f 42 bd a3 a9 9c bd 5c 05 38 bd
       -0.0037714038 -0.047485102 -0.07649543 -0.044926986
000350 5c ca 7b bd 66 3b 0e 3d f6 1e 9b 3c 67 32 08 3d
       -0.06147228 0.034724616 0.018935662 0.033251192
000360 42 7f 78 3d fc dd a3 bd a0 49 43 bc b2 70 a4 3d
       0.060668238 -0.080013245 -0.011919409 0.080293074
000370 6e de ed 3d c5 6f e1 bc 49 ba b8 bd ba f1 ac bd
       0.11614691 -0.027519116 -0.09019906 -0.08444543
000380 aa c3 cd bc 74 87 af bd e6 2b ce 3d 5b 63 77 bd
       -0.025117714 -0.085707575 0.10066967 -0.060397487
000390 70 9a 62 3d ee b6 8d 3d c8 52 8d bb a2 11 18 3d
       0.055323064 0.06919657 -0.004312847 0.03712619
0003a0 76 43 06 bd 36 a9 9b 3d ef bd b5 bd e1 b1 d6 bd
       -0.03277918 0.07600634 -0.088741176 -0.104831465
0003b0 29 da cc 3d 54 28 88 3c 14 e7 a8 bb ca 43 b8 3c
       0.10002548 0.016620792 -0.0051545 0.022493262
0003c0 ad 23 db bb 0f d7 7e bd b0 39 56 bc bf 19 a9 bd
       -0.0066876025 -0.062216815 -0.013075277 -0.08256864
0003d0 3d 10 45 3d cd cc 81 bd 83 40 ac bd 42 41 d9 bc
       0.04811119 -0.06337891 -0.08410742 -0.026520375
0003e0 27 33 85 bd 4a 94 96 3d 0a 0c 97 bb 78 0d 05 3b
       -0.06503897 0.07352503 -0.0046095895 0.0020302217
0003f0 95 9a b0 3d 53 f3 63 bd a2 5b a9 3d fc 06 19 3d
       0.08623234 -0.055651974 0.08269431 0.037360176

network.0.bias f4 [512]
000000 38 2c 67 bd 4c 26 44 bd e6 41 76 bd a1 d9 13 be
       -0.056438655 -0.047888085 -0.06012144 -0.14438488
000010 3d 68 0b bd 29 fa b1 3d 45 57 b1 3c a3 e2 d6 bd
       -0.034034956 0.086902924 0.021648059 -0.10492446
000020 8f 75 7b bd 9a 26 5e bd 77 3f de bc e5 b6 c7 3d
       -0.06139141 -0.054236032 -0.027129872 0.09751681
000030 5e c8 46 bd a1 92 88 bc 43 94 75 bc b4 18 75 3d
       -0.04853093 -0.01667148 -0.014988962 0.05983801
000040 fe c2 09 3d d3 1d 96 3d 61 e2 93 3d 3a 58 c0 3d
       0.033633225 0.07329907 0.07220913 0.09391828
000050 78 fb b9 bd 2e 60 1e 3d c9 af 06 bd 83 98 e5 3c
       -0.09081167 0.038665943 -0.032882486 0.028026825
000060 8e f5 0a 3d 91 3e 99 3d e1 53 a3 3b 6f c7 85 3d
       0.033925585 0.07482637 0.0049843644 0.065321796
000070 d2 3a 4b bd 92 77 6d 3d a8 4e b1 bd ea 61 c9 3d
       -0.049616642 0.05797536 -0.086575806 0.09833129
000080 47 bf 01 be f3 ba e6 bd 7d 4e cf bb ce 07 2d 3d
       -0.12670623 -0.112661265 -0.006326495 0.04224377
000090 25 aa 9a 3d 88 f0 99 bd d7 82 8c bd c3 70 b8 bd
       0.07551984 -0.07516581 -0.06860893 -0.090058826
0000a0 c6 91 be bd 34 c0 07 be 5c 8c c0 3d 14 cd 04 be
       -0.09305148 -0.13256913 0.094017714 -0.12968856
0000b0 47 98 e7 bc fd 3d 99 3c ab 24 1a 3d 5f 4c 58 bd
       -0.028270854 0.018706316 0.037632626 -0.05280721
0000c0 30 f9 a7 3d 9f 37 01 bc fb 7c f8 3b 08 50 75 3d
       0.082018256 -0.007886796 0.007583258 0.059890777
0000d0 ca 7e 68 3d 1f 5f 8d bd a2 f8 e9 3d 1b 3b db bc
       0.05676154 -0.069029085 0.11424376 -0.026761582
0000e0 57 00 00 bd 53 09 3b 3c 8d 19 9b 3d 88 52 52 3d
       -0.031250324 0.011415797 0.07573233 0.05134824
0000f0 ed 3a 38 3c b5 0b f2 3d 02 4f 12 3d cb 6f 9e 3c
       0.011244518 0.11818639 0.03571988 0.019340416
000100 d7 e3 ba 3c 29 06 9a bd 1e 13 8e 3d bb fa d6 bd
       0.02281372 -0.07520706 0.0693724 -0.10497042
000110 d1 0b 87 bd 34 33 75 bd f9 2e af bd 42 14 62 bd
       -0.06594051 -0.059863284 -0.08553881 -0.0551951
000120 f1 30 68 3d 66 2c eb 3c 7e f9 dc bc 6e 95 cb 3c
       0.0566873 0.028707694 -0.026974436 0.024851527
000130 1a 4c f3 bd 06 7f f6 bd c0 75 da 3d 19 54 03 3d
       -0.118797496 -0.120359465 0.1066699 0.032062624
000140 8a ba 75 3d 38 d6 ca bd d2 40 c9 bd 17 db 86 bd
       0.05999235 -0.0990414 -0.098268166 -0.06584757
000150 13 d6 49 bc 30 f8 98 bb a0 76 39 ba cd 7c a0 3c
       -0.012319106 -0.004668258 -0.00070748664 0.01959076
000160 69 b6 e9 bd 61 e0 dd 3d 80 fc 9d 3c f4 75 3e 3d
       -0.11411745 0.108338125 0.01928544 0.046499208
000170 5d 4f ef bd 23 14 db 3d 63 81 04 bc 05 bd be bd
       -0.11685059 0.106972 -0.008087489 -0.09313396
000180 6d 9a 9b bc d3 39 5b bd c9 49 d9 3d 35 73 3f 3d
       -0.018994534 -0.053521942 0.106097765 0.04674073
000190 05 c5 03 be 68 44 f0 bc d5 60 82 3d be 58 9c bc
       -0.12868126 -0.029329494 0.063661255 -0.019085284
0001a0 6d 21 93 3d 7d 1c 0d bd 27 f1 88 bd c3 1a 94 bd
       0.0718411 -0.034450997 -0.06686621 -0.07231667
0001b0 1e 96 ef 3d c8 f2 8e 3d 3b 80 d7 bd 73 1e 6f bd
       0.116985545 0.069799006 -0.10522505 -0.058378648
0001c0 fd a0 67 3d 58 e9 41 bd c6 f1 b8 bc a2 e8 61 3d
       0.056550015 -0.047341675 -0.022576224 0.055153497
0001d0 30 29 b6 bd 1d 58 84 bc 81 59 16 be 92 1d 5f bd
       -0.08894575 -0.016155297 -0.1468258 -0.05447156
0001e0 fa 18 f1 3c 69 ce a6 3c 5c 01 23 bd 96 93 de 3c
       0.029430855 0.020362096 -0.03979622 0.027169984
0001f0 13 34 ac 3d b3 6c d6 3d 0f f7 c5 bd 05 88 78 bc
       0.0840837 0.104699515 -0.09666263 -0.015169148
000200 32 b1 16 3c 22 9e fb bd 57 d2 7b 3d 4e 9c b4 3d
       0.00919752 -0.12286021 0.061479893 0.08818875
000210 56 fa 85 bd 74 1b b1 bd d3 e5 12 bd 09 09 80 3c
       -0.065418884 -0.086478144 -0.03586371 0.015629308
000220 b2 82 c3 3c 32 eb 41 bd b5 14 da 3d 4a 9d f8 bd
       0.023866031 -0.04734344 0.10648481 -0.121393755
000230 e3 85 98 3c 10 ab 18 3d f9 2f bb bd 70 ae 67 bd
       0.01861853 0.037272513 -0.091400094 -0.05656284
000240 83 51 95 bc 46 fb 51 3d e0 e5 9d 3d 06 84 9c bd
       -0.018227344 0.051265024 0.07709861 -0.07642369
000250 79 b6 de 3d ce 61 d1 bd 37 61 46 3d 0b f5 a8 bd
       0.10874648 -0.10223733 0.048432555 -0.08249863
000260 4f 16 1b 3d 42 9d 7a bd a5 99 87 bd 04 21 d3 bd
       0.037863072 -0.06118513 -0.06621102 -0.103090316
000270 d7 c4 a5 3d ff 32 17 3d 0a ad 9b 3d 01 8c 02 be
       0.08094185 0.036913868 0.07601364 -0.1274872
000280 a9 eb ab bd 7a 1d 0f 3d bc 8f 98 3d ce 16 9a bd
       -0.08394558 0.03494022 0.0744929 -0.07523881
000290 d3 06 99 3d fb 3b 99 bc 76 61 69 bd 0c e2 07 3d
       0.07472005 -0.018705359 -0.05697771 0.03317456
0002a0 2d 8f a5 bd e1 91 90 3d 41 8e 56 bd 99 c5 40 3d
       -0.08083949 0.07059074 -0.052381758 0.047063444
0002b0 73 14 45 bd d5 c3 17 3d b0 bb 5c 3d 3f 82 b0 bd
       -0.048115205 0.037051994 0.05388993 -0.086185925
0002c0 18 b9 5a bd 72 44 12 bd bf 7c 13 3d 6c b0 b5 3c
       -0.053399175 -0.035709806 0.03600764 0.022178851
0002d0 df 1d e8 bd 31 9c 04 3d 3a 3e 0d 3d df 31 cf bd
       -0.113338225 0.03237552 0.034483172 -0.10116934
0002e0 8e 11 08 be e4 20 66 3c 8a 95 f5 bd bb 72 79 bd
       -0.13287947 0.014045928 -0.11991413 -0.06090043
0002f0 66 c9 86 3d 14 17 80 bd 25 d0 3d 3d 29 a9 8e 3d
       0.065813825 -0.06254402 0.04634108 0.069658585
000300 6a da 9a bc 52 e4 50 3d 2f e0 a2 3d 50 d8 90 bd
       -0.018902976 0.050998993 0.07952916 -0.07072508
000310 8a 12 8a bc 29 9d dc bd f5 54 60 3d 2e 1b 91 3d
       -0.016854543 -0.107721634 0.05476852 0.07085262
000320 ed a2 61 bd d0 3c 16 3b fc 4a de 3d ba ce 37 3d
       -0.05508702 0.002292443 0.10854146 0.044874884
000330 7e 20 af 3d 1d c4 96 3d 9b 17 ad bd 25 fd 5c bd
       0.08551119 0.073616244 -0.08451768 -0.053952355
000340 f5 ac 74 bc 70 77 85 bc 0b 17 f3 3b cd 3b 24 bd
       -0.014933814 -0.016292304 0.0074185184 -0.040096093
000350 d5 2a 77 3d e4 93 04 bd ef 88 94 3d c2 c2 7b bd
       0.060343582 -0.032367602 0.072526805 -0.061465032
000360 33 60 a2 3d 98 48 e5 bd 0b e5 ac bd c6 3a 3d 3d
       0.07928505 -0.11195487 -0.08442124 0.04619863
000370 08 51 cc bc da 17 b2 bd 70 cf 3a bc b9 0b 76 3d
       -0.024940982 -0.086959556 -0.011401996 0.060069773
000380 48 d6 0b ba 7b 1f bc bd 28 76 0b 3d 4b b7 0f 3d
       -0.00053343596 -0.09185692 0.03404823 0.03508691
000390 86 e7 25 bb 91 23 e8 bd c9 b6 84 bd 2b 8f a5 3d
       -0.0025315 -0.11334909 -0.06480176 0.08083948
0003a0 8f f6 2a bd 74 39 96 3c 88 95 dc bd b8 ca be bd
       -0.041739043 0.018337943 -0.10770708 -0.09316009
0003b0 90 9a 45 3c be 34 21 bd 84 77 f1 bd 51 9b a1 3d
       0.012060776 -0.03935694 -0.11790374 0.078909524
0003c0 c1 ea 78 3d 78 44 7a bd 90 29 ed bd 95 b4 eb bd
       0.060770754 -0.061100453 -0.11580193 -0.11509053
0003d0 e6 a0 05 bc 65 2a d8 3b 89 6c ba bd 8f e8 bb bc
       -0.008156037 0.0065968507 -0.09102733 -0.022938041
0003e0 c6 76 62 3d 51 58 c5 3d 9c b1 61 bd 98 18 a0 bd
       0.055289052 0.09635986 -0.055101022 -0.07817191
0003f0 58 b4 cf 3d 61 41 99 bd 7f 20 15 3d b3 e9 b7 bc
       0.1014182 -0.07483173 0.036407944 -0.022450304

network.3.weight f4 [256, 512]
000000 36 ab 12 3d c5 ff 70 bc cb 46 f0 bb e9 96 0b bd
       0.03580781 -0.014709418 -0.007332658 -0.034079466
000010 76 e5 62 bd 11 36 c0 bc 61 18 1c bd a4 32 13 bd
       -0.055394612 -0.02346328 -0.038109187 -0.035936967
000020 54 94 13 bd 03 5e 6f bd e4 7c 98 3b 74 4c 32 bc
       -0.03603013 -0.058439266 0.00465356 -0.010882486
000030 d5 3c ce 3b 5e 63 d1 3c 9b 00 51 bd ae b5 ce ba
       0.006293873 0.025560077 -0.051025968 -0.0015770698
000040 ef 19 3c bc 8a bd 2b bd b9 ae cb ba 8f ea 29 3c
       -0.011480792 -0.041928805 -0.0015539742 0.0103708645
000050 aa 25 43 3c 06 89 52 bd 84 b1 c1 3c 22 31 da bc
       0.011910835 -0.051400207 0.023644216 -0.026634756
000060 fa 7c e8 bc 88 2e 08 3d 48 9b 6c bc 99 21 12 bc
       -0.028379906 0.0332475 -0.014441319 -0.008919143
000070 2c 54 3e bd 09 8e 01 bd 68 08 26 bd fe 21 49 bc
       -0.04646699 -0.031629596 -0.04053536 -0.012276171
000080 76 a0 34 3c 1b d9 df bc 8d ab bd ba 2e 2e f5 bc
       0.011024585 -0.027325204 -0.0014470682 -0.029929247
000090 a7 83 45 bc a3 10 c9 bc 17 95 a8 3c 98 b3 ca bb
       -0.012055314 -0.024544066 0.020578904 -0.00618596
0000a0 7d 76 85 3b 04 9a 6a bd 60 45 73 bb 41 fb 55 bc
       0.004072963 -0.057275787 -0.0037120208 -0.013060392
0000b0 6e 59 4e bd bb d1 cd bc f6 9c 1d bb 85 e9 19 3c
       -0.050378256 -0.025124421 -0.0024049855 0.009394054
0000c0 44 45 60 3c c0 c7 9c 3c a3 cb 00 bc ce 26 14 bd
       0.013688389 0.019138217 -0.007861051 -0.03616982
0000d0 27 be 25 bd 07 5a 35 bd 67 04 67 bb ec ed 86 3c
       -0.040464547 -0.04427531 -0.0035250427 0.016470872
0000e0 cd 36 85 bd a5 76 7d 3c 2d 30 7c bd 31 b3 1d 3d
       -0.06504593 0.015470182 -0.06156938 0.03850097
0000f0 52 e2 00 bd c2 d6 12 bd 0a 6c cb 3c 73 1e ea 3c
       -0.031465836 -0.03584934 0.02483179 0.028578972
000100 d0 6d 43 bd 1a 1b a6 3b 59 dc 54 bc 7e 71 2c bd
       -0.047712147 0.0050691487 -0.012991988 -0.042100422
000110 00 f6 52 bc b9 e1 1f bc ce c0 5f 3c e9 40 92 bc
       -0.012876034 -0.009758406 0.013656808 -0.017853217
000120 d6 46 77 bc 03 ce ff bc 09 51 5c bd d4 96 14 bc
       -0.015092572 -0.031226164 -0.05378822 -0.009069163
000130 d7 31 41 bd 74 d6 15 3d 3d 78 44 bd ce 20 b4 bb
       -0.04716667 0.03658147 -0.04796623 -0.0054970747
000140 df dc 30 bd 51 31 8b 3b 49 5c a6 bc d4 8f 1d 3c
       -0.04317939 0.0042478223 -0.020307677 0.009616811
000150 b3 18 b2 3b e0 b0 a8 3c 73 e2 9c bc ac f1 6c bd
       0.0054350733 0.020592153 -0.019150948 -0.057847664
000160 ea ca 19 bd 02 f4 4d bc 82 91 a2 3c eb df 5a bc
       -0.03754703 -0.012570383 0.019844774 -0.01335905
000170 0d 8c f0 bc ea c6 88 bc ea bb 00 bd 72 06 1d bd
       -0.029363656 -0.016696412 -0.03142921 -0.038336225
000180 b3 76 d2 3c 9d 9b a2 bc c7 16 18 3d cc c6 05 bd
       0.025691366 -0.019849593 0.037131097 -0.03266029
000190 83 05 29 3c ae 05 7c bc 75 f2 9e bc 37 27 44 bd
       0.0103162555 -0.0153822135 -0.019402722 -0.04788896
0001a0 6c ae 25 3a fc 19 d3 3b 8c ac 2a 3c e0 35 25 bd
       0.00063202414 0.0064423066 0.010417115 -0.040334582
0001b0 76 9b 4e bd d6 94 77 bc 64 a7 51 3c 2e 11 fe bb
       -0.050441228 -0.015111169 0.012796257 -0.007753513
0001c0 a6 68 41 bc be 5e 06 3d a3 26 02 bd 35 f6 36 3c
       -0.011804735 0.032805197 -0.031775128 0.011167099
0001d0 c2 82 24 bd 9e 55 d1 bb cf 2f d8 bc 4c a1 f5 3c
       -0.040163763 -0.00638838 -0.026389984 0.029984139
0001e0 e5 45 d9 3a 32 a3 9c ba 1d 75 44 bd 91 2a 14 bd
       0.0016576616 -0.0011950491 -0.04796325 -0.036173407
0001f0 29 2e 2a bd e9 1b 28 bd d9 04 0c bd e7 78 39 bd
       -0.041547928 -0.041042242 -0.03418431 -0.045281317
000200 b4 72 49 bd 0e f8 e0 bb 74 6d 66 3b 2b c3 dd bc
       -0.049181655 -0.006865508 0.0035160454 -0.027070602
000210 e2 a3 a3 bc c2 bf 0b bc 8f 07 32 bd 04 3a da bc
       -0.019975606 -0.008529605 -0.04346424 -0.026638992
000220 5a d6 29 bd e9 f3 c2 bc 56 11 be bc 83 fc d7 3b
       -0.041464187 -0.023797946 -0.023201626 0.006591381
000230 e4 be 33 bd 19 39 82 bb 81 df e2 bc 3f 57 13 3c
       -0.04388322 -0.0039740917 -0.027694466 0.008992969
000240 70 41 10 bd 08 9d c0 bc c1 0f 4d bd 16 37 b8 bc
       -0.035218656 -0.023512378 -0.050063852 -0.022487205
000250 b4 d9 f3 3b a3 4e a9 ba ce 64 2f bd cf dc d2 3c
       0.0074417237 -0.0012917112 -0.042820744 0.025740055
000260 15 4b a7 3b df 1c 68 3c 30 a3 6b 3b 01 b2 21 3d
       0.005105386 0.01416704 0.0035955422 0.0394764
000270 a6 fc ba 3c 84 9c 6c bc 32 b4 0f bb 0b cb 39 3c
       0.02282555 -0.014441613 -0.0021927473 0.011339913
000280 98 bd 16 3c 21 29 3c bd f7 41 04 bd 72 3c 88 3c
       0.009200476 -0.04593766 -0.03228947 0.016630385
000290 fd 92 e2 bc ea 3d 91 39 f3 f6 bd 3a f6 bf 5e 3c
       -0.02765798 0.00027702685 0.0014493152 0.013595572
0002a0 02 61 b4 3c 9b 6e ae bc 51 74 02 bc cb e4 16 bd
       0.022018913 -0.021292975 -0.007962302 -0.036839288
0002b0 88 15 dc bc d9 28 4d bc 39 fe c8 bc 6a 58 a9 3c
       -0.026865736 -0.012521946 -0.024535285 0.020672042
0002c0 e0 b6 3e bc 03 83 fa bc 08 cf d3 bc e3 f5 2e bd
       -0.0116402805 -0.03058005 -0.025855556 -0.042714965
0002d0 31 24 26 3c 78 18 c4 3c 35 f7 d5 3c 65 54 47 3c
       0.010140465 0.023937449 0.026118854 0.012166117
0002e0 d3 f5 50 bd 38 69 23 bc 90 27 02 3d f7 23 11 3d
       -0.051015686 -0.009973817 0.03177601 0.03543469
0002f0 05 d9 49 3b 97 4b 03 3c 6a 4f 55 bd f2 dc 33 3c
       0.003079952 0.0080136275 -0.05207769 0.01097797
000300 3e 02 0e bd 4c fb 46 b9 a4 02 b7 3b be b5 c5 3c
       -0.034670107 -0.00018976367 0.0055850316 0.024134513
000310 2c af 27 3b 30 99 57 bd d0 34 f3 bc e0 cc 94 bb
       0.0025586588 -0.052636325 -0.029688269 -0.0045410246
000320 88 c1 05 bb ec 8c 0e bb d8 b2 ed ba 88 22 df bc
       -0.0020409543 -0.0021751476 -0.0018134965 -0.027238145
000330 c9 6f 9c 3c 99 77 9c bc 4e 66 b1 3b c3 24 00 3d
       0.019096272 -0.019099997 0.005413807 0.03128506
000340 fb e6 f6 3c 81 86 a5 bb 74 a8 b2 bb 8c cf 41 bd
       0.030139437 -0.0050514345 -0.00545221 -0.047317073
000350 ca cd a2 bb e1 00 3a bb 50 ea d5 3c b8 1f e3 bc
       -0.0049683796 -0.0028381872 0.026112705 -0.027725086
000360 d8 45 ab 3c 7d d3 e0 3c 6e 78 38 bc fa 69 fb 3b
       0.020907328 0.027444595 -0.011259181 0.0076725455
000370 f6 81 e5 bb a5 51 6a 3c 38 8e 80 3c 3f 44 9a 3c
       -0.007004018 0.014301692 0.015692815 0.01883137
000380 12 c6 a7 3c ea 2b 43 ba a2 81 ab bb 40 1d ea bc
       0.02048019 -0.00074452034 -0.0052339593 -0.0285784
000390 e2 5e 10 bd e3 58 58 bd 44 cf 91 b7 b4 3b ba bb
       -0.035246737 -0.052819144 -1.7381863e-05 -0.0056833867
0003a0 7c 10 3e 3c b1 49 e9 3c b5 3a 19 bd a9 ed 02 3d
       0.01160061 0.028477522 -0.037409503 0.03196493
0003b0 93 21 2b bd c5 f1 b6 bb 70 fb 72 bc e5 e6 06 3d
       -0.041780066 -0.0055830204 -0.014830455 0.032935042
0003c0 ab ea df 3b 09 d7 cc 3c ff dd 9d 3c be 61 08 bd
       0.0068333945 0.02500488 0.019270895 -0.03329634
0003d0 c7 50 98 bb 82 5b 87 3c f0 74 50 3c 06 00 48 bb
       -0.0046483013 0.016523127 0.012723193 -0.0030517592
0003e0 d9 12 40 bd 5b 38 01 bd c8 01 98 bc cb b6 cd 3c
       -0.046892975 -0.031547885 -0.018555537 0.025111577
0003f0 80 b7 76 bd 35 ca 46 bd cf 07 12 bd 53 17 0c 3d
       -0.060233593 -0.048532683 -0.035651978 0.03420193

network.3.bias f4 [256]
000000 a4 0b 9a 3c 8e 72 9f 3b 2a ad 53 bc 56 f0 df bc
       0.018804379 0.004865951 -0.0129197035 -0.02733628
000010 c1 e4 0f bc 84 d0 57 bd ad af d4 3c aa 61 64 3c
       -0.0087825665 -0.05268909 0.025962675 0.013939301
000020 ef 25 ce 3c 25 8c 26 3b c1 66 fa bc a1 df 02 bc
       0.025164573 0.0025413122 -0.030566575 -0.007987888
000030 ec 90 d2 bc c7 20 f7 3c 4d 77 1b bd 1f c9 0a 3d
       -0.02570387 0.030166997 -0.03795557 0.03388321
000040 26 3f 19 3d 26 48 31 3c 1e ba 8c bc ac 4c 53 bd
       0.03741374 0.010820424 -0.017178591 -0.051586792
000050 99 75 2d bb 1b 9c bb 3c 99 f2 79 bc 0c e4 59 3c
       -0.0026467799 0.022901585 -0.015255594 0.0132989995
000060 31 59 b8 bc bc 01 b3 bc 8a e4 9c bc 97 6a a7 3c
       -0.022503467 -0.021851413 -0.019151945 0.020436568
000070 7d d1 be 3c 36 94 10 bd 95 c6 94 bc 30 57 a0 3c
       0.023293251 -0.035297595 -0.018161098 0.019572824
000080 27 f4 23 bd c5 5f 02 bd 7a 78 12 3c f9 05 0d 3d
       -0.040027764 -0.031829614 0.008939857 0.034429524
000090 05 4c 3f bd b0 a8 0d bd c1 0b 77 3c a9 2b eb bb
       -0.046703357 -0.0345847 0.015078486 -0.0071768356
0000a0 d6 8f e0 bc 0f 37 a6 3c 4b c4 05 3d 4a 30 3a bd
       -0.027412336 0.020289926 0.032657903 -0.04545621
0000b0 57 14 68 3d 37 18 1a 3d f7 c7 21 bd 97 93 32 bd
       0.056660023 0.03762075 -0.039497342 -0.043597784
0000c0 cd 83 13 3c c9 1f 88 3b 58 8f cf 3c db 70 14 3c
       0.009003592 0.0041541797 0.025336906 0.00906011
0000d0 7e dc 01 bd 4e 14 01 3d 50 3d 19 bd 4f 58 9a bc
       -0.03170442 0.031513505 -0.037411988 -0.018840937
0000e0 8c 76 a3 3c cb 4b 51 bd 3e 0e 08 bd 44 e1 14 3c
       0.019953988 -0.051097672 -0.033216707 0.009086911
0000f0 1e 4f 7a bd 8f 60 d7 bc 42 72 65 bc e5 ad 0b bd
       -0.06111061 -0.02629116 -0.014004292 -0.034101386
000100 76 65 95 bc 4d 33 d7 bc b8 dd 46 bc 21 d7 3e 3d
       -0.018236857 -0.02626958 -0.012137823 0.04659188
000110 38 50 a1 3c 97 12 9f 3b 65 b2 4d bc 60 58 aa bc
       0.019691572 0.004854511 -0.01255474 -0.020794094
000120 62 fe 13 bd e7 82 60 3d 56 6b 56 bc 34 56 00 bd
       -0.03613127 0.05481234 -0.013087114 -0.03133221
000130 5e 89 08 bd 90 48 0a 3c 8a df f3 bc 15 42 c2 bb
       -0.03333413 0.008440152 -0.029769678 -0.0059282877
000140 6b 78 ad bc 07 3a 8d bc e3 bd 0b bd 52 2d ae 3b
       -0.021175584 -0.017239584 -0.034116637 0.005315461
000150 b3 b6 c4 bc 7a ea ad bc 9e ef 4d bb 45 1e 0e bd
       -0.024012899 -0.021229971 -0.003142334 -0.034696836
000160 d6 bb be bc 40 9c f0 bb 10 ec 8f 3c 53 9e aa 3c
       -0.023282927 -0.007342845 0.017568618 0.020827448
000170 93 5c 0f 3d 25 01 17 3b 99 81 1f 3d f5 a8 48 bd
       0.035000395 0.0023041454 0.038941953 -0.048989255
000180 90 38 67 bb e8 27 f7 bc 7e dd 90 bc 59 ff ee 3b
       -0.0035281517 -0.030170396 -0.01768374 0.0072936234
000190 07 3d c0 3c 2e 4b 7b 3c 43 7d 85 bc a8 ec a8 bb
       0.0234666 0.015337748 -0.016295081 -0.0051551647
0001a0 69 67 35 3c b8 ed 9b 3c 8f b2 ab bc 04 a5 b2 bc
       0.011072018 0.019034252 -0.020959167 -0.021807201
0001b0 b1 e5 3c ba a2 b9 ac bc dc fd f8 3c 6b 43 98 bc
       -0.00072058575 -0.02108461 0.030394487 -0.018586835
0001c0 fc 04 4f bd 63 87 e9 3c 3f c6 3c bd e5 04 3a bd
       -0.050541863 0.02850694 -0.0460875 -0.045414824
0001d0 cb c5 2b 3d aa f6 e0 bc aa f4 24 bd d4 09 37 bd
       0.041936677 -0.027461369 -0.040272392 -0.044687107
0001e0 67 c5 9b bc f2 8c ac 3c 47 10 49 bd f0 d5 32 3d
       -0.019015027 0.021063302 -0.04908779 0.043661058
0001f0 ed 8a bb 3c 1a 34 12 3c f3 b9 25 3c fb a1 f0 bc
       0.022893393 0.008923555 0.0101151345 -0.029374113
000200 3e 32 e9 3c c1 e0 2b 3d a2 68 dd bc 86 e7 4c bd
       0.02846634 0.04196239 -0.027027432 -0.050025485
000210 a3 30 fc 3c 36 e6 1b bd fd fc 82 3c 76 b5 10 bd
       0.03078491 -0.038061343 0.015989775 -0.035329305
000220 74 88 42 bd 00 34 30 3d 02 20 4d b9 fb cf 20 bd
       -0.047493413 0.04301834 -0.00019562247 -0.039260846
000230 b7 34 c3 3b 0e 06 0a bd c2 f3 09 3d 64 12 1e 3d
       0.005957212 -0.03369718 0.03367973 0.038591757
000240 3c c2 e4 bc 99 94 21 3d 22 f1 a7 ba e8 b8 08 3d
       -0.02792465 0.039448354 -0.0012812952 0.033379465
000250 04 91 4e bd ad dc 38 bd ca 4a dc 3b 10 58 a0 3c
       -0.050431266 -0.045132328 0.0067227827 0.019573241
000260 c2 34 e8 3c 7d 87 d2 3c d4 1a 2e 3d d1 d5 8d 3c
       0.02834547 0.025699371 0.042506054 0.01731387
000270 a0 ad 98 bc d3 ab ce 3c 34 af e8 bc 95 6b 62 3c
       -0.018637478 0.025228417 -0.028403856 0.013819595
000280 f1 a9 08 3d 0e e1 bb bc 14 08 c2 bc 41 14 13 bd
       0.033365194 -0.022934463 -0.023685493 -0.035907988
000290 79 ea 38 bd 9d 1c 85 3c 69 2d 95 bc 90 f9 eb bb
       -0.045145486 0.016248995 -0.01821013 -0.007201381
0002a0 3e 88 47 3b 4e 0a 42 3c db 25 29 3d 1e ae bb bc
       0.0030446197 0.011843277 0.041295867 -0.022910174
0002b0 1e 75 71 3c 6f e1 a2 3c 83 47 2d bd 3f b6 80 3c
       0.014737396 0.019882886 -0.042304527 0.015711902
0002c0 30 63 9e 3c 62 5a fc 3b 19 37 81 bc f9 98 9a 3c
       0.019334406 0.007701204 -0.015773343 0.018871771
0002d0 7c 1e 92 3c c5 ef cb 3c 7a 4a 89 3c df 8e 23 bd
       0.017836802 0.024894604 0.016759146 -0.039931174
0002e0 9f 61 21 bd 0d 60 b5 3c a0 d9 9d bc 7a 1b a4 bc
       -0.03939974 0.022140527 -0.01926881 -0.020032633
0002f0 ce 42 55 bb a7 9e 99 3c 22 6e 10 bc b7 92 37 bc
       -0.003254104 0.01875241 -0.00881532 -0.011204413
000300 7f 4e df 3b a1 3c 78 bb fa e7 ea 3c 66 09 25 bd
       0.0068147774 -0.0037877935 0.028675068 -0.040292166
000310 dc 21 8b bc 56 89 59 3c e9 3b 05 3d c7 b2 d7 bc
       -0.016983919 0.013277372 0.032527838 -0.026330365
000320 f9 1a 1f bd 4b 4d 99 bc d3 66 a5 bc b0 7c e6 3c
       -0.038844083 -0.018713614 -0.020190632 0.028135628
000330 d6 60 0d bb aa 9a 09 bd ce df 15 bd 62 54 c3 b9
       -0.0021572611 -0.033594765 -0.03659039 -0.00037256168
000340 92 fb 49 bc 14 30 18 bd 7c 0c ce bc d9 5c cf 3c
       -0.012328045 -0.037155226 -0.025152437 0.025312828
000350 b0 49 fd 3c 3e 3f 8a 3c 8a 96 ee 3c 0f 5c 37 3c
       0.030918926 0.01687586 0.029124517 0.011191382
000360 1d 76 00 bd d8 27 64 bd c7 a5 52 3c f0 4b be 3b
       -0.03136264 -0.05570206 0.012856907 0.0058073923
000370 d8 06 0b bd 14 a5 ef 3a 71 2e 59 bd 4c 45 7a 3d
       -0.033942074 0.001828345 -0.053022806 0.061101243
000380 a5 17 f0 bc 23 e9 5e bc 24 70 21 bc 1d 08 cf bc
       -0.02930815 -0.013605389 -0.009853397 -0.025272423
000390 1f 82 c1 3c 10 fc 2a bd f2 02 30 3d 6c 99 9b 3a
       0.023621617 -0.04174429 0.04297156 0.0011871285
0003a0 15 cd 3f bd 16 75 49 bc 06 53 96 3c 4f 9c 70 bd
       -0.04682644 -0.012295982 0.018350136 -0.058742817
0003b0 9f 28 30 3c be 12 34 bd a2 bd 35 bd fd 42 36 3c
       0.010751872 -0.043963186 -0.0443703 0.01112437
0003c0 51 01 0f bc cf bf ce bb 57 f4 2d bc 93 e2 18 bd
       -0.008728341 -0.0063094865 -0.010617337 -0.037325453
0003d0 fc fc 0c 3d d3 07 03 3d 14 aa 97 bc 75 32 28 bc
       0.034420952 0.031989884 -0.018513717 -0.010265936
0003e0 9f 75 b2 bc d6 13 ab 3c 95 47 da 3c 8a 46 f4 3a
       -0.021784602 0.020883482 0.026645461 0.0018636745
0003f0 6f fa 97 bc 83 65 02 bd a8 90 53 3c af 7a 07 3d
       -0.018552033 -0.03183509 0.012912907 0.033075985

network.6.weight f4 [128, 256]
000000 42 f7 9a 3c f4 f2 c0 bc 4d 17 16 3d d2 23 ea 3b
       0.01891673 -0.02355335 0.036643315 0.0071453834
000010 ca 33 09 3d c1 d1 b0 bc d8 4b 24 bd 14 27 5f 3d
       0.033496656 -0.021584393 -0.040111393 0.054480627
000020 47 b4 53 3c 95 56 bd 3c e4 3c 42 3d d3 92 7f bd
       0.012921399 0.023112575 0.04742135 -0.06239588
000030 14 25 1a 3d 2b f5 dc bc 47 aa b5 bc ba d1 81 bd
       0.037633017 -0.026972374 -0.022175921 -0.0633883
000040 0a c6 41 3d 9d 3a 54 3d 3d 29 5e bc 19 c4 b3 3c
       0.047308005 0.05181371 -0.013559637 0.021944093
000050 8b 49 47 bc af 67 5b bd 6c 14 c5 bc 38 ef 13 bc
       -0.01216353 -0.053565677 -0.02405759 -0.009029202
000060 47 a5 96 3a b4 59 91 bd ad fe aa 3b 52 9b 5b 3d
       0.0011493348 -0.07097188 0.005218348 0.053614922
000070 a6 6d 26 bd e4 19 d8 3c f8 57 94 3c ff d5 34 bd
       -0.040631913 0.026379533 0.018108353 -0.044149395
000080 f7 9f 66 3d b1 5d 61 3d 8b 72 5d bd 36 7c 23 3d
       0.056304898 0.05502099 -0.054064315 0.03991338
000090 29 03 4e bd 3c 2d 6d 3d 68 de 57 3d 92 81 45 bd
       -0.050295983 0.057904467 0.052702338 -0.04821927
0000a0 7c 98 f3 3c d3 06 c8 bb e4 31 4e bb db e4 75 bc
       0.029735796 -0.006104329 -0.0031462843 -0.015008177
0000b0 d8 63 fb bc e6 86 4f bd da 5c 97 bd a9 3f 1f 3c
       -0.030687258 -0.05066576 -0.07390757 0.009719768
0000c0 82 06 77 bd c9 44 95 bb 50 c1 66 3c 28 fb d6 bc
       -0.06030894 -0.004555319 0.014084175 -0.026242808
0000d0 be f2 8b 3b 5a 5f b5 3c 29 47 1c bc 22 c0 8b bc
       0.0042708805 0.022140194 -0.00953845 -0.01705939
0000e0 62 b6 28 bd c2 9a 88 bc c3 bc 68 bd 7a 08 9a bd
       -0.04118956 -0.016675357 -0.056820642 -0.07521148
0000f0 6f ef 60 3c 8f 23 29 bd db f7 3e 3c 7d 4e 47 3d
       0.01372896 -0.041293677 0.011655773 0.048658837
000100 d1 6a 7b 3d 00 0d 49 bd bf ad 4a bd 0c 0f dc bc
       0.061381165 -0.049084663 -0.049482103 -0.026862644
000110 67 d8 67 3d c4 dc cd 3c 51 99 0a 3d 37 bf 6f 3d
       0.05660286 0.025129683 0.03383762 0.058531966
000120 48 a1 f4 3c 0d 23 23 bd b2 c8 f6 3b 0a 54 b7 bc
       0.029862061 -0.03982835 0.007531249 -0.02237894
000130 fb 32 58 3d f9 08 cd ba 9b a8 3c bd 36 ad 07 bd
       0.052782994 -0.0015642933 -0.046059232 -0.03312417
000140 d0 ca d7 3c 88 44 7b ba 3a dd 05 3d d3 94 89 3c
       0.026341826 -0.0009585102 0.03268168 0.016794598
000150 67 b4 6f 3d 14 67 6e bd 50 38 8c 3c 1f 61 1e 3d
       0.058521654 -0.05820377 0.017116696 0.03866684
000160 db aa 8b 3c 8b b8 33 bd 37 77 f7 3c 03 f4 dc 3c
       0.017049244 -0.043877166 0.030208213 0.026971823
000170 03 7a 27 3d bf 41 e2 bc 59 f0 7a bd 90 92 c0 3c
       0.040887844 -0.02761924 -0.06126437 0.023507386
000180 95 22 e2 bc b5 fc 6f 3c 2d 66 14 bd 14 61 d8 3c
       -0.02760438 0.014647652 -0.036230255 0.026413478
000190 59 2e cb bc 35 34 d4 bc a6 35 6f bd bf f7 85 3c
       -0.024802374 -0.0259038 -0.058400773 0.016353486
0001a0 94 76 48 3d be 28 86 bd 9e 3e 1c bc f6 e9 f5 bc
       0.04894121 -0.0655074 -0.0095364135 -0.030018788
0001b0 08 f4 19 bc ae dd 33 3d 04 8d 08 3d a7 f2 d4 3c
       -0.0093965605 0.043912582 0.033337608 0.025994612
0001c0 df a0 5e 3c 21 75 c9 bc 3d 8f 17 bc ed cb 34 3d
       0.013588159 -0.024591984 -0.009250459 0.04413979
0001d0 e8 e3 21 bd ce c5 0e 3d c1 06 95 bd ce 7c 26 bd
       -0.03952399 0.03485661 -0.07276679 -0.040646367
0001e0 e6 06 42 bc f1 77 50 bc b7 be 3d 3d bd 7d 04 bb
       -0.011842465 -0.012723909 0.046324458 -0.0020216547
0001f0 fd 1c f2 3b b6 13 4e bd ed 5d d8 bc 0e 4f 3c bd
       0.0073887096 -0.050311767 -0.026411975 -0.04597383
000200 bf 72 f4 bc 5f 92 0e bd c8 e3 39 3d a2 f7 99 bd
       -0.029839871 -0.03480756 0.045383245 -0.07517935
000210 c2 86 52 bd ee e5 33 3d 22 5b b1 bc 83 bc 15 3c
       -0.051398046 0.04392045 -0.0216499 0.009139183
000220 6f 4d 10 3d b0 25 42 3c 37 3d 7c bd 7d 29 15 3d
       0.035230096 0.011849806 -0.061581817 0.03641652
000230 a9 0c ad 3c d1 ab 85 bc 89 3d c5 bc 8f 4c b6 3c
       0.0211242 -0.01631728 -0.024077194 0.022253303
000240 12 3a 32 3d a8 a5 2a 3c b8 93 33 3d ce f5 1c 3d
       0.04351241 0.010415472 0.043842047 0.038320355
000250 16 82 c6 bc c9 7e f6 3a 89 f7 46 bc f4 c6 c4 bc
       -0.024231952 0.0018806095 -0.012143978 -0.02402065
000260 dd f8 5a 3c 79 14 03 3d 6b db d1 3c d5 b4 af bc
       0.013364998 0.032001946 0.025617322 -0.021448532
000270 27 54 44 3d 89 a7 15 bd 35 7c 60 3d 15 c1 a6 bc
       0.047931816 -0.036536727 0.054805953 -0.02035574
000280 21 37 cc 3c 89 c5 54 bc 7c 4c 0a 3c 6e ff 2d bd
       0.024928631 -0.012986549 0.008441087 -0.042479925
000290 6f 30 09 bd 0b a0 ea bc f5 45 03 3b 1f ab 61 3c
       -0.033493455 -0.028640768 0.0020030711 0.013773709
0002a0 b3 d0 4a bd 12 89 46 3d 6a f1 0a bd 66 7f 62 3d
       -0.049515437 0.048470564 -0.033921637 0.055297278
0002b0 03 09 3c 3d 97 87 7a 3c 1f 00 fc 3c 4b 25 9e bb
       0.04590703 0.015291116 0.030761776 -0.004826223
0002c0 95 28 54 3d b6 41 a5 bb 08 8d ab 3a c7 76 84 bd
       0.051796515 -0.0050432337 0.0013088295 -0.064679675
0002d0 67 db 4e bd 96 ec 3d bc eb 98 ec bb 00 ab 01 bd
       -0.050502207 -0.011592051 -0.0072203777 -0.03165722
0002e0 17 56 3c 3d aa 7f 45 3d ba 83 9d 3c e4 4a 42 bd
       0.04598054 0.048217453 0.019227851 -0.047434703
0002f0 47 fc 2c 3d 9f 6b 57 3d 43 99 97 bd 67 d3 1e 3c
       0.042232778 0.05259287 -0.07402279 0.009693957
000300 29 23 1f bd 6b ff 2e 3d 46 a5 61 bd a8 fe 0a 3a
       -0.03885189 0.042724054 -0.055089258 0.0005302229
000310 d8 88 a0 3b b5 1c af 3c b5 57 e8 3c 9e 8c 9e bc
       0.0048991255 0.021375993 0.028362134 -0.01935416
000320 94 e9 02 3d 72 fe 27 bd c8 95 35 bd 12 13 5b 3d
       0.03196104 -0.041014142 -0.044332296 0.053484984
000330 79 c2 52 3d cb 19 69 3d f9 08 48 3d 2e f4 94 bb
       0.051454995 0.056909364 0.048836682 -0.00454571
000340 5c 59 03 3b 00 e1 35 bd 9e 31 16 bd c8 d0 c1 bb
       0.0020042276 -0.04440403 -0.036668412 -0.0059147812
000350 fe 3d 92 3c fe 36 53 3d 5b 78 78 3d 50 c6 d3 3b
       0.017851826 0.051566117 0.060661655 0.0064628497
000360 e5 54 d8 bc d7 47 24 bd 77 a6 43 3d e8 cc d7 3b
       -0.026407668 -0.040107574 0.047766175 0.006585706
000370 60 6b 6b bd eb 5e f9 bc c1 32 1c 3d 29 62 84 bd
       -0.057475448 -0.030440768 0.03813434 -0.06464035
000380 28 e3 12 bc 91 8a 9b 3a 82 d0 db bc ba 50 7e 3d
       -0.008965291 0.0011866858 -0.026832823 0.062088706
000390 9a a3 08 3d 2f 9f 37 3d c9 5e 55 3d c0 c5 0b 3d
       0.033359148 0.044829544 0.052092347 0.034124136
0003a0 dc 08 54 3c 19 05 06 3d 8d 5c f5 3b d8 71 76 3d
       0.012941565 0.032719705 0.0074878396 0.060167164
0003b0 46 6a cd bb 39 ab 4c bc df 63 4b bd 96 95 87 3b
       -0.0062687723 -0.012491995 -0.04965579 0.004137705
0003c0 6d 16 fd bc d1 7d 3b 3d 31 36 85 bd 68 75 fe 3c
       -0.030894483 0.045774285 -0.06504477 0.031061843
0003d0 d4 76 0d 3d cd 40 75 bd a9 b1 1c bd 82 67 3c 3c
       0.03453715 -0.059876252 -0.038255367 0.011499288
0003e0 9b ef 51 bc 6c 84 03 bd 18 16 1e bd c9 78 e3 bc
       -0.012813474 -0.03210871 -0.03859529 -0.027767556
0003f0 a8 10 db 3b 60 d4 99 3b d6 40 22 3c cb 7b 67 bd
       0.006685335 0.0046945065 0.009903153 -0.056514543

network.6.bias f4 [128]
000000 46 aa 63 bd 7d 1a 69 bc 05 93 57 bd 4f 91 38 3c
       -0.055582307 -0.014227507 -0.052630443 0.011265113
000010 fd 2d 1b bd 88 03 c7 bc b0 af 0c bd ad 94 c6 bc
       -0.037885655 -0.024293676 -0.034347236 -0.024240816
000020 9e 5d 05 3c c5 0c a1 bb 0a 8c df bc 4e 86 00 3d
       0.008139996 -0.0049148523 -0.027288456 0.031378083
000030 a2 2c 9f bc 22 0e 50 3d 3d bc 0c 3d 91 21 5d 3c
       -0.019430462 0.050794728 0.034359206 0.013496772
000040 5b 8a 46 3c 29 eb b3 3c 09 81 64 3c 08 95 e8 3c
       0.012117947 0.021962719 0.01394678 0.028391376
000050 6f 07 fe 3c 9f 49 44 3d 28 6b 25 3b 01 a9 05 3d
       0.031009404 0.047921773 0.0025240872 0.032631878
000060 18 b8 3f bd 0c fb 89 bc 77 94 4a 3a 82 6e 65 bd
       -0.046806425 -0.016843341 0.00077278115 -0.05601359
000070 e9 c7 18 3d 93 e8 d7 3c 91 4e 5a bc 68 83 b2 3c
       0.037300024 0.026356017 -0.013324396 0.021791175
000080 b3 fc 01 bd e4 57 7c bd fe 25 27 3d f2 a3 3f bc
       -0.031735133 -0.061607257 0.040807717 -0.011696802
000090 bb 80 54 bd 3a bc 25 3d 52 6f 1d 3d c4 8e 89 3d
       -0.05188058 0.04046271 0.03843624 0.067166835
0000a0 a0 85 f0 bc 84 c2 79 bd 5d cb 26 bd f4 49 4b 3d
       -0.029360592 -0.06097652 -0.040721286 0.049631074
0000b0 04 bc 35 bd 99 ab 2c bd af f7 19 bd a3 bf a0 bd
       -0.04436876 -0.042155836 -0.037589725 -0.07849052
0000c0 0c fb 98 bd 02 75 44 3d 0a 44 c5 3c ac d0 25 bd
       -0.074697584 0.04796315 0.024080295 -0.040482208
0000d0 03 2b df bc 0c 21 1c bd c2 30 aa ba 34 13 5f bd
       -0.02724219 -0.038117453 -0.0012984502 -0.054461673
0000e0 54 fd 87 bd 01 ac f3 bc a5 fc 23 bd 66 02 0e bb
       -0.066401154 -0.029745104 -0.040035862 -0.002166891
0000f0 9c 20 e5 bc 03 aa 1d 3c d3 9f ce 3c fa c9 53 3d
       -0.02796965 0.0096230535 0.025222695 0.05170629
000100 18 b0 2b bd fa 0d 7b bc b9 bc 6d bd 3b d6 5d bd
       -0.041915983 -0.0153231565 -0.058041308 -0.054159384
000110 59 60 41 3d 90 b0 c6 3b 5f a2 68 3d 09 29 31 bd
       0.047211025 0.0060635284 0.056795474 -0.043252025
000120 b1 42 7c bd d6 f6 35 bd 8b f7 53 3d 58 81 18 3d
       -0.06158704 -0.044424854 0.051749747 0.037232727
000130 23 15 44 bd 41 73 09 3c 59 27 a9 bc 99 79 8d 3c
       -0.04787172 0.008389295 -0.020648645 0.017269896
000140 31 82 87 bd 5d 85 57 bd 7a 17 1d 3c c2 bf 42 3d
       -0.06616629 -0.05261742 0.009588117 0.047546156
000150 b1 e6 91 3d ee 47 a6 bc a2 94 e3 3c 32 ef a5 3c
       0.07124079 -0.02029797 0.027780835 0.020255659
000160 96 7e 8c 3c 26 55 b3 bc 06 4e 7e 3d 40 91 16 bd
       0.017150205 -0.021891188 0.062086128 -0.036759615
000170 40 32 3e bd fc f0 fc 3c 30 95 9a bd 05 18 5a 3c
       -0.04643464 0.030876629 -0.075479865 0.013311391
000180 0e b3 72 bd 33 6f 09 bd 4b 2d 90 3d 0d 76 01 bd
       -0.05925279 -0.033553313 0.07039889 -0.031606723
000190 e4 60 7a 3d 9b 5a a1 bc f2 de 4b bc e0 41 ba bc
       0.06112756 -0.019696524 -0.012443291 -0.02273649
0001a0 84 db 64 3c 45 7f 27 3c 3e 02 2c bd 6c c8 04 bc
       0.013968352 0.0102232145 -0.041994326 -0.008104425
0001b0 36 87 0b 3d 90 bf 63 bc 56 82 90 3c 4a a6 32 bc
       0.034064494 -0.0139006525 0.017640274 -0.010903904
0001c0 24 e5 93 3a de ac c0 3c ba f7 75 bc 17 fa 43 3b
       0.0011283499 0.02351993 -0.015012676 0.0029903704
0001d0 fe 94 0c 3b fc 5b 48 3d 0f f0 23 bc 1c a3 90 3a
       0.002145111 0.048915848 -0.010005965 0.0011034939
0001e0 b5 14 0c 3d 08 d4 d7 3b 83 96 84 bc d1 87 7b 3d
       0.034199435 0.0065865554 -0.01618505 0.06140882
0001f0 dd 52 11 3c 6c 05 99 3d ff 74 32 3d 02 71 c2 bb
       0.008869854 0.07471737 0.043568607 -0.0059338817

network.9.weight f4 [64, 128]
000000 fb aa 80 3d 0f 06 8d bd 11 3c 8d 3c 4b 16 a4 3d
       0.06282612 -0.06885921 0.017240556 0.080120645
000010 b6 d3 43 3d 8c 51 a4 bd f7 11 a5 3d 5d 91 57 bd
       0.047809325 -0.08023366 0.08060067 -0.052628864
000020 ca d9 24 bc d4 62 14 bd 5b f0 41 bc c8 0c 55 3d
       -0.010061691 -0.036227062 -0.01183709 0.052014142
000030 67 fb ad bd a8 ae ef bc 6d 68 b6 3d c8 29 02 bc
       -0.08495217 -0.029258087 0.089066364 -0.007944532
000040 0f dd 58 3d 93 83 7e bd a2 25 80 3d 26 08 c4 b8
       0.052945193 -0.062137198 0.06257178 -9.347526e-05
000050 17 38 e2 bc cf 30 38 bd c8 f8 23 bd dc bb ce bc
       -0.027614636 -0.044968423 -0.04003218 -0.025236063
000060 c0 76 a7 3d f1 98 3c 3d 3a 35 9c bd 24 7f b0 3b
       0.08176947 0.046044294 -0.0762734 0.00538625
000070 92 47 27 3d b0 06 7b 3d fe b9 46 3d c1 45 fe bc
       0.04083974 0.061285675 0.04851722 -0.03103912
000080 11 cf 09 bd fd 47 48 bd 95 71 c2 3c f7 4b a1 3d
       -0.03364474 -0.04889678 0.0237358 0.07875817
000090 be 61 2b bd fb d7 55 3d 1a 5c a3 3d 4a 5e 01 bd
       -0.04184126 0.05220793 0.07976551 -0.03158406
0000a0 3a 13 3e bd 76 cc 96 3c c4 44 84 3a 7a 3f 9f 3d
       -0.046405055 0.018408041 0.0010091295 0.07775779
0000b0 9b 06 8e bd 89 65 20 bd 08 07 3e 3d a8 64 4d bd
       -0.06934854 -0.03915933 0.046393424 -0.05014482
0000c0 3c f4 f6 3c a4 c8 9e 3d 45 3c c3 3c 39 ec b2 bc
       0.030145757 0.07753113 0.02383245 -0.021841155
0000d0 d8 43 c5 3d c2 97 5d 3d 6a 92 81 3d f2 dc 18 3d
       0.09632081 0.054099806 0.063267544 0.037320085
0000e0 70 9f b6 3d 2f 97 0f bc 48 66 9b 3a 24 81 bb bc
       0.08917129 -0.008764072 0.0011856044 -0.022888727
0000f0 e9 5e 55 bd 32 5c 1b bd 12 97 b3 bc cb d1 a9 bd
       -0.052092467 -0.03792972 -0.021922622 -0.08291968
000100 84 ae 4b bd 0f 80 0e 3d 7c 28 10 3c 40 7d 04 3d
       -0.049726978 0.034790095 0.008798715 0.03234601
000110 ec 42 4f 3d f2 be 3b 3d c1 49 a3 3c b5 5d c6 bb
       0.05060093 0.045836397 0.01993263 -0.006053651
000120 f1 34 57 3c 80 96 19 3c 37 c0 69 bd 41 90 aa bd
       0.013135181 0.009374261 -0.057068076 -0.083282955
000130 1c 71 f0 3c 4d 6e 58 bd 0e 03 0b 3c 5f ed 23 bc
       0.02935081 -0.052839566 0.008484615 -0.010005324
000140 0b 12 7d bc cd cf 6c bd b2 ee ad 3c b2 85 33 3d
       -0.015446196 -0.05781536 0.021231983 0.043828674
000150 ec 00 8a bc b8 cb 48 3d c5 24 2a 3d e3 d9 8b 3c
       -0.016846143 0.049022406 0.041538972 0.01707167
000160 d3 7f 93 bc eb e2 b7 3d ae 82 23 3d 69 2f 4b 3d
       -0.018005287 0.08978828 0.039919548 0.04960576
000170 70 a5 37 3d f4 a8 a8 bc 40 d4 90 3c d5 4e 23 3d
       0.044835508 -0.020588376 0.017679334 0.039870102
000180 a6 44 01 bc 0f 92 2b bd a3 72 f1 3b d3 57 9a bd
       -0.007889902 -0.04188734 0.007368402 -0.075362824
000190 1e f2 1a bb cf 51 21 bd 85 bb 02 bd 42 8b d2 3c
       -0.0023642848 -0.03938466 -0.031917114 0.025701169
0001a0 ed 19 aa 3d d5 c6 77 bd e1 97 57 3d e7 7b fe 3c
       0.08305726 -0.060492355 0.052635077 0.03106494
0001b0 7f 1e b6 bc e5 75 10 bd bf 70 6f 3d 88 c2 ab 3d
       -0.022231339 -0.035268683 0.058457132 0.08386713
0001c0 52 13 7e bd bb 7a 97 3d d9 09 d6 3c 70 b5 a6 bd
       -0.062030144 0.07396456 0.026127743 -0.08140075
0001d0 55 e9 4f 3d 6a af 67 bd f4 76 ba bc 11 8e 1e 3d
       0.050759632 -0.056563772 -0.0227618 0.038709704
0001e0 21 85 8a 3d 2e dd 16 bd 14 66 96 bd 53 34 8d 3a
       0.067636736 -0.036832027 -0.073436886 0.001077304
0001f0 cf e4 22 3b bb 6f e5 bc a1 25 05 bd b8 75 65 bd
       0.0024855619 -0.028007379 -0.03250659 -0.05602047
000200 90 35 05 3d b1 a3 6f 3d 74 52 ab 3d 86 e9 93 3d
       0.032521784 0.058505718 0.08365336 0.072222754
000210 83 ac e5 ba 11 11 0e 3d 12 5d 2d 3d ad 51 d8 ba
       -0.0017522726 0.034684245 0.042325087 -0.0016503833
000220 6a 85 26 3c 8e 0b a1 bc c7 9e 7a 3d 77 12 26 3d
       0.010163644 -0.01965883 0.061186578 0.040544953
000230 cc 00 d9 3c fa 11 1e bd 22 73 87 3b b8 70 7f 3d
       0.026489638 -0.038591363 0.004133598 0.062363356
000240 5a 57 01 3b 0f ad 80 3d cd 81 9f 3c 23 68 31 bd
       0.0019735903 0.06283008 0.019471074 -0.043312203
000250 ee 13 cd 3c 9c 09 47 3c e9 26 68 3d 7c f6 7b 3d
       0.025033917 0.012148287 0.056677733 0.061514363
000260 3a 2e 62 bd 2a f6 0a bd 56 10 5c bd c1 0f 8b 3d
       -0.055219866 -0.033926167 -0.053726517 0.06790114
000270 0f 2f ec bc e0 4b 8a 3d 43 a4 17 bd 5c d7 aa bd
       -0.028831033 0.06752753 -0.037021887 -0.08341858
000280 e5 38 0b bd 3e 16 74 3d d2 71 be bc c5 ae 82 bd
       -0.033989806 0.059591524 -0.023247633 -0.06380991
000290 6f 2e b8 bc 14 15 62 bc c0 a8 7f bc 58 68 b9 bc
       -0.022483079 -0.013798971 -0.015604198 -0.022632763
0002a0 a2 75 e5 3c 5b 01 0d bd d1 46 f3 3c 7d 24 d5 bc
       0.028010193 -0.03442512 0.029696854 -0.026018376
0002b0 2f 30 a3 3c 41 ef 4f 3b e3 80 9d 3c 49 b6 f2 bc
       0.019920437 0.00317283 0.019226497 -0.029627936
0002c0 71 f6 5b bc 19 4a 0a 3d df 30 97 3d ae a3 65 bc
       -0.013425455 0.03376207 0.07382368 -0.014016075
0002d0 b0 cd 71 3d 05 15 40 3b 02 f1 78 bc 1e 78 97 bd
       0.05903405 0.0029309404 -0.0151941795 -0.073959574
0002e0 9b e6 9a 3c 66 70 09 3c 65 3d 63 3d d3 10 7e bd
       0.01890879 0.008388614 0.055478472 -0.062027764
0002f0 79 87 f4 bb 20 22 99 3d 5d 6e aa 3d 2d 56 ab bd
       -0.0074624387 0.07477212 0.083218314 -0.08366046
000300 dd 07 21 3d 61 2b 83 bd 57 97 50 bd 9c 24 32 3d
       0.03931414 -0.06404758 -0.05092558 0.043491945
000310 ce 83 8d bd f0 d5 60 bd 84 d0 80 bc 75 0f 4a 3c
       -0.069099054 -0.054891527 -0.015724428 0.012332787
000320 a7 33 a5 3d 3d 82 c1 3c ea 5f 8f bd 3a bf 7b 3d
       0.080664925 0.023621673 -0.07000716 0.061461665
000330 5d 92 a5 3b b3 93 6d 3d 9d e0 01 3c 2e cd a0 3d
       0.0050528483 0.058002185 0.007927087 0.07851635
000340 41 65 ab 3d 04 78 a3 bd 8e d1 26 bc e5 64 84 3d
       0.08368922 -0.079818755 -0.010181798 0.064645566
000350 cb 14 a9 3d e4 0f d2 bc c8 04 f1 b8 36 cd bf 3d
       0.08255919 -0.025642343 -0.00011492666 0.09365313
000360 24 0a 55 bd 74 7c a2 3d 7f fb 69 3d 19 70 9f 3d
       -0.052011624 0.07933894 0.05712461 0.07785053
000370 7b c2 8a bd df 31 9f bd 38 41 a8 bc 1f d3 18 bc
       -0.067753755 -0.07773184 -0.020538911 -0.009327679
000380 4c d5 78 3d 4f 76 a1 bd 98 e2 3d 3d e2 f9 8f bd
       0.06075029 -0.07883894 0.046358675 -0.07030083
000390 ef 1e 80 3d 9b d2 9b bd c0 d0 f8 bc 6b 98 0d bd
       0.062559 -0.07608529 -0.030372977 -0.034569185
0003a0 6c 58 15 bc f9 dd 72 3d d3 0c dd 3c c9 29 af bc
       -0.00911532 0.05929372 0.026983654 -0.02138223
0003b0 3d 76 60 3d 0c 6d b0 3c 10 34 e1 3c 95 00 9e 3d
       0.05480026 0.021536373 0.027490646 0.07714955
0003c0 3e 9e 20 bd fe 90 a6 3d f8 35 9c 3c e9 6b 7e bb
       -0.03921341 0.08133124 0.019068703 -0.0038821644
0003d0 db 2a 1b bd 83 03 8e bc 2a dc 31 bd 0c bf b5 3c
       -0.037882667 -0.017335659 -0.043422855 0.022185825
0003e0 60 1e 44 bc a6 bd 92 bd a8 d5 ba 3d 68 92 f0 3c
       -0.011970133 -0.07165079 0.09122783 0.029366687
0003f0 58 f6 52 bd 73 d9 8a bd 59 a9 96 bd 7e c1 57 bc
       -0.051504463 -0.067797564 -0.07356519 -0.013168691

network.9.bias f4 [64]
000000 bf ad 6c 3d 1b 05 3c 3c 1c 1a 10 bd 7c 86 5b 3c
       0.057782885 0.011475827 -0.03518115 0.013398763
000010 13 08 9f 3d d9 15 da bd 23 2b bf bc cb 08 0b bd
       0.07765212 -0.10648698 -0.023335999 -0.033943933
000020 62 eb cb 3a 37 8f 69 bd 21 b6 a8 3c e9 c7 3c bc
       0.001555782 -0.057021346 0.020594658 -0.011522272
000030 7c 18 41 bd 89 58 84 3d 80 07 d4 bb af 77 b0 bd
       -0.04714249 0.06462199 -0.0064706206 -0.08616578
000040 51 5a cf 3d e9 8e b9 bd b0 47 66 3d 82 fe 1a 3d
       0.10124648 -0.09060461 0.05622071 0.037840374
000050 8d ad 57 3d 5d fa d5 3c 72 e0 1d bc d6 bf c7 3d
       0.052655745 0.02612036 -0.009636031 0.09753387
000060 a7 53 e0 3c ff cf bb 3d a1 bc 22 3d 44 f4 eb bb
       0.027383639 0.091705315 0.03973067 -0.0072007496
000070 9b 50 ee bc dd 9e 93 bd 0d 6d a7 bd 0d 8b 43 bc
       -0.02909117 -0.07208035 -0.08175097 -0.011935008
000080 81 dc c0 3d e5 8e 1f 3d 53 34 1f bd 50 39 72 bd
       0.09417058 0.038954634 -0.03886826 -0.05913669
000090 7c 8f 66 3d 7a d2 7e bd eb 9e 9a ba 80 ef 83 3c
       0.05628918 -0.062212445 -0.0011796629 0.016105413
0000a0 36 5c 84 bd 5c 73 a2 3d 54 65 60 3c 8c 11 b8 3d
       -0.064629 0.07932159 0.0136960335 0.08987722
0000b0 9f 32 da bd a4 ac 7c 3d f5 54 a6 bd ae f1 db 3c
       -0.106541865 0.06168808 -0.08121673 0.02684864
0000c0 74 23 01 3d df cb b1 3b e8 aa a8 bd 8e 98 81 bd
       0.03152795 0.0054259147 -0.08235723 -0.063279256
0000d0 39 ad d2 3d c0 ec 2b 3c a5 1d ec bd 91 f1 9b bd
       0.10286946 0.010493457 -0.11529092 -0.076144345
0000e0 d2 ad 94 3d 45 94 5d 3d 7b a9 0e bd 72 c5 78 3c
       0.07259716 0.05409648 -0.034829598 0.015183793
0000f0 47 75 36 3d 07 9a 88 3d dc eb 99 bd 77 55 12 3d
       0.04454544 0.066700034 -0.0751569 0.035726037

network.12.weight f4 [1, 64]
000000 15 9e 65 3d 00 53 55 3d 81 5e ba 3d 13 23 29 bd
       0.056058962 0.052081108 0.091000564 -0.041293215
000010 98 a3 c3 3d fb 6a 27 bc 59 e5 7b bd 71 0b f2 3d
       0.095526874 -0.010218377 -0.06149802 0.118185885
000020 50 fd 99 3d 59 f8 b9 bd 5e 5c 67 3d 52 a8 92 3c
       0.07519019 -0.09080572 0.056484573 0.017902527
000030 b4 2b 9c 3c 6d 8d 27 bc 52 b3 c3 3d 15 ca f8 bc
       0.019063808 -0.01022659 0.09555687 -0.030369798
000040 48 a8 d2 3d bb 57 a0 bd 9e e6 47 bd 4e 15 a1 3d
       0.10286003 -0.07829233 -0.048803918 0.07865392
000050 73 9a fc 3d 14 f1 52 3b b3 70 99 bd 57 ab 29 3d
       0.12334146 0.003218715 -0.07492199 0.041423168
000060 5d 65 71 bd 9f 44 af 3c 7b b0 33 bd e4 d0 72 3d
       -0.05893456 0.021395026 -0.043869477 0.059281245
000070 ec 16 fb 3d cb 5a ff bc 4c e0 a8 bd 58 90 e6 3b
       0.122602314 -0.031171223 -0.08245906 0.00703625
000080 a8 74 35 3d 34 87 34 3d b2 da 00 bb 4f 39 03 3e
       0.044300705 0.044074252 -0.0019661603 0.1281483
000090 a8 4a c6 3d 4b ad 37 3d 10 5c d9 3d c1 5a d2 3d
       0.09682208 0.044843 0.10613263 0.10271216
0000a0 65 4f 1b bd 41 42 d3 3c f1 08 2b 3d 96 4b 61 3d
       -0.037917513 0.025788428 0.041756574 0.055003725
0000b0 9a cf c4 bb 12 78 96 3b d7 b2 74 bd fe 52 e4 3d
       -0.0060061933 0.00459195 -0.059740867 0.11148642
0000c0 f2 bf f0 3d d3 37 6b 3d 0a 3d d8 bd ff ef 80 3d
       0.11755361 0.057426285 -0.10558517 0.062957756
0000d0 53 44 b7 3d a3 b3 98 bd 79 74 a3 bc 8a 8c dc bd
       0.08948579 -0.07456138 -0.019953 -0.10768993
0000e0 87 ab 16 3d bf 87 ad bc 13 75 bc bd e8 c2 a4 bd
       0.036784675 -0.021182893 -0.09202018 -0.08044988
0000f0 ff 4b 9e 39 d7 a1 e8 3d 25 ed 33 bd 2b 21 75 bd
       0.0003019273 0.113589935 -0.04392733 -0.059846085
