wandb/run-20251108_170913-2la4bean/files/best_model.pth (torch, 240909 bytes, 7 tensors)

network.0.weight f4 [256, 70]
0	0x3d901f2f	0.07037198
1	0x3d848b6d	0.06471906
2	0xbd9c2d0e	-0.07625781
3	0xbc388880	-0.011263013
4	0x3d89b294	0.06723514
5	0x3bbcbb6a	0.005759646
6	0xbe1622ca	-0.14661708
7	0xbc431091	-0.011905805
8	0x3d600b1f	0.054698106
9	0x3d684b5f	0.056712504
10	0x3dfc5294	0.12320438
11	0xbdd99efc	-0.10626027
12	0x3deaeab5	0.11470548
13	0xbdf0ec02	-0.11763765
14	0x3de24247	0.11047798
15	0xbdc6f54b	-0.09714755
16	0xbd109a2b	-0.035303276
17	0xbc80cc6b	-0.015722474
18	0x3d84b769	0.06480295
19	0xbded7f4a	-0.11596544
20	0xbc7e019b	-0.015503312
21	0x3dd44cb1	0.1036619
22	0x3d0a7689	0.03380445
23	0x3dc0b85f	0.09410166
24	0x3c44b4c0	0.012005985
25	0xbd6c42b6	-0.057680808
26	0xbd9d4aa0	-0.07680249
27	0x3cb55ff8	0.022140488
28	0x3da8cab3	0.08241787
29	0x3d2c0fee	0.04200738
30	0xbe0e4bf4	-0.13896161
31	0x3d8d5a8b	0.06902035
32	0xbcd8de8d	-0.026473308
33	0x3c980198	0.018555447
34	0xbd3f016d	-0.04663222
35	0x3c85e68c	0.016345285
36	0x3d80462f	0.062633865
37	0xbdc5dc9e	-0.0966122
38	0x389c8116	7.462704e-05
39	0xbe05ea6a	-0.13077703
40	0x3c560f2a	0.013065139
41	0x3d2817b3	0.041038226
42	0xbd86ac2f	-0.0657581
43	0xbc0a2a45	-0.008432929
44	0x3dc7b988	0.09752184
45	0x3b1056fd	0.0022024505
46	0x3ba4a0a9	0.005024035
47	0xbd1f7b3b	-0.03893588
48	0x3d07b6f7	0.033133473
49	0xbce96ac7	-0.028493298
50	0xbd078515	-0.0330859
51	0xbce58217	-0.028016133
52	0x3c41e8fd	0.011835334
53	0xbd881451	-0.066445
54	0xbd725eb7	-0.05917236
55	0x3d9bdc3f	0.07610368
56	0x3d7b906a	0.06141702
57	0x3d802c44	0.06258443
58	0x3cdb4df2	0.026770566
59	0xbdc81fb6	-0.097716734
60	0x3d8689fc	0.06569287
61	0x3d9bd541	0.07609034
62	0x3dd3a52c	0.103342384
63	0xbcf28fcc	-0.029609583
64	0xbd7baa75	-0.061441857
65	0x3d022891	0.03177697
66	0xbd57d9e5	-0.052698035
67	0x3dc6d1f4	0.09708014
68	0x3d93a7dc	0.07209751
69	0x3dd4b046	0.10385184
70	0xbe05d5f4	-0.13069898
71	0x39bb7a5c	0.00035758584
72	0x3dae5443	0.085121654
73	0x3d1e942d	0.03871553
74	0x3dc20365	0.09473304
75	0x3ad6dc7a	0.0016392611
76	0x3e27f52d	0.16402121
77	0xbc24b522	-0.010052951
78	0x3dfa9cc0	0.12236929
79	0xbd3ba9e5	-0.04581632
80	0xbcdb3752	-0.026759777
81	0x3cf82667	0.03029175
82	0xbe052cc1	-0.13005354
83	0x3ceb1d94	0.028700627
84	0xbd7e1301	-0.062029842
85	0xbe0858da	-0.13315144
86	0xbe0c5850	-0.13705564
87	0x3d17b974	0.037042096
88	0x3dd20602	0.10255052
89	0xbdbe089e	-0.09278987
90	0xbd2ce856	-0.04221376
91	0xbc3a3c04	-0.011366848
92	0xbd275c09	-0.040859256
93	0xbd58b887	-0.052910354
94	0xbdbce473	-0.09223261
95	0x3c7a2b83	0.015269163
96	0x3da2d27d	0.07950304
97	0x3c4664bc	0.012108978
98	0x3de5255a	0.11188765
99	0x3c404c79	0.0117369825
100	0x3b2b5ed8	0.002614906
101	0xbcd08691	-0.025454791
102	0x3dd212d6	0.10257499
103	0xbd9ca6d0	-0.076490045
104	0x3d8b2300	0.06793785
105	0xbdc0bb2b	-0.094106995
106	0x3d6f48e4	0.058419123
107	0xbd11ba5c	-0.035578117
108	0xbdd9f4b6	-0.10642378
109	0xbba42501	-0.005009294
110	0x3de2e3f3	0.11078634
111	0x3d846e57	0.06466358
112	0x3db2b05c	0.08725044
113	0xbcefc0ce	-0.029266741
114	0xbdcda873	-0.10041895
115	0xbdd8eafe	-0.10591696
116	0x3cce3dc6	0.02517594
117	0x3d4cf7e8	0.05004111
118	0xbbf37472	-0.007429653
119	0x3d1bd9a8	0.03804937
120	0x3d8c5ab5	0.068532385
121	0xbda294a5	-0.07938508
122	0xbd978e64	-0.07400206
123	0x3da78b08	0.08180815
124	0xbd3893b6	-0.045062743
125	0xbe107a5a	-0.14109173
126	0xbde2914f	-0.11062872
127	0xbd648ec5	-0.055800218
128	0x3dca1acb	0.098683916
129	0x3d6a65dd	0.05722605
130	0xbda836b0	-0.08213556
131	0x3de37fc7	0.11108356
132	0xbdff4893	-0.12465014
133	0x3d082399	0.033237074
134	0x3dfa6327	0.12225943
135	0xbc91ba6f	-0.017789094
136	0xbd79dc47	-0.06100109
137	0x3c506279	0.01271879
138	0xbdf4e8ee	-0.1195849
139	0xbdb8a705	-0.090162314
140	0xbd06ff41	-0.032958273
141	0xbe0ac343	-0.13551049
142	0x3dc0ac58	0.09407872
143	0xbd88113f	-0.066439144
144	0x3d921692	0.07133211
145	0xbd3929a5	-0.04520573
146	0x3d8cb57c	0.06870553
147	0xbd84c1bd	-0.06482265
148	0xbc76223e	-0.015022812
149	0x3d18cfbc	0.037307486
150	0x3e07f3a2	0.13276532
151	0xba81b266	-0.0009895086
152	0x3d35f418	0.04442224
153	0x3c22c928	0.009935655
154	0x3dc7eeed	0.09762368
155	0x3c2a6fcd	0.010402632
156	0x3d610606	0.054937385
157	0xbdde8243	-0.10864689
158	0x3db365a4	0.08759621
159	0x3cdf2263	0.027238077
160	0xbcd8f9e9	-0.026486354
161	0xbd814280	-0.06311512
162	0x3d5dff3c	0.05419849
163	0xbdd2658d	-0.102732755
164	0xbd17d710	-0.037070334
165	0x3d8a5e38	0.06756252
166	0xbd8d41f7	-0.068973474
167	0x3da9bc95	0.08287922
168	0xbde8addf	-0.11361288
169	0xbe07949d	-0.13240285
170	0xbd8729a0	-0.06599736
171	0xbdbfd472	-0.093666926
172	0x3ca1adde	0.019736227
173	0xbd50ede9	-0.05100814
174	0xbc9c1889	-0.019054668
175	0xbdd67b03	-0.104726814
176	0x3e05ec8e	0.1307852
177	0xbc1b146d	-0.009465319
178	0xbd7dcfde	-0.061965816
179	0xbd337eeb	-0.04382221
180	0xbd5fb6c9	-0.054617677
181	0x3d84c7f5	0.06483451
182	0x3d9804f7	0.07422822
183	0xbabe5646	-0.0014521561
184	0xbe065912	-0.13119915
185	0x3e1e7106	0.15472803
186	0xbd5c87ab	-0.05384032
187	0x3cc32b26	0.023824286
188	0x3dc482d7	0.09595268
189	0x3cc8c8a9	0.024509745
190	0x3de10ce1	0.109887846
191	0x3d8a5b8c	0.067557424
192	0x3b87646d	0.0041318447
193	0x3d349c5d	0.044094432
194	0xbdacd703	-0.08439448
195	0xbd2bb360	-0.041919112
196	0xbdb090f8	-0.086214006
197	0xbd2679ff	-0.04064369
198	0xbde2544e	-0.11051236
199	0xbc31e980	-0.010858893
200	0x3da2b155	0.0794398
201	0xbcc94a14	-0.024571456
202	0xbc28364f	-0.010266854
203	0xbcd7ca3a	-0.026341546
204	0x3dad32cd	0.08456955
205	0x3b3aa5fa	0.0028480277
206	0xbd2099b5	-0.039209086
207	0xbc5f7f0b	-0.013641129
208	0x3c90ca7b	0.017674675
209	0xbd2f8746	-0.042853616
210	0xbdf946f7	-0.121717386
211	0xbd7b0763	-0.06128634
212	0xbda71e3d	-0.08160064
213	0x3cfb410a	0.030670661
214	0x3d57d809	0.05269626
215	0x3d3f65c4	0.04672791
216	0x3dbc91c6	0.092074916
217	0xbdbf3fae	-0.09338318
218	0xbc9161f1	-0.017746897
219	0x3d8e160e	0.069378
220	0x3df6e16e	0.12054716
221	0xbd82e413	-0.06391158
222	0xbe17b518	-0.14815176
223	0xbe0121f4	-0.12610608
224	0xbda1823e	-0.0788617
225	0xbe0ac114	-0.13550216
226	0x3dec204c	0.11529598
227	0xbe008f2d	-0.12554617
228	0x3d72b5f1	0.059255544
229	0x3d4ddc6f	0.05025905
230	0x3bc512d6	0.0060142083
231	0x3c502e5d	0.012706366
232	0x3cde95c1	0.027171018
233	0x3d4dd720	0.050253987
234	0xbd392c64	-0.04520835
235	0xbdc44d08	-0.09585005
236	0x3dde0fff	0.10842895
237	0x3d9030c6	0.07040553
238	0xbad624e7	-0.0016337902
239	0x3d655fe8	0.055999666
240	0xbcf23d0e	-0.029570129
241	0xbdcd54f5	-0.1002597
242	0xbccc6c67	-0.024954034
243	0xbd54f0b3	-0.05198736
244	0x3d536255	0.05160745
245	0xbd92a624	-0.07160595
246	0xbd99b50e	-0.075052366
247	0xbc7211ce	-0.014774753
248	0xbdd35d23	-0.10320499
249	0x3db36c90	0.08760941
250	0xbc0deb29	-0.008662024
251	0x3cb025e3	0.02150244
252	0x3da7cd99	0.081935115
253	0xbd3ced1e	-0.04612457
254	0x3d572d55	0.052533466
255	0x3ce113e5	0.027475307

network.0.bias f4 [256]
0	0xbb1a1da4	-0.0023516202
1	0xbb95a95f	-0.0045673097
2	0xbd612e7b	-0.054975968
3	0x3d8d4330	0.068975806
4	0x3cb1eb91	0.021718772
5	0x3de67820	0.11253381
6	0xbd8186a5	-0.063245095
7	0xbd14f334	-0.03636475
8	0x3be7351d	0.007055892
9	0xbdbdbebc	-0.09264895
10	0x3db981d0	0.09057963
11	0x3dccd59e	0.10001682
12	0xbdd60ca1	-0.104516275
13	0xbe0b4e34	-0.13604051
14	0xbdc5aff9	-0.09652705
15	0x3d529301	0.051409725
16	0x3d56b020	0.05241406
17	0x3de7a8a7	0.11311465
18	0xbd89ee29	-0.067348786
19	0xbde8910f	-0.11355793
20	0x3c9df87b	0.019283524
21	0x3da20df9	0.07912821
22	0x3c72255d	0.014779416
23	0xbcca01c9	-0.024659054
24	0xbd2e1958	-0.04250464
25	0xbdda2584	-0.10651687
26	0x3d629f46	0.055327676
27	0x3dee590d	0.11638079
28	0xbdbf172f	-0.09330594
29	0x3cc2742a	0.023737032
30	0xbd67fab9	-0.056635592
31	0xbb983d8a	-0.004646008
32	0x3dca8d1c	0.09890196
33	0x3d3d0a4d	0.0461524
34	0xbd317048	-0.04331997
35	0x3d18d0bb	0.037308436
36	0xbcae7a72	-0.02129862
37	0x3d631211	0.05543715
38	0xbcd1bb96	-0.025602143
39	0x3dbc2c51	0.0918814
40	0xbd461ac4	-0.04836537
41	0xbd08d202	-0.033403404
42	0xbdc4f6e5	-0.09617404
43	0xbdabe44a	-0.08393152
44	0xbd892acb	-0.06697615
45	0x3c9932f4	0.018701054
46	0xbd63da8c	-0.055628344
47	0xbd47b3ae	-0.04875534
48	0x3e03c59e	0.12868354
49	0x3cd7627a	0.026292074
50	0x3b8f50a5	0.0043736272
51	0x3dbd570f	0.09245121
52	0xbd316312	-0.04330737
53	0x3c9a0b81	0.018804314
54	0x3d1391b5	0.03602763
55	0x3d9dcd17	0.077051334
56	0x3c54353a	0.012952143
57	0x3db3fb45	0.0878816
58	0xbde4d620	-0.111736536
59	0x3b02bef7	0.001995025
60	0x3dd839be	0.105578884
61	0xbdc33efb	-0.09533497
62	0xbddc8f8b	-0.10769566
63	0xbdc80d46	-0.09768157
64	0x3d18ddcb	0.037320893
65	0x3de9f2ad	0.1142324
66	0x3bdeb26b	0.0067961714
67	0xbe123f2b	-0.14281909
68	0xbd8a87db	-0.067641936
69	0x3d900f5b	0.07034179
70	0xbdcaf98c	-0.099108785
71	0xbcb8496b	-0.022495946
72	0x3d9caaa7	0.07649737
73	0x3e0cca68	0.13749087
74	0xbdc07bdd	-0.09398625
75	0xbdcd8994	-0.100360066
76	0x3d2b60ba	0.041840293
77	0x3ca423e5	0.020036647
78	0xbccba476	-0.024858695
79	0x3d03e050	0.032196343
80	0x3d73b249	0.059496198
81	0xbda8e4c0	-0.082467556
82	0xbd707162	-0.05870188
83	0xbaf8d917	-0.0018985596
84	0xbba52c0c	-0.005040651
85	0xbd6991eb	-0.057023924
86	0xbddd05e7	-0.107921414
87	0xbd0fd10e	-0.03511148
88	0xbd51c3d8	-0.05121216
89	0x3c236b64	0.009974334
90	0xbe0812fc	-0.13288492
91	0x3de54953	0.11195626
92	0x3c4c0256	0.012451729
93	0x3d623b3c	0.05523227
94	0x3d239c3b	0.039943915
95	0xbd8fc778	-0.070204675
96	0x3dc33292	0.0953113
97	0xbdf36b3d	-0.118856885
98	0x3d95826c	0.073002666
99	0x3d8fb189	0.07016284
100	0xbcba56ae	-0.02274641
101	0xbdd16d02	-0.1022587
102	0x3d134203	0.035951626
103	0x3b4db469	0.003138805
104	0x3d05df32	0.03268356
105	0xbd1d038d	-0.038333464
106	0xbd5aa0d4	-0.053376034
107	0xbda22632	-0.079174414
108	0xbbf681a4	-0.0075227786
109	0xbe0525c0	-0.13002682
110	0x3d02db65	0.031947512
111	0xbc8f552b	-0.017496666
112	0xbd5e5bfc	-0.054286942
113	0xbdaf5f87	-0.08563142
114	0x3daabbfc	0.083366364
115	0x3dcf0905	0.10109142
116	0xbcd76fb5	-0.026298383
117	0xbcdebdcd	-0.027190113
118	0xbd350c64	-0.04420127
119	0x3cf0696a	0.02934714
120	0x3d4462a8	0.04794565
121	0xbd0031ae	-0.03129738
122	0xba97a158	-0.001156847
123	0xbba7a988	-0.0051166452
124	0x3dc34a38	0.095356405
125	0x3de3d767	0.11125069
126	0xbdb08fc9	-0.08621175
127	0xbc8f111e	-0.017464217
128	0xbd9a8d3e	-0.07546471
129	0xbdde835a	-0.10864897
130	0xbd887c0e	-0.066642866
131	0xbd0c08fa	-0.03418825
132	0x3e026fef	0.12738012
133	0x3de03936	0.10948412
134	0x3d5ac489	0.053410087
135	0x3ba08316	0.004898439
136	0xbdb5de52	-0.08880295
137	0x3dae5fbf	0.08514356
138	0xbd260f0e	-0.0405417
139	0xbb8c2e71	-0.004277997
140	0x3cc91e1e	0.024550494
141	0xbd36b980	-0.0446105
142	0x3ba53385	0.005041542
143	0xbda6011e	-0.08105682
144	0xbd810818	-0.06300372
145	0xbd7d6551	-0.0618642
146	0x3dc68a32	0.096943274
147	0xbb7b21e2	-0.0038319756
148	0xbd2b9647	-0.041891363
149	0x3e13b5c6	0.1442481
150	0xbdec851d	-0.11548827
151	0xbc671c31	-0.014105842
152	0x3e06160d	0.13094349
153	0xbcc1c2ea	-0.023652513
154	0x3db11e38	0.08648342
155	0xbcba6024	-0.022750922
156	0x3d907fed	0.0705565
157	0xbd7d8812	-0.061897345
158	0xbcc33e06	-0.023833286
159	0x3c5a4d6b	0.013324122
160	0xbd07f478	-0.033192128
161	0xbd93183c	-0.07182357
162	0x3c9ee0b2	0.019394252
163	0x3dafd8e5	0.08586291
164	0xbd5c9187	-0.053849723
165	0xbe01e19e	-0.12683722
166	0xbdc1524b	-0.09439524
167	0xbd8ead34	-0.069666296
168	0xbdaa858c	-0.08326253
169	0xbd55d0ba	-0.05220101
170	0xbb11a6b0	-0.0022224598
171	0xbdb2178e	-0.08695899
172	0x3dd9fd9b	0.106440745
173	0x3d7a953c	0.061177477
174	0x3db7af2f	0.089689605
175	0xbd7dc155	-0.061951954
176	0xbdf48888	-0.11940104
177	0xbd005cdf	-0.03133857
178	0xbd2e442e	-0.04254549
179	0xbdbfa8cb	-0.093583666
180	0x3cf6001b	0.030029347
181	0xbce4967f	-0.027903793
182	0x3d01e121	0.03170884
183	0xbe05c46f	-0.13063215
184	0xbdc563a4	-0.096381456
185	0x3d0f0d16	0.03492459
186	0xbd3576cb	-0.044302743
187	0xbd1f80a1	-0.03894103
188	0x3c846c93	0.016165053
189	0x3ceaa682	0.02864385
190	0xbd18ea58	-0.037332863
191	0x3df9dd94	0.12200466
192	0x3c0e74cc	0.008694839
193	0xbdef8f66	-0.11697273
194	0x3df01e3a	0.11724515
195	0xbc9f5a9a	-0.019452382
196	0x3de09c54	0.10967317
197	0xbd4183b2	-0.047244735
198	0x3b2db613	0.002650623
199	0x3dc7d13e	0.09756707
200	0xbc6bb5f9	-0.014386647
201	0x3d1b474d	0.037909795
202	0xbd86983e	-0.06572007
203	0xbd4c6a6d	-0.049906183
204	0x3d9efba7	0.077628426
205	0x3e0dc62a	0.13845125
206	0x3cf632ca	0.030053515
207	0xbd4c263c	-0.04984115
208	0x3d88bad8	0.066762626
209	0x3df010e1	0.117219694
210	0x3c8add45	0.016951213
211	0xbd2bee64	-0.041975394
212	0xbd39d543	-0.045369398
213	0xbc0243c1	-0.007950724
214	0x3ccd4b60	0.025060356
215	0x3d7a6fb9	0.061141703
216	0x3dc102fa	0.09424396
217	0xbdcb0a00	-0.09914017
218	0x3ca81fff	0.02052307
219	0x3de27466	0.110573575
220	0xbd2b08f5	-0.04175659
221	0x3b3c6ce5	0.002875143
222	0x3d9ef42c	0.07761416
223	0x3df227f7	0.11824029
224	0x3d16f29a	0.036852457
225	0xbd8c1bf5	-0.0684127
226	0x3d9f017c	0.07763955
227	0x3d1387b2	0.03601808
228	0x3deae94e	0.114702806
229	0xbd84cc0a	-0.0648423
230	0xbaa8b5f6	-0.0012871611
231	0xbd83a809	-0.064285345
232	0xbcbb7026	-0.022880625
233	0x3bbc3638	0.005743768
234	0x3d99bad0	0.07506335
235	0xbc030ce7	-0.007998682
236	0xbd938473	-0.07202997
237	0x3d9ff33c	0.07810065
238	0xbba791df	-0.0051138247
239	0x3d96d95c	0.07365677
240	0x3d144205	0.036195774
241	0x3dda6716	0.10664193
242	0x3cf3244c	0.029680394
243	0x3d55c28a	0.05218748
244	0xbcde8cec	-0.027166806
245	0x3d65eb70	0.056132734
246	0x3cdd33df	0.027002273
247	0x3dcd3423	0.1001971
248	0xbc38bfc8	-0.011276193
249	0xbd0b2b06	-0.033976577
250	0xbdf613bb	-0.12015482
251	0x3cc312ac	0.023812614
252	0x3dd14995	0.10219113
253	0xbdd563d8	-0.10419434
254	0x3d3d5c42	0.046230562
255	0x3df46227	0.119327836

network.3.weight f4 [128, 256]
0	0x3ce8ebf0	0.028432816
1	0xbd6661dc	-0.05624567
2	0x3cdec0fa	0.027191628
3	0xbc56791d	-0.013090399
4	0xbd2f2aba	-0.042765357
5	0x3cae6bb1	0.021291586
6	0xbbc5a7a1	-0.006031946
7	0x3d221ea9	0.03958002
8	0xbd2209c4	-0.039560094
9	0xbd6238fe	-0.055230133
10	0x3d31f8a7	0.043450024
11	0x3c35aa61	0.011087985
12	0xbd161649	-0.036642347
13	0xbaba0cbc	-0.0014194469
14	0xbd381dd9	-0.04495034
15	0x3d0dc5e0	0.034612536
16	0x3bca1495	0.0061670044
17	0x3d632662	0.055456527
18	0x3d155d0f	0.0364657
19	0x3cda9e1b	0.026686719
20	0xbbf79fd7	-0.007556896
21	0xbcc5bd0c	-0.024137996
22	0xbd00dbf0	-0.03145975
23	0x3cc28d8b	0.023749134
24	0xbd269d0e	-0.040677123
25	0xbd060c88	-0.032726794
26	0x3cbdbf5f	0.023162542
27	0x3d4f1d97	0.05056533
28	0xbd37fda6	-0.044919632
29	0xbd7b2d41	-0.061322454
30	0x3c7f7d8d	0.0155938985
31	0x3d8c0bd3	0.06838193
32	0x3d4b1b54	0.04958661
33	0xbd3e162d	-0.046407867
34	0xbc234726	-0.009965694
35	0xbbb03061	-0.005376861
36	0x3d1604d1	0.036625687
37	0xbd763169	-0.060105715
38	0xbcc19a94	-0.023633279
39	0xbcdf557b	-0.02726244
40	0xbd59b6c7	-0.053152826
41	0x39dd571f	0.00042217315
42	0x3d434616	0.04767426
43	0x3d1a01b5	0.037599284
44	0xbd7e61b7	-0.062104907
45	0xbca71e59	-0.020400213
46	0x3cb75ec8	0.022384062
47	0xbd454c32	-0.04816837
48	0x3bd95777	0.006632741
49	0x37bd2810	2.2549211e-05
50	0x3d5c985d	0.053856242
51	0xbba4f57c	-0.005034147
52	0x3c7ca887	0.015421039
53	0xbd6e4511	-0.058171336
54	0x3d413f52	0.047179528
55	0xbbb2bd90	-0.0054547265
56	0x3d04c885	0.032417793
57	0xbd3e6690	-0.04648453
58	0xbbbe8132	-0.005813741
59	0xbc2356dd	-0.00996944
60	0xbcda7650	-0.026667744
61	0xbd2f0b62	-0.042735465
62	0xbd2f30bf	-0.042771097
63	0x3c8c6390	0.017137319
64	0x3c426ba7	0.011866487
65	0x3d8470f4	0.064668566
66	0x3d60d5fb	0.054891568
67	0x3d38df48	0.045134813
68	0xbbc8fc32	-0.0061335796
69	0xbd643cc5	-0.055722017
70	0xbd2ed258	-0.04268107
71	0xbba6a6a7	-0.0050857845
72	0xbcbe8d39	-0.0232607
73	0x3b0bda12	0.0021339697
74	0x3d1f081f	0.038826104
75	0xbd048a94	-0.03235872
76	0xbd494998	-0.04914245
77	0x3c3bb6f2	0.011457192
78	0x3cc08688	0.02350165
79	0x3d588afa	0.052866913
80	0xbc9e3952	-0.019314442
81	0xbd6a65b1	-0.057225887
82	0x3d33a5cd	0.04385929
83	0x3cca4a04	0.024693497
84	0xbd11b157	-0.035569515
85	0x3d69b093	0.05705316
86	0xbc4acd7b	-0.012378092
87	0x3d042477	0.032261338
88	0xbcb06484	-0.021532305
89	0x3c2f3dc2	0.010695877
90	0xbd7a5904	-0.06112005
91	0x3d6fdf1b	0.05856238
92	0xbd399847	-0.04531124
93	0x3d2ed176	0.042680226
94	0x3b50638f	0.0031797623
95	0xbcfadbd2	-0.030622397
96	0x3d5eadc5	0.05436494
97	0xbcb2a728	-0.021808222
98	0xbd3e93b1	-0.04652757
99	0x3cbfc93f	0.023411391
100	0xbc876510	-0.016527683
101	0xbcf5e951	-0.03001848
102	0xbbff38c1	-0.007788748
103	0xbb34852a	-0.0027545192
104	0x3ccf453a	0.025301564
105	0xbc2ce13c	-0.010551747
106	0x3cc5003a	0.02404796
107	0x3c9fe2bb	0.019517293
108	0x3d4f59c0	0.0506227
109	0x3d641378	0.05568263
110	0x3d344371	0.04400963
111	0x3d576965	0.052590746
112	0xbd0400b5	-0.032227237
113	0xbacffbc9	-0.0015867885
114	0x3c9b6ebf	0.018973706
115	0x3c00b0bc	0.007854637
116	0x3d486760	0.04892671
117	0xbd1a25af	-0.037633594
118	0x3c3a7fdc	0.011383023
119	0x3cf992b8	0.030465469
120	0x3d52b8f5	0.05144592
121	0x3d5e71c7	0.054307725
122	0x3d17052a	0.03687016
123	0xbcf2ed51	-0.029654177
124	0x3d545658	0.051840156
125	0xbcc8b78a	-0.02450158
126	0xbcbf73ac	-0.023370586
127	0x3d071273	0.03297658
128	0x3c531e68	0.012885667
129	0x3d29edb0	0.041486442
130	0xbc92b855	-0.017910162
131	0xbd299160	-0.041398406
132	0x3b9f46cc	0.0048607346
133	0x3cc625cc	0.024187945
134	0xbd854e62	-0.06509091
135	0x3d2832c4	0.04106404
136	0x3c9586d7	0.018252773
137	0xbc41c09a	-0.011825705
138	0xbcfffa1b	-0.03124719
139	0xbcf15064	-0.029457279
140	0x3d26d302	0.040728576
141	0x3d3cfada	0.04613767
142	0x3d00a949	0.031411443
143	0x3d67ad71	0.05656189
144	0x3d8b8492	0.06812395
145	0x3b34b230	0.0027572028
146	0xbd5b94ee	-0.053608827
147	0xbd1a661c	-0.037695035
148	0xbd53d204	-0.05171396
149	0x3d0380ce	0.03210526
150	0xbd50cdbf	-0.050977465
151	0x3b875dde	0.004131063
152	0x3c87c46d	0.016573155
153	0xbd7f2137	-0.062287536
154	0xb9faa878	-0.00047809235
155	0x3d1efe51	0.038816754
156	0xbd429ed2	-0.047514744
157	0xbcfa25a9	-0.030535536
158	0xbbf90dc6	-0.007600519
159	0xbc0bfc74	-0.008544076
160	0xbd53afc3	-0.05168129
161	0xbd218cac	-0.039440796
162	0xbcd18296	-0.025574964
163	0x3d7525c8	0.059850484
164	0x3c9e1d37	0.01930104
165	0x3bdae721	0.0066803847
166	0xbd6b9e23	-0.057523858
167	0xbcb2b02c	-0.02181252
168	0x3d7cf45f	0.061756488
169	0x3cfe2128	0.03102167
170	0xb9d1bc12	-0.0004000371
171	0xbcdb7258	-0.026787922
172	0x3d29d5a4	0.04146351
173	0xbd22292b	-0.039590042
174	0x3bb854ed	0.0056253583
175	0x3d3a5325	0.04548945
176	0xbbf00e6b	-0.0073259375
177	0xbbbc9823	-0.005755441
178	0x3d7f19ce	0.06228047
179	0xbd52d6df	-0.05147445
180	0xbb1a80d6	-0.0023575327
181	0x3d1e6050	0.03866607
182	0x3c0fb78a	0.0087717865
183	0xbd509b28	-0.05092922
184	0x3c2db718	0.010602735
185	0xbd340f5d	-0.043959964
186	0xbd8fae84	-0.07015708
187	0xbd3341ba	-0.043763854
188	0x3d59b2b7	0.05314895
189	0xbc10d727	-0.008840359
190	0x3ab5814e	0.001384774
191	0x3cc9c16e	0.024628367
192	0xbd7b1e25	-0.061308045
193	0xbcc15aac	-0.023602806
194	0xbc8f0ab8	-0.017461166
195	0x3c74da80	0.014944673
196	0xbd312702	-0.04325009
197	0x3cdbc1e2	0.026825849
198	0xbd1da4bb	-0.038487177
199	0xbccc7de7	-0.024962379
200	0xbc0256c6	-0.007955259
201	0x3d2fb65c	0.04289852
202	0xbd4e876a	-0.05042211
203	0x3d1ecc85	0.038769264
204	0x3c594893	0.013261932
205	0x3d933f65	0.07189826
206	0xbd46537d	-0.048419464
207	0xbcee541c	-0.02909284
208	0x3ca5118f	0.020149974
209	0xbd203ad0	-0.039118588
210	0x3badd271	0.0053046276
211	0x3d0cce09	0.034376178
212	0x3d54c4d1	0.05194551
213	0xbd69b9d3	-0.05706198
214	0x3d4b4dd3	0.049634766
215	0x3ca5bf7a	0.020232905
216	0x3d23f974	0.04003282
217	0x3c90c5b4	0.017672397
218	0xbd201353	-0.03908093
219	0x3d28cb63	0.04120959
220	0xbb764adc	-0.003758124
221	0xbcb857db	-0.02250283
222	0x3d70f3c0	0.058826208
223	0xbcaa0974	-0.02075646
224	0x3b4d961c	0.003136999
225	0xbc9487d5	-0.018131176
226	0xbb0e7526	-0.0021737306
227	0xbb8c2914	-0.004277358
228	0xbcb19e6a	-0.021681983
229	0x3cc943ac	0.024568401
230	0x3c82698e	0.015919473
231	0xbd368596	-0.04456099
232	0xbd98c31f	-0.074590914
233	0xbd667a29	-0.056268845
234	0xbc2e9bb0	-0.010657236
235	0x3d841a92	0.064503804
236	0x3d52150d	0.051289607
237	0xbd08536f	-0.033282693
238	0x3d521cb1	0.051296894
239	0x3d5e0fcd	0.054214288
240	0x3d04f837	0.03246328
241	0xbbcdb9bc	-0.006278245
242	0x3d3ad8be	0.045616858
243	0xbd807e6b	-0.06274112
244	0xbd214033	-0.039367866
245	0x3b6c91a0	0.0036097541
246	0xbd54e96d	-0.051980425
247	0xbd02a864	-0.03189887
248	0x3c979f72	0.018508647
249	0x3d17f119	0.037095163
250	0xbc863beb	-0.016385993
251	0x3d603b6f	0.05474418
252	0x3d698db2	0.057019897
253	0xbda85f4f	-0.08221304
254	0x3d1fa25f	0.03897321
255	0xbd1e4c2d	-0.038646866

network.3.bias f4 [128]
0	0xbc6a7e86	-0.014312392
1	0x3d99b2db	0.07504817
2	0x3c3434e1	0.010998935
3	0x3c190941	0.009340585
4	0xbcb9d424	-0.022684164
5	0x3d25bbbc	0.04046224
6	0xbd4938c3	-0.049126398
7	0x3c70f597	0.014706991
8	0x3c8dd318	0.017312571
9	0xbd01978e	-0.031638674
10	0xbbe3dd27	-0.0069538536
11	0xbd6c2c1a	-0.057659246
12	0xbce8385b	-0.028347185
13	0x3d947485	0.07248787
14	0x3d742340	0.05960393
15	0x3c02d8a8	0.007986225
16	0x3d38d698	0.045126528
17	0xbd6e14e9	-0.05812541
18	0xbc87a475	-0.016557911
19	0x3c8ecfde	0.017433103
20	0xbbcc6f56	-0.006238858
21	0xbc30d7b2	-0.010793613
22	0x3d18f9bd	0.037347544
23	0x3dbbe253	0.09174027
24	0xbce47bb0	-0.02789101
25	0x3c92d971	0.01792595
26	0x3c747536	0.014920523
27	0x3d2a0507	0.0415087
28	0x3c533160	0.01289019
29	0xbd5740fd	-0.052552212
30	0x3db85e97	0.090024166
31	0x3caa240e	0.020769145
32	0x3cbb2a3d	0.02284729
33	0xbca060e0	-0.019577444
34	0x3d1ff1c3	0.03904892
35	0xbc5949c1	-0.013262213
36	0x3cd94940	0.026524186
37	0x3d2a92cf	0.041643914
38	0x3d2055a1	0.039144162
39	0x3d8a86a2	0.067639604
40	0xbc814037	-0.01577769
41	0x3caa232b	0.020768723
42	0x3ca094b3	0.019602155
43	0x3bbbc51a	0.0057302834
44	0xbcd3460b	-0.025790235
45	0x3cfe8a80	0.031071901
46	0xbd17599e	-0.0369507
47	0x3cbb9080	0.022896051
48	0xbc9fbd60	-0.01949948
49	0xbd34e21b	-0.044160943
50	0x3d1d5f38	0.038420886
51	0xbd12f634	-0.03587933
52	0x3b03ea3b	0.0020128626
53	0xbd823da3	-0.063594125
54	0xbd55405c	-0.05206333
55	0x3d23aa58	0.039957374
56	0xbc505bed	-0.012717229
57	0x3c29a588	0.010354407
58	0x3d4a5c58	0.049404472
59	0xbd03e9f4	-0.032205537
60	0xbd215132	-0.039384075
61	0x3cda391f	0.026638566
62	0x3d87ab07	0.06624418
63	0x3bdc768f	0.0067280005
64	0x3d89520a	0.06705101
65	0xbc7e8d28	-0.015536584
66	0x3d38fad2	0.045161076
67	0xbcbc3663	-0.022975152
68	0xbd8f6bb9	-0.07002968
69	0xbc3a3840	-0.01136595
70	0x3c47a69d	0.01218572
71	0x3ad6c0a7	0.0016384319
72	0x3d3e81a9	0.046510372
73	0x3d1d7681	0.038443092
74	0x3ced0ab8	0.028935775
75	0xbd01cd57	-0.031689968
76	0xbd54bf05	-0.051939983
77	0x3c7e0014	0.015502948
78	0x3c187af0	0.009306654
79	0x3c88bc4e	0.016691353
80	0x3d01cb56	0.031688057
81	0x3ac57ddf	0.001506742
82	0x3c9c2f49	0.019065516
83	0xbb4e1099	-0.0031442998
84	0xbd2e19c2	-0.042505033
85	0x3d492f4c	0.04911737
86	0x3c57e9b2	0.013178276
87	0xbd212ca7	-0.039349224
88	0xbd743d9b	-0.059629064
89	0x3d076ae4	0.033060923
90	0xbadd3fc6	-0.0016879968
91	0xb9ab68fb	-0.00032693878
92	0x3ababa3a	0.0014246174
93	0xbd5baee0	-0.05363357
94	0x3cd21830	0.0256463
95	0x3b8414b9	0.0040307906
96	0x3d3150bb	0.04328988
97	0x3b2c83cd	0.0026323677
98	0x3d7b55cf	0.06136113
99	0x3d2da309	0.04239181
100	0x3c9f0397	0.019410891
101	0x3b9d8503	0.004807116
102	0xbd1ef519	-0.038807962
103	0xbccb6e44	-0.024832852
104	0x3d9d2727	0.07673483
105	0x3cbe3a60	0.023221195
106	0xbce9cc56	-0.028539818
107	0x3d3aa3ac	0.045566246
108	0xbccd0313	-0.02502588
109	0xbcfe8c1d	-0.03107267
110	0x3d3b1452	0.045673676
111	0x3d50df03	0.05099393
112	0x3c3715a4	0.011174593
113	0x3d559a36	0.05214902
114	0x3d1a9dc8	0.03774813
115	0x3d8235e9	0.06357939
116	0x3d5d9692	0.054098673
117	0xbd3ea6a1	-0.04654563
118	0xbcb2f3db	-0.021844795
119	0x3c8852e8	0.016641095
120	0x3d0b011a	0.033936597
121	0xbc94de16	-0.018172305
122	0x3cf3f368	0.029779151
123	0xbbd10f83	-0.006380023
124	0x3cb57823	0.022152012
125	0x3b46fb7a	0.0030362294
126	0xbc9c33ef	-0.019067733
127	0x3b9e18eb	0.004824748

network.6.weight f4 [64, 128]
0	0x3c2eb602	0.010663511
1	0x3dacb45e	0.0843284
2	0xbd5eaf9b	-0.05436669
3	0xbbf06f9f	-0.007337525
4	0x3d542b02	0.051798828
5	0x3d742428	0.059604794
6	0xbdc25503	-0.09488871
7	0x3d3425b0	0.043981254
8	0x3d7e3593	0.06206281
9	0x3c6baf9e	0.014385132
10	0x3dd8217e	0.10553263
11	0x3d06fc49	0.03295544
12	0x3d6fd005	0.058547992
13	0xbd251a55	-0.040308315
14	0xbcb61516	-0.022226851
15	0x3c1c1d06	0.009528404
16	0x3bd0a2a9	0.006367047
17	0xbdb10b8f	-0.08644783
18	0x3d206f2a	0.039168514
19	0xbda03f47	-0.07824569
20	0x3dce40d8	0.10070962
21	0x3d30c778	0.04315898
22	0xbd64ce1c	-0.055860624
23	0x3dd16537	0.10224383
24	0xbcbfd052	-0.023414765
25	0x3dc2b4dc	0.095071524
26	0x3ddd42e7	0.10803776
27	0x3cdc19f0	0.026867837
28	0xbda44b9e	-0.08022235
29	0x3c232689	0.009957918
30	0x3db19074	0.0867013
31	0xbc8f3686	-0.017482053
32	0x3d0aca77	0.03388449
33	0xbd0966fe	-0.033545487
34	0x3d129dc3	0.035794985
35	0x3d32b1e8	0.043626696
36	0x3da8941f	0.08231377
37	0x3d8acffc	0.06777951
38	0x3d9c8b40	0.07643747
39	0xbcd8fd6a	-0.026488025
40	0x3b832d9c	0.00400324
41	0xbd31d077	-0.0434117
42	0x3dc5309a	0.09628411
43	0xbd83a4f1	-0.064279445
44	0x3d0d98f4	0.034569696
45	0xbd2b40e9	-0.04180995
46	0x3da501c7	0.080569796
47	0xbc7e96a8	-0.015538849
48	0x3c466b13	0.012110489
49	0xbdcef998	-0.101062
50	0x3d05991e	0.032616727
51	0x3d3b6ebc	0.0457599
52	0xbd5383f4	-0.051639512
53	0x3c8266b0	0.015918106
54	0xbdcbcc66	-0.09951095
55	0x3d94ce67	0.072659306
56	0x3dcc2dd3	0.09969678
57	0x3c20c72d	0.009813112
58	0xbd33791f	-0.043816682
59	0x3d19015b	0.03735481
60	0x3c172243	0.009224477
61	0x3d987272	0.07443704
62	0x3d61bddd	0.05511271
63	0x3d12f37d	0.03587674
64	0x3cd8fb23	0.026486939
65	0x3dce9ba5	0.100882806
66	0xbdaac5f5	-0.083385386
67	0x3d730835	0.059334
68	0xbd8f8f56	-0.07009761
69	0xbd62a4e3	-0.05533303
70	0xbbb4e4ab	-0.0055204234
71	0x3d7d26e3	0.061804663
72	0xbc3f4e93	-0.011676448
73	0xbda0381b	-0.07823201
74	0xbd6aaf4b	-0.05729608
75	0x3d1d6801	0.038429264
76	0xbca35f0d	-0.019942785
77	0xbbde19a9	-0.0067779613
78	0xbc854982	-0.016270403
79	0xbd76a4cc	-0.060215756
80	0xbda7576f	-0.081709735
81	0x3beac5a2	0.007164673
82	0xbd83888d	-0.06422529
83	0x3d7fde7b	0.062468033
84	0x3ce78cfb	0.028265467
85	0xbd452a1f	-0.048135873
86	0x3d221170	0.03956741
87	0xbd578462	-0.052616484
88	0x3d68b55c	0.056813583
89	0xbd3b369a	-0.04570637
90	0xbb659c7c	-0.00350359
91	0x3aeecbbe	0.0018218679
92	0xbd91af52	-0.07113518
93	0x3d053c92	0.032528467
94	0xbdda12a3	-0.10648086
95	0xbcdbe20c	-0.026841186
96	0xbcc0f9c4	-0.023556598
97	0xbc2c1328	-0.010502614
98	0x3d72c1ee	0.059266977
99	0x3c092e5a	0.0083728675
100	0xbdb07b06	-0.08617215
101	0x3d40d35f	0.04707658
102	0xbbedc437	-0.0072560566
103	0x3d0cab9e	0.034343354
104	0x3c8a6649	0.016894476
105	0x3a52bb8f	0.00080388127
106	0x3d62ef75	0.055404145
107	0x3c9d99dd	0.019238407
108	0xbdc37d91	-0.09545434
109	0xbc987b96	-0.018613618
110	0x3c13e40a	0.009026537
111	0x3d5d4e57	0.05402979
112	0xbdb6e0d7	-0.089296035
113	0x3d067d96	0.03283461
114	0x3d103988	0.035211116
115	0xbd3a7a03	-0.045526516
116	0x3db3aa46	0.087727115
117	0xbd8f479c	-0.0699608
118	0xbca16d61	-0.019705476
119	0xbd4f750c	-0.050648734
120	0x3dabcc80	0.08388615
121	0xbc2797d4	-0.01022907
122	0x3ca0ce41	0.0196296
123	0xbd9b6f20	-0.07589555
124	0xbd224cf6	-0.039624177
125	0x3d7ed480	0.062214375
126	0x3d997794	0.07493511
127	0xbb30b33b	-0.0026962298
128	0x3d9a74ac	0.07541785
129	0x3cee2d78	0.029074416
130	0x3cc55521	0.024088444
131	0xbd144072	-0.036194272
132	0xbc23cb90	-0.009997264
133	0x3d68bb73	0.05681939
134	0xbdc3db4a	-0.095633104
135	0xbd91fb9b	-0.07128068
136	0x3d4589c6	0.048227094
137	0x3d6dde9b	0.05807362
138	0xbbaf09f7	-0.005341764
139	0x3d4a0fa9	0.04933134
140	0xbd8df2bf	-0.06931066
141	0xbd0f3937	-0.034966674
142	0xbd65969d	-0.05605184
143	0xbcec3bc6	-0.028837096
144	0x3df1983e	0.11796616
145	0xbda79a90	-0.08183777
146	0x3cb7e2c0	0.02244699
147	0x3d0207f8	0.03174588
148	0x3de2cad5	0.110738434
149	0x3d294aad	0.041330982
150	0xbc879abb	-0.016553273
151	0x3d3ff072	0.046860166
152	0xbc1f6ec0	-0.009730995
153	0x3d826616	0.063671276
154	0x3b7e0b23	0.0038763962
155	0xbd07dfc1	-0.033172373
156	0x39f19f1e	0.00046085654
157	0x3c202a69	0.009775736
158	0x3a3b1cca	0.0007137774
159	0x3c6e03f4	0.01452731
160	0x3dc7906d	0.09744344
161	0xbbb1cc29	-0.005425949
162	0x3d9196e2	0.07108857
163	0x3cedf680	0.029048204
164	0x3d624eb9	0.055250857
165	0xbd1dd1bc	-0.038530096
166	0xbce6befa	-0.028167237
167	0xbd0cb11a	-0.034348585
168	0xbb165366	-0.0022937893
169	0xbdb0e6a2	-0.0863774
170	0x3d72afe3	0.05924977
171	0x3d4c1b2e	0.049830608
172	0xbaefdee4	-0.001830068
173	0xbd972b49	-0.07381303
174	0x3d5cf92d	0.05394857
175	0x3d2a0dc1	0.041517023
176	0x3d621a86	0.055201076
177	0x3d3b2a6e	0.04569476
178	0x3d563cea	0.052304186
179	0xbce01303	-0.027352815
180	0x3dae1867	0.08500748
181	0xbcde8bf3	-0.027166342
182	0x3d26c362	0.040713675
183	0xbd662415	-0.056186754
184	0x3d134bb6	0.035960875
185	0xbc39c023	-0.011337313
186	0x3d844f56	0.06460445
187	0x3c3985ba	0.011323387
188	0xbda9e767	-0.082960896
189	0xbd845fd1	-0.06463588
190	0x3cfc0172	0.030762408
191	0xbdae9172	-0.08523835
192	0xbd13c2c4	-0.036074415
193	0x3d8aed1a	0.06783505
194	0x3d21fab5	0.039545733
195	0xbd7d19e0	-0.061792254
196	0x3cbf1fdf	0.023330627
197	0x3d87d913	0.066332005
198	0xbd1164bf	-0.03549647
199	0x3d9900a8	0.07470828
200	0x3d683fee	0.056701593
201	0x3cf4bb67	0.029874517
202	0x3d1bc01f	0.038025018
203	0x3d128ecd	0.035780717
204	0x3c2f7594	0.010709185
205	0x3d2887e5	0.041145224
206	0x3de22a05	0.11043171
207	0x3d1cb4ae	0.038258247
208	0x3ceb9501	0.028757574
209	0x3d6491bc	0.055803046
210	0x3d841229	0.06448776
211	0x3d93db61	0.072195776
212	0x3ceff5c1	0.02929199
213	0xbc61f4b7	-0.013791255
214	0x3d997fa0	0.07495046
215	0xbd04e821	-0.032447938
216	0x3cdf3e38	0.027251348
217	0x3d64ac3c	0.055828318
218	0xbdaf48a0	-0.08558774
219	0xbd092d24	-0.033490315
220	0xbbda0b3e	-0.006654172
221	0xbdb2d5a0	-0.08732152
222	0xbd2d7d93	-0.042356085
223	0xbce613ae	-0.028085556
224	0xbd19cfb1	-0.037551586
225	0xbc4f2b97	-0.01264467
226	0xbcbc03fe	-0.022951122
227	0x3de347b5	0.110976614
228	0xbd9afbdb	-0.07567569
229	0xbd6ce5e1	-0.057836417
230	0xbd0f865c	-0.035040244
231	0xbc99268d	-0.01869514
232	0xbd418072	-0.047241636
233	0xbd85788a	-0.065171316
234	0x3dd1d321	0.10245348
235	0x3df93d37	0.12169879
236	0x3d2cd307	0.04219344
237	0xbd75b040	-0.05998254
238	0x3c5a7071	0.013332472
239	0xbb76489e	-0.0037579904
240	0xbbf7a7b1	-0.007557832
241	0xbc918406	-0.017763149
242	0xbd234356	-0.03985914
243	0x3caaa79d	0.020831877
244	0xbd5f26fb	-0.054480534
245	0xbcde0726	-0.027103018
246	0xbd430f1e	-0.04762184
247	0xbc29eee3	-0.010371896
248	0x3dd3356a	0.10312922
249	0x3da6ffe1	0.08154274
250	0x3d5c52b4	0.05378981
251	0x3d8744a6	0.066048905
252	0x3c377d2c	0.011199277
253	0x3c874252	0.016511116
254	0x3ca37c36	0.01995669
255	0x3dd68c7d	0.10476015

network.6.bias f4 [64]
0	0x3d3aa186	0.045564197
1	0x3c8c75d4	0.017146029
2	0xbd9a5ed6	-0.0753762
3	0x3d8c3d12	0.06847586
4	0xbcb39e4e	-0.021926071
5	0x3d3f04e5	0.046635527
6	0x3da635ee	0.08115755
7	0xbc76159c	-0.0150198005
8	0xbd00c6fd	-0.03143977
9	0xbca4fd47	-0.020140303
10	0x3d343f0f	0.04400545
11	0x3db6e3ee	0.08930193
12	0x3d9e744f	0.07737028
13	0x3d2c5bd6	0.04207977
14	0xbcabf738	-0.020991907
15	0x3d820861	0.063492544
16	0x3db4701a	0.08810444
17	0x3c8216ef	0.015880076
18	0xbca403c1	-0.020021321
19	0x3d54078a	0.051765002
20	0x3cc00655	0.02344052
21	0x3c1808d4	0.009279449
22	0xbd967a5e	-0.073475584
23	0x3b3f2910	0.0029168762
24	0xbd510db7	-0.05103847
25	0x3d484e64	0.048902884
26	0x3cf4fd2d	0.02990588
27	0xbda70330	-0.08154905
28	0x3db83682	0.089947715
29	0x3c002a98	0.007822655
30	0xbd6ae34e	-0.05734568
31	0x3da85946	0.082201526
32	0x3da7322d	0.08163867
33	0x3d5d662f	0.054052528
34	0xbcce8508	-0.025209919
35	0xbc54d71e	-0.012990741
36	0x3ca3b93f	0.019985793
37	0xbd07b9cf	-0.033136185
38	0x3d9cdf3b	0.07659765
39	0x3d49ed72	0.04929871
40	0xbd50bf81	-0.050963882
41	0x3b1be45a	0.0023787231
42	0xbc455dbc	-0.012046274
43	0x3a0c1de4	0.000534503
44	0xbd325714	-0.043540075
45	0x3c262d5b	0.0101426495
46	0x3d0c7dab	0.034299534
47	0x3d4dbc7f	0.050228592
48	0xbc94a3a2	-0.018144432
49	0xbcc6f1bb	-0.024285188
50	0xbc42cb22	-0.011889251
51	0x3cfa6386	0.030565035
52	0x3c93f584	0.018061407
53	0x3d26f604	0.040761963
54	0x3dd73053	0.10507264
55	0x3d937f6a	0.07202037
56	0x3c28321e	0.010265855
57	0x3d8e5f1c	0.069517344
58	0x3d9d847e	0.076912865
59	0x3d269e78	0.04067847
60	0x3caf3ad4	0.021390356
61	0x3da22d38	0.07918781
62	0xbd07929e	-0.03309881
63	0x3d05d0d4	0.032669857

network.9.weight f4 [1, 64]
0	0x3e06e682	0.13173869
1	0x3d2696f8	0.04067132
2	0xbd8a9caa	-0.067681625
3	0xbdcdd2fd	-0.100500084
4	0xbdeacaae	-0.11464439
5	0xbe134905	-0.14383323
6	0x3e141cb5	0.14464076
7	0x3d263fb3	0.040588092
8	0x3d7f48db	0.06232534
9	0xbd3cd21e	-0.04609882
10	0xbe049d2a	-0.12950578
11	0x3d588227	0.052858498
12	0xbdcb52a6	-0.09927873
13	0xbdbbfc4f	-0.091789834
14	0xbd266f7c	-0.040633664
15	0xbe028701	-0.12746812
16	0x3dda7ad1	0.106679566
17	0xbc9791b8	-0.018502101
18	0xbcdf30d9	-0.027244972
19	0x3e01c075	0.12671073
20	0xbd8f1aee	-0.06987558
21	0x3e04d81d	0.12973066
22	0xbdb4be98	-0.088254154
23	0xbe1588e6	-0.14603004
24	0xbd16df12	-0.03683383
25	0x3ce13351	0.02749029
26	0xbd42fdfa	-0.047605492
27	0x3d8ea960	0.069658995
28	0xbd8ccc89	-0.068749495
29	0x3d8da08e	0.06915389
30	0xbd5e04ec	-0.054203913
31	0x3dca48d1	0.0987717
32	0x3db18441	0.086678036
33	0xbd8b75f0	-0.06809604
34	0xbde8d70a	-0.113691404
35	0x3d13326b	0.035936754
36	0x3d90bbfb	0.070671044
37	0xbdeacc13	-0.11464705
38	0xbd9d4020	-0.076782465
39	0xbe0cb22d	-0.13739844
40	0xbd829519	-0.06376094
41	0xbe091428	-0.13386595
42	0x3e1ffe1f	0.15624283
43	0x3ddcea36	0.1078686
44	0xbe0c6e6a	-0.13713995
45	0x3e089671	0.13338639
46	0xbd9ec508	-0.077524245
47	0x3db5103d	0.08840988
48	0xbcb988e7	-0.022648288
49	0x3e0d30b2	0.13788107
50	0xbd4e72a2	-0.05040229
51	0xbdc7e27b	-0.097599946
52	0x3e104b9b	0.14091341
53	0x3def6dcb	0.11690863
54	0x3e09c26b	0.13453071
55	0xbdf6ae35	-0.12044946
56	0x3dfa0e4f	0.122097604
57	0xbd711806	-0.0588608
58	0x3dd67d38	0.10473102
59	0x3d20eb09	0.039286647
60	0xbdc69590	-0.096964955
61	0x3de4134e	0.111364946
62	0x3d48f4cc	0.04906158
63	0xbdf524c8	-0.11969906
