projekt1/wandb/run-20251110_095837-cyp2azrp/files/best_model.pth (torch, 47305 bytes, 25 tensors)

blocks.0.0.weight f4 [64, 34]
00000000: b54f cf3d b241 0f3e 5cef 12be 2afc 05bd
00000010: 31a3 923d eb11 87bd b2ad 25be 1a32 4dbd
00000020: e2a3 be3d 7b3e e63c 5566 1e3e 0a2e e4bd
00000030: 6bb9 483e 2d0d 03be 344a ff3d fbc0 68be
00000040: 381e 803c 362c a13c c5db 4a3d 0269 1dbe
00000050: 7923 cbbb 2f03 4b3d 38e9 ec3d 391c 013e
00000060: 887b 0e3e c40b 00be 2cf9 883c 736b 9b3c
00000070: c31d 2f3e c12c 75bd 940d 41be 27cd 0b3e
00000080: cf46 84bd 5c39 bcbd 7f3d ee3b 0e20 943d
00000090: 23cf 133e c6f1 47be 1e84 76bd 3d5e 77be
000000a0: 6ac1 c63d 5807 82bc 7d64 a0bd 86a0 7fbc
000000b0: 0b35 3b3e bf37 2a3d 29d8 903c 3cdd 88bc
000000c0: 1c00 9a3d 723f df3b bece 80bd 6a39 a1bd
000000d0: bdba b03d e32e f73c fe76 b1bd 6d9d 7a3d
000000e0: 8689 a23d c9ff 923d 1204 2c3d bf93 4cbe
000000f0: 8eb1 973d 3d99 fe3d 97d3 1e3e 5bdc e7bd
00000100: 330f 9cbd 2535 c43d 4dc3 30be 4d67 9fbd
00000110: 92a8 a03d af67 d23d 5f47 20be d802 2abe
00000120: 182e d93d e8e8 283e b153 b43d a9cf 25bd
00000130: 41b1 393e fed6 2c3d 2181 523e 8bce a2bd
00000140: b5b4 c0bd a97f 393e 605f 67bd 58d7 2f3e
00000150: 81bb 87bc 8435 18be 31c6 13be 837e 063e
00000160: 4af7 c03d 66c1 70bd e4a0 17be 3066 023c
00000170: 63c8 16be 4143 e73c 66e5 17be 2da2 d0bd
00000180: 8127 493d e484 803d bddd ae3d 6614 bc3d
00000190: 7093 9bbd 2893 b2bd 51db f33d 2062 28be
000001a0: 54a9 babc 8ef8 2cbe 4354 0dbd f5a5 2abe
000001b0: 7b40 4dbe c287 42bd 0404 333e 39aa f43d
000001c0: f757 b53d eec6 7ebd e93a a8bd b520 cfbd
000001d0: 0290 42bd 1004 cd3b c065 4cbc 19a9 fbbc
000001e0: b656 163d 5fb2 9ebd f63e 21be b0c6 fc3b
000001f0: 0b9a df3c c880 7abd dcd8 e8bd 24ae 7abd
00000200: 5edb ca3d 053e b03c 86f9 22be 2802 c43d
00000210: 6a2b 22be 3afe c43b e42b 173e 7801 36be
00000220: e6ab 5cbd b064 5b38 a2eb 2ebe 4e21 3abe
00000230: 665b 25bd e4c2 3fbd 055a 173e 0567 33bd
00000240: 7512 443d 7b54 5abd 009e ce3d b911 63be
00000250: 24b3 8dbd 598c 083e a08a 463d 75b2 643c
00000260: 05ac 663d e820 603d 8d96 673d 137f bb3c
00000270: 55a2 9ebc 7ddb 47be 4347 723d c3af dd3d
00000280: 281f 9b3c 9a18 e63a 0a22 d03d 970d 96bd
00000290: 55be 00be 2de2 1a3d a0f2 d9bd e302 bf3d
000002a0: 9f98 1fbe bdeb abbe 7482 c6bd 67db 1bbe
000002b0: fa77 e93c 2c58 21be 4a1a 8bbd b81a 49be
000002c0: a571 423e 4c86 febc c7a7 8bbd 6b3e 9c3c
000002d0: eaf8 9fbd fb12 61bd d50e a43c db18 91bd
000002e0: c3ed f5bd e361 143e f81c 97bd 6450 6f3c
000002f0: a3cb 503e ba79 33bd 9fb8 bc3d 42ca 393e
00000300: b2de 6ebd d57b 99bd 0050 60bd 4fea 9d3c
00000310: b02b f8bd 898b e4bd f5ca 89be a99c b8bd
00000320: e2b0 0f3e d9d2 9fbd 79fe 3b3c 1792 273e
00000330: 553b f63c eb74 7cbd 340e 353c 4de1 403c
00000340: bd34 2e3d 3fda 2b3d 82dd 44be d74b 21bd
00000350: 5901 08be bc35 303d 66fe 913d 5770 a93d
00000360: 9012 383e 60e5 0bbe 86cb 8abc e9a9 4e3e
00000370: d103 063e 870b 76bd 1c3b dbbd 7632 dabd
00000380: ce34 bfbd 984b d4bd 06ec cb3d 5818 66bd
00000390: 66f7 913d 1164 c53c f905 2abd 3d90 0f3d
000003a0: c7ed 9cbd 1a6b 3c3e 453f efbd 93bf 2ebe
000003b0: f74a 0e3e a11a a0bd 4f2a 17bd 6e11 6d3d
000003c0: ee83 1bbd 06df 17be d395 d5bc 52b8 86bd
000003d0: 90fa 833d 944e 09be 3a23 80be 45e4 18bd
000003e0: 41fb 22be 7625 113d 125c 21bc 7b37 fabc
000003f0: 896e a33d 118f 02be a49c ba3d 8e22 da3d
0.10122625 0.13989905 -0.14349121 -0.032711186 0.071600325 -0.065952145 -0.16179541 -0.05009661
0.09308602 0.028105965 0.15468724 -0.11141594 0.19601981 -0.12797995 0.12465325 -0.22729866
0.01563941 0.019674402 0.049525995 -0.15372089 -0.006199297 0.049563583 0.115679204 0.12608422
0.13914311 -0.12504488 0.016720377 0.018972134 0.17101197 -0.059857134 -0.18852836 0.13652478
-0.06458818 -0.09190628 0.0072705145 0.072326764 0.14434485 -0.19525823 -0.06018459 -0.24157043
0.097048596 -0.015872642 -0.078316666 -0.015602237 0.18281953 0.04155707 0.017681198 -0.016707055
0.07519552 0.006812983 -0.06289433 -0.07872279 0.086293675 0.030173725 -0.08665274 0.06118529
0.07936387 0.071776934 0.04199607 -0.19978236 0.07406913 0.12431572 0.15510403 -0.11321326
-0.076200865 0.09580449 -0.17262001 -0.07783375 0.07844652 0.10273682 -0.15652226 -0.16602647
0.10604495 0.16495097 0.08805025 -0.040481243 0.18134023 0.04219722 0.20557071 -0.07949551
-0.09409467 0.18115105 -0.05648744 0.17171991 -0.016568901 -0.14864165 -0.14431073 0.13134198
0.09422167 -0.05877819 -0.14807469 0.007958934 -0.14724879 0.028230311 -0.14833602 -0.101871826
0.04910994 0.06275347 0.08538387 0.09183578 -0.07596481 -0.08719474 0.11907066 -0.16443682
-0.02278582 -0.16891691 -0.034504186 -0.1666487 -0.20044129 -0.04749275 0.17482 0.1194653
0.088546686 -0.062201433 -0.08214361 -0.1011366 -0.047500618 0.006256588 -0.012475431 -0.03072028
0.036703788 -0.07748865 -0.15746674 0.007714115 0.027295133 -0.06115797 -0.11369488 -0.06120123
0.09905122 0.021513948 -0.15915498 0.09570724 -0.15836874 0.0060117515 0.14762837 -0.17773998
-0.053874873 5.230744e-05 -0.17082074 -0.18176767 -0.040370367 -0.04681672 0.14780433 -0.04379942
0.047869164 -0.053303223 0.1008873 -0.2217473 -0.06918934 0.13334788 0.048472047 0.013958563
0.056316394 0.05471888 0.05654006 0.022887742 -0.019364515 -0.19517322 0.05914999 0.108245395
0.018935755 0.0017554939 0.101627424 -0.07326811 -0.12572606 0.037813354 -0.1064198 0.093267225
-0.15585564 -0.33578292 -0.09692851 -0.15220414 0.028499592 -0.15756291 -0.067921236 -0.19639099
0.18988664 -0.031069897 -0.0681911 0.019072732 -0.078111485 -0.05494974 0.020026604 -0.07084819
-0.1200824 0.14490466 -0.07378572 0.014606569 0.20390181 -0.04381726 0.09214901 0.18143561
-0.058317848 -0.07494322 -0.054763794 0.019276766 -0.12117708 -0.11159427 -0.26912656 -0.090142556
0.14032319 -0.07803888 0.011474245 0.16364323 0.030057589 -0.06163494 0.01105075 0.011772466
0.042530764 0.041956183 -0.19225124 -0.039378967 -0.13281764 0.043019995 0.07128601 0.0827338
0.17975831 -0.13661718 -0.01694275 0.20182003 0.13087393 -0.060069587 -0.107046336 -0.10654156
-0.093362436 -0.10365981 0.09957127 -0.05617556 0.07127266 0.024095567 -0.041509602 0.035049666
-0.0766254 0.18400231 -0.116819896 -0.17065267 0.13895784 -0.07817579 -0.036905583 0.05787795
-0.037967615 -0.1483117 -0.026072418 -0.06578125 0.064442754 -0.13408881 -0.25026876 -0.03732707
-0.15916158 0.035436116 -0.009848611 -0.030544033 0.07980067 -0.12749888 0.09111908 0.10651122

blocks.0.0.bias f4 [64]
00000000: 8493 723d 21d9 03bb cf77 983d 2014 dabd
00000010: 2f32 09bd 26eb 8bbd 4e9a 05be 5a0a 5cbd
00000020: 276c 08be 5839 153d fb33 003e d1da 2b3e
00000030: ce56 94bd 0398 243e 1cc4 16bd 4a40 cdbd
00000040: 4fe4 9dbd aa0c 18bc e774 d5bc 29aa 983d
00000050: 0615 ae3d f4f5 973d 9739 c1bd da64 8e3d
00000060: f533 01be d891 92bc 4615 103e be9b 2bbe
00000070: b692 d9bd 64fd 5b3d 261d d2bb 9578 d13c
00000080: 605a 9a3d c1e5 b6bb 6ab5 9bbc c5eb 13be
00000090: 9397 27be 2825 fabd 41db 3b3c 7046 a33c
000000a0: 5413 253d 8ccb 9e3b 672e 6b3d c1f5 03bd
000000b0: 0220 893d 2a02 ca3d d340 883d da97 38bd
000000c0: ddae 663d b788 adbd ae20 4b3c e7f0 533d
000000d0: 7677 893d 4c35 3fbc e27a 093e 850e 303e
000000e0: acc3 cfbd c540 17be 45cc 97bd 3c7c 863d
000000f0: b6ee ac3d 0de1 8cbd 9487 c63d e965 5dbd
0.059222713 -0.0020118433 0.07444727 -0.1064837 -0.033495124 -0.068319604 -0.13047144 -0.05372081
-0.13322507 0.03643164 0.12519829 0.1678269 -0.07243119 0.16073613 -0.03680812 -0.10022028
-0.07709562 -0.009280363 -0.02605672 0.074543305 0.08500104 0.07419959 -0.094348125 0.0695283
-0.12617476 -0.01789181 0.14070615 -0.1675863 -0.10623686 0.05370845 -0.006412166 0.025570193
0.07536769 -0.005581588 -0.019007403 -0.14445408 -0.16366415 -0.12214118 0.011465848 0.019931048
0.040301636 0.004846042 0.0574173 -0.03221679 0.06695558 0.09863694 0.06652989 -0.045066692
0.056319106 -0.08473342 0.012397928 0.051743414 0.067122385 -0.011670422 0.13425782 0.17193039
-0.10144743 -0.14770801 -0.07412008 0.065666646 0.08443968 -0.068788625 0.09693828 -0.054052267

blocks.0.1.weight f4 [64]
00000000: edbe 7e3f f8ea 853f 6fe0 823f 8e2e 7b3f
00000010: 6364 803f 8b5d 7d3f e013 843f b8e9 7d3f
00000020: 604f 7a3f 6e10 783f df74 873f bb94 7c3f
00000030: 882b 873f a2ba 7a3f 4ff1 7d3f 4433 853f
00000040: 927c 793f d829 7c3f ad93 783f 65d6 853f
00000050: ca82 763f cd83 803f 1fa6 753f 7b7e 833f
00000060: 1cc7 7a3f d935 803f 7d46 6d3f a013 753f
00000070: 0628 853f 5257 823f 0f74 823f c67e 7b3f
00000080: 0e20 803f 2a67 783f 02a8 713f f8d0 763f
00000090: 3243 7e3f adeb 893f 1b9c 813f 417a 7c3f
000000a0: 96a7 883f 4ac7 823f 6758 873f 21c3 813f
000000b0: 2d81 823f 2f0b 723f 0801 763f bb63 813f
000000c0: 3536 793f d429 733f 3c0e 873f dc88 723f
000000d0: 348c 823f 77e4 7e3f c7ad 833f ea22 793f
000000e0: 0618 7a3f d125 7f3f 3e1b 843f dfa4 743f
000000f0: e6f8 713f e01d 823f 8537 7c3f edf5 823f
0.9951008 1.0462332 1.0224742 0.9811791 1.0030636 0.9897086 1.0318565 0.9918475
0.97777367 0.9690007 1.0582541 0.98664445 1.056016 0.9794103 0.9919633 1.040627
0.97455704 0.9850135 0.97100335 1.0456053 0.9629332 1.0040222 0.95956606 1.0272974
0.97960067 1.0016433 0.9268568 0.9573307 1.0402839 1.0182898 1.0191668 0.98240316
1.0009782 0.97032416 0.94396985 0.9641261 0.9932128 1.0775048 1.0125765 0.98624045
1.0676143 1.0217068 1.0573853 1.0137674 1.0195671 0.94548315 0.96095324 1.010856
0.9734834 0.949857 1.0551219 0.9474008 1.0199037 0.9956736 1.0287408 0.973189
0.97692907 0.9966708 1.0320814 0.95564073 0.94520414 1.0165367 0.98522216 1.02313

blocks.0.1.bias f4 [64]
00000000: 1ea7 253d 3f72 643b 2058 79bc 48f0 093d
00000010: b7b4 0a3d e018 c2bc 8dcc 873c c5ce f83c
00000020: 2db5 45bd 0276 9dbc ccf9 003d 080c 403c
00000030: 8ab3 c03c 789a 50ba 7375 2fbd f5b4 fe3c
00000040: bd52 51bc a104 3abd 8a91 1aba 4afe 0abd
00000050: b4fd ef3c dff5 3cbc 33b2 3ebc da9d ce3b
00000060: b9d0 013c 1d8a 203d 0a47 a8bd b8cc 36bd
00000070: 3ab4 5cbc afc9 e43c 507a 933c a947 0bbd
00000080: 4ecf 0a3d 1c42 4cbd b6f1 45bd b9d2 59bd
00000090: 797e adbc dc38 ae3c 65ba 653d 657f d0ba
000000a0: ae6f bb3c c8e2 723c 8a53 513d 8550 673b
000000b0: 54b5 523c dcb7 5cbd a577 c6bb d14b fb3c
000000c0: 95a0 16bd 4454 7bbd 8acf 413d f13b 83ba
000000d0: a1db e33b 5fe6 e7bc d287 003c 5e2b 80bd
000000e0: 1abf 09bc f172 23bd 99a3 473c a182 86bd
000000f0: 2c89 58bd bfb6 0c3c 99ef b5bc 66bf 453c
0.04044258 0.0034858135 -0.015218765 0.033676416 0.03386375 -0.023693502 0.01657703 0.030372033
-0.048268486 -0.01922131 0.031488225 0.0117216185 0.02352311 -0.0007957588 -0.042836618 0.031092146
-0.012776074 -0.04541457 -0.0005896321 -0.033933915 0.02929578 -0.01153323 -0.011639166 0.0063054385
0.0079232985 0.039194215 -0.082166746 -0.04462883 -0.013470704 0.027928201 0.01800266 -0.034003887
0.033889107 -0.049867734 -0.048326217 -0.053179476 -0.02117847 0.021267347 0.056085963 -0.0015907107
0.022880401 0.014824577 0.05110506 0.0035295796 0.012860615 -0.05388628 -0.006056743 0.0306758
-0.036774237 -0.06135966 0.047317065 -0.0010012371 0.006953672 -0.028308092 0.007844882 -0.06258272
-0.008407379 -0.03990454 0.012185001 -0.06567884 -0.052865192 0.008588492 -0.022208976 0.012069559

blocks.0.1.running_mean f4 [64]
00000000: ee2f 203e b68b 2dbd e66a e6bc 90d7 87bd
00000010: 630a ddbd 4e5e 2dbe 3e23 88bd a90a 83be
00000020: 5588 eabd fa13 debd 5f86 573e a311 813d
00000030: c9cf 2c3e 21cb 873e b821 d6bd 982a 9a3d
00000040: ff7a cabd 9a6d 73bc 7874 6e3e f525 25bd
00000050: b8ac febd eabe 083e 408c cd3a a6b1 e03c
00000060: 48f2 bbbd a203 76bc 794e 5d3e 346c 2ebe
00000070: b045 30be 35ea 2dbd d0fc d6bc b337 2c3e
00000080: 82a1 123e 0686 093b 7733 583c cb44 43bd
00000090: b8f0 8bbe 66ff cbbd 412e 0f3e eba1 a9bd
000000a0: 75da 863d 028c 2cbe ea09 a6bc 58d7 b53d
000000b0: b3d2 cabd d819 b53b 1a6d a33d 6c8c 15be
000000c0: 9c98 813c c279 93be 0b36 a6be c7d5 3abe
000000d0: b57e c53d 437f 2dbc 6890 1e3e 9efc f53b
000000e0: 819f adbe 9519 e93d df97 c4bd ff7a 2e3e
000000f0: 4319 e8bc 6d97 febd 8069 573d 0263 00bc
0.15643284 -0.042369567 -0.028127145 -0.06632912 -0.10792997 -0.16930506 -0.06647347 -0.2559407
-0.114517845 -0.10843654 0.21047352 0.06302192 0.16876139 0.26522163 -0.1045565 0.07527655
-0.09886741 -0.014857674 0.23286617 -0.0403194 -0.12435287 0.13354078 0.0015682057 0.02742846
-0.09177071 -0.015015515 0.21611966 -0.17033464 -0.17214084 -0.042459685 -0.026243597 0.16818123
0.14319423 0.0020984425 0.013195864 -0.047673028 -0.2733209 -0.09960823 0.13982488 -0.082828365
0.06584636 -0.16850284 -0.0202684 0.08878964 -0.09903469 0.0055267625 0.07979794 -0.14604348
0.01581984 -0.2880383 -0.32463107 -0.18245612 0.09643308 -0.010589424 0.15484774 0.007506921
-0.33910754 0.113818325 -0.095992796 0.17039107 -0.028332358 -0.12431226 0.052590847 -0.007836105

blocks.0.1.running_var f4 [64]
00000000: f500 703e 597b d23e 5200 ba3e f03d 863e
00000010: c811 2d3e 2383 933e 27fe 4d3e 4857 c93e
00000020: e40e 3d3e ac8b 843e 0b51 333e 5e86 c13e
00000030: be47 103e b9d2 693e 817b 983e 4b6e 973e
00000040: 61a0 753e 9949 b03e a097 ab3e 7ef6 233e
00000050: bbc1 a53e 91fb bc3e 30fa 963e db42 c13e
00000060: 6545 733e b32e b73e aaf7 ca3e dff1 973e
00000070: bbf2 573e ff9e 5c3e 8ae2 e73e 0f49 803e
00000080: 9c0a 143e 3516 513e d0e9 8e3e e702 a83e
00000090: 67df a13e ce60 813e bf04 8d3e 2847 5c3e
000000a0: 9b91 453e cdc6 6d3e f9e8 4d3e e5a3 943e
000000b0: 74b2 8e3e 9772 623e ad02 913e a814 ca3e
000000c0: 5a76 2b3e d1d6 a13e 5ed9 9e3e bd04 883e
000000d0: 59d3 d73e 20d8 803e 61dd 803e adb3 b23e
000000e0: 4931 913e 92d7 573e c74f 813e c3e9 9f3e
000000f0: 77c7 a83e 1969 b63e c67e 503e 0d35 833e
0.23437865 0.41109732 0.3632837 0.2621913 0.16901314 0.28810987 0.20116483 0.39324403
0.18462712 0.2588781 0.17511384 0.37797827 0.14089867 0.2283429 0.29781726 0.29576334
0.23986961 0.3443115 0.33514118 0.16011998 0.32374367 0.3691068 0.29487753 0.3774632
0.2375694 0.35777816 0.39642078 0.2967672 0.21088688 0.21545027 0.45290023 0.2505574
0.14457172 0.20418628 0.2791276 0.32814714 0.31615755 0.2526917 0.27542683 0.21511519
0.19293825 0.23220368 0.20108403 0.29031292 0.27870524 0.22114025 0.28322354 0.39468884
0.16744366 0.31609204 0.31025213 0.26566115 0.42153433 0.2516489 0.251689 0.34902707
0.28357914 0.21078327 0.25256178 0.31233034 0.3296468 0.35627058 0.2036086 0.25626412

blocks.1.0.weight f4 [32, 64]
00000000: 6900 1e3d afc2 593d 7194 9abd d89f ae39
00000010: e26d 4ebb 9a23 903d 63e2 963d 93da 16be
00000020: e3ae 77bc 2fe2 c73d 3911 dabd 3bb8 333d
00000030: 8298 183e cf8b 1a3c 8368 afbd a023 193d
00000040: b254 50bd 6a88 48bb d0d5 3cbb a244 743d
00000050: e85a ac3d f7db a8bd 46e7 623d 4484 babd
00000060: d21f d73d 452f e93c e9e5 d1bd 0383 423d
00000070: 00b6 1ebc 9c4c d23c 09c0 dfbd 4aec 153e
00000080: 3d4a 3fbd de53 5fbc 70eb 02bc de9f c1bc
00000090: 15ff 1fbe 4eb0 883d 5481 c33d 1eae 07bd
000000a0: 2390 2cbe 051c 473d 5d95 4abc 9b04 f63d
000000b0: c090 22bc 1ccb 403d 326a 0ebe a1c9 cb3d
000000c0: 0ced 97bd cf78 543c 77dc ecbd 0b92 fe3d
000000d0: 0ee7 a03c 1377 0ebe 5312 eabd b7a3 3b3d
000000e0: eea0 67bd bdf7 773d 2809 0ebd b15c 21be
000000f0: e01b 8abd b1cd b3bc 4f6b ef3d 7288 dcbc
00000100: 7dce 263d 45e2 8dbd fdea 993b 3dd5 e43d
00000110: 67af b5bd 46a1 a3bd 9900 0cbe 4807 4abd
00000120: e58d 80bd 30d1 0b3c 794b c43d 5233 003d
00000130: fbf2 143e 520d bcbd 6f2f 0dbe dd8c 7d3d
00000140: cf29 a53d 3290 373d df23 d53c ba55 58bd
00000150: f721 af3b b87d df3d 7b2f 423c 2fd7 1abe
00000160: e585 a5bd 3237 773d 272f 1b3d a20e 6d3d
00000170: 70aa 243e 3e39 0a3e 92f0 c53c 95e8 ba3d
00000180: 6d30 e73d 5d1f 803d e834 913d d2ed 883d
00000190: b903 6bbd 7e3c 0f3d 1705 83bc 899d 5c3c
000001a0: fc34 aabc 16c3 893d 814c 3f3d f478 89bd
000001b0: 79e8 0f3e 78ea d43d 764b abbb c1b6 f23d
000001c0: 824c 303d 053d 273d ad00 20be 2dc8 ba3c
000001d0: 3ebb c8bd 918e e4bc d7b5 cb3d cb57 633d
000001e0: 00b2 033d 14d7 68bd 371f 6d3d 46cb f3bd
000001f0: 1bbe 99bd 5ef9 1e3d 81f4 3a3c 0738 b93d
00000200: 3c1d 14be 3e93 f4bd 5388 07be 480c 1abe
00000210: 0ad5 40bd 222e a4bc 1624 543d d924 923b
00000220: 15a3 a93d 38dd 03be d1a1 57bd 4de3 f5bd
00000230: a4d5 3fbe beb7 08be ec0d 86bb 2c53 bebd
00000240: 8175 953d 05bf b8bc a800 72bd 6f43 233e
00000250: c183 7dbd 94af 79bd 3083 08be b916 08be
00000260: 4875 573c 8422 e0bd 9e86 d13c 38c6 28bd
00000270: 80d9 12be 1183 f6bd e605 fa3d 94da 8bbc
00000280: 9931 4d3d 5e00 c83d 921a 973d d530 2a3c
00000290: 7166 833d b4e4 0ebe e676 1dbe 44b9 08bd
000002a0: 5e46 b4bb 6df4 993b 3917 953b 0efa f43c
000002b0: 8003 ea3c fdc5 fa3d 3549 d83d fef6 c4bd
000002c0: 79d3 8bbd b6fa 27bd 1c56 8abd cb97 5abd
000002d0: cc54 bd3d c200 0ebd 4664 37bc 7e7c e83c
000002e0: d02f e83d 1471 883d fa5f aebd 9737 fc3d
000002f0: a461 32be 7968 883d 8ca7 11bc 30a0 a1bd
00000300: b8f7 183d 6e4c 06bd ce1f b5bd 10a3 e1bd
00000310: 0c74 a1bd b30f d33d 0aeb 41be ce2b d03d
00000320: d0e7 f5bd 4598 67bd f50b f6bc 5531 48bb
00000330: b196 b73d 1ba6 b33d a20a 2b3d 402e 883d
00000340: 0241 393c afbf 28bd 105f d5bd 495f 843c
00000350: c8dd 37bd dffb d2bd 0444 9c3c 0975 19bd
00000360: 7d99 c03d bab6 ab3d 5d1f 593d d8a4 e23d
00000370: 8100 21bd a2d8 e23d 9bbd 1c3e 1096 56bd
00000380: 1ee3 3c3d 9815 37bc 88d2 563d d870 86bd
00000390: 3241 87bd 13af cd3d 9317 4bbd 996d 973d
000003a0: ee4c 903d 35f4 f5bc 4c54 2dbd ff63 15be
000003b0: 05c9 abbb 7aca c5bd 230c eabc 07fe 2ebd
000003c0: 50c7 a8bd f724 99bd bc28 cf3d de08 393d
000003d0: ae57 e2bd 16b8 dabc 1f6a 143e 9901 223d
000003e0: fb3c 233e 9c52 d9bd e6d5 e83d 1dc5 423c
000003f0: c4b0 65bc 3014 533d e153 96bc 5c9d e73d
0.03857461 0.05316418 -0.07547844 0.0003330696 -0.00314986 0.070380405 0.073673986 -0.14731817
-0.01511738 0.09759938 -0.10647816 0.043876868 0.14901927 0.009432747 -0.08564856 0.03738749
-0.05086202 -0.0030598887 -0.0028813966 0.059635766 0.084157765 -0.0824508 0.05539634 -0.09107259
0.10504116 0.028464923 -0.1024893 0.047488224 -0.009686947 0.025671296 -0.109253 0.14640918
-0.04670166 -0.013630835 -0.007990703 -0.0236358 -0.1562465 0.066742525 0.09546152 -0.033125035
-0.16851859 0.048610706 -0.012364713 0.12012597 -0.009922206 0.0470687 -0.13907698 0.09950567
-0.0741826 0.012968256 -0.11565488 0.12430199 0.019641425 -0.1391261 -0.11429276 0.045810428
-0.05654996 0.060538996 -0.0346767 -0.15758015 -0.06743598 -0.021948667 0.11690389 -0.026920531
0.040724266 -0.06927923 0.0046972022 0.111734845 -0.08871346 -0.07989745 -0.13672103 -0.04932335
-0.06277064 0.008533761 0.09584708 0.031298943 0.14545815 -0.09182228 -0.13787626 0.061901916
0.08064615 0.04481525 0.026018081 -0.05281613 0.005344625 0.10912651 0.011852141 -0.15121149
-0.08082179 0.060355373 0.037886765 0.057875283 0.16080642 0.13498399 0.024162564 0.09126393
0.11288533 0.06255982 0.07090169 0.066859856 -0.057376597 0.0349698 -0.015993638 0.013465294
-0.020777218 0.06726663 0.04670382 -0.06712523 0.14053525 0.10396284 -0.0052275015 0.11851264
0.043041714 0.040829677 -0.15625258 0.02280053 -0.098013386 -0.027900012 0.099467926 0.055503648
0.032152176 -0.05684574 0.057891097 -0.11904006 -0.07506963 0.038812034 0.011410833 0.090438895
-0.14464277 -0.11942147 -0.13235597 -0.15043747 -0.04707817 -0.02004153 0.051792227 0.004459959
0.082830586 -0.12877357 -0.052644555 -0.12006245 -0.18733841 -0.13351342 -0.004091015 -0.092932075
0.07297803 -0.022552023 -0.059082657 0.15943693 -0.06189323 -0.06095846 -0.13331294 -0.13289918
0.013150521 -0.10944083 0.025576886 -0.04120466 -0.14340782 -0.12036718 0.12208156 -0.017072
0.050096128 0.09765695 0.07378115 0.010387619 0.064160235 -0.13954431 -0.15377387 -0.033379808
-0.0055015525 0.0046983273 0.0045498875 0.029904392 0.028566122 0.122447945 0.10560838 -0.096174225
-0.068274446 -0.04101058 -0.06754705 -0.053367417 0.09244689 -0.03466869 -0.011193341 0.028379675
0.113372445 0.06662193 -0.085144 0.123152904 -0.1742006 0.066605516 -0.008890044 -0.078918815
0.037345618 -0.032787733 -0.08843957 -0.1101743 -0.07883462 0.10305729 -0.18937317 0.10164605
-0.12007105 -0.0565417 -0.030034998 -0.0030546982 0.08964289 0.087719165 0.041758187 0.066494465
0.011307003 -0.04119843 -0.10418522 0.016158717 -0.04488924 -0.10301947 0.019075401 -0.03746513
0.094042756 0.08384462 0.053008426 0.11066598 -0.03930712 0.11076476 0.15306704 -0.052389205
0.046115033 -0.011174582 0.052446872 -0.06564492 -0.06604232 0.100431584 -0.04958303 0.07393951
0.07045923 -0.030023674 -0.04231672 -0.14588927 -0.0052424693 -0.0965776 -0.02857024 -0.042722728
-0.08241141 -0.074777536 0.10115191 0.045174472 -0.1105188 -0.026699107 0.14493607 0.039552305
0.15941231 -0.106114596 0.11368923 0.011887816 -0.014019195 0.051532924 -0.018350543 0.11309311

blocks.1.0.bias f4 [32]
00000000: ba10 4a3c eddd 5ebd 9edc a43c 8184 f63d
00000010: 6910 fabd f881 8ebc a67b 3cbd d523 e63d
00000020: 6d6b e63d 63c1 603d 1719 4bbd 62c9 853d
00000030: 75d4 d03d a5fe 4dbd 549f ef3d e123 803d
00000040: 0b92 1ebd 4daf 273c 20ca 3abd d48b 24bd
00000050: 3867 fd3c cfad 9abc 90ef 1e3d 7b14 ab3d
00000060: 4156 f6bd 7fc0 c63d b078 b33d 3846 ac3a
00000070: 21a4 2abd b929 ac3d 5572 cfbd fa99 643d
0.0123330895 -0.054410864 0.02012473 0.12036992 -0.12210161 -0.017395958 -0.046016358 0.11237303
0.112509586 0.054871928 -0.049584474 0.06532551 0.10196773 -0.050291676 0.11700311 0.06256843
-0.038713496 0.010234666 -0.045602918 -0.040172413 0.030933008 -0.018881707 0.038802683 0.08353516
-0.120281704 0.097046845 0.08763254 0.0013143485 -0.04166043 0.084063955 -0.10129229 0.055810906

blocks.1.1.weight f4 [32]
00000000: a65e 7c3f f313 733f 728b 743f 308d 703f
00000010: 3b30 893f 5735 873f 892b 7c3f b128 863f
00000020: 85e9 7c3f 4241 7f3f 9cb8 723f e34c 7d3f
00000030: 587d 803f f603 7a3f a5c2 6b3f 447d 823f
00000040: d913 7a3f 2432 873f 65e1 7d3f 8696 6b3f
00000050: 7f38 7b3f c737 723f ee2d 823f 7a2f 7b3f
00000060: 843a 7b3f bdd6 843f 432b 873f 707a 7b3f
00000070: 3faa 823f 9be9 803f bf97 823f c279 813f
0.9858192 0.94952315 0.95525277 0.93965435 1.0717844 1.0563153 0.9850393 1.0481168
0.9879382 0.9970895 0.9481294 0.98945445 1.0038252 0.97662294 0.9209388 1.0194478
0.97686535 1.0562177 0.9917205 0.92026556 0.9813308 0.9461636 1.0170267 0.9811932
0.9813616 1.0378033 1.0560077 0.982337 1.0208205 1.0071291 1.0202559 1.0115283

blocks.1.1.bias f4 [32]
00000000: 32ed 1c3c a5dd 72bd 37c9 edbc d052 cdbd
00000010: 4c39 703d df70 f83c b4b7 b0bc 3f8e 713d
00000020: c703 8ebc 600a 14bd 91bc 08bd 829f 6ebd
00000030: 03a3 c33c 1e8d 40bd 4853 8fbd f79b 62bc
00000040: 7c1a 203c 4fd2 863d 76d5 b73a d1d6 80bd
00000050: fc4e 05bd 1ee2 46bd e628 753c 81a0 5abd
00000060: 2bac 15bd 5b53 293d deab 863d cfaf 1ebd
00000070: a513 b9ba ee15 c73c 4595 3a3d 40b8 60bc
0.009578036 -0.059293408 -0.02902661 -0.10025561 0.058648393 0.030327259 -0.021571971 0.058973547
-0.017335786 -0.036142707 -0.033382956 -0.058257587 0.023881441 -0.04700958 -0.069983065 -0.01383113
0.009771939 0.06583082 0.0014025408 -0.06290973 -0.03254603 -0.048555486 0.014963364 -0.053375725
-0.036541145 0.04133926 0.0657575 -0.038741883 -0.0014120234 0.02430245 0.04555251 -0.013715804

blocks.1.1.running_mean f4 [32]
00000000: 6e09 0dbe 9e4f 353f cf85 94bf 7525 0b3e
00000010: c0ae 77bf b139 863b a33f 673d e4d1 3dbf
00000020: d5eb 9ebe 47e7 c13e bfcd c83e d41d ed3e
00000030: 8f67 2fbd 2a51 1f3f 1586 093f 205c e5bc
00000040: 123a 533f 733a 8b3e 11ab 15bf bb7d bcbe
00000050: 6fb3 63be 809f 1e3f 692e 333d 5e7b 40bf
00000060: 101b a2bf 30e3 183c 4de8 d2be e291 853e
00000070: bad9 523e 3d5b 043e 8a7b 7bbe 201b 97be
-0.13773128 0.7082461 -1.1603335 0.13588507 -0.9675102 0.004096233 0.056457173 -0.7414839
-0.310393 0.37871763 0.39219472 0.4631182 -0.04282337 0.6223322 0.5372022 -0.02799803
0.82510483 0.2719303 -0.5846415 -0.36814675 -0.22236417 0.6196213 0.043745432 -0.75188243
-1.2664509 0.0093315095 -0.41192856 0.26087862 0.20590869 0.1292543 -0.24558845 -0.29512882

blocks.1.1.running_var f4 [32]
00000000: 1da7 023f f9ea ed3e bac6 ce3f 8edc 0c3f
00000010: e4f5 2a3f 065f 2f3f 4be7 aa3e ba24 dc3e
00000020: 35e4 1d3f a956 323f 6ee0 973f 5f07 213f
00000030: 5776 573f 2079 823e b988 643f 53e0 473f
00000040: 183b d13e 5019 563f 5ee4 973f e75e 973e
00000050: 4814 a43e 6052 603f 2e41 813f 2fde 693f
00000060: edf0 f33f 4a8b 7c3f 13d1 293f 7625 243f
00000070: 9842 f23e c3dc bc3f ac46 c63f 11ec 6b3f
0.51036245 0.46468332 1.6154397 0.5502404 0.6678145 0.6850437 0.33379588 0.4299677
0.6167634 0.6966348 1.1865366 0.6290187 0.8416495 0.25483036 0.8927112 0.78076667
0.40865397 0.83632374 1.1866567 0.29564592 0.32046723 0.87625694 1.0098016 0.9135465
1.90579 0.9865004 0.66334647 0.6411966 0.47316432 1.4754871 1.5490317 0.92157084

projections.0.0.weight f4 [64, 34]
00000000: 2e88 cebc 279f b23d ff5c 23be c228 05be
00000010: 8af1 143e d88a b4bd 80ba b93d 1332 06be
00000020: 2af0 043e dbef 1fbe 790f 7e3d 144e b13d
00000030: 8a67 253e 0a26 0b3d 0703 1cbe 6481 35be
00000040: a3e6 10be 025b 91bc c060 d23d 81e5 58bd
00000050: dafa 3c3d 4370 bcbd 3b50 273e 7a4b 593d
00000060: dc0c 423e 3c0e 15bd 9a9a ab3d 3818 5e3d
00000070: 71e3 493e 5770 8b3c 38fd ff3d cfc8 a93d
00000080: 876f 463d 07a3 97be 8281 23be 7926 aabd
00000090: 0691 8f3c 7d7b 70bd 3bdb a8bc 3ef8 f43d
000000a0: e683 dabd 265d 16be 8c2b cabc 1991 063e
000000b0: 3dd5 113e 4b66 123e 9031 e43d f168 083e
000000c0: 97cd b83d 62d5 1d3e cbbc 083d 187b 2e3e
000000d0: 021c 993c 5ca5 0b3d 47b2 f6bd 2dff 873a
000000e0: ff73 5cbd b575 d63d 3d5d d13d 364c 40bd
000000f0: 636d 30be aca2 d9bd 6802 0abe b7a9 1b3e
00000100: d708 51bd 9bc0 153a 0945 823b a9e0 b2be
00000110: 3eb1 3bbe 7b5a 0abd 8642 a03d ab15 893d
00000120: 7448 da3d bb2f bdbd cef2 923d 376f d4bd
00000130: bf38 023e 0377 f13d fe73 18be ca2f 2f3d
00000140: 892c 973d da0d 94bc 3df8 08be 86f8 febb
00000150: d310 2c3e 4036 c9bb a981 4c3e 167f dcbd
00000160: dd03 5fbe 029d 29bc 2f9c 0bbe bc50 fa3c
00000170: 807e 833c 6da0 113e a407 ef3d f518 a0be
00000180: 58f6 903d badd 393e 52bb d9bd 3a18 54bd
00000190: dbb9 b1bd 88b8 213d 4813 f4bc 845e d73d
000001a0: ba98 0cbe ff78 0ebe 26d4 c83d 344d d5bc
000001b0: 60ab 5dbe 6fe1 09bd bfa9 2bbd a545 90bd
000001c0: e61f 903d 7196 1a3e dc12 f8bb 1c0d 9abc
000001d0: 7e97 0dbe 6e5d 8dbd f569 cbbc 2b6b 1c3d
000001e0: 22f2 a7bd e43e 313d 2fc4 b1bc 78da 32be
000001f0: 325a ce3d ec5b 86bd e02e 2238 6b51 173d
00000200: 5cbe acbd 38e9 69bd 8d2e 623e 8ede 0ebd
00000210: 1b37 f93c 4326 8ebc 8490 9c3d a431 98be
00000220: 9d7a 29be 1a33 f9bd 5c34 75bd a303 5dbe
00000230: a983 03bd ab9c 26be 16c5 28be b188 eabd
00000240: 4170 cdbd a983 8ebd 27bd 553e 23d6 3dbd
00000250: 649e 8abd 3ab9 38bd b454 773d 2058 f4bd
00000260: 2197 d43d 8aa8 6cbc 927f 0a3d 7984 a6bd
00000270: c875 5f3c c8a6 42be a142 e43d 3e85 093e
00000280: 4c1b fe3d 417d 07bd d90f 8dbd 8b9f 3e3e
00000290: d92f 36be f765 683a 2329 0f3d c539 3e3e
000002a0: f719 38bd dd79 a8bd 0582 5f3e 43a2 a03d
000002b0: dd16 203d 8ca6 823d 879e 2d3e 1efe 3b3c
000002c0: 92db 393e e544 da3d 512a 0c3d 79a3 e9bd
000002d0: ecf4 a03d 0e0e 3a3b 6ae5 0cbe fe21 c83c
000002e0: b4c9 d1bc 21d8 e63d 3f79 dabd eb8f dcbc
000002f0: e7b4 183d 4ea3 eebd 1a94 0c3e a05e ed3d
00000300: 8ca1 b13d 8c4f a93d 900d 573c 1258 833d
00000310: ff83 21be acfa b5bd 4b94 b7bd 56c0 87bd
00000320: 7071 41be e861 0a3e e400 b53c 2c33 233e
00000330: 0780 0fbe 4dac 10be add0 54bd f14e a8bd
00000340: 8969 843d 7d2b 9c3c 275f 1e3c 13ef 0c3e
00000350: 3733 b6bd 12a7 e0bc f3a4 c23c 6a23 5bbd
00000360: f34c fabd 85a3 9f3d b819 adbd a09a 673e
00000370: 00a8 013e 3d85 913d 9933 6c3d c697 f73d
00000380: c330 1fbe 9e88 cebd d176 d9bd eb99 1bbe
00000390: 9e4b 2a3e f163 40be b32d 6cbc 9e33 9b3d
000003a0: f39c 493d 2ba3 a33c cc99 84bd f144 6f3d
000003b0: 337a fbbd 55fe 72be fee9 bf3d 5911 4e3e
000003c0: edba ebbc 1090 8abd 6f52 a93d 9919 d73c
000003d0: 2f04 c93d 6084 8c3b 5b00 babc 1aa5 9f3d
000003e0: 6e57 34be 821f d2bd 81eb 8f3d 69a4 003e
000003f0: a8b3 86bd 08bb 9b3c 4941 bb3d c05f 313a
-0.02521142 0.08721762 -0.15953444 -0.13003829 0.14545265 -0.08815545 0.09068775 -0.1310504
0.1298224 -0.15618841 0.062026475 0.0865747 0.16152778 0.033971824 -0.1523553 -0.1772514
-0.14150481 -0.017743591 0.1027236 -0.052953247 0.04613767 -0.092011 0.16339199 0.053050496
0.18950218 -0.036390528 0.08379097 0.054222316 0.19715668 0.017021341 0.124994695 0.08290254
0.048446205 -0.29616567 -0.15967372 -0.08308119 0.017525207 -0.058711518 -0.02061235 0.11961411
-0.10669689 -0.14683971 -0.024678968 0.13141288 0.142415 0.14296834 0.11142266 0.13321282
0.09023588 0.1541343 0.033383172 0.17039144 0.018690113 0.034093246 -0.120457225 0.0010375731
-0.05382156 0.104716696 0.10222862 -0.04694768 -0.17229228 -0.1062673 -0.1347748 0.1520146
-0.05103382 0.00057125994 0.003975515 -0.34937027 -0.18329331 -0.033777695 0.07825188 0.06693586
0.106583506 -0.092376195 0.071752176 -0.10372775 0.1271696 0.11790278 -0.14887998 0.042770185
0.07381541 -0.018073011 -0.13375945 -0.007781091 0.16803293 -0.0061405003 0.19971336 -0.10766427
-0.21778817 -0.010352375 -0.13633798 0.030556075 0.01605153 0.14221354 0.11671379 -0.3126904
0.07078236 0.18150988 -0.10631432 -0.051780917 -0.08678027 0.039482623 -0.02979435 0.10516074
-0.13730136 -0.13913344 0.09806089 -0.02603779 -0.21647406 -0.033662256 -0.04190993 -0.07044534
0.07037334 0.15096451 -0.0075706076 -0.01880508 -0.13827321 -0.06902586 -0.024830798 0.03818814
-0.0820048 0.043272868 -0.021699993 -0.17466152 0.10075797 -0.065605015 3.8667466e-05 0.03694288
-0.08434746 -0.05710718 0.2208807 -0.034880213 0.030421784 -0.017352229 0.07644752 -0.29725373
-0.1655068 -0.1216795 -0.059864387 -0.21583419 -0.032107983 -0.16270702 -0.16481432 -0.11451853
-0.10031176 -0.06958706 0.20872937 -0.046346795 -0.06768492 -0.04509852 0.060383514 -0.11930871
0.10380388 -0.01444448 0.033813067 -0.08130736 0.013638921 -0.19008934 0.11145521 0.13429734
0.1240755 -0.033078436 -0.06887788 0.18615548 -0.1779169 0.00088652916 0.03495134 0.18576725
-0.044946637 -0.082263686 0.21826942 0.07843449 0.039084304 0.063794225 0.16955005 0.0114741605
0.18150166 0.10657672 0.034220044 -0.11408133 0.07859215 0.0028389725 -0.1375939 0.024430271
-0.025608875 0.11271692 -0.10667657 -0.026924094 0.037281897 -0.11652242 0.13728371 0.11590314
0.08673391 0.082671255 0.013125792 0.064132825 -0.15773009 -0.088857025 -0.089638315 -0.06628482
-0.18890929 0.13513911 0.022095151 0.1593749 -0.14013682 -0.14128228 -0.05195682 -0.08218182
0.06465442 0.019063706 0.009666241 0.13763075 -0.08896487 -0.027423415 0.023760295 -0.05350057
-0.12221708 0.07794861 -0.08452171 0.22617579 0.12661743 0.07105491 0.057666395 0.12089495
-0.15545945 -0.100846514 -0.106183656 -0.15195434 0.16630408 -0.18788125 -0.014415192 0.075782046
0.049221944 0.019975265 -0.06474647 0.058415357 -0.12279167 -0.23729832 0.09370802 0.20123805
-0.028775657 -0.06765759 0.08267676 0.026257323 0.09815251 0.0042882413 -0.022705248 0.077951625
-0.17611477 -0.10259916 0.07027341 0.12562717 -0.065772355 0.019010082 0.091433115 0.0006766282

projections.0.0.bias f4 [64]
00000000: f7d8 253e 50ad 1f3e d2ae a43d a721 b23c
00000010: 40a7 053e 5eb8 ef3d a848 cabd be6c 223e
00000020: 664f 2b3e 00d7 44bc f5fe f5bd 8a8c 94bd
00000030: bce9 0f3d f9e3 8dbc be82 ecbd 87bb a13d
00000040: 1a8f 22be c53f 11be 3a45 9ebd 023a 13be
00000050: 63ab 31be 4e90 a4bd f0d2 2bbd 1a51 04bd
00000060: 1d39 efbb 92d5 8dbd 3ad4 ee3d f9d8 0e3d
00000070: 95e8 233e 7ec0 9a3c 8d9c 9cbd c012 babd
00000080: 4487 d83d fbdf 733b 1c45 c6bc 6fd8 3b3e
00000090: bbe9 e2bd 4b7e 913d 4616 483c 36ac 223d
000000a0: 1b09 34be 129a d03d 6e06 a43c 6741 1cbe
000000b0: 776a ef3d 0281 5dbd 62e5 2fbd 4402 b2bd
000000c0: 8ece 823d 333e 1fbe 23c6 e53d 9685 233e
000000d0: b9b0 24bd 4bcc 0bbe d532 afbd 07f2 0c3e
000000e0: 2d1e 103e 0c5a 353d 4df2 4ebd 585e 063e
000000f0: b63b 0fbe 9082 3dbd 6ee5 0bbd 6ac6 ba3c
0.16196047 0.15593457 0.08041157 0.021744562 0.13052082 0.11705087 -0.09877139 0.15861794
0.16729507 -0.012014151 -0.1201152 -0.07253368 0.035135016 -0.01732062 -0.115483746 0.07897096
-0.15874901 -0.14184482 -0.07728048 -0.14377597 -0.17350535 -0.080353364 -0.041949213 -0.032303907
-0.0073005096 -0.06925501 0.11661573 0.03487489 0.16006692 0.018890616 -0.07647047 -0.090856075
0.10572675 0.003721236 -0.024202876 0.18344282 -0.11079737 0.071041666 0.012212342 0.039715014
-0.17581598 0.101856366 0.020022597 -0.15259324 0.116902284 -0.05407811 -0.042943366 -0.086918384
0.063870534 -0.15551071 0.11219432 0.15968928 -0.0402076 -0.1365215 -0.08554617 0.13764201
0.14074011 0.04427533 -0.050524045 0.13121927 -0.13987622 -0.046267092 -0.034154348 0.02279969

projections.0.1.weight f4 [64]
00000000: e713 823f eb93 7f3f ce8d 873f e5c1 773f
00000010: 37ad 823f bd47 823f afcc 803f 9266 7f3f
00000020: 2cb6 7a3f 11db 7a3f 709f 833f 4f93 823f
00000030: efc5 823f 1af0 713f d926 7f3f fcc2 813f
00000040: 5f61 833f ce2c 7f3f 070c 833f b490 763f
00000050: 53bd 853f 8713 843f 52e6 873f fd0d 833f
00000060: 931c 7c3f ffca 7c3f 3c2a 703f 93c0 803f
00000070: 5d36 823f 278c 813f 52d7 843f 3bdb 823f
00000080: 07d2 7d3f f496 793f 3ef6 843f 6f84 863f
00000090: 6c74 863f 5994 713f a65d 863f 06ec 8a3f
000000a0: a72c 6d3f d41e 7e3f 0a82 7a3f 89aa 873f
000000b0: 97da 7a3f f542 873f e8e6 7a3f 1da9 713f
000000c0: a979 843f b5f8 823f d56d 723f c635 813f
000000d0: 4b4d 6f3f 76aa 803f 11b9 803f a017 803f
000000e0: feb1 7d3f 68b7 753f 6e28 793f ee75 7d3f
000000f0: 2e7c 843f 4f55 833f 11fa 793f cd2d 803f
1.0162324 0.9983508 1.059015 0.96780235 1.0209111 1.0178143 1.0062464 0.99765885
0.9793422 0.9799052 1.0283031 1.0201205 1.0216655 0.9450699 0.9966865 1.013763
1.026409 0.9967774 1.0238045 0.9631455 1.0448402 1.0318459 1.0617163 1.0238644
0.984811 0.9874725 0.93814445 1.0058769 1.017284 1.0120896 1.037821 1.0223154
0.991486 0.9749596 1.0387647 1.0509166 1.0504279 0.94366986 1.0497329 1.0853279
0.9264626 0.9926579 0.97854674 1.0598918 0.9798979 1.0567309 0.98008585 0.9439867
1.0349628 1.0232149 0.9469884 1.0094535 0.93477315 1.005202 1.0056478 1.000721
0.9909972 0.9598298 0.97327316 0.9900807 1.0350397 1.0260409 0.97647196 1.0013977

projections.0.1.bias f4 [64]
00000000: 9c3b bcbc c45a a53d be2a 41bc 450e 873c
00000010: 9a6d 6d3d 7afa e53c d843 56bd 5688 aa3c
00000020: 0a5b f0bc 1b70 08bd f0b7 163d cfcc 623d
00000030: 51a6 0ebc eed5 87bc b658 ccbc d097 163d
00000040: 197a 07bd a0a3 f7bc 624b 4e3d 6338 d43a
00000050: 3301 8b3d fdad a9bc 8eeb 41bd f2cf 633d
00000060: 8901 2e3d d8b3 373c 2193 92bd 2750 3d3b
00000070: d61e 33bd ec46 433d 3db8 3cba 3918 933c
00000080: 9d90 18bd fe2d f2bc 9e37 533b 1f3a 4d3d
00000090: fecb 943b 7b93 2e3c 41a7 183d a655 c93c
000000a0: 38ec afbc 90c5 813d 8677 053d 72c0 4ebc
000000b0: e93e 953d 7b10 b13a a6af 51bd 3a07 91bc
000000c0: c38b ea3c ec5c 93bc 5d4a 083d a163 c4bc
000000d0: 1087 bfbc 99c7 cdbc 6d9b c0bc 5ef4 1dbd
000000e0: db7c 33bc 7f4f 5dbb 24f2 103b 71f2 5fbd
000000f0: 2336 293c 85b1 5b3c 5089 9abc 91c6 833d
-0.022977643 0.08073953 -0.011789976 0.016486296 0.057965852 0.028073538 -0.052310795 0.020816963
-0.029340286 -0.033310037 0.03679651 0.055371102 -0.008706645 -0.016581502 -0.024944644 0.036765873
-0.033075426 -0.03022939 0.05036486 0.0016191121 0.06787338 -0.020712847 -0.047343783 0.055618234
0.042481933 0.011212312 -0.07156969 0.0028886886 -0.04373058 0.04767506 -0.00071990845 0.017955886
-0.03724729 -0.029562946 0.0032229195 0.050104257 0.0045409193 0.010655279 0.03726888 0.024576973
-0.021474943 0.0633651 0.03258469 -0.012619125 0.0728739 0.001350894 -0.051192902 -0.017703641
0.028631097 -0.017988645 0.033274043 -0.023973288 -0.023379833 -0.02511959 -0.023511613 -0.038563125
-0.010955061 -0.0033769307 0.0022116983 -0.05467457 0.010327849 0.013409023 -0.018864304 0.06434358

projections.0.1.running_mean f4 [64]
00000000: 3995 ab3e e082 3c3e 31e8 143e ed6d 84bd
00000010: 26b0 5a3e f44f 273e 4afd fcbd 7826 af3d
00000020: da81 893e c90f d33d cc13 52be 9d71 8bbc
00000030: ecc1 463c c6b2 93bd 8229 82bd 16bf ed3e
00000040: 407b 83be 5625 923b 6ae3 a4bd ec6a e0be
00000050: b4ad 17be b2b6 27be 1571 0abe e5eb aa3c
00000060: 5dc8 673d 2b05 84bb 2af8 1bbc f82c 083d
00000070: 0711 7a3e 8a24 f73d 302a 5abd 2f56 5abe
00000080: 7ce9 bb3c 15a3 00be 127f fa3d acb2 af3e
00000090: e4ae 1abe 5253 76bd 52cd a9bd f744 9d3c
000000a0: 8308 79be f6ec 323e 6b75 42be 6bf2 1cbe
000000b0: 2cdc 3a3d 5bf4 983d d175 edbd 8de0 6bbe
000000c0: 1a6e b03d 900f 59be 2040 0e3e c98d 943e
000000d0: bcfb eabd fe77 3fbe 2f33 6bbe c14e 6e3e
000000e0: 17ee 92bd 392d fa3d df2a 44be 5253 263e
000000f0: 82f7 c6bc a825 4cbe d202 13be 0010 4b3e
0.33512285 0.184093 0.14541699 -0.06466279 0.21356258 0.16339093 -0.123529986 0.08552259
0.2685688 0.10305745 -0.20515364 -0.017021948 0.0121311955 -0.07211833 -0.06355573 0.4643485
-0.2567997 0.004460017 -0.08051188 -0.43831575 -0.14812356 -0.16378286 -0.135197 0.020864436
0.056587566 -0.0040289364 -0.009519616 0.03324601 0.24420558 0.12067516 -0.05326289 -0.21321939
0.022938482 -0.12562211 0.12231268 0.34316003 -0.15105778 -0.060138054 -0.08291115 0.019197924
-0.24319653 0.17473206 -0.18990104 -0.1532685 0.04562013 0.07468482 -0.11594737 -0.23034878
0.0861475 -0.21197343 0.13891649 0.29014423 -0.11473796 -0.18698117 -0.22968744 0.2327223
-0.07174318 0.12215657 -0.19156979 0.16242722 -0.024287943 -0.1993624 -0.14356545 0.19830322

projections.0.1.running_var f4 [64]
00000000: a5ef 873e f2e7 803e b8ab 883e c965 703e
00000010: 722e 133f 54c6 c83e 0f56 873e 24d6 6e3e
00000020: 2385 6e3e 5c02 b13e 6252 0e3f e493 a63e
00000030: 6b36 573e f7f3 d23e c05c 883e 8365 a03e
00000040: 2441 893e e1a4 9c3e 1d00 c03e ccc3 a03e
00000050: f06e b73e 7451 733e 5b0f 2d3e a508 4c3e
00000060: c454 cd3e b8fa 8d3e 64c0 303e ab23 833e
00000070: 8cf9 a13e b959 7e3e 9368 ed3e 2449 a23e
00000080: fc4f bb3e a846 ab3e ed8e 503e 0d14 0a3f
00000090: affd ed3e b8b8 b83e 4643 3a3e e8e8 2e3e
000000a0: 4866 6b3e 7076 963e 4429 ab3e 07bd 443e
000000b0: 0d65 a63e f1d0 933e ec94 913e fe9c 8d3e
000000c0: e874 363e 59e9 893e a199 423e ef09 e83e
000000d0: ba25 0f3f 058b b93e 2061 c13e c61e 853e
000000e0: dd21 dd3e 5d23 6e3e ccc7 663e ad46 563e
000000f0: e1c0 2b3e 0864 b23e d11b eb3e d811 fc3e
0.26550022 0.2517696 0.2669351 0.23476328 0.57492745 0.39213812 0.26432845 0.23323876
0.23292975 0.34572113 0.55594456 0.32534707 0.21016853 0.41201755 0.26633263 0.31327447
0.2680751 0.30594543 0.37500086 0.3139938 0.35826826 0.2376154 0.16900389 0.19925173
0.40103734 0.27730346 0.17260891 0.2561315 0.31635702 0.24838914 0.46368846 0.31696427
0.3658446 0.33452344 0.20367022 0.53936845 0.46482608 0.3607843 0.18189725 0.17081034
0.22988236 0.29387236 0.3342992 0.19212733 0.3249897 0.28870347 0.2843393 0.27658838
0.17818034 0.26935843 0.19003917 0.4532008 0.5591694 0.36238876 0.37769413 0.2600004
0.43189898 0.23255678 0.22537154 0.20925398 0.16772796 0.34841943 0.4591966 0.49232364

projections.1.0.weight f4 [32, 64]
00000000: 4a83 dc3d fd99 543d 9f3c 44be 6f23 e23c
00000010: 9d98 84bd f7d7 2b3d 7c40 8dbd 9851 bbbd
00000020: f231 f8bd deec 0e3e 3321 53bd f47d 1f3d
00000030: 0ab3 c73d 60d7 873c 89ac aa3d 7e4c 21be
00000040: 7884 b8bc 76a9 d4bd 52ea 8abb 2a59 52bd
00000050: e716 403d 13a0 08be 597e a53d 2e0e ecbd
00000060: 91e3 963d 8526 5dbd ad17 bf3c 3e44 9cbd
00000070: 4b09 943d 0b43 2a3d 3e81 c9bb 77b6 afbd
00000080: e95e 433d 3405 47bd 2f5d 02bd acdb 413c
00000090: 6c3c 91bd a285 0f3a 5297 e73c 170b c73d
000000a0: 9c1a aa3d a6f7 8b3b 3c33 d73b 4f30 093e
000000b0: ff5b edbd 8b98 76bd 8f0f fcbd dc05 09be
000000c0: b272 ec3d 2edb 4dbd d65b ba3d e98b dc3d
000000d0: 583f 53bd e37d 3f3d 24ab 2f3d 93ea 17bc
000000e0: ad35 0abe 85d6 afbd a778 f1bd 9eac f2bd
000000f0: a39f c2bc cd9b 35bd ea3f 08bd 3d2f 10bd
00000100: 59a5 ba3d e532 01bc a224 6c3d 2738 953d
00000110: e511 debd 9b8d 0abd 0312 84bd e398 f3bc
00000120: 673b 0d3e 1aaa 2d3d 9729 f03d a1d3 5cbd
00000130: 31d2 aebd 842b 163d a025 8fba c424 9c3c
00000140: b5d2 d03d 6621 44bd 097b acbd e9ef 1a3e
00000150: 393c c6bd e362 b0bd 63a5 5dbc 086e adbd
00000160: 23c1 803d d54f 1f3d eaaf 8ebc 0b77 bdbc
00000170: 061f 52bd 0c8c 273d fbdd 00bd 501b 4cbd
00000180: 3310 193e 3c68 e4bc 4511 64bd 3ac6 55bb
00000190: 288b 35bd f08a 78bc ba88 a4bd 4ddb 9abd
000001a0: 359c 5fbd f1ee b8bd 0c9d bbbd 551d edbd
000001b0: f421 cbbc 0715 8ebd d6c4 b3bd e26d 723d
000001c0: b8b7 c23c d962 6fbd 1ed9 1dbe 4c56 1fbe
000001d0: f93f e53d eae7 473d 2888 f4bd 7e2e dbbd
000001e0: 51dd 0f3d b4a9 a63d fb19 b8bd 6993 aa3d
000001f0: 0001 bcbd a849 a3bd 1402 483d a34a 653d
00000200: ac76 83bc c906 04bd 3122 b4bd b7bb 8abd
00000210: e15e eebd 24f1 a03d 6689 bcbd 9d2d fcbc
00000220: 9da4 093e b182 dcbd 5497 e53d 2394 3fbd
00000230: 1200 3abe 9127 3fbb 329c e1bc d266 46bd
00000240: c8be cab8 ef90 83bd 741e 17bd 330f 60bd
00000250: 8461 f33c 3648 2bbe 3958 ccbd 2ca0 263c
00000260: f7e9 533d be15 a6bc 2fd9 98bd ae97 fabb
00000270: 98a9 28be f577 f9bd e023 a9bd 3486 893d
00000280: a57d 003e be42 823d a3dd 2bbd 5268 083e
00000290: 9c7f 183e 3ad7 f8bd 88e8 fd3c 8f6e e4bd
000002a0: b888 28bc 125c ffbc 9ee9 a43d 838c 31be
000002b0: f942 1f3d 4756 e53d 9c4e 9b3d 9e06 6f3d
000002c0: 7942 94bd 2451 ee3c 5964 2c3c 5663 12bb
000002d0: 7bca 24bd e13c 8c3d 4257 c63d bb5b 323d
000002e0: 844b e43d 4504 1cbd e66f ecbc 0d5c 9c3d
000002f0: fa9d a03d 1062 f03a 0eac 673d e1ee 823d
00000300: 3425 f73d 2933 f13c f9d0 a83d 5c14 c63c
00000310: abdd d5bd 4a97 8c3d 6bcb 883b 111e d13d
00000320: 1d8d 9cba a432 c43c 443b 38bc e050 a03d
00000330: c172 e4bd 286b 293e 6232 183c bfbc 803d
00000340: f824 b83d 87ac 00be 4800 b9bc d68b d7bd
00000350: 5992 e93d 4daa 79bd eb9c dcbd 2c54 913d
00000360: ac34 1f3e b680 c43d e905 bdbd 5486 673d
00000370: 5ce8 e1bd e936 18be fe92 76bd d8d8 29bd
00000380: 67aa 10bd c700 03bd 5aff 1a3c 46db bc3d
00000390: 23ff 90bd 816c c63d f6f0 6b3d 059c 02bc
000003a0: 60b3 9a3d 82d3 67bc b9c3 1e3e a2c4 cbbd
000003b0: bb2a 243d c1e4 033d c5a0 f63d eebf 433e
000003c0: 3097 03bc f6ac 5e3d eb8f 3e3e 3f36 88bd
000003d0: f8b1 17be 5207 71bd 1259 8c3d 0c32 f6bd
000003e0: 76f8 b9bc d972 443a a6eb 0d3d 1128 203d
000003f0: dafe 87bd 2d6f 813c be2e 483d 2b1d 7dbd
0.10767229 0.051904667 -0.1916375 0.027604787 -0.06474421 0.041954007 -0.06897065 -0.09146422
-0.12118901 0.13957545 -0.051545333 0.038938478 0.09750946 0.016582191 0.0833369 -0.15751836
-0.022524104 -0.103838846 -0.004239359 -0.051354565 0.04689684 -0.13342313 0.080807395 -0.11526142
0.073676236 -0.053991813 0.02332672 -0.07630204 0.07228335 0.041567843 -0.00614944 -0.08579724
0.047697935 -0.048588946 -0.031827148 0.011832159 -0.07091603 0.000547493 0.028270397 0.09718912
0.083058566 0.0042714654 0.006567387 0.13397335 -0.115898125 -0.06020407 -0.12307655 -0.13381141
0.11545314 -0.050257854 0.090995476 0.10768873 -0.05157408 0.046750914 0.04288782 -0.009272235
-0.13497038 -0.08585838 -0.11790591 -0.1184933 -0.023757761 -0.044338036 -0.03326408 -0.0352013
0.09113569 -0.007885669 0.057652123 0.07286101 -0.10843257 -0.03382645 -0.06448748 -0.029735988
0.13792191 0.04239855 0.11726683 -0.053912763 -0.085361846 0.036662593 -0.0010921247 0.0190605
0.10196439 -0.047883414 -0.084219046 0.15130581 -0.09679455 -0.08612611 -0.013528201 -0.084682524
0.06286838 0.038894493 -0.017417867 -0.023128053 -0.051299118 0.040905043 -0.031461697 -0.049830735
0.14947586 -0.027881734 -0.055680532 -0.0032619373 -0.044322163 -0.015169844 -0.08033891 -0.075613596
-0.05459233 -0.090299495 -0.09160814 -0.1157786 -0.024796464 -0.069376044 -0.08777778 0.059186824
0.023769245 -0.058443878 -0.15414855 -0.15560263 0.111938424 0.048805155 -0.11940032 -0.10702227
0.035123173 0.08137837 -0.089893304 0.083288975 -0.09179878 -0.07973033 0.048830107 0.055979382
-0.016047798 -0.032233033 -0.08795584 -0.06774085 -0.116391905 0.07858494 -0.09205894 -0.030783469
0.13441701 -0.10767115 0.11210504 -0.046772134 -0.1816409 -0.002916787 -0.0275403 -0.0484379
-9.6676464e-05 -0.06424128 -0.036894277 -0.054701995 0.029709585 -0.16726765 -0.09977765 0.010170024
0.0517368 -0.02027404 -0.074632995 -0.007647476 -0.16470945 -0.12181083 -0.08258796 0.0671505
0.1254793 0.06360386 -0.041959416 0.13321045 0.14892429 -0.12150426 0.030994669 -0.111539
-0.010286503 -0.031171832 0.080523714 -0.17338757 0.03888223 0.11198097 0.07583353 0.05835592
-0.07239241 0.029091425 0.010521972 -0.002233704 -0.040232163 0.06847549 0.09684612 0.043544512
0.11147216 -0.03809001 -0.028861951 0.07634745 0.07842632 0.0018339772 0.05656057 0.06393219
0.12067643 0.02944334 0.08242983 0.02417963 -0.104426704 0.068647936 0.00417464 0.10210813
-0.001194391 0.023949929 -0.011244599 0.07827926 -0.111547 0.16544783 0.009289356 0.062860005
0.08991426 -0.12565814 -0.022583142 -0.105247185 0.11404867 -0.060953427 -0.10772117 0.07096133
0.15547436 0.09594862 -0.09229643 0.05652459 -0.11030647 -0.14864697 -0.060198776 -0.041466564
-0.03531876 -0.031983163 0.009460295 0.092215106 -0.070799135 0.09688664 0.057602845 -0.007971768
0.07553744 -0.0141495485 0.1550435 -0.09949614 0.040079813 0.03220058 0.12042383 0.19116184
-0.008031651 0.054364167 0.18609588 -0.066509716 -0.14813983 -0.05884487 0.06852926 -0.120212644
-0.022701483 0.000749392 0.03464856 0.03910071 -0.06640406 0.015800083 0.0488727 -0.061795395

projections.1.0.bias f4 [32]
00000000: 7b3a 173d 848a fbbd 411e b83d 444c dfbc
00000010: 0915 e93d ac60 7d3d fec4 6dbb 4ee1 b5bd
00000020: ee37 933d 41cc 353d 6e16 a6bc 2586 bcbc
00000030: 37a6 cbbd b404 943c cecf 253d b36a 653d
00000040: 9714 623a 9da3 efbd 4283 f2bd 11c6 e43d
00000050: 9fb1 e8bd 58dc bfbd 1625 51bd c297 f5bc
00000060: b490 b43d 9dba 683d 3e3e 18bd 2f37 debd
00000070: 986b cf3d 240d 423d c162 913d 5c7e b23d
0.036921006 -0.12282279 0.089901455 -0.027258046 0.11380965 0.06185977 -0.0036280747 -0.08880864
0.07188402 0.044384245 -0.020274367 -0.023013184 -0.09943812 0.018068649 0.04048138 0.05600996
0.0008624284 -0.11701129 -0.11841442 0.11170591 -0.113620035 -0.09368199 -0.05106076 -0.02997959
0.088166624 0.056818593 -0.037168734 -0.10850369 0.10127944 0.047375813 0.07098914 0.087155074

projections.1.1.weight f4 [32]
00000000: a478 863f d889 803f 56fc 823f 4bcb 723f
00000010: f578 8a3f 62ac 793f 44ec 8e3f 37e9 823f
00000020: 66fe 7d3f 6c89 773f 6e45 783f d18b 733f
00000030: 1847 843f f1cc 7b3f 2783 843f a443 7a3f
00000040: f238 7f3f fcda 813f 0efa 843f 1f99 783f
00000050: 754c 7e3f e1ac 7f3f 8700 873f 007a 853f
00000060: b727 7b3f e7df 873f fc55 813f 5425 713f
00000070: 618a 773f 9067 873f 7dce 833f 96ec 803f
1.0505567 1.0042067 1.0233257 0.9484145 1.0818163 0.9752866 1.1165853 1.0227422
0.99216306 0.96694064 0.9698094 0.9513522 1.0334196 0.9835959 1.0352525 0.9775946
0.99696267 1.0144954 1.0388811 0.97108644 0.99335414 0.9987317 1.0547036 1.0427856
0.98107475 1.0615205 1.0104365 0.94197583 0.96695524 1.057848 1.029739 1.00722

projections.1.1.bias f4 [32]
00000000: e5a4 0b3d 8f02 09bd c03a 53bc ca4f 9cbd
00000010: 96a7 8e3d 5c4d bf3b 6873 efbb 6a4c 2d3d
00000020: e33b 933b fd3c 893c aa0b 1ebc 18c8 40bd
00000030: 8de4 4f3c 5e35 6fbd 4803 89bc ff16 e7bb
00000040: 729e d43c 556b 3d3d c225 753d 9036 51bd
00000050: 4626 16bc 205e dbbb 3c7c e73c a40a 683b
00000060: 8f7a 9dbc e2e9 af3c 26ff 633d 55fa 51bd
00000070: 7e7b 113c 4dc0 663d b473 1f3d 19df 473c
0.034092803 -0.033449706 -0.012892425 -0.07632406 0.06965558 0.0058380794 -0.0073074587 0.042309202
0.004493223 0.016752714 -0.009646336 -0.047065824 0.012688768 -0.058400504 -0.016725197 -0.007052302
0.025954459 0.046244938 0.05985046 -0.051077425 -0.009164399 -0.00669457 0.028257482 0.0035406733
-0.01922348 0.021473829 0.05566325 -0.051264126 0.0088795405 0.056335736 0.038928702 0.012199187

projections.1.1.running_mean f4 [32]
00000000: 62af 1abf 5501 52bf d914 5bbe 43e2 fc3e
00000010: 717b d9be de53 173f 6646 2e3f c193 52bf
00000020: 4785 3fbf c250 563f 0016 173d 704c 81be
00000030: 8122 26be 1596 dcbe 190e 233f 17d0 38be
00000040: 5ebe 8cbf 3672 d4bd 2b9f dfbe 2747 cdbe
00000050: a538 4cbf b726 27bf 3e1a a5bd a0e8 bbbd
00000060: 9274 283f 6e87 08bf 714e aabd 475d f63e
00000070: ec87 613e df77 713e 0582 4b3e 8c51 a33e
-0.6042386 -0.8203328 -0.21394671 0.49391374 -0.4247699 0.59112346 0.6807617 -0.82256705
-0.7481274 0.83716977 0.036886215 -0.2525363 -0.162241 -0.43083254 0.63693386 -0.1804813
-1.0995595 -0.103733465 -0.43676123 -0.40093347 -0.7977393 -0.6529345 -0.08061646 -0.09175229
0.6580287 -0.5333165 -0.08315743 0.4811804 0.22024506 0.23580883 0.19873817 0.31898153

projections.1.1.running_var f4 [32]
00000000: 5bca 4a3f 044f 483f 786a 6a3f 1dee 813f
00000010: 2a68 1a3f c2c9 723f bf88 383f 7ca4 193f
00000020: c265 0e3f 3c84 353f 5047 5c3f cac6 f03e
00000030: e96e 053f 871d 193f 6813 883f e714 5a3f
00000040: f6d4 353f 704c 453f 526d b83e 9f9d 263f
00000050: ee63 523f e015 0a40 4e4a 483f b5fe 8d3f
00000060: 8542 f33e da7d e23e 8b17 693f 6658 9f3e
00000070: 3116 013f adfc 043f 2322 053f 184d 5e3f
0.7921502 0.7824557 0.9156871 1.0150791 0.6031519 0.9483911 0.7208366 0.6001661
0.5562402 0.709049 0.86046314 0.47026664 0.5212236 0.5981068 1.0630922 0.85188144
0.7102808 0.7706976 0.36020905 0.6508426 0.8218373 2.1575851 0.7823838 1.1093355
0.47511688 0.44236642 0.9105155 0.3112213 0.50424486 0.5194805 0.52005213 0.86836386

output_layer.weight f4 [1, 32]
00000000: b503 c2bd 32b6 303d 419b 203e 5846 49bc
00000010: 1c0e 64be 5f5d 9fbd 86a1 b6bd dd34 34be
00000020: b70a c9bd 540d 1abe 9c4f 00be 52d4 d13c
00000030: 779f 0ebe e658 c73c f1b8 f93d 6866 b63d
00000040: 2d8b 04bd f9c5 29be f0c4 1abe 174f 753d
00000050: d2b6 9e3d 1a90 ff3d 3105 31be ad50 3a3e
00000060: ab2e c43d e5fb b1bd 5959 4ebe 1f14 333d
00000070: 7367 e1bd ebcd fcbd 625b 48be 1ea3 3dbe
-0.09473363 0.043142505 0.15684225 -0.012284838 -0.22271007 -0.07781481 -0.08917527 -0.1759829
-0.09816497 -0.15044147 -0.12530369 0.025613938 -0.13928019 0.024334382 0.12193478 0.08906251
-0.03235929 -0.16579427 -0.15114188 0.05988988 0.07749714 0.12478657 -0.17287137 0.18194838
0.09579214 -0.08690623 -0.20151271 0.04372036 -0.110060595 -0.12343963 -0.1956611 -0.18519256
