wandb/run-20251108_161132-nxzj94qz/files/best_model.pth (torch, 29461 bytes, 5 tensors)

network.0.weight f4 [64, 70]
000000 ee 3f bc 3d 14 56 d5 3d e7 bf 8f bd f2 bd a3 39
       0.09191881 0.10416809 -0.07019024 0.00031231303
000010 52 47 b2 3d dc 68 80 3c 32 73 c3 bd a0 a3 26 bd
       0.087050095 0.015675 -0.09543456 -0.04068339
000020 68 a3 36 3d c0 5b c1 bc e8 bf a9 3d 22 cf 94 bd
       0.04458943 -0.02360332 0.08288556 -0.0726607
000030 33 f4 95 bc f4 d9 4d be c7 ed 66 3d 10 c0 4f be
       -0.01830492 -0.20102674 0.056379106 -0.2028811
000040 3b 90 4c bd b3 ac ec bd 16 45 5e bb 5f e1 86 bd
       -0.049942236 -0.11556377 -0.003391569 -0.06585955
000050 7a 68 f1 bc e7 a8 d2 3d b9 2c e8 3d d2 04 f3 3d
       -0.029468764 0.10286122 0.11336655 0.11866154
000060 71 ea a1 3c 85 ed d9 bb 77 fb a3 bb f4 94 1d 3d
       0.01976511 -0.006650629 -0.005004342 0.03847213
000070 7a ca 8b 3d 15 98 9b bd 11 b5 b4 bd 54 17 a8 3d
       0.06825729 -0.07597367 -0.08823598 0.082075745
000080 d4 20 f6 bd 4e f8 7e 3d 30 c3 e0 bd 5c 69 08 3d
       -0.1201798 0.06224852 -0.10974729 0.033303604
000090 1c 65 e8 3d 7e 7d 42 bd 61 7f 05 bd 52 35 a8 bd
       0.1134741 -0.04748296 -0.03259218 -0.08213295
0000a0 ab 3e 19 3d f9 38 91 3c 2e 83 11 be b4 60 3a bc
       0.03741328 0.017727362 -0.14210197 -0.011375595
0000b0 18 9d 8b 3d a4 3a 7b 3d 70 fe 38 3d db 00 3d 3d
       0.06817073 0.06133522 0.045164526 0.046143394
0000c0 e9 9e 83 3d df 6d da 3c f3 e1 54 bc 4a 5d f8 bd
       0.06426794 0.026663719 -0.012993324 -0.121271685
0000d0 37 5a c0 3d 73 37 d6 bc f4 17 0e be d3 67 ec bb
       0.09392207 -0.026149487 -0.13876325 -0.0072145252
0000e0 ad 50 20 3c 93 e7 04 bc 26 93 a6 bd 9e dc f3 bd
       0.00978486 -0.008111852 -0.08133535 -0.11907314
0000f0 4b 70 bd 3d 21 a4 2e 3d 2b 28 93 3d d7 a7 fe bd
       0.09249934 0.042636994 0.07185396 -0.12434357
000100 2f 61 81 bd 7d 7c 16 3d bd 01 f2 bd 4c 7a 5c 3d
       -0.063173644 0.036739815 -0.11816738 0.05382757
000110 de f9 96 3d e9 5b 59 3d 21 b8 2b bd 62 e8 52 bd
       0.07371877 0.053066168 -0.041923646 -0.05149115
000120 f8 b2 82 3d 67 99 8e 3d 3f 3e c7 3c eb 32 73 bc
       0.06381792 0.06962853 0.024321673 -0.014843683
000130 fa b1 c7 3d f3 1e 4a 3d bc 1a 96 3d a6 d7 8e 3c
       0.09750743 0.04934592 0.07329318 0.017436814
000140 10 fb d2 bc 74 75 49 3d ed 05 c4 bc e6 89 f1 3d
       -0.025754482 0.049184278 -0.023928607 0.1179388
000150 8f 66 32 3d 1b b8 9f bd fd 10 80 bd 4b 6d bf 3d
       0.04355484 -0.07798787 -0.0625324 0.09347018
000160 91 58 ec 3c 9e 69 12 bd 23 d9 2a 3c 21 f6 e1 bc
       0.028850826 -0.035745256 0.010427746 -0.027583184
000170 af 74 c4 bc 78 50 e6 3c 38 6e 76 bd c3 54 7e 3c
       -0.02398142 0.028114542 -0.060163707 0.015523138
000180 87 4e 41 3d e6 7c df 3b a9 73 22 3c b0 7d 11 3d
       0.04719403 0.006820309 0.009915271 0.035520256
000190 48 69 cf 38 91 3d 42 3c e4 0e c6 3d 55 f1 93 bd
       9.890139e-05 0.011855499 0.09670809 -0.07223765
0001a0 84 3b 80 3d 34 0d 39 bd b0 b3 00 3c 10 ec 36 bc
       0.06261352 -0.045178607 0.007855341 -0.01116468
0001b0 17 03 5e bd 99 82 2d bc 01 46 cc 3d 90 66 03 bc
       -0.054202165 -0.010590219 0.0997429 -0.008020058
0001c0 a4 49 13 3c b9 a4 f7 bc 8c 3f b0 bc 28 c2 1a be
       0.008989725 -0.030229913 -0.021514677 -0.15113127
0001d0 6d 75 ec bc 44 0d 1c bd 1c fc 82 bd 6c 13 da 3a
       -0.028864587 -0.03809859 -0.06395742 0.0016637868
0001e0 44 cf 5c 3c 2f b2 1f bd 8a 53 32 bd 7c d8 20 bc
       0.01347715 -0.03898829 -0.0435367 -0.009817239
0001f0 cd 67 05 3c 90 ff 83 bd 5b 05 88 bd f2 2f c4 bd
       0.008142424 -0.06445229 -0.066416465 -0.09579457
000200 68 ae 98 bd e0 77 d8 bc 05 62 13 be 94 fc aa 3c
       -0.0745514 -0.026424348 -0.1439286 0.020872392
000210 8a c0 3b be 36 1e 00 bd d1 58 50 3c ae e5 d3 bd
       -0.18335167 -0.03127881 0.012716488 -0.10346542
000220 e3 02 a1 bd cf e6 74 bd 44 cd 3d be c8 9f 1c be
       -0.07861879 -0.05979043 -0.18535334 -0.15295327
000230 19 d9 4b 3d 34 d6 85 bd 0b 40 1a 3e af 51 3c bd
       0.049767587 -0.06534997 0.15063493 -0.045976337
000240 e2 2f ee 3d 11 e2 3a 3d 96 60 6a 3d d2 83 14 be
       0.11630227 0.04562575 0.057221018 -0.1450341
000250 17 fe ea bc 35 52 65 3d 08 03 24 3e 54 57 80 3d
       -0.028685613 0.0559866 0.16016781 0.062666565
000260 00 47 6e bd 89 21 60 bd 5a b9 95 3c d3 4b ec bd
       -0.05817318 -0.05471948 0.01827686 -0.115379
000270 60 eb e9 bb 3f d4 4e be 5a ba 69 3d 2b 93 14 3d
       -0.0071386546 -0.20198153 0.057062484 0.036273163
000280 f7 6f b4 bd 91 6a 63 bd 69 49 d8 3d 53 90 ff bc
       -0.08810418 -0.05552155 0.10560877 -0.031196749
000290 84 0d 18 bd cf 63 04 bd d7 b0 b6 bd 3d 41 86 3d
       -0.037122265 -0.032321747 -0.08920448 0.06555412
0002a0 89 aa cf bd 35 fb 59 be 59 a7 04 be a6 6d 1d be
       -0.10139949 -0.21287234 -0.12954463 -0.15373859
0002b0 83 14 44 bd b1 16 ea bd a6 d3 f7 bd 8a 4d 50 bd
       -0.047871124 -0.11430109 -0.121009156 -0.050855197
0002c0 0d 70 3f 3e aa 20 91 bd 4b 08 00 be df 92 8a bd
       0.18695088 -0.07086308 -0.12503164 -0.06766295
0002d0 a4 f6 aa bd 6e 71 89 ba 50 9b 56 bc dd fe 53 bd
       -0.08347824 -0.0010486075 -0.013098553 -0.05175673
0002e0 e6 20 2c be 76 b6 e7 3d c1 4e 0e be cc d1 03 bc
       -0.16809425 0.113140985 -0.1389723 -0.008045625
0002f0 ec d5 9b 3d 91 1c f5 bb 93 7c 91 3d ed f1 91 3c
       0.07609162 -0.007480212 0.07103839 0.017815555
000300 4d 7e b2 bc 6a 48 1a bd 75 b3 06 be 70 9c c6 bd
       -0.02178874 -0.037666716 -0.13154395 -0.09697807
000310 b3 0e 3c be 8d e1 ac bc 09 06 6d bc 99 fc 0d 3c
       -0.18364982 -0.021103645 -0.014466771 0.008666181
000320 03 30 24 3e 63 8c f1 3c f7 25 d7 3c 60 69 e7 3b
       0.1603394 0.029485887 0.02626322 0.007062122
000330 a2 76 f1 3d 53 a6 83 3d 96 2b 01 3d 97 55 80 3d
       0.117902055 0.06428208 0.031535707 0.06266325
000340 23 3d 91 3d b1 91 19 3c 4f 97 de bd 3c e8 d0 bd
       0.07091739 0.009373114 -0.108687036 -0.10200545
000350 dd ce a2 bd aa 06 d6 3d a3 6e ad 3d 8b cf 8e 3d
       -0.07949612 0.1045049 0.08468368 0.069731794
000360 a3 27 ac 3d 27 cc 2e be cb 91 38 3b 89 15 6e 3d
       0.084059976 -0.17070065 0.0028163071 0.058126006
000370 27 6d 63 3e 8a 64 9e bd 0e 47 64 be 8d 8e 0a be
       0.22209607 -0.0773402 -0.2229273 -0.13530941
000380 99 b1 c3 bd 96 7a 45 be 97 33 41 3d 67 07 42 be
       -0.095553584 -0.19285044 0.04716834 -0.18948136
000390 b9 60 d5 3c 1d fa e3 3d 73 da 8c bc ee 81 da bc
       0.026047098 0.1113169 -0.017194008 -0.026673283
0003a0 bc 16 88 bc 8a 78 da 3d a5 71 9e bd 70 03 5a bd
       -0.016612403 0.10667522 -0.0773652 -0.053225935
0003b0 3b f9 e0 3d dc d8 80 3d 9c 45 9b bc 70 75 17 bd
       0.10985037 0.06291363 -0.01895409 -0.03697723
0003c0 aa 70 15 bd 17 72 e1 bd f9 65 ae bd e5 e5 bd bd
       -0.036484398 -0.11008089 -0.085155435 -0.092723645
0003d0 c3 66 ab bb ba c2 41 bd c6 0b 06 bd fd 03 d9 3c
       -0.005230756 -0.047304846 -0.03272607 0.02649116
0003e0 3e f8 e5 bd 5b 9c cc 3d 50 ba dd bc 55 bf 7e bb
       -0.11228989 0.0999076 -0.02706638 -0.0038871367
0003f0 c2 b0 00 3e b9 dd d1 bd 8b 93 00 3e 13 bb bb 3c
       0.12567428 -0.10247368 0.12556283 0.022916352

network.0.bias f4 [64]
000000 70 bd d5 3b 7f 69 21 bd 08 40 18 3d 64 0e 72 3d
       0.006522827 -0.03940725 0.03717044 0.059095755
000010 62 0c 51 3c b2 3a 2a 3e a1 d6 c9 3d 8e 6a 80 bc
       0.0127593 0.16623953 0.0985539 -0.01567581
000020 f6 1e ea 3c 2b 2a 01 3e 05 6f 33 bd a0 ef a2 3d
       0.028579216 0.12613742 -0.04380705 0.07955861
000030 c6 75 55 3d 48 ec a8 bc a6 82 6a bc a0 2a fe 3c
       0.05211427 -0.02062048 -0.014313376 0.031026185
000040 b0 06 3b bc a1 4f 84 3c 95 8b 79 3a 3f 28 34 3e
       -0.011415169 0.016151251 0.00095193955 0.17593478
000050 78 32 a9 3d e8 47 1c bd 8f fb 92 bd d4 63 ef bd
       0.08261579 -0.038154513 -0.07176887 -0.116889626
000060 d6 50 09 3b a8 c2 e1 3d 66 dd 64 bd 33 48 cb 3d
       0.0020952723 0.11023456 -0.055875205 0.0992588
000070 98 bb 71 3d aa f6 53 3d ae 61 0e be bb a3 0c 3d
       0.059016794 0.05174891 -0.1390445 0.034335833
000080 99 cc 92 3d 6a 7b e7 bd 30 c8 87 bc dc 48 82 3d
       0.0716793 -0.11302836 -0.016574949 0.06361553
000090 fe 3d 47 bd 02 db d4 3d ba a6 d6 3d 7a 4a 3c be
       -0.048643105 0.10393335 0.10481019 -0.18387786
0000a0 84 30 95 bd 9b 6b 1e 3d e1 7d 50 bd cc f2 23 3d
       -0.07284644 0.03867684 -0.050901297 0.04002647
0000b0 15 f2 9a 3d df 9a 95 bd 9f 01 f4 bd af 3c 22 3d
       0.07565705 -0.0730493 -0.11914372 0.039608654
0000c0 60 7b de bd 95 8c 1c bc 5a 7d a1 bd fe 75 82 3d
       -0.10863376 -0.009555002 -0.07885237 0.063701615
0000d0 e6 99 83 3d e7 4f 14 be 57 0f b8 bd c6 62 5b 3d
       0.06425838 -0.14483605 -0.08987301 0.053560995
0000e0 0d 13 ab 3d 73 34 9c 3d a2 a3 a0 bd d1 ec 48 bd
       0.08353243 0.076271914 -0.078437105 -0.04905397
0000f0 ad 43 12 bc 3c 52 10 bd 9b 55 21 3e 84 d0 1a bd
       -0.008927268 -0.035234675 0.15755312 -0.037796512

network.3.weight f4 [32, 64]
000000 8d e5 84 bd 52 8f f6 bd 38 94 99 bd 14 01 24 3b
       -0.06489096 -0.12039055 -0.074989736 0.0025025057
000010 06 e0 22 be 21 b9 f0 bd 0d 69 1f be 72 a6 0d be
       -0.1590577 -0.117540605 -0.15567417 -0.13833025
000020 21 7b 93 bd 27 95 50 3c b1 f8 fa 3c af 6c 41 bd
       -0.07201219 0.012730873 0.030636163 -0.04722279
000030 1f fb 92 3d a7 47 2e be bc ce 39 be 67 e5 1b bb
       0.07176804 -0.1701952 -0.18145269 -0.0023787857
000040 bb b1 2f 3c 52 61 40 3b 27 a6 1b bd 7c 14 1e be
       0.010723527 0.0029354882 -0.038000252 -0.15437502
000050 a5 03 6f bd d4 5c 3d 3d 22 4a d7 3c 46 7e 1f be
       -0.058353085 0.046231106 0.026280466 -0.15575513
000060 b3 50 f8 bd c6 12 e0 bc 07 d5 02 bd 7a 3d ec 3c
       -0.12124767 -0.027352702 -0.03194144 0.028837908
000070 cd a2 31 3d 0f b9 99 3d a7 40 31 bd b9 48 80 3d
       0.04336815 0.07506 -0.043274548 0.06263871
000080 87 ca 51 3d 05 e5 b9 3c 62 ee 89 bc 28 a4 f4 3b
       0.051218536 0.022692213 -0.016837303 0.007465858
000090 c6 b9 00 be 8e 17 d0 bb 9b 4a 50 bd f3 7a 32 bd
       -0.12570867 -0.006350464 -0.0508524 -0.043574285
0000a0 f0 c1 51 bd fa 22 46 3c af 26 13 bd 43 8c 9f bd
       -0.051210344 0.0120933 -0.035925563 -0.07790425
0000b0 ea bf cc bc 36 a6 38 3d 62 e8 bd bd 01 ad 5c 3d
       -0.024993856 0.045080386 -0.09272839 0.053875927
0000c0 dd e0 81 bc 06 2d 72 3c f1 ed 21 be 40 bb 27 bd
       -0.015854293 0.014781242 -0.15813424 -0.04095006
0000d0 51 51 18 be 4f 01 46 bd 5b 45 67 3d 5d 5a 2e 3d
       -0.1487477 -0.04834109 0.056462627 0.042566646
0000e0 c7 23 b0 bc 97 e1 e0 bd bf c5 a5 bc 8d 0c 2f be
       -0.021501435 -0.10980528 -0.020235894 -0.17094631
0000f0 b0 a3 11 be 3d de e4 bc dd 18 7b bd 54 8e a6 3c
       -0.14222598 -0.027938003 -0.06130301 0.02033154
000100 56 b3 1f be 9d c6 f9 bd f6 ea 32 be ec 33 15 be
       -0.15595755 -0.121960856 -0.17472443 -0.14570588
000110 f2 6f 23 bd 8f 42 01 be 01 7d 82 3d 61 86 c0 bc
       -0.03990168 -0.12623046 0.06371499 -0.023501577
000120 c7 37 69 3c 2d 69 02 be 97 16 00 be 2b ac d0 bd
       0.01423449 -0.12735434 -0.12508617 -0.101890884
000130 cf d4 14 be c6 c4 1f be 01 48 ed 3c 05 04 24 be
       -0.14534305 -0.15602407 0.028964998 -0.16017158
000140 88 9d 5b 3d 9a f7 2a bd 58 8c 9e bd 67 f3 93 3d
       0.05361703 -0.041740038 -0.07741612 0.0722416
000150 2d 45 8a bd b6 7c 72 bd c7 ab d3 bd ec 27 03 be
       -0.067514755 -0.059200965 -0.10335498 -0.12808198
000160 a0 eb 9b 3c e0 7c 1f be 69 62 41 3d be b6 22 be
       0.019033253 -0.1557498 0.047212992 -0.15890023
000170 73 03 e2 bd 03 b2 c5 bd 1b 36 8d 3d 87 ea b6 bc
       -0.11035814 -0.09653094 0.068950854 -0.022328628
000180 ec 7d a7 bc 71 16 4f 3d ed e4 12 bd 94 93 07 be
       -0.020445786 0.05055851 -0.035862852 -0.1323989
000190 66 7d d2 bc d9 a5 10 be dc 7b 00 be 79 19 7b bd
       -0.02569456 -0.14125766 -0.12547249 -0.06130359
0001a0 db a8 e4 bd aa f2 07 3d e0 0e 5c 3c 48 ac 4f 3d
       -0.11165019 0.033190407 0.013431281 0.05070141
0001b0 69 8a f4 3c 1d af 5e 3d c1 d7 19 3d 5e 87 e4 bd
       0.029851155 0.05436622 0.037559275 -0.11158632
0001c0 05 d0 2f bd 33 f8 40 bd b7 8b d1 bd 79 06 e8 bc
       -0.042922992 -0.0471117 -0.102317266 -0.028323399
0001d0 ea 6b 36 3d 79 a8 03 be 67 23 bc bc e9 9a 6b 3d
       0.04453651 -0.12857236 -0.0229661 0.05752078
0001e0 c2 79 3f 3c cb 29 8e 3b af 89 be bd 64 fa 1d 3d
       0.011686744 0.004338478 -0.09303605 0.03856887
0001f0 ba 33 1e be 64 66 70 3d f5 93 94 bd 17 43 fe bd
       -0.1544942 0.058691397 -0.07254783 -0.1241514
000200 4a 3d 3a bd bb 30 46 bc 3c 8d f7 bd 8c 99 21 be
       -0.045468606 -0.012096579 -0.12087485 -0.1578123
000210 bf 82 08 be 16 0c 7b 3c 05 95 19 be 18 d3 e2 bb
       -0.13331126 0.015322706 -0.14998253 -0.006922137
000220 05 f8 23 be bd 14 e0 bd cb 42 a7 bd bb 9f 40 bd
       -0.1601258 -0.109414555 -0.081670366 -0.04702733
000230 10 5e 77 3d ec 41 86 3c 16 3e d5 3c 05 0d 7b 3b
       0.06039244 0.016388856 0.026030581 0.003830732
000240 e7 f3 91 bd 43 a2 ae bd 8e e2 18 be ac 95 1e 3d
       -0.07126599 -0.08527043 -0.14930174 0.038716957
000250 0a 9a 0a be 33 c0 12 be 7e d5 ea b9 6d 9b b3 bd
       -0.13535324 -0.1433113 -0.00044791022 -0.087698795
000260 5e 4c 3f 3d 73 6c db bc 8f 2f 21 bc 4c 7e 48 3d
       0.04670369 -0.026785111 -0.009837999 0.04894857
000270 b1 e8 5d bd 36 ee e8 3c d8 b8 3e 3d 3d f1 b2 bd
       -0.05417699 0.0284339 0.046563 -0.08737419
000280 62 54 ef b9 af e7 63 bd ec 44 ec bb a8 b1 05 be
       -0.00045648502 -0.055640873 -0.0072103646 -0.13056052
000290 99 b5 0b be 7b 06 53 3d 4b d9 ef bd 5b b1 1f bd
       -0.13643493 0.051519852 -0.11711367 -0.0389875
0002a0 7c 74 91 bb 78 7d d0 bd 53 6b a0 bd 5c e2 05 be
       -0.004438935 -0.10180181 -0.078329705 -0.1307463
0002b0 2d 0e d4 bd a6 25 f6 bd 8e ab 59 bd a6 07 b3 bd
       -0.10354266 -0.120188996 -0.053142123 -0.08741693
0002c0 d5 ae bc bd 7a 68 11 be 67 2e d1 3c 83 08 04 3d
       -0.09213034 -0.14200011 0.025534822 0.03223468
0002d0 a8 72 08 be e9 bd bc bd 1d 58 96 3d d5 07 6b bc
       -0.13324988 -0.0921591 0.07341025 -0.014345129
0002e0 95 e8 64 3d bb 93 21 be 47 ef 97 3d 8c 89 58 bd
       0.05588587 -0.15779011 0.074186854 -0.05286555
0002f0 31 05 9b bd 45 be cd bb 80 e8 84 bd 9c 0b c3 3c
       -0.075693496 -0.0062787854 -0.06489658 0.023809247
000300 49 70 6f 3d 91 bc ec bd 74 ba 11 3d 3c c3 93 3b
       0.058456693 -0.11559404 0.035578206 0.0045093577
000310 9e 6c 82 3d a2 99 b0 bd 79 7a 56 bd 6e 44 84 3d
       0.06368373 -0.08623053 -0.052362893 0.064583644
000320 18 e1 c1 39 41 0d 06 be 92 04 cf 3c bc 25 81 3d
       0.00036979537 -0.13090993 0.025270734 0.063060254
000330 5c 0d 9f bd a7 38 3e bd 63 2d f1 bd 8b 3e 25 be
       -0.0776622 -0.046440747 -0.11776235 -0.1613714
000340 8e 16 c1 bc e5 90 8c bd 84 2d 2c be 9d d2 2c be
       -0.023570325 -0.06863574 -0.16814238 -0.16877218
000350 8a 72 d8 bc f6 08 a7 bd 75 45 e6 3b ca 1c 5b bd
       -0.026421804 -0.08156006 0.007027323 -0.053494252
000360 6a 32 8b 3d fd f1 2d be 4e 84 01 be b0 4d ab bd
       0.06796725 -0.16986842 -0.12648126 -0.08364427
000370 d4 8e 5f bd f1 3b 28 be f6 db 1e be 92 4b 06 be
       -0.05457957 -0.16429116 -0.15513596 -0.13114765
000380 c5 bf 8e bd df e5 89 bb 11 5f 94 3b 05 44 bf bc
       -0.06970171 -0.004208311 0.0045279344 -0.023347864
000390 96 7b 92 bb ae 5f 75 3c 8b 04 2f bd 48 e0 19 be
       -0.004470299 0.014976425 -0.042728942 -0.15026963
0003a0 f0 29 95 bd df 57 08 be 5b b1 89 3b da 90 9e bd
       -0.072833896 -0.1331477 0.0042020506 -0.07742472
0003b0 cd e1 1e be 96 3f de bd 48 45 06 3d da 3d 13 be
       -0.15515824 -0.10851972 0.032780915 -0.14379063
0003c0 8d 55 8c 3a f5 e9 dd bd 07 ff d1 bd 2a 98 8c bd
       0.0010706648 -0.108356394 -0.10253721 -0.068649605
0003d0 eb 9c c0 bd 78 bc 25 be 0f fc 02 be a1 0f c7 bc
       -0.0940493 -0.16185176 -0.12791465 -0.024299445
0003e0 96 42 57 bd dc 6e a1 bd e4 5d c7 bd 1c 07 1d be
       -0.052553736 -0.07882473 -0.09734705 -0.15334743
0003f0 b5 ab 0d 3c 18 d0 f0 3b c3 8f d9 bd c9 43 26 be
       0.008646895 0.0073490255 -0.106231235 -0.16236795

network.3.bias f4 [32]
000000 37 f7 cf 3c 33 05 00 be 7c 51 70 bc ae 7b 65 bb
       0.025386436 -0.12501983 -0.014667865 -0.0035016346
000010 e2 bf e6 3c 92 3c d3 3c 27 bc 83 3d 4d 89 b7 3d
       0.028167669 0.025785718 0.064323716 0.08961735
000020 4b 97 07 3d 6e 4e 94 bd 95 bf 81 bd a0 26 1d 3e
       0.03310327 -0.07241522 -0.063353695 0.15346766
000030 b5 40 5a bd cc 8e db bd 98 d4 22 be ed 18 33 bd
       -0.053284366 -0.10720596 -0.1590141 -0.043724943
000040 2f a1 12 3d ca a2 08 3b 46 fb 30 3e f0 c9 26 3c
       0.035798248 0.0020848983 0.17283353 0.010179982
000050 1e 6c e9 bc cd ea 18 3e 4b 65 30 bd d2 ba 68 bb
       -0.028493937 0.1493332 -0.04306535 -0.0035511744
000060 04 89 e6 bd a5 fe 0a be 1f 95 26 be a1 28 55 bb
       -0.112566024 -0.13573702 -0.16267823 -0.0032525437
000070 e9 c8 4c 3d 96 5f d5 bd d7 c4 41 3c 0d 9f 92 3d
       0.04999629 -0.10418622 0.011826715 0.07159243

network.6.weight f4 [1, 32]
000000 a4 a4 ad 3d 6d e4 0a 3c 00 6b 54 bb 4d 47 ff 3c
       0.08478668 0.0084773125 -0.003241241 0.031161929
000010 64 e2 1b be 3c 8c 05 be 86 ff 78 bd 42 a1 e6 bd
       -0.1522308 -0.13041776 -0.06079056 -0.11261226
000020 46 a0 e0 3d 04 13 b2 3d 2a 27 a6 3d fe fc e7 bd
       0.1096807 0.08695033 0.08112939 -0.11327551
000030 24 f7 44 be 26 6d cd 3c 41 26 0a 3d 0b e9 c5 bd
       -0.19234902 0.02507646 0.033727888 -0.0966359
000040 42 3c ff 3d f6 97 c3 bd 6c f1 36 be dc fd 14 3d
       0.12462665 -0.095504686 -0.17865533 0.03637491
000050 15 79 35 be a2 ea 0a be 24 00 af 3c 3b 66 c8 bd
       -0.1772197 -0.13566068 0.021362372 -0.09785124
000060 9d 81 b5 3d d7 91 aa 3d ff 50 ac bc b1 47 f1 bd
       0.088626124 0.08328598 -0.021034716 -0.11781252
000070 f2 97 23 be a7 de 71 3d 52 07 75 bd 3c da 03 be
       -0.15975931 0.05905023 -0.059821434 -0.12876219
