projekt1/wandb/run-20251110_172913-4t5p1lsa/files/best_model.pth (torch, 504914 bytes, 37 tensors)

blocks.0.0.weight f4 [256, 71]
0.09507713 0.100170426 -0.07008263 0.024439672 0.047732357 -0.006770232 -0.09254699 -0.047827166
0.040581655 0.014653266 0.09681205 -0.11897855 0.09495777 -0.113565 0.10581375 -0.12295704
-0.042872284 -0.018159986 0.029067896 -0.12316584 0.023859276 0.11709539 0.05440087 0.09951537
0.008858306 -0.074604765 -0.037615895 -0.003997913 0.045754 0.042532153 -0.088861495 0.07707292
-0.024226446 0.04937861 -0.025919707 0.0123148495 0.07128917 -0.11524301 -0.01516748 -0.10548912
0.01739329 0.03781602 -0.0964996 0.009857544 0.093450494 0.036834333 0.017492566 0.006202451
0.06687243 -0.012688582 -0.038592733 -0.049652074 0.052509256 -0.02232865 -0.049507096 0.070955634
0.08929498 0.028609058 -0.031860758 -0.099665426 0.07832367 0.07560868 0.09147334 -0.08085387
-0.08765482 0.031854544 -0.08665907 0.08313889 0.07959364 0.09336252 -0.11507631 -0.088942856
0.11133098 0.096363805 0.06461765 -0.040283512 0.10471754 0.046901766 0.10679608 -0.0081837755
-0.07142496 0.09378758 -0.03319182 0.10653064 0.009821061 -0.107446216 -0.10314932 0.075650826
0.10615575 -0.09635601 -0.021778606 -0.025228232 -0.06934444 -0.007850267 -0.117343664 0.0117164785
0.06615149 -0.012873897 0.050090395 0.03314847 -0.022914253 -0.024128431 0.11453541 -0.09964453
0.0308686 -0.07851788 0.06849432 -0.061165344 -0.092871875 -0.023310993 0.09138271 0.08130028
0.07442915 -0.04836198 -0.079563014 -0.112204686 -0.020994626 -0.012014428 -0.031220723 -0.02086035
0.03694489 -0.07958713 -0.100761734 0.05542235 -0.019604102 -0.07633815 -0.10022615 -0.023276694
0.009759558 0.0146336965 -0.075327925 0.097133495 -0.12193351 0.038093995 0.065574445 -0.02838007
-0.02214623 0.030256612 -0.11562876 -0.096180394 0.020336386 -0.028225118 0.09551488 -0.036921136
0.019943228 -0.020718103 0.05486722 -0.12394348 -0.0030588752 0.06859216 0.11540784 0.027479783
0.04967886 0.02591606 0.0820884 -0.015857697 0.029091185 -0.05913676 0.06297863 0.07059687
-0.0351621 -0.04834794 0.083700754 -0.078949034 -0.053566724 0.038841214 -0.10319414 0.09488426
-0.09797304 -0.07728619 -0.08530049 -0.09430834 0.019603461 -0.080762126 -0.04917215 -0.11337538
0.1348814 -0.05100329 -0.07676723 -0.028994925 -0.023055159 -0.0034495052 0.042136703 -0.010159133
-0.09538245 0.09621569 -0.1183473 -0.008411815 0.08746029 0.0018218978 0.064758755 0.07830644
-0.008777635 -0.020039828 -0.002100578 0.032702085 -0.12604718 -0.047520068 -0.12050683 -0.057729248
0.07573007 0.02351233 -0.022243036 -0.0029225005 0.029283559 0.0017883924 0.02314962 0.008171195
0.010215556 7.1548624e-05 -0.12338222 -0.036403798 -0.100110486 0.04799044 -0.008238571 0.022856954
0.08460853 -0.11323497 -0.018187348 0.098793104 0.098275095 -0.047288764 -0.09533393 -0.0920232
-0.030031111 -0.055180494 0.10050146 -0.06087611 0.029562378 0.064097784 0.013685245 0.025440235
-0.015125149 0.09255758 -0.10621596 -0.12106288 0.07363298 -0.00031102658 -0.011941878 0.03874073
-0.0043895245 -0.09828485 -0.003232222 -0.11769813 0.047166694 -0.094324306 -0.105039135 -0.035593037
-0.08698137 0.08996221 -0.010473346 0.002738769 0.09940763 -0.053600572 0.08385582 0.047454894
00000000: ccb7 c23d 2726 cd3d 7b87 8fbd b535 c83c
00000010: 0183 433d d3d8 ddbb 4789 bdbd 6be6 43bd
00000020: f338 263d 4114 703c 6545 c63d 07ab f3bd
00000030: 3879 c23d c494 e8bd e1b4 d83d e7d0 fbbd
00000040: d99a 2fbd 40c4 94bc cc1f ee3c 5f3e fcbd
00000050: 8774 c33c b5cf ef3d 72d3 5e3d b7ce cb3d
00000060: 6e22 113c 62ca 98bd 2013 1abd ed00 83bb
00000070: 8c68 3b3d 3236 2e3d 04fd b5bd 68d8 9d3d
00000080: 8a76 c6bc 3a41 4a3d 9155 d4bc 39c4 493c
00000090: 0e00 923d 8704 ecbd 0681 78bc ae0a d8bd
000000a0: 5f7c 8e3c f9e4 1a3d 95a1 c5bd 8981 213c
000000b0: f962 bf3d 99df 163d 924c 8f3c ee3d cb3b
000000c0: 6af4 883d c5e3 4fbc 6a13 1ebd f95f 4bbd
000000d0: f213 573d 93ea b6bc f4c7 4abd 3051 913d
000000e0: 49e0 b63d 8b5d ea3c 6d80 02bd 631d ccbd
000000f0: 2968 a03d b9d8 9a3d 6056 bb3d b796 a5bd
00000100: 5f84 b3bd e979 023d 4f7a b1bd b944 aa3d
00000110: fe01 a33d d934 bf3d 21ad ebbd ac27 b6bd
00000120: 7f01 e43d 635a c53d 4256 843d 5300 25bd
00000130: 2676 d63d 111c 403d e7b7 da3d 3e15 06bc
00000140: 4047 92bd b413 c03d 25f4 07bd bc2c da3d
00000150: 84e8 203c c30c dcbd f33f d3bd d2ee 9a3d
00000160: 3068 d93d 4d56 c5bd 0c69 b2bc 70ab cebc
00000170: 7504 8ebd 689e 00bc e051 f0bd 79f6 3f3c
00000180: 6f7a 873d 0aed 52bc 962b 4d3d b1c6 073d
00000190: acb6 bbbc fda8 c5bc 8b91 ea3d 6e12 ccbd
000001a0: 25e0 fc3c fbcd a0bd c046 8c3d 8388 7abd
000001b0: 9c33 bebd b2f6 bebc dc26 bb3d c380 a63d
000001c0: 4f6e 983d 3617 46bd eff1 a2bd 92cb e5bd
000001d0: ecfc abbc 2ad8 44bc 9ac2 ffbc 53e3 aabc
000001e0: 8653 173d 94fe a2bd 2b5c cebd 8c02 633d
000001f0: c898 a0bc 2d57 9cbd 5e43 cdbd c4ae bebc
00000200: 8ee6 1f3c 2cc2 6f3c 8745 9abd eded c63d
00000210: 47b8 f9bd 7308 1c3d e54b 863d 527d e8bc
00000220: 036c b5bc b7dc f73c c5ce ecbd 3afa c4bd
00000230: 7e98 a63c 5d38 e7bc 4e9d c33d 9e3a 17bd
00000240: fb5f a33c 03b9 a9bc 73bc 603d 14d6 fdbd
00000250: 6977 48bb 0c7a 8c3d f25a ec3d 481d e13c
00000260: 0f7c 4b3d eb4d d43c f71d a83d 00e8 81bc
00000270: a350 ee3c 6339 72bd f1fa 803d 1795 903d
00000280: 2206 10bd 7d08 46bd 4d6b ab3d 08b0 a1bd
00000290: c868 5bbd f717 1f3d 7357 d3bd ae52 c23d
000002a0: 17a6 c8bd 3948 9ebd 06b2 aebd bb24 c1bd
000002b0: 7097 a03c 9d66 a5bd bd68 49bd 5a31 e8bd
000002c0: 5a1e 0a3e d3e8 50bd 2338 9dbd c486 edbc
000002d0: 2cde bcbc 1811 62bb 8997 2c3d 7e72 26bc
000002e0: e057 c3bd bb0c c53d 1260 f2bd b6d1 09bc
000002f0: 611e b33d bfcc ee3a 3da0 843d 205f a03d
00000300: 12d0 0fbc 912a a4bc daa9 09bb 9ff2 053d
00000310: 8312 01be 67a4 42bd 49cc f6bd 8175 6cbd
00000320: 5e18 9b3d ee9c c03c 0737 b6bc 6c87 3fbb
00000330: 13e4 ef3c 7e68 ea3a 46a4 bd3c 7ae0 053c
00000340: 265f 273c 600c 9638 d1af fcbd 261c 15bd
00000350: ba06 cdbd a091 443d 12fb 06bc 823e bb3c
00000360: 3d47 ad3d bce7 e7bd a2fd 94bc 0a54 ca3d
00000370: 7444 c93d ddb1 41bd 6f3e c3bd a976 bcbd
00000380: ce03 f6bc f104 62bd b6d3 cd3d 3a59 79bd
00000390: cd2c f23c b345 833d 1438 603c 0a68 d03c
000003a0: 79cf 77bc d48e bd3d c187 d9bd d1ef f7bd
000003b0: e3cc 963d 4811 a3b9 dea7 43bc 9aae 1e3d
000003c0: 00d6 8fbb 9149 c9bd b0d3 53bb b80b f1bd
000003d0: dd31 413d 1a2d c1bd c21e d7bd 01ca 11bd
000003e0: 4a23 b2bd 1b3e b83d 6698 2bbc eb7c 333b
000003f0: 3a96 cb3d 468c 5bbd 9abc ab3d 1060 423d

blocks.0.0.bias f4 [256]
0.053890754 -0.09914625 0.025287054 -0.053281903 -0.06872908 0.04894427 -0.025717203 0.057105575
-0.045815922 -0.09089683 0.04762196 0.02050865 -0.050147835 0.027081182 -0.04289421 0.06566291
0.010489423 0.114378154 0.08127278 0.051248044 -0.013627883 -0.04037618 -0.066380344 0.0044655744
-0.09855322 -0.06514011 0.046607967 0.05749555 -0.06572551 -0.11385429 0.03727035 0.11371707
0.090320945 -0.102350324 0.025621628 -0.01848651 0.053718515 -0.11215807 -0.0503017 -0.052766837
-0.10367101 0.0082589155 0.108374864 0.05392154 -0.07481875 -0.017603954 0.062274106 -0.06789949
0.021927511 0.015514842 0.10342593 -0.010613361 0.048215 -0.09043036 0.09395915 0.0022164187
0.049746018 -0.10192897 -0.026850617 -0.024479702 -0.031235237 -0.074960984 -0.08683019 0.040670715
0.027536917 0.103016205 0.07908903 0.100719094 -0.013830872 -0.108438306 -0.08768864 -0.0016649249
-0.043884892 0.00880848 0.10001746 -0.03063955 -0.08709904 0.008964343 0.03289612 0.08208852
-0.037548617 -0.10226685 0.10783759 0.0513441 -0.056259427 0.102145866 -0.02066842 0.057305276
-0.08343065 0.021443298 -0.09926904 0.1025101 -0.09812494 0.08686556 0.004501232 -0.09802956
0.11034066 -0.030563848 -0.076523125 0.035323773 -0.02033423 -0.03716177 -0.04242018 -0.005278734
0.062478486 0.009674978 0.015800826 0.05347453 0.10178508 0.0881283 0.08283997 0.095310114
-0.08041589 -0.040541284 0.068593755 0.018613068 0.10427416 -0.05684978 0.035417665 0.06997963
0.09044975 0.09332764 0.06849957 -0.029752549 0.11163368 -0.04084541 -0.06647908 0.04724517
0.06881484 0.09708832 -0.017836861 -0.09352882 -0.004877564 0.01657591 -0.11768839 0.057301715
0.015497122 -0.01861501 -0.08454411 -0.055809323 0.070454195 0.08733787 0.08583112 0.09946833
0.10943128 0.005882324 -0.08923953 -0.04910237 -0.07597539 0.0851031 -0.11173338 -0.008050372
0.0137718115 -0.10587093 -0.0023641929 0.036071006 -0.09601275 -0.054105714 -0.06598291 -0.022601245
-0.080617756 -0.051070318 -0.06340115 0.098057956 0.04610653 -0.00987561 -0.09960549 -0.021802884
0.10462616 0.09599174 0.0024422344 -0.06452314 0.11812675 -0.0733061 0.009126474 0.0931388
0.04613307 0.01598305 0.106055796 -0.06650446 -0.029099662 0.05374405 0.017724315 -0.10500562
0.027559683 -0.07421379 -0.090696305 -0.06790143 0.10513875 -0.013615184 0.008291836 0.032717012
-0.0799125 -0.07048514 -0.034386188 0.030829143 -0.07457514 0.042551436 -0.084676884 -0.04602708
-0.010779879 0.0978854 -0.09384831 0.07576348 0.031868774 0.1166115 -0.09222564 -0.051710866
0.056550186 -0.07831219 -0.0057414887 0.07249016 0.08380386 -0.09873632 0.06493792 0.023149945
0.046039265 0.07115251 -0.09012312 0.1017824 -0.014732134 -0.023824546 0.11065325 -0.01714236
0.0314347 -0.021969298 -0.016251964 -0.026000554 -0.04807253 0.051842023 0.024303013 -0.08045578
-0.114093475 -0.08483692 -0.0076332144 0.11831944 0.11303304 -0.07918798 0.067534745 0.11612854
0.056204498 -0.0031133615 0.06578487 -0.11042504 -0.10799738 0.014500123 -0.099854596 -0.049579088
0.025010336 0.07683389 -0.008495796 0.09635703 0.107162945 -0.11200432 0.100114234 -0.11291915
00000000: 8dbc 5c3d 300d cbbd cc26 cf3c 203e 5abd
00000010: d5c1 8cbd c979 483d e2ac d2bc 89e7 693d
00000020: 7aa9 3bbd 1e28 babd 3f0f 433d c201 a83c
00000030: d167 4dbd 5bd9 dd3c d7b1 2fbd 477a 863d
00000040: d4db 2b3c 183f ea3d 5872 a63d 78e9 513d
00000050: 7c47 5fbc 7e61 25bd 6bf2 87bd f453 923b
00000060: 45d6 c9bd 2e68 85bd ffe7 3e3d 7480 6b3d
00000070: 199b 86bd 702c e9bd cba8 183d 7fe4 e83d
00000080: 30fa b83d 0c9d d1bd 73e4 d13c 0571 97bc
00000090: f207 5c3d 21b3 e5bd 2809 4ebd 0a22 58bd
000000a0: 7751 d4bd 6750 073c a4f3 dd3d d5dc 5c3d
000000b0: 933a 99bd 2b36 90bc 2213 7f3d e30e 8bbd
000000c0: 53a1 b33c f731 7e3c f9d0 d33d aae3 2dbc
000000d0: 187d 453d 8d33 b9bd a86d c03d 5641 113b
000000e0: 7bc2 4b3d 23c0 d0bd d3f5 dbbc a889 c8bc
000000f0: 0ae1 ffbc 2585 99bd 07d4 b1bd 5696 263d
00000100: 1a95 e13c 29fa d23d 6ef9 a13d d045 ce3d
00000110: e29a 62bc e714 debd 1a96 b3bd 9c39 daba
00000120: a5c0 33bd 7151 103c f4d5 cc3d cbff fabc
00000130: fb60 b2bd 2edf 123c 15be 063d 071e a83d
00000140: 94cc 19bd 4871 d1bd f4d9 dc3d 314e 523d
00000150: 4970 66bd da31 d13d d150 a9bc f0b8 6a3d
00000160: b0dd aabd dba9 af3c 914d cbbd d1f0 d13d
00000170: bbf5 c8bd 92e6 b13d 127f 933b b9c3 c8bd
00000180: 49fa e13d 0961 fabc 28b8 9cbd a9af 103d
00000190: f993 a6bc f136 18bd c8c0 2dbd 3bf9 acbb
000001a0: 71e9 7f3d cd83 1e3c bc70 813c 1c08 5b3d
000001b0: b274 d03d 9c7c b43d 01a8 a93d f331 c33d
000001c0: 16b1 a4bd 9e0e 26bd e27a 8c3d 6f7a 983c
000001d0: b18d d53d 51db 68bd 1d12 113d 7b51 8f3d
000001e0: b83d b93d 9022 bf3d 8149 8c3d 9ebb f3bc
000001f0: 33a0 e43d 844d 27bd 2f26 88bd 2784 413d
00000200: cbee 8c3d 3ed6 c63d 9c1e 92bc 0a8c bfbd
00000210: f9d3 9fbb 34ca 873c 9c06 f1bd 34b5 6a3d
00000220: a4e7 7d3c 817e 98bc 7625 adbd 5198 64bd
00000230: 4a4a 903d 32de b23d 3ac8 af3d 0db6 cb3d
00000240: 821d e03d 83c0 c03b 37c3 b6bd 911f 49bd
00000250: fc98 9bbd 894a ae3d 78d4 e4bd b5e5 03bc
00000260: 2aa3 613c dcd2 d8bd 93f0 1abb 31bf 133d
00000270: 55a2 c4bd f49d 5dbd 0c22 87bd 3f26 b9bc
00000280: ec1a a5bd 1c2f 51bd 76d8 81bd 9cd2 c83d
00000290: 33da 3c3d 4fcd 21bc f7fd cbbd f69b b2bc
000002a0: 3d46 d63d 5197 c43d e50d 203b b524 84bd
000002b0: 70ec f13d 8221 96bd 3587 153c 8ebf be3d
000002c0: 08f6 3c3d e3ee 823c c833 d93d 7e33 88bd
000002d0: 6a62 eebc b922 5c3d 9532 913c 300d d7bd
000002e0: d8c4 e13c 66fd 97bd fcbe b9bd e80f 8bbd
000002f0: fc52 d73d 3912 5fbc 7bda 073c 4602 063d
00000300: 2aa9 a3bd 835a 90bd 88d8 0cbd 668d fc3c
00000310: daba 98bd 6a4a 2e3d 136b adbd e486 3cbd
00000320: 179e 30bc 2478 c83d 8b33 c0bd e229 9b3d
00000330: d588 023d 03d2 ee3d cce0 bcbd c6ce 53bd
00000340: 2ba1 673d 2462 a0bd 1923 bcbb b975 943d
00000350: 5ca1 ab3d 4536 cabd 2cfe 843d f4a4 bd3c
00000360: ab93 3c3d 68b8 913d 7892 b8bd 4a73 d03d
00000370: 0c5f 71bc b22b c3bc 2c9e e23d 226e 8cbc
00000380: acc1 003d f5f8 b3bc d722 85bc 1dff d4bc
00000390: b4e7 44bd 4d58 543d 1d17 c73c 00c6 a4bd
000003a0: d7a9 e9bd fbbe adbd 0b20 fabb 7651 f23d
000003b0: de7d e73d 4f2d a2bd a84f 8a3d cdd4 ed3d
000003c0: b036 663d 8a09 4cbb 38ba 863d 8626 e2bd
000003d0: bb2d ddbd ed91 6d3c 9180 ccbd 7113 4bbd
000003e0: 7ae2 cc3c 165b 9d3d f331 0bbc d656 c53d
000003f0: 3f78 db3d 8562 e5bd b108 cd3d 2842 e7bd

blocks.0.1.weight f4 [256]
1.0010453 1.0009016 1.0026311 0.99200726 0.9992294 0.9946714 0.9905175 0.98980784
1.0075488 0.9983437 1.0014914 1.0031195 0.9940231 0.9981164 0.996097 0.9870196
0.976543 0.98816425 1.0026786 0.99753547 0.99545467 0.9872053 0.96972054 0.9917134
0.9781128 0.99265605 0.9898478 1.0064964 0.99305975 0.98117685 1.0050914 0.97864866
1.0104564 0.98488754 1.0005728 0.9905571 0.9979297 0.98551375 1.0020515 1.0006807
0.98106813 0.99636394 0.9963104 1.0084372 0.9814225 0.9867503 0.99845743 1.0175653
0.98237777 0.9934929 0.99431974 1.0043137 1.0106617 1.0084202 0.99696857 0.9989442
0.98898786 1.0061821 0.98900867 0.991303 0.98397964 0.99115205 0.98847926 1.003603
0.9949737 0.9992562 0.9772318 0.9985585 0.9976606 0.99206865 0.9939982 1.0106604
1.0002618 1.0042076 1.0095603 0.9846507 1.000518 1.0231256 0.98958576 0.99671096
0.9977506 0.9862646 0.99496275 1.0021945 0.99788994 1.0217141 1.0029727 0.98986214
0.98959357 0.9979636 1.0106436 0.9886015 1.0077326 1.0044799 0.9846685 1.0007652
0.9898059 0.99300855 0.9908322 0.99317473 0.9940758 1.0124923 1.0053985 0.9756777
0.9914612 1.0013762 1.0095361 0.9885827 1.010194 1.0023577 0.99982095 0.99488443
0.9861917 1.00746 0.9903856 1.0007933 0.9930301 1.0065728 1.0094559 1.0008471
1.0020791 1.0082835 0.9848743 1.0008254 1.0115736 0.9905201 1.0087843 0.9964867
0.9919717 1.0101179 0.97930425 0.99845225 1.0039228 1.0051783 1.007659 0.9963637
0.9884861 0.9776412 1.0005156 0.9947709 0.99850976 0.99789673 1.0041883 0.9993824
1.0058922 0.9738884 0.99560577 0.9987531 0.9925321 1.0016726 1.0003557 0.9960988
0.9889563 0.9927115 0.9811702 1.0004809 0.99104893 0.9835955 0.98034316 0.99404365
0.9963714 1.00681 0.9865833 1.0029613 0.99583256 1.0108924 1.0070362 0.9988442
0.9916765 0.9931274 1.0003226 0.9969413 1.0147831 0.9901803 0.99041736 0.9878762
1.0007262 0.99641454 0.969592 1.0035807 0.9899664 0.9903803 1.0060362 0.9877979
0.99323636 1.0019097 0.9882605 0.9972174 1.0193216 1.004548 1.0050453 0.99038196
1.0132841 1.0197133 1.0178013 1.0021018 1.010854 0.99202603 0.99001753 0.99458826
0.98186255 0.9956482 1.0023867 0.9981124 1.0092072 1.0008483 0.99206644 1.0073009
0.9920058 1.0136199 0.9999457 1.008756 0.9934339 0.98513937 1.0037727 0.9834721
0.9942042 0.9923096 0.99232346 0.9886187 1.0040156 1.009733 0.9906539 0.99281967
0.9842555 0.99803174 1.0012572 0.9915811 0.9786354 0.9954343 0.9928862 1.0027483
1.0015864 0.98742604 0.9987448 0.98653245 0.9940455 1.0208769 1.0096008 0.99151725
1.0200452 0.99687165 1.0002893 0.9845164 1.002609 0.99722654 0.97893584 0.999511
0.9786254 0.9987778 0.98491466 0.9831377 1.0128729 0.9776779 1.0057536 1.0076345
00000000: 4122 803f 8b1d 803f 3756 803f 30f4 7d3f
00000010: 7fcd 7f3f c9a2 7e3f 8e92 7d3f 0c64 7d3f
00000020: 5cf7 803f 7493 7f3f df30 803f 3866 803f
00000030: 4c78 7e3f 8e84 7f3f 3700 7f3f 51ad 7c3f
00000040: b9fe 793f 55f8 7c3f c657 803f 7c5e 7f3f
00000050: 1ed6 7e3f 7db9 7c3f 9b3f 783f eee0 7d3f
00000060: 9a65 7a3f b51e 7e3f aa66 7d3f e0d4 803f
00000070: 2a39 7e3f 682e 7b3f d6a6 803f b888 7a3f
00000080: a356 813f 9721 7c3f c512 803f 2695 7d3f
00000090: 5278 7f3f a14a 7c3f 3943 803f 4e16 803f
000000a0: 4827 7b3f b511 7f3f 330e 7f3f 7814 813f
000000b0: 813e 7b3f ab9b 7c3f e89a 7f3f 943f 823f
000000c0: 1c7d 7b3f 8d55 7e3f bd8b 7e3f 5a8d 803f
000000d0: 5d5d 813f ea13 813f 5539 7f3f cfba 7f3f
000000e0: 4f2e 7d3f 93ca 803f ac2f 7d3f 09c6 7d3f
000000f0: 17e6 7b3f 24bc 7d3f fa0c 7d3f 1076 803f
00000100: 99b6 7e3f 41cf 7f3f dd2b 7a3f 88a1 7f3f
00000110: af66 7f3f 36f8 7d3f ab76 7e3f 525d 813f
00000120: 9408 803f e089 803f 4639 813f 1112 7c3f
00000130: f910 803f c8f5 823f 7e55 7d3f 7328 7f3f
00000140: 956c 7f3f d67b 7c3f e1b5 7e3f e947 803f
00000150: b775 7f3f 87c7 823f 6961 803f 9b67 7d3f
00000160: 0156 7d3f 8b7a 7f3f c55c 813f fd14 7d3f
00000170: 62fd 803f cc92 803f 3c13 7c3f 1319 803f
00000180: eb63 7d3f cf35 7e3f 2ea7 7d3f b340 7e3f
00000190: c07b 7e3f 5999 813f e6b0 803f 04c6 793f
000001a0: 67d0 7d3f 182d 803f 7b38 813f c113 7d3f
000001b0: 094e 813f 424d 803f 44f4 7f3f bfb0 7e3f
000001c0: 0f77 7c3f 73f4 803f e989 7d3f ff19 803f
000001d0: 3837 7e3f 61d7 803f da35 813f c21b 803f
000001e0: 2144 803f 6f0f 813f b920 7c3f 0c1b 803f
000001f0: 3e7b 813f ba92 7d3f d81f 813f c119 7f3f
00000200: dbf1 7d3f 8b4b 813f afb3 7a3f 919a 7f3f
00000210: 8b80 803f afa9 803f f8fa 803f b111 7f3f
00000220: 6d0d 7d3f b246 7a3f e510 803f 4ea9 7e3f
00000230: 569e 7f3f 2976 7f3f 3e89 803f 86d7 7f3f
00000240: 13c1 803f c050 793f 05e0 7e3f 48ae 7f3f
00000250: 9516 7e3f cf36 803f a80b 803f 5500 7f3f
00000260: 3d2c 7d3f 5722 7e3f f82d 7b3f c20f 803f
00000270: 62b5 7d3f eacc 7b3f c5f7 7a3f a579 7e3f
00000280: 3212 7f3f 26df 803f b990 7c3f 0961 803f
00000290: e2ee 7e3f ec64 813f 90e6 803f 41b4 7f3f
000002a0: 83de 7d3f 993d 7e3f 920a 803f 8c37 7f3f
000002b0: 6ae4 813f 757c 7d3f fe8b 7d3f 74e5 7c3f
000002c0: cc17 803f 0615 7f3f 2e37 783f 5575 803f
000002d0: 706e 7d3f 9089 7d3f cbc5 803f 53e0 7c3f
000002e0: bd44 7e3f 943e 803f a4fe 7c3f a449 7f3f
000002f0: 2179 823f 0795 803f 53a5 803f ac89 7d3f
00000300: 4bb3 813f f785 823f 5047 823f df44 803f
00000310: aa63 813f 6bf5 7d3f ca71 7d3f 569d 7e3f
00000320: 585b 7b3f cde2 7e3f 354e 803f 4b84 7f3f
00000330: b42d 813f cc1b 803f 11f8 7d3f 3cef 803f
00000340: 18f4 7d3f 4cbe 813f 71fc 7f3f eb1e 813f
00000350: af51 7e3f 1832 7c3f a07b 803f d4c4 7b3f
00000360: 2b84 7e3f 0008 7e3f e908 7e3f 1d16 7d3f
00000370: 9583 803f ee3e 813f 7e9b 7d3f 6e29 7e3f
00000380: 2bf8 7b3f 027f 7f3f 3229 803f 42d8 7d3f
00000390: d987 7a3f c8d4 7e3f ca2d 7e3f 0e5a 803f
000003a0: fc33 803f f4c7 7c3f bdad 7f3f 648d 7c3f
000003b0: c479 7e3f 18ac 823f 993a 813f 13d4 7d3f
000003c0: d790 823f fb32 7f3f 7b09 803f 4409 7c3f
000003d0: 7e55 803f 3d4a 7f3f 8a9b 7a3f f4df 7f3f
000003e0: 3287 7a3f e7af 7f3f 5e23 7c3f eaae 7b3f
000003f0: d2a5 813f 1949 7a3f 89bc 803f 2bfa 803f

blocks.0.1.bias f4 [256]
-0.00028325885 -0.00034124835 -0.013105761 -0.012849457 0.007447098 -0.00079501426 -0.01097229 -0.0015625277
0.016305309 -0.007474462 0.009396239 -0.011329863 -0.002159487 -0.00741013 -0.0027045314 -0.013114374
-0.020421006 -0.011847553 0.01014879 0.0028322295 0.00011791932 -0.017142078 -0.023482028 0.0032277007
-0.022438241 -0.003736443 -0.005675585 0.011181027 -0.020401018 -0.024936808 0.0011866456 -0.0071564284
-0.0073599466 -0.020400016 -0.006179301 -0.006374105 -0.0021791072 -0.013339729 0.006922018 -0.004225673
-0.0054116654 -0.0028530322 -0.00073782867 9.776297e-05 -0.009527962 -0.015284423 -0.00267922 0.015337254
-0.011448902 -0.014322659 -0.0047591515 0.005074819 0.008444751 0.0006069301 -0.0028893168 0.0056552654
-0.006910013 0.0040934295 -0.0131774 -0.0067551765 -0.011401225 -0.004743793 -0.017271768 0.0010803244
-0.013961797 -0.0031224866 -0.012839984 0.0069364514 0.00636317 -0.016490998 -0.016001824 0.0026006298
0.008714092 -0.012153881 0.013680778 -0.018741138 -0.0029520753 0.008263765 -0.010913247 -0.009946639
0.0031054397 -0.019488541 -0.007315258 -0.001539534 -0.00578928 0.01939368 -0.0048455494 -0.009706903
-0.011935146 -0.002923324 -0.007945684 -0.008158461 0.012257512 0.022441894 0.011085978 -0.008797817
-0.017579457 -0.0005813914 -0.015795311 -0.004731563 -0.016910713 -0.0057220166 -0.004174721 -0.0047551347
-0.017205857 -0.0050664693 0.00050651876 -0.017478568 0.005251688 0.0011820515 -0.002515162 0.0021016144
-0.002989758 -0.0025959667 -0.0025512641 -0.014318527 -0.016962256 0.008487324 0.0052503436 -0.004965581
-0.0178727 0.013129795 -0.017272841 0.010964747 0.014131761 -0.0013298227 0.018699287 -0.009645153
-0.0040919827 -0.005185589 -0.01483262 -0.0065188524 -0.024323625 0.0033349749 0.007406838 -0.00867981
-0.012389909 -0.02462055 -0.009526622 -0.0051105972 0.008259982 -0.007916558 0.016415078 0.0044279983
0.010275849 -0.012917108 -0.0032205991 0.0089756865 -0.009008196 -0.0069257542 0.022756852 0.0031270515
-0.012237799 -0.02598162 -0.0065216445 -0.0038082288 0.0025487957 -0.015793186 0.0026451861 -0.002836999
0.0002710378 0.009428263 -0.005859549 -0.0075004348 -0.00703135 0.00043064286 0.0066628885 -0.00087676063
-0.0024797074 -0.017005105 0.011498322 -0.011758684 -0.0011337823 -0.020012902 -0.02616946 -0.014839801
-0.015985169 -0.002604231 -0.030202745 -0.0030980976 -0.00935169 -0.008031978 -0.005437951 -0.0016029028
-0.0027600077 0.0076142247 -0.027095241 -0.001389067 0.014203292 0.00633521 -0.0010696087 -0.0016453478
0.01085584 -0.0046494063 0.0060377135 -0.013943665 -0.008708857 -0.0051347 0.004070957 -0.010486297
-0.017427383 -0.006263252 0.0032868662 0.004714443 0.009530079 -0.012741283 -0.007114911 0.007163717
-0.017471522 0.008478354 -0.0134479385 0.016836677 -0.00054716854 -0.009872134 0.0003086658 -0.01403551
-0.0056269984 -0.007884702 -0.012789831 -0.006988897 0.013610489 0.007562622 -0.004923432 -0.010097863
-0.004618941 0.006345973 -0.0039132396 -0.0115154805 -0.0023441147 -0.0064418116 -0.015220072 -0.012644976
-0.016203152 -0.02083114 -0.011258352 -0.008140968 -0.014000051 -0.008860958 0.0046830615 -0.02243682
0.010203286 -0.0028251838 -0.009319582 -0.020486364 -0.020636275 -0.010269028 -0.013183335 -0.012815597
-0.012365828 -0.0054203733 -0.0038627512 -0.0010446295 0.00849893 -0.0038637035 -0.00069409003 -0.0026784132
00000000: 5c82 94b9 94e9 b2b9 8cb9 56bc 8786 52bc
00000010: c906 f43b 8168 50ba 1fc5 33bc bbcd ccba
00000020: b692 853c 55ec f4bb aff2 193c e4a0 39bc
00000030: 2e86 0dbb add0 f2bb 823e 31bb acdd 56bc
00000040: f449 a7bc 3d1c 42bc 1c47 263c ed9c 393b
00000050: 744b f738 8b6d 8cbc 625d c0bc d587 533b
00000060: 67d0 b7bc 1cdf 74bb 42fa b9bb a030 373c
00000070: 0920 a7bc 4748 ccbc 3889 9b3a 7980 eabb
00000080: b52b f1bb ef1d a7bc bc7b cabb dedd d0bb
00000090: 5acf 0ebb e18e 5abc 18d2 e23b 8477 8abb
000000a0: 5754 b1bb f0f9 3abb d86a 41ba 1806 cd38
000000b0: 2b1b 1cbc 846b 7abc da95 2fbb 1b49 7b3c
000000c0: 2d94 3bbc 96a9 6abc a8f2 9bbb ab4a a63b
000000d0: da5b 0a3c 641a 1f3a b15a 3dbb ce4f b93b
000000e0: 646d e2bb 2d22 863b 06e6 57bc 875a ddbb
000000f0: 34cc 3abc d271 9bbb 867d 8dbc ac99 8d3a
00000100: 05c0 64bc a2a2 4cbb cc5e 52bc 2c4b e33b
00000110: 2482 d03b 2118 87bc 4216 83bc 546f 2a3b
00000120: 8dc5 0e3c 1221 47bc 5825 603c 0487 99bc
00000130: 9b77 41bb be64 073c 7acd 32bc 3af7 22bc
00000140: a284 4b3b 6fa6 9fbc d5b4 efbb 30ca c9ba
00000150: 00b4 bdbb 7fdf 9e3c 6ac7 9ebb b409 1fbc
00000160: a18b 43bc 3d95 3fbb 9d2e 02bc 11ab 05bc
00000170: bbd3 483c 10d8 b73c f6a1 353c b824 10bc
00000180: cb02 90bc 8468 18ba 2b65 81bc 3a0b 9bbb
00000190: 5688 8abc c17f bbbb 19cc 88bb f6d0 9bbb
000001a0: 4cf3 8cbc a004 a6bb e6c7 043a 372f 8fbc
000001b0: 5a16 ac3b 11ef 9a3a 6bd5 24bb 3dbb 093b
000001c0: d1ef 43bb 1821 2abb 1c33 27bb 4198 6abc
000001d0: 6ef4 8abc 6b0e 0b3c 130b ac3b 50b6 a2bb
000001e0: c569 92bc 5a1e 573c c67f 8dbc 7ba5 333c
000001f0: e788 673c 724d aeba 3f2f 993c b406 1ebc
00000200: 0a16 86bb e0eb a9bb 8404 73bc 199c d5bb
00000210: 5742 c7bc 988f 5a3b 0fb5 f23b c335 0ebc
00000220: 0bff 4abc 09b1 c9bc 8c15 1cbc cc76 a7bb
00000230: e054 073c 73b4 01bc ea78 863c be18 913b
00000240: 095c 283c 47a2 53bc b010 53bb c20e 133c
00000250: 1d97 13bc 70f1 e2bb 946c ba3c 38ef 4c3b
00000260: 0d81 48bc 68d7 d4bc 85b3 d5bb 7a93 79bb
00000270: b209 273b b660 81bc dc5a 2d3b f2ec 39bb
00000280: 141a 8e39 0079 1a3c 7601 c0bb 35c6 f5bb
00000290: 3d67 e6bb e8c7 e139 5c54 da3b 69d6 65ba
000002a0: 9682 22bb 4a4e 8bbc 7563 3c3c 7fa7 40bc
000002b0: 6c9b 94ba 19f2 a3bc 5661 d6bc a322 73bc
000002c0: 54f3 82bc bfab 2abb bf6b f7bc 7409 4bbb
000002d0: d537 19bc 8f98 03bc d730 b2bb 7e18 d2ba
000002e0: 3fe1 34bb bf80 f93b d7f6 ddbc 5b11 b6ba
000002f0: edb4 683c 9897 cf3b 1d32 8cba b6a8 d7ba
00000300: b1dc 313c 0c5a 98bb 03d8 c53b f873 64bc
00000310: 98af 0ebc fc40 a8bb aa65 853b b8ce 2bbc
00000320: dfc3 8ebc f73b cdbb 7768 573b 9d7b 9a3b
00000330: 0c24 1c3c d0c0 50bc 3324 e9bb 9dbd ea3b
00000340: 7020 8fbc cbe8 0a3c be54 5cbc 12ed 893c
00000350: dc6f 0fba bbbe 21bc 6cd4 a139 32f5 65bc
00000360: af62 b8bb d62e 01bc 708c 51bc 1e03 e5bb
00000370: 87fe 5e3c dfcf f73b be54 a1bb 8271 25bc
00000380: 7c5a 97bb e1f1 cf3b a23a 80bb 6dab 3cbc
00000390: b89f 19bb d515 d3bb 9c5d 79bc e02c 4fbc
000003a0: 79bc 84bc 11a6 aabc f374 38bc b261 05bc
000003b0: 7860 65bc 8d2d 11bc 5e74 993b 6ccd b7bc
000003c0: af2b 273c b826 39bb 29b1 18bc 05d3 a7bc
000003d0: 680d a9bc 6d3f 28bc eafe 57bc 82f8 51bc
000003e0: 0b9a 4abc 639d b1bb 3626 7dbb f3eb 88ba
000003f0: 193f 0b3c 3036 7dbb 98f3 35ba 5188 2fbb

blocks.0.1.running_mean f4 [256]
0.09242202 -0.16612716 -0.044453565 -0.06064761 -0.09476478 -1.3246259e-05 -0.07870114 -0.11623126
0.06025614 -0.2491305 0.08817646 0.07565988 0.0051429085 -0.01474651 -0.16829869 -0.020981872
-0.0031784205 0.045048203 -0.01321071 0.08501277 0.13206266 -0.083515234 -0.095701866 -0.0070639765
-0.12729122 -0.089386106 -0.04663101 -0.015489154 -0.21364625 -0.009419519 -0.0069283755 0.27511066
0.056313604 -0.0638706 0.06284842 -0.044670768 0.07322919 -0.12946042 0.0381115 -0.23314138
-0.14186014 0.011989888 0.1303146 0.11482018 0.0441937 0.010242906 0.07911648 0.07237052
0.00038293947 0.017102078 0.031797685 0.040113874 0.027308878 -0.08716343 -0.02262773 -0.087117165
0.029798629 -0.2742406 -0.0077408417 0.02390258 -0.14350744 0.017401109 -0.09252985 0.005444581
-0.04627666 0.05634515 0.054918997 0.15964332 -0.044269394 -0.15219857 -0.075604126 0.08208532
-0.02347166 -0.034719307 0.256368 0.015808616 -0.20719653 0.035896417 0.057014074 -0.042435896
-0.017877037 -0.12813708 0.16774516 -0.12095979 -0.019262053 0.13643613 -0.16216712 -0.023689507
-0.02377599 -0.004241229 -0.06932624 0.19835915 -0.104791455 0.029467817 0.1319207 -0.0912406
0.17738022 0.054215495 -0.045273136 -0.02988946 0.1444352 0.020220319 -0.08898348 -0.038906697
0.1145626 0.047966693 0.112948954 0.13751267 0.21489266 0.0418341 0.057461597 0.053494465
-0.19794062 -0.12443632 0.07835521 0.090266176 0.13390101 0.09177806 -0.07356942 -0.026202599
-0.0067847576 0.05844333 0.16274431 -0.12180204 0.27373913 -0.11878126 -0.028130705 0.15983471
0.086285226 0.11942896 -0.05870892 -0.02608585 0.06687824 0.035747044 -0.09300872 0.0447605
0.01720304 0.029552452 -0.036046028 -0.060790453 -0.026856082 0.047857065 0.06551964 0.15811738
0.114541344 -0.021072801 -0.17102951 -0.09792285 -0.1306571 -0.019981107 -0.06571581 -0.023642533
0.08909417 -0.030230131 0.002070399 0.06668063 0.0035967897 0.05791398 -0.033083003 -0.094693474
-0.15565705 -0.014446045 -0.11910668 0.14216667 0.15306655 -0.1009087 -0.043303147 -0.069991685
0.25008234 0.04409858 -0.0022887406 -0.041123368 0.16730714 -0.15355515 0.022813573 0.14349908
-0.068707645 0.0097421035 0.2292723 -0.21714036 0.0017204869 -0.05894524 -0.026869591 -0.10083342
-0.047378104 -0.04379672 -0.08492864 -0.022789016 0.041839328 0.0032321285 0.055434667 -0.12745394
0.036695726 -0.2097525 0.015567707 0.0076723127 -0.055031523 -0.000108686974 -0.048351355 -0.10254851
-0.07833424 0.13588715 -0.1257694 -0.013044129 0.05155623 0.25218278 -0.11719972 -0.08467747
0.017879067 0.051983718 -0.00510522 0.020708468 -0.043340404 0.009154083 -0.00058168685 -0.11747212
0.107061684 0.14421825 -0.0010064989 -0.05800473 -0.11851517 -0.04401281 0.1322968 -0.02943098
0.033311546 0.0028168177 -0.049368575 0.048734464 -0.0076043764 0.13971667 -0.027083522 -0.07833921
-0.1980704 -0.17283837 0.07553783 0.22393602 0.27607623 -0.019391153 -0.026433952 0.049283642
0.06191104 0.030988391 0.038732257 0.0877484 -0.059769426 -0.029893078 -0.07552153 -0.12994114
0.0030126811 0.09044325 0.061295398 -0.059639644 0.055512667 -0.2463757 0.048571058 -0.07606566
00000000: c247 bd3d 3d1d 2abe f114 36bd a169 78bd
00000010: 0914 c2bd 403c 5eb7 102e a1bd a80a eebd
00000020: 24cf 763d 111c 7fbe dc95 b43d 91f3 9a3d
00000030: d885 a83b 599b 71bc 7e56 2cbe 2de2 abbc
00000040: 0c4d 50bb 7784 383d bc71 58bc 2d1b ae3d
00000050: 6f3b 073e 090a abbd 57ff c3bd ee78 e7bb
00000060: a158 02be 1010 b7bd 2800 3fbd 38c6 7dbc
00000070: 15c6 5abe 5454 1abc 6d07 e3bb 4edb 8c3e
00000080: 18a9 663d 97ce 82bd acb6 803d b2f8 36bd
00000090: 30f9 953d 4691 04be ce1a 1c3d 9dbc 6ebe
000000a0: c943 11be 3c71 443c 3171 053e d826 eb3d
000000b0: 7404 353d ddd1 273c d207 a23d ff36 943d
000000c0: 44c5 c839 a819 8c3c 4a3e 023d 724e 243d
000000d0: deb6 df3c be82 b2bd ca5d b9bc 7c6a b2bd
000000e0: 411c f43c 4469 8cbe e3a6 fdbb 58cf c33c
000000f0: 9df3 12be c58c 8e3c 4a80 bdbd 7568 b23b
00000100: 988c 3dbd 2cca 663d bef2 603d 8a79 233e
00000110: d353 35bd f1d9 1bbe 56d6 9abd 591c a83d
00000120: a447 c0bc d535 0ebd ab42 833e 1281 813c
00000130: 542b 54be 1f08 133d 9787 693d 43d1 2dbd
00000140: dd72 92bc 5e36 03be 63c5 2b3e c4b9 f7bd
00000150: 74cb 9dbc eab5 0b3e 230f 26be 7f10 c2bc
00000160: ddc5 c2bc 02fa 8abb eafa 8dbd a91e 4b3e
00000170: e79c d6bd 7e66 f13c 3816 073e 5adc babd
00000180: 29a3 353e 1111 5e3d 5370 39bd beda f4bc
00000190: d2e6 133e 15a5 a53c f93c b6bd a15c 1fbd
000001a0: cc9f ea3d b978 443d c851 e73d 1fd0 0c3e
000001b0: d20c 5c3e 3c5a 2b3d da5c 6b3d 031d 5b3d
000001c0: f2b0 4abe 78d8 febd b278 a03d 79dd b83d
000001d0: 591d 093e 23f6 bb3d 90ab 96bd d5a6 d6bc
000001e0: ac52 debb 4662 6f3d 72a6 263e 5973 f9bd
000001f0: 8927 8c3e 9743 f3bd 5d72 e6bc b6ab 233e
00000200: 4fb6 b03d 2c97 f43d c478 70bd feb1 d5bc
00000210: 75f7 883d 7e6b 123d 5b7b bebd c956 373d
00000220: 64ed 8c3c fc17 f23c 00a5 13bd 69ff 78bd
00000230: 4901 dcbc c505 443d 292f 863d 86e9 213e
00000240: a794 ea3d dea0 acbc 5c22 2fbe c68b c8bd
00000250: faca 05be 6baf a3bc 0396 86bd fcad c1bc
00000260: 0177 b63d 2ea5 f7bc 88af 073b db8f 883d
00000270: 1eb8 6b3b 3637 6d3d 0b82 07bd a7ee c1bd
00000280: 9064 1fbe 1baf 6cbc 34ee f3bd 2494 113e
00000290: 7abd 1c3e 38a9 cebd a45e 31bd cd57 8fbd
000002a0: cb0a 803e b6a0 343d b2fe 15bb fa70 28bd
000002b0: 9052 2b3e 903d 1dbe 88e3 ba3c 6cf1 123e
000002c0: 98b6 8cbd 589d 1f3c 5cc6 6a3e 0b5a 5ebe
000002d0: f681 e13a 9070 71bd 9e1d dcbc c181 cebd
000002e0: 8b0f 42bd 3164 33bd 11ef adbd 08b0 babc
000002f0: b75f 2b3d 1ed2 533b 760f 633d 4983 02be
00000300: 424e 163d 5cc9 56be b20f 7f3c 0668 fb3b
00000310: bc68 61bd e0ee e3b8 120c 46bd f404 d2bd
00000320: b46d a0bd 0026 0b3e b2c9 00be 0bb7 55bc
00000330: a02c 533d 1a1e 813e 6806 f0bd 626b adbd
00000340: 1f77 923c e1ec 543d b049 a7bb cea4 a93c
00000350: b585 31bd 02fb 153c 587c 18ba 3995 f0bd
00000360: 2843 db3d f3ad 133e 80ec 83ba 5e96 6dbd
00000370: 15b8 f2bd c746 34bd d078 073e 3d19 f1bc
00000380: b071 083d 5c9a 383b b436 4abd ca9d 473d
00000390: 222e f9bb e311 0f3e 43de ddbc 4f70 a0bd
000003a0: f8d2 4abe 8bfc 30be 94b3 9a3d 7c4f 653e
000003b0: dd59 8d3e 32da 9ebc 048c d8bc a5dd 493d
000003c0: 6e96 7d3d 5edb fd3c b7a5 1e3d 6fb5 b33d
000003d0: c9d0 74bd 54e2 f4bc 08ab 9abd 4a0f 05be
000003e0: 6770 453b 503a b93d e210 7b3d b348 74bd
000003f0: 4061 633d e949 7cbe 72f2 463d 50c8 9bbd

blocks.0.1.running_var f4 [256]
0.24353069 0.26253965 0.30716395 0.39958405 0.35981026 0.436956 0.23691662 0.4078013
0.30570766 0.2992405 0.28837925 0.28667542 0.45254472 0.29602644 0.20716819 0.2770043
0.3266077 0.30931085 0.27036777 0.27004147 0.27247036 0.30013156 0.28472322 0.2668363
0.43838724 0.26917887 0.25962588 0.2879671 0.29111823 0.394849 0.40598655 0.21985911
0.39540073 0.3256261 0.27309018 0.25810674 0.31734738 0.33996 0.19644073 0.32745668
0.3128456 0.39403838 0.25311816 0.36203802 0.29170987 0.29692605 0.26458868 0.25711772
0.35674986 0.47787392 0.2680548 0.29683402 0.27984688 0.25801063 0.29293475 0.26792336
0.33320966 0.3024613 0.2815283 0.30549642 0.2873762 0.23733275 0.4433633 0.299751
0.38692045 0.34654772 0.34912857 0.27487013 0.27768204 0.30308643 0.31155163 0.24897577
0.33833265 0.22669357 0.30768868 0.22549859 0.18062791 0.20289348 0.2690222 0.2851804
0.3067333 0.2629114 0.35654667 0.35886264 0.25980952 0.26058307 0.2586006 0.27328122
0.3707571 0.25626758 0.3088957 0.24589863 0.26796815 0.3816988 0.28731224 0.3861401
0.20930375 0.26424563 0.3234393 0.25930527 0.25764087 0.27788928 0.25571766 0.23906386
0.4315923 0.39726976 0.25872308 0.47710872 0.2538945 0.2779903 0.2773412 0.33461416
0.25148445 0.27981707 0.5068561 0.2793346 0.18350618 0.3713282 0.43139768 0.2480021
0.25893366 0.31065127 0.42733467 0.24714363 0.363585 0.29647005 0.25394973 0.29484358
0.23222674 0.2954052 0.28981626 0.3340557 0.35185796 0.237641 0.31405675 0.3292644
0.3467801 0.22361334 0.35350946 0.20413761 0.26973355 0.27393267 0.2758778 0.35973576
0.3321745 0.32906765 0.26665437 0.44785967 0.3018044 0.33078614 0.26273227 0.3674731
0.23675987 0.25272015 0.29375836 0.23143208 0.41006222 0.41616642 0.2610655 0.32262954
0.23320663 0.3566863 0.27709708 0.27220842 0.33061603 0.3962229 0.2931217 0.38801634
0.27396494 0.34285933 0.34863907 0.26543012 0.32104135 0.28119475 0.24741796 0.26751685
0.3354807 0.30909774 0.21768734 0.2992328 0.22484364 0.26443908 0.21817683 0.36574492
0.32016027 0.33773717 0.29473776 0.25486618 0.36808005 0.3667528 0.2547785 0.23537791
0.29313782 0.24348038 0.26830167 0.24824312 0.44260353 0.24169983 0.2538711 0.3492758
0.46030456 0.25696152 0.32196477 0.34071597 0.27945736 0.28495994 0.2883642 0.28377384
0.355075 0.3282715 0.37056327 0.3920055 0.36575082 0.24248335 0.21391873 0.2855919
0.3845802 0.44493234 0.2637222 0.27632013 0.35354388 0.34682912 0.27913234 0.31108606
0.29017633 0.32718047 0.2538285 0.28017575 0.35899854 0.31457895 0.3613345 0.28681213
0.3411781 0.33156028 0.47954354 0.29378203 0.3808051 0.3932733 0.25353745 0.34193566
0.24099252 0.28063336 0.22634757 0.32756722 0.30132636 0.21498142 0.21115696 0.26372266
0.25460252 0.22522159 0.22234741 0.32027575 0.38759175 0.24464734 0.3045188 0.32124805
00000000: 1c60 793e 996b 863e 9844 9d3e 4896 cc3e
00000010: 0d39 b83e b2b8 df3e 459a 723e 55cb d03e
00000020: b785 9c3e 0d36 993e 72a6 933e 1fc7 923e
00000030: f1b3 e73e c790 973e e623 543e 82d3 8d3e
00000040: 2039 a73e fe5d 9e3e a56d 8a3e e042 8a3e
00000050: 3c81 8b3e d8aa 993e 3ec7 913e c49e 883e
00000060: 4b74 e03e d0d1 893e afed 843e 6c70 933e
00000070: 730d 953e a629 ca3e 78dd cf3e bf22 613e
00000080: f771 ca3e 77b8 a63e 7ad2 8b3e 9126 843e
00000090: 5b7b a23e 3d0f ae3e c227 493e 67a8 a73e
000000a0: 4c2d a03e 66bf c93e b498 813e 0c5d b93e
000000b0: ff5a 953e b106 983e 2b78 873e efa4 833e
000000c0: eba7 b63e e4ab f43e 7b3e 893e a1fa 973e
000000d0: 1748 8f3e f819 843e 8bfb 953e 402d 893e
000000e0: 759a aa3e 35dc 9a3e 7a24 903e 076a 9c3e
000000f0: f922 933e 5b07 733e 8400 e33e f778 993e
00000100: 701a c63e b46e b13e fbc0 b23e c7bb 8c3e
00000110: 572c 8e3e 252e 9b3e b283 9f3e 81f3 7e3e
00000120: f039 ad3e 5c22 683e 5f89 9d3e 1ae9 663e
00000130: 86f6 383e 4fc3 4f3e 47bd 893e 2a03 923e
00000140: 260c 9d3e 539c 863e 498d b63e d8bc b73e
00000150: c105 853e 256b 853e 4c67 843e 84eb 8b3e
00000160: e0d3 bd3e 8135 833e 9427 9e3e dacc 7b3e
00000170: 1f33 893e 066e c33e 971a 933e 28b4 c53e
00000180: b953 563e 344b 873e d699 a53e a9c3 843e
00000190: 81e9 833e 8147 8e3e 6ded 823e 28cd 743e
000001a0: aaf9 dc3e f166 cb3e 5a77 843e 9847 f43e
000001b0: 76fe 813e bf54 8e3e aaff 8d3e 8c52 ab3e
000001c0: 92c2 803e 2f44 8f3e 52c1 013f f204 8f3e
000001d0: 0be9 3b3e bb1e be3e 28e0 dc3e 43f4 7d3e
000001e0: f492 843e af0d 9f3e 9ccb da3e 3813 7d3e
000001f0: d027 ba3e ecca 973e b305 823e bdf5 963e
00000200: d9cc 6d3e 5a3f 973e cc62 943e 5909 ab3e
00000210: ba26 b43e 2a58 733e 0ccc a03e 5895 a83e
00000220: 298d b13e e5fa 643e 31ff b43e 7309 513e
00000230: 841a 8a3e e740 8c3e db3f 8d3e 492f b83e
00000240: c712 aa3e 8e7b a83e ec86 883e dd4d e53e
00000250: 1b86 9a3e cd5c a93e d884 863e 6f25 bc3e
00000260: 2e71 723e 8964 813e 7f67 963e 88fc 6c3e
00000270: adf3 d13e c413 d53e 61aa 853e b32f a53e
00000280: b8cd 6e3e 969f b63e abdf 8d3e e75e 8b3e
00000290: 8146 a93e badd ca3e 0c14 963e 14aa c63e
000002a0: 2245 8c3e 428b af3e d280 b23e 75e6 873e
000002b0: 885f a43e c2f8 8f3e 225b 7d3e f8f7 883e
000002c0: 20c4 ab3e 0f42 9e3e 6ee9 5e3e 0b35 993e
000002d0: 693d 663e 8f64 873e bf69 5f3e eb42 bb3e
000002e0: 0cec a33e e3eb ac3e dee7 963e d27d 823e
000002f0: fd74 bc3e 06c7 bb3e 5472 823e e806 713e
00000300: 2916 963e ec52 793e d65e 893e 7233 7e3e
00000310: ee9c e23e 2980 773e 65fb 813e 47d4 b23e
00000320: 0aad eb3e 7690 833e 91d8 a43e 5372 ae3e
00000330: 0915 8f3e 45e6 913e 79a4 933e ce4a 913e
00000340: 64cc b53e 3413 a83e 78ba bd3e f2b4 c83e
00000350: b143 bb3e 8e4d 783e 830d 5b3e 1a39 923e
00000360: b2e7 c43e 2cce e33e 9906 873e d579 8d3e
00000370: b403 b53e 9693 b13e 6fea 8e3e ac46 9f3e
00000380: fe91 943e 3384 a73e cff5 813e 3273 8f3e
00000390: a8ce b73e 7e10 a13e d600 b93e 0ad9 923e
000003a0: e5ae ae3e 45c2 a93e bb86 f53e 996a 963e
000003b0: e3f8 c23e 1e5b c93e a9cf 813e 3112 af3e
000003c0: bec6 763e 2daf 8f3e a8c7 673e e4b6 a73e
000003d0: 7347 9a3e 1724 5c3e 8839 583e a806 873e
000003e0: 435b 823e 7da0 663e 0aaf 633e 2ffb a33e
000003f0: 6d72 c63e d584 7a3e e3e9 9b3e a07a a43e

blocks.1.0.weight f4 [128, 256]
0.01878588 0.0070052524 0.031791333 0.03558596 0.029067831 -0.04024462 -0.04456093 0.04281999
-0.015934875 -0.0010734928 0.019696984 -0.01776705 0.056812212 0.023599384 0.02999198 0.04346476
0.06700065 -0.056123115 -0.057000786 0.046471737 0.021794729 0.04071136 0.007466732 0.03464177
0.02069225 -0.056736574 -0.04125672 0.046535935 -0.034259047 0.040355347 -0.038562503 0.039152417
-0.052405212 0.03544428 -0.00164031 -0.053097017 -0.008862938 -0.030519146 -0.024032192 -0.04905481
0.065544575 0.0030698823 0.04523254 0.040369917 -0.0039452296 0.063688256 0.025719248 -0.033474978
0.0034834328 0.03799917 0.026019359 -0.027617687 0.045918066 0.018167384 -0.052986104 0.04273897
0.028644107 -0.020129576 0.020061933 0.029202767 0.022089487 0.064304486 -0.03963856 -0.03221258
-0.0033759417 0.01586921 0.04598535 -0.020267578 -0.05241245 0.009982588 0.04264302 0.0023058201
-0.02444098 -0.04225397 -0.017472973 0.03264672 -0.05116597 0.052752044 0.018541789 0.012998923
-0.055781603 0.027290788 0.044428952 0.036124896 0.014920776 0.030301409 0.03738734 -0.04450032
-0.0639221 0.009904883 -0.0074538076 -0.018933205 -0.06811073 0.022667857 0.052641686 0.04186228
-0.06607502 0.038515896 0.0011014617 0.053536158 0.007669559 -0.011468744 0.05814768 -0.028697656
0.043173164 -0.030881992 -0.047389813 -0.044858683 -0.02184597 0.009178308 -0.062539786 -0.031094668
-0.015229678 -0.009430767 -0.012215988 0.058992792 -0.013146842 0.05984916 0.056644175 0.006379904
-0.0492688 -0.012373847 -0.057999324 0.041466586 0.042481236 0.024698213 0.021987401 0.008871001
-0.036390536 -0.0026451559 -0.053536013 -0.0031126568 -0.052469503 0.07158444 0.06319 -0.031381715
-0.05343737 0.0625232 0.017068801 -0.041118924 -0.03329235 0.046066023 0.0056948406 0.015649829
0.03605839 0.010770477 0.010773136 0.0071198675 -0.025697943 -0.058222283 -0.012977181 -0.059052076
0.0077215997 0.021540897 -0.052814312 -0.024415508 -0.025261445 -0.059435923 0.066633224 -0.06877493
0.044979192 -0.038377278 -0.018188288 -0.025402652 0.037613053 -0.051648896 -0.037898704 0.046586707
-0.017520456 0.03155753 -0.035729073 -0.0036049378 0.032502618 -0.016535606 -0.052822277 -0.040182535
0.019891383 0.030207576 -0.046652824 -0.065202154 -0.009514542 -0.010232837 -0.056727853 0.011724769
-0.021646764 0.028763758 0.03854764 -0.046047367 -0.0872155 -0.03140184 -0.008424878 0.05024881
0.025189396 0.06996072 0.051846802 0.01959818 -0.03295314 -0.07284139 -0.03401003 0.024727667
-0.0042700768 -0.018505452 -0.025775304 0.004276524 -0.06184472 -0.009375021 -0.035356596 -0.029919812
-0.051377837 0.05305281 0.042328592 -0.0026312366 0.02232477 -0.035835512 -0.009967853 -0.060613558
-0.020529315 -0.05120904 0.01577807 0.013389167 0.05562124 -0.0038031393 0.0069322973 0.015206582
-0.0026800667 -0.014752694 -0.03299356 -0.039416816 0.04531002 -0.03457853 -0.014453993 0.053583786
0.020443326 -0.032738872 0.045108747 -0.00037181715 0.0041043493 -0.030689526 -0.04600364 0.0150255505
0.0052291104 0.047208786 -0.04628693 0.03685634 0.009584683 0.033074856 0.010489929 -0.02495652
0.0221371 -0.03227593 -0.0581597 0.004596068 -0.049043454 0.040200025 -0.029886093 -0.048578344
00000000: d9e4 993c 518c e53b a137 023d 95c2 113d
00000010: a91f ee3c 8bd7 24bd 8685 36bd 0464 2f3d
00000020: db89 82bc 71b4 8cba 925b a13c 348c 91bc
00000030: ecb3 683d 7f53 c13c beb1 f53c 1b08 323d
00000040: a337 893d 5ae1 65bd a879 69bd 2659 3e3d
00000050: dc8a b23c f4c0 263d 7dab f43b 87e4 0d3d
00000060: cb82 a93c 9c64 68bd cefc 28bd 779c 3e3d
00000070: 3753 0cbd a64b 253d b7f3 1dbd 495e 203d
00000080: d9a6 56bd 052e 113d acff d6ba 427c 59bd
00000090: db35 11bc 4a03 fabc 29df c4bc b2ed 48bd
000000a0: 3c3c 863d 1430 493b c245 393d ed5a 253d
000000b0: fc46 81bb fd6e 823d 2cb1 d23c 0f1d 09bd
000000c0: 4e4a 643b 05a5 1b3d 8d26 d53c 7d3e e2bc
000000d0: 9514 3c3d c4d3 943c f507 59bd 0f0f 2f3d
000000e0: 0ca7 ea3c c8e6 a4bc ec58 a43c a43a ef3c
000000f0: 03f5 b43c 12b2 833d 0b5c 22bd 57f1 03bd
00000100: e73e 5dbb 2500 823c 225b 3c3d 3108 a6bc
00000110: 70ae 56bd 028e 233c 73aa 2e3d 3e1d 173b
00000120: 7338 c8bc 8012 2dbd 7b23 8fbc 91b8 053d
00000130: 6893 51bd 8712 583d f3e4 973c 6ff9 543c
00000140: 407b 64bd ee90 df3c 22fb 353d b3f7 133d
00000150: 4576 743c a93a f83c 7823 193d f845 36bd
00000160: 97e9 82bd 1748 223c 123f f4bb cf19 9bbc
00000170: a37d 8bbd f1b1 b93c cf9e 573d c877 2b3d
00000180: 5752 87bd d8c2 1d3d ec5e 903a bb48 5b3d
00000190: ed50 fb3b 66e7 3bbc 432c 6e3d 5917 ebbc
000001a0: 58d6 303d 3bfc fcbc d21b 42bd bdbd 37bd
000001b0: 52f6 b2bc 9d60 163c dc14 80bd 3fba febc
000001c0: e685 79bc 8183 1abc 9125 48bc 6da2 713d
000001d0: da65 57bc 6524 753d b903 683d 840e d13b
000001e0: 15ce 49bd adbb 4abc b390 6dbd ded8 293d
000001f0: ce00 2e3d e853 ca3c ec1e b43c ad57 113c
00000200: 3e0e 15bd 5a5a 2dbb 9448 5bbd b7fd 4bbb
00000210: 43ea 56bd dd9a 923d c269 813d 1d8a 00bd
00000220: 25e1 5abd 2a0c 803d dfd3 8b3c 516c 28bd
00000230: 8f5d 08bd baaf 3c3d c99b ba3b 1234 803c
00000240: f6b1 133d a876 303c cf81 303c c74d e93b
00000250: 7e84 d2bc 7d7a 6ebd 3e9e 54bc 97e0 71bd
00000260: 7905 fd3b 8976 b03c d253 58bd 0803 c8bc
00000270: 17f1 cebc 1573 73bd 0077 883d dfd9 8cbd
00000280: 1a3c 383d 7e31 1dbd 9bff 94bc 3919 d0bc
00000290: 2510 1a3d cb8d 53bd ac3b 1bbd b4d1 3e3d
000002a0: 0f87 8fbc 7842 013d a658 12bd d240 6cbb
000002b0: 7721 053d ae75 87bc 2c5c 58bd 7196 24bd
000002c0: 41f3 a23c e175 f73c 0817 3fbd b588 85bd
000002d0: e2e2 1bbc a1a7 27bc 775b 68bd 3f19 403c
000002e0: 8e54 b1bc f9a1 eb3c 21e4 1d3d 2a9c 3cbd
000002f0: 0a9e b2bd 379f 00bd 8008 0abc b2d1 4d3d
00000300: fe59 ce3c 9147 8f3d 505d 543d 5d8c a03c
00000310: dff9 06bd de2d 95bd 1a4e 0bbd ad91 ca3c
00000320: 00ec 8bbb bf98 97bc bb26 d3bc 1522 8c3b
00000330: e450 7dbd b099 19bc 14d2 10bd 651a f5bc
00000340: 9171 52bd e74d 593d bf60 2d3d d370 2cbb
00000350: 70e2 b63c 42c8 12bd 3550 23bc ec45 78bd
00000360: 182d a8bc 92c0 51bd 0341 813c 3d5e 5b3c
00000370: 19d3 633d 173e 79bb 5328 e33b 0725 793c
00000380: 0fa4 2fbb 49b5 71bc 4124 07bd 8773 21bd
00000390: 0097 393d 37a2 0dbd 71d0 6cbc ac7a 5b3d
000003a0: c378 a73c 3219 06bd f3c3 383d 74f0 c2b9
000003b0: c77d 863b 9a68 fbbc 506e 3cbd ba2d 763c
000003c0: f558 ab3b 005e 413d 5d97 3dbd acf6 163d
000003d0: 1309 1d3c 8079 073d f3dd 2b3c 9e71 ccbc
000003e0: dd58 b53c c433 04bd de38 6ebd 9d9a 963b
000003f0: cae1 48bd c8a8 243d aed3 f4bc 16fa 46bd

blocks.1.0.bias f4 [128]
0.035152778 -0.04324305 0.052884866 0.025964199 -0.027108843 0.060534924 0.030628514 0.01128645
0.0013750012 -0.003146324 -0.03929235 0.049601365 0.05476916 -0.024869844 -0.045366053 -0.0479418
0.03767702 0.033542268 0.013791156 0.042558916 -0.039952166 -0.0035366043 -0.039316896 0.027593696
-0.018427007 -0.011583502 0.030317353 -0.060803972 0.0020014623 -0.019099047 -0.00256914 -0.03407425
-0.008253602 -0.040800717 -0.0056595625 0.05795335 0.010936141 0.028511902 -0.05100267 0.0063071093
0.028095014 0.045335837 0.008680558 0.0430555 -0.041135732 0.04937375 0.034658972 -0.008985193
-0.05221063 0.021715509 -0.009018066 0.042304967 -0.04585245 0.053410895 -0.0017495784 0.05504588
0.007147457 0.022645483 -0.0075177173 -0.021954747 -0.047731385 -0.0059634005 0.029848328 0.051558163
0.01982887 -0.049375456 -0.02989636 0.040026385 -0.013341732 0.05138032 -0.0024567444 0.011651405
0.06251174 0.04688408 0.05982975 0.0002876591 0.05982248 0.04209167 -0.015402821 0.0202106
0.025234928 -0.04737373 -0.0044324133 -0.002133855 0.039602753 0.04535392 -0.052600905 -0.015570029
0.010330308 -0.04954878 0.034264967 -0.02974813 -0.024942717 -0.029474195 0.05400971 0.037255917
-0.052389473 -0.038122438 0.026834322 -0.055453595 0.058292627 -0.059926596 0.035648927 -0.011080917
0.01010029 0.006577271 -0.032268945 0.031234689 0.05118839 0.017948277 -0.028274495 -0.04542591
-0.045577347 -0.04832983 -0.032242797 0.0127099175 -0.03817933 -0.045405928 -0.0016306108 0.016732052
-0.035848957 -0.019552307 -0.055604003 0.029811071 -0.023077603 -0.04898488 -0.010537949 -0.0027497387
00000000: 5cfc 0f3d a01f 31bd cd9d 583d dfb2 d43c
00000010: 5d13 debc 78f3 773d a6e8 fa3c cdea 383c
00000020: 6239 b43a 8f32 4ebb 04f1 20bd cd2a 4b3d
00000030: a055 603d d8bb cbbc c1d1 39bd 9f5e 44bd
00000040: 3853 1a3d 9e63 093d 4df4 613c 4252 2e3d
00000050: e2a4 23bd 60c6 67bb c10a 21bd 2d0c e23c
00000060: 3cf4 96bc bbc8 3dbc 195c f83c 960d 79bd
00000070: f72a 033b 9b75 9cbc 045f 28bb 7191 0bbd
00000080: 1e3a 07bc a71e 27bd da73 b9bb 7e60 6d3d
00000090: 802d 333c cb91 e93c 2de8 50bd deab ce3b
000000a0: 8427 e63c 12b2 393d e638 0e3c f75a 303d
000000b0: f17d 28bd 213c 4a3d 91f6 0d3d a236 13bc
000000c0: d0da 55bd b9e4 b13c 83c0 13bc f947 2d3d
000000d0: c7cf 3bbd 62c5 5a3d 1c52 e5ba ca77 613d
000000e0: 3735 ea3b 0583 b93c 2f57 f6bb 71da b3bc
000000f0: fc81 43bd a168 c3bb 7b84 f43c a72e 533d
00000100: 2870 a23c eb3d 4abd 36e9 f4bc b5f2 233d
00000110: 4897 5abc 2c74 523d 5501 21bb 89e5 3e3c
00000120: 2806 803d 8509 403d 0a10 753d f3d0 9639
00000130: 6b08 753d 5168 2c3d 1d5c 7cbc b390 a53c
00000140: 7bb9 ce3c f50a 42bd c73d 91bb 25d8 0bbb
00000150: 7f36 223d 08c5 393d 0c74 57bd 6f19 7fbc
00000160: 7440 293c a9f3 4abd 6c59 0c3d 5ab2 f3bc
00000170: ab54 ccbc de73 f1bc 4939 5d3d a999 183d
00000180: 5896 56bd 4626 1cbd a7d3 db3c 4f23 63bd
00000190: 40c4 6e3d 9775 75bd 9c04 123d bc8c 35bc
000001a0: b07b 253c 2686 d73b 712c 04bd e4df ff3c
000001b0: ebaa 513d 4408 933c ea9f e7bc 8510 3abd
000001c0: 50af 3abd 80f5 45bd 0611 04bd 423d 503c
000001d0: ee61 1cbd 91fb 39bd 38ba d5ba a811 893c
000001e0: 5bd6 12bd 292c a0bc 06c1 63bd 5936 f43c
000001f0: 3e0d bdbc 5fa4 48bd 5da7 2cbc f634 34bb

blocks.1.1.weight f4 [128]
1.0000654 1.0046161 1.0033635 1.0073233 0.9745461 0.9924076 0.9884291 1.010118
1.0126965 0.99630743 1.0071819 1.0108328 0.9945174 0.9925435 0.9836239 0.97405666
0.9917566 1.0088091 1.0091666 1.0163599 1.004881 0.99678195 1.0077177 0.999155
1.0056441 0.97276074 1.0052568 0.99604696 0.99978113 0.998429 0.9932781 1.0011405
1.0148023 1.0057536 0.97025436 0.97107816 1.0109087 0.9933847 0.98956203 1.0001283
0.99439496 0.9883735 1.0062248 1.00678 0.9991606 1.0041732 0.9907691 0.99187624
0.9949093 0.99635065 0.9885245 0.9836095 0.9916295 1.0017037 0.9903898 0.9963727
1.0062265 0.98309404 0.997303 1.009266 1.0021324 0.982113 0.99277157 0.9952949
0.9802737 0.98472774 0.9860211 1.0152782 0.98812854 0.9858405 1.002103 0.9942195
1.0041283 1.0029151 0.978047 0.9890263 0.99035007 0.9900672 0.9977051 0.9869349
0.98994815 1.0037016 1.0000292 0.99808896 0.9996895 0.9926898 0.99399436 1.00009
1.0087812 1.0013325 1.0130175 1.0057008 0.9976611 0.9938149 0.9956748 0.98651314
0.9988531 1.0104685 1.0037428 1.0022055 0.9928683 1.005153 1.008608 1.000859
0.9938965 0.9867637 0.9879232 0.9802318 0.9944275 0.9938955 0.99293154 1.0015827
0.9938767 1.0041226 0.99160206 1.0013285 0.977891 0.99857914 1.0114099 1.0161211
0.9928818 0.98977065 0.99222636 1.0098273 0.99181134 0.9974384 0.9959845 0.9950045
00000000: 2502 803f 4397 803f 376e 803f f8ef 803f
00000010: da7b 793f 6d0e 7e3f b109 7d3f 8c4b 813f
00000020: 0aa0 813f 010e 7f3f 56eb 803f f862 813f
00000030: b198 7e3f 5517 7e3f c7ce 7b3f c75b 793f
00000040: c3e3 7d3f a820 813f 5f2c 813f 1518 823f
00000050: f19f 803f 1a2d 7f3f e5fc 803f 9fc8 7f3f
00000060: f2b8 803f d906 793f 41ac 803f effc 7e3f
00000070: a8f1 7f3f 0b99 7f3f 7947 7e3f 5f25 803f
00000080: 0be5 813f 89bc 803f 9762 783f 9498 783f
00000090: 7565 813f 764e 7e3f f053 7d3f 3404 803f
000000a0: ab90 7e3f 0c06 7d3f f9cb 803f 2bde 803f
000000b0: fdc8 7f3f bf88 803f 0ba3 7d3f 9aeb 7d3f
000000c0: 60b2 7e3f d610 7f3f f10f 7d3f d5cd 7b3f
000000d0: 6edb 7d3f d437 803f 308a 7d3f 4812 7f3f
000000e0: 08cc 803f 0dac 7b3f 404f 7f3f a12f 813f
000000f0: e045 803f c26b 7b3f 4726 7e3f a6cb 7e3f
00000100: 38f3 7a3f 1e17 7c3f e16b 7c3f a3f4 813f
00000110: fef5 7c3f 0b60 7c3f e944 803f 2b85 7e3f
00000120: 4787 803f 865f 803f 4a61 7a3f d430 7d3f
00000130: 9587 7d3f 0b75 7d3f 9a69 7f3f c4a7 7c3f
00000140: 3e6d 7d3f 4b79 803f f500 803f c282 7f3f
00000150: a7eb 7f3f eb20 7e3f 6a76 7e3f f302 803f
00000160: be1f 813f aa2b 803f 8faa 813f ceba 803f
00000170: b866 7f3f a76a 7e3f 8be4 7e3f 208c 7c3f
00000180: d6b4 7f3f 0857 813f a57a 803f 4548 803f
00000190: 9e2c 7e3f daa8 803f 111a 813f 261c 803f
000001a0: 0070 7e3f 8c9c 7c3f 89e8 7c3f 79f0 7a3f
000001b0: cd92 7e3f ef6f 7e3f c330 7e3f dd33 803f
000001c0: b46e 7e3f 1787 803f a2d9 7d3f 882b 803f
000001d0: 1157 7a3f e2a2 7f3f e175 813f 4210 823f
000001e0: 802d 7e3f 9c61 7d3f 8c02 7e3f 0542 813f
000001f0: 59e7 7d3f 1f58 7f3f d7f8 7e3f 9db8 7e3f
