wandb/run-20251108_173218-jkymv7yg/files/best_model.pth (torch, 240909 bytes, 7 tensors)

network.0.weight f4 [256, 70]
0.084297866 0.067689285 -0.09896475 0.002602274 0.053095765 -0.011000202 -0.099940285 -0.0462704
0.030114051 0.022061065 0.107439704 -0.11269163 0.06678911 -0.119437516 0.101313084 -0.13316746
-0.03939189 -0.037708875 0.025565095 -0.09885615 0.021311995 0.09604539 0.059177045 0.11003821
0.005096102 -0.054368827 -0.039014675 -0.003507196 0.04300756 0.0030418185 -0.10669067 0.06854056
-0.060367346 0.05919514 -0.05453797 -0.008717291 0.07556285 -0.11459316 0.0015288393 -0.09623586
0.025067732 0.03235274 -0.10900821 0.011924685 0.115682386 0.0337112 0.047286227 0.030901026
0.067674085 0.0008079383 -0.027585914 -0.036827177 0.031041047 -0.026818074 -0.073524 0.05501096
0.062277168 0.032466274 -0.035865694 -0.10622355 0.07046098 0.051145498 0.09338019 -0.09966582
-0.09272494 0.040449593 -0.07046401 0.07394412 0.07101293 0.0747208 -0.12422547 -0.07587397
0.09307798 0.09635792 0.08850175 -0.035489824 0.13620375 0.042901985 0.095944 -0.014533395
-0.05837035 0.073849574 -0.07599657 0.07842938 -0.012103892 -0.1341861 -0.115400195 0.06740133
0.09537155 -0.08544853 -0.036290463 -0.024350906 -0.067360856 -0.0052084224 -0.08619435 0.028627997
0.08988517 0.02211322 0.07140891 0.009145586 -0.032183148 -0.037462384 0.11053212 -0.1064388
0.026371079 -0.068830125 0.07609435 -0.034967724 -0.09059536 -0.016297873 0.12334988 0.08237621
0.08868271 -0.051221013 -0.09379519 -0.09038445 -0.009772819 0.018479519 0.0005652715 0.026858462
0.050448768 -0.08774843 -0.09753881 0.054999255 -0.008008797 -0.12089795 -0.102191865 -0.021426305
0.047284685 0.019657241 -0.06432281 0.12088698 -0.11188214 0.040477306 0.08881746 -0.007882955
-0.02199169 0.027438136 -0.10554337 -0.07675888 0.0075384164 -0.037442915 0.08317628 -0.032107923
0.032973327 -0.03544355 0.041391313 -0.09515382 -0.017084353 0.06730117 0.1205211 0.032322723
0.031490028 0.006523367 0.092715636 -0.034686733 0.02765978 -0.10245096 0.06870096 0.047113393
-0.018610857 -0.049144197 0.06861997 -0.07715363 -0.071679436 0.017675053 -0.08051375 0.071277924
-0.10456529 -0.10195088 -0.09721892 -0.09419027 0.02724182 -0.1030422 -0.06461733 -0.10464356
0.11324016 -0.05128495 -0.06503624 -0.048025936 -0.0461734 0.0021395448 0.043351278 -0.015501539
-0.13012214 0.10491837 -0.09621384 -0.010851504 0.09069896 -0.0034112139 0.06770832 0.053853545
-0.023506613 -0.0044414285 -0.027594192 0.00114296 -0.11457504 -0.04620776 -0.09359058 -0.05030865
0.07781509 0.0011301951 -0.04072733 0.009477033 0.034414183 0.003905817 0.022786405 -0.00802735
0.021488994 -0.0355937 -0.11365288 -0.06062606 -0.06776041 0.06526878 0.018859956 0.035393864
0.078971215 -0.109359175 -0.027872795 0.08503851 0.11947136 -0.033268984 -0.11955014 -0.11328405
-0.051994327 -0.11453244 0.09713121 -0.08575845 0.05477894 0.06424018 -0.0040331697 0.039119218
-0.010283022 0.07009079 -0.077148415 -0.12379468 0.100033276 0.019658096 -0.01801487 0.021807298
-0.03515262 -0.09605456 -0.033119824 -0.09818568 0.043784678 -0.08420977 -0.08013552 -0.020795338
-0.0960517 0.06451407 -0.017314719 -0.008617533 0.07261537 -0.06387105 0.06575736 0.042431958
00000000: 5ca4 ac3d aea0 8a3d 08ae cabd ea8a 2a3b
00000010: f27a 593d 313a 34bc 7ead ccbd 0886 3dbd
00000020: beb1 f63c 68b9 b43c 5909 dc3d dfca e6bd
00000030: bbc8 883d a89b f4bd 3c7d cf3d 0d5d 08be
00000040: 6459 21bd 9f74 1abd e46d d13c 1875 cabd
00000050: 7e96 ae3c 72b3 c43d a163 723d b75b e13d
00000060: 34fd a63b d9b1 5ebd dacd 1fbd fcd8 65bb
00000070: b228 303d 3f59 473b a380 dabd fe5e 8c3d
00000080: c043 77bd 9a76 723d 3563 5fbd f8d2 0ebc
00000090: b2c0 9a3d d2af eabd 5663 c83a 4e17 c5bd
000000a0: d85a cd3c 4f84 043d b23f dfbd c15f 433c
000000b0: e3ea ec3d c114 0a3d 34af 413d 2624 fd3c
000000c0: b698 8a3d d2cb 533a dbfb e1bc 18d8 16bd
000000d0: cb49 fe3c 94b1 dbbc c093 96bd 2c53 613d
000000e0: 5816 7f3d 5bfb 043d e8e7 12bd bc8b d9bd
000000f0: d94d 903d f17d 513d 1d3e bf3d 981d ccbd
00000100: 93e6 bdbd 79ae 253d 6f4f 90bd 0470 973d
00000110: 3a6f 913d 3807 993d ec69 febd d063 9bbd
00000120: ab9f be3d 4d57 c53d 6840 b53d c75d 11bd
00000130: ff78 0b3e feb9 2f3d 4a7e c43d 7a1d 6ebc
00000140: c015 6fbd 723e 973d 17a4 9bbd 959f a03d
00000150: 674f 46bc 1568 09be f056 ecbd b509 8a3d
00000160: 2952 c33d a4ff aebd 4fa5 14bd 8d7b c7bc
00000170: 7df4 89bd 6aab aabb aa86 b0bd 4385 ea3c
00000180: b715 b83d c926 b53c d63e 923d 5ed7 153c
00000190: 7ad2 03bd 2872 19bd aa5e e23d 96fc d9bd
000001a0: 2908 d83c cff6 8cbd 5bd7 9b3d 513a 0fbd
000001b0: 0f8a b9bd 1e83 85bc dd9e fc3d dcb4 a83d
000001c0: 489f b53d 20cd 51bd b117 c0bd 7c1b b9bd
000001d0: 2c1e 20bc 5c62 973c ba2e 143a 4706 dc3c
000001e0: 5ea3 4e3d 73b5 b3bd 6dc2 c7bd e646 613d
000001f0: 5437 03bc 5899 f7bd f849 d1bd 3886 afbc
00000200: 96ad 413d 3908 a13c adbb 83bd 9893 f73d
00000210: 7722 e5bd 88cb 253d eee5 b53d 8227 01bc
00000220: eb27 b4bc f1c5 e03c 1f27 d8bd c233 9dbd
00000230: d204 f73b be5d 19bd 5358 aa3d 9983 03bd
00000240: 0a0f 073d 422d 11bd f089 293d 02e0 c2bd
00000250: 7cf4 8bbc 32d5 893d c4d3 f63d d564 043d
00000260: b0fb 003d f8c1 d53b b2e1 bd3d ad13 0ebd
00000270: c396 e23c cfd1 d1bd 17b3 8c3d f9f9 403d
00000280: cc75 98bc 6d4b 49bd a088 8c3d b902 9ebd
00000290: abcc 92bd 46cb 903c 65e4 a4bd 29fa 913d
000002a0: 5426 d6bd 9fcb d0bd b71a c7bd d4e6 c0bd
000002b0: 3d2a df3c ca07 d3bd 1756 84bd 5d4f d6bd
000002c0: 75ea e73d 2b10 52bd b831 85bd d8b6 44bd
000002d0: 5220 3dbd 9b37 0c3b 1c91 313d 2bfa 7dbc
000002e0: bd3e 05be 71df d63d c30b c5bd 82ca 31bc
000002f0: 60c0 b93d ac8e 5fbb a9aa 8a3d 8995 5c3d
00000300: f190 c0bc 6789 91bb 370d e2bc 60cf 953a
00000310: 52a6 eabd 5944 3dbd 6bac bfbd 7110 4ebd
00000320: 855d 9f3d 0e23 943a b3d1 26bd 8f45 1b3c
00000330: e3f5 0c3d bcf8 7f3b 8eaa ba3c 2585 03bc
00000340: b009 b03c b3ca 11bd d7c2 e8bd 0853 78bd
00000350: f8c5 8abd a3ab 853d 3280 9a3c 28f9 103d
00000360: a9bb a13d b4f7 dfbd 7d55 e4bc ac28 ae3d
00000370: 67ad f43d 0f45 08bd b4d6 f4bd 7801 e8bd
00000380: 01f8 54bd fc8f eabd baec c63d 20a2 afbd
00000390: e25f 603d 5b90 833d ae28 84bb 793b 203d
000003a0: 1f7a 28bc c38b 8f3d fdff 9dbd 1188 fdbd
000003b0: 3fde cc3d 040a a13c ec93 93bc 38a5 b23c
000003c0: 32fc 0fbd 41b8 c4bd a7a8 07bd 9315 c9bd
000003d0: 9057 333d 2c76 acbd 171e a4bd fc5a aabc
000003e0: c1b6 c4bd f41f 843d 99d7 8dbc 8e30 0dbc
000003f0: 5eb7 943d d3ce 82bd cbab 863d 22cd 2d3d

network.0.bias f4 [256]
-0.0151257645 0.0025905408 -0.06108442 0.07446059 0.027993096 0.12093678 -0.04803715 -0.026620133
0.035946526 -0.10802158 0.10070098 0.07281952 -0.09725367 -0.11172192 -0.07925146 0.014633257
0.06948003 0.1063724 -0.053596146 -0.09737679 0.042126242 0.07423904 -0.005382396 -0.014718532
-0.035325266 -0.0779029 0.08971741 0.12105798 -0.10162918 0.04639233 -0.0661833 0.027123155
0.0916984 0.06861365 -0.06445257 0.065632105 -0.04447104 0.032214437 -0.036750946 0.052474763
-0.08393377 -0.048219524 -0.09105992 -0.07726003 -0.032860085 0.026454708 -0.027691321 -0.07649913
0.09912879 0.04548261 -0.018428652 0.0628101 -0.011428832 -0.0049119876 0.020443823 0.10405832
0.02619183 0.06264696 -0.08943685 -0.030350303 0.07898726 -0.0979538 -0.07942636 -0.0913751
0.074468315 0.0992803 0.009814447 -0.12667152 -0.043257013 0.0742825 -0.082911484 -0.022345604
0.09336591 0.12098299 -0.053086635 -0.08901493 0.038852636 0.03508371 -0.054646786 0.032909688
0.08949398 -0.09632624 -0.029296229 -0.00934908 0.008076049 -0.06787978 -0.0847264 -0.028238688
-0.037337642 -0.0074028987 -0.119926594 0.107704885 0.013362778 0.079689056 0.079761304 -0.06877917
0.07136504 -0.09605922 0.07412049 0.054393798 -0.007208007 -0.09920135 0.014503341 -0.034192394
0.022688348 -0.022549948 -0.037172183 -0.091381535 0.01757452 -0.10724295 0.017331267 -0.027244825
-0.038530253 -0.0773667 0.080127284 0.11915636 -0.041146472 -0.05973709 -0.026921064 0.044389978
0.022458615 -0.036782455 -0.020904295 0.030937701 0.076099604 0.1234242 -0.070683315 -0.0035424687
-0.093815625 -0.09274543 -0.0632057 -0.041159254 0.09646844 0.09991999 0.08121109 0.01755735
-0.079030454 0.102891944 -0.044085212 -0.027642861 0.009033761 -0.043215755 -0.011096324 -0.1036934
-0.07440657 -0.07429473 0.11579222 0.0024990402 -0.0032251694 0.11114988 -0.107761204 -0.026384255
0.11232409 -0.011506087 0.0708434 -0.022828724 0.09375751 -0.037119597 -0.002826759 0.019840898
-0.053641573 -0.047113027 0.050720274 0.11579927 -0.031226397 -0.10077695 -0.105833635 -0.09539885
-0.066541314 -0.03996593 0.014051807 -0.09467012 0.1355909 0.062426295 0.12011028 -0.07458799
-0.0850402 0.0051407213 -0.013450161 -0.08147974 0.055763245 -0.042348288 0.009709857 -0.111890525
-0.08157028 0.017099129 -0.0147973485 -0.06556758 -0.0057769194 0.0013361387 -0.06941164 0.110494286
-0.021702424 -0.11137573 0.082129955 -0.010614435 0.1227622 -0.07234608 -0.0107913865 0.11835779
0.028002758 0.010553727 -0.08338888 -0.042061973 0.05724954 0.12681827 0.058688745 -0.06149257
0.05802564 0.09671059 -0.0013751457 -0.046396025 -0.019888662 -0.047416404 0.027065095 0.08053237
0.097062804 -0.074194394 0.018835763 0.10784937 -0.033833053 0.015445007 0.05410001 0.089713424
0.054033503 -0.0465139 0.066379644 0.026832888 0.08907608 -0.065073036 0.0045423666 -0.08789826
-0.0070417365 0.023433356 0.10455927 0.014156273 -0.08201978 0.084882095 0.033477377 0.11106033
0.0085225655 0.1059032 0.056947257 0.017374068 -0.018390317 0.04049542 0.0069926255 0.097086795
-0.004906972 -0.05020048 -0.09575627 0.02983177 0.0601357 -0.07699836 0.06314157 0.107946314
00000000: 0ed2 77bc 10c6 293b a833 7abd cb7e 983d
00000010: c751 e53c b4ad f73d 9ac2 44bd 7712 dabc
00000020: aa3c 133d 6b3a ddbd 513c ce3d 6722 953d
00000030: ef2c c7bd 76ce e4bd 974e a2bd 54c0 6f3c
00000040: 8c4b 8e3d c6d9 d93d a287 5bbd 7c6d c7bd
00000050: 918c 2c3d a30a 983d cf5e b0bb ff25 71bc
00000060: 3ab1 10bd 8e8b 9fbd c3bd b73d 3fed f73d
00000070: f622 d0bd e205 3e3d 1c8b 87bd 6131 de3c
00000080: 5fcc bb3d 5085 8c3d b6ff 83bd 206a 863d
00000090: 4427 36bd 49f3 033d 2988 16bd c7ef 563d
000000a0: 78e5 abbd d681 45bd a07d babd 823a 9ebd
000000b0: 4c98 06bd 8bb7 d83c e9d8 e2bc 93ab 9cbd
000000c0: 0904 cb3d f94b 3a3d aff7 96bc 95a2 803d
000000d0: ff3f 3bbc bdf4 a0bb ce79 a73c 871c d53d
000000e0: 4090 d63c 0d4d 803d ab2a b7bd 33a1 f8bc
000000f0: 13c4 a13d 009c c8bd 4aaa a2bd de22 bbbd
00000100: d882 983d 7853 cb3d c6cc 203c 2eb6 01be
00000110: 442e 31bd 6c21 983d 7fcd a9bd 210e b7bc
00000120: a036 bf3d eec5 f73d 5f71 59bd 764d b6bd
00000130: f123 1f3d f0b3 0f3d 4fd5 5fbd 4fcc 063d
00000140: 9f48 b73d b146 c5bd a5fe efbc e22c 19bc
00000150: 6851 043c 8e04 8bbd 0985 adbd d254 e7bc
00000160: 5bef 18bd 0494 f2bb 139c f5bd 6194 dc3d
00000170: 8eef 5a3c 0434 a33d e559 a33d 18dc 8cbd
00000180: d627 923d b2ba c4bd 7ccc 973d 08cc 5e3d
00000190: 2531 ecbb 142a cbbd 6c9f 6d3c 530d 0cbd
000001a0: eadc b93c abba b8bc dc41 18bd 3e26 bbbd
000001b0: 71f8 8f3c 31a2 dbbd 4dfa 8d3c 8a30 dfbc
000001c0: e6d1 1dbd 6f72 9ebd c619 a43d 4008 f43d
000001d0: 3489 28bd e1ae 74bd 9089 dcbc 44d2 353d
000001e0: 21fb b73c 33a9 16bd 7c3f abbc 1071 fd3c
000001f0: 1cda 9b3d d4c5 fc3d 6ac2 90bd c328 68bb
00000200: 6822 c0bd 51f1 bdbd fd71 81bd 9b96 28bd
00000210: 3f91 c53d daa2 cc3d 0052 a63d 6fd4 8f3c
00000220: b8da a1bd 03b9 d23d b292 34bd 4873 e2bc
00000230: 5702 143c 0103 31bd 5bcd 35bc 355d d4bd
00000240: 7962 98bd d627 98bd 7924 ed3d f0c6 233b
00000250: 5d5d 53bb 8ca2 e33d e8b1 dcbd cb23 d8bc
00000260: 2c0a e63d 0784 3cbc 5816 913d 4e03 bbbc
00000270: f003 c03d b80a 18bd 2541 39bb 6189 a23c
00000280: 44b7 5bbd 97f9 40bd 10c0 4f3d 2b28 ed3d
00000290: 80ce ffbc 2564 cebd 4ebf d8bd 7960 c3bd
000002a0: d046 88bd 51b3 23bd 8d39 663c 68e2 c1bd
000002b0: 57d8 0a3e b7b2 7f3d 61fc f53d 97c1 98bd
000002c0: 8e29 aebd 7f73 a83b 105e 5cbc dade a6bd
000002d0: 0068 643d 6675 2dbd 1816 1f3c dc26 e5bd
000002e0: 520e a7bd 7913 8c3c 9470 72bc 4c48 86bd
000002f0: 504c bdbb 6021 af3a b127 8ebd d44a e23d
00000300: 48c9 b1bc f518 e4bd c033 a83d 2be8 2dbc
00000310: c06a fb3d 2e2a 94bd 5bce 30bc 9265 f23d
00000320: 0a66 e53c 8ae9 2c3c cac7 aabd 2d49 2cbd
00000330: 7e7e 6a3d a6dc 013e 9c63 703d a2df 7bbd
00000340: 4bac 6d3d 3410 c63d 3c3e b4ba c209 3ebd
00000350: 8ced a2bc b437 42bd 9eb7 dd3c 28ee a43d
00000360: ddc8 c63d 3bf3 97bd 754d 9a3c 21e0 dc3d
00000370: 8794 0abd 0e0d 7d3c f997 5d3d acbb b73d
00000380: 3c52 5d3d 5c85 3ebd 0df2 873d a5d0 db3c
00000390: 856d b63d 0345 85bd 22d8 943b 0104 b4bd
000003a0: 5ebe e6bb 4ff7 bf3c 2c23 d63d b6ef 673c
000003b0: fdf9 a7bd aad6 ad3d 931f 093d 9973 e33d
000003c0: 3ba2 0b3c c7e3 d83d 8741 693d 1054 8e3c
000003d0: 4aa7 96bc 87de 253d 6522 e53b 71d5 c63d
000003e0: aaca a0bb 059f 4dbd dd1b c4bd c261 f43c
000003f0: da50 763d 51b1 9dbd 5e50 813d f512 dd3d

network.3.weight f4 [128, 256]
0.021064736 -0.034876958 0.03400618 0.0036270074 -0.033533733 0.04428887 0.0036757402 0.044572406
-0.020582294 -0.05281208 0.047093846 0.013517656 -0.015276074 0.032076225 0.0078010615 0.04413745
0.015104371 0.07064019 0.060029324 0.050971046 0.004645642 -0.007187315 -0.0468906 0.009307309
-0.047600087 -0.013192621 0.049965665 0.045810413 -0.025138149 -0.060727082 0.0099527 0.071145646
0.05166187 -0.025702147 0.011932909 0.005873978 0.032059297 -0.06169563 -0.028787041 -0.04094215
-0.040725086 0.013354068 0.059992608 0.04169315 -0.026357451 0.010625906 0.053663097 -0.04816345
0.014618417 0.0076159015 0.03617091 -0.014369953 0.04064177 -0.048728608 0.049446806 0.018796451
0.045995373 -0.044378657 0.005640144 -0.003499047 -0.00593079 -0.0449187 -0.028449269 0.011036501
0.015079791 0.069039166 0.058055248 0.060012624 0.016950864 -0.041965216 -0.03446547 0.003784033
-0.010738629 -0.01145331 0.060322914 -0.0065589314 -0.040186755 0.012175441 0.008946252 0.040415764
-0.005361003 -0.067152485 0.0713728 0.03662478 -0.016049761 0.05144791 0.0016189485 0.03327946
-0.026741657 0.016303511 -0.052240618 0.059625167 -0.028687488 0.0369831 0.015316077 -0.027807813
0.049672432 -0.005559759 -0.027347235 0.015156349 -0.003222528 -0.009797137 -0.016233336 -0.0049427934
0.023551136 0.007343638 0.020893103 0.024803251 0.062811755 0.05254228 0.042988356 0.04896369
-0.020488227 0.00015228469 0.045521647 0.026670698 0.07120385 -0.05396533 0.029889135 0.047649123
0.031818647 0.048795294 0.051543057 -0.011364326 0.0529976 -0.032574855 -0.0104227895 0.035830338
0.020333791 0.073927455 -0.012487788 -0.04852938 -0.0038523441 0.023088727 -0.036238413 0.045858894
0.017141217 -0.008296197 -0.045193277 -0.028703338 0.029437747 0.056451377 0.026631685 0.05870844
0.052878927 0.011246665 -0.023530407 -0.02469015 -0.03192375 0.04890619 -0.060926285 0.012909587
0.017409442 -0.039937556 -0.0032263487 0.04017012 -0.030779567 -0.01941929 -0.019473776 2.6258756e-05
-0.037459392 -0.025151122 -0.014679158 0.050626833 0.04284804 0.008233845 -0.025204105 -0.011093753
0.07151425 0.0686644 0.01222268 -0.032147978 0.07281743 -0.040258188 0.020089384 0.041253272
0.012990886 0.019991918 0.080651216 -0.028768688 0.003916803 0.027905118 0.003395657 -0.060136154
0.023569126 -0.051387344 -0.055229615 -0.021409707 0.06651507 -0.01926036 0.0065913913 0.022703938
-0.041762684 -0.017454254 -0.03163033 0.031105693 -0.010949706 0.036972858 -0.028722763 -0.0020686216
-0.0007946198 0.058377963 -0.06116789 0.05697177 0.012196553 0.060605254 -0.0358158 -0.028006608
0.020530863 -0.041681245 0.0049340287 0.031123403 0.051515374 -0.038195778 0.048173103 0.03168609
0.041896474 0.03333483 -0.042101853 0.05889155 0.0024647932 0.018176299 0.054083347 -0.018161418
0.037054088 -0.0048104487 0.0053738784 -0.010543095 -0.026424982 0.051213086 0.025859574 -0.037740894
-0.049295716 -0.03510209 0.0017950609 0.08178295 0.062133703 -0.022202745 0.05679958 0.0645076
0.03711524 0.0060313176 0.041732766 -0.07571795 -0.035586987 -0.0076853093 -0.047606852 -0.030847283
0.02691482 0.034977924 -0.008252852 0.055003602 0.046802722 -0.06663871 0.068229996 -0.05527293
00000000: f48f ac3c 24db 0ebd 104a 0b3d 16b3 6d3b
00000010: ab5a 09bd 3f68 353d b0e4 703b 8e91 363d
00000020: 339c a8bc 7b51 58bd 7ae5 403d 2979 5d3c
00000030: 8048 7abc 5c62 033d 0ca0 ff3b 79c9 343d
00000040: 5378 773c ceab 903d 4fe1 753d 04c7 503d
00000050: 783a 983b 9183 ebbb 5c10 40bd af7d 183c
00000060: 4ff8 42bd dd25 58bc cca8 4c3d b3a3 3b3d
00000070: 85ee cdbc f6bc 78bd a610 233c cfb4 913d
00000080: 669b 533d 4f8d d2bc 3f82 433c 807a c03b
00000090: 9c50 033d 8fb4 7cbd cdd2 ebbc f5b2 27bd
000000a0: 59cf 26bd 05cb 5a3c cfba 753d 70c6 2a3d
000000b0: 95eb d7bc 4818 2e3c d6cd 5b3d 0a47 45bd
000000c0: 1682 6f3c d08e f93b f327 143d f46f 6bbc
000000d0: fc77 263d a697 47bd bc88 4a3d 04fb 993c
000000e0: a565 3c3d 65c6 35bd f5d0 b83b 4450 65bb
000000f0: 1357 c2bb acfc 37bd 710e e9bc 71d2 343c
00000100: 3a11 773c 6864 8d3d 57cb 6d3d cccf 753d
00000110: 8adc 8a3c b8e3 2bbd aa2b 0dbd 8afd 773b
00000120: 13f1 2fbc aaa6 3bbc 2915 773d 4eec d6bb
00000130: de9a 24bd 807b 473c 4d93 123c 008b 253d
00000140: 5aab afbb 3e87 89bd e72b 923d de03 163d
00000150: ca7a 83bc 0bbb 523d e632 d43a 0b50 083d
00000160: 5211 dbbc f18e 853c 42fa 55bd 8539 743d
00000170: 0602 ebbc 977b 173d 48f0 7a3c 36cd e3bc
00000180: 5275 4b3d a42e b6bb 4f07 e0bc 5652 783c
00000190: 0c31 53bb 2c84 20bc c6fb 84bc 28f7 a1bb
000001a0: 50ee c03c e7a2 f03b 0328 ab3c 3030 cb3c
000001b0: 73a3 803d 9336 573d 8f14 303d 268e 483d
000001c0: edd6 a7bc 9cae 1f39 e874 3a3d 827c da3c
000001d0: 53d3 913d c00a 5dbd 0fda f43c ba2b 433d
000001e0: 4554 023d 93dd 473d d01e 533d 7031 3abc
000001f0: 0314 593d 366d 05bd 59c4 2abc d5c2 123d
00000200: 0d93 a63c 4767 973d 9499 4cbc bec6 46bd
00000210: 9c77 7cbb 9224 bd3c bb6e 14bd 89d6 3b3d
00000220: bd6b 8c3c c6ec 07bc 961c 39bd 4323 ebbc
00000230: 6e27 f13c 8f39 673d b12a da3c 4378 703d
00000240: 9397 583d ef43 383c d7c2 c0bc ff42 cabc
00000250: 7ac2 02bd db51 483d d78d 79bd bb82 533c
00000260: 3f9e 8e3c 9095 23bd 2671 53bb 6c89 243d
00000270: 6e25 fcbc 3415 9fbc 7887 9fbc 4046 dc37
00000280: 056f 19bd ba09 cebc da80 70bc 155e 4f3d
00000290: 6d81 2f3d 40e7 063c d778 cebc 93c2 35bc
000002a0: 1076 923d ec9f 8c3d a341 483c 99ad 03bd
000002b0: 4e21 953d c5e5 24bd 7e92 a43c 31f9 283d
000002c0: bad7 543c 17c6 a33c 772c a53d 50ac ebbc
000002d0: 8658 803b 4699 e43c ac89 5e3b 5451 76bd
000002e0: 0a14 c13c 897b 52bd 7338 62bd 6963 afbc
000002f0: 0e39 883d e7c7 9dbc 99fc d73b 9cfd b93c
00000300: 590f 2bbd 39fc 8ebc ce8e 01bd 5ed1 fe3c
00000310: 6566 33bc da70 173d 004c ebbc b691 07bb
00000320: 084e 50ba bb1d 6f3d 2e8b 7abd 3b5b 693d
00000330: 0dd4 473c 373d 783d 97b3 12bd 1d6e e5bc
00000340: 5730 a83c f4b9 2abd a2ad a13b 82f6 fe3c
00000350: c901 533d 2d73 1cbd 2951 453d 46c9 013d
00000360: a39b 2b3d 1a8a 083d fe72 2cbd 4438 713d
00000370: 5e88 213b 76e6 943c 8086 5d3d 41c7 94bc
00000380: 07c6 173d f8a0 9dbb 5c17 b03b f2bc 2cbc
00000390: 3479 d8bc d0c4 513d 75d7 d33c 3296 1abd
000003a0: 4eea 49bd 36c7 0fbd 4048 eb3a d27d a73d
000003b0: e97f 7e3d 88e2 b5bc ada6 683d 901c 843d
000003c0: 2606 183d 5ca2 c53b faef 2a3d 0312 9bbd
000003d0: a9c3 11bd 0cd5 fbbb 67ff 42bd 71b3 fcbc
000003e0: 787c dc3c 0345 0f3d f836 07bc 754b 613d
000003f0: 36b4 3f3d e079 88bd 2bbc 8b3d de65 62bd

network.3.bias f4 [128]
-0.01742725 0.056096192 0.0062984047 -0.013895814 0.0014865407 0.009514935 -0.049426045 0.022646748
-0.004447575 -0.047420103 -0.032872844 -0.030502908 -0.012892248 0.036080837 0.078560665 0.011563383
0.018799948 -0.050024364 -0.045178857 0.02949286 -0.04254289 0.0016206572 0.051301215 0.051100083
-0.01628679 -0.008355807 -0.0073726056 0.038945377 0.026233738 -0.052242547 0.05576491 -0.010651069
-0.007842172 -0.010694635 0.008581264 -0.0016751593 0.012359918 0.017803809 0.019609578 0.05986111
-0.01546991 0.034207806 0.0010328849 0.0090314755 -0.050247185 0.048055615 -0.067534335 0.04223515
-0.016170995 -0.047459505 0.035819184 -0.029847095 -0.021451736 -0.055548668 -0.05194078 0.014159353
-0.049445108 0.012147422 0.025184564 -0.037409198 -0.030861326 -0.0040397528 0.056577105 0.009823133
0.047047563 -0.018056113 0.050436754 -0.0061537786 -0.060371015 -0.034085363 -0.0127824955 -0.030409869
0.020345045 0.041459285 0.049702715 -0.01539335 -0.041747577 0.024660166 -0.008176293 0.019987136
0.032533713 0.0064136614 0.021022381 -0.028814603 -0.043936122 0.03842682 -0.010106107 -0.05470264
-0.05480039 0.035100393 -0.0044157933 -0.041578896 0.014845831 -0.034240603 0.040852897 -0.0048070224
0.048938062 0.002074616 0.033696406 0.023381904 0.024219805 0.01548517 -0.03105732 -0.014461442
0.039600372 0.039303962 -0.048664972 0.029024597 -0.007887578 -0.02164964 0.04716917 0.029267695
0.026628522 0.05996462 0.048189647 0.04397069 0.047350116 -0.049138147 -0.008218315 0.019959915
0.010140786 -0.03945216 -0.0028246609 -0.014926018 0.0026240568 0.007667234 -0.051629856 -0.020497438
00000000: 98c3 8ebc 1fc5 653d d962 ce3b 45ab 63bc
00000010: 07d8 c23a 88e4 1b3c f772 4abd ac85 b93c
00000020: f7bc 91bb 953b 42bd ada5 06bd 3ce1 f9bc
00000030: 023a 53bc 80c9 133d 6ae4 a03d 5874 3d3c
00000040: 5902 9a3c 59e6 4cbd 770d 39bd 039b f13c
00000050: 7441 2ebd 3b6c d43a 3921 523d 524e 513d
00000060: e06b 85bc cbe6 08bc e695 f1bb 3085 1f3d
00000070: 23e8 d63c 48fc 55bd bf69 643d d281 2ebc
00000080: 747c 00bc 8d38 2fbc 6e98 0c3c 0591 dbba
00000090: 4181 4a3c 4bd9 913c 44a4 a03c ec30 753d
000000a0: 8175 7dbc 7c1d 0c3d de61 873a c1f8 133c
000000b0: fecf 4dbd f7d5 443d 714f 8abd c4fe 2c3d
000000c0: 0979 84bc e664 42bd 23b7 123d e581 f4bc
000000d0: 8dbb afbc 0087 63bd dbbf 54bd a2fc 673c
000000e0: f486 4abd fb05 473c dc4f ce3c 633a 19bd
000000f0: e4d0 fcbc e75f 84bb 65bd 673d 35f1 203c
00000100: f2b4 403d 6aea 93bc c596 4e3d a3a5 c9bb
00000110: 9947 77bd 189d 0bbd ac6d 51bc 1e1e f9bc
00000120: a7aa a63c 36d1 293d 1395 4b3d 6434 7cbc
00000130: 82ff 2abd 1e04 ca3c dcf5 05bc 10bc a33c
00000140: 1242 053d b129 d23b 2137 ac3c 9a0c ecbc
00000150: 5df6 33bd 7165 1d3d 1694 25bc e00f 60bd
00000160: 6076 60bd 6ec5 0f3d 5cb2 90bb a24e 2abd
00000170: ee3b 733c e03f 0cbd 5e55 273d 3a84 9dbb
00000180: 4773 483d 48f6 073b 3e05 0a3d 688b bf3c
00000190: 9d68 c63c 83b5 7d3c ec6b febc afef 6cbc
000001a0: 0034 223d 31fd 203d ec54 47bd fec4 ed3c
000001b0: e63a 01bc 965a b1bc 7634 413d cec2 ef3c
000001c0: 0f24 da3c 769d 753d 8262 453d 9c1a 343d
000001d0: 32f2 413d 1545 49bd 1da6 06bc fa82 a33c
000001e0: 8a25 263c 9798 21bd f21d 39bb 428c 74bc
000001f0: 5ef8 2b3b 6c3d fb3b d479 53bd 3eea a7bc

network.6.weight f4 [64, 128]
-0.013193622 0.064846486 -0.08340982 -0.021475838 0.047034327 0.043865323 -0.081584364 0.06469851
0.029931672 -0.010562141 0.0724263 0.029126545 0.0777469 -0.06117995 0.005252232 0.023134306
-0.031625222 -0.07878374 0.02148603 -0.06096476 0.0803541 0.056380562 -0.040072396 0.07421565
-0.011578662 0.07911014 0.07745935 0.049161896 -0.06605739 0.035725053 0.06309023 -0.03706926
-0.00043641878 -0.02396461 0.0023401957 0.06794829 0.053388204 0.04599512 0.06248739 -0.049549896
0.01936677 -0.032374494 0.07890798 -0.057222046 0.019804232 -0.015808066 0.06422682 0.002073698
0.030359631 -0.08966633 0.04527133 0.050358213 -0.082422994 0.04060032 -0.07648059 0.053324603
0.07766647 0.032181114 -0.0711295 0.0025260623 0.015864257 0.05761705 0.024275294 0.03288539
-0.01126864 0.07380243 -0.07889849 0.06779736 -0.051768575 -0.06562225 -0.033184398 0.03120855
-0.028069125 -0.06381575 -0.038270857 0.061016805 -0.006552214 -0.019879928 -0.068599336 -0.057310358
-0.07197614 0.02332236 -0.059064 0.042939514 0.004140496 -0.06597151 0.025358483 -0.07031279
0.067721225 -0.028636016 0.020623721 -0.027782215 -0.0669278 0.06762086 -0.09249983 -0.06853095
-0.0037388573 -0.00263336 0.032238904 -0.01983134 -0.071189605 0.03708433 0.013583966 0.034929927
-0.01866726 0.007980621 0.038710646 -0.019965747 -0.08651704 -0.01628915 -0.015249971 0.01939763
-0.07928176 0.053543884 0.0496189 -0.082370974 0.07624065 -0.06713099 0.015841668 -0.04894867
0.062025804 -0.018759655 -0.007255044 -0.09031464 -0.05996926 0.066810176 0.046254136 -0.025077172
0.0463542 -0.009206341 -0.01454646 -0.07296632 -0.017199129 0.016206881 -0.08926855 -0.056524195
0.01046164 0.028279947 -0.038344868 0.034015708 -0.056864403 -0.070847176 -0.039707035 -0.0103101265
0.07432013 -0.06060568 -0.009058995 0.04708429 0.06803514 0.04431646 -0.0014367846 0.010192598
-0.0024633773 0.015991196 -0.046945643 -0.030828215 0.00588808 0.025807835 -0.038482964 -0.012997369
0.070356146 -0.0038016704 0.029899327 0.02571643 0.015966402 -0.084268086 -0.06770432 -0.07755676
-0.0027021107 -0.09563466 0.034254104 0.03710551 -0.037531577 -0.07013467 0.013093893 0.053019408
0.067645505 0.054815613 0.06423581 -0.033191442 0.037419405 -0.0068600858 0.0631604 -0.0895486
-0.0021326444 0.0067484397 0.023408767 -0.029836087 -0.08566201 -0.08713947 -0.005807492 -0.094738275
-0.07307391 0.043312762 0.04399951 -0.05844471 0.040412415 0.037071932 -0.07344856 0.034073297
0.015180833 0.047404747 0.042942442 0.036718328 0.012687637 0.035596635 0.06064158 0.027657298
0.025718046 0.05907952 0.054034736 0.03391422 0.004903403 -0.03658491 0.04913435 -0.07898228
0.025445422 0.067348525 -0.071830936 -0.06850142 0.006658006 -0.06226199 -0.041929048 -0.07497393
-0.03558589 -0.02094504 -0.06456671 0.076109074 -0.070277534 -0.075347014 -0.033800438 -0.03019912
-0.07957068 -0.05855852 0.06818796 0.08756305 0.040141124 -0.046654142 -0.020102853 -0.041517593
-0.01583627 -0.0053794873 -0.03460353 -0.024354823 -0.07275418 -0.03716079 -0.03504831 -0.022810861
0.055402238 0.057198554 0.014984311 0.038091976 -0.029728951 0.00702801 -0.016810508 0.066646665
00000000: 102a 58bc 3cce 843d c5d2 aabd 19ee afbc
00000010: 11a7 403d 20ac 333d b415 a7bd a780 843d
00000020: 4433 f53c d50c 2dbc 3d54 943d cb9a ee3c
00000030: c439 9f3d d497 7abd ea1a ac3b 2884 bd3c
00000040: 7389 01bd 5f59 a1bd 7903 b03c 2fb6 79bd
00000050: b190 a43d 4eef 663d f422 24bd 60fe 973d
00000060: 6eb4 3dbc 7f04 a23d 02a3 9e3d fc5d 493d
00000070: 1949 87bd 6f54 123d 7335 813d f0d5 17bd
00000080: 23cf e4b9 6e51 c4bc f85d 193b 7928 8b3d
00000090: 97ad 5a3d 6165 3c3d c7f2 7f3d d5f4 4abd
000000a0: 0fa7 9e3c 1e9b 04bd 829a a13d aa61 6abd
000000b0: 7c3c a23c eb7f 81bc 5a89 833d e1e6 073b
000000c0: c3b4 f83c fba2 b7bd 6e6e 393d 6a44 4e3d
000000d0: 63cd a8bd 854c 263d dba1 9cbd e66a 5a3d
000000e0: 990f 9f3d 58d0 033d 58ac 91bd 4b8c 253b
000000f0: c2f5 813c dbff 6b3d fbdc c63c d5b2 063d
00000100: 1aa0 38bc ba25 973d 8895 a1bd 58d9 8a3d
00000110: 490b 54bd f564 86bd 5dec 07bd 13a9 ff3c
00000120: 39f1 e5bc d5b1 82bd e7c1 1cbd c2ec 793d
00000130: f4b3 d6bb 3bdb a2bc cf7d 8cbd 44be 6abd
00000140: 3a68 93bd 890e bf3c 18ed 71bd 58e1 2f3d
00000150: ffac 873b 121c 87bd 98bc cf3c 2700 90bd
00000160: 6db1 8a3d 1496 eabc 14f3 a83c 8797 e3bc
00000170: 7111 89bd ce7c 8a3d 8d70 bdbd f459 8cbd
00000180: 9e07 75bb 7394 2cbb f10c 043d 5675 a2bc
00000190: dbcb 91bd bde5 173d 488f 5e3c af12 0f3d
000001a0: 15ec 98bc 27c1 023c 0e8f 1e3d 358f a3bc
000001b0: d92f b1bd d370 85bc 04db 79bc c7e7 9e3c
000001c0: 7a5e a2bd d550 5b3d 303d 4b3d 1db2 a8bd
000001d0: 0f24 9c3d f97b 89bd 63c6 813c 677e 48bd
000001e0: c50e 7e3d d9ad 99bc b8bb edbb e2f6 b8bd
000001f0: 54a2 75bd c6d3 883d fa74 3d3d a46e cdbc
00000200: e7dd 3d3d 31d6 16bc 4654 6ebc 5e6f 95bd
00000210: 30e5 8cbc 4bc4 843c 6ed2 b6bd ea85 67bd
00000220: 4c67 2b3c 59ab e73c 820f 1dbd 0e54 0b3d
00000230: a6ea 68bd 5318 91bd d8a3 22bd ceeb 28bc
00000240: 2735 983d a93d 78bd 2e6c 14bc 75db 403d
00000250: 0256 8b3d 2d85 353d 7e52 bcba dbfe 263c
00000260: 9d70 21bb f8ff 823c 134a 40bd 748b fcbc
00000270: ccf0 c03b f46a d33c 50a0 1dbd ebf2 54bc
00000280: e216 903d 7225 79bb 6fef f43c 43ab d23c
00000290: f9cb 823c bf94 acbd 90a8 8abd 14d6 9ebd
000002a0: e515 31bb 1bdc c3bd 084e 0c3d f2fb 173d
000002b0: b6ba 19bd c4a2 8fbd c587 563c e12a 593d
000002c0: ba89 8a3d 5686 603d 108e 833d c0f3 07bd
000002d0: 1745 193d 92ca e0bb 3d5a 813d 4265 b7bd
000002e0: d6c3 0bbb 0422 dd3b bec3 bf3c cf6a f4bc
000002f0: 906f afbd 2e76 b2bd c64c bebb 2406 c2bd
00000300: c6a7 95bd b968 313d d538 343d b863 6fbd
00000310: 7d87 253d bdd8 173d 336c 96bd 7190 0b3d
00000320: 07b9 783c 7b2b 423d 6ae4 2f3d f565 163d
00000330: cedf 4f3c c7cd 113d 4e63 783d 8f91 e23c
00000340: a7ae d23c 5efd 713d 8753 5d3d a3e9 0a3d
00000350: baac a03b 0fda 15bd 1a41 493d 76c1 a1bd
00000360: eb72 d03c 06ee 893d 191c 93bd 794a 8cbd
00000370: 672b da3b 6e06 7fbd cbbd 2bbd ef8b 99bd
00000380: 83c2 11bd ef94 abbc 8d3b 84bd 13df 9b3d
00000390: abed 8fbd 894f 9abd 5472 0abd 2564 f7bc
000003a0: f4f5 a2bd 0fdb 6fbd 21a6 8b3d 4254 b33d
000003b0: 056b 243d 6a18 3fbd bdae a4bc 5a0e 2abd
000003c0: 11bb 81bc 6946 b0bb 6ebc 0dbd c483 c7bc
000003d0: 2500 95bd ea35 18bd d18e 0fbd d8dd babc
000003e0: 75ed 623d 0849 6a3d c180 753c 5506 1c3d
000003f0: 218a f3bc 394b e63b 31b6 89bc 0c7e 883d

network.6.bias f4 [64]
0.024614275 -0.01546275 -0.07200578 0.064326964 -0.011592547 0.044443857 0.05262565 -0.03946238
-0.048927914 -0.032891806 0.04037571 0.0634635 0.076936945 0.050380044 4.2119962e-05 0.066262946
0.05981859 0.044794545 -0.005367256 0.019534936 0.01603353 -0.013429004 -0.054134436 -0.0053938143
-0.029251711 0.02007773 0.04723109 -0.08132818 0.089190096 -0.03367326 -0.031510275 0.06331237
0.04777237 0.05079151 -0.024167694 -0.046024814 -0.020813398 -0.030030852 0.09277559 0.059254974
-0.035590246 0.005665112 -0.045882337 -0.022873899 -0.030449973 -0.024660276 0.023534268 0.023775013
-0.0019030478 -0.06360974 -0.0078928135 0.030365027 -0.0113427 0.014133029 0.08003613 0.061471637
-0.020705638 0.08158782 0.04530979 0.005326591 0.027847411 0.052479587 -0.07145023 0.03591472
00000000: e0a3 c93c 7957 7dbc c477 93bd dbbd 833d
00000010: abee 3dbc c30a 363d fe8d 573d 4ea3 21bd
00000020: a368 48bd 8fb9 06bd 0061 253d 27f9 813d
00000030: 1e91 9d3d 4e5b 4e3d f7a9 3038 deb4 873d
00000040: 5604 753d 7c7a 373d cedf afbb bb07 a03c
00000050: c058 833c 5305 5cbc 12bc 5dbd 98be b0bb
00000060: 49a1 efbc 0d7a a43c 6375 413d 648f a6bd
00000070: 4ca9 b63d f9ec 09bd eb10 01bd eaa9 813d
00000080: f6ac 433d c20a 503d 54fb c5bc 8484 3cbd
00000090: dc80 aabc 4303 f6bc 2101 be3d 58b5 723d
000000a0: 14c7 11bd 67a2 b93b 1eef 3bbd 0b62 bbbc
000000b0: 3972 f9bc 5904 cabc f0ca c03c d1c3 c23c
000000c0: b06f f9ba d345 82bd dc50 01bc 14c0 f83c
000000d0: bbd6 39bc 388e 673c fce9 a33d afc9 7b3d
000000e0: df9e a9bc 8417 a73d c296 393d af8a ae3b
000000f0: 4120 e43c d6f4 563d 8054 92bd 501b 133d

network.9.weight f4 [1, 64]
0.107936546 0.014011451 -0.0548506 -0.083162256 -0.10551413 -0.12478639 0.111963205 -0.015224937
0.05425068 0.0001737597 -0.1070361 0.016350225 -0.07215632 -0.07356221 -0.040759627 -0.10271091
0.06846447 -0.035142 -0.031109216 0.08740637 -0.033085193 0.10349943 -0.05585602 -0.1283657
-0.039671946 -0.015020436 -0.028310454 0.0716915 -0.046656854 0.049103566 -0.07234742 0.076825894
0.041810982 -0.04541417 -0.1068493 0.0124833165 0.025434647 -0.09132347 -0.06727239 -0.11121795
-0.042383693 -0.11231272 0.11123888 0.066925175 -0.094633915 0.09659927 -0.034378916 0.05882308
-0.023447294 0.099295534 -0.024365127 -0.07445074 0.11374781 0.092314966 0.10269234 -0.07908793
0.10052467 -0.03874684 0.059267376 0.0016500487 -0.080239065 0.0836422 0.020096602 -0.11639145
00000000: d60d dd3d 4990 653c 06ab 60bd f950 aabd
00000010: cb17 d8bd 0290 ffbd f74c e53d 0472 79bc
00000020: f635 5e3d 4433 3639 be35 dbbd e8f0 853c
00000030: b1c6 93bd c9a7 96bd 91f3 26bd 195a d2bd
00000040: 1a37 8c3d 0ff1 0fbd c1d8 febc 1c02 b33d
00000050: 5784 07bd 82f7 d33d 48c9 64bd 4c72 03be
00000060: 0d7f 22bd 4618 76bc 53eb e7bc fed2 923d
00000070: 421b 3fbd d220 493d e22a 94bd e556 9d3d
00000080: fe41 2b3d 3504 3abd ced3 dabd d386 4c3c
00000090: 525c d03c cd07 bbbd 1bc6 89bd 3dc6 e3bd
000000a0: 869a 2dbd 3604 e6bd 36d1 e33d 1110 893d
000000b0: 6dcf c1bd d7d5 c53d e8d0 0cbd 78f0 703d
000000c0: 8a14 c0bc 755b cb3d 6099 c7bc a179 98bd
000000d0: 9df4 e83d a10f bd3d 5d50 d23d daf8 a1bd
000000e0: e1df cd3d 02b5 1ebd 59c2 723d 7246 d83a
000000f0: 6154 a4bd 9a4c ab3d a1a1 a43c a45e eebd
