projekt1/wandb/run-20251108_165759-0arsqsix/files/best_model.pth (torch, 839365 bytes, 9 tensors)

network.0.weight f4 [512, 70]
0	0x3e422d2a	0.18962541
1	0x3e090f96	0.13384852
2	0xbcb9c42c	-0.02267655
3	0xbcbfaff0	-0.023399323
4	0x3dae2cc0	0.08504629
5	0x3c09db6d	0.008414132
6	0xbdf285af	-0.11841904
7	0x3b56e67e	0.0032791193
8	0x3db4ef9c	0.08834764
9	0xbc8260b1	-0.015915247
10	0x3d924bb3	0.07143345
11	0xbd9cf0ae	-0.076630935
12	0x3b9f70ee	0.004865757
13	0xbe35e516	-0.1776317
14	0x3d77f1c3	0.060533296
15	0xbe4c03fe	-0.19923398
16	0xbd84777b	-0.064681016
17	0xbdc52e48	-0.09627968
18	0x3da097bf	0.07841443
19	0xbd6996a3	-0.057028424
20	0x3ceab6c0	0.028651595
21	0x3d6fc6d0	0.05853921
22	0x3cf5b43e	0.029993173
23	0x3e0e3ba3	0.13889937
24	0x3d87ae57	0.066250496
25	0xbcf51c6b	-0.029920777
26	0xbc760b2a	-0.01501731
27	0x3dc126f1	0.094312556
28	0x3d409428	0.047016293
29	0xbc9fa548	-0.019487992
30	0xbdce3465	-0.10068587
31	0x3dabd4dd	0.0839021
32	0xbda75bdc	-0.08171818
33	0x3d770223	0.060304772
34	0xbdb28932	-0.08717574
35	0x3bd4ddce	0.0064961677
36	0x3dbcf630	0.09226644
37	0xbd9095d9	-0.07059831
38	0xbd3bf357	-0.045886364
39	0xbdcaa5ac	-0.09894881
40	0x3c8c8f29	0.017158108
41	0x3c2f74f7	0.010709039
42	0xbe50b486	-0.20381364
43	0xbd517af3	-0.051142644
44	0x3e2354a5	0.15950258
45	0x3c888707	0.016665949
46	0x3d8efb1c	0.06981489
47	0x3d99570e	0.074873075
48	0x3e007122	0.12543157
49	0x3d0a7c8b	0.03381018
50	0xbd1b46d1	-0.037909333
51	0xbdad3387	-0.08457094
52	0x3d92e456	0.07172458
53	0xbd2f1f2d	-0.04275434
54	0xbdf4419a	-0.11926575
55	0x3c0eb023	0.008708986
56	0x3cc78cf6	0.024359208
57	0xbc5fb48a	-0.013653884
58	0xbd94316b	-0.07235988
59	0xbe1120fb	-0.14172737
60	0x3d73bf8b	0.05950884
61	0x3d466130	0.04843253
62	0x3d7ea070	0.062164724
63	0xbe2af7d5	-0.16696103
64	0xbdd0e368	-0.10199624
65	0x3c41fe24	0.011840377
66	0xbe04a78b	-0.12954538
67	0x3d0c872c	0.034308597
68	0x3d5eb31b	0.054370027
69	0x3d3ae82c	0.045631573
70	0xbe2c3f78	-0.16821086
71	0x3b2ed2b0	0.0026675873
72	0x3e0b6f02	0.13616565
73	0x3dc88497	0.097909145
74	0x3e2429dc	0.16031593
75	0xbd1940b1	-0.03741521
76	0x3e5debfc	0.21672052
77	0xbc9e54f6	-0.019327622
78	0x3dab8b0c	0.083761305
79	0xbda6aa33	-0.08137932
80	0xbb9c81e6	-0.0047762273
81	0x3c28ff4c	0.010314774
82	0xbe3b008e	-0.1826193
83	0x3d2f3702	0.04277707
84	0xbd398729	-0.045294914
85	0xbe5e16d1	-0.21688391
86	0xbe18a0f8	-0.14905155
87	0xbca55554	-0.02018229
88	0x3ddf99c9	0.10918004
89	0xbdedb884	-0.11607459
90	0xbdcef117	-0.10104578
91	0xbc968edc	-0.018378668
92	0x3c4b9bad	0.012427253
93	0xbced7abd	-0.02898919
94	0xbdb1b130	-0.08676374
95	0x3d16370f	0.0366736
96	0x3dc73cbc	0.09728381
97	0x3c9516ce	0.01819935
98	0x3dd7bb93	0.10533824
99	0x3c14e12d	0.009086889
100	0xbd0a92f3	-0.033831548
101	0xbd2e2a0f	-0.04252058
102	0x3dba1090	0.0908519
103	0xbd955b14	-0.072927624
104	0x3cbbb4dc	0.022913389
105	0xbdf9f739	-0.12205357
106	0x3de60828	0.112320244
107	0xbd8c635f	-0.06854891
108	0xbe0f5ead	-0.1400096
109	0x3cb21250	0.021737248
110	0x3e182900	0.1485939
111	0x3d8a698e	0.06758414
112	0x3d88626a	0.06659396
113	0xbd5c66e8	-0.053809077
114	0xbcfe9737	-0.031077964
115	0xbe3a8c35	-0.18217547
116	0x3d05904c	0.032608315
117	0x3ca1008f	0.019653587
118	0x3d16a407	0.036777522
119	0x3d525a87	0.051355865
120	0x3d4b474a	0.049628533
121	0xbdd13138	-0.10214466
122	0xbe2ab808	-0.16671765
123	0x3cab4fe9	0.020912128
124	0xbd9b6d63	-0.07589223
125	0xbe1c1cff	-0.15245436
126	0xbe215ffb	-0.1575927
127	0xbd4cf983	-0.05004264
128	0x3dd34ba2	0.1031716
129	0x3c09778c	0.008390319
130	0xbd0de051	-0.034637753
131	0x3de0f8cd	0.10984955
132	0xbe19708c	-0.1498434
133	0x3cfedad6	0.031110208
134	0x3dce5f90	0.10076821
135	0x3c3a712a	0.0113795195
136	0xbc2eacea	-0.010661343
137	0x3d03cf0c	0.032179877
138	0xbdd391de	-0.10330556
139	0xbdaa86e5	-0.0832651
140	0x3c36e2a7	0.011162437
141	0xbddfb908	-0.10923964
142	0x3e337f1e	0.1752896
143	0xbccb9ca8	-0.024854973
144	0x3e0e4137	0.13892065
145	0x3d9cd294	0.07657352
146	0x3ccb26e2	0.024798814
147	0xbd7557d0	-0.059898198
148	0xbbf2de92	-0.0074117864
149	0x3d8195de	0.06327413
150	0x3e23726e	0.1596162
151	0x381aa980	3.687432e-05
152	0xbd5a84c4	-0.05334927
153	0xbd923f80	-0.07141018
154	0x3d11932f	0.035540756
155	0xbe13dd86	-0.14439973
156	0xbc47bdf6	-0.012191286
157	0xbe4d9c63	-0.20079188
158	0x3dd676e0	0.10471892
159	0x3c90e240	0.01768601
160	0xbda3d3fb	-0.079994164
161	0xbc7ab137	-0.01530104
162	0x3dcededb	0.101011
163	0xbda60d3d	-0.08107994
164	0xbd9b207d	-0.07574556
165	0x3c9fe265	0.019517133
166	0xbdc5dbfd	-0.096611
167	0x3d92c605	0.071666755
168	0xbe0641d0	-0.13111043
169	0xbe48cd28	-0.19609511
170	0xbdd73f43	-0.10510113
171	0xbddfde13	-0.10931029
172	0xbd0c950c	-0.03432183
173	0xbd7325d6	-0.059362255
174	0xbdb96051	-0.09051574
175	0xbd9d8c7e	-0.076928124
176	0x3e472cb0	0.1945064
177	0xbcdb7a72	-0.026791785
178	0xbdffa29e	-0.12482189
179	0xbda70074	-0.08154383
180	0xbde15aec	-0.1100367
181	0xbcc59c58	-0.024122402
182	0x3d22b56a	0.03972379
183	0xbdd89cfa	-0.10576816
184	0xbe1b5317	-0.15168415
185	0x3e4b5cbb	0.19859593
186	0xbdf3bc90	-0.119012
187	0x3c8111d7	0.015755577
188	0x3d9f25b2	0.07770862
189	0xbc8e81bf	-0.017395852
190	0x3db1b179	0.08676428
191	0x3d2c9878	0.042137593
192	0xbc3ba20b	-0.011452208
193	0xbc668c95	-0.014071603
194	0xbe291c88	-0.1651479
195	0xbdd254f0	-0.10270107
196	0xbe43cc43	-0.19120888
197	0xbd2e5fec	-0.042571947
198	0xbd1c7fbd	-0.03820776
199	0xbaaabc20	-0.0013026036
200	0x3dfeb341	0.12436534
201	0xbb693380	-0.0035583675
202	0xbd00fff9	-0.031494115
203	0xba0e4cdc	-0.0005428323
204	0x3de3a6c2	0.11115791
205	0x3d49b149	0.049241338
206	0xbca1fd6b	-0.01977416
207	0x3b87c054	0.0041428003
208	0x3d76332a	0.060107388
209	0xbcb7092f	-0.022343246
210	0xbda79142	-0.081820026
211	0xbceba8ba	-0.028766979
212	0xbd924f56	-0.071440384
213	0x3d28c267	0.04120102
214	0x3d2937f2	0.04131312
215	0x3d5c6c45	0.05381419
216	0x3d247576	0.040151082
217	0xbd15b211	-0.03654677
218	0xbd00d106	-0.03144934
219	0x3db83944	0.089952976
220	0x3e17154d	0.1475422
221	0xbd09ff33	-0.033690643
222	0xbe440d0e	-0.19145605
223	0xbdf9009e	-0.12158321
224	0xbcc04d25	-0.023474285
225	0xbe387962	-0.18015054
226	0x3ddf91c3	0.10916474
227	0xbe185f7c	-0.14880174
228	0x3d545e72	0.051847883
229	0x3c1c7252	0.00954874
230	0xbc6b67a3	-0.014367971
231	0x3c9fee55	0.019522825
232	0x3d272319	0.040804956
233	0x3e1270b0	0.143008
234	0xbd50d2e1	-0.05098236
235	0xbe37507e	-0.17901799
236	0x3e04a4b0	0.12953448
237	0x3d6003ef	0.05469125
238	0xbcc4a2db	-0.024003437
239	0x3c8ec2a8	0.017426804
240	0x3c7811ae	0.015140934
241	0xbd81d65d	-0.06339715
242	0xbd2ee912	-0.042702742
243	0xbd258be4	-0.040416613
244	0x3b90dc88	0.0044208206
245	0xbdae4e8e	-0.08511077
246	0xbdaaa754	-0.083326966
247	0xbb1229f8	-0.0022302847
248	0xbd1658c6	-0.036705755
249	0x3d956bdd	0.07295964
250	0xbc6f4544	-0.014603917
251	0xbcfc853a	-0.030825246
252	0x3e066365	0.13123854
253	0xbd697058	-0.056991905
254	0x3cecff13	0.028930223
255	0xbc8c58a4	-0.01713211

network.0.bias f4 [512]
0	0xbda61bd1	-0.08110774
1	0xbcbd21c0	-0.023087382
2	0xbc2971ad	-0.010342044
3	0xbe1c0b34	-0.15238649
4	0xbd758a1a	-0.059946157
5	0x3db5a7d7	0.088699035
6	0x3b3de443	0.0028975166
7	0xbd846fae	-0.06466614
8	0xbdd08e57	-0.10183399
9	0xbdf6cc5a	-0.12050696
10	0xbc42c160	-0.0118869245
11	0x3d2dcb01	0.042429928
12	0xbd735018	-0.059402555
13	0xbd609e81	-0.05483866
14	0xbc09635c	-0.0083855055
15	0x3c813f88	0.015777364
16	0xbced83d2	-0.02899352
17	0x3d3b81e1	0.04577816
18	0x3d5751fa	0.052568413
19	0x3d934ad7	0.07192009
20	0xbe02bafe	-0.12766644
21	0x3d6fd5cf	0.058553513
22	0xbd8b23d1	-0.06793941
23	0xbd276250	-0.040865242
24	0xbce27c6f	-0.027647225
25	0x3dfcf6ee	0.123517856
26	0xbce5bfc1	-0.028045537
27	0x3d59b834	0.053154185
28	0xbdb2c339	-0.08728642
29	0xbc338a25	-0.010958229
30	0xbe29697f	-0.1654415
31	0x3de68144	0.11255124
32	0xbe2e3ed0	-0.17016149
33	0xbd64f1db	-0.055894714
34	0xbd199ab7	-0.037501063
35	0xbb8e5509	-0.004343633
36	0x3d2213ee	0.039569788
37	0xbdff8e15	-0.12478272
38	0xbe066f68	-0.13128436
39	0xbe31e31a	-0.17371789
40	0xbe19d906	-0.15024194
41	0xbe020457	-0.12696968
42	0x3d8619b8	0.06547874
43	0xbd92834f	-0.071539514
44	0xbd64731d	-0.055773843
45	0x3c8ae205	0.016953478
46	0x3cec0d5a	0.02881496
47	0xbdef8f2f	-0.11697232
48	0x3cd766fc	0.026294224
49	0xbd27984d	-0.04091673
50	0xbd38ac69	-0.0450863
51	0xbc831b81	-0.016004326
52	0xbcbcf389	-0.023065345
53	0xbe2d1e93	-0.16906194
54	0x3cbaf31c	0.022821002
55	0xbc6a3993	-0.014295953
56	0x3cf44311	0.029817136
57	0x3c8fadd1	0.017538937
58	0x3daedc0b	0.085380636
59	0x3d1d8596	0.038457476
60	0xbbe23cab	-0.006904205
61	0x3d035c10	0.03207022
62	0xbc9e2d9a	-0.019308854
63	0x3b82fdfb	0.003997562
64	0x3c73f230	0.014889285
65	0xbd986025	-0.07440213
66	0x3dbb691c	0.091509074
67	0xbdf1ad18	-0.11800593
68	0xbc5d488e	-0.013506068
69	0xbde5de71	-0.11224068
70	0xbdbd50d1	-0.0924393
71	0xbdf7dd4c	-0.12102756
72	0x3dad09df	0.084491484
73	0x3bd83b5a	0.006598872
74	0xbd681653	-0.056661915
75	0xbd552194	-0.052033976
76	0xbe2704c9	-0.16310419
77	0xbdb904fc	-0.09034154
78	0x3d589588	0.05287698
79	0xbbf07a15	-0.007338772
80	0xbcfc14ac	-0.030771576
81	0xbde7edc7	-0.11324649
82	0xbe0672b2	-0.1312969
83	0xbd93b30c	-0.07211885
84	0xbd9c36d1	-0.07627643
85	0xbcd70ef7	-0.026252253
86	0xbd84c908	-0.06483656
87	0x3c3cd9f2	0.011526572
88	0xbd679146	-0.056535028
89	0x3db97152	0.09054817
90	0xbd2088c6	-0.039192937
91	0x3c9afdf8	0.01891993
92	0xbdbd368a	-0.09238918
93	0x3d1727d8	0.036903232
94	0xbce77bdd	-0.028257305
95	0xbcb652a0	-0.022256196
96	0xbd175a49	-0.036951337
97	0xbccbfaf2	-0.024899933
98	0x3cd8f5dd	0.026484424
99	0x3c4810f0	0.012211069
100	0xbe0f3208	-0.13983929
101	0xbd46a1ff	-0.048494335
102	0x3d3030bc	0.043015227
103	0xbd8bd083	-0.0682688
104	0x3b8a3e49	0.0042188508
105	0xbd0cd9dd	-0.034387458
106	0xbce7b32e	-0.028283682
107	0xbdb99386	-0.09061341
108	0x3d42c9b2	0.047555633
109	0x3c2dbc54	0.010603983
110	0xbe2c82a0	-0.16846704
111	0xbde57435	-0.11203805
112	0x3cc6501b	0.02420812
113	0xbd0f7bc0	-0.035030127
114	0xbcbfb385	-0.023401031
115	0x3d696508	0.056981117
116	0xbe28fc5b	-0.16502516
117	0xbda799c6	-0.08183627
118	0xbdd9c438	-0.10633129
119	0xbdeff9ac	-0.11717543
120	0xbc8e7367	-0.017389013
121	0x3c7deaee	0.015497906
122	0xbdac684f	-0.08418333
123	0xbcde45f9	-0.027132975
124	0x3d377a4a	0.04479436
125	0x3d888240	0.06665468
126	0xbd52ada6	-0.051435135
127	0x3c1793fa	0.009251589
128	0xbd3f2ed2	-0.04667551
129	0xbe27f3ed	-0.16401644
130	0x3c906b53	0.017629301
131	0xbc043027	-0.008068121
132	0xbde3ef36	-0.1112961
133	0xbdcc5d18	-0.09978694
134	0xbd881256	-0.06644122
135	0x3bb96553	0.0056578307
136	0x3d48ffd2	0.049072094
137	0xbd5f1833	-0.054466438
138	0x3d2d4dc3	0.042310487
139	0xbe1a7211	-0.15082575
140	0x3a7a1a24	0.00095406384
141	0x3bc3e8ae	0.0059786653
142	0xbe0e878d	-0.13918896
143	0xbda81c9a	-0.0820858
144	0xbd86c3e6	-0.065803334
145	0xbc2e804f	-0.010650708
146	0x3dae332d	0.08505855
147	0xbdc53ab0	-0.096303344
148	0x3db7f223	0.08981731
149	0xbe1ba763	-0.15200572
150	0x3c84dcd4	0.01621858
151	0xbde4fc0a	-0.11180885
152	0xbd31975d	-0.043357242
153	0xbdc4be06	-0.096065566
154	0xbdde2303	-0.10846522
155	0xbdcec675	-0.100964464
156	0x3d8ec15d	0.06970475
157	0xbc40a3dc	-0.011757817
158	0x3deb5110	0.11490071
159	0xbe01d855	-0.1268018
160	0xbdf37f4b	-0.118895136
161	0x3d226cc5	0.039654512
162	0x3d806c6e	0.06270681
163	0xbe0171bf	-0.12641047
164	0x3da7df22	0.08196856
165	0x3bd6f02f	0.006559394
166	0xbdbec7cc	-0.09315452
167	0xbc29bf8b	-0.010360609
168	0xbdabbbf6	-0.0838546
169	0x3dfbd493	0.12296405
170	0xbdd947e8	-0.10609418
171	0x3b9ccd0d	0.004785186
172	0xbd8fb2c2	-0.07016517
173	0xbd50b13e	-0.05095028
174	0xba0ff124	-0.000549095
175	0xbe2b0e5b	-0.16704695
176	0xbd714212	-0.0589009
177	0xbd268561	-0.040654544
178	0x3d85161d	0.064983584
179	0x3d48c72b	0.049018066
180	0xbda0052e	-0.07813488
181	0xbbac4da5	-0.0052582794
182	0x3cbb073a	0.022830594
183	0xbdfca88d	-0.12336836
184	0xbdac8e69	-0.084256
185	0xbd04017f	-0.03222799
186	0xbe0f642c	-0.14003056
187	0xbdcbddd6	-0.09954421
188	0xbc766d36	-0.015040686
189	0xbdea9450	-0.114540696
190	0x3d0a3170	0.033738554
191	0x3dbe759a	0.092997745
192	0xbd9c683c	-0.07637069
193	0x3da07315	0.0783445
194	0xbb45a352	-0.003015716
195	0xbdba7fea	-0.09106429
196	0xbd0202da	-0.031741
197	0xbe45878c	-0.19289988
198	0x3d7fb594	0.062429026
199	0x3d936d1a	0.07198544
200	0xbd8a2256	-0.0674483
201	0x3d15fab1	0.03661603
202	0x3cbd6075	0.023117283
203	0x3d908830	0.07057226
204	0x3d1f12c7	0.038836267
205	0x3c77cb97	0.015124223
206	0xbdca311c	-0.09872648
207	0xbda1e396	-0.07904737
208	0xbd2ca22b	-0.042146843
209	0xbd29d855	-0.041466076
210	0xbd68ca5d	-0.056833614
211	0xbdc51a4f	-0.096241586
212	0x3c37b4ec	0.011212569
213	0xbdcffff1	-0.10156239
214	0x3d706231	0.058687393
215	0xbdb09bde	-0.08623479
216	0x3d49b67b	0.049246293
217	0xbe0c119b	-0.13678591
218	0xbda7335c	-0.08164093
219	0xbb6291cc	-0.0034571765
220	0xbd1e5584	-0.038655773
221	0xbcd5b235	-0.026085952
222	0xbd8c783a	-0.06858869
223	0x3c841ee9	0.01612802
224	0xbc6ca24b	-0.0144429905
225	0xbdb95275	-0.090489306
226	0xbad2bc43	-0.0016077835
227	0xbd1eac1d	-0.03873836
228	0xbd2c7e5e	-0.0421127
229	0xbd9592ce	-0.073033914
230	0xbdf1bf04	-0.118040115
231	0x3cc231c7	0.023705376
232	0xbd8f446f	-0.069954745
233	0xbc59f5f7	-0.0133032715
234	0xbdfaad53	-0.1224009
235	0xbdd4344d	-0.10361538
236	0xbd22405e	-0.039612167
237	0xbca7211e	-0.020401534
238	0xbd965faf	-0.07342469
239	0x3ca283f0	0.019838303
240	0x3c884da3	0.016638583
241	0xbdb6d993	-0.08928218
242	0xbe15127f	-0.14557837
243	0xbe0f8440	-0.14015293
244	0xbbf3b707	-0.00743759
245	0xbd3379c1	-0.043817285
246	0xbdd350b8	-0.1031813
247	0xbdc94d8c	-0.09829244
248	0x3c92d184	0.01792217
249	0x3d17f265	0.0370964
250	0xbde5ee3a	-0.11227079
251	0xbda4a008	-0.08038336
252	0x3d55d9a2	0.052209504
253	0xbe16f0e9	-0.14740337
254	0x3c1a0fca	0.0094031785
255	0xbdaee9bb	-0.08540674

network.3.weight f4 [256, 512]
0	0x3cf916ee	0.030406442
1	0x3d57a4f3	0.052647542
2	0x3d97e3d0	0.07416499
3	0x3c21de8c	0.0098797195
4	0xbd25af18	-0.040450186
5	0x3d63c835	0.055610854
6	0xbcfadfbf	-0.030624269
7	0xbbdb1fe5	-0.0066871517
8	0xbcdbbd52	-0.026823673
9	0xbd91c999	-0.0711853
10	0x3d56b1f6	0.05241581
11	0xbcad04c3	-0.021120435
12	0x3d1a98b7	0.037743296
13	0x3d0ee85c	0.034889564
14	0x3c6db683	0.014508846
15	0xba902684	-0.0010997807
16	0xbcc19592	-0.023630891
17	0xbce7dd98	-0.028303906
18	0x3b0a357a	0.0021089003
19	0x3caf0989	0.021366851
20	0x3d0ec72c	0.034857914
21	0x3b1e6077	0.0024166384
22	0xbc3e8fa8	-0.01163093
23	0xbd156586	-0.036473773
24	0xbc89515e	-0.016762432
25	0x3db36881	0.08760167
26	0x3c0a528e	0.008442534
27	0xbb1142ba	-0.0022165016
28	0xbd1b06d1	-0.037848298
29	0xbd08d1ac	-0.033403084
30	0xbd744789	-0.059638534
31	0x3bd7a62a	0.0065810876
32	0xbb185296	-0.0023242584
33	0x3d35495c	0.044259414
34	0x3ade0690	0.0016939212
35	0xbd66dfc3	-0.05636574
36	0xbc51439b	-0.012772466
37	0xbd394614	-0.045232847
38	0x3bee9420	0.0072808415
39	0xbcb41657	-0.021983309
40	0xba8f6db8	-0.0010942733
41	0xbccd8f24	-0.025092669
42	0x3c61d1a9	0.013782897
43	0x3d1c20df	0.038117286
44	0xbc123416	-0.008923551
45	0x3ccec05a	0.025238205
46	0x3c70e4be	0.014702974
47	0xbc4fbf60	-0.012679905
48	0x3c897c5b	0.01678293
49	0x3cc4ce73	0.024024224
50	0xbd423abd	-0.0474193
51	0xbd735ccb	-0.059414666
52	0xbd260cb7	-0.04053947
53	0xbd9721f0	-0.0737952
54	0xbc768ff5	-0.0150489705
55	0x3d30404a	0.04303006
56	0x3cba9f5e	0.02278107
57	0x3ceb8cea	0.028753716
58	0x3cc2e4e4	0.023790784
59	0x3cf01ad8	0.029309675
60	0x3d31848d	0.0433393
61	0xbd2825a7	-0.041051533
62	0x3d181980	0.037133694
63	0x3d702428	0.05862823
64	0xbd187c40	-0.03722787
65	0xbb529276	-0.0032130755
66	0x3d12aba2	0.035808213
67	0xbcbac8f4	-0.0228009
68	0x3d820f30	0.06350553
69	0x3aee6003	0.0018186573
70	0x3d05efef	0.03269952
71	0xbd0196e2	-0.031638034
72	0x3cf5d903	0.030010706
73	0xbd6dc94b	-0.058053296
74	0xbd56d797	-0.052451696
75	0x3bab3134	0.0052243713
76	0xbd8431d8	-0.064548194
77	0x3d68ea75	0.05686422
78	0xbd22780c	-0.039665267
79	0xbcbf4756	-0.023349445
80	0xbd133b9c	-0.03594552
81	0xbca8d144	-0.020607598
82	0xbc0931bf	-0.008373677
83	0x3c9419f8	0.01807879
84	0x3baad3f2	0.005213254
85	0x3caebd34	0.021330453
86	0xbccc2968	-0.024922088
87	0xbd6f9753	-0.058493923
88	0x3d2abc1e	0.04168331
89	0x3c10f8ca	0.008848378
90	0x3c781c24	0.015143428
91	0xbc7a30d3	-0.01527043
92	0x3cae8575	0.021303872
93	0xbd39fa57	-0.04540476
94	0xbc8c1af6	-0.0171027
95	0x3d04a506	0.03238394
96	0xbd1413ae	-0.03615158
97	0x3bee060c	0.0072639044
98	0x3cf26d69	0.029593186
99	0xbd5b0862	-0.05347479
100	0x3cb480f2	0.022034142
101	0x3c215f17	0.009849331
102	0xbcc39fdc	-0.023879938
103	0xbd98e0e0	-0.074647665
104	0xbcae24cd	-0.021257782
105	0x3d02e05d	0.03195225
106	0x3db0944e	0.08622037
107	0xbd403ad0	-0.046931088
108	0xbd84799e	-0.06468509
109	0xbce3b78e	-0.027797487
110	0xbcb82b9b	-0.02248173
111	0xbc534ab2	-0.012896227
112	0x3c4dc05b	0.012558068
113	0x3dc53ca4	0.09630707
114	0xb8cb7770	-9.702041e-05
115	0x3ceb399a	0.02871399
116	0xbd3f7da1	-0.04675067
117	0xbc8be9bc	-0.017079227
118	0x382c8570	4.113227e-05
119	0x3cb3c094	0.021942414
120	0xbd135438	-0.03596899
121	0xbc0f2728	-0.008737363
122	0xbd398b1b	-0.045298677
123	0xbd286d5a	-0.04111991
124	0xbd853613	-0.065044545
125	0xbd8ff845	-0.070297755
126	0x3c6861e3	0.014183494
127	0x3ae9b5a0	0.0017830618
128	0xbdd46166	-0.1037014
129	0xba113581	-0.0005539284
130	0xbc6affe9	-0.01434324
131	0xbd1cb0d3	-0.03825457
132	0xbd40ea68	-0.047098547
133	0xbb96f4b2	-0.0046068067
134	0xbc92eb2b	-0.017934402
135	0xbc04e60a	-0.008111486
136	0x3a98ddc1	0.0011662768
137	0xbcaf2718	-0.021380946
138	0xbd1a01c1	-0.03759933
139	0x3cb3a55f	0.021929441
140	0xbd7077e2	-0.05870808
141	0xbbdc9b19	-0.0067323563
142	0xbd3b80eb	-0.045777243
143	0x3ba24907	0.004952553
144	0xbd96a089	-0.073548384
145	0xbd15d4f5	-0.036580045
146	0xbbcff029	-0.006345768
147	0xbb99738c	-0.0046829637
148	0x3bead8e6	0.0071669696
149	0xbc46fcda	-0.012145245
150	0xbd4437bd	-0.04790472
151	0x3d62e2ed	0.055392195
152	0xbca279e8	-0.01983352
153	0x3cc3d039	0.023903
154	0x3c921b78	0.017835364
155	0x3d9a667e	0.0753908
156	0x3d129523	0.03578676
157	0x3d1d45f0	0.038396776
158	0x3d43f681	0.047842506
159	0x3c1e1307	0.009648091
160	0x3c32f73b	0.010923202
161	0xbd37118b	-0.044694465
162	0x3d0c6657	0.034277286
163	0x3cd22df2	0.025656674
164	0x3c888c7b	0.016668549
165	0xba54afc9	-0.0008113352
166	0x3b0b7ca4	0.0021284008
167	0x3c5c04e4	0.0134289
168	0x3d9a5613	0.075359486
169	0x3d68c8b2	0.056832023
170	0x3b9aab20	0.0047201067
171	0xbd71ebcd	-0.059062768
172	0xbc015fb6	-0.007896354
173	0xbcaa9048	-0.020820752
174	0xbd3a2e53	-0.045454334
175	0xbc5bb762	-0.013410421
176	0xbc0989ba	-0.008394653
177	0xbcb28989	-0.021794097
178	0x3d3d8b3c	0.046275362
179	0xbc5f304a	-0.013622353
180	0x3db3f4f7	0.08786958
181	0x3c9b2d30	0.018942446
182	0xbb93a65c	-0.0045059156
183	0xbbb34b65	-0.005471634
184	0x3c0c6b95	0.008570571
185	0xbca314ec	-0.019907437
186	0x3d2b632a	0.041842617
187	0x3c636e16	0.013881227
188	0xbc4a77b9	-0.012357646
189	0xbba88b27	-0.0051435414
190	0xbd25d822	-0.040489323
191	0x3c6fb278	0.014629953
192	0xbd66a6ab	-0.05631129
193	0x3cf34c4f	0.029699473
194	0xbca1a756	-0.019733112
195	0x3d5e6862	0.054298766
196	0x3cf706f0	0.030154675
197	0xbd8c8212	-0.068607464
198	0xbc825629	-0.015910225
199	0x3d7eb4fb	0.062184315
200	0x3c337a04	0.010954384
201	0x3ca4569c	0.02006083
202	0xbd0fb026	-0.035080098
203	0xbb35d5ed	-0.0027745918
204	0xbcc16471	-0.023607465
205	0xbd16755d	-0.03673302
206	0x3c4e6c35	0.012599041
207	0x3c79d1ca	0.0152477715
208	0x3ce57715	0.028010884
209	0x3d34d40b	0.044147532
210	0xbc32be35	-0.010909607
211	0xbd987455	-0.074440636
212	0x3b39a55e	0.0028327326
213	0xbac7fb13	-0.0015257321
214	0x3d1aa0a6	0.037750863
215	0x3d1b5d8b	0.037931006
216	0x3d4f0e71	0.05055088
217	0x3c1ecb2c	0.009691995
218	0x3c903446	0.01760305
219	0x3cb930a9	0.02260621
220	0x3c2ef82f	0.010679289
221	0x3dbdb460	0.092629194
222	0x3c53d276	0.012928596
223	0x3b60f85a	0.0034327717
224	0x3d507767	0.05089512
225	0x3ce9ea40	0.028554082
226	0xbb96dfd4	-0.004604319
227	0xbca3f2c7	-0.020013226
228	0xbd2313f9	-0.03981397
229	0xbcab4278	-0.020905718
230	0x3be3b59c	0.0069491398
231	0xbc8812e7	-0.016610576
232	0x3c99a623	0.018755978
233	0x3c97033d	0.018434161
234	0x3c63d4d3	0.013905722
235	0x3dcdaa6c	0.10042271
236	0xbd734905	-0.05939581
237	0x3d1973ec	0.037464067
238	0x3d815666	0.06315307
239	0x3cf09ab8	0.02937065
240	0xbbe43b6b	-0.006965091
241	0x3bb25d78	0.0054432712
242	0x3cd6de05	0.026228914
243	0xbd411fe8	-0.04714957
244	0x3d97e302	0.07416345
245	0x3af65a27	0.0018795178
246	0x3d2c3c3e	0.04204964
247	0xbd2f10d5	-0.04274066
248	0xbd35973d	-0.044333685
249	0xbd2faa41	-0.042886976
250	0xbd1eacbe	-0.03873896
251	0x3cb1c533	0.021700477
252	0xbd8a1c58	-0.067436874
253	0xbd6fd354	-0.058551148
254	0xbd0e3ab1	-0.03472394
255	0x395438e0	0.00020239083

network.3.bias f4 [256]
0	0x3ceaa581	0.028643372
1	0xbd012743	-0.031531584
2	0xbc50ab9f	-0.01273623
3	0xbd8331e6	-0.06406002
4	0xbd7a4ad8	-0.061106533
5	0xbdd5503f	-0.10415696
6	0xbcec167d	-0.028819317
7	0x3c9e1841	0.019298675
8	0xb84fff30	-4.9590308e-05
9	0xbcb63ee5	-0.022246787
10	0xbcb36cc9	-0.021902459
11	0xbd4ce493	-0.050022673
12	0xbdcf5e48	-0.101254046
13	0x3d17a2e2	0.03702057
14	0xbd5f94ad	-0.054585148
15	0xbc94769d	-0.018122965
16	0xbc843a1c	-0.01614099
17	0xbd0e8abd	-0.03480028
18	0x3b34ca5a	0.0027586431
19	0xbda28f65	-0.079375066
20	0xbd38fe87	-0.04516461
21	0x3d582bcc	0.052776143
22	0xbd6aa71c	-0.057288274
23	0x3d45a76e	0.048255377
24	0xbd08d754	-0.033408478
25	0xbda461e3	-0.08026483
26	0xbd628ba8	-0.055308968
27	0xbcd09733	-0.025462722
28	0xbd258f1e	-0.04041969
29	0xbd9b48b5	-0.07582227
30	0xbd943590	-0.07236779
31	0x3cec8466	0.028871726
32	0xbab37650	-0.0013691876
33	0xbc396aee	-0.011316998
34	0xbd75415c	-0.059876785
35	0x3ca3aedb	0.019980839
36	0xbd7957bd	-0.06087469
37	0xbda85b36	-0.08220522
38	0x3d0ce776	0.034400426
39	0x3c5fc235	0.013657142
40	0xbda0abda	-0.07845278
41	0x3d2a31ae	0.041551284
42	0x3c820861	0.015873136
43	0xbde50868	-0.11183244
44	0xbc7bb021	-0.015361817
45	0x3d36b85b	0.04460941
46	0xbda49307	-0.08035856
47	0xbc836ac3	-0.016042119
48	0xbcf90b94	-0.030401029
49	0x3d477ed3	0.048704933
50	0xbdab27d1	-0.08357204
51	0xbd2685df	-0.040655013
52	0xbd891fbf	-0.06695508
53	0x3d11981a	0.035545446
54	0xbd4b1878	-0.049583882
55	0xbda9cf46	-0.082914874
56	0x3cfab163	0.030602163
57	0xbdc16ce4	-0.09444597
58	0xbd9d3045	-0.07675222
59	0xbd2d9517	-0.04237851
60	0xbdbfa23e	-0.09357117
61	0xbdaf18eb	-0.085496746
62	0xbd7cb50b	-0.061696094
63	0xbd9cde00	-0.07659531
64	0xbd0ede01	-0.03487969
65	0xbdac258a	-0.084055975
66	0xbd7296bb	-0.05922578
67	0x3cf12440	0.02943623
68	0xbd255dcd	-0.04037266
69	0xbcbb38b2	-0.022854183
70	0xbd71e620	-0.059057355
71	0xbc960951	-0.01831499
72	0xbd5797e4	-0.05263509
73	0xbc45a25f	-0.012062638
74	0xbd837127	-0.064180665
75	0xbc3ac91e	-0.011400489
76	0xbda1cf9b	-0.07900926
77	0xbce55150	-0.027992874
78	0xbdbb6953	-0.091509484
79	0xbd478bd4	-0.048717335
80	0xbcd3cefa	-0.02585553
81	0xbd79e25a	-0.06100688
82	0xbca7b2f0	-0.020471066
83	0xbd6bb798	-0.057548136
84	0xbd9d225b	-0.076725684
85	0xbd0da93e	-0.03458523
86	0xbc5c9ffb	-0.013465877
87	0xbd65446e	-0.055973463
88	0xbc312f36	-0.010814479
89	0xbd4b8b84	-0.0496936
90	0xbd415fc1	-0.04721046
91	0xbb743381	-0.0037262144
92	0x3d38c39a	0.045108415
93	0x3c8a84c5	0.016909013
94	0xbc361b5a	-0.01111492
95	0xbd788244	-0.060671106
96	0xbd486bf8	-0.048931092
97	0xbdbe23bd	-0.0928416
98	0xbcc44c94	-0.023962297
99	0x3adbe320	0.0016776063
100	0x3d4b136f	0.04957908
101	0x3d2afdd4	0.041745976
102	0xbd51af97	-0.051192846
103	0xbc5e672f	-0.013574406
104	0xbac0fdd6	-0.0014724087
105	0xbd0b2602	-0.033971794
106	0xbbfa1df5	-0.0076329657
107	0xbdd59e04	-0.1043053
108	0xbd782e32	-0.06059093
109	0xbd88f92a	-0.06688149
110	0xbc4fe28b	-0.012688289
111	0xbcf6b86b	-0.030117234
112	0xbdbbf628	-0.0917781
113	0x3cda81a0	0.026673138
114	0xbdbfc660	-0.09364009
115	0xbdbc57ed	-0.09196458
116	0xbcad8dfe	-0.021185871
117	0xbbb4c210	-0.005516298
118	0xbc4564c5	-0.012047951
119	0xbd8ef4e8	-0.06980306
120	0xbd7b708a	-0.061386622
121	0x3ca5b9a3	0.02023012
122	0xbcd59d7b	-0.02607607
123	0xbc23ea10	-0.010004535
124	0x3ccfdc9e	0.025373753
125	0xbd77004e	-0.060303025
126	0xbd3bf40e	-0.045887046
127	0xbc4f9f43	-0.012672248
128	0xbd0962bc	-0.033541426
129	0xbcc6ab03	-0.024251467
130	0xbdc84587	-0.09778886
131	0xbd9cd73c	-0.0765824
132	0x3c90ab87	0.017659916
133	0xbd44d91d	-0.048058618
134	0xbd5341ca	-0.051576413
135	0xbdc34d80	-0.09536266
136	0xbdab3e2c	-0.08361468
137	0xbca11f49	-0.019668238
138	0x3ceb531b	0.028726151
139	0xbdc20a6b	-0.09474643
140	0x3c352382	0.011055829
141	0xbd3517c0	-0.044212103
142	0xbc35c716	-0.011094829
143	0xbc968ec0	-0.018378615
144	0xbcf12961	-0.029438676
145	0xbc23bf9c	-0.009994414
146	0xbd39622c	-0.04525964
147	0xbd0c3e21	-0.03423894
148	0xbd02dbd5	-0.03194793
149	0xbd844902	-0.06459238
150	0xbd7abe98	-0.06121692
151	0x3d349b10	0.04409319
152	0xbd311729	-0.043234978
153	0xbd1f4bfd	-0.038890827
154	0xba9672b2	-0.0011478274
155	0xbd197ec7	-0.03747442
156	0xbd297352	-0.041369744
157	0xbd09ca8f	-0.03364044
158	0xbdab45f2	-0.083629504
159	0xbd2dab47	-0.04239967
160	0x3d36d5fb	0.04463766
161	0xbda0b37e	-0.078467354
162	0xbd892f9e	-0.066985354
163	0xbda1c62d	-0.07899127
164	0xbda8fd90	-0.08251488
165	0xbc6f8b10	-0.014620557
166	0x3a9e6754	0.0012085238
167	0x3a6aa2d5	0.00089506555
168	0xbd67247c	-0.05643128
169	0x3ca5c84d	0.020237112
170	0x3cbb782c	0.02288445
171	0xbd7a648c	-0.061131045
172	0xbcc42787	-0.02394463
173	0xbd07bec3	-0.03314091
174	0xbcb4bdd9	-0.022063183
175	0xbd2dfea4	-0.042479172
176	0x3d24143f	0.04005837
177	0xbd665606	-0.056234382
178	0xbc8a6390	-0.016893178
179	0xbd0a4630	-0.033758342
180	0xbd11a8f1	-0.035561506
181	0xbc94d8a0	-0.018169701
182	0xbd51b27c	-0.051195607
183	0xbd021cd3	-0.03176577
184	0xbce4ceb6	-0.027930599
185	0x3ca6b114	0.02034811
186	0xbda3c57d	-0.07996652
187	0xbd67bfd7	-0.056579437
188	0xbcb5e172	-0.022202227
189	0x3d319f86	0.043365024
190	0x3cc87244	0.024468549
191	0xbd46fe86	-0.048582576
192	0xbd1d85aa	-0.03845755
193	0xbcbdc5b1	-0.023165556
194	0x3d0d2305	0.034457225
195	0xbdc2148a	-0.09476574
196	0xbcd9ab9d	-0.02657109
197	0x3d1b5152	0.03791935
198	0xbce23813	-0.027614629
199	0xbd8fcb93	-0.070212506
200	0xbda0497c	-0.07826516
201	0x3c7821da	0.01514479
202	0xbd5a7655	-0.053335506
203	0xbce8fff9	-0.02844237
204	0xbd136310	-0.035983145
205	0xbce983f6	-0.028505307
206	0xbdc0716d	-0.09396634
207	0x3c32ab32	0.010905074
208	0x3c2e89ef	0.010653003
209	0xbd48a0f2	-0.048981614
210	0xbd66b0d1	-0.05632097
211	0x3cf8f5b1	0.030390592
212	0x39ac2154	0.00032831228
213	0x3d017344	0.031604066
214	0x3bd932cc	0.00662837
215	0xbd165d87	-0.03671029
216	0xbd97d9af	-0.07414567
217	0xbcf1ff1f	-0.029540597
218	0xbce0125d	-0.027352506
219	0x3c9cfbd8	0.019163057
220	0xbd88c5d3	-0.06678357
221	0xbd664bc5	-0.056224603
222	0xbd63c3da	-0.0556067
223	0xbc1d330f	-0.009594693
224	0x3bdea26d	0.006794265
225	0x3cd2008e	0.02563503
226	0xba779479	-0.00094444264
227	0xbdcbb868	-0.09947282
228	0xbd0d4533	-0.03448982
229	0xbcf6ac80	-0.030111551
230	0x3cfcf6bc	0.03087937
231	0xbd7d3a3a	-0.061823107
232	0xbdb00a59	-0.08595724
233	0xbc941f09	-0.018081205
234	0xbcb0fe51	-0.021605643
235	0xbd9727ae	-0.07380615
236	0xbd036add	-0.032084335
237	0xbdbd6e31	-0.09249533
238	0xbd3104c0	-0.04321742
239	0x3d011909	0.031518016
240	0xbd319570	-0.043355405
241	0xbc3f2cd9	-0.011668407
242	0xbd89cb05	-0.06728176
243	0xbd4f4cd1	-0.050610367
244	0xbc645edd	-0.013938633
245	0x3d06d50d	0.032918025
246	0xbdaab8e4	-0.08336046
247	0xbd86d295	-0.06583134
248	0xbd0f466e	-0.034979276
249	0x3c862787	0.01637627
250	0x3d72abdb	0.059245925
251	0xbd839fbe	-0.06426953
252	0xbd4e28aa	-0.05033175
253	0xbced2e54	-0.028952755
254	0xbd08a78a	-0.033362903
255	0xbc93d9e0	-0.018048227

network.6.weight f4 [128, 256]
0	0xbd17ca63	-0.037058245
1	0xbd9cd2fb	-0.07657429
2	0xbce7e635	-0.028308013
3	0xbd6e44a1	-0.05817092
4	0xbc2e5b18	-0.010641836
5	0xbdb1a906	-0.08674817
6	0xbda69fcf	-0.0813595
7	0xba6336f3	-0.0008667551
8	0xbcd89003	-0.026435858
9	0xbd49c4e2	-0.049260028
10	0xbc9071ff	-0.017632483
11	0xbdd3f1c1	-0.10348845
12	0xbcfbcd69	-0.030737596
13	0xbdc03f9b	-0.09387132
14	0xbd84f62e	-0.064922675
15	0xbde17052	-0.110077515
16	0xbb541fa1	-0.0032367485
17	0x3b053430	0.0020325296
18	0xbd763dab	-0.060117405
19	0xbc9316c1	-0.017955186
20	0xbd5cb613	-0.053884577
21	0xbdf78869	-0.12086565
22	0xbdbc9795	-0.092085995
23	0xbd8706d7	-0.065931015
24	0xbd8a338a	-0.067481115
25	0xbde4ecd5	-0.111779846
26	0xbd384569	-0.04498807
27	0x3af31eb1	0.0018548575
28	0xbddb9044	-0.10720876
29	0xbd1a7280	-0.037706852
30	0xbcea8e19	-0.02863221
31	0xbdda28a7	-0.10652285
32	0xbb8c5adc	-0.004283292
33	0x3aabe3db	0.0013114171
34	0xbd900bb3	-0.070334814
35	0xbd0cbc31	-0.03435916
36	0xbdd5d56e	-0.10441099
37	0x3b18c180	0.0023308694
38	0xbc3cf968	-0.011534072
39	0xbdb5dd4b	-0.08880099
40	0x3d9b9c5d	0.07598183
41	0xbd4e10a6	-0.050308846
42	0xbd50562c	-0.05086343
43	0xbd676062	-0.056488402
44	0xbdadbd7b	-0.08483406
45	0xbde00ea4	-0.109402925
46	0xbde14c63	-0.11000898
47	0xbd305f29	-0.0430595
48	0xbde03e3b	-0.109493695
49	0xbd968d5b	-0.0735118
50	0xbd1e630a	-0.03866867
51	0xbcd119e4	-0.02552504
52	0xbd668dd5	-0.056287605
53	0xbc975d81	-0.018477203
54	0xbd60135a	-0.054705955
55	0xbd915396	-0.07096021
56	0xbda0c69e	-0.07850383
57	0xbd5bb14c	-0.05363588
58	0xbdd1a917	-0.102373295
59	0xbbf0b427	-0.0073456946
60	0xbd21452c	-0.039372608
61	0x3cb2ab93	0.021810329
62	0xbd2b2162	-0.041779883
63	0xbc1dd846	-0.009634083
64	0x3cafbcb8	0.021452293
65	0xbdd265ef	-0.102733485
66	0xbdb1abc5	-0.086753406
67	0xbdb6f2fa	-0.08933063
68	0x3de715ba	0.11283441
69	0xbd2598e8	-0.040429026
70	0xbcf6ca1e	-0.030125674
71	0x3b1abbd4	0.002361049
72	0xbcdad166	-0.026711177
73	0xbdbda5f6	-0.0926017
74	0xbd460eaa	-0.04835383
75	0xbdaa2fd5	-0.083099045
76	0x3b04d91e	0.0020271013
77	0xbd0e8438	-0.034794062
78	0xbdbbec25	-0.091759
79	0xbda1a145	-0.07892088
80	0xbc5c357c	-0.013440486
81	0x3d46d012	0.048538275
82	0xbccb22ee	-0.02479693
83	0xbd7230e4	-0.059128657
84	0x3c08e256	0.008354744
85	0xbdc60ea6	-0.09670763
86	0xbd303e3d	-0.043028105
87	0xbc9b683b	-0.0189706
88	0xbd36d5f1	-0.044637624
89	0xbdf10c2e	-0.11769901
90	0xbcf98b43	-0.030461913
91	0xbcffa875	-0.031208256
92	0xbc8325a9	-0.016009169
93	0xbdb850bc	-0.08999774
94	0xbdebd8df	-0.11515974
95	0xbd648f56	-0.05580076
96	0xbd96423e	-0.073368534
97	0xbd365aee	-0.04452031
98	0xbdbf3125	-0.093355455
99	0xbc9f3fae	-0.019439545
100	0xbdbedfe8	-0.093200505
101	0xbdb4f542	-0.08835842
102	0xbddcae7d	-0.107754685
103	0xbd1ca372	-0.03824181
104	0xbca191c8	-0.019722834
105	0xbde6d0da	-0.11270304
106	0xbd6da37b	-0.058017235
107	0xbd9b77e9	-0.075912304
108	0x3cb350dd	0.021889145
109	0xbbec6eab	-0.007215341
110	0xbd1fdc51	-0.03902847
111	0xbd11fe65	-0.035643
112	0xbd232cb8	-0.03983757
113	0xbdb54f85	-0.08853058
114	0xbd4b8b0a	-0.049693145
115	0xbc42aaa9	-0.011881509
116	0xbda79b63	-0.081839345
117	0xbcecdc6f	-0.028913705
118	0xbdc2d810	-0.09513867
119	0xbdd26a63	-0.10274198
120	0xbd677aa4	-0.056513444
121	0xbdac2751	-0.084059365
122	0xbc72cc37	-0.014819196
123	0xbd46b9c7	-0.048517015
124	0xbd5b637a	-0.053561665
125	0xbdf5eb4f	-0.12007772
126	0xbd93ff37	-0.07226413
127	0xbde6c494	-0.11267963
128	0xbdad88f9	-0.08473391
129	0xbdb0d431	-0.08634222
130	0xbc0242ea	-0.007950524
131	0xbdf71450	-0.12064421
132	0xbdf25c71	-0.11834038
133	0xbc9ed4e5	-0.019388625
134	0xbd98c43f	-0.07459306
135	0x3d8ff9f5	0.070300974
136	0xbcb9fa56	-0.022702377
137	0xbd301f13	-0.042998385
138	0xbde74d2c	-0.11294016
139	0xbc78f536	-0.015195182
140	0xbca38d29	-0.019964771
141	0xbd929498	-0.07157248
142	0xbd810796	-0.06300275
143	0xbccf7c09	-0.0253277
144	0xbc983472	-0.018579695
145	0xbd72a1aa	-0.059236206
146	0xbbae49fa	-0.0053188773
147	0xbc463a67	-0.012098885
148	0xbdb99551	-0.09061683
149	0xbd7bd4d5	-0.06148227
150	0xbd9c6b25	-0.07637624
151	0xbdc285c1	-0.09498168
152	0xbd28da72	-0.04122395
153	0xbcd42c28	-0.025899962
154	0xbd43b403	-0.047779094
155	0xbd9e7f76	-0.07739155
156	0xbc9f757a	-0.019465197
157	0xbdbca8e7	-0.09211903
158	0x39000dc0	0.00012212154
159	0xbd9f5de9	-0.07781584
160	0xbd3a6382	-0.045505054
161	0xbd8f1ef5	-0.069883265
162	0xbd50a136	-0.050934993
163	0xbdaf5849	-0.08561761
164	0xbdad408e	-0.084595785
165	0xbd8f2315	-0.06989113
166	0xbd53a9fe	-0.05167579
167	0xbd7e4b91	-0.062083784
168	0x3c489863	0.012243363
169	0xbc232112	-0.009956615
170	0xbdb90cea	-0.09035666
171	0xba49b9cb	-0.0007695227
172	0xbc7a303c	-0.015270289
173	0x3d87d457	0.066322975
174	0xbd009146	-0.031388544
175	0xbd8986c1	-0.067151554
176	0xbbfeb847	-0.0077734324
177	0xbd3cc667	-0.04608765
178	0xbcfe98ff	-0.031078814
179	0xbdebc842	-0.115128055
180	0xbdfd40d3	-0.1236588
181	0xbd8df912	-0.06932272
182	0xbd5f3646	-0.05449512
183	0xbda7b421	-0.08188654
184	0xbcb29526	-0.021799635
185	0xbc334379	-0.01094138
186	0xbd0aacdf	-0.03385627
187	0xbdcb1c7c	-0.09917542
188	0xbc679afa	-0.01413607
189	0xbbbd2de6	-0.005773294
190	0xbdfcffcb	-0.12353476
191	0xbce33651	-0.027735861
192	0xbda4d2a7	-0.08047991
193	0x3c20d370	0.009816036
194	0xbdf2d6e0	-0.118573904
195	0xbd81a6fc	-0.06330678
196	0xbd402f21	-0.046919946
197	0xbd5610ac	-0.052261993
198	0xbcf9440f	-0.03042796
199	0xbd9391ea	-0.07205565
200	0xbc87a26f	-0.016556947
201	0xbddfd3c1	-0.10929061
202	0xbdc59323	-0.09647205
203	0x3bf246a8	0.007393677
204	0xbcc0b529	-0.023523884
205	0x3b2b152a	0.0026105144
206	0xbbfacfde	-0.007654174
207	0xbd0a9d5c	-0.033841476
208	0xbd1c904f	-0.03822356
209	0xbdcac799	-0.099013515
210	0xbdbd51ae	-0.09244095
211	0xbd503461	-0.050831202
212	0xbd2d8678	-0.042364568
213	0xbb9fd310	-0.0048774555
214	0xbc21abb0	-0.009867594
215	0xbcecbbbb	-0.02889811
216	0xbdab5cd9	-0.08367319
217	0xbda6a66d	-0.08137212
218	0x3c059efd	0.008155582
219	0xbd49e69c	-0.049292192
220	0xbddb3f78	-0.10705465
221	0xbd9b0349	-0.07568986
222	0xbc68c469	-0.014206984
223	0xbb994d45	-0.0046784007
224	0xbd909417	-0.07059496
225	0xbd447db1	-0.04797143
226	0xbdad1b81	-0.084525116
227	0x3bf8819c	0.00758381
228	0xbcb01710	-0.021495372
229	0xbcab6e34	-0.020926572
230	0xbbfbd302	-0.007685066
231	0x3b8b2494	0.004246304
232	0xbcf122ef	-0.029435603
233	0xbd106e35	-0.03526135
234	0xbd18ce77	-0.037306275
235	0xbc9f6c85	-0.019460926
236	0xbd407c79	-0.046993706
237	0xbd76e2b3	-0.06027479
238	0xbdc55df5	-0.096370615
239	0xbd486643	-0.04892565
240	0xbd9f48a5	-0.07777528
241	0xbc7f2566	-0.015572881
242	0xbdddb7d2	-0.108260766
243	0xbca6cdde	-0.020361837
244	0xbcb3d768	-0.0219533
245	0xbde5cdb2	-0.11220874
246	0x3c5a2980	0.013315558
247	0xbd310f0f	-0.04322725
248	0xbda49032	-0.080353156
249	0xbdbf305a	-0.09335394
250	0xbde48997	-0.11159056
251	0xbda79ef8	-0.08184618
252	0xbd5a9ec4	-0.053374067
253	0xbcd44077	-0.025909645
254	0xbd4177ea	-0.0472335
255	0xbdcec4a7	-0.10096102

network.6.bias f4 [128]
0	0xbe073ffa	-0.13207999
1	0x3cb7f4af	0.022455541
2	0xbd83d0cf	-0.064363115
3	0x3d152ac8	0.036417753
4	0xbdc92b96	-0.098227665
5	0xbd939b55	-0.072073616
6	0xbd93da5b	-0.072193824
7	0xbd919142	-0.07107784
8	0x3d7f1c17	0.062282648
9	0xbd020b37	-0.031748977
10	0xbdba63b4	-0.09101048
11	0xbd22611e	-0.0396434
12	0xbd8e6673	-0.069531344
13	0x3d94d530	0.07267225
14	0x3cda1176	0.026619654
15	0x3bafba6e	0.0053628003
16	0x3d91d76a	0.07121165
17	0xbd195d38	-0.037442416
18	0x3d227345	0.03966071
19	0xbc8948f8	-0.016758427
20	0xbcf9f2cb	-0.03051128
21	0xbc870c47	-0.016485346
22	0xbd7b65b5	-0.061376292
23	0xbcbd5a07	-0.023114217
24	0xbd8626e0	-0.065503836
25	0xbbf4380e	-0.0074529713
26	0xbd1049e4	-0.035226718
27	0xbdb9c6fe	-0.09071158
28	0xbccf37e1	-0.0252952
29	0xbd368650	-0.044561684
30	0x3cbfe2fb	0.023423662
31	0x3d3e5f7f	0.04647779
32	0xbcf5e26f	-0.030015199
33	0xbd8cf991	-0.068835385
34	0x3dbf0f4d	0.0932909
35	0xbca11b82	-0.019666437
36	0xbd3cfbd3	-0.046138596
37	0x3d33b6ee	0.043875627
38	0x3d7255a1	0.059163693
39	0xbbf1bf88	-0.0073775686
40	0xbce57067	-0.0280077
41	0xbd57e914	-0.052712515
42	0x3ca14018	0.019683883
43	0xb88faf60	-6.8514375e-05
44	0xbd2a0afb	-0.041514378
45	0xbdb257b8	-0.08708137
46	0xbdbb824f	-0.09155714
47	0xbdd88dc6	-0.10573916
48	0xbd704414	-0.058658674
49	0xbc4b4490	-0.012406483
50	0x3cd8b42f	0.026453106
51	0x3c91ac51	0.017782362
52	0x3c008d0c	0.007846128
53	0xbd19df97	-0.037566748
54	0xbd799d92	-0.060941286
55	0xbddf6b1b	-0.109091006
56	0xbd7ab5ff	-0.06120872
57	0x3c74e957	0.014948211
58	0x3ce830b9	0.028343545
59	0x3d6240a6	0.055237435
60	0xbd9b7aa9	-0.07591755
61	0xbd42df60	-0.04757631
62	0xbc1623b0	-0.009163782
63	0xbcd94a86	-0.026524793
64	0xbb53ba92	-0.003230725
65	0xbc805a6c	-0.015668117
66	0xbdb190b5	-0.08670179
67	0xbdd1f83b	-0.10252424
68	0xbc0c894b	-0.008577655
69	0x3d101b12	0.035182066
70	0xbc9afc53	-0.018919146
71	0xbbae84fb	-0.005325911
72	0xbddae11d	-0.10687468
73	0xbdbe1e46	-0.09283118
74	0x3dcf5de5	0.10125331
75	0xbcb2900a	-0.021797199
76	0xbb7d7554	-0.003867467
77	0x3d7b4395	0.061343748
78	0xbd7403db	-0.05957399
79	0x3d91c479	0.07117552
80	0xbd4a1655	-0.049337704
81	0xbdbc810d	-0.09204302
82	0x3d6178d6	0.05504688
83	0x3d819e4e	0.06329022
84	0xbaad4344	-0.0013218899
85	0x3c750330	0.014954373
86	0xbcd68fb9	-0.02619158
87	0x3d9170a1	0.071015604
88	0x3d3f8cf3	0.04676528
89	0xbd9f6e3d	-0.07784698
90	0xbc46ad9e	-0.0121263545
91	0xbd2cc8ac	-0.042183563
92	0xbc878bcf	-0.016546158
93	0xbd4b3130	-0.049607456
94	0xbc867bac	-0.016416393
95	0xbd2e22ec	-0.042513773
96	0xbd5ee607	-0.05441859
97	0x3d09fbcb	0.033687394
98	0xbbe854d8	-0.0070901923
99	0xbd8d06fe	-0.06886099
100	0xbc4037bc	-0.011732038
101	0xbd661d1b	-0.0561801
102	0x3d422f7b	0.047408562
103	0xbd8ff093	-0.07028308
104	0x3d8b8df3	0.06814184
105	0xbc1ac35a	-0.0094459895
106	0xbde4ddce	-0.111751184
107	0xbd3b2544	-0.045689836
108	0x3da140ee	0.078737125
109	0x3d05b1f8	0.032640427
110	0x3da31a0d	0.07963953
111	0x3c436db0	0.011928007
112	0xbd93db4e	-0.072195634
113	0xbccd7387	-0.025079502
114	0xbdb13069	-0.08651812
115	0x3be7201a	0.0070533874
116	0x3d8bc788	0.06825167
117	0x3d8ca16d	0.06866727
118	0x3cdb7078	0.026787028
119	0x3d41bc5c	0.047298774
120	0x3d86d57c	0.06583688
121	0xbcef944e	-0.029245522
122	0x3d078ed7	0.033095207
123	0xbbfa09b5	-0.0076305517
124	0xbd613eaa	-0.0549914
125	0xbc7bfc17	-0.015379927
126	0x3c905ed0	0.017623335
127	0xbda435e1	-0.08018089

network.9.weight f4 [64, 128]
0	0x3c516a18	0.012781642
1	0xbe0bb76e	-0.13644192
2	0xbd4738fb	-0.048638325
3	0x3bf45530	0.007456444
4	0xbb9de148	-0.0048181154
5	0xbe0d0ee0	-0.13775206
6	0x3ca92a88	0.020650163
7	0xbddc9ada	-0.10771723
8	0xbdb5515b	-0.08853408
9	0xbdbbd978	-0.09172338
10	0xbd994747	-0.07484298
11	0xbc1e1352	-0.009648161
12	0xbe07e344	-0.13270289
13	0xbdc28cba	-0.09499498
14	0x3ccf17e8	0.025279954
15	0xbd7f420f	-0.062318858
16	0xbc1e4004	-0.009658817
17	0xbdeb03e9	-0.11475355
18	0x3b7bfc2c	0.0038449867
19	0xbd5504c1	-0.052006487
20	0xbdac15dc	-0.08402607
21	0xbdd11fd6	-0.1021115
22	0xbdc381c9	-0.09546239
23	0xbda3462b	-0.07972368
24	0x3b555ee0	0.003255777
25	0xbba8f773	-0.0051564514
26	0xbe0de18a	-0.13855568
27	0xbd6f164f	-0.058370885
28	0xbc3a779f	-0.011381059
29	0xbaae00f2	-0.0013275428
30	0xbcc5905d	-0.02411669
31	0xbdbcdd36	-0.0922188
32	0xbdd86b6c	-0.10567364
33	0xbe002746	-0.12514982
34	0xbd2e902e	-0.04261797
35	0x3c25ecfd	0.010127303
36	0xbde78227	-0.113041215
37	0xbc3ee087	-0.011650211
38	0x3c34137d	0.0109909745
39	0xbdb27332	-0.08713378
40	0xbdcc33fe	-0.09970854
41	0xbd8572c0	-0.065160275
42	0xbd88646d	-0.0665978
43	0x3cd9d278	0.026589617
44	0xbdefb446	-0.11704306
45	0xbdbd5d8e	-0.0924636
46	0xbb65cf79	-0.003506629
47	0xbde17b6a	-0.110098675
48	0xbd714d95	-0.05891188
49	0x3c961e0c	0.018324874
50	0xbd29ce6f	-0.041456636
51	0xbdbb2923	-0.091387056
52	0x3c83599d	0.016033942
53	0xbcc8ae04	-0.02449704
54	0xbb8f5736	-0.00437441
55	0xbcc49b2d	-0.023999775
56	0x3cf8752f	0.030329315
57	0xbd9768dd	-0.07393048
58	0xbd8aca6b	-0.067768894
59	0xbda3c6e0	-0.07996917
60	0xbdcbb1bb	-0.09946009
61	0xbdbe5576	-0.09293644
62	0xbdb34fd2	-0.08755459
63	0xbe066a74	-0.13126546
64	0xbdc32e92	-0.09530367
65	0xbcd1cc8b	-0.025610229
66	0xbd8e7a51	-0.06956924
67	0xbcb86053	-0.022506868
68	0xbc16c1e1	-0.009201498
69	0xbc78c076	-0.015182605
70	0xbd0acb90	-0.03388554
71	0xbd80d6fa	-0.062910035
72	0xbd39e8f0	-0.045388162
73	0xbd46dd08	-0.048550636
74	0xbe03d2f6	-0.12873444
75	0xbdf8e343	-0.12152722
76	0xbcd2d150	-0.025734574
77	0xbdedc7b3	-0.11610355
78	0xbd220254	-0.039553
79	0xbda50cf3	-0.080591105
80	0xbd954c05	-0.0728989
81	0xbdfa95df	-0.12235617
82	0xbd4773cf	-0.048694428
83	0xbc38b99b	-0.011274721
84	0xbd968082	-0.0734873
85	0xbceb109e	-0.028694447
86	0xbc24813a	-0.010040576
87	0xbd9a0993	-0.075213574
88	0xbdd30cf7	-0.10305207
89	0x3ce8c49e	0.028414067
90	0xbcdbcd49	-0.026831286
91	0xbc427412	-0.011868494
92	0xbcf409c8	-0.02978982
93	0xbd9b4224	-0.07580975
94	0xbd48084f	-0.04883605
95	0xbcbfc3a1	-0.023408713
96	0xbd93b375	-0.07211963
97	0xbdf05930	-0.11735761
98	0xbd665d94	-0.056241587
99	0xbe0aea7a	-0.13566008
100	0xbd8c834c	-0.068609804
101	0xbdceb435	-0.100929655
102	0xbdbf8f5c	-0.093535155
103	0xbd16d389	-0.03682283
104	0x3c1df3aa	0.009640614
105	0xbdfa2f89	-0.12216098
106	0xbc126d17	-0.008937142
107	0xbcc85bbb	-0.024457803
108	0xbdc16eb7	-0.09444945
109	0xbdd6defd	-0.104917504
110	0xbb7c6521	-0.0038512426
111	0x3c5cd590	0.013478652
112	0xbdf41635	-0.11918298
113	0x3c7b8011	0.015350358
114	0xbd0fabf8	-0.03507611
115	0xbe0e548e	-0.13899443
116	0xbc8df631	-0.017329307
117	0xbdd8259c	-0.105540484
118	0xbda06c91	-0.078332074
119	0xbcf8ce96	-0.030371945
120	0x3c1dbb1a	0.009627128
121	0xbddaa8db	-0.10676738
122	0xbe0c17d2	-0.13680962
123	0xbd78f120	-0.06077683
124	0xbd3397e8	-0.04384604
125	0xbdbca82a	-0.09211762
126	0xbdf329ba	-0.11873193
127	0xbde6942a	-0.11258729
128	0xbc7a89a0	-0.015291601
129	0x3ccb2645	0.024798522
130	0x3d60aba5	0.054851193
131	0x3c1c726a	0.009548763
132	0xbd598a0d	-0.05311017
133	0xbc5c874a	-0.01345999
134	0xbc53c381	-0.01292503
135	0xbd6a6945	-0.0572293
136	0xbd26c967	-0.040719416
137	0xbd8fa8ca	-0.07014616
138	0x3b1b9b91	0.0023743848
139	0xbc748a8a	-0.014925608
140	0xbcdc1acc	-0.026868246
141	0xbd96fdf1	-0.07372654
142	0xbd0e3f69	-0.03472844
143	0x3d51314f	0.051072415
144	0xbd6ff015	-0.05857857
145	0x3c396972	0.011316644
146	0xbc103561	-0.008801789
147	0xbdb9c557	-0.09070843
148	0xbcfa759c	-0.030573659
149	0xbd3686c2	-0.04456211
150	0x38d60bf8	0.000102065445
151	0x3c2cc8a3	0.010545882
152	0x3c266018	0.0101547465
153	0xbdb9f1c9	-0.0907932
154	0xbdf46576	-0.11933415
155	0x3c3e0851	0.0115986625
156	0xbd93cac5	-0.072164096
157	0x3b84f90a	0.004058008
158	0xbd5a3a42	-0.053278215
159	0xbe056366	-0.13026199
160	0xbdcfba04	-0.101429015
161	0x3db04ddf	0.08608603
162	0xbd879e81	-0.06622029
163	0xbdfb3e6b	-0.12267765
164	0xbdaec8c3	-0.08534386
165	0xbd83242b	-0.06403383
166	0xbd5943c4	-0.053043142
167	0xbdab5bc0	-0.08367109
168	0xbcac2950	-0.021015793
169	0x3ce57047	0.02800764
170	0xbcc1e705	-0.023669729
171	0xbd98e06b	-0.07464679
172	0xbcd6e6a5	-0.026233027
173	0xbd483c6c	-0.048885748
174	0xbd041b84	-0.032252803
175	0xbdb2d7b1	-0.08732546
176	0xbc5cc695	-0.01347508
177	0xbc9655eb	-0.018351516
178	0x3ca96b9b	0.020681193
179	0xbd706576	-0.05869051
180	0x3d1e9785	0.03871872
181	0xbd77e038	-0.060516566
182	0xbda39f35	-0.07989351
183	0xbe07329e	-0.13202903
184	0xbceb9a28	-0.02876003
185	0xbcf08fff	-0.029365538
186	0x3bf86e24	0.007581489
187	0xbdea6232	-0.114445105
188	0xbd6f9cd3	-0.05849917
189	0x3cdd37c9	0.02700414
190	0x3cb23b03	0.021756655
191	0xbe08d90c	-0.13364047
192	0x39e9449c	0.0004449234
193	0xbdca10a6	-0.09866457
194	0x3c6ca2b2	0.014443086
195	0xbc198ca0	-0.0093719065
196	0xbdf47b3b	-0.11937567
197	0xbd9f21c9	-0.07770116
198	0xbd70ed5c	-0.058820114
199	0xbd0a91c2	-0.03383041
200	0x3cd0bd90	0.025481015
201	0xbd00a786	-0.031409763
202	0xbe08b8f0	-0.13351798
203	0x3cbb1b58	0.022840187
204	0xbd47e122	-0.048798688
205	0x3d127b52	0.03576214
206	0xbd107be6	-0.03527441
207	0x3d36463a	0.044500567
208	0x3d36f50f	0.0446673
209	0xbe1044fd	-0.14088817
210	0xbd9449f2	-0.072406664
211	0x3ccc6d65	0.024954507
212	0x3cb104d3	0.021608746
213	0xbdb71be4	-0.089408666
214	0xbd480da6	-0.04884114
215	0x3d9d8785	0.07691864
216	0xbd39c926	-0.045357846
217	0x3cd25c37	0.025678737
218	0xbae7037a	-0.0017624937
219	0x3d023df1	0.031797353
220	0xbe0b5791	-0.13607623
221	0xbe070eb8	-0.13189209
222	0xbdb9a913	-0.090654515
223	0xbd84fd4a	-0.064936236
224	0x3d20ef89	0.03929094
225	0xbe0dccb9	-0.13847627
226	0xbc47e7ac	-0.012201231
227	0xbdf746b0	-0.120740294
228	0x3b2adb37	0.0026070604
229	0xbe05d9ff	-0.1307144
230	0xbd740a33	-0.05958004
231	0xbdc70ed3	-0.09719624
232	0xbd981bde	-0.0742719
233	0x3b967016	0.0045909984
234	0xbcf98e1d	-0.030463273
235	0xbda28634	-0.079357535
236	0xbb0fe705	-0.0021957767
237	0xbcda94ce	-0.026682284
238	0xbcde92d3	-0.02716962
239	0x3cb689ee	0.022282567
240	0xbdaf4f6d	-0.08560071
241	0x3ccbb19c	0.024864964
242	0xbd1e1c27	-0.038601067
243	0xbca74e53	-0.02042309
244	0xbcf2975b	-0.029613188
245	0xbd7bf4a5	-0.061512608
246	0xbdba5003	-0.09097292
247	0xbc9ae725	-0.018909046
248	0xbd8675da	-0.06565447
249	0xbe0c2da9	-0.13689293
250	0x3d5b8543	0.053593885
251	0xbcc0c9dc	-0.023533754
252	0xbdc9571c	-0.09831068
253	0xbe056892	-0.13028172
254	0xbe09f96c	-0.13474053
255	0xbd94d400	-0.07266998

network.9.bias f4 [64]
0	0xbc810295	-0.015748302
1	0xbd631183	-0.055436622
2	0xbdee2cb6	-0.11629622
3	0x3d24e82b	0.040260475
4	0x3c04ce8b	0.008105884
5	0xbd6054f5	-0.05476852
6	0x3d2cbb6f	0.042170938
7	0xbdff8c42	-0.12477924
8	0xbd994f1d	-0.07485793
9	0xbd112c04	-0.035442367
10	0xbd4eaaac	-0.050455734
11	0xbda715e4	-0.08158472
12	0xbdead3e1	-0.11466194
13	0x3e158e30	0.14605021
14	0xbd82578d	-0.06364355
15	0xbdd9bc70	-0.10631645
16	0x3d000dcb	0.031263154
17	0xbdce970b	-0.10087403
18	0x3e13f6a2	0.14449552
19	0xbcd787c0	-0.026309848
20	0xbcae96fb	-0.021312227
21	0x3ddb376f	0.107039325
22	0x3d80a315	0.062811054
23	0x3cbe47d6	0.023227613
24	0x3de95001	0.11392213
25	0x3ca05c9e	0.019575413
26	0x3df3e414	0.11908737
27	0xbd8313f0	-0.06400287
28	0xbdcf8c88	-0.10134226
29	0xbd708e5c	-0.058729514
30	0xbdc28b09	-0.09499175
31	0xbd970364	-0.073736936
32	0x3cb8c47c	0.022554629
33	0xbd21b1b8	-0.039476126
34	0xbcc26544	-0.023729928
35	0xbe0d3035	-0.13787921
36	0xbc23676e	-0.00997339
37	0xbe0c83ea	-0.13722196
38	0xbd887064	-0.06662062
39	0xbd5c885d	-0.053840984
40	0xbda65e54	-0.081234604
41	0x3c1e3904	0.009657148
42	0xbd5dfc7d	-0.05419587
43	0x3c8fc0fc	0.017548077
44	0xbdc39684	-0.09550193
45	0x3c5738c2	0.013136091
46	0xbda07767	-0.07835274
47	0xbd2ea45b	-0.04263721
48	0xbd223c0f	-0.039608058
49	0xbdaefa4b	-0.08543833
50	0xbcdd3f15	-0.027007619
51	0xbdf31863	-0.11869886
52	0x3cd2268f	0.025653152
53	0x3d7b2dd8	0.061323017
54	0xbe091652	-0.13387421
55	0xbd89655e	-0.067087874
56	0x3afae970	0.0019143056
57	0x3dd45065	0.103668965
58	0x3d2876b0	0.041128814
59	0x3ccbfe4a	0.024901528
60	0x3df898a6	0.121384904
61	0xbbc9a793	-0.0061540096
62	0xbd21208b	-0.039337676
63	0x3dfd099d	0.12355349

network.12.weight f4 [1, 64]
0	0xbbb0a668	-0.005390931
1	0x3b572519	0.0032828508
2	0x3cb10931	0.021610828
3	0xbcf4ce19	-0.029883431
4	0x3d20d743	0.03926779
5	0xbba6c041	-0.0050888364
6	0xbd0d8bf1	-0.034557287
7	0x3d27febb	0.041014414
8	0x3c2405c4	0.01001114
9	0xbd9531c0	-0.0728488
10	0x3b35a582	0.0027717059
11	0xbd368fb6	-0.044570647
12	0xbd1e8c5b	-0.038708072
13	0xbce5c440	-0.02804768
14	0x3d4318e6	0.047631167
15	0xbc7ade1c	-0.015311744
16	0x3d3e9d66	0.046536826
17	0xbd804199	-0.06262512
18	0xbd581acd	-0.052759934
19	0x3cdd93e3	0.027048057
20	0x3d8858c2	0.06657554
21	0xbbebd309	-0.007196788
22	0xbda25b88	-0.079276145
23	0xbcb48606	-0.022036564
24	0xbd9d84e4	-0.076913625
25	0xbd247ea9	-0.040159855
26	0xbd9b067b	-0.075695954
27	0x3c11d08b	0.008899818
28	0x3d8482b4	0.06470242
29	0xbd3a56b4	-0.045492843
30	0xbd8dea0d	-0.06929407
31	0x3d5c8c6f	0.053844865
32	0xbbc159a2	-0.0059005776
33	0xbcab951e	-0.020945128
34	0x3bcf4148	0.006324921
35	0x3d6bce5d	0.05756985
36	0x3d25f9ac	0.04052131
37	0xbc926808	-0.017871872
38	0x3d456964	0.04819621
39	0x3d346ba7	0.044047978
40	0xbc8c5e9a	-0.017134953
41	0xbcf45c1e	-0.029829081
42	0xbc785cab	-0.0151588125
43	0xbc2761e6	-0.010216212
44	0xbbcd9aa2	-0.006274537
45	0xbd4c2a1c	-0.049844846
46	0xbd1b4963	-0.037911784
47	0x3d411ef3	0.047148656
48	0x3d846e21	0.06466318
49	0x3bf128cc	0.0073595997
50	0xbdaa27f1	-0.083083995
51	0x3c251123	0.0100748865
52	0x3cc4084a	0.023929734
53	0xbd812ced	-0.06307397
54	0xbb358f20	-0.0027703717
55	0xbdad9171	-0.08475006
56	0xbc9be8ec	-0.019031964
57	0xbc973567	-0.018458081
58	0xbdadbec8	-0.08483654
59	0xbd5cc199	-0.053895567
60	0xbc22d285	-0.009937887
61	0x3d528840	0.05139947
62	0xbd071eb8	-0.03298828
63	0xbd9b7d42	-0.075922504
