projekt1/wandb/run-20251108_200455-xatpe4ca/files/best_model.pth (torch, 33523 bytes, 13 tensors)

network.0.weight f4 [64, 70]
00000000: 8ef5 d7bb b997 9f3d 2870 d5bd 1cf5 493d
00000010: 6e63 9dbb 6aaf 70bc fda2 16be 5aa9 2dbd
00000020: 8dad 4d3d ee1d 283d fbfd 303e b8b1 46be
00000030: d0c2 483e 5c9f e4bd 95ea 083d ac9e a63c
00000040: 4384 67bd 1bb1 043e cd41 973d 0887 48bd
00000050: f0eb 46bd 40cf c83d a013 beb8 52ad 973d
00000060: e4a5 3bbc 7a40 06bd 0f2e 08be f648 babd
00000070: 2640 313d 6334 cb3d 223f cabd 7c1c 243d
00000080: 9425 a63c 7ef9 903b 9cc2 d33d 6fbd e3bc
00000090: 9a43 c13d 12cb 11bd 143a 963d 97e1 f1bd
000000a0: 160a 2d3d 8854 91bd 4221 0bbc 9fd5 1a3d
000000b0: 23c0 113e bd4d ee3c d47f 153d d69b 7dbb
000000c0: 991e 6e3d 99e7 ce3b 79dd 19be 5886 493d
000000d0: 461d be3d 8391 f3bc 691b 7abd 5fbe 373e
000000e0: 3ab9 3f3e 8bfa b13d c641 a93d 4a1a bcbd
000000f0: 70a0 143c fdf9 7e3c bafc 073e 2842 f43c
00000100: 28f1 81bc 592f bcbd 691b 6bbd f9ef 633d
00000110: 6a9a cd3d 3de1 143f 514c 5bbd 02db 0abe
00000120: 8d3c 973c aae5 4e3d b234 80bd 129c c7bb
00000130: 78bf 803d df03 a33d aa25 853e 3f35 013c
00000140: 0afd 04be e50b 973d e97d 5fbc 6fe5 013d
00000150: 602c 21bc da50 bbbd b18d fdbd 1cf6 ae3d
00000160: 6f8e bb3d ced0 17bd 9520 093d 5db3 90bb
00000170: 0309 1bbe d2c6 ecbc b99d f3bd 6a9a 5abd
00000180: a3ac a63d 9647 b1bd 9b18 353c d5b4 ad3d
00000190: 0a4f 99bd 71fd 913c 64da 2e3e 4619 6bbe
000001a0: 482e d93b e4a5 c8bd 8955 c9bd 8b1c 47be
000001b0: 5484 94bd f536 92bd def7 863c c2f8 0d3e
000001c0: a0a9 933d 3004 efbd a6a0 a13c 424b 9dbd
000001d0: b7b9 5dbd 5531 13bd dfdc 9c3c 4aeb 0a3d
000001e0: 0a3d edbb 8e22 b4bd 3f0b ebbd 9098 653d
000001f0: 1d5b 823d 46d9 293d 2587 4fbc f579 4cbd
00000200: fa2b 613d 81c8 0e3e f01f 1bbe 6d43 df3d
00000210: c30b 03be 8120 1e3e 98e7 d83d d47b d7bd
00000220: e234 16bc 08ce 5c3c 8e4f f0bd cf71 8b3e
00000230: 7224 043c b689 debd 1f3c 133e eba5 8cbd
00000240: e2a3 8c3d fb02 7ebb f6f1 d33c ace0 08be
00000250: 64d4 b43c b2a7 5d3c d6f1 633e c6b1 793d
00000260: 72ca 893d 05bc 1b3b deb7 b53d f5af 9cbd
00000270: 4993 033d 464c 2dbe 440b 193e 95d8 8abc
00000280: dae0 09bd 7f76 05be 4c98 753c 29a1 9abc
00000290: 12b6 63bd 8bc1 813d 682d 01bd 08b9 bc3d
000002a0: 54b1 55bd d111 35be 2a81 86bd c152 1abe
000002b0: d8a2 bd3d aa27 c43c ec76 723d b4f5 2fbc
000002c0: 1dc8 263e 368f ce3c 1ebd 87bd 2a1b 33bd
000002d0: de89 29bd 6178 6f3d 315c 3d3c 2c22 fb3c
000002e0: 386c 3dbe e430 1b3e a9a0 edbc b2a8 f33b
000002f0: 0b13 e03d 0e06 f63c 6635 c43d b30e a7bc
00000300: 9620 273d 7e69 1fbc 93de 84bd 8cff 6c3b
00000310: e344 5abe 0ae8 82bc 6113 48be 762e 233e
00000320: 72e2 ecbc 1c11 373d 74c8 ae3b 8353 7cbd
00000330: 5b77 ac3d 58ce 0a3d 8487 47bd c0f6 96bd
00000340: d3d3 a33d d431 69be afbc 1cbe 49f0 93bc
00000350: 53e2 d7bd 85bb 0e3d 6ba6 1c3b 0a66 f73d
00000360: a7b2 3b3d 9c12 47be 2749 9f3d d596 803d
00000370: 6ad2 f03d 8772 4c3d 151c 2bbe 6e32 15be
00000380: aed5 13be 521e a3bd a650 813d be3b d1bd
00000390: e9f9 83bd df80 c13d e14a c3bb 6cc2 e53c
000003a0: 9bb9 d73c 62e9 283e 558b 0cbe fde5 00be
000003b0: 4303 c73c 4864 883d a43d fd3a 9609 ec3d
000003c0: ce37 6abd 8158 fabc 6f97 783d 8f5f 8abb
000003d0: 5872 9f3d 3279 25be bb38 a7bd 0039 0fbc
000003e0: 558d dfbb 7acb 5c3d 32e8 e4bd 6f2f 6f3b
000003f0: 579d a83d 0598 81bd ff72 1b3e 9c74 a73d
-0.0065905517 0.07792611 -0.10421783 0.04930602 -0.0048031127 -0.0146902595 -0.14710613 -0.042397834
0.05021434 0.04104417 0.17284386 -0.19403732 0.19605565 -0.11163208 0.03342684 0.020339333
-0.05652262 0.12958185 0.073855974 -0.0489569 -0.04856485 0.09805155 -9.0635614e-05 0.07406105
-0.011453126 -0.032776333 -0.1329882 -0.090959474 0.043274067 0.09922101 -0.09875323 0.040066227
0.02028159 0.004424273 0.10339853 -0.02780029 0.09436722 -0.035594054 0.07335296 -0.11810606
0.042245947 -0.07096201 -0.008491816 0.03780138 0.1423345 0.029089803 0.03649886 -0.0038697622
0.05813465 0.0063142297 -0.15025891 0.049200386 0.09282927 -0.029732471 -0.061061297 0.17943715
0.18723002 0.086903654 0.082644984 -0.09184702 0.009071454 0.015562532 0.13280001 0.029816702
-0.015862063 -0.09188718 -0.057399187 0.055648778 0.10039218 0.58156186 -0.053539578 -0.13560107
0.01846149 0.050511993 -0.06260051 -0.006091603 0.0628652 0.07959723 0.26005298 0.00788623
-0.12987152 0.073753156 -0.013640859 0.031712946 -0.00983724 -0.091462806 -0.12380541 0.085430354
0.091580264 -0.037064366 0.03347834 -0.004415913 -0.15140156 -0.028903399 -0.118953176 -0.053369917
0.081383966 -0.08656232 0.01105323 0.084817566 -0.07485779 0.017821046 0.17075497 -0.2295886
0.0066278316 -0.09797266 -0.09830768 -0.19444482 -0.07251802 -0.071393885 0.016475614 0.13864425
0.07210088 -0.116707206 0.019729923 -0.0768037 -0.05413219 -0.03593572 0.019148288 0.033915795
-0.0072399424 -0.08795653 -0.114767544 0.056053698 0.06365035 0.041466974 -0.012666498 -0.049920995
0.05497358 0.13943674 -0.15148902 0.10901532 -0.12797455 0.15442087 0.10591048 -0.10521665
-0.009167882 0.013476856 -0.11733924 0.27235267 0.00806533 -0.1086611 0.14378403 -0.06867584
0.06867196 -0.00387591 0.025872212 -0.13366956 0.022073932 0.013528751 0.22260222 0.060960554
0.067280665 0.0023763191 0.088729605 -0.07650749 0.032122884 -0.16923627 0.14945704 -0.016948977
-0.0336617 -0.13033484 0.014989924 -0.018875675 -0.055593558 0.063357435 -0.031537443 0.092149794
-0.052171066 -0.17682578 -0.06567605 -0.1507063 0.092595756 0.023944695 0.059195444 -0.0107397325
0.16287275 0.025214773 -0.06627868 -0.043727078 -0.041391246 0.05846441 0.011557625 0.030655943
-0.18498313 0.15155369 -0.029007273 0.0074358815 0.10941132 0.030032184 0.095804974 -0.020392751
0.04080256 -0.009729741 -0.06487765 0.003616306 -0.2131534 -0.015979785 -0.19538642 0.15935692
-0.028916571 0.04469405 0.0053339545 -0.06160308 0.08421203 0.03388819 -0.048713222 -0.073712826
0.07999387 -0.22772914 -0.15306352 -0.018058913 -0.10541215 0.0348468 0.0023902904 0.12080009
0.045824673 -0.19440693 0.077776246 0.06278769 0.11758883 0.04991391 -0.16709931 -0.14570019
-0.14436981 -0.079647675 0.063142106 -0.10216473 -0.06444151 0.09448408 -0.005959854 0.02804681
0.02633362 0.16495278 -0.13725026 -0.12587734 0.024293547 0.06659752 0.0019320739 0.11525266
-0.057182126 -0.03055978 0.060691293 -0.0042228173 0.07785481 -0.16159514 -0.08165117 -0.008741617
-0.006822268 0.053904988 -0.111771 0.0036496778 0.08233135 -0.063278235 0.15180586 0.08176538

network.0.bias f4 [64]
00000000: a992 bf3c ef35 053d cd9c c0bc 11c6 9c3b
00000010: 65cb 0bbd e9da b73d 6c93 833d 6599 c2bd
00000020: af53 01bd 9e9f ae3d 2f1a 80bd e785 583d
00000030: ca81 eb3d eaa2 1dbd 8c0c cbbd 6da9 c23d
00000040: e47c 5ebd 3d84 25bd d936 6f3d 52c8 d93d
00000050: 1180 5d3d 437b 28bd 30a9 e0bb dd89 8bbd
00000060: 8b1c be3d 06a5 463d ac0f a7bd e099 6d3d
00000070: c0ef 903b 26bb 4f3c 4e7f fabd 51eb d33d
00000080: 858f a43b ecac 60bd 3954 183d 9cda 483c
00000090: 8cb4 b7bd b08d 813d 4a76 5f3d 5599 adbd
000000a0: bfed e8bd c957 053c 2533 f2bc 7fe7 773d
000000b0: 93c9 4d3d ed12 923c a837 b5bd 3c3b d53d
000000c0: d941 e6bd a2c2 8d3b 9261 61bd b3bd b03d
000000d0: 7ac1 853c c92d 93bd 349d d2bd 2c74 a33c
000000e0: 54d9 8b3c f72e a63d acdf 76bc 314c aabd
000000f0: 100d 89bd 118d 38bd dd38 e63d f7ba 453c
0.023385363 0.03252214 -0.023512268 0.0047843535 -0.03412952 0.08977301 0.06424603 -0.09501914
-0.031573948 0.08526538 -0.06254994 0.052862074 0.11499365 -0.038485445 -0.099145025 0.09504972
-0.054318324 -0.040409315 0.058401916 0.10633911 0.05407721 -0.041133177 -0.006856106 -0.06813405
0.09282788 0.048497222 -0.08157286 0.058008075 0.0044231117 0.012678897 -0.12231313 0.103476174
0.0050219917 -0.05485241 0.037189696 0.012259152 -0.089699835 0.06325853 0.05455617 -0.084765114
-0.113734715 0.008138605 -0.029565403 0.060523506 0.050241064 0.01783129 -0.08848506 0.10411689
-0.11243028 0.0043261806 -0.05502469 0.08629932 0.016327608 -0.07186467 -0.1028389 0.019952856
0.017071404 0.081144266 -0.015067976 -0.083153136 -0.066919446 -0.045056406 0.112413146 0.012068502

network.1.weight f4 [64]
00000000: 1ec0 7b3f d26a 7e3f cb19 823f 1bd2 853f
00000010: edfe 8d3f 1d8b 813f a3d3 673f 9d91 703f
00000020: 7aff 803f 125d 853f e634 793f c535 873f
00000030: e499 853f 12fb 823f e164 883f 94f9 793f
00000040: bc99 843f 89bb 763f b974 7e3f ad71 843f
00000050: 3cb0 823f c30f 773f 7999 873f 4920 803f
00000060: bf9b 7d3f 0942 823f 879c 7b3f 962a 6d3f
00000070: ceb8 8e3f 6d5a 6b3f c2ed 813f 9e30 873f
00000080: fd7b 7f3f a1bf 773f df69 833f 56e3 743f
00000090: 9097 863f 128a 7e3f fc3c 703f 83df 853f
000000a0: 4487 843f f870 883f ed5a 873f 4449 683f
000000b0: cef5 713f 6b82 8a3f f5f6 6c3f 7ea0 843f
000000c0: 36fa 713f 06e1 7f3f 06c1 803f c92d 853f
000000d0: 4272 8a3f 26e9 803f 26c8 7a3f 9de7 843f
000000e0: d537 723f e32b 673f 77c0 783f 8795 563f
000000f0: 6993 863f b4bc 7a3f e865 753f 21ce 843f
0.9834002 0.99381745 1.0164121 1.0454744 1.1093422 1.0120579 0.90557307 0.9397219
1.0077965 1.0419028 0.9734634 1.0563284 1.0437589 1.023287 1.0655786 0.9764645
1.0359416 0.96379906 0.99396855 1.0347191 1.0210032 0.96508425 1.0593711 1.0009853
0.99065775 1.0176402 0.98285717 0.92643106 1.1150148 0.91934854 1.0150683 1.0561712
0.99798566 0.9677678 1.0266684 0.9565939 1.0515003 0.9942943 0.93843055 1.0458835
1.035378 1.0659475 1.0574623 0.90736794 0.94515693 1.082105 0.92564327 1.0361478
0.94522417 0.99952734 1.0058906 1.0404598 1.0816119 1.0071151 0.9796165 1.0383183
0.9461644 0.9030134 0.9716868 0.8382191 1.0513736 0.9794419 0.9585862 1.0375406

network.1.bias f4 [64]
00000000: 5b94 5dbe b5bb 1bbd 784d b5bc 6041 cabc
00000010: e378 e8bc 3823 953d 6290 c1bd dc8a ee3c
00000020: b663 633b 33dd 0fbe c51e 62bd 5297 dfbb
00000030: ca85 dcbc 468b d0bc 4f0e debc 8633 56be
00000040: 04fe eebb 32ac 85bd 6d31 fbbc d935 ce3b
00000050: 4b93 1ebe 986b 3abe 1649 fdbd 573a 59bd
00000060: 4969 ed3c 3b3e 0ebd 74c3 aebc bc44 23bd
00000070: 30f6 42be e581 adbd e8fa 9fbd d94e a3bd
00000080: f0d1 9abc a844 d9bd b2c2 f1bd 2bcc e8bb
00000090: 5c9d 50bb 5d51 f3bb 0487 01be 6f27 a7bd
000000a0: ad84 e13b 2afa 8ebd 0ef6 c7bd 2ebf 99bc
000000b0: 5d0f 95bd b5a4 f0bd 918f f5bd 413e 99bd
000000c0: fb65 03be 8943 8fbd ba92 4dbe 7859 f9bd
000000d0: 84dd debc 3e98 26bd 9d5e 11be f435 20be
000000e0: 21e0 b03b b1d3 6bbd f4b3 1dbe 68f4 c9bd
000000f0: a647 ebbc 0bb4 b5bd c142 57bd 1a1b 06bd
-0.21638624 -0.03802081 -0.022131667 -0.024689376 -0.028377956 0.07282108 -0.09451367 0.029118948
0.0034696884 -0.14049225 -0.055205125 -0.0068234587 -0.026919264 -0.025457036 -0.027106432 -0.20918092
-0.0072934646 -0.06526984 -0.030663216 0.0062930402 -0.15485875 -0.18205106 -0.12367456 -0.053034153
0.028980868 -0.034727316 -0.021333434 -0.039860472 -0.19039226 -0.08472041 -0.078115284 -0.07974023
-0.018898934 -0.10608798 -0.11804713 -0.007104417 -0.0031832075 -0.0074254707 -0.1264916 -0.08161818
0.0068822713 -0.06981309 -0.09763728 -0.01876792 -0.07278321 -0.117501654 -0.11990274 -0.07482577
-0.12831871 -0.06995303 -0.20075503 -0.12175268 -0.027205236 -0.040672533 -0.14196248 -0.15645581
0.005397812 -0.05757493 -0.15400678 -0.0986107 -0.028720688 -0.08872231 -0.052553896 -0.03274069

network.1.running_mean f4 [64]
00000000: 971a 523e fcb6 ebbd d82a 39bd 48a4 b93c
00000010: 52ff cabd 3891 5dbc 6d7b df3c 431e 41be
00000020: ce5b f1bd 25fc 333e c003 383d 4c62 ee3d
00000030: 377b 233e 0a6a 94bd 6807 17be a123 8f3d
00000040: 93d2 97bd e95c 1dbe e356 68bc e3eb b33d
00000050: f872 283d 4216 8abd f4a2 0b3d 5f0d 78bd
00000060: 1288 243d 9510 333d fa23 503d 92cc e63d
00000070: 8b64 10bd 47d9 1fbe 0091 1d3d 66fb 373e
00000080: c8a5 49be 26e5 22be ed38 34be a8f3 7abd
00000090: f886 78be 9f1e 833d f162 a93d 791c 61bd
000000a0: 8725 3bbe 70a8 d0bd 30ea b33d 77f8 bb3d
000000b0: 7e5c 7c3d b2f8 763c 89a6 94be e47c 153e
000000c0: 8680 193d 1a49 0ebd 8d91 a9bd 107c 2f3e
000000d0: 2400 c6bd 1c19 56bd debd 81bd 440e 23be
000000e0: 7861 d2bc 3779 433e 5467 e63d ae90 bbbb
000000f0: 2130 d6bd 94ba ad3c c933 5e3d 77b2 b83d
0.20517956 -0.11509511 -0.045206875 0.022661343 -0.0991198 -0.013523392 0.027280534 -0.188592
-0.117850885 0.17576654 0.04492545 0.116398424 0.15964971 -0.07246788 -0.14748919 0.069892175
-0.07413211 -0.15367474 -0.014180872 0.08785226 0.041125268 -0.067425266 0.03409095 -0.060559627
0.04016883 0.043716986 0.05081556 0.112694874 -0.035252135 -0.15610228 0.03846836 0.17966995
-0.19692147 -0.15907726 -0.1759984 -0.061267525 -0.24270236 0.06402325 0.08270825 -0.054958794
-0.18276034 -0.10188377 0.08784902 0.0917825 0.061611645 0.015073942 -0.29033306 0.14598423
0.037476085 -0.034737684 -0.08279715 0.1713717 -0.096679956 -0.05227004 -0.063350424 -0.1592341
-0.025681242 0.19089209 0.11250177 -0.0057240343 -0.104583986 0.021207131 0.054248605 0.090184145

network.1.running_var f4 [64]
00000000: bbe9 f03e 49d1 033f 83d9 063f 940f 263f
00000010: 933d 0c3f 3c0e 1d3f 31b8 f13e 9969 1a3f
00000020: 1048 043f 37aa d63e b9df 213f 2da8 093f
00000030: 6711 de3e 5438 143f 62f5 f83e d7ab dd3e
00000040: f79d b73e feee d03e 13a4 0f3f da5d e33e
00000050: e471 e43e a765 1b3f cca3 3e3f 8e4e 0c3f
00000060: 9bfe 1c3f 60cf 073f e270 ba3e 8f48 973e
00000070: 90cd 013f c4d5 273f 99bd 2c3f 68ea 0a3f
00000080: 930b 0a3f f2b9 003f 375b 213f d0b0 063f
00000090: b604 003f 953b d23e 910f 103f 510c 7d3f
000000a0: a3e5 3e3f 34a1 2c3f 5c25 1b3f 2c86 123f
000000b0: 9489 ed3e 6da0 233f b6ab 0a3f 9185 233f
000000c0: 10c6 533f cb06 5b3f c302 143f 40a6 293f
000000d0: 77af 1d3f 1b2d 0d3f d492 493f 4ddc 0a3f
000000e0: f53a c13e 72ef 0e3f 493c 113f a401 293f
000000f0: 266c e03e 4f53 c03e fdfa 263f ac12 c73e
0.47053322 0.5149122 0.52675647 0.6486752 0.54781455 0.61349845 0.4721084 0.6031738
0.5167246 0.4192674 0.63232 0.5377224 0.43372652 0.5789845 0.48624712 0.43295166
0.35862705 0.40807337 0.5610973 0.4440754 0.44618142 0.60701984 0.74468684 0.54807365
0.61326 0.53050804 0.36414248 0.29547545 0.5070429 0.65560555 0.67476803 0.54263926
0.5392391 0.5028373 0.6302981 0.52613544 0.5000719 0.41061082 0.5627375 0.9884692
0.7456915 0.67433476 0.6060388 0.5723598 0.46394026 0.63916665 0.5416826 0.6387568
0.82724094 0.8555724 0.57816714 0.662693 0.61595863 0.5514695 0.78739667 0.542424
0.37740293 0.55834115 0.5673261 0.6601813 0.4383251 0.3756356 0.6522673 0.38881433

network.4.weight f4 [32, 64]
00000000: 8d45 d93d fc95 9fbc cc9c a6bd e9ea 48bc
00000010: f676 33be c8fc ddbd 93d0 a2bd 74e9 febd
00000020: e1d1 123c 30ae cc3d e1e1 1a3d 7a0e 123d
00000030: af61 3b3d cf61 e53b 3a08 57be ba97 a03c
00000040: 2d71 e8bc 2e3f 8a3d 917c 273d 19c8 72be
00000050: 8946 29bc eb37 833d 8d8c 0e3e 3de7 f0bc
00000060: b97c 9dbd 5bd5 39bd f587 f3bc 0621 fa3c
00000070: 6166 f2bb 97f8 233e 1ca5 eb3d 4c09 933d
00000080: 61c3 b73c 5b13 4ebc 4605 883d c647 693c
00000090: 1219 f8bd 4f71 ea3d 22e2 d03b dadb 993d
000000a0: e313 41ba b5e0 293d 1418 1b3c 4847 9ebd
000000b0: 42aa fc3b be30 393c 55e4 58bd cd9d 273e
000000c0: 61ee a93d c31b d13d 998d 273d df38 d43d
000000d0: d345 d7bd 6cfd 0d3c 5557 253e 7762 c0bb
000000e0: e940 23bd 2d36 18bc bc61 c03c 953b 49bd
000000f0: 0d1a 19be 611a 8e3d d021 2bbd 3051 ab3d
00000100: 2081 f2bd 8ee5 30be c0ad 06be f5d4 00be
00000110: 0c04 cd3d 9d48 08be d04a c63d 43e1 f3bc
00000120: 9c12 19bd cd22 95bd b958 93bd 12ff 71bd
00000130: 124b 56be c315 6abe e0ad a03d b923 29be
00000140: e348 653e 4b3c 373d 7e50 073c 91aa 893d
00000150: 5a40 9a3d 998e ba3d 71d2 c3bd 0440 3ebe
00000160: 23e0 78bc e24c 7ebd a814 3b3e e86c 3bbe
00000170: 2add c23c bc76 1ebd 466a 473d 6fa0 4fbd
00000180: ceeb 0e3d f223 ec3d 8af1 0f3d 4f8d fdbd
00000190: e4d7 443d 80f7 03be fba7 2cbe 1b29 eb3d
000001a0: 058a 10be 524f 993d 8d14 303c bab2 133e
000001b0: 22fb a1bc bcb5 ca3d edd0 fcbc 42bc 7bbc
000001c0: 80d4 b8bd 295d 0bbd 91d2 06bd 1961 b03c
000001d0: ff5b 2c3e 8f39 4dbd 60f6 2a3d 6bae 4f3e
000001e0: 905c a43c 7b3b 0a3d 4a8e bdbd a51f 373d
000001f0: 47d5 8e3d 799e 873d ab99 0fbd 57f8 55be
00000200: f12c ddbd ce8f 55bd f593 bbbc 8ed9 79bd
00000210: 9054 bcbd 075f d43d 8faa 97bd e016 4f3d
00000220: 1e5d c2bd 613a 9cbd fdc7 babd 9e95 e2bb
00000230: 007f 1c3e 2d26 24bd 5543 423d 6373 61bb
00000240: 088e 283d 748e febd 253c 4fbe 40e7 173e
00000250: 0407 8b3b d56a 213d f2eb 92bd 9bf4 cdbd
00000260: 02c1 143d b878 a13a b675 4b3d e5f3 d93d
00000270: a85d 0c3d 3abe 333e 5f15 cc3d f1eb 67be
00000280: bbed 6a3d 8c16 93bc bd16 8fbd 3f03 06bd
00000290: 4792 87bd 76a4 0f3e a114 873c b144 7ebd
000002a0: b89b 2c3d 6beb 7abd 3cbc e4bd 77a8 40be
000002b0: af9b f5bc e3e3 8fbd 5abf 3cbd 1741 cabd
000002c0: 4b19 e4bd c70d 45be 8f18 063c 19ba 803d
000002d0: 9c95 01bd e44e 43be ed1a e03c f586 7f3d
000002e0: 3258 203e 0541 43be 7bac 873c 9b6a 84bd
000002f0: 41de d13d 4875 d43a 37bb d43b 5f51 113e
00000300: 3ed2 f33d c60b edbd 6dc2 3b3d 1ea7 9d3d
00000310: 1241 493e 7770 153c 2577 56bd d597 d73d
00000320: 6a91 db3d 3f7f 81bd 8e75 723d 7ca9 bd3d
00000330: 5b3f cb3d b83e 423b 3c92 99bd b530 1cbe
00000340: 5042 a3bd d0d0 18bd 1b25 0bbe 287c c23c
00000350: 032b 193e 0303 be3c f594 073e 843e 483d
00000360: b287 8a3d a6ac c5bd d53c d4bd c69b 14bd
00000370: 2920 353d c94f bbbd f2ac a1bd 4a1c dbbd
00000380: faa2 65bc 2776 983c 9124 253d 1d32 dd3d
00000390: 4244 253e 88da 063e d036 023e e350 63bd
000003a0: 43a0 01bd c8a2 373b af36 e63d 108d acbd
000003b0: 0ceb a6bd 3b61 dbbd a4b8 393d 301c 56bd
000003c0: 7197 ac3b 410a 50bd d547 b2bb 8f64 6bbd
000003d0: 4755 46bd da19 efbd 7861 c7bd 26ed 1f3d
000003e0: f921 cebb 3ddc 57bd 4eea edbd a663 d7bd
000003f0: f60c eb3d be1d aa3d 542c 03bd c3e0 f1bd
0.10608969 -0.019480698 -0.081353754 -0.012263038 -0.17525849 -0.1083923 -0.079499386 -0.124468714
0.008961172 0.09994161 0.03781307 0.035658337 0.045747455 0.007000185 -0.20999232 0.019603599
-0.028374279 0.06750332 0.04089028 -0.23709144 -0.010331758 0.0640715 0.13920803 -0.029407138
-0.076898046 -0.045369487 -0.029727915 0.030533325 -0.0073974584 0.16012798 0.115061015 0.071795076
0.022432031 -0.012577857 0.06641631 0.0142383035 -0.12114157 0.11447393 0.0063746134 0.075126365
-0.0007365329 0.041474063 0.00946619 -0.077284396 0.007710726 0.011303125 -0.05295213 0.1636879
0.0829742 0.10210373 0.040906522 0.1036241 -0.10511365 0.0086663775 0.16146596 -0.005871113
-0.039856825 -0.00929026 0.023484103 -0.049129087 -0.14951344 0.06938625 -0.041780293 0.08365095
-0.11841035 -0.17275068 -0.13152218 -0.12581237 0.100105375 -0.1330895 0.09682238 -0.0297705
-0.037371263 -0.07282028 -0.07194657 -0.059081145 -0.20927075 -0.22859864 0.07845664 -0.16517533
0.22391085 0.044735234 0.008258937 0.06721986 0.07531805 0.091092296 -0.09561623 -0.18579108
-0.015190157 -0.06208504 0.18269598 -0.18303263 0.0237871 -0.038687453 0.048685335 -0.05069011
0.03489285 0.115302935 0.03514246 -0.12380468 0.04805745 -0.12887383 -0.16860954 0.114824496
-0.1411515 0.07485832 0.010747087 0.14423648 -0.01977307 0.09897944 -0.030861342 -0.015364708
-0.09024906 -0.03402439 -0.032915656 0.021530675 0.16831969 -0.05010372 0.041738868 0.20281379
0.020063668 0.03374813 -0.09255655 0.044707913 0.06974273 0.06622023 -0.03505866 -0.20895515
-0.107995875 -0.052139096 -0.0228977 -0.060998492 -0.091958165 0.103696875 -0.07405578 0.050558925
-0.09490417 -0.076283224 -0.09120176 -0.0069148084 0.15282822 -0.04007547 0.047427494 -0.0034401051
0.041151077 -0.124295145 -0.20237787 0.14834309 0.0042427797 0.039408524 -0.07173909 -0.100564204
0.03631688 0.0012319302 0.049672805 0.10642222 0.034269005 0.17553034 0.09965014 -0.22648598
0.057355624 -0.017955087 -0.06986759 -0.03271794 -0.06619697 0.1402758 0.016489329 -0.062077228
0.042140692 -0.06125967 -0.11168715 -0.18814264 -0.029981462 -0.07025888 -0.046080925 -0.09875696
-0.11137637 -0.19243537 0.008184566 0.06285495 -0.03163682 -0.19073063 0.02735659 0.062384564
0.15658644 -0.19067772 0.016561737 -0.06465646 0.1024747 0.0016209269 0.0064920443 0.14191197
0.11905335 -0.11574511 0.045839716 0.07697891 0.19653729 0.009121052 -0.05235972 0.105270065
0.10721095 -0.063230984 0.05919414 0.09260842 0.099241935 0.0029639434 -0.07498595 -0.15252955
-0.079716325 -0.037308514 -0.13588373 0.023740843 0.14957814 0.023194795 0.13240416 0.048887745
0.06764163 -0.09652071 -0.10363165 -0.03628137 0.044220123 -0.09146077 -0.07894315 -0.10698755
-0.014015907 0.018611027 0.040318076 0.10800574 0.1613932 0.131693 0.12716222 -0.05549706
-0.031646978 0.002802061 0.11240899 -0.08425343 -0.081503004 -0.107119046 0.045342103 -0.052272975
0.0052670767 -0.05079103 -0.005440692 -0.057468947 -0.04842117 -0.11674853 -0.097353876 0.03904452
-0.006290671 -0.05270027 -0.11616956 -0.10517053 0.114770815 0.08306454 -0.032024696 -0.11810448

network.4.bias f4 [32]
00000000: 26d2 ae3d 2533 96bd 2ba8 1a3d 7b3f 373d
00000010: c3bf adbc a013 07bd c1b2 f53c b81c 263d
00000020: 6f64 b73d 82e2 13bc 8aea 49bc dc81 d73d
00000030: 68f1 eabd 7325 5ebd cf8b e0bd f828 d0bd
00000040: cae6 a93d c921 52bd e3e4 fb3d 8f8d 7f3d
00000050: 7245 aabd 0d50 f53d 5416 6a3c b332 4cbd
00000060: a314 60bd 3daa bcbd d23b eabd 9c94 6cbd
00000070: 591e aa39 1f0d 6fbd 8e6f cabc 283a 6d3c
0.085361764 -0.07333974 0.037758034 0.044738274 -0.021209603 -0.0329777 0.029992463 0.040554732
0.08954703 -0.009026172 -0.012323985 0.105228156 -0.11471826 -0.054234933 -0.109641664 -0.10164064
0.08295973 -0.05130175 0.12299516 0.06239086 -0.08314027 0.11978159 0.01428755 -0.049853038
-0.05470718 -0.09212158 -0.11437191 -0.057758912 0.00032447538 -0.058362123 -0.024711397 0.014479198

network.5.weight f4 [32]
00000000: b066 6b3f 97a2 883f 5370 873f 2687 743f
00000010: 0ac6 9e3f 7e85 a13f ab47 a93f 981d a63f
00000020: 75ab 6d3f a0eb 693f 5801 723f 80a9 9f3f
00000030: 7114 9e3f a78f 763f 829f 643f 20e4 a53f
00000040: f7a7 6d3f 5f16 a83f 53cb 9f3f 40c0 653f
00000050: d5ed 9f3f 293b a13f 909e 693f 9d1e 9f3f
00000060: d61e 6e3f bd9d 683f 9e95 993f 8af6 a03f
00000070: b25b 9e3f 5576 683f 28ca a63f 1a1a 9f3f
0.91953564 1.0674618 1.0581154 0.9551872 1.2404187 1.2618864 1.3224996 1.2977781
0.9283975 0.9137516 0.945333 1.2473602 1.2349988 0.96312946 0.8930589 1.2960243
0.9283442 1.3131827 1.2483925 0.89746475 1.2494456 1.2596179 0.9125757 1.2431217
0.930158 0.9086569 1.1998785 1.2575238 1.2371733 0.9080556 1.3030443 1.242984

network.5.bias f4 [32]
00000000: 7e5e c3bd 5b79 b33c 2c07 983d 2dbd 7fbd
00000010: 2da9 583e ef2d 723e c8d7 973e aaa7 813e
00000020: d0d2 ccbd e7fd e9bd 0521 b6bd 7c11 7a3e
00000030: 931c 5e3e e297 53bd a0ad c4bd deff 883e
00000040: a986 c7bd 4f68 883e d7ca 5e3e af7d bebd
00000050: 12b9 743e e6af 733e 6c89 babd bcc9 673e
00000060: 0343 cfbd 6ea7 debd 4373 463e 766d 803e
00000070: 8d11 6d3e d957 d1bd 634c 913e 8f5b 7a3e
-0.09539507 0.021908453 0.07423243 -0.06243627 0.21158285 0.23650335 0.29656816 0.2532323
-0.10001147 -0.11425381 -0.08893017 0.24420732 0.21690588 -0.05165852 -0.09603429 0.2675771
-0.09742481 0.2664208 0.21757065 -0.09301316 0.23898724 0.23797569 -0.091082424 0.2263555
-0.10120203 -0.108717784 0.19379906 0.25083512 0.23151226 -0.10221834 0.2837859 0.2444899

network.5.running_mean f4 [32]
00000000: a114 2f3e fe8e d8be 2163 a6be 045a 1c3d
00000010: 5c75 f6be 3d16 b6be a3ee fdbe 148f ccbd
00000020: dc84 343e 0648 763d 07d8 5bbe 8d6c e9be
00000030: b619 3cbe 7868 6a3d 454f a8be 137e 603d
00000040: 07b2 113e b318 a4be 6927 abbd f25f 3cbe
00000050: 3a6e 2dbe dd4e e53d bcaf 923e da71 04bf
00000060: bc2b 04be 700a c5be 9a95 22be cfad 293e
00000070: 260a 47be bd45 0cbe 50ad 6dbe 77fe 12bf
0.17097713 -0.42296594 -0.32497504 0.038171783 -0.48136413 -0.3556384 -0.49596128 -0.099882275
0.17628807 0.06012728 -0.21469127 -0.4559063 -0.18369183 0.057228535 -0.32872978 0.054807734
0.14228068 -0.32050094 -0.08357126 -0.18395975 -0.1693658 0.111966826 0.286497 -0.51736224
-0.12907308 -0.38484526 -0.15877381 0.16570209 -0.19437465 -0.13698478 -0.23210645 -0.5741953

network.5.running_var f4 [32]
00000000: aedc 0a3f a20b bb3e 9216 033f 963f 993e
00000010: 3c87 f53e 4e88 f73e 9ad0 0e3f bf74 d83e
00000020: 83a0 2a3f 7367 fa3e 2d4a df3e f338 2d3f
00000030: 746d fc3e cd3a bf3e f313 c33e b77d 003f
00000040: 7059 193f d618 053f bcf0 d73e f19a 3d3e
00000050: 20d9 0e3f fc17 c33e e606 9d3e ee0b ee3e
00000060: 4c4f 113f f312 d33e f8f9 cf3e 969f fd3e
00000070: 1864 e03e 274d 023f 646c 143f d402 2d3f
0.5424298 0.36532313 0.51206315 0.29931325 0.47954738 0.4834618 0.5578705 0.4227657
0.6665117 0.4890705 0.4361128 0.6766502 0.49302256 0.3734955 0.38101158 0.50191826
0.59902096 0.5199102 0.42175853 0.18516137 0.55800056 0.38104236 0.30669326 0.46493477
0.5676162 0.41225395 0.406204 0.49535817 0.43826365 0.50898975 0.5797789 0.6758244

network.8.weight f4 [1, 32]
00000000: 3b64 993d 5e7f 0bbe 1820 f0bd 5e27 bebd
00000010: e5cf 9ebe be0d 93be 479f 80be f3e2 97be
00000020: 15ee d13d d7d5 973d bc61 c63d 5be6 7dbe
00000030: 2f0a afbe 3910 a7bd c1a4 6c3a 1917 81be
00000040: 22d7 e73d c212 8cbe 6d8b b0be adad 02bd
00000050: 0fd1 acbe edf4 99be 1c20 39bd 7830 87be
00000060: 6c07 bb3d 4866 773d c63c 20be 7c46 8cbe
00000070: 6d2d a7be 6d74 403d f24f 83be 0b64 8abe
0.074898206 -0.13622805 -0.117248714 -0.092848524 -0.31017986 -0.28721422 -0.2512152 -0.29665336
0.10250489 0.074138336 0.0968661 -0.24794905 -0.34187457 -0.08157391 0.0009027236 -0.25212935
0.1132033 -0.2735806 -0.34481373 -0.03190391 -0.3375325 -0.30069676 -0.045196638 -0.26404166
0.09132275 0.060400277 -0.15648183 -0.27397525 -0.32651845 0.046986032 -0.2564693 -0.27029452
