projekt1/wandb/run-20251109_192220-92yb939g/files/best_model.pth (torch, 689395 bytes, 13 tensors)

network.0.weight f4 [512, 70]
000000 2c ed 96 3d 9c 89 80 3d 79 93 b5 bd 64 cf 35 3c
       0.07369456 0.06276247 -0.08866019 0.011096809
000010 e6 e2 0d 3d 4a 60 86 bc ca cf e4 bd c1 48 72 bd
       0.034640215 -0.016403336 -0.11172445 -0.059151415
000020 62 3a 59 3d 8a ea 27 3d 5a 69 cc 3d 2d 3e f6 bd
       0.053034194 0.04099516 0.09981032 -0.12023578
000030 c3 e5 e2 3d 9b 3f d6 bd 10 19 ef 3d ac e8 cc bd
       0.1107898 -0.104613505 0.11674702 -0.10005316
000040 5c aa 18 bd 64 2e ea bb dd 63 3f 3d 0a c1 e2 bd
       -0.037271842 -0.0071466435 0.046726096 -0.110719755
000050 01 2a 8a 3c 23 9b ed 3d 5b 9f 04 3d 8c e1 bc 3d
       0.016865732 0.116018556 0.032378536 0.09222707
000060 e6 8f 0f 3c 7b 7c 6a bd 6b 16 4d bd a3 b8 13 bc
       0.008762335 -0.05724762 -0.050070208 -0.009016189
000070 3e 55 21 3d 6c 62 25 3d 15 60 cf bd 63 9e a0 3d
       0.039387934 0.040377066 -0.10125748 0.0784271
000080 58 2f f1 bc 21 51 3d 3d 50 ee 08 bd 1a f5 e8 3b
       -0.02944152 0.04621995 -0.033430398 0.0071092965
000090 09 6f 8a 3d a0 ab e6 bd 67 46 9a bc c6 e5 04 be
       0.067594595 -0.112632036 -0.018832399 -0.12978277
0000a0 b2 cf 5a 3c 8a 85 45 3d 83 06 cd bd b9 27 61 3c
       0.0133551825 0.048223056 -0.10011008 0.013742381
0000b0 ab 47 ce 3d 9d 1c 64 3c 34 4f 4f 3c 84 01 4f bc
       0.10072263 0.013922838 0.012653161 -0.012634639
0000c0 24 5a 60 3d df 3d 92 39 72 5e 5a bd a3 46 39 bd
       0.054773465 0.00027893388 -0.053312726 -0.04523338
0000d0 24 05 26 3d 68 24 23 bd 08 25 66 bd a6 78 a9 3d
       0.040532246 -0.03982964 -0.05618766 0.08274965
0000e0 f8 b6 bf 3d 9b f5 10 3d 04 50 e7 bc 8b 4c d9 bd
       0.093610704 0.035390478 -0.028236397 -0.106103025
0000f0 d0 ad b0 3d 4b 81 61 3d 0c 0a c8 3d 9d 7b a5 bd
       0.08626902 0.055054944 0.09767541 -0.08080218
000100 3b aa 77 bd 5c 43 c6 3c 9f d2 9b bd 52 bf 8f 3d
       -0.06046508 0.024202041 -0.07608532 0.07018913
000110 0f d3 af 3d 04 e6 f6 3d 9d 91 dc bd 4e a7 ac bd
       0.08585178 0.12055591 -0.10769961 -0.08430348
000120 72 2d a8 3d db 57 b8 3d 2a 05 7f 3d 02 43 31 bd
       0.08211793 0.09001132 0.062260784 -0.043276794
000130 39 5c 02 3e 2f 0d 48 3d 07 e4 e1 3d d3 af c7 ba
       0.12730493 0.048840698 0.11029821 -0.0015234895
000140 81 cf a9 bd 77 bf a7 3d 69 44 46 bd 39 4b d0 3d
       -0.08291531 0.08190816 -0.048405085 0.101705976
000150 93 eb 80 3c f6 fa d9 bd de 2e c9 bd 9d aa b4 3d
       0.01573733 -0.1064357 -0.09823392 0.088216044
000160 cc 72 c3 3d 45 16 cc bd aa d7 9d bc 4d 55 e3 bc
       0.0954338 -0.09965185 -0.019267876 -0.027750636
000170 55 00 9a bd 78 21 8d bc 11 b2 dc bd 8b a4 37 3c
       -0.075195946 -0.017227873 -0.10776151 0.011208664
000180 73 1b ad 3d ed fa 50 bc 95 e4 8e 3d d7 a3 40 3d
       0.08452501 -0.012755138 0.06977192 0.04703125
000190 b5 8c a4 bc c7 c6 c7 bc ee 49 e6 3d 91 45 c7 bd
       -0.020086626 -0.024386777 0.1124457 -0.097300656
0001a0 89 c8 20 3d d7 31 93 bd cf aa 42 3d df b3 72 bd
       0.039253745 -0.071872406 0.047526177 -0.05925357
0001b0 63 ea cc bd 94 fd c0 bc 40 21 e8 3d 76 ea 94 3d
       -0.10005643 -0.023558415 0.11334467 0.072712824
0001c0 e2 93 96 3d c4 bb 9f bd 7a 97 9c bd fc 62 d1 bd
       0.07352425 -0.07799485 -0.07646079 -0.10223958
0001d0 5f b5 56 bc df 10 0a 3c 18 d9 b7 bc ac ee 9c 3b
       -0.013104766 0.008426874 -0.022442386 0.004789194
0001e0 23 8e 55 3d b4 91 c4 bd 13 1d ac bd 25 7c 13 3d
       0.052137505 -0.09598103 -0.08403983 0.036007065
0001f0 b2 65 60 bc c0 1c ac bd e6 72 b5 bd 32 a8 20 bd
       -0.013696121 -0.08403921 -0.08859806 -0.039222904
000200 65 29 57 3c 34 77 71 3c 26 f6 97 bd be 49 d3 3d
       0.013132428 0.014737893 -0.07419996 0.103167996
000210 02 34 04 be 13 8d cf 3c 9b cf a9 3d e3 b1 d3 bc
       -0.12910464 0.025335824 0.08291551 -0.025841659
000220 be 03 3f bc 14 4f 80 3c 9a c9 f4 bd ac 7a 99 bd
       -0.011658607 0.015662707 -0.11952515 -0.07494101
000230 7b 7c 1a bc 28 4c 06 bd 53 ad ac 3d a6 91 07 bd
       -0.0094290925 -0.032787472 0.084314965 -0.033097886
000240 79 22 0b 3d 6b 5a b1 bc 4a e9 42 3d 73 1b c9 bd
       0.033968423 -0.02164956 0.047585763 -0.09819689
000250 ac 22 46 bc e5 51 8a 3d e9 45 dc 3d 4d 29 ed 3c
       -0.012093227 0.067539014 0.10755522 0.028950358
000260 6e c6 33 3d d8 14 03 3c db b0 a2 3d 6a 66 ea bc
       0.04389041 0.008000575 0.07943889 -0.028613288
000270 c5 44 ac 3c 48 16 ce bd 39 a5 90 3d 3c b2 0e 3d
       0.021028886 -0.100628436 0.07062764 0.034837946
000280 98 0b cf bc 5a 25 57 bd 4b 3f 81 3d 80 8c 96 bd
       -0.025274083 -0.052525856 0.063109 -0.07351017
000290 a5 11 90 bd 7e b0 07 3d 98 5f a2 bd 85 6e 96 3d
       -0.070346154 0.0331273 -0.07928389 0.07345299
0002a0 04 a8 d4 bd ae 9d dc bd 39 3c d2 bd 47 64 d9 bd
       -0.10383609 -0.107722625 -0.10265393 -0.106148295
0002b0 6c 62 cd 3c df cf bb bd dd 9c 87 bd 80 c1 c0 bd
       0.025071345 -0.09170508 -0.06621716 -0.09411907
0002c0 f7 82 f6 3d ad 9b 2d bd 0d ef 99 bd f7 dc 06 bd
       0.12036698 -0.042384792 -0.075162984 -0.032925572
0002d0 9e 34 32 bd ce b7 cb bb e7 60 20 3d 53 a5 de bc
       -0.04350721 -0.0062169796 0.039154913 -0.027178442
0002e0 ed cf f3 bd ab ac d4 3d a9 d5 bd bd 74 b5 a6 bb
       -0.11904893 0.10384496 -0.09269268 -0.005087549
0002f0 95 5a d2 3d 93 77 46 b9 83 44 8c 3d 40 6e 8b 3d
       0.102711834 -0.00018927296 0.06849005 0.06808138
000300 b8 6d d3 bb f2 c4 43 bc 7d 13 2c bd 8a dc 7c 3b
       -0.0064522885 -0.011948811 -0.042010773 0.00385836
000310 cd 92 eb bd 14 43 6a bd c3 bd cc bd 63 04 65 bd
       -0.115026094 -0.057192877 -0.09997132 -0.055912387
000320 df 99 c4 3d 95 09 53 bc f2 af 17 bd f9 66 03 bc
       0.09599661 -0.0128807025 -0.03703303 -0.008020156
000330 e0 c9 1c 3d 85 81 17 bc 00 6a 2e 3d 54 29 99 bc
       0.03827846 -0.009247188 0.04258156 -0.018696465
000340 a2 9d cc 3c d7 c9 4a bd 88 b4 cf bd db 8f 62 bd
       0.024977509 -0.049508896 -0.101418555 -0.055312973
000350 5d 36 8c bd 17 6d 50 3d 53 ec 85 3c 86 57 ed 3c
       -0.068463065 0.050885286 0.01634804 0.028972398
000360 f9 dc b9 3d b6 d0 de bd 51 38 c2 bc 13 54 a1 3d
       0.0907535 -0.10879652 -0.023708494 0.07877364
000370 c9 2b f9 3d ed 61 56 bd 21 2a dc bd f2 99 b9 bd
       0.121665545 -0.052339483 -0.10750223 -0.09062566
000380 1b c1 17 bd 83 b5 df bd 5d 9f e2 3d df 3e ad bd
       -0.037049394 -0.109232925 0.110655524 -0.08459257
000390 c2 c1 50 3d 73 36 88 3d 40 52 9c bb 69 00 e3 3c
       0.05096603 0.0665101 -0.004770547 0.027710157
0003a0 11 45 c9 bc e4 2c bf 3d 3e c2 b6 bd 2b b6 ea bd
       -0.024569066 0.09334734 -0.089237675 -0.11460527
0003b0 62 c5 d9 3d 73 8d a3 3c 46 ad 23 bc af 3a 57 3d
       0.10633351 0.01996491 -0.009990042 0.0525462
0003c0 78 07 05 bc b4 33 97 bd d6 5b 42 bb 3c 54 9e bd
       -0.0081194565 -0.073829085 -0.002965679 -0.0773091
0003d0 10 7d 6b 3d 45 b0 a7 bd 82 22 c5 bd f3 35 0a bd
       0.057492316 -0.081879176 -0.096257225 -0.033742856
0003e0 b7 9a 9e bd 1b 54 a3 3d 0f 22 b9 3b ea cd 0f 3b
       -0.07744353 0.07975026 0.005649812 0.0021942803
0003f0 c5 4c a9 3d 1d 93 83 bd 91 6e b3 3d a9 95 17 3d
       0.08266596 -0.06424544 0.08761323 0.03700796

network.0.bias f4 [512]
000000 f3 6c 44 bd 58 7e 17 bd 1c 02 27 bd c5 b6 df bd
       -0.047955465 -0.036985725 -0.040773496 -0.109235324
000010 1b 15 b2 bc 6d 37 df 3d b4 3f f5 3c f9 09 a3 bd
       -0.02173858 0.108992435 0.029937603 -0.079608865
000020 0e be 6c bd 8a be 55 bd 81 31 78 3b 1e c3 c7 3d
       -0.057798438 -0.052183665 0.0037871304 0.097540125
000030 60 ab 2e bd 53 85 cb bb cd 39 15 3b 0c 3f 7e 3d
       -0.042643905 -0.006210962 0.0022770048 0.062071845
000040 d0 c9 bf 3c f0 1b 8f 3d 13 29 8d 3d 70 b0 cf 3d
       0.023411661 0.069877505 0.068926 0.10141075
000050 66 d2 9d bd d2 bb 83 3d a4 b3 fe bc 6c 46 0f 3d
       -0.07706146 0.06432308 -0.031091519 0.03497927
000060 9f d8 6c 3d 5e db b6 3d eb 69 c2 3b 0a 53 ae 3d
       0.057823773 0.0892856 0.0059330366 0.08511932
000070 a1 03 62 bd fa 8f 8b 3d 6a c2 bc bd aa 92 d6 3d
       -0.055179242 0.06814571 -0.09216769 0.10477193
000080 ad ba db bd 33 48 ac bd e8 5b ac 3a 21 fc 9a 3d
       -0.10728965 -0.084122084 0.0013149949 0.07567621
000090 f5 4c c6 3d 24 37 9d bd 19 c5 8b bd 28 13 d5 bd
       0.09682647 -0.07676533 -0.06824703 -0.104040444
0000a0 9a 92 bd bd d0 0b e7 bd 29 f0 b8 3d ac cc e6 bd
       -0.09256478 -0.1128155 0.09030182 -0.11269507
0000b0 69 de d5 bc 28 10 63 3d 87 a9 69 3d 38 5b 7c bd
       -0.02610703 0.05543533 0.05704644 -0.06161043
0000c0 75 c6 9b 3d 5b 39 46 bc 25 18 8c 3c 45 ae 65 3d
       0.07606212 -0.012098636 0.017101357 0.0560744
0000d0 2c 91 52 3d 9a 37 a2 bd a1 05 e5 3d 53 f0 66 3a
       0.051407978 -0.079207614 0.11182714 0.0008809615
0000e0 f2 82 9f bc 33 c1 89 3c 43 47 d5 3d 99 7c b3 3d
       -0.01947162 0.016815757 0.10413983 0.087639995
0000f0 65 89 d9 3c 97 66 ef 3d 24 79 10 3d fc e9 81 3c
       0.026554773 0.11689489 0.03527178 0.015858643
000100 fc 67 c0 3c 08 a6 3a bd e2 29 bf 3d 8a d6 c2 bd
       0.023487084 -0.045568496 0.093341604 -0.09513576
000110 64 86 50 bd b8 16 66 bd ef 86 b2 bd 9c e9 49 bd
       -0.050909415 -0.05617401 -0.08717143 -0.049295053
000120 60 0e af 3d d6 0b 0f 3d 9f 3f a4 bc 69 bd be 3c
       0.08547664 0.034923397 -0.020049868 0.023283677
000130 44 a5 e5 bd fb 97 de bd 15 1a ef 3d 51 de 15 3d
       -0.112131625 -0.10868832 0.11674897 0.03658897
000140 9e 77 86 3d 0c bb be bd 21 3c b1 bd be 21 3a bd
       0.06565784 -0.0931302 -0.08654047 -0.045442335
000150 a4 e4 56 3c 97 fa 3a bb 0a 7c fd 3c 19 3f 29 3d
       0.013116036 -0.002853071 0.030942935 0.04131994
000160 de cd b1 bd 6d 52 db 3d 14 98 9b 3c b1 23 4e 3d
       -0.08681844 0.10709081 0.018993415 0.050327007
000170 c3 67 ce bd 8f ae d1 3d be 9b dd bb 6b 1d cc bd
       -0.10078385 0.102383725 -0.0067629507 -0.099665485
000180 1f b2 a0 bc ea 69 22 bd 66 bb e4 3d 44 d4 55 3d
       -0.019616185 -0.03965179 0.11168556 0.052204385
000190 78 fb ea bd c9 43 8b ba 65 4a 9e 3d 03 7c ae bc
       -0.11473745 -0.001062506 0.077290334 -0.021299368
0001a0 cc 43 81 3d 0e 09 d9 bc f2 6b 39 bd 4b 0f 82 bd
       0.06311759 -0.026493575 -0.04526896 -0.06350573
0001b0 c6 fb dc 3d 9c f9 9a 3d 43 c9 e3 bd 52 24 7f bd
       0.107902095 0.075671405 -0.11122372 -0.062290497
0001c0 d8 d3 82 3d 8d 5e 17 bd f3 b0 aa bc 1b 6e b2 3d
       0.06388062 -0.036955405 -0.02083633 0.08712407
0001d0 de 6d a4 bd 3b c6 ee bb 10 65 ea bd 37 f3 5d bd
       -0.08028768 -0.0072868145 -0.114450574 -0.054187026
0001e0 d1 b7 98 3c 68 5a 34 3d 2f 4f eb bc 2e 8a 07 3d
       0.018642338 0.04403153 -0.028724281 0.033090763
0001f0 40 65 dc 3d 14 17 c0 3d 98 d9 83 bd ca 77 89 3a
       0.107614994 0.09379402 -0.06437987 0.001048797
000200 56 ff 85 bb 87 ce eb bd fa 6f 5c 3d 61 8c b6 3d
       -0.0040892763 -0.11514001 0.053817727 0.08913494
000210 36 7a 85 bd 50 d0 a8 bd 1c fc dd bc e0 46 af 3c
       -0.065174505 -0.082428575 -0.027097754 0.0213961
000220 72 00 2b 3d fa e1 03 bd 3b 0d d5 3d bb 60 f1 bd
       0.04174847 -0.03219793 0.10402914 -0.11786028
000230 f3 05 1a 3d 5f 93 66 3d ef 71 cf bd ec 7f 3d bd
       0.03760333 0.056292888 -0.10129153 -0.046264574
000240 39 77 55 bb 4a fa 50 3d d4 51 c5 3d 42 0d 67 bd
       -0.0032572283 0.051019944 0.09634748 -0.056409128
000250 2a 1f ea 3d 20 94 ce bd 56 d3 49 3d cc 5d a0 bd
       0.11431725 -0.10086846 0.04927381 -0.0783039
000260 f6 f9 17 3d 58 c6 66 bd a5 9c 3a bd 79 be d6 bd
       0.037103616 -0.0563415 -0.045559544 -0.104855485
000270 f4 a1 c4 3d 5a bb 44 3d 3b f4 c1 3d 92 c0 cb bd
       0.096012026 0.048030235 0.094704114 -0.09948839
000280 63 d3 8d bd 89 d4 66 3d a9 f4 a6 3d a7 ff 8d bd
       -0.069250844 0.056355033 0.08152134 -0.069335274
000290 38 73 cd 3d 16 40 f7 3b 37 76 1d bd 75 b7 d2 3c
       0.10031742 0.0075454814 -0.038442817 0.025722245
0002a0 ec 56 77 bd eb 86 bc 3d f7 f4 31 bd 80 4f 29 3d
       -0.06038563 0.09205421 -0.043446507 0.041335583
0002b0 ef cd 1b bd 90 2c c2 3c a4 08 7b 3d e7 4f c2 bd
       -0.03803819 0.02370289 0.061287537 -0.094878964
0002c0 80 6e ff bc 45 a4 27 bc 27 63 71 3d 46 a2 45 3d
       -0.03118062 -0.010232036 0.05893245 0.04825046
0002d0 28 af ee bd bb 63 09 3d fc 89 cf 3c f1 c5 cd bd
       -0.11654502 0.033542376 0.02533435 -0.1004752
0002e0 55 07 df bd 4d f0 aa 3c d2 ae f3 bd c5 2c 54 bd
       -0.1089007 0.020866537 -0.11898579 -0.051800508
0002f0 2c d9 87 3d 08 89 8b bd 01 f3 70 3d 02 ba b8 3d
       0.06633219 -0.06813246 0.058825497 0.09019853
000300 a8 e8 48 bc 27 ba a5 3d e6 ca 96 3d e0 54 1e bd
       -0.012262501 0.08092146 0.073629186 -0.03865516
000310 e9 9a bb bb 21 3b d1 bd c9 5e a7 3d 96 81 a0 3d
       -0.005725254 -0.10216356 0.08172376 0.078372166
000320 7b 53 dd bc 83 24 b9 3c ee ea c0 3d 8b 0e 85 3d
       -0.027017346 0.022600418 0.09419809 0.064969145
000330 f4 e6 a9 3d 1f fc 98 3d 93 2d 86 bd 6a 74 dc bc
       0.08296004 0.07469963 -0.06551661 -0.02691098
000340 00 79 55 bc df f8 76 bc 91 f2 ab 3c 4d 4b 48 bd
       -0.013029337 -0.015073984 0.020989688 -0.048899937
000350 56 be 91 3d aa bd 05 bd 4f e2 95 3d 94 2e 2d bd
       0.07116382 -0.03265158 0.073185556 -0.04228075
000360 35 5b a9 3d e0 70 d8 bd d7 5d 81 bd 27 3a 52 3d
       0.082693495 -0.10568404 -0.06316727 0.05132499
000370 ac d6 b7 3b 3b b2 b8 bd 7f d1 e9 bb ac 16 80 3d
       0.0056103077 -0.0901837 -0.0071355696 0.06254324
000380 8b 93 22 3c f5 9f a7 bd 3c 0f 22 3d c2 17 05 3d
       0.009922872 -0.08184806 0.03956531 0.03249336
000390 6d 53 2c ba 22 02 bf bd 88 30 64 bd dc a6 b4 3d
       -0.00065737107 -0.09326579 -0.055710346 0.088208884
0003a0 72 e1 49 bc 23 36 a2 3c 83 81 ae bd 3b 03 97 bd
       -0.012321817 0.019801205 -0.08520796 -0.07373663
0003b0 2a bd 9e 3b 4d bd 57 bc 3b d5 dd bd f8 d0 8e 3d
       0.0048443275 -0.013167691 -0.10831686 0.069734514
0003c0 11 ed 7f 3d 80 4f 5b bd da f9 e5 bd 51 d2 f0 bd
       0.062481944 -0.053542614 -0.11229296 -0.11758865
0003d0 f5 a6 2d 3b ae 63 31 3c af 7c 9b bd 54 e1 03 bd
       0.002649722 0.010826988 -0.07592141 -0.03219731
0003e0 8d 89 6b 3d 71 68 b1 3d 0a 4d 45 bd e8 35 7e bd
       0.057504226 0.08662499 -0.048169173 -0.062063128
0003f0 1b 87 e7 3d 3e b2 86 bd 00 44 3b 3d 27 e8 ab bc
       0.11305066 -0.06576966 0.045719147 -0.020984722

network.1.weight f4 [512]
000000 0c 14 80 3f ea 15 7d 3f 1c c0 7f 3f 84 9d 80 3f
       1.0006118 0.98861563 0.9990251 1.004807
000010 fd 40 7f 3f 85 da 7f 3f 4d b7 7c 3f 4f 97 7f 3f
       0.9970854 0.9994281 0.98717195 0.99840254
000020 3d 24 7f 3f ec 04 81 3f fb 02 80 3f 0c 74 81 3f
       0.9966467 1.0079627 1.000091 1.011354
000030 fc 2c 80 3f 43 6c 7d 3f ec 7a 81 3f 2a c4 80 3f
       1.0013728 0.9899332 1.0115638 1.0059865
000040 57 21 80 3f fa 9b 80 3f 59 9a 80 3f 15 14 80 3f
       1.0010175 1.00476 1.0047103 1.0006129
000050 31 74 81 3f 29 f0 80 3f 4e a6 7f 3f ab b9 7d 3f
       1.0113584 1.0073291 0.99863136 0.9911143
000060 3a 00 80 3f fb 61 7f 3f ab 56 82 3f 0a 74 7f 3f
       1.0000069 0.9975888 1.0182699 0.99786437
000070 7f 90 7e 3f 2f cc 7f 3f ef ca 7e 3f fa db 7c 3f
       0.99439234 0.99920934 0.995284 0.9877316
000080 b0 d0 80 3f ee 4f 81 3f bf 30 80 3f 09 11 7f 3f
       1.0063686 1.0102518 1.0014876 0.9963537
000090 c4 aa 80 3f 6a bf 7c 3f 07 4d 81 3f 79 70 7e 3f
       1.0052114 0.98729575 1.0101632 0.9939037
0000a0 c3 10 81 3f e0 0d 7e 3f a8 e1 7c 3f 93 6d 7f 3f
       1.008324 0.9923992 0.98781824 0.9977657
0000b0 74 cb 80 3f 59 14 7c 3f d3 b7 81 3f 82 f0 7f 3f
       1.0062089 0.9846855 1.0134224 0.9997636
0000c0 90 80 7f 3f 53 83 7f 3f af ac 80 3f 07 6e 7b 3f
       0.99805546 0.9980976 1.0052699 0.98214763
0000d0 24 cc 7e 3f 25 b3 7c 3f 4c 7b 7f 3f 3f 35 80 3f
       0.99530244 0.9871085 0.9979751 1.001625
0000e0 e4 c9 7d 3f c2 57 7f 3f b7 df 7f 3f 52 b1 7f 3f
       0.99136186 0.9974328 0.99950737 0.99879944
0000f0 80 29 80 3f 43 56 7f 3f 5b ab 7e 3f 91 d1 81 3f
       1.0012665 0.99741 0.9948022 1.014208
000100 99 67 7e 3f b9 65 7c 3f 5a b4 80 3f ee 7b 7e 3f
       0.9937683 0.98592716 1.0055039 0.9940785
000110 71 00 82 3f 66 74 80 3f f2 32 81 3f 7c c5 7d 3f
       1.0156385 1.0035522 1.0093672 0.9912946
000120 c6 c2 7f 3f 22 f1 7d 3f 28 46 7e 3f 0a 19 7e 3f
       0.99906576 0.99196064 0.993258 0.99256957
000130 2d 50 80 3f c3 5e 80 3f eb 7e 7e 3f 36 b7 80 3f
       1.0024468 1.0028919 0.9941241 1.0055912
000140 be 39 7e 3f a9 e8 7f 3f 4c 1a 80 3f b5 01 80 3f
       0.9930686 0.99964386 1.0008025 1.0000521
000150 8c 87 80 3f 87 31 80 3f 80 50 80 3f df 8d 81 3f
       1.0041366 1.0015115 1.0024567 1.0121421
000160 fa b6 7f 3f 53 b2 7f 3f c9 17 7d 3f ed a6 7f 3f
       0.99888575 0.99881476 0.9886442 0.99864084
000170 8c bd 7f 3f 5b 11 7e 3f e0 4e 7e 3f 0f 3a 80 3f
       0.998986 0.9924523 0.99339104 1.0017718
000180 88 9d 81 3f ba ae 7f 3f 8f 6d 80 3f eb 9f 7d 3f
       1.01262 0.99875987 1.0033435 0.9907214
000190 92 ec 7d 3f 11 4a 7e 3f ec 98 80 3f ed 2c 81 3f
       0.991891 0.99331766 1.0046668 1.0091835
0001a0 a2 97 80 3f e6 e8 7c 3f ea fd 7c 3f 93 18 82 3f
       1.0046275 0.98792875 0.9882494 1.016375
0001b0 49 9f 7f 3f 48 11 81 3f 62 91 80 3f ba 9e 7d 3f
       0.99852425 1.0083399 1.0044367 0.9907032
0001c0 54 db 7d 3f 56 05 7f 3f 80 cc 7c 3f f7 e3 7f 3f
       0.99162793 0.99617517 0.9874954 0.9995722
0001d0 e0 62 7d 3f fb 15 81 3f 5b e9 7e 3f 4e c2 7d 3f
       0.98978996 1.0084833 0.9957482 0.9912461
0001e0 f5 50 80 3f bd 9e 7d 3f fb b6 7f 3f 88 a9 80 3f
       1.0024706 0.9907034 0.9988858 1.0051737
0001f0 51 3e 81 3f c7 e4 81 3f e4 ff 7d 3f d2 4f 80 3f
       1.0097142 1.0147942 0.99218583 1.0024359
000200 94 b3 7f 3f 85 36 7e 3f 75 25 80 3f 59 f4 7d 3f
       0.9988339 0.9930194 1.0011431 0.9920097
000210 11 dc 80 3f 09 0c 81 3f 95 b7 80 3f 0c 56 7c 3f
       1.0067159 1.0081798 1.0056025 0.985688
000220 c3 a1 7c 3f d5 51 80 3f 8c 2c 80 3f 56 5c 7c 3f
       0.9868433 1.0024973 1.0013595 0.98578393
000230 c4 aa 7e 3f 78 2a 7d 3f 8d b7 7e 3f ef 1b 7f 3f
       0.9947932 0.9889293 0.99498826 0.99652
000240 08 18 80 3f 44 8d 7f 3f 8d 01 80 3f 15 35 80 3f
       1.0007334 0.9982493 1.0000473 1.0016199
000250 54 7e 7e 3f ef f7 7e 3f c5 16 80 3f 78 87 7e 3f
       0.9941151 0.99597067 1.0006949 0.9942546
000260 bc 90 7f 3f 65 76 80 3f 63 73 80 3f f9 73 80 3f
       0.9983022 1.0036131 1.0035213 1.0035392
000270 69 b3 80 3f 30 27 80 3f c3 22 7e 3f 17 ec 7e 3f
       1.0054752 1.0011959 0.9927179 0.99578995
000280 ff 66 7c 3f fb 07 7f 3f 1a ee 80 3f d6 b4 7f 3f
       0.9859466 0.9962155 1.0072663 0.9988531
000290 93 98 80 3f d5 52 80 3f b9 dc 80 3f 4d 18 80 3f
       1.0046562 1.0025278 1.0067359 1.0007416
0002a0 07 01 80 3f 71 a0 80 3f 9a aa 80 3f 62 71 80 3f
       1.0000314 1.0048963 1.0052063 1.0034602
0002b0 8e 8f 7e 3f 9d 37 80 3f 16 b1 7d 3f 35 2a 81 3f
       0.994378 1.0016972 0.99098337 1.0091006
0002c0 19 7f 7e 3f 87 de 7f 3f 8e 24 82 3f 36 1a 7d 3f
       0.99412686 0.99948925 1.0167406 0.9886812
0002d0 dc 57 80 3f 96 6d 82 3f a0 c3 7f 3f 66 d7 7d 3f
       1.0026813 1.0189693 0.99907875 0.99156797
0002e0 c5 b5 80 3f ac d8 7c 3f 5b 7c 80 3f f0 a2 7d 3f
       1.0055472 0.98768115 1.003795 0.9907675
0002f0 68 3f 81 3f e2 d3 80 3f 58 4e 80 3f 3a de 7e 3f
       1.0097475 1.0064662 1.0023909 0.9955784
000300 73 86 7f 3f ec 67 7c 3f 2e 16 82 3f a4 d4 7f 3f
       0.9981453 0.9859607 1.0163019 0.9993384
000310 f5 9a 80 3f c7 1d 82 3f 76 78 80 3f fe c1 7e 3f
       1.0047289 1.0165337 1.0036762 0.9951476
000320 39 a6 80 3f aa 11 80 3f 87 ce 80 3f a0 6a 7d 3f
       1.0050727 1.0005391 1.0063027 0.9899082
000330 42 f2 80 3f 7e f5 7e 3f f8 8b 80 3f d2 3a 7f 3f
       1.0073931 0.9959334 1.0042715 0.9969913
000340 e6 3d 80 3f 77 81 7d 3f b2 87 7f 3f 8e 01 7e 3f
       1.001889 0.9902567 0.9981643 0.9922112
000350 5c f7 7d 3f fb ea 7e 3f 5d 9b 80 3f 44 78 7f 3f
       0.99205565 0.995773 1.0047413 0.99792886
000360 11 a6 81 3f 4e 3f 81 3f d6 4c 7f 3f 95 18 81 3f
       1.0128804 1.0097444 0.9972662 1.0085627
000370 b2 fb 7e 3f f8 f5 7e 3f 12 8e 80 3f d1 71 80 3f
       0.99602807 0.9959407 1.0043356 1.0034734
000380 3c a7 7e 3f 91 42 7f 3f 4f 65 82 3f bd 54 7f 3f
       0.9947393 0.9971095 1.0187167 0.99738675
000390 3c 74 7e 3f 17 69 81 3f 02 84 81 3f 45 bd 7f 3f
       0.9939611 1.0110196 1.011841 0.9989818
0003a0 e7 66 80 3f 1e b8 80 3f fc c9 80 3f f3 85 81 3f
       1.0031403 1.0056188 1.0061641 1.0119003
0003b0 2d 31 80 3f 19 06 80 3f 05 84 81 3f 43 6b 80 3f
       1.0015007 1.0001861 1.0118414 1.0032734
0003c0 3b ae 7f 3f 19 c2 80 3f b5 34 81 3f be cb 7f 3f
       0.9987523 1.0059234 1.009421 0.9992026
0003d0 65 ad 80 3f 3b 33 7e 3f b0 7e 80 3f a3 98 80 3f
       1.0052916 0.9929692 1.0038662 1.0046581
0003e0 37 2e 80 3f 62 80 7e 3f dd b3 7d 3f 2b c7 7e 3f
       1.0014104 0.99414647 0.99102575 0.99522656
0003f0 67 a3 7d 3f 90 7a 7e 3f 97 5f 80 3f cb 9b 7f 3f
       0.9907746 0.99405766 1.0029172 0.99847096

network.1.bias f4 [512]
000000 06 bc 93 3b 6a 7e ff ba 4f 31 a3 3a a5 ad 45 bb
       0.004508498 -0.001949263 0.0012450608 -0.0030163315
000010 10 44 d6 bb 56 bb 0f 3c 0f 89 e2 bb a3 e0 a8 3a
       -0.0065388754 0.008772692 -0.0069133113 0.001288433
000020 ce 3e 34 bc 31 4a 54 3a 6b 70 ba bb 2b 90 81 3c
       -0.011001302 0.00080982136 -0.005689671 0.015815815
000030 ea bd f0 bb c0 71 38 bc 4f e2 53 bb f5 58 32 3c
       -0.0073468583 -0.011257589 -0.0032330935 0.010885467
000040 66 d2 16 3c 44 15 0c bb b7 1e 5c ba 66 f3 a9 3b
       0.009205436 -0.002137498 -0.0008396911 0.005186486
000050 19 12 cb 3b 86 e6 82 39 ba 3c 0e 3c a2 25 38 bc
       0.006197226 0.00024967286 0.0086814705 -0.011239441
000060 4e af 87 3a 80 17 6b bb 74 fb 58 3c be 05 df 3a
       0.0010351927 -0.0035872161 0.013243545 0.0017015261
000070 66 41 e0 bb 84 eb 7f 38 58 14 14 bc 24 63 fb bb
       -0.0068437336 6.101608e-05 -0.009038053 -0.0076717306
000080 98 bc f1 3b 6a 2e 58 3c a2 0d 19 bc 3b 18 b6 bb
       0.0073772185 0.01319466 -0.009341629 -0.0055570877
000090 eb 59 73 bb 9a 82 73 bc 96 a9 a7 3b 5a aa 78 ba
       -0.0037132453 -0.014862681 0.0051166518 -0.00094858336
0000a0 df 12 2a 3c d2 e5 78 bb be 7e 76 bc 04 25 62 3b
       0.010380476 -0.003797878 -0.015044866 0.0034506926
0000b0 0e 46 e1 3b 46 dd 5f bc 45 b2 52 3c 00 58 a4 ba
       0.0068748062 -0.013663596 0.012859886 -0.0012538433
0000c0 0e 14 07 3c 7e f3 3c bb 04 bf 23 3c 70 ab 34 bc
       0.0082445275 -0.0028831656 0.009994272 -0.011027202
0000d0 e3 17 b2 bb 82 3e 9e bc fe 33 cd bb be c2 28 bb
       -0.0054349764 -0.019316915 -0.0062623015 -0.002575084
0000e0 79 34 80 3b 24 44 44 bb 1f b7 2c bb 91 86 ce 3b
       0.003912505 -0.0029947842 -0.0026354266 0.0063026627
0000f0 b3 fc 44 3b 27 20 49 bb 20 de 98 3b fb f1 b5 bb
       0.0030057847 -0.003068933 0.0046651512 -0.005552528
000100 a8 10 51 bb 2c 46 f2 bb 84 01 1e 3c af 49 3a 3a
       -0.0031900797 -0.007393619 0.009643916 0.00071063166
000110 c3 e4 6a 3c 3d c8 17 3c a9 94 83 3c 90 91 50 39
       0.014336768 0.009264049 0.016062098 0.00019890652
000120 17 46 9c 3b 3b 84 c0 bb 08 46 fc bb 4c 74 60 bc
       0.0047690975 -0.005875138 -0.007698778 -0.013699602
000130 8f 7b 87 3b 14 06 f5 3b 2c 94 63 bc 97 0a 60 3a
       0.0041346024 0.007477531 -0.013890307 0.00085465
000140 87 52 9e 3b 56 da 4e bc b1 b0 33 bb 88 34 63 39
       0.0048316154 -0.0126252975 -0.0027418549 0.00021667976
000150 b5 b1 0f bb e0 01 16 b8 d4 4e 8d bb fa f5 89 b9
       -0.002192599 -3.5764533e-05 -0.0043123756 -0.00026313943
000160 c0 0d 7d bb 5b ff 84 3b 48 2d 86 3b 7b cc 6c bb
       -0.0038612932 0.004058761 0.0040947534 -0.0036132622
000170 1c 8f c5 3b d1 c7 eb bb d9 20 26 bc 7c 38 82 38
       0.006029023 -0.007195451 -0.010139667 6.209404e-05
000180 b1 eb d2 3b 8e a6 bf bb 19 2d 83 3c 71 5c 0b bc
       0.006436788 -0.0058487123 0.016012715 -0.0085059265
000190 05 7d 5b bb 37 33 7e bb 97 9c 2f 3b d5 3b 8a 3b
       -0.0033491265 -0.003878785 0.0026796216 0.0042185583
0001a0 31 73 ac 3b 2f b5 13 bc 8e 44 51 bc 82 51 7b 3c
       0.0052627553 -0.0090153655 -0.012772692 0.015339257
0001b0 ca 5d 5d 3b 61 1b 49 3a b0 ab 91 3b c6 5f 7d 3b
       0.0033777826 0.0007671621 0.0044455156 0.0038661822
0001c0 bf db bc bb 77 fe bc ba dd 08 12 bc 65 b2 86 ba
       -0.0057635005 -0.0014419098 -0.008913246 -0.0010276554
0001d0 5a 6c 48 bc bf b5 54 3b 51 14 ed ba cd 41 db 3a
       -0.012232864 0.0032456962 -0.001808772 0.0016727984
0001e0 f7 0f 49 ba 01 28 a8 bb 28 47 d5 b9 e7 62 8e 3b
       -0.00076699205 -0.005131722 -0.0004067954 0.004345286
0001f0 18 37 55 bb 9a f1 09 3c 9d 2c 04 bc 9d ba db ba
       -0.003253406 0.008419419 -0.008067277 -0.0016763989
000200 04 bf 9c bb 5a bf 43 bb 5e d8 9a 3a ef a8 3d bc
       -0.004783513 -0.0029868693 0.001181375 -0.011575921
000210 de 50 30 b9 12 37 fb 3b 0b 7f ea 3b ad 8d 3b bc
       -0.00016814793 0.007666477 0.007156258 -0.011447352
000220 7d 11 21 bc a1 21 f1 38 ea 2d e5 bb 49 a2 21 bc
       -0.00983083 0.000114980394 -0.006993999 -0.009865352
000230 e4 ea 67 bb 57 ab 1e bc 19 b3 da bb 0a 1f 95 3b
       -0.0035387808 -0.009684405 -0.006674182 0.0045508193
000240 60 6d 0a bc 69 e1 9a 3b 34 06 95 3c df c7 2f 3b
       -0.008448929 0.004726578 0.018191434 0.0026822013
000250 45 0b 32 bc 72 79 0f bc f8 a7 1d bb c1 83 40 3b
       -0.010866945 -0.008756982 -0.0024056416 0.0029375406
000260 13 2c 8e bb b3 86 1f 3c d1 43 81 3c 88 0e b6 bb
       -0.00433875 0.009736705 0.015779408 -0.0055559315
000270 78 fc 7d 3a ba 9a 14 3c 20 b5 53 3b 31 07 31 bb
       0.0009688805 0.009070093 0.0032304004 -0.0027012343
000280 9f 60 3e bc 42 e0 7d 39 f8 3b 2a 3c 47 d2 f3 bb
       -0.011619716 0.00024211503 0.010390274 -0.0074408385
000290 f6 e5 ac 3b 4d fd 30 3b 66 82 13 bb 2a dd 4a bc
       0.005276437 0.0027006448 -0.0022508143 -0.012381831
0002a0 9c 94 ae 3b 84 91 3e 3b ba 9f 2c bb 11 f1 2d 3a
       0.005327774 0.0029078433 -0.0026340322 0.0006635348
0002b0 e7 81 a8 ba cb 82 9d 3b 01 0a 39 bc 2c 48 0c 3c
       -0.0012856097 0.0048068515 -0.011293889 0.008562129
0002c0 fc 82 fc ba 70 86 3d bb a9 2e 02 3c 7c 8b dc bb
       -0.0019265111 -0.0028919242 0.007945695 -0.006730495
0002d0 8b 89 c5 39 41 0e 18 3c 3e 6c 2b bc a4 68 99 bc
       0.00037677246 0.009280742 -0.010462819 -0.018726654
0002e0 8b 89 eb bb 5b e1 82 bc c8 5a 18 3c 64 f6 38 bc
       -0.0071880273 -0.015976598 0.009298988 -0.011289213
0002f0 51 e7 2f 3c fa cc 1e 3c 9c 34 c8 38 20 ae 16 bb
       0.0107363025 0.009692425 9.5465424e-05 -0.002299197
000300 d9 f4 c3 bb a6 9d 39 bc 72 f6 e8 3b ee 46 8e 3b
       -0.005980116 -0.01132909 0.0071094567 0.0043419516
000310 da f3 03 3c a4 b3 22 3c 31 87 24 3b 68 43 0e bc
       0.008053744 0.009930525 0.0025104994 -0.008683063
000320 ec 22 0a 3b ed 2f e2 3a ae d2 bc 3b a2 31 1c 3b
       0.0021077944 0.0017256715 0.0057624197 0.0023833294
000330 a8 3f 87 3c f8 8c e3 bb ed b9 72 3c 80 7f 4b ba
       0.016509846 -0.006944295 0.014814836 -0.00077628344
000340 09 ea 5d 3c cc 2f 9c 3b ee 7d c2 ba d7 55 73 bc
       0.013544568 0.00476644 -0.0014838555 -0.014852009
000350 d5 f5 07 ba de 9c 2e ba 50 51 da 3b 4a 94 2d bb
       -0.0005186473 -0.0006660948 0.0066625252 -0.0026486092
000360 ce f2 db bb b5 3e 5a 3c ea 12 fb bb 5a a0 00 3c
       -0.006712294 0.013320615 -0.007662167 0.007850731
000370 64 30 61 bb b4 cf 77 39 91 28 8d 3b dd f2 82 bb
       -0.0034361118 0.00023633131 0.0043078144 -0.0039962367
000380 0d d3 d0 ba d2 14 b9 ba 51 10 5e 3c 14 c3 dd 39
       -0.0015932039 -0.0014120585 0.013553695 0.0004229775
000390 4b fe 1d bc 3a eb 0b 3c 98 9f 30 3c d6 10 0a 3b
       -0.009643148 0.008539969 0.010780238 0.0021067164
0003a0 6e 54 f1 bb 6e e6 09 bb 5a 2e 29 3a 83 6a 99 3a
       -0.007364801 -0.0021041888 0.00064537453 0.0011704717
0003b0 76 df 90 3a 8d ab b1 3b f1 16 44 3a 4c c0 b8 3a
       0.0011052925 0.005422062 0.0007480225 0.0014095395
0003c0 20 77 88 bb cf 5d 7f bb 37 01 39 ba 09 d0 2a bc
       -0.0041645914 -0.0038965826 -0.0007057371 -0.010425576
0003d0 8f ba 0e 3c 92 95 f4 bb cf a7 d9 ba 3c 5f 6b bc
       0.008711471 -0.0074641192 -0.0016605797 -0.014365967
0003e0 09 60 04 bc 04 e9 d9 bb 68 15 21 bc f2 df 4f bc
       -0.008079537 -0.006650092 -0.009831764 -0.01268767
0003f0 ea 84 8c 3b 35 dc 06 bc ce 9c b6 3b 72 12 9b bb
       0.0042883055 -0.008231212 0.005572892 -0.0047324235

network.1.running_mean f4 [512]
000000 29 d7 f2 3d 0c 60 33 be ea f5 c4 bc df db 22 bd
       0.11857445 -0.17517108 -0.024043042 -0.039760467
000010 67 f4 98 bd a2 15 9f 3c 6f c2 48 3d 8f ce 03 be
       -0.07468491 0.019419495 0.04901355 -0.12871765
000020 cd fe 0f be 94 d5 c4 3c d1 5e 9d 3d 8f 2f 0c 3e
       -0.14062043 0.024027623 0.076841004 0.13690017
000030 ce 69 cd bb cf e5 1f bd 72 4e d3 bc c4 c6 d1 bc
       -0.0062687164 -0.039037522 -0.025794242 -0.025607474
000040 70 37 4e 3d ae dc c6 bd f5 7a 2f 3c 3f e0 fc 3d
       0.050345838 -0.0971006 0.010710468 0.12347459
000050 ab a2 d6 bd bc ce 67 3d 6c cc 09 bd e0 e2 0e bc
       -0.10480245 0.05659364 -0.033642218 -0.008721083
000060 61 64 d1 bc 7d ad f3 3d 36 0e 08 3e c9 31 f6 3d
       -0.02556056 0.11898325 0.13286671 0.120212145
000070 fe e7 c7 bc 42 f6 8f bd 49 78 c4 3c 0a f9 2e 3e
       -0.024402615 -0.07029392 0.023983138 0.17087188
000080 af a8 8b be 7b c4 18 be b1 e0 2c be c1 fe 22 bd
       -0.27277133 -0.14918701 -0.16882588 -0.039793734
000090 ed 90 0f bd 76 d7 be bd ec 2d a0 bd 23 ce a7 bd
       -0.03505032 -0.0931844 -0.07821259 -0.08193614
0000a0 92 f9 b6 bd e6 31 1f be 5f 07 1e 3e 47 18 0f be
       -0.089343205 -0.15546378 0.154325 -0.13974105
0000b0 44 01 34 bc 44 18 c6 3d 5c 34 e6 bd 6f ce 3c bd
       -0.01098663 0.09672597 -0.112404555 -0.046095308
0000c0 5c df 32 3e 60 95 d1 bd 2e 0d 43 bd 6c c8 cb 3d
       0.17468017 -0.10233569 -0.04761999 0.09950337
0000d0 86 fc 4e bd dd 4e c6 bd 64 ec 15 3e 2d bc a5 bd
       -0.050533794 -0.09683011 0.14640957 -0.08092532
0000e0 91 80 59 bd ce 97 ba 3d ff 2b 70 3e 71 59 e7 3d
       -0.053101126 0.09110986 0.23454283 0.112963565
0000f0 40 fd b3 39 1a f4 14 3e 82 e9 2f 3d 8a 71 62 3d
       0.00034330226 0.14546242 0.0429473 0.05528406
000100 05 61 2f bd 85 5d 2c be ba d8 bd 3d 70 42 17 be
       -0.042817134 -0.1683255 0.09269853 -0.14771438
000110 5a 1e f6 3c f7 54 fc bd 5b ab ef bd df b6 f7 bd
       0.03004377 -0.12320893 -0.11702605 -0.12095427
000120 10 03 e3 3d 53 22 e6 3c c3 99 4d bd c2 c6 d2 3d
       0.110845685 0.028092539 -0.050195467 0.10291816
000130 c7 1a a7 bc f6 44 9a bd 01 c3 d1 3d 10 f4 02 3e
       -0.02039851 -0.075326845 0.10242272 0.12788415
000140 4d 86 c9 3d e0 ca 10 be ee 27 eb bc fe 84 1a be
       0.09840069 -0.1413989 -0.028705563 -0.15089795
000150 62 96 27 3d 23 76 a7 3d d5 cb e5 3c d9 c7 0c 3e
       0.0409149 0.0817683 0.028051296 0.13748111
000160 6c 3b 00 bd 97 f7 57 3e c6 2b cc 3d 9a 38 e5 bc
       -0.03130667 0.21090542 0.099692866 -0.027981091
000170 47 77 25 be 03 2d dd 3c 13 62 3a 3d 21 c5 6f be
       -0.16158782 0.026999002 0.045503687 -0.23415042
000180 14 e6 d0 bd 14 4b 99 3c 04 85 40 3e 67 75 cb 3d
       -0.10200134 0.018712558 0.18800741 0.09934502
000190 0c 39 31 be 6f b3 02 bc f0 20 33 3e ef 98 a6 bd
       -0.17306918 -0.007977351 0.17493033 -0.081346385
0001a0 52 ad ef 3c 1c 24 68 be 11 b2 22 3d c2 05 e1 bd
       0.02925745 -0.22670025 0.0397206 -0.10987426
0001b0 90 2d 85 bd 43 1a 4f 3e 87 84 42 bc 00 f1 7f bd
       -0.06502831 0.20224862 -0.011872417 -0.062485695
0001c0 05 f7 54 bd 85 9d 9f 3d ad 95 82 3d c7 c6 13 3e
       -0.05199339 0.07793716 0.06376205 0.14431296
0001d0 41 9b ed bd f1 72 70 bd f4 8f 1f be 91 28 25 be
       -0.11601878 -0.058703367 -0.15582258 -0.16128756
0001e0 a0 02 32 3c c6 f2 f1 3c 7f 4d c1 3d 7f 8d d6 bd
       0.010864884 0.029534709 0.09438609 -0.10476207
0001f0 78 e7 4f 3e dd 5c c9 3c ef 5f 46 bd 6f fe c8 bd
       0.20303142 0.024580413 -0.048431333 -0.09814154
000200 95 90 c0 bd d9 97 97 bd d4 d2 ae bd 31 f2 0f 3e
       -0.09402577 -0.074020095 -0.08536306 0.14057232
000210 21 f5 0a 3b fb 03 c4 bd 21 56 b0 bd 1f a1 1c 3d
       0.0021203237 -0.09571072 -0.08610178 0.038239595
000220 98 b7 95 3c e9 22 58 be ef 14 0d 3e 98 8b fb 3c
       0.01827602 -0.21107067 0.13777517 0.030706212
000230 cb 1d 9c bd d8 60 46 3d 8b 6d 4c be 36 c8 6c bd
       -0.0762287 0.0484322 -0.19963662 -0.057808124
000240 3b 52 ff bc af 07 29 be 51 80 36 3e 9e 47 25 be
       -0.03116714 -0.16506837 0.17822386 -0.16140601
000250 e8 22 d3 3d 3a fa f3 bd bd e7 f6 3d 11 a9 2e be
       0.10309392 -0.11912961 0.12055919 -0.17056681
000260 22 8b ee bc 40 4d ca bd 3c fe 20 be 2a 07 15 be
       -0.029119078 -0.098780155 -0.15721983 -0.14553514
000270 25 b8 38 3c 5f 36 c2 3d a3 83 05 3e 28 5b 2a be
       0.011274372 0.09483027 0.13038497 -0.16636336
000280 bf 05 ab 3d dc 07 13 bc 76 33 8e 3d d1 43 15 be
       0.08350705 -0.008974042 0.06943409 -0.14576651
000290 ad 3e e5 3d d0 f2 76 3d 3e 1d 34 be a4 b5 8a 3c
       0.11193595 0.060290158 -0.1758928 0.016932316
0002a0 dd 9b 10 bc e6 d8 97 3d 27 1d 99 bc c7 6c 3b bd
       -0.008826223 0.07414417 -0.018690659 -0.045758035
0002b0 01 32 41 bd fe d9 09 be f3 63 b6 3d 4e a8 9f bd
       -0.047166828 -0.13462064 0.089057826 -0.077957734
0002c0 7b c8 42 bd a3 ae ab bd 33 40 34 3e be 96 b7 bc
       -0.047554474 -0.08382919 0.17602615 -0.022410747
0002d0 9a 02 ff bd d6 a7 0a 3d 41 44 24 bc 04 5b 9c bd
       -0.12451668 0.033851467 -0.010026039 -0.07634547
0002e0 fb 1f 3a 3d c3 3b 90 3d 4b 07 52 be 12 37 1b be
       0.045440655 0.07042649 -0.20510595 -0.15157726
0002f0 8e d7 6d 3d 27 1f 9b bd 67 96 db 3d 3d de 38 3e
       0.058066897 -0.07574301 0.10722046 0.18053527
000300 40 ef f0 bb c3 ba 3c 3e 1d ed 2a 3d f2 82 9b bd
       -0.0073527396 0.18430619 0.041730035 -0.07593335
000310 a4 36 c8 bd ab ef c5 bd ef cc 2d bd 2a 10 ae bd
       -0.09776047 -0.09664854 -0.042431768 -0.08499177
000320 e6 28 83 bd 0a 7f d8 bc 62 13 02 3d 69 97 4c 3d
       -0.06404285 -0.026427764 0.031756766 0.049949083
000330 56 eb aa 3d 0e 43 02 3c ab 95 93 bd 92 10 c2 bc
       0.08345668 0.007950557 -0.07206281 -0.023689542
000340 18 a0 a3 bc 89 4e 02 bd af 18 66 bd 00 32 3c bd
       -0.0199738 -0.03181318 -0.056175884 -0.04594612
000350 d6 9d 43 3e 89 b2 18 bc 3d 59 db 3d 28 2a e2 bd
       0.19103178 -0.00931991 0.1071038 -0.11043197
000360 35 c7 0e 3e a6 5a c6 bd 53 70 88 bc 29 61 44 bb
       0.13943179 -0.096852586 -0.016655123 -0.0029965139
000370 e5 b8 96 bd 38 b2 39 be b6 fc 72 bd 57 9c 27 3e
       -0.073594846 -0.18134391 -0.059323035 0.16368233
000380 77 16 09 be 74 3b 23 bd 5e ef ed 3a 36 05 44 bc
       -0.13387476 -0.03985162 0.0018153002 -0.011964133
000390 1a 32 93 bb ed 51 21 bd db 2a 9e bd a4 9e a7 3d
       -0.0044920566 -0.03938477 -0.07723018 0.08184555
0003a0 bc f3 17 be 1e 1e 46 3e a7 5b 27 bd 94 cb fb bd
       -0.14839071 0.19347426 -0.04085889 -0.12294689
0003b0 16 82 a0 bd 10 e1 11 3e 93 64 12 bd c1 b6 1f 3e
       -0.07837312 0.14246011 -0.035740446 0.15597059
0003c0 db 0f f6 bd 63 62 63 bc 69 55 3f 3d d2 dc b2 bd
       -0.12014743 -0.013878438 0.046712313 -0.087335244
0003d0 73 58 d6 3c c7 4d be 3d 5c 2f fb bd ec 6f ff bd
       0.026165223 0.092921786 -0.122648925 -0.12472519
0003e0 1c 80 8c 3d 6d 33 d9 3d 9c ff b1 3d 93 34 f3 bc
       0.068603724 0.10605512 0.08691332 -0.029688155
0003f0 65 3e d6 3d 12 f9 3e bd 02 e3 a2 bc 17 bb b7 3c
       0.104611196 -0.04662425 -0.019883636 0.022428079

network.1.running_var f4 [512]
000000 9a 62 6a 3e 46 7d 8a 3e 51 6a c5 3e 4a ac be 3e
       0.22889176 0.270487 0.38557675 0.3724082
000010 e8 f3 b1 3e c2 43 bf 3e 48 df 80 3e ab dc ac 3e
       0.34756398 0.37356383 0.2517035 0.33762106
000020 cf e3 9b 3e 38 59 91 3e 40 d8 b4 3e 8e 08 9d 3e
       0.30447242 0.2838838 0.35321236 0.3067059
000030 06 80 99 3e 30 c7 ae 3e da 9f 7e 3e a3 93 50 3e
       0.29980487 0.34136343 0.24865666 0.20368819
000040 ad 13 94 3e 09 51 89 3e 04 5f 88 3e 34 cd 80 3e
       0.2892126 0.26819637 0.2663499 0.25156558
000050 2f cd 85 3e 36 d2 8b 3e 1b 8f 9f 3e c9 bd 82 3e
       0.26133105 0.27308816 0.31163868 0.2553542
000060 29 38 b1 3e 60 50 d5 3e c0 10 71 3e 81 17 7e 3e
       0.3461316 0.41662884 0.23541546 0.24813654
000070 af 4c 92 3e 27 6d b5 3e bc b7 8e 3e 20 55 6f 3e
       0.2857413 0.3543484 0.27874553 0.23372316
000080 8b a4 d7 3e 88 44 8d 3e 4a 3b ac 3e 0f 53 8a 3e
       0.42117724 0.27591348 0.33638984 0.27016494
000090 a6 ab 97 3e 8f 71 84 3e 71 42 84 3e e1 4f f7 3e
       0.29623145 0.25867888 0.2583194 0.4830313
0000a0 f4 cc d5 3e 03 26 f9 3e e0 25 a5 3e 4a cd 7d 3e
       0.4175793 0.48661813 0.3225546 0.24785343
0000b0 8e 7a 83 3e f9 2b a1 3e cf 6e b7 3e 37 11 a4 3e
       0.2567944 0.3147886 0.35826728 0.32044384
0000c0 a9 4e ec 3e 6d 67 a3 3e be b5 8d 3e 43 e9 9c 3e
       0.46153763 0.31914845 0.2767772 0.30646715
0000d0 c7 41 85 3e 67 a7 92 3e 56 fc c4 3e dd b9 9c 3e
       0.26026747 0.28643343 0.38473767 0.30610552
0000e0 a8 6c 7f 3e f9 be a0 3e 27 25 c7 3e b1 69 98 3e
       0.24943793 0.313957 0.38895532 0.29768136
0000f0 ce c6 87 3e 4a 66 89 3e e2 32 97 3e 0d 48 80 3e
       0.26518863 0.26835853 0.29531008 0.2505497
000100 a8 d6 99 3e a4 70 c2 3e b2 ff a3 3e 2b 6e ad 3e
       0.30046582 0.37976563 0.32031018 0.33873114
000110 b6 7c 89 3e ee 0d 8e 3e 27 69 9d 3e e1 d0 91 3e
       0.2685296 0.27745003 0.30744287 0.28479674
000120 4f 6b 7e 3e c0 8c b5 3e 56 eb aa 3e a2 41 c4 3e
       0.24845622 0.35458946 0.33382672 0.38331324
000130 eb 50 74 3e f3 54 32 3e 1e 2f 92 3e 2f e3 88 3e
       0.23858993 0.17415218 0.28551573 0.26735827
000140 78 68 99 3e 90 7c aa 3e 5a 68 94 3e 63 e4 ce 3e
       0.29962516 0.3329816 0.28985864 0.4040862
000150 ea 04 d0 3e a0 ab a2 3e 2a 80 74 3e 9a 29 91 3e
       0.4062875 0.31771564 0.23877016 0.28352052
000160 f5 53 a6 3e 09 c1 85 3e 1b df 92 3e 00 b3 d0 3e
       0.3248593 0.26123837 0.2868584 0.40761566
000170 11 89 97 3e f7 5c 9d 3e e4 c9 9c 3e 1e 43 96 3e
       0.2959676 0.3073499 0.3062278 0.2934808
000180 3d 71 19 3f a6 82 86 3e 48 1b a7 3e ee 38 bf 3e
       0.5993841 0.26271552 0.32638 0.3734812
000190 9a ce 89 3e 0a 4b 8a 3e 23 d2 db 3e 3e b8 82 3e
       0.26915437 0.27010375 0.4293376 0.2553119
0001a0 60 85 80 3e 17 9c 9c 3e 89 b6 a1 3e ac ca cc 3e
       0.25101757 0.30587837 0.31584576 0.39998376
0001b0 b9 ad 79 3e 91 37 c3 3e c0 c1 87 3e 40 09 b1 3e
       0.24382676 0.3812833 0.26515007 0.3457737
0001c0 52 cf a2 3e 46 f6 ab 3e 4f 08 8a 3e d8 c3 a8 3e
       0.31798798 0.3358633 0.26959464 0.32961917
0001d0 fa b1 87 3e 9e 9b a6 3e 01 e2 8f 3e a4 f8 a1 3e
       0.26502973 0.32540601 0.28102115 0.3163501
0001e0 bd f8 ca 3e ff 78 9c 3e 98 e5 80 3e 59 61 a0 3e
       0.39642897 0.30561063 0.25175166 0.3132427
0001f0 5a 78 73 3e dc fa 98 3e 4c ef dc 3e bb 93 a1 3e
       0.23776379 0.2987889 0.4315132 0.31558022
000200 c2 4c c7 3e 52 49 97 3e af e7 ac 3e 55 7b 81 3e
       0.3892575 0.29548126 0.3377051 0.25289407
000210 51 82 90 3e 21 42 8a 3e fe 9e be 3e e2 68 8b 3e
       0.28224424 0.27003577 0.37230676 0.27228457
000220 fe 66 89 3e 2c 5c 96 3e 6d 55 bb 3e 16 bb 6b 3e
       0.2683639 0.29367197 0.36588612 0.23020586
000230 d0 32 ca 3e 86 81 71 3e 2d fd 92 3e d6 e7 8a 3e
       0.39491892 0.23584566 0.28708783 0.27130002
000240 69 3e 8a 3e 7d 30 98 3e 13 a9 da 3e cf ca 9d 3e
       0.2700074 0.29724494 0.42707118 0.30818793
000250 06 5b 9b 3e 75 f5 8b 3e 99 2d a7 3e 1e 7b b7 3e
       0.30342883 0.27335706 0.32651976 0.35836118
000260 4c fd 9a 3e 82 46 b7 3e e9 00 92 3e a4 af 98 3e
       0.30271375 0.3579598 0.2851632 0.29821503
000270 4e e3 bd 3e 0e 39 8b 3e 39 8f be 3e 96 7f a3 3e
       0.37087482 0.27191967 0.37218645 0.31933278
000280 dd 7b b2 3e b3 3c ac 3e e4 ba 90 3e 59 7f c0 3e
       0.34860125 0.3364006 0.28267586 0.3759716
000290 c8 db 86 3e 78 11 bb 3e ec ee 95 3e e5 d8 8c 3e
       0.26339555 0.36536765 0.29283845 0.27509227
0002a0 b6 d9 9b 3e 65 e4 ca 3e 01 4e b5 3e 0d 89 78 3e
       0.30439538 0.39627376 0.35411075 0.2427103
0002b0 9b f9 d2 3e 97 87 b6 3e 1e 00 84 3e ad 53 ca 3e
       0.4120606 0.35650322 0.2578134 0.39516965
0002c0 ab 3a a8 3e 05 54 59 3e 63 ba 9e 3e 6c c3 a4 3e
       0.3285726 0.21223457 0.31001577 0.32180345
0002d0 9f 64 b0 3e 62 e7 cc 3e 87 67 a9 3e df 9d ad 3e
       0.34451768 0.4002028 0.33086798 0.3390951
0002e0 46 9d 9e 3e c8 1e df 3e de e8 a0 3e e4 b2 bb 3e
       0.30979365 0.43578172 0.31427664 0.3665992
0002f0 d5 95 81 3e 9a 46 80 3e 1f 54 95 3e ce 1a c1 3e
       0.25309625 0.25053865 0.29165742 0.37715763
000300 cd ea 91 3e 4f c8 9c 3e 4e 23 a0 3e 8d 6b ed 3e
       0.2849945 0.30621573 0.31276935 0.46371117
000310 0e 28 82 3e 32 85 99 3e a0 aa 9c 3e 3d b5 c0 3e
       0.25421184 0.29984432 0.30598927 0.37638274
000320 56 ac 83 3e a1 dd 99 3e 87 c8 a7 3e 48 ac a2 3e
       0.2571742 0.30051902 0.32770178 0.31772065
000330 53 7a af 3e 01 e9 aa 3e 1b 11 d6 3e b5 59 d1 3e
       0.34273013 0.33380893 0.41809925 0.40888754
000340 24 85 88 3e 8e 22 a1 3e 79 2f 83 3e a8 02 9c 3e
       0.26664078 0.31471676 0.25622156 0.30470777
000350 8a d0 a8 3e 12 cb b9 3e 50 a7 c2 3e 6a 15 b4 3e
       0.32971603 0.36287743 0.38018274 0.35172588
000360 b7 7c a7 3e dc f1 83 3e 77 d9 88 3e d3 c4 b0 3e
       0.32712337 0.25770462 0.26728413 0.34525165
000370 4a 4c d2 3e 74 3a 83 3e 8a 18 6c 3e 0b 5f a1 3e
       0.4107383 0.25630534 0.23056236 0.31517825
000380 29 8f 91 3e 99 58 a9 3e 84 b0 9b 3e 56 69 a4 3e
       0.28429535 0.33075407 0.30408108 0.32111615
000390 ab ba a8 3e 31 72 9e 3e 64 bd 83 3e e0 99 bd 3e
       0.32954916 0.30946496 0.2573043 0.3703146
0003a0 a5 a8 7e 3e ea 39 9a 3e 1e 23 b1 3e da d6 b0 3e
       0.2486902 0.3012231 0.34597105 0.3453892
0003b0 24 14 b4 3e 8a d4 98 3e 49 3b bf 3e 2b d6 97 3e
       0.35171616 0.29849654 0.37349918 0.29655585
0003c0 62 26 12 3f 35 46 b6 3e a8 0b 9a 3e d7 af 5f 3e
       0.5708982 0.3560044 0.30087018 0.21844421
0003d0 6e 7b ba 3e 76 36 a5 3e bd 15 b6 3e e6 bf 0b 3f
       0.36422294 0.32268113 0.3556346 0.5458969
0003e0 a9 25 77 3e bc 51 8b 3e 41 06 7a 3e 69 0a 7b 3e
       0.2413546 0.27210796 0.24416448 0.2451569
0003f0 40 cc 98 3e d8 37 98 3e 54 47 ca 3e 0c 69 82 3e
       0.2984333 0.29730105 0.39507544 0.2547077

network.4.weight f4 [256, 512]
000000 c0 69 23 3d ef 71 81 bc e2 5c 4f 3c 0a ef 1b bd
       0.039895773 -0.015801398 0.012656422 -0.038069762
000010 67 10 2b bd cf b2 1a bc a2 b8 aa bc 93 39 35 bd
       -0.04176369 -0.009442045 -0.020839993 -0.04424436
000020 64 00 c2 bc 48 42 0b bd 91 02 40 3c a8 3f 07 3c
       -0.023681827 -0.033998758 0.011719362 0.008254923
000030 2b 43 95 3c 9a 99 34 3d bc af 37 bd 7f 33 da 3c
       0.018220505 0.0440918 -0.044845328 0.026635883
000040 7f c4 b2 bc d5 03 78 bc 24 39 92 bb 92 dd 57 3c
       -0.021822212 -0.015137632 -0.004462378 0.013175385
000050 d0 07 6f 3c 45 5a 37 bd 2d ba 09 3d f2 89 82 bc
       0.014589265 -0.044763822 0.033624817 -0.015934918
000060 47 2c a2 bb 6d 98 d7 3c 37 02 22 bc fd 11 14 bc
       -0.004949126 0.0263178 -0.009888223 -0.009037492
000070 6b e4 0e bd cc e8 a7 bc 18 f0 ba bc a3 f8 71 bc
       -0.034885805 -0.020496748 -0.022819564 -0.014768752
000080 c7 0f 89 3c 17 7d d3 bc f3 31 3b 3c 28 09 01 bd
       0.016731156 -0.025816483 0.011425483 -0.031502873
000090 aa 27 ae bb 5d 0c 1c bc ec 80 21 3d 52 ab 81 3c
       -0.005314787 -0.009524432 0.03942959 0.015828762
0000a0 36 49 12 3c a3 29 f4 bc fb be c1 3b ae cc 2f bc
       0.008928588 -0.02980501 0.005912659 -0.010729952
0000b0 7e 70 1c bd c9 a0 b2 bc 79 65 32 3b b3 8a 62 3c
       -0.03819322 -0.021805184 0.0027221127 0.013827014
0000c0 05 81 9c 3c 39 af d4 3c c5 c2 2c bc 7b e9 ce bc
       0.01910449 0.025962459 -0.010544484 -0.025257817
0000d0 f6 a8 1c bc 7d c2 17 bd 3c fd 16 3c cc 8d 9f 3c
       -0.009561768 -0.037050713 0.009215649 0.019476794
0000e0 75 8b 64 bd 14 8b 8c 3c 5c 48 22 bd 9e a7 31 3d
       -0.05579706 0.017156161 -0.03961979 0.043372743
0000f0 dc 50 d2 3a e7 f0 58 bb af 0d 18 3d e6 b9 45 3d
       0.0016045826 -0.0033102573 0.037122425 0.04827299
000100 fb 84 e8 bc 48 1f 85 3c a2 f4 58 3a 88 5e 30 bd
       -0.028383723 0.016250268 0.0008276199 -0.043058902
000110 5c e6 b5 bb f8 b3 39 ba c5 00 9e 3c 17 fb 9b bb
       -0.0055511426 -0.00070840074 0.019287476 -0.004760157
000120 1d c2 65 bc de 37 44 bc 7d 36 1a bd f8 57 4e 3b
       -0.014023331 -0.01197621 -0.03764962 0.003148554
000130 1d 29 09 bd 1e b6 28 3d 92 a3 2d bd 30 87 2e bb
       -0.033486474 0.041189305 -0.04239232 -0.002663087
000140 6e 6a e3 bc 4d ae c9 3c 6f 32 d2 bc c0 ae f2 3b
       -0.02776071 0.024619246 -0.025658814 0.0074060857
000150 a0 e9 45 3c d6 85 1e 3d 9d 57 00 bc 39 6c 29 bd
       0.012079626 0.038701855 -0.007833389 -0.041362975
000160 2a d4 0e bd 5b cd a6 3c 6a 16 c4 3c c4 62 91 bb
       -0.034870304 0.020361593 0.02393647 -0.0044368226
000170 49 11 1d bd f4 d6 1c bc 69 a2 41 bc de 53 06 bd
       -0.038346563 -0.009572733 -0.011818507 -0.032794826
000180 a8 37 11 3d da 34 d7 bc 4e 5b 2c 3d ed 57 59 bc
       0.03545347 -0.026270319 0.042079262 -0.013265592
000190 3e 0c e8 3c c7 3e b1 bb 8a 01 75 bb 72 1e dc bc
       0.02832615 -0.005409095 -0.003738495 -0.026869986
0001a0 41 0c 80 3c ba fe fc 3b e8 ad 4d 3c 12 ad 1a bd
       0.015630843 0.0077207955 0.0125536695 -0.03776271
0001b0 e8 65 d5 bc 14 75 2e bc 66 fd 23 3c b6 e8 0e 3c
       -0.02604957 -0.010648031 0.010009145 0.008722475
0001c0 86 3a 1d bc 8d 8a 06 3d 2b dc c4 bb 9d a5 85 3c
       -0.009596473 0.032846976 -0.0060076914 0.016314322
0001d0 f0 09 eb bc 50 f9 9c 3c 2e 03 fc bc e0 27 36 3d
       -0.028691262 0.01916185 -0.030763235 0.04447162
0001e0 04 f8 98 3b 91 ef 0e 3c 53 38 03 bd e6 ae 8e bc
       0.0046682376 0.008724109 -0.032036137 -0.017417382
0001f0 32 8b 14 bd 58 2e af bc c6 98 03 bd cd dd 22 bd
       -0.03626556 -0.021384403 -0.032128118 -0.039762307
000200 24 06 0b bd 9f 24 04 3b 2d fc 3b 3c 7c 77 72 bb
       -0.033941403 0.002016343 0.011473698 -0.0036997488
000210 4d e5 f3 bb 98 f2 4c 3c 8e 5b 39 bd 19 4e 11 bc
       -0.0074431063 0.012509011 -0.04525333 -0.008868718
000220 49 8e 96 bc 07 64 47 bc fe 1b 1d bc 06 51 8a 3b
       -0.018378394 -0.0121698445 -0.009589193 0.0042210845
000230 d6 7e a5 bc 3d 51 8a 3a 78 a0 48 bc c5 b6 ce 3c
       -0.020202082 0.0010552775 -0.01224529 0.025233636
000240 46 dd c2 bc 8d bc 30 bc 09 84 1a bd f8 86 80 bc
       -0.023787152 -0.0107871415 -0.037723575 -0.015689358
000250 36 77 d4 3a 8d 47 5a 3c 90 7b 20 bd db f0 49 3d
       0.0016209844 0.013322723 -0.03918034 0.049301963
000260 25 85 9d 3c e7 13 e7 3c e0 58 75 3c 35 6b 09 3d
       0.019228527 0.028207732 0.014974803 0.033549506
000270 9f a6 e3 3c 5e 58 39 3c 78 2d e7 bb 83 67 9a 3c
       0.027789412 0.011312572 -0.007054981 0.018848186
000280 e5 25 cd 3c 58 88 ee bc e5 29 be bc 78 f4 04 3d
       0.025042484 -0.029117748 -0.023213336 0.032459706
000290 18 b3 a7 bc 9e 38 15 b9 45 b3 c5 bb e2 18 19 3d
       -0.02047114 -0.00014230839 -0.0060333335 0.037377246
0002a0 0c 8b c6 3c f6 ea ff bb 77 af 00 3c b3 14 9c bc
       0.024236225 -0.007809992 0.007854334 -0.019052839
0002b0 00 72 a0 bc d0 af 83 3b 8c 0c e8 bc af 7d 1d 3d
       -0.01958561 0.004018761 -0.028326295 0.03844994
0002c0 b9 0d 0e 3c f8 19 43 bc c4 44 aa bc 4c 40 25 bd
       0.008670264 -0.011908047 -0.020784743 -0.04034452
0002d0 cf 52 e0 3b 42 80 55 3d c3 9d 2f 3d 19 e5 ea 3b
       0.006845809 0.05212427 0.042875063 0.007168424
0002e0 3d ec 16 bd 5a 63 b1 3a 93 8c 05 3d d9 e4 02 3d
       -0.036846388 0.0013533637 0.032604765 0.031956527
0002f0 20 f2 a5 3c 48 88 e7 3c b8 14 38 bd 38 0c 7d 3a
       0.020257056 0.028263226 -0.044941634 0.0009653005
000300 20 17 e4 bc 50 55 0a 3c 60 08 ca 3c ca 38 2f 3d
       -0.027843058 0.008443192 0.024662197 0.042778768
000310 4f ce 03 3b 2a 2f 3c bd a1 2f a5 bc f8 08 75 bc
       0.0020111983 -0.045943417 -0.020164313 -0.014955752
000320 3c d8 b2 3c 16 93 cf 3b e6 3e 86 3c 74 1b 2a bc
       0.021831624 0.0063346727 0.016387414 -0.010382522
000330 78 cf be 3c 6e f8 07 3b c9 b8 53 3b 58 6c 24 3d
       0.023292288 0.002074744 0.0032306185 0.040142387
000340 11 fa 46 3d 8a 13 44 3c 17 07 a7 3c c3 4c fb bc
       0.048578326 0.011967549 0.020389123 -0.030676251
000350 b7 a4 06 bb c7 64 f0 3b fa 28 05 3d 71 b4 24 bc
       -0.0020544955 0.0073362323 0.03250978 -0.010052786
000360 b5 33 a9 3c aa fe 42 3d 82 c3 1b 3c ed 56 8d 3c
       0.020654539 0.047606148 0.009507062 0.017253364
000370 eb e3 50 bc 9e b2 b2 3c 4b f3 05 3d d9 ea 03 3d
       -0.012749652 0.021813687 0.032702725 0.03220639
000380 9d 9c 00 3d dc cb ee 3c 9c 45 92 3c fc 18 94 bc
       0.031399358 0.029149942 0.017855458 -0.01807832
000390 e2 60 8f bc 34 94 59 bd 5c 66 0c 3d 65 b7 4f bc
       -0.017502252 -0.053119853 0.034277305 -0.012678002
0003a0 33 68 b4 3c c8 89 10 3d 8c 85 21 bd 90 45 10 3d
       0.022022342 0.03528765 -0.039434 0.03522259
0003b0 59 e7 8b bc e5 f2 51 bc e5 ff 3e bc ae 60 1b 3d
       -0.017078089 -0.012814258 -0.01165769 0.037933998
0003c0 17 ab 25 3c 24 62 3f 3d f7 89 df 3c 5f 6c ce 3a
       0.010111592 0.046724454 0.027287466 0.001574885
0003d0 82 c6 12 bc 00 69 26 3d 26 24 31 3d 14 c2 b0 3c
       -0.008958461 0.04062748 0.043247364 0.021576919
0003e0 e8 a6 2c bd a5 ec 8e bc d0 89 8a bc 58 46 21 3d
       -0.04215136 -0.017446825 -0.016911417 0.039373726
0003f0 a8 70 1c bd c8 54 1c bd 83 95 15 bd 25 df ec 3c
       -0.038193375 -0.03816679 -0.03651954 0.028914997
