wandb/run-20251108_163129-orjrhry5/files/best_model.pth (torch, 72469 bytes, 5 tensors)

network.0.weight f4 [128, 70]
00000000: df0c 9f3d fd4d 4a3d 315d b9bd 208b 5e3c
00000010: 4334 003d 10a7 03bc f16d c8bd 5b01 30bd
00000020: 4fa4 1e3d a107 203d edaa d23d d3da eebd
00000030: 59dc 033e 4c70 e0bd 1615 c73d 9056 bbbd
00000040: a67a 39bd 2d90 123c 0e77 1e3d 7507 06be
00000050: 1a61 db3c 7d09 023e 864a 3d3d f909 b73d
00000060: 5a91 783c 4777 88bd 505a 2dbd 6c51 61bb
00000070: 7c0f 5d3d eb12 243d 2fb4 efbd e4c3 823d
00000080: 7e48 0bbd d436 023d 483b 0bbd 59da aeba
00000090: 3942 7a3d 9f75 bebd f1b8 89bb 2d82 f3bd
000000a0: 0696 713c 8cf1 e33c aa6a cfbd 6763 f33c
000000b0: 342f c93d eef8 a93c 8bd4 8b3b 2cc6 bcbb
000000c0: 730f 873d 7774 b13c 9e7e 4bbd 1c13 f6bc
000000d0: 726f 363d 12bc 62bd ae59 7fbd 35c2 b63d
000000e0: 65f6 e43d 2aea ef3c 1980 3dbc ec0b dbbd
000000f0: 2d8a 933d 57fd 563d 366d ea3d d8c3 77bd
00000100: a3b7 72bd 3659 223c 1dfe c4bd 64e7 a83d
00000110: abcb 813d 4f19 ec3d 3c4c e1bd 16c1 78bd
00000120: 98f7 dd3d e840 c63d 9647 9b3d 36b0 2bbd
00000130: 203d 053e 356c 483d 1da7 c53d c998 f5bc
00000140: 764c fabc 51c5 b83d d34e 94bd 6f4c 7d3d
00000150: 7066 15bd e1ad 09be e941 e1bd cfa8 743d
00000160: 4b03 b23d 60a7 dabd f475 a8bb 53d9 46bd
00000170: 6f0c 43bd a853 73bc 28d0 b9bd 5ccb 8f3c
00000180: d61c 7f3d d2f6 583c cfa7 6f3d a173 82bc
00000190: 5be6 1ebd 829a 11bd bfc3 7a3d 5188 cfbd
000001a0: 7530 073d 7680 8dbd 78c3 6a3d c4df f6bc
000001b0: 6ba8 cdbd 8837 adbc dd35 d53d daa4 a53d
000001c0: bdb0 7e3d 5dde 8dbd e6be 9ebd cdd8 f7bd
000001d0: c4b3 863b 2d24 f63b c666 b6bc ed53 3bbb
000001e0: 7c4e 373d a76e e7bd 93b9 b8bd 449e 9e3c
000001f0: ae4d 35bd 6c6c 17be 4cbf e7bd 789e 4cbd
00000200: 6aad 0d3d 6656 df3c 1299 74bd 7a69 d93d
00000210: cf69 f5bd 87e7 593d 7c86 d23d bffa c2bc
00000220: 6e4f bbbc 7d20 663c 4fc4 d7bd 934d bdbd
00000230: 456b 143c 123f 1abd 9b68 cf3d 0125 55bd
00000240: d13d 8d3d eaf0 cdbc 99db 4e3d 9ec4 b6bd
00000250: d637 1abc 8549 493d 7cfc 113e a9b9 313d
00000260: 82c2 703c d5f1 5fbc bf6d c63d 7261 78bd
00000270: a732 6e3c 4ef7 0cbe c97b bb3d 6151 df3c
00000280: a07f 73bc bb73 65bd 6c65 643d ae5a c4bd
00000290: 67d4 30bd d65c 2c3d 249e c9bd d3b7 9d3d
000002a0: 98fd dcbd 72f3 19be e476 bbbd f09e 02be
000002b0: 2126 19bc 26cb bfbd ed58 c5bd 8324 babd
000002c0: d858 0e3e 9527 1ebd a15a a0bd ce11 79bd
000002d0: be8b 7abd 7d8d 2f3b 0f80 113d 2bde 80bc
000002e0: 10fa 19be 9a15 d93d 2fa7 acbd f4d4 e53a
000002f0: 3bc6 c53d 1552 13bc 0fb1 923d 5703 853d
00000300: 1cfe 953b 6dc5 dfbc 321a babd bfb0 53bd
00000310: 982a 11be 0eb3 1bbd ca6f 70bd 2788 f6bc
00000320: 789d d43d 8885 6a3c 7fa1 e6bc ab9a 3b3c
00000330: f506 ad3d 16df ce3c 7fe7 ad3c 2282 05bb
00000340: e54c 483d 4310 10bd 3635 eabd 6919 88bd
00000350: 238a 99bd f878 693d 3bbd 213d 143c 933d
00000360: 93f3 cb3d 0010 0bbe cfe1 10bc 0318 813d
00000370: 5fef 173e 3a77 a0bd eb1a 22be 5dcf cebd
00000380: 3e6f 55bd 0ba0 0cbe d919 ba3d 54d5 05be
00000390: 2fa2 2c3d c8dc cc3d 6d09 aabb d834 cf3b
000003a0: f47a 24bc 9643 b13d 5841 6fbd 6216 cbbd
000003b0: e9f4 dc3d 65af 2d3d 2abd f0bb fe82 d73c
000003c0: 4698 cabc 7940 a2bd cf53 09bd e5b9 7bbd
000003d0: 9ba7 163d fc63 77bd a5d1 93bd 6d26 91bb
000003e0: fde1 9abd 18d2 aa3d cc2b d3bc 1fd8 b73c
000003f0: 92b5 e83d bb0d 8fbd 7b31 aa3d baea d33c
0.07766127 0.04939078 -0.09050978 0.013582975 0.03129984 -0.008035436 -0.09786595 -0.042970043
0.038730916 0.039069775 0.10286508 -0.11662831 0.12877025 -0.10958919 0.09720819 -0.0914737
-0.045282982 0.008945507 0.03868776 -0.13088782 0.0267797 0.12698932 0.04621365 0.08937449
0.015171373 -0.06663375 -0.042322457 -0.0034380807 0.053969845 0.040057104 -0.11704289 0.063850194
-0.03400468 0.03179057 -0.033992082 -0.0013340219 0.06109831 -0.09299778 -0.004202955 -0.118900634
0.014745241 0.02782514 -0.101277664 0.029710485 0.098234564 0.020748582 0.0042672805 -0.0057609286
0.065947436 0.02166198 -0.0496813 -0.030038409 0.044539876 -0.05535514 -0.062341385 0.08923761
0.111798085 0.029286463 -0.011566185 -0.10695633 0.07204089 0.052487697 0.114466116 -0.060489506
-0.05925716 0.009908965 -0.09618781 0.08247259 0.06337675 0.11528265 -0.11000869 -0.060731016
0.108382404 0.09680349 0.07582013 -0.041916095 0.13011599 0.04893132 0.09651015 -0.02998008
-0.030554038 0.0902201 -0.07241597 0.06184047 -0.036474645 -0.13445236 -0.109988995 0.0597313
0.08692034 -0.106764555 -0.0051410142 -0.0485471 -0.04761928 -0.014851488 -0.09072906 0.017553024
0.06228336 0.01324244 0.058509644 -0.015924277 -0.038793903 -0.03554774 0.061221834 -0.10133422
0.033005197 -0.069092676 0.05731532 -0.030135997 -0.10041889 -0.021144643 0.10410664 0.080880836
0.06218027 -0.06927178 -0.07751255 -0.12101898 0.004110785 0.0075116367 -0.022265803 -0.002858396
0.044752583 -0.11300402 -0.090197705 0.019362576 -0.044263534 -0.14787453 -0.11315784 -0.049955815
0.03458921 0.027262878 -0.05971629 0.10615821 -0.11983072 0.053199317 0.10279557 -0.023801206
-0.022865023 0.014045832 -0.1053549 -0.09243312 0.009058778 -0.037657805 0.10127374 -0.052037243
0.06896556 -0.02513929 0.050502393 -0.089242205 -0.009412726 0.04914238 0.14256471 0.04338995
0.014694812 -0.013668497 0.09688901 -0.060639806 0.014538444 -0.13766214 0.091544695 0.027260484
-0.014861971 -0.056018572 0.055760786 -0.09587608 -0.043171313 0.042080723 -0.09844616 0.07701077
-0.10790557 -0.15034273 -0.09153536 -0.12755942 -0.00934747 -0.09364919 -0.09636102 -0.09088995
0.13901079 -0.038611967 -0.07829786 -0.060807995 -0.061168425 0.0026787214 0.035522517 -0.015730938
-0.15036798 0.10599823 -0.08430325 0.0017534778 0.0965695 -0.008991738 0.071626775 0.06494778
0.0045774113 -0.02731582 -0.090870276 -0.05168223 -0.14176404 -0.038012557 -0.05870036 -0.03009422
0.10381597 0.014314063 -0.02815318 0.01145045 0.084485926 0.02525286 0.02122855 -0.0020371755
0.048901457 -0.03517176 -0.114359304 -0.066454716 -0.074970506 0.05700013 0.039487105 0.07189193
0.099585675 -0.13580322 -0.008842899 0.06303408 0.14837407 -0.07835241 -0.15830581 -0.10098145
-0.052108042 -0.13732927 0.09086961 -0.1306966 0.042146858 0.10003048 -0.005189112 0.006323438
-0.01003908 0.08655469 -0.058411926 -0.099163786 0.107889004 0.042403597 -0.007346769 0.02630758
-0.024730813 -0.079224534 -0.03352719 -0.06145658 0.036780935 -0.060398087 -0.07217721 -0.0044296295
-0.07562635 0.083408535 -0.02577772 0.022441922 0.11362757 -0.06985041 0.08310219 0.025868762

network.0.bias f4 [128]
00000000: 3cc3 923d a9bc 193c d740 25bd 0532 ccbc
00000010: 93d0 503c 0fdb a63c 22ae b4ba d851 8dbd
00000020: f3d0 a13d 0f78 d8bd 198e 043d 06e0 32bd
00000030: 340c d33d d84c 643b 7d7f 02bd 8381 f13d
00000040: f37e 6b3d 8838 b23d 13fa 233d b312 16bd
00000050: ac98 edbd ead5 68bd 8a06 fa3d ad36 15bd
00000060: 405c 41bd 6b64 003e b55c adbb 47d6 35bd
00000070: 5837 b1bc ebad 1d3d 743a 91bd b882 cb3d
00000080: a5ac 003e ef98 893d ca68 62bc db77 80bd
00000090: 2ca3 21bd dc88 1c3d 38f8 16bd a1bc 6f3d
000000a0: 9ca0 84bc 78f8 b6bd 3332 dcbd 6e31 073e
000000b0: 8008 003e a0c6 8a3d c800 e23d 31d7 d53c
000000c0: 5f01 0b3e 5d44 a5bd ec14 c33d 2f09 d2bc
000000d0: 5741 ca3d ddee e2bd b407 2dbd 9631 823c
000000e0: e693 833d 5b98 ce3d 0c97 bdbd ba55 2abd
000000f0: bc1c 03bd 8298 ca3d 9afb a8bd 0305 c5bd
00000100: 6ded d73d fef0 09bd 7b95 7a3c 449f 093d
00000110: 5aec 07bd 4da1 c13d b74a 663c 9bde 1b3c
00000120: b626 52bb c001 203d 4e02 1d3d e7c8 a43d
00000130: 6ed8 36bd a7f5 973d 0d0a ad3d b545 fa3c
00000140: 5619 83bd a1ca 103d 3e8f 4a3d 97a3 893d
00000150: 56e2 ca3d 39fc 07bd 207b abbd 3e9a 5b3d
00000160: df53 51bd 17cc 46bd 87ff de3d 8411 c63c
00000170: eb7b 993c 1cdc b7bd 56a3 923d 7cf5 d6bc
00000180: bd91 ce3d 64e7 563d 91c0 8b3d 8ca8 a43c
00000190: 450b 97bb 63f4 b63c e5cf 96bd 1c76 fa3d
000001a0: 40c3 79bc 8e49 b73d d996 fd3b 4178 6c3d
000001b0: 3377 0bbd 7d4d cf3d bd81 913d 91c1 abbc
000001c0: 287d a0bd 2e8f 233d 3045 0a3e 8650 f83d
000001d0: de5a 053e 4761 683d f908 863c 6a16 c33d
000001e0: e33f 233d 7542 a2bd 2f65 0bbe 50a2 e93d
000001f0: 3c29 b1bd 5c2b 5d3d 47ec 353d cd99 debc
0.07166144 0.009383359 -0.04034504 -0.024926195 0.0127450405 0.020368127 -0.0013784806 -0.06900376
0.07901182 -0.10569774 0.032362077 -0.043670677 0.10305062 0.0034835842 -0.031859864 0.117922805
0.057494115 0.08702189 0.04003341 -0.036638927 -0.116013855 -0.05684463 0.122082785 -0.036429096
-0.047207117 0.12538306 -0.0052905926 -0.044393804 -0.021632835 0.03849594 -0.07091227 0.09937042
0.12565859 0.06718623 -0.013818929 -0.062728606 -0.039462253 0.038216457 -0.036857814 0.0585295
-0.016189866 -0.089341104 -0.10751762 0.1320245 0.12503242 0.06776166 0.11035305 0.026103588
0.13574742 -0.0806968 0.09525475 -0.025639145 0.09875744 -0.11080716 -0.042243674 0.015892785
0.06424694 0.10087653 -0.092573255 -0.04158566 -0.032009825 0.0989237 -0.08251114 -0.096200965
0.10543332 -0.033677094 0.015294428 0.033599153 -0.033184387 0.09454594 0.014055899 0.0095135225
-0.003206653 0.03906417 0.038332276 0.080461316 -0.044639997 0.07419901 0.08449183 0.030550817
-0.06401317 0.035349492 0.049453013 0.067206554 0.099064514 -0.033199523 -0.083730936 0.053613894
-0.051105376 -0.04853448 0.10888582 0.024178274 0.018735847 -0.089775294 0.0716006 -0.026240103
0.10086391 0.052466765 0.068238385 0.0200999 -0.0046094977 0.02233333 -0.073638715 0.12229559
-0.015244305 0.08949576 0.0077389297 0.05773187 -0.034049224 0.101222016 0.07104824 -0.020966323
-0.07836372 0.03993147 0.13502955 0.121247336 0.13022944 0.056733396 0.0163617 0.095257595
0.03985585 -0.07922832 -0.13612817 0.11407912 -0.08650443 0.05399643 0.044414785 -0.027172947

network.3.weight f4 [64, 128]
00000000: 366a 9fbd 2cc6 093d 2316 dc3d e874 1d3c
00000010: 491a d23d 89d8 433d c6bf e63c 0c6f 44bc
00000020: fddf 4abd 2cdf 0cbd 8439 753d 0261 c8bc
00000030: cfed e73d b529 8e3d 872b a43c ae70 883c
00000040: 0704 bd3d cc12 97bc 042d 703d d748 4bbd
00000050: 691f 8abd 16bb f0bc 3564 c3bd 308a 27bd
00000060: a6ad ed3c 877d 21bc af65 013e 178a d43d
00000070: ba29 bc3d 5c9b 583d 26ec 95bd e57a a53d
00000080: 5057 063d 147d 763c df24 85bc 4b3e 1e3d
00000090: c25e bebc 01c9 3cbc 6450 9d3d cfbd a73c
000000a0: 1ae4 83bd b48d 2fbd 5791 4a3c 3f2a c53d
000000b0: 8ca6 663d 546f 47bc ab70 3dbd 5aa9 123d
000000c0: 00f2 043e 0215 a4bc 773d 91bd a61b 9dbd
000000d0: d345 983d eaad f43c 708f ad3d cb1b 613d
000000e0: 15b3 b23d 093f d9bc 171b 013d 966e 4b3d
000000f0: b6f1 e93d bbae 49bd 26c6 4abd c80d 1f3c
00000100: fbc6 bbbc de6e e63d f9ec cd3d 21e9 873d
00000110: f3d8 6b3d 400b 8abc 528c e93d ca52 1cbd
00000120: ef20 df3d b73f a2bc 35c4 d63c 436f 4c3a
00000130: bd38 2dbd d2f5 f5bc 18f8 863b aac1 66bd
00000140: a60b 09bd 9191 5cbd 70a8 18bd 431a e43d
00000150: 1047 c23c 2951 0fbd 680c cdbc e071 acbd
00000160: 7744 d93b 289e 9dbd afd9 593d 6201 7e3d
00000170: cf82 16bc 3017 8a3d 4b7f bdbc a678 183d
00000180: a5ef 323d 9774 b13c 946c 753d 602e 993d
00000190: 8a80 203c 663d b5bc 9ffc a33d 0257 bc3d
000001a0: f5b0 653c 059b 863c cae8 993d 1763 b03d
000001b0: 498c 43bd faea 0ebc ca4c bd3d 1248 883d
000001c0: 30b0 dabc c808 853c 0b9d c13d 333f e73b
000001d0: deea 0abd c29b 9a3d b5e1 3d3c 7c95 66bc
000001e0: 7f7a 843c 00e5 40bc 22aa 75bd 03f5 86bd
000001f0: f258 413c ecc3 71bd 0266 93bc 5af1 aa3d
00000200: c5ad ff3c 0c21 873d cbb3 63bd fac5 c93d
00000210: 15c4 113d 589c 803d 29d5 243d dd76 063d
00000220: 0a9e 7f3c c6ff 82bd 1bf6 343d 85ea 4c3d
00000230: 8a68 273d aaf8 a43d 7ba5 023e 2aac bc3d
00000240: 2001 4ebd b197 8bbb 4864 60bc fb3a 23bc
00000250: c723 53bc 380c 923d 2737 4abc decd 503d
00000260: 2446 703d bc36 b4ba e90d 29bb 1aff 0d3c
00000270: da99 5e3d ce47 543c 32e2 7ebd d4eb a83b
00000280: acd4 d93d 22fe 1e3d d703 cc3d 23d3 0dbd
00000290: bf42 703d 8c41 183d f2e9 1abd b9a8 73bd
000002a0: 9802 0d3d e11c c03d ea13 98bc de7a db3d
000002b0: facf ccbc 8992 12bd ea64 c73c 8f0b 683c
000002c0: 22f2 733d afed 1ebc 54fd 67bc 6924 9bbd
000002d0: efac fabc 51ae 323d f9e2 83bd 096d 673d
000002e0: 41e1 cb3d ac5f 5d3b 7586 be3d 32bb b0bc
000002f0: a926 ee3d d184 a3bc e4a8 4abc e75c 8e3d
00000300: dead 383d 4313 f13d 80a2 2a3c 9c62 40bd
00000310: 1c5c 1d3c dc4b c1bb 9fdb 83bb 798a 0f3d
00000320: e271 c63d f388 0fbd 4553 01bd ee56 fdbc
00000330: d0e0 81bc be7a 09bd 467b 01bd 2e73 a73d
00000340: 6554 8f3d ceb8 e5bc 89eb 4f3d 3dc5 8cbc
00000350: 6b94 e73c 2aa4 5f3d c6d9 19bd ea8f 653d
00000360: 7d76 8f3c 01c7 983d e3e4 1bbd 5282 343d
00000370: 8830 d93c a070 813d e376 273d 2367 90bc
00000380: 60cf 8ebc 7527 443d c7c1 b13d 6291 6abd
00000390: 93a8 263d b563 963c bf14 943b 25dc a03d
000003a0: fe27 9b3d 586c 993d c3bf 0abd f95c 5bbd
000003b0: 8afb bf3d 1ba1 703d d923 8d3d 35fd 2bbd
000003c0: 3cab 643d 4a8c 7cbc d8fd cdbc 9616 85bc
000003d0: e07b 9e3d 2d41 183d 97ce 19bd 7a2b d0bd
000003e0: 157b c33c 5c80 e43d 8c04 c53b 2cc1 983c
000003f0: 5ef8 453c ffbe 703c a4f9 093d 4660 4dbd
-0.0778393 0.033636257 0.1074641 0.009610392 0.1025892 0.047813926 0.028167617 -0.011989366
-0.049530018 -0.03439252 0.059869304 -0.02446032 0.11324655 0.06941549 0.020040287 0.016655292
0.09229284 -0.01844158 0.05863668 -0.049630012 -0.06744272 -0.029386085 -0.09540597 -0.04090327
0.029013466 -0.009856588 0.12636445 0.10377901 0.09187646 0.052882537 -0.07320432 0.08080081
0.03279811 0.015044469 -0.016252933 0.038633626 -0.023238543 -0.011522532 0.07681349 0.02047625
-0.06439991 -0.042859748 0.012363753 0.096271984 0.056311175 -0.012172539 -0.046250027 0.035806037
0.1298294 -0.020029549 -0.070918016 -0.07671289 0.07435193 0.029868085 0.08474624 0.054958146
0.087255634 -0.026519315 0.031519976 0.04966601 0.11423056 -0.0492389 -0.049505375 0.009707876
-0.02292203 0.11251615 0.100549646 0.06636263 0.057579946 -0.016851068 0.11403717 -0.03816489
0.108949535 -0.019805772 0.026216606 0.0007798562 -0.042290438 -0.030024443 0.0041189305 -0.056337036
-0.033458374 -0.05384976 -0.03727001 0.111378215 0.023715526 -0.03498951 -0.02503033 -0.084201574
0.006630476 -0.076961815 0.053186115 0.062013038 -0.009186461 0.06742704 -0.023131987 0.037224434
0.043685574 0.02166204 0.059918 0.074795485 0.009796271 -0.022124004 0.08007168 0.09196283
0.014019241 0.016431341 0.07515104 0.0861265 -0.04774121 -0.008723015 0.09243162 0.06654371
-0.02669534 0.016239539 0.09453782 0.0070570945 -0.033915393 0.0754924 0.011589457 -0.014073726
0.016171692 -0.011773348 -0.059976704 -0.06589701 0.011800991 -0.059024736 -0.017992977 0.083468154
0.03121079 0.065981 -0.055591386 0.09852214 0.03558739 0.0627982 0.040242348 0.0328282
0.015601644 -0.06396441 0.044180017 0.050028343 0.04087118 0.080552414 0.12758438 0.09212525
-0.05029404 -0.0042600264 -0.013695784 -0.0099627925 -0.012886948 0.07131237 -0.012342251 0.05097758
0.05866064 -0.0013749222 -0.0025795645 0.008666778 0.054345943 0.012956573 -0.062227435 0.005155066
0.10636267 0.03881658 0.0996167 -0.034625184 0.058657404 0.037171885 -0.037820764 -0.05948708
0.0344263 0.09380508 -0.018564183 0.107167944 -0.025001515 -0.035784278 0.024340112 0.014162912
0.059557088 -0.009700223 -0.014159519 -0.07575304 -0.03060004 0.043623272 -0.06439776 0.05650047
0.09955073 0.0033778949 0.093029894 -0.021573637 0.116284676 -0.019960793 -0.012369368 0.069513135
0.045087688 0.11771252 0.01041472 -0.04696904 0.00960448 -0.0058989357 -0.0040239836 0.035044167
0.0968969 -0.035042714 -0.031573553 -0.03092524 -0.01585427 -0.03356432 -0.031611703 0.08176266
0.06998519 -0.028042223 0.050761733 -0.017183894 0.028269013 0.05459992 -0.0375612 0.05604545
0.017512554 0.07459832 -0.03806008 0.044069596 0.0265124 0.0632031 0.040884864 -0.017627304
-0.017432868 0.04788919 0.08679538 -0.057267554 0.04068811 0.01835809 0.0045190747 0.07854489
0.07575987 0.07491368 -0.033874284 -0.053555463 0.09374149 0.058747392 0.06891603 -0.041989524
0.055827364 -0.015414307 -0.025145456 -0.016246121 0.07738471 0.03717153 -0.037550535 -0.101645425
0.023862401 0.11157295 0.006012505 0.018646799 0.012083141 0.0146939745 0.03368534 -0.05014064

network.3.bias f4 [64]
00000000: ff29 493c 8c34 3fbd 67d3 c2bc 9608 c93d
00000010: a5f4 23bd 118b 88bc 3a75 913c 7acf 81bd
00000020: 8210 6f3d 6d94 89bd ddcc be3d f57c 5bbd
00000030: 5586 cd3d 00bf 5bbd 95ce 033d 87bf 933d
00000040: 337b 883d df2b 873d dc77 253c e4a2 b63d
00000050: 2191 84bc e63e cd3d 81da ae3d 9298 3b3c
00000060: 60e2 a1bc a476 e03d 671c 183c 9a5a 043d
00000070: 2072 6dbd ba1a 77bd 8403 3d3d bd4c c83d
00000080: 97e5 bf3d 680b 5c3c 60a9 bd3d 6f67 77bd
00000090: bfdc df3b 3339 ef3c 633f a83d d444 3a3d
000000a0: c2df 753d ab87 b43d c0e2 7f3d 6cf3 96bc
000000b0: bff8 63bc 72bc 55bd 7dd6 9dbd 8514 61bd
000000c0: e9ce 763d 2ef3 da3d bc33 b83d 4206 b93c
000000d0: c636 f03c d818 25bd 784e da3b 1444 17bc
000000e0: ae5d b53d 139d 913d 69ff 44bd 1d2a 87bd
000000f0: b9b7 bb3d 6ecc d2bc 4097 293c bd22 5d3d
0.012278079 -0.046680972 -0.023782445 0.09816091 -0.040028233 -0.016667875 0.017756093 -0.06338401
0.058365352 -0.06717763 0.09316418 -0.053585965 0.100353874 -0.05364895 0.032179434 0.07214265
0.066641234 0.066001646 0.0100993775 0.08917788 -0.016182484 0.100217625 0.0853777 0.01144995
-0.019761264 0.10960129 0.009284115 0.032312967 -0.057970166 -0.060328223 0.04614593 0.09780262
0.09369963 0.013430454 0.09260821 -0.060401376 0.006831735 0.02920208 0.08215215 0.045475796
0.060027845 0.08814939 0.062472105 -0.01842662 -0.013914286 -0.05218167 -0.07706926 -0.05495121
0.06025592 0.10690914 0.089942425 0.022585992 0.029322993 -0.040306896 0.0066621862 -0.00923254
0.088557586 0.07110038 -0.04809514 -0.06599829 0.09165902 -0.025732245 0.010351002 0.053988207

network.6.weight f4 [1, 64]
00000000: 4f1e 13be 920e adbd 10c6 36bc 8664 6e3d
00000010: 3b0e 3fbd bb32 fd3c e025 c8bd f1b4 04be
00000020: 4681 e6bd c3a2 5d3d 9f94 b03d aef3 27be
00000030: 80ea f1bd a482 043e 4129 9ebd 72ef 13be
00000040: bf99 cebd 0b47 073d 2c98 0e3e 1689 5ebd
00000050: 9339 1d3e ce4d 9f3d 9912 ab3d 3354 f2bd
00000060: 8bfd 13bd 2391 9cbd 14c7 023e 8ffc 35be
00000070: b9be 1dbe f3c3 0c3e d3c7 5b3d 6316 8cbd
00000080: 60c6 763d eeaf ef3c 7a45 20bd c91a 1e3e
00000090: 4b1a bcbd 6ba4 67bd 8126 06be 87e3 7abd
000000a0: 9f77 4fbd 8bc0 4b3d 503c 713d eb2a 9a3d
000000b0: 06ff 653d 89d5 d6bd 1194 f93c 4b0c fb3d
000000c0: 646c 0a3c 5c7d ec3d 071b 15be f371 fcbd
000000d0: 2417 b0bd 2e27 5c3c 9e2c e83d 0f12 ddbd
000000e0: a890 5dbd 2c86 7ebd c27d 473d 5250 05be
000000f0: 496d b2bd b4c2 13be 7a45 eb3c 3658 12be
-0.1436703 -0.08450045 -0.01115562 0.058201335 -0.04664443 0.03090798 -0.09772849 -0.12959649
-0.11255126 0.0541103 0.08622097 -0.1640155 -0.118123055 0.1294046 -0.07722712 -0.1444681
-0.100879185 0.033026736 0.13925236 -0.054329954 0.15353994 0.07778512 0.083531566 -0.11832466
-0.03613047 -0.0764487 0.12771255 -0.17772125 -0.15404786 0.13746624 0.053657364 -0.068402074
0.06024778 0.029258694 -0.039128758 0.15439905 -0.091847025 -0.056553286 -0.13100626 -0.061252143
-0.05065119 0.04974417 0.05889541 0.07527717 0.056151412 -0.10489947 0.030466111 0.12258204
0.008448694 0.11547348 -0.14561091 -0.123264216 -0.08598164 0.013437076 0.11336635 -0.1079446
-0.054093033 -0.062139675 0.048703916 -0.13018921 -0.08712251 -0.14429742 0.028719652 -0.14291462
