wandb/run-20251110_172908-g4p4cxrb/files/best_model.pth (torch, 65916 bytes, 25 tensors)

blocks.0.0.weight f4 [64, 71]
0	0x3de7b4c6	0.11313777
1	0x3ced4d65	0.028967569
2	0xbdf7d448	-0.12101036
3	0xbd754fb5	-0.059890468
4	0x3d5cd85e	0.05391728
5	0xbbc046e7	-0.005867827
6	0xbdb62e55	-0.08895556
7	0x3c767d26	0.015044486
8	0x3da0e424	0.07856014
9	0xbd11eea9	-0.035627995
10	0x3d088cc3	0.033337366
11	0xbe0432b6	-0.1290997
12	0x3d9b99e6	0.07597713
13	0xbe2210ad	-0.15826674
14	0x3d5dec3a	0.05418036
15	0xbe1f30b5	-0.15545924
16	0xbd6370dd	-0.055527557
17	0xbcdebbe3	-0.0271892
18	0x3c1c0abf	0.009524046
19	0xbe1e849f	-0.15480278
20	0xbd149ac6	-0.036280416
21	0x3df99b80	0.121878624
22	0x3c2de160	0.010612816
23	0x3e33c28b	0.17554681
24	0x3dc8a48d	0.097970106
25	0xbc6fac91	-0.014628545
26	0xbc5df983	-0.013548258
27	0x3d3acb34	0.045603946
28	0x3de61236	0.11233942
29	0x3d9fe3c0	0.07807112
30	0xbdfb1a36	-0.12260859
31	0x3db9fca6	0.09081392
32	0xbd4cf68c	-0.050039813
33	0x3d5a6331	0.053317253
34	0x3cb09095	0.021553317
35	0xbca681c7	-0.020325555
36	0x3dbde340	0.0927186
37	0xbdaeacab	-0.085290276
38	0x3d2b0d91	0.041760985
39	0xbd28a71f	-0.041175004
40	0x3c98ed40	0.018667817
41	0x3d0c6f45	0.034285802
42	0xbe22b087	-0.15887652
43	0x3c891b1e	0.016736563
44	0x3da54316	0.08069436
45	0x3ad70df4	0.0016407357
46	0xbc999bfa	-0.018751133
47	0x3c1786dd	0.0092484625
48	0x3db975d8	0.0905568
49	0x3d357c2a	0.044307865
50	0xbcbdce27	-0.02316959
51	0xbd22c220	-0.039735913
52	0x3cd7096e	0.026249614
53	0xbb831043	-0.0039997413
54	0xbd3e572f	-0.046469864
55	0x3dacdc07	0.084404044
56	0x3d8cee0c	0.06881341
57	0x3c5f11b3	0.01361506
58	0xbd8d3893	-0.06895556
59	0xbe10221c	-0.14075512
60	0x3dcd50ce	0.10025178
61	0x3dc60e7f	0.09670734
62	0x3df641ba	0.12024255
63	0xbce70d83	-0.028204685
64	0xbdc41faa	-0.09576352
65	0x3d528fcf	0.051406678
66	0xbe02f3b8	-0.12788284
67	0x3ced1d64	0.028944679
68	0x3d93f3f7	0.07224267
69	0x3dce42df	0.100713484
70	0xbe24b07b	-0.16082947
71	0xbaf8a711	-0.0018970688
72	0x3df5f68a	0.12009914
73	0x3e0728e6	0.13199195
74	0x3d973129	0.073824234
75	0xbd5fb754	-0.054618195
76	0x3e11d149	0.14239992
77	0x3d3a86ec	0.045538828
78	0x3d94f3c6	0.072730586
79	0x3bda3e4e	0.0066602593
80	0xbd338836	-0.043831073
81	0x3d167fec	0.03674309
82	0x3c324f81	0.010883213
83	0x3e174138	0.14770973
84	0xbcf3e7c9	-0.02977361
85	0xbdbe00b4	-0.09277478
86	0xbe0ce07b	-0.13757508
87	0x3d4fe303	0.050753605
88	0x3dc3e399	0.09564895
89	0xbe022837	-0.12710653
90	0x3d33e8e2	0.043923266
91	0xbd19a86a	-0.037514128
92	0xbdc34b81	-0.095358856
93	0xbd5bcddb	-0.053663116
94	0xbdfc8dc3	-0.123317264
95	0xba820ad8	-0.0009921445
96	0x3cd19b89	0.02558686
97	0x3c22e3d7	0.009942017
98	0x3d936215	0.07196442
99	0x3cfe05de	0.031008657
100	0x3d08131c	0.03322135
101	0xbd995983	-0.07487776
102	0x3dbb0e66	0.09133606
103	0xbe2ade68	-0.16686404
104	0xbc54518f	-0.012958898
105	0xbe04a5de	-0.12953898
106	0x3cb3a1ca	0.021927733
107	0xbc91f77c	-0.017818205
108	0xbd5bee1b	-0.053693872
109	0x3b7d7dca	0.0038679712
110	0x3e075c9f	0.13218926
111	0x3d6acd2f	0.057324585
112	0x3d1dae0a	0.038496055
113	0xbdc70680	-0.09718037
114	0xbce01100	-0.027351856
115	0xbdeacbd3	-0.11464658
116	0xbd1792d2	-0.037005253
117	0x3d3b5450	0.045734704
118	0xbcbef2ee	-0.023309197
119	0x3d1f0202	0.038820274
120	0x3d0461f1	0.032319967
121	0xbd55143c	-0.05202125
122	0xbd65a91f	-0.05606949
123	0xbbe38660	-0.006943509
124	0xbcd9fb46	-0.026609074
125	0xbd380347	-0.044925
126	0xbde1ffca	-0.11035116
127	0xbdad6bcb	-0.084678255
128	0xbcdd6ae9	-0.027028518
129	0x3d61ed6f	0.055158075
130	0xbca5d14a	-0.020241398
131	0x3e19c799	0.15017547
132	0xbe39328b	-0.18085687
133	0x3c711b6c	0.014716011
134	0x3dfe942b	0.124306045
135	0xbce257b6	-0.027629714
136	0x3c5ce0d7	0.01348134
137	0xbc6c5739	-0.014425092
138	0xbdf83798	-0.12119979
139	0xbe031fcb	-0.12805097
140	0x3d55d6fa	0.05220697
141	0xbdb7c425	-0.089729585
142	0x3d895f7e	0.06707667
143	0xbd5c1414	-0.053730085
144	0xbc966b30	-0.018361658
145	0xbc0c91d5	-0.008579691
146	0x3d6dc94d	0.058053304
147	0xbd9f117d	-0.077670075
148	0x3cc0d655	0.023539701
149	0x3dd3f074	0.10348597
150	0x3df663e3	0.12030771
151	0xbcc9321e	-0.02456003
152	0x3d42f13e	0.047593348
153	0x3d47498e	0.04865413
154	0x3d5112d5	0.05104335
155	0xbd2e2e20	-0.042524457
156	0x3d01eccb	0.031719964
157	0xbdfb7595	-0.12278286
158	0x3c1d93b1	0.009617732
159	0x3c9e0fcb	0.01929464
160	0xbda09738	-0.07841343
161	0xbbb4283d	-0.005497961
162	0x3d4ca2d4	0.049959973
163	0xbdfc28c4	-0.12312463
164	0xbd4b4a6f	-0.049631532
165	0x3d11440a	0.035465278
166	0xbdc0e53d	-0.09418724
167	0x3dbe744e	0.09299527
168	0xbd5ce970	-0.05393356
169	0xbe00ab7c	-0.12565416
170	0xbe07bd2e	-0.1325576
171	0xbe1553b8	-0.14582717
172	0xbc2eb996	-0.010664364
173	0xbd64c72e	-0.055854015
174	0xbd9fbb50	-0.07799399
175	0xbdcd04af	-0.10010659
176	0x3de03249	0.10947091
177	0xbc8d7a87	-0.01727034
178	0xbdb087f4	-0.08619681
179	0x3c7f5285	0.015583639
180	0xbc9b21f7	-0.018937094
181	0xbbd3901f	-0.0064563896
182	0x3d379e4a	0.04482869
183	0xbcc1e035	-0.02366648
184	0xbdc8e6ee	-0.09809671
185	0x3e25d203	0.16193394
186	0xbdda4dae	-0.106593475
187	0xbce1fa0a	-0.027585048
188	0x3df929e4	0.12166193
189	0x3bc1d2ee	0.0059150374
190	0x3d3230b6	0.043503486
191	0x3d9c10ad	0.07620368
192	0xbd29a69c	-0.041418657
193	0xbd1d3a15	-0.03838547
194	0xbcf9c1d2	-0.030487929
195	0x3c949848	0.01813902
196	0xbe16dee6	-0.14733467
197	0xbdc0762b	-0.09397539
198	0xbe19f78b	-0.15035836
199	0xbd2ed370	-0.04268211
200	0x3dd85dd5	0.10564772
201	0xba741892	-0.00093115226
202	0xbd4fbbc6	-0.050716184
203	0xbbd94a8d	-0.0066312016
204	0x3cb7d8be	0.022442218
205	0x3c254613	0.010087508
206	0x3ce4cd0e	0.027929809
207	0x3c215ad2	0.009848313
208	0x3c3d817b	0.011566515
209	0xbce43ff4	-0.027862526
210	0xbe3aae9a	-0.18230668
211	0x3cb87d3a	0.02252065
212	0xbe2e89cc	-0.17044753
213	0x3d971352	0.07376732
214	0xbc14e9c1	-0.009088934
215	0x3d63b42f	0.05559176
216	0x3da32c9d	0.07967494
217	0xbe0edb39	-0.13950814
218	0xbcf49d7e	-0.029860254
219	0x3da781fb	0.08179089
220	0x3dabaa18	0.08382052
221	0x3bc83625	0.00610997
222	0xbdba703c	-0.09103438
223	0xbdd8ae04	-0.10580066
224	0xbd3f982f	-0.046775993
225	0xbdb97e80	-0.09057331
226	0x3e195381	0.1497326
227	0xbae4c5f6	-0.0017454016
228	0x3dad3de4	0.0845907
229	0x3dd07ba1	0.1017983
230	0x3d1fef03	0.0390463
231	0x3dc15f64	0.094420224
232	0xbdb651ac	-0.089022964
233	0x3d126d98	0.035749048
234	0xbd3eba9f	-0.046564694
235	0xbdd172dd	-0.102269866
236	0x3e27e587	0.16396151
237	0x3d0eb9cc	0.03484516
238	0xbd69f74f	-0.057120617
239	0x3ca0dd17	0.019636674
240	0xbdd6eef4	-0.104947954
241	0xbdcfab66	-0.101401135
242	0xbd11e7c2	-0.035621412
243	0xbd62ee8d	-0.05540328
244	0x3d22d1bc	0.0397508
245	0xbd9bdd7d	-0.07610605
246	0xbdb0c998	-0.08632201
247	0xbd97de45	-0.074154414
248	0xbd6bd0f9	-0.05757234
249	0x3ce1e293	0.02757386
250	0xbd12da1f	-0.035852548
251	0xbd5329bf	-0.051553484
252	0x3de9bd91	0.1141311
253	0xbd2e4441	-0.04254556
254	0x3de1c490	0.110238194
255	0x3d039116	0.032120787

blocks.0.0.bias f4 [64]
0	0xbc04dd17	-0.008109353
1	0xbd92d8c6	-0.071702525
2	0xbca2b80a	-0.019863147
3	0x3d751a79	0.0598397
4	0xbdcd9c57	-0.10039585
5	0xbd6c0124	-0.057618275
6	0xbdbda8fa	-0.09260745
7	0xbda9ab1d	-0.082845904
8	0xbc803151	-0.015648516
9	0x3d86a386	0.06574158
10	0x3daf322b	0.08554491
11	0x3be247a0	0.006905511
12	0x3deb9da4	0.11504677
13	0xbde2a800	-0.110672
14	0xbdee434d	-0.1163393
15	0x3d42b0cc	0.047531888
16	0x3d7af914	0.061272696
17	0x3d5e2cf9	0.054242108
18	0x3c2965e7	0.010339237
19	0xbdbe8ec9	-0.09304578
20	0x3b5f09d6	0.0034032962
21	0x3db59d21	0.088678606
22	0x3d9239de	0.071399435
23	0xbdceb81c	-0.1009371
24	0xbd922e28	-0.0713771
25	0x3cda8c52	0.026678238
26	0x3cc993ec	0.024606667
27	0x3d999cd6	0.07500617
28	0x3dce74ef	0.10080897
29	0x3ddc0f36	0.10745089
30	0xbac7c82f	-0.0015242154
31	0x3dd46448	0.1037069
32	0x3ddce37d	0.107855774
33	0x3d966909	0.073442526
34	0x3ce50895	0.027958194
35	0x3d826ffd	0.06369016
36	0xbd87bca3	-0.066277765
37	0x3d347123	0.044053208
38	0x3c152663	0.00910339
39	0xbc08fb2e	-0.008360667
40	0x3c0bb9d0	0.008528188
41	0x3d9045eb	0.07044586
42	0x3bd764c5	0.006573292
43	0xbcad09a2	-0.021122757
44	0x3d07523d	0.033037413
45	0x3dbf7555	0.09348551
46	0xbd3c0f5d	-0.04591309
47	0x3db4a2bc	0.088201016
48	0x3cf4e33e	0.029893514
49	0x3d76f9dd	0.060296882
50	0xbdce323b	-0.100681745
51	0x3c298627	0.010346926
52	0xbda878f8	-0.08226198
53	0x3bca3d07	0.006171826
54	0x3dc812f6	0.097692415
55	0x3dc12992	0.09431757
56	0x3d1ffdd0	0.039060414
57	0xbd5a892a	-0.053353466
58	0x3cbf1b2c	0.023328386
59	0xbdd67ef3	-0.104734324
60	0xbd9ee782	-0.07759
61	0x3c934db3	0.017981386
62	0xbbb18fef	-0.0054187695
63	0x3d873143	0.06601193

blocks.0.1.weight f4 [64]
0	0x3f7de21d	0.99173146
1	0x3f851637	1.0397404
2	0x3f82a315	1.0206019
3	0x3f71da26	0.94473493
4	0x3f812fe9	1.0092746
5	0x3f78d1a5	0.9719489
6	0x3f78e255	0.97220355
7	0x3f81f48a	1.0152752
8	0x3f80b2cf	1.0054568
9	0x3f7b5f68	0.98192453
10	0x3f6d9185	0.9280017
11	0x3f7eb186	0.9948963
12	0x3f75d071	0.9602118
13	0x3f7ca2ff	0.9868621
14	0x3f74fbe1	0.95696837
15	0x3f79190d	0.9730385
16	0x3f80c8e6	1.0061309
17	0x3f838738	1.027564
18	0x3f78c8cb	0.97181386
19	0x3f763a39	0.9618259
20	0x3f72b2dc	0.9480417
21	0x3f8282a1	1.0196115
22	0x3f75853c	0.95906425
23	0x3f83a5ee	1.0285013
24	0x3f715e41	0.94284445
25	0x3f812f19	1.0092498
26	0x3f858f1f	1.0434302
27	0x3f80e3bc	1.0069499
28	0x3f71d5cb	0.9446685
29	0x3f79dcfe	0.9760283
30	0x3f7ec115	0.9951337
31	0x3f80e988	1.0071268
32	0x3f805c26	1.0028121
33	0x3f837585	1.0270239
34	0x3f831a1a	1.024234
35	0x3f797a39	0.9745212
36	0x3f78368c	0.9695823
37	0x3f84631f	1.0342749
38	0x3f82578e	1.018297
39	0x3f7d2ef8	0.98899794
40	0x3f7a624d	0.97806245
41	0x3f82f4bf	1.023094
42	0x3f8133b6	1.0093906
43	0x3f81e699	1.0148498
44	0x3f860c70	1.0472546
45	0x3f77c480	0.9678421
46	0x3f833b85	1.0252539
47	0x3f8603aa	1.0469868
48	0x3f839db2	1.02825
49	0x3f7cea45	0.98794967
50	0x3f84652b	1.0343374
51	0x3f6fa5ca	0.9361235
52	0x3f82d7a1	1.0222055
53	0x3f79b2ea	0.97538626
54	0x3f83b2c3	1.0288929
55	0x3f82535e	1.0181692
56	0x3f7cb618	0.98715353
57	0x3f8412fa	1.0318291
58	0x3f753d78	0.9579692
59	0x3f858632	1.0431578
60	0x3f803e95	1.0019099
61	0x3f80851e	1.0040624
62	0x3f8176ae	1.0114343
63	0x3f73e4e5	0.9527114

blocks.0.1.bias f4 [64]
0	0xbc689ca8	-0.014197506
1	0x3ce61672	0.028086875
2	0xbc9c5c3b	-0.019086948
3	0xbc657e07	-0.014007098
4	0xbc435938	-0.011923127
5	0xbd349808	-0.0440903
6	0xbd627655	-0.05528863
7	0x3b936316	0.004497896
8	0xbbc5622c	-0.006023666
9	0xbd19edfc	-0.037580475
10	0xbd30036c	-0.042972013
11	0xbb75cedf	-0.0037507338
12	0xbca6772f	-0.020320503
13	0x3d2698a2	0.040672906
14	0xbce4657c	-0.027880423
15	0x3b9dd4ce	0.004816628
16	0xbaea3da4	-0.0017871154
17	0x3d1a982c	0.03774278
18	0xbaa445b2	-0.0012532978
19	0x3bef302f	0.007299445
20	0xbd80c9f6	-0.06288521
21	0x3d24bc39	0.040218566
22	0xbd59dda1	-0.053189877
23	0x3c8afdce	0.016966727
24	0xbd8928e5	-0.06697253
25	0xbc3c3f89	-0.011489757
26	0x3d3a07c6	0.04541757
27	0x3946bc20	0.00018952833
28	0xbd512865	-0.051063914
29	0xbcb2c0df	-0.021820484
30	0xbc01dcf7	-0.007926217
31	0xbcb40017	-0.0219727
32	0xbc83a496	-0.016069692
33	0x3b53368a	0.0032228553
34	0xba95686c	-0.0011398918
35	0xbb4a9f9f	-0.0030917895
36	0xbb73a776	-0.0037178672
37	0x3d0ae850	0.033912957
38	0x3cb0e1b9	0.021592008
39	0x3cb2be80	0.021819353
40	0xbc4b077c	-0.012391921
41	0xbc8b0503	-0.016970163
42	0x3d22ea60	0.0397743
43	0x3c034d28	0.008014001
44	0x3cd1c22e	0.025605287
45	0xbd48e050	-0.049042046
46	0x3cdd90e3	0.027046626
47	0x3d0c0739	0.034186576
48	0x3cc8cd22	0.024511877
49	0xbd1f7b0e	-0.038935713
50	0x3cc3494e	0.023838665
51	0xbce6ff4e	-0.02819791
52	0x3bcc09eb	0.0062267683
53	0xbcb688fd	-0.022282118
54	0x3d13d50d	0.036091853
55	0x3b65a532	0.003504109
56	0xbcd36c35	-0.025808433
57	0x3ca034f0	0.019556493
58	0xbcc3322b	-0.023827633
59	0x3d2498fa	0.040184952
60	0xbb8187c8	-0.003952954
61	0xba1a65b2	-0.00058897876
62	0x3d6cdeff	0.057829853
63	0xbcde4611	-0.02713302

blocks.0.1.running_mean f4 [64]
0	0x3c5e5973	0.013571131
1	0xbe31380a	-0.17306533
2	0xbdafc6a7	-0.08582812
3	0x3d889af2	0.066701785
4	0xbe0a87b5	-0.1352833
5	0xbd9f0fa3	-0.07766654
6	0xbe1d9472	-0.15388659
7	0xbe7d5cb0	-0.24742389
8	0x3d72ed8b	0.05930857
9	0xbdbd97d8	-0.092574775
10	0x3deb09c6	0.114764735
11	0x3d87acb6	0.06624739
12	0x3e2faa3f	0.17154787
13	0xbe08edd0	-0.13371968
14	0xbe688f6a	-0.22710958
15	0xbd3ac420	-0.045597196
16	0x3d74bceb	0.05975048
17	0xbcd23db5	-0.02566419
18	0xbdaf6e4b	-0.085659586
19	0xbd8717f4	-0.065963656
20	0x3e0dcf5e	0.13848636
21	0x3d8ee66d	0.06977544
22	0x3d230ea7	0.039808895
23	0xbe01d27f	-0.12677954
24	0xbe004deb	-0.12529723
25	0x3c9f41d4	0.019440569
26	0xbdba88df	-0.09108137
27	0xbcc341b6	-0.023835044
28	0xbd96a0b1	-0.07354868
29	0x3e4f35b0	0.20235324
30	0xbd9012c6	-0.07034831
31	0x3e8f51a7	0.27991983
32	0x3d6207b7	0.05518314
33	0x3dbf5c9e	0.09343837
34	0x3da6d79d	0.08146594
35	0x3c965806	0.01835252
36	0xbd09145c	-0.03346668
37	0x3bb1da42	0.0054276297
38	0x3dd33153	0.10312142
39	0xbe254b50	-0.1614201
40	0xbcecc89a	-0.028904248
41	0x3d82a05b	0.06378242
42	0x3c3b267c	0.01142275
43	0x3d0e65dd	0.034765113
44	0x3e273b85	0.16331299
45	0x3e014ee5	0.12627752
46	0x3ba25d30	0.0049549565
47	0x3e5a1813	0.21298246
48	0xbbd44841	-0.00647834
49	0x3dc00154	0.09375253
50	0xbe2f1a04	-0.17099768
51	0x3d01784d	0.03160887
52	0xbdd47c5f	-0.103752844
53	0xbc0c0874	-0.008546937
54	0xbce0a6f8	-0.027423367
55	0x3c454af9	0.012041801
56	0x3cacad7e	0.021078821
57	0xbe672296	-0.22571787
58	0x3c89aa6d	0.016804898
59	0xbcb58f66	-0.022163104
60	0xbe44edcd	-0.19231339
61	0x3dd8fe9e	0.105954394
62	0xbcc53606	-0.024073612
63	0xb8d60580	-0.0001020534

blocks.0.1.running_var f4 [64]
0	0x3ebb1295	0.36537614
1	0x3ed9d08b	0.42541918
2	0x3ee40fe0	0.44543362
3	0x3ef7850b	0.4834369
4	0x3f06ee9c	0.5270784
5	0x3f2a50f0	0.6652975
6	0x3eb77517	0.3583152
7	0x3f2d2332	0.6763183
8	0x3ef6bcf7	0.48191044
9	0x3ea97ba6	0.3310215
10	0x3ecaea96	0.396321
11	0x3ec5493f	0.38532445
12	0x3f2eb55c	0.6824548
13	0x3eac5d95	0.33665147
14	0x3eb38f66	0.35070342
15	0x3eba5009	0.36389187
16	0x3eecf326	0.46279258
17	0x3ebaa279	0.36452082
18	0x3edc468e	0.4302258
19	0x3efaf2cd	0.49013367
20	0x3eab0021	0.33398536
21	0x3f014e36	0.50509965
22	0x3eea790e	0.45795482
23	0x3ea82cb0	0.32846594
24	0x3edeb76e	0.4349932
25	0x3ee48709	0.44634274
26	0x3ea864f3	0.32889518
27	0x3ec93f6a	0.39306194
28	0x3ed4ab8c	0.4153713
29	0x3f0eb891	0.55750376
30	0x3f1ad16f	0.6047582
31	0x3e83637a	0.25661832
32	0x3ef9a9c7	0.48762342
33	0x3f34f4bb	0.7068593
34	0x3ef03c4a	0.46920997
35	0x3eadfafd	0.3398055
36	0x3ef03f66	0.4692337
37	0x3ec36514	0.38163054
38	0x3ea614a8	0.32437634
39	0x3ef87956	0.48530072
40	0x3ee30ab8	0.44344115
41	0x3f0a028b	0.5391013
42	0x3e92173f	0.2853336
43	0x3f06edb6	0.5270647
44	0x3ef28ee5	0.47374645
45	0x3ec14ccf	0.37753913
46	0x3ecf3653	0.40471134
47	0x3eb0f2fd	0.34560385
48	0x3eaee449	0.34158543
49	0x3f05a314	0.5220196
50	0x3eba33bf	0.36367604
51	0x3ecb175e	0.39666265
52	0x3ee71573	0.45133552
53	0x3ebe5741	0.37175944
54	0x3eee3380	0.46523666
55	0x3f0097c8	0.502316
56	0x3ed1db76	0.40987748
57	0x3ea4c6a3	0.32182798
58	0x3ebe3f32	0.3715759
59	0x3ec43238	0.38319564
60	0x3ebf9240	0.37416267
61	0x3edf0354	0.43557227
62	0x3f109e09	0.5649114
63	0x3ee9e9aa	0.45686084

blocks.1.0.weight f4 [32, 64]
0	0xbb89dd61	-0.0042072986
1	0x3d9e1fcb	0.07720908
2	0xbe06ce5c	-0.13164657
3	0x3de37982	0.1110716
4	0xbd6f9b40	-0.058497667
5	0x3d59377f	0.05303144
6	0xbd532695	-0.051550467
7	0xbc71f139	-0.014766985
8	0x3bfe6f69	0.007764746
9	0xbdce27c4	-0.100661784
10	0xbbcd80e0	-0.0062714666
11	0x3d8a8aca	0.06764753
12	0x3d52bf83	0.05145217
13	0x3db509f7	0.08839791
14	0x3dc95fc2	0.098327175
15	0x3e0038bf	0.12521647
16	0xbe089b6d	-0.1334054
17	0xbd689df0	-0.056791246
18	0xbda7319c	-0.08163759
19	0xbbdfd54b	-0.0068308464
20	0xbd8283d8	-0.063728034
21	0x3dac13d0	0.084022164
22	0xbcec403d	-0.028839225
23	0x3dbda7cf	0.092605226
24	0x3d5703b9	0.052493785
25	0xbd8eee26	-0.06979017
26	0xbcd685da	-0.026186872
27	0x3d338c3f	0.04383492
28	0x3d85f195	0.06540219
29	0x3cc6a53c	0.024248712
30	0xbde31b37	-0.11089175
31	0xbd9dc29c	-0.077031344
32	0x3dcac759	0.09901304
33	0xbe0aedad	-0.13567229
34	0x3e1042f7	0.14088045
35	0xbe0a77bb	-0.13522236
36	0x3ca38ab4	0.0199636
37	0x3c83f403	0.016107565
38	0xbdebfb61	-0.11522556
39	0xbd4cd2ab	-0.050005596
40	0x3c02b815	0.007978459
41	0x3df527c8	0.11970478
42	0xbd528837	-0.051399436
43	0x3e1c4e69	0.15264286
44	0xbdb29972	-0.087206736
45	0xbdc18633	-0.094494246
46	0xbd77ef6b	-0.06053106
47	0xbce6b8bf	-0.028164266
48	0x3cc5a88c	0.024128221
49	0xbd909c04	-0.070610076
50	0xbd6ec03d	-0.0582888
51	0xbd8a5341	-0.06754161
52	0xbd5624c8	-0.05228117
53	0xbc75fd6a	-0.015014032
54	0xbdc44033	-0.095825575
55	0xbd040baa	-0.032237686
56	0x3d131b54	0.035914734
57	0xbd5f349a	-0.054493524
58	0x3d874fe0	0.06607032
59	0xbd5d5e74	-0.054045156
60	0x3e344252	0.17603424
61	0xbc0cbe7a	-0.008590335
62	0xbc21511f	-0.009846001
63	0x3d9a7b98	0.07543105
64	0x3b383186	0.002810569
65	0x3de5d3c8	0.11222035
66	0xbc48d6a0	-0.012258202
67	0xbd5e2743	-0.05423666
68	0xbe049402	-0.12947085
69	0xbd20e639	-0.039282057
70	0xbdc3bbd0	-0.09557307
71	0xbd25f321	-0.04051507
72	0x3d82ad38	0.06380695
73	0x3c7428c3	0.0149022965
74	0xbde9bcc5	-0.11412958
75	0xbd474023	-0.04864515
76	0x3c43aa2e	0.0119424295
77	0xbdae4fc1	-0.085113056
78	0xbde30260	-0.11084437
79	0x3dca591b	0.09880277
80	0x3d227aa7	0.03966775
81	0xbd52ea50	-0.05149299
82	0x3c025e63	0.007957074
83	0xbdaef114	-0.08542076
84	0x38b47ab8	8.605927e-05
85	0x3d198409	0.037479434
86	0xbdfc36c4	-0.12315133
87	0x3dfa5e3c	0.12225005
88	0x3cca2ab4	0.024678566
89	0x3ddc0cb6	0.10744612
90	0xbdd898a4	-0.10575989
91	0x3d6ad2b6	0.057329856
92	0xba941870	-0.0011298787
93	0x3dad07e5	0.084487714
94	0xbb1099b1	-0.0022064263
95	0xbd2d8bf6	-0.042369805
96	0x3cc9f4d5	0.024652878
97	0x3c76ee0a	0.015071401
98	0x3e0ab3b8	0.1354512
99	0xbc005681	-0.007833124
100	0xbd2727bc	-0.040809378
101	0x3cf24f10	0.029578716
102	0x39a2bc54	0.00031039363
103	0x3df8348b	0.12119397
104	0x3deb74a9	0.114968605
105	0x3d911d87	0.0708571
106	0xbdc5e0d9	-0.09662027
107	0xbd5bc42f	-0.053653892
108	0x3e017aa3	0.12644438
109	0x3c922f06	0.017844688
110	0x3d59b61c	0.05315219
111	0xbddaae34	-0.10677758
112	0x3c902dfb	0.01760005
113	0xbde20259	-0.11035604
114	0xbda50190	-0.08056939
115	0xbdb40a1e	-0.08790992
116	0x3dadbbf9	0.084831186
117	0x3c30b9de	0.010786502
118	0xbd3c11ca	-0.045915402
119	0xbdf91ea9	-0.12164051
120	0x3cdf8107	0.027283205
121	0x3e1c85c5	0.15285404
122	0xbcdde575	-0.027086953
123	0x3d2e3481	0.04253054
124	0xbce6a89a	-0.028156567
125	0x3d8d0e39	0.068874784
126	0x3da1b106	0.07895093
127	0xbd8a66c4	-0.06757882
128	0xbbca5d42	-0.006175668
129	0x3ddbc75f	0.107313864
130	0xbe172850	-0.14761472
131	0x3dc098e0	0.094041586
132	0xbc970dbe	-0.01843917
133	0xbda6b87f	-0.081406586
134	0x3cfc3325	0.030786106
135	0x3d31f6eb	0.04344837
136	0x3dac21a2	0.084048524
137	0xbd442f08	-0.047896415
138	0x3e1c48f1	0.152622
139	0x3dc83f67	0.09777718
140	0x3d7488dc	0.05970083
141	0x3d0659f4	0.03280063
142	0x3d7caf1c	0.061690435
143	0xbd6ac471	-0.057316247
144	0x3d08c91f	0.03339493
145	0xbc0db146	-0.008648222
146	0x3da95336	0.08267824
147	0x3d09e2e5	0.03366365
148	0x3d4e2aaf	0.050333675
149	0x3d2e4e4b	0.042555135
150	0x3e1c2458	0.15248239
151	0x3d4b4015	0.04962166
152	0x3d7b423e	0.06134247
153	0xbc9f3bd0	-0.0194377
154	0xbe114cf7	-0.14189516
155	0xbddb69fc	-0.10713574
156	0xbd7e64de	-0.062107913
157	0x3d485be1	0.048915748
158	0x3e054d91	0.1301787
159	0x3e10cd42	0.141408
160	0x3dace5e6	0.08442287
161	0xbb8c06a3	-0.004273252
162	0xbddffaa3	-0.10936477
163	0x3dce09a8	0.100604355
164	0xbd1a3009	-0.037643466
165	0xbd011b06	-0.031519912
166	0xbe03b12b	-0.12860553
167	0xbdc978a0	-0.098374605
168	0x3de67c4f	0.11254179
169	0x3d40d082	0.04707385
170	0xbddd7b9b	-0.108145915
171	0xbe34a3ae	-0.17640564
172	0xbd0a9a06	-0.033838294
173	0x3db5c7c1	0.08875991
174	0x3db4fbcd	0.0883709
175	0xbcfe4bdd	-0.031042034
176	0xbe20d0fa	-0.15704718
177	0xbd9348f3	-0.07191648
178	0x3d8b17fe	0.067916855
179	0x3d827fb8	0.06372017
180	0x3d045ee8	0.032317072
181	0xb9f8d5c8	-0.00047461526
182	0xbd7d3361	-0.061816577
183	0x3da28fdc	0.07937595
184	0xbdcba150	-0.09942877
185	0xbda59405	-0.08084873
186	0xbc8440ee	-0.016144242
187	0xbcfc7b5f	-0.030820547
188	0x3e06c689	0.13161673
189	0xbd109c59	-0.035305355
190	0x3d7495b8	0.059713095
191	0x3d84af1b	0.06478711
192	0xbccdca6f	-0.025120942
193	0xbda6c1d1	-0.08142436
194	0xbdb93a0c	-0.09044275
195	0x3d80c066	0.06286697
196	0xbd389661	-0.045065288
197	0xbd157906	-0.03649237
198	0xbcdd83e3	-0.027040428
199	0xbd0bb605	-0.034109134
200	0x3d10bfb1	0.03533906
201	0x3e0b7a21	0.13620807
202	0x3e1ca95d	0.15298982
203	0x3debe6b5	0.11518613
204	0x3d01cd67	0.031690028
205	0xbe0972fe	-0.13422772
206	0xbca80bb0	-0.020513386
207	0xbe3bfab9	-0.18357362
208	0x3d4f3601	0.05058861
209	0xbc696d4c	-0.01424725
210	0x3dc3b3b6	0.095557615
211	0xbdc55448	-0.09635216
212	0xbccc46f7	-0.024936182
213	0xbe255a69	-0.1614777
214	0x3e297e74	0.16552144
215	0x3d43f2c6	0.04783895
216	0x3dc6a0d2	0.09698643
217	0x3e089128	0.13336623
218	0xbd923f70	-0.07141006
219	0x3d650f8b	0.055923026
220	0xbd1ce8db	-0.038308006
221	0xbddf1136	-0.108919546
222	0x3c271ab9	0.010199242
223	0xbd8f6f64	-0.07003668
224	0x3da98f2e	0.082792625
225	0xbe166e5b	-0.14690535
226	0xbe320f5f	-0.17388676
227	0x3d8333db	0.06406375
228	0x3d313f8d	0.043273497
229	0xbd009cc7	-0.031399515
230	0x3a9c98ba	0.0011947372
231	0xbe0a8346	-0.1352664
232	0xbc296b2d	-0.010340494
233	0xbd1a534b	-0.03767709
234	0x3d932317	0.07184427
235	0xbcf185bb	-0.029482713
236	0xbceca07f	-0.028885124
237	0x3c413be8	0.011794068
238	0x3da9f908	0.08299452
239	0x3cc03e29	0.02346714
240	0xbdc8c5b8	-0.09803337
241	0x3cefc1d4	0.02926723
242	0xbdb529ab	-0.08845838
243	0xbcac25f8	-0.021014199
244	0x3dc29237	0.095005445
245	0x3dcc7703	0.09983637
246	0xbe14fa6f	-0.14548658
247	0x3d94a3b8	0.072577894
248	0x3d9e574e	0.07731496
249	0x3dc1125f	0.09427332
250	0x3d453d35	0.048154075
251	0xbd3de33c	-0.046359286
252	0xbe0404a5	-0.12892397
253	0x3c9df8e1	0.019283714
254	0x3d82b700	0.06382561
255	0x3c5f8ddd	0.013644663

blocks.1.0.bias f4 [32]
0	0xbd5fa0da	-0.05459676
1	0x3dc00e2c	0.09377703
2	0x3c8e4230	0.017365545
3	0x3baa611f	0.005199566
4	0x3d7afe34	0.061277583
5	0xbba12885	-0.0049181604
6	0x3de1c43d	0.110237576
7	0xbd2f7332	-0.04283447
8	0x3de9a92e	0.114092216
9	0x3ca182ab	0.019715628
10	0x3d801132	0.0625328
11	0x3b4ec1f3	0.0031548708
12	0xbb822659	-0.0039718566
13	0x3dfa22be	0.12213658
14	0xbdc5c03d	-0.09655807
15	0x3dcdc246	0.1004682
16	0xbdca318c	-0.098727316
17	0xbd0db347	-0.0345948
18	0x3d21dffb	0.039520245
19	0x3d489694	0.048971727
20	0x3df31997	0.11870115
21	0xbde07f52	-0.109617844
22	0xbd329baa	-0.043605484
23	0xbd71b8a3	-0.059013974
24	0xbd99c9dc	-0.07509205
25	0xbc1b768e	-0.009488715
26	0xbd4b84b3	-0.0496871
27	0x3de880ea	0.113527134
28	0xbde401e4	-0.11133173
29	0xbc1c6aef	-0.009546979
30	0x3d60bd1c	0.05486785
31	0x3dbf8738	0.09351963

blocks.1.1.weight f4 [32]
0	0x3f802950	1.0012608
1	0x3f7f224e	0.9966172
2	0x3f7aec46	0.98016775
3	0x3f7803bd	0.96880704
4	0x3f7f8748	0.998158
5	0x3f8148e4	1.010037
6	0x3f7a1e68	0.97702646
7	0x3f83943f	1.0279616
8	0x3f84b8d0	1.03689
9	0x3f7dc617	0.99130386
10	0x3f814ca2	1.0101511
11	0x3f8068f3	1.0032028
12	0x3f835b12	1.0262167
13	0x3f7ff217	0.99978775
14	0x3f77af9e	0.96752346
15	0x3f82bee2	1.0214503
16	0x3f714004	0.94238305
17	0x3f80bdbb	1.0057901
18	0x3f7f93b3	0.99834746
19	0x3f77cd32	0.9679748
20	0x3f7dfbc3	0.9921228
21	0x3f7982e5	0.97465354
22	0x3f747074	0.9548409
23	0x3f7eda7f	0.9955215
24	0x3f75f07d	0.9607008
25	0x3f7f46d1	0.9971743
26	0x3f84addd	1.0365559
27	0x3f7a7588	0.9783559
28	0x3f7edbeb	0.9955432
29	0x3f7d91b1	0.9905043
30	0x3f8524d6	1.0401866
31	0x3f84f996	1.0388668

blocks.1.1.bias f4 [32]
0	0x3bd629b1	0.0065357317
1	0x3c34e71c	0.011041429
2	0xbcc0f83c	-0.023555867
3	0xbc5f41a1	-0.013626487
4	0x3b764808	0.0037579555
5	0x3cc16816	0.023609202
6	0xbc4b086c	-0.012392145
7	0x3ceb0c5a	0.028692413
8	0x3d9240e9	0.07141287
9	0xbd5be6a9	-0.05368677
10	0x3d0b1704	0.033957496
11	0x3cff4116	0.031158965
12	0x3ce27788	0.027644888
13	0xbb3f8a44	-0.00292267
14	0xbd0bc09f	-0.034119245
15	0xbaa0c0bc	-0.001226447
16	0xbd6120c8	-0.054962903
17	0x3d370ade	0.044688098
18	0x3d0ae370	0.033908308
19	0xbcff2ae5	-0.031148383
20	0xba933fb9	-0.0011234201
21	0xbcb96a2e	-0.022633638
22	0xbd3d2d7b	-0.04618595
23	0x3d08ee16	0.03343018
24	0xbcf85872	-0.030315612
25	0x3c5b3c8e	0.013381137
26	0x3cb2022f	0.021729557
27	0xbbb3c542	-0.0054861614
28	0xb9b3e56b	-0.0003431247
29	0xbb0b7aaa	-0.002128283
30	0x3d72bb0b	0.05926041
31	0x3c3481f3	0.01101731

blocks.1.1.running_mean f4 [32]
0	0xbe6365f9	-0.22206868
1	0x3e06d27e	0.13166234
2	0x3edd1285	0.43178192
3	0xbe0b3253	-0.13593416
4	0x3dbb5038	0.0914616
5	0xbdbd4b55	-0.09242884
6	0xbc970c65	-0.018438527
7	0x3e996f06	0.29967517
8	0x3f23c157	0.6396689
9	0x3e2228f8	0.15835941
10	0xbf729ab8	-0.9476733
11	0xbdbbc104	-0.09167674
12	0x3f0468f1	0.5172263
13	0xbe962443	-0.2932454
14	0xbdfbdd78	-0.12298101
15	0x3e9ca47c	0.30594242
16	0xbc89f1c1	-0.01683891
17	0xbf0cbbd8	-0.54974127
18	0xbe929d68	-0.28635716
19	0xbedbec85	-0.42953888
20	0x3e53de20	0.20690203
21	0x3e3eca37	0.18631826
22	0xbdb60657	-0.08887928
23	0xbeb1d70e	-0.34734386
24	0x3e52bd8a	0.20580116
25	0xbf146b22	-0.5797597
26	0x3e012f4d	0.126157
27	0xbe897840	-0.26849556
28	0x3ed16a02	0.4090119
29	0x3bd2e27f	0.006435692
30	0x3d88d423	0.06681087
31	0x3e46714c	0.19379157

blocks.1.1.running_var f4 [32]
0	0x3ee15cdb	0.44016156
1	0x3efc635f	0.49294564
2	0x3ed14df4	0.40879786
3	0x3f85ab67	1.0442933
4	0x3f2823b3	0.6567947
5	0x3ed07abf	0.40718648
6	0x3eeb19de	0.45918173
7	0x3f1c3c32	0.6102935
8	0x3f72384d	0.9461716
9	0x3ec9d9d8	0.39424014
10	0x3f00d89f	0.5033054
11	0x3f8af6c7	1.085656
12	0x3f3c8233	0.7363617
13	0x3f523cd4	0.82124066
14	0x3f978bd9	1.1839553
15	0x3f0fe0df	0.562025
16	0x3ee460fe	0.4460525
17	0x3f4514fe	0.76985157
18	0x3f65f823	0.8983175
19	0x3ec104d6	0.37699002
20	0x3ed35806	0.41278094
21	0x3f0f5863	0.5599424
22	0x3f0297c3	0.5101282
23	0x3f1901a8	0.5976815
24	0x3ec00a74	0.37507975
25	0x3f0635f0	0.5242605
26	0x3f1cc3af	0.6123609
27	0x3eee8e31	0.46592858
28	0x3f312021	0.6918965
29	0x3f3411f3	0.7033989
30	0x3f17fcca	0.593701
31	0x3ef6df5a	0.4821728

projections.0.0.weight f4 [64, 71]
0	0xbdc0e6ee	-0.09419046
1	0xbda98491	-0.08277238
2	0xbe0bb13b	-0.13641827
3	0xbe19d24c	-0.15021628
4	0xbd234416	-0.039859854
5	0xbda31262	-0.079624906
6	0x3de77037	0.113007
7	0x3c670fb6	0.014102867
8	0x3e0c2997	0.1368774
9	0xbdb30013	-0.087402485
10	0xbdd9e866	-0.106400296
11	0xbd895a0a	-0.06706627
12	0xbd9d10bc	-0.076692075
13	0xbe181b73	-0.14854221
14	0x3d0ba80e	0.034095816
15	0xbe14c834	-0.14529496
16	0x3d6c1ee3	0.057646643
17	0x3cdb35d9	0.026759075
18	0xbd60797f	-0.054803368
19	0x3ddc951a	0.10770626
20	0xbd2cab2e	-0.042155437
21	0x3bc792f2	0.0060905153
22	0xbdcecdd0	-0.10097849
23	0xbdae5019	-0.08511371
24	0x3e042cc2	0.12907699
25	0xbd56a0f8	-0.052399606
26	0x3ddd8c03	0.10817721
27	0xbda473b2	-0.0802988
28	0x3af91908	0.0019004652
29	0xbd7af1bc	-0.061265692
30	0x3d8bba09	0.06822593
31	0x3ba21beb	0.0049471757
32	0x3c3f4131	0.011673258
33	0x3d7d4998	0.061837763
34	0x3d071cf1	0.032986585
35	0xbe009ab1	-0.1255901
36	0x3d69f923	0.05712236
37	0xbd3bab5c	-0.045817718
38	0xbd26477f	-0.040595528
39	0x3cebc977	0.02878259
40	0xbdc45127	-0.09585791
41	0x3c1d564a	0.009603092
42	0x3ce9add7	0.028525276
43	0x3deb5614	0.114910275
44	0x3cbe6abc	0.023244254
45	0x3dca5759	0.098799415
46	0x3d14bd9e	0.036313646
47	0xbe044220	-0.1291585
48	0xbae17e6c	-0.0017203814
49	0x3ab538c2	0.0013826119
50	0xbe172277	-0.14759241
51	0xbc345eeb	-0.011008958
52	0x3ccb300e	0.024803188
53	0xbd38ddd3	-0.045133423
54	0x3d57c1dc	0.052675113
55	0x3dea2ac7	0.114339404
56	0x3cd062ec	0.025437795
57	0x3b53ae6d	0.003230001
58	0xbd683d03	-0.05669881
59	0x3dacc418	0.084358394
60	0xbde06a37	-0.10957759
61	0x3dcfa77f	0.10139369
62	0x3ce7aac6	0.028279673
63	0xbcbdd5a7	-0.023173166
64	0x3bd7da98	0.0065873377
65	0x3d1c693b	0.038186293
66	0xbe032b61	-0.12809516
67	0xbdfa75c5	-0.12229494
68	0xbe05fa71	-0.13083817
69	0x3df97f4d	0.12182484
70	0xbddca220	-0.107731104
71	0x3de9add2	0.11410107
72	0xbd983379	-0.07431693
73	0xbd0022bf	-0.031283136
74	0xbcec5d96	-0.028853219
75	0x3b66dc4c	0.0035226522
76	0x3e1bcc46	0.15214643
77	0x3dcca725	0.09992818
78	0x3db31720	0.08744645
79	0xbb0d83ac	-0.0021593375
80	0x3c40f372	0.011776792
81	0xbdab9172	-0.08377351
82	0xbd818700	-0.06324577
83	0x3e042e6b	0.12908332
84	0xbe035c8f	-0.12828277
85	0xbe122887	-0.14273272
86	0xbc908501	-0.017641546
87	0xbdaa1bd6	-0.083060905
88	0x3d87c486	0.06629281
89	0xbc979cb8	-0.018507347
90	0x3d90a43d	0.07062576
91	0x3de52ffa	0.111907914
92	0xbd1bef76	-0.038070165
93	0x3d1c1084	0.038101688
94	0x3da039d1	0.078235276
95	0xbaadbb92	-0.0013254753
96	0x3d84dc38	0.06487316
97	0x3d13291f	0.035927888
98	0x3d7e241f	0.062046167
99	0xbdbbbbc6	-0.09166674
100	0xbd071830	-0.03298205
101	0x3d79b9f3	0.06096835
102	0xbdcb5379	-0.099280305
103	0xbd51be19	-0.051206682
104	0xbc1c860d	-0.009553445
105	0xbdc06673	-0.09394541
106	0xbd8a26db	-0.06745692
107	0xbdaf7301	-0.08566857
108	0xbd6f4779	-0.05841777
109	0xbcd6c7b8	-0.02621828
110	0x3c30591d	0.010763434
111	0xbd8202f5	-0.0634822
112	0xbd9b9a6d	-0.07597814
113	0xbe230f4e	-0.15923807
114	0x3dba2e47	0.09090858
115	0x3d65ee21	0.0561353
116	0xbdb3f4fc	-0.087869614
117	0xbad57a8a	-0.001628713
118	0x3e0bef77	0.13665567
119	0x3db96d7a	0.09054084
120	0x3d08fb11	0.03344256
121	0xbdcc6d81	-0.09981824
122	0x3e1a89ff	0.15091704
123	0xbd5801c5	-0.052736063
124	0xbd11a807	-0.035560634
125	0xbb5695c0	-0.0032743067
126	0xbdc3c3d7	-0.09558838
127	0x3bf7ca62	0.0075619677
128	0x3d80d3e7	0.06290417
129	0xbd2fcdbe	-0.04292082
130	0x3de812d3	0.113317154
131	0x3dc26035	0.09491006
132	0x3da7bfae	0.08190857
133	0xbc8f4828	-0.017490461
134	0x3cf56fc2	0.029960517
135	0x3df7bced	0.120965816
136	0x3d33f857	0.043938007
137	0xbdd979da	-0.106189445
138	0x3dae354d	0.0850626
139	0x3ddd4801	0.10804749
140	0xbc8675f2	-0.016413663
141	0xbd7d08d0	-0.061775982
142	0xbd72244b	-0.059116643
143	0xbe1bb113	-0.15204267
144	0x3d1ae233	0.037813377
145	0x39e4e4b8	0.00043657958
146	0xbdeb249b	-0.11481591
147	0xbdadb064	-0.084809095
148	0x3d2d11e0	0.042253375
149	0x3cbb3798	0.022853658
150	0x3d3d2d4a	0.04618577
151	0xbd9dc158	-0.07702893
152	0x3d99e0e5	0.07513598
153	0xbd9e50b0	-0.07730234
154	0xbdae9fe1	-0.08526588
155	0xbdc19460	-0.094521284
156	0x3cccdb38	0.025006875
157	0xbde89f7e	-0.11358546
158	0xbe1b0926	-0.15140209
159	0xbd5a8958	-0.053353637
160	0xbd3dcf51	-0.04634029
161	0x3dd15ede	0.102231726
162	0x3ce672a5	0.028130839
163	0xbd3c3d4c	-0.045956895
164	0x3da65677	0.081219606
165	0x3dac389a	0.084092334
166	0x39497940	0.00019214023
167	0xbd684e21	-0.056715135
168	0x3ca1211d	0.01966911
169	0xbd2b89ee	-0.041879587
170	0xba90f9e8	-0.0011060806
171	0xbcb60dfa	-0.022223461
172	0xbe1f53ff	-0.15559386
173	0xbd261212	-0.040544577
174	0x3d10afd9	0.03532395
175	0xbe012075	-0.12610038
176	0x3d6922e8	0.056918055
177	0xbd5a7774	-0.053336576
178	0xbd07d7ae	-0.033164673
179	0x3d35a32c	0.044345066
180	0xbc62723f	-0.013821184
181	0xbde5d5d3	-0.11222424
182	0xbdfd46c6	-0.123670146
183	0xbc902829	-0.017597275
184	0xbd98f7a9	-0.074691124
185	0xbb7ebfd9	-0.0038871674
186	0xbda15abb	-0.078786336
187	0xbe16980d	-0.1470644
188	0x3d44d967	0.048058894
189	0x3d0c0fa1	0.034194592
190	0xbdb47384	-0.08811095
191	0xbe236ee0	-0.15960264
192	0x3d65b79b	0.056083303
193	0xbba7f4e2	-0.005125628
194	0x3d21452b	0.039372604
195	0xbb9dc626	-0.004814881
196	0xbad83d66	-0.001649779
197	0xbdea7cba	-0.11449571
198	0xbe034af9	-0.12821569
199	0x3da73dac	0.0816606
200	0xbd5aac8d	-0.053387213
201	0x3dee089d	0.116227366
202	0x3daacd6f	0.083399646
203	0x3c93272e	0.017963018
204	0xbd339595	-0.043843824
205	0xbd9fe8c3	-0.07808068
206	0x3d8c8ca9	0.06862766
207	0xbdc28b7c	-0.09499261
208	0x3dec345f	0.115334265
209	0xbb565da5	-0.0032709625
210	0x3d2b0c8d	0.041760016
211	0x3b45d674	0.0030187638
212	0xbd4373c4	-0.047717825
213	0x3b84c29d	0.00405152
214	0x3c4af786	0.012388116
215	0x3c0ccdfe	0.008594034
216	0xbdef026b	-0.11670383
217	0x3c28e5d6	0.010308703
218	0xbd0a9ba3	-0.033839833
219	0xbcd27b86	-0.025693666
220	0xbc439f62	-0.011939855
221	0x3e1f3fbb	0.15551655
222	0x3d0d5afd	0.0345106
223	0x3d9f7c96	0.07787435
224	0xbdf5a150	-0.119936585
225	0xbdb1e301	-0.08685876
226	0xbd79106e	-0.060806684
227	0x3dbaf3c4	0.09128526
228	0x3dce55bd	0.10074947
229	0xbd20df48	-0.039275438
230	0xbdaeb958	-0.08531445
231	0x3d040885	0.032234687
232	0xbde2948d	-0.1106349
233	0xbd42799a	-0.04747925
234	0x3dad9629	0.084759064
235	0x3cd2dc2e	0.025739755
236	0xbd87b384	-0.06626037
237	0xbd82caf7	-0.06386369
238	0xbd3e52c5	-0.046465654
239	0xbd849799	-0.064742275
240	0xbdd22c17	-0.10262316
241	0xbdb37d12	-0.0876409
242	0x3da3ba03	0.07994463
243	0x3d0957d0	0.03353101
244	0xbdad8806	-0.0847321
245	0x3d885307	0.06656461
246	0x3e088f28	0.1333586
247	0xbd5eacc4	-0.05436398
248	0x3dfc8173	0.12329378
249	0x3d198d93	0.03748853
250	0xbd86b86f	-0.06578147
251	0xbe125f17	-0.14294086
252	0x3e048c29	0.12944092
253	0xbc254207	-0.010086543
254	0x3d9aaa42	0.07552005
255	0xbc972abb	-0.018452993

projections.0.0.bias f4 [64]
0	0xbd40923c	-0.04701446
1	0x3dcdc1cf	0.10046732
2	0x3db7edb3	0.089808844
3	0x3d8668d0	0.0656296
4	0x3cc3d9a3	0.023907488
5	0xbd9623de	-0.0733106
6	0x3dc0cc3a	0.09413953
7	0xbdd8facb	-0.1059471
8	0x3dd9dd2d	0.10637889
9	0x3c36c3b0	0.011155054
10	0xba615597	-0.0008595823
11	0xbd28e528	-0.041234165
12	0xbd9f0d21	-0.07766176
13	0xbdd37290	-0.103245854
14	0xbc832011	-0.016006501
15	0xbde481d7	-0.111575775
16	0xbdd853c2	-0.105628505
17	0xbd0e334e	-0.034716897
18	0xbdac88c9	-0.08424527
19	0x3dc79a88	0.09746271
20	0xbc215af7	-0.009848348
21	0xbdbebefa	-0.0931377
22	0xbd4ddba6	-0.0502583
23	0xbddd74d2	-0.10813297
24	0xbcbe8d69	-0.023260789
25	0xbdd3a68a	-0.10334499
26	0x3c2db500	0.010602236
27	0x3dbd8e7e	0.09255694
28	0xbd370de1	-0.04469097
29	0x3dbf9a0b	0.09355553
30	0xbd46d2bf	-0.048540827
31	0x3bb4258e	0.005497641
32	0x3ddc2d55	0.10750834
33	0xbc420022	-0.011840852
34	0x3d6807eb	0.056648176
35	0x3de5fae0	0.11229491
36	0xbd27d741	-0.040976766
37	0xbda21c9e	-0.079156145
38	0x3dbe0550	0.09278357
39	0x3def8bd4	0.11696592
40	0xbca8c14e	-0.020599987
41	0xbd0ecb10	-0.034861624
42	0x3d5e7ac1	0.054316286
43	0x3dc527e6	0.09626751
44	0xbdbf505d	-0.093415
45	0xbd1d5963	-0.038415324
46	0x3defc4d0	0.11707461
47	0x3d954728	0.072889626
48	0xbdb14960	-0.08656573
49	0xbcb6f348	-0.022332802
50	0x3dbb3de7	0.09142666
51	0xbd234cc0	-0.039868116
52	0xbdb42d91	-0.087977536
53	0x3dcba7c4	0.09944108
54	0x3cb833b4	0.022485591
55	0xbc86457e	-0.016390558
56	0x3cfe23bd	0.0310229
57	0xbd3ee7e9	-0.046607886
58	0xbdb5a813	-0.08869948
59	0xbdc8c516	-0.09803216
60	0xbb3f92f4	-0.0029231878
61	0xbdb76965	-0.08955649
62	0xbd739d9e	-0.059476487
63	0x3dab939b	0.08377763

projections.0.1.weight f4 [64]
0	0x3f811041	1.0083085
1	0x3f740b08	0.9532933
2	0x3f8005c1	1.0001756
3	0x3f83907f	1.0278472
4	0x3f850e1e	1.0394933
5	0x3f87f530	1.06217
6	0x3f773285	0.9656146
7	0x3f828f86	1.020005
8	0x3f7a8983	0.97866076
9	0x3f829242	1.0200884
10	0x3f79723f	0.9743995
11	0x3f6e62cb	0.93119496
12	0x3f8631d1	1.0483953
13	0x3f8355ca	1.0260556
14	0x3f8b66c2	1.0890734
15	0x3f81157a	1.0084679
16	0x3f87badf	1.0603904
17	0x3f87bc35	1.0604311
18	0x3f743810	0.95398045
19	0x3f83202c	1.0244193
20	0x3f88794c	1.0662017
21	0x3f841e78	1.0321798
22	0x3f77c8bc	0.9679067
23	0x3f7cef5b	0.9880273
24	0x3f7fb11b	0.99879616
25	0x3f6b20c9	0.918469
26	0x3f82d57e	1.0221403
27	0x3f810e52	1.0082495
28	0x3f8474bb	1.0348123
29	0x3f7a1a61	0.976965
30	0x3f87c892	1.0608084
31	0x3f80032f	1.0000972
32	0x3f7728b4	0.96546483
33	0x3f8189d2	1.0120184
34	0x3f7a5bff	0.97796625
35	0x3f7e3d65	0.9931243
36	0x3f8788e2	1.0588648
37	0x3f84712e	1.034704
38	0x3f724fec	0.946532
39	0x3f7c34e1	0.98518187
40	0x3f7bc6cf	0.9835023
41	0x3f7acf31	0.979724
42	0x3f847254	1.034739
43	0x3f72f7db	0.9490945
44	0x3f846e4e	1.0346162
45	0x3f74bc3d	0.9559973
46	0x3f7881cc	0.97073054
47	0x3f75cd95	0.9601682
48	0x3f87fdb4	1.0624299
49	0x3f8561d4	1.042048
50	0x3f82930b	1.0201124
51	0x3f8031f4	1.0015244
52	0x3f7ee704	0.9957125
53	0x3f846c79	1.0345603
54	0x3f78b4aa	0.9715067
55	0x3f79dd14	0.97602963
56	0x3f83d639	1.029975
57	0x3f726ebe	0.9470023
58	0x3f800b4d	1.0003449
59	0x3f87923e	1.0591505
60	0x3f7ed748	0.99547243
61	0x3f7ecf93	0.99535483
62	0x3f730323	0.9492666
63	0x3f73e9d3	0.9527866

projections.0.1.bias f4 [64]
0	0xba885e4c	-0.0010404079
1	0xbd27f115	-0.041001398
2	0xbc80c1b7	-0.01571737
3	0x3c9fce51	0.019507559
4	0xbc313adc	-0.010817256
5	0x3c218e75	0.009860625
6	0xbd2086af	-0.039190944
7	0x3cf3b151	0.029747637
8	0xbca2ffb1	-0.019897314
9	0xbcd3e27b	-0.02586483
10	0xbd29ae7d	-0.04142617
11	0xbd439c75	-0.04775663
12	0x3acd9f8f	0.0015687811
13	0xbd3ea536	-0.046544276
14	0x3d030d9f	0.031995412
15	0xbbbdc67e	-0.0057914844
16	0x3d064906	0.032784484
17	0x3ca0f930	0.019650072
18	0xbcb15cad	-0.021650637
19	0x3d96c19c	0.07361147
20	0x3c1548f8	0.009111635
21	0x3cab46b4	0.020907737
22	0xbd94061d	-0.072277285
23	0x3c9cbc74	0.01913283
24	0xbd97b0cc	-0.07406768
25	0xbd012925	-0.03153338
26	0x3d13c506	0.036076568
27	0xbcfceae6	-0.030873727
28	0xbb8b6b81	-0.004254759
29	0xbd614dde	-0.0550059
30	0x3cacdefc	0.021102421
31	0xbc46ba76	-0.012129417
32	0xbc88a8b8	-0.016682014
33	0xbc97e2ef	-0.018540828
34	0x3d1ea831	0.03873462
35	0xbcc87cf2	-0.024473641
36	0x3d42b5fb	0.04753683
37	0xbd06a6e5	-0.032874007
38	0xbc549f9b	-0.012977506
39	0x3cc5711f	0.024101792
40	0xbcbf5249	-0.023354666
41	0xbd84c9b0	-0.06483781
42	0x3d07ed31	0.033185188
43	0xbc918d32	-0.017767522
44	0x3d5b1123	0.05348314
45	0xbc9a17ad	-0.018810118
46	0x3d252ec6	0.04032781
47	0xbc1c5dba	-0.0095438305
48	0x3da49768	0.08036691
49	0xbc2c935c	-0.01053318
50	0x3c27b006	0.010234838
51	0x3c900953	0.017582571
52	0xbd36236f	-0.044467386
53	0x3c0a8e4d	0.008456779
54	0x3bac4a27	0.005257863
55	0x3c67d490	0.0141498
56	0xbca6dca8	-0.020368889
57	0x3d63974d	0.055564214
58	0x3d070e27	0.03297248
59	0x3d7bef83	0.061507713
60	0xbc0fe4f9	-0.008782619
61	0xbd3db4f0	-0.046315134
62	0x3bfbf5cb	0.007689213
63	0xbcc8d674	-0.024516322

projections.0.1.running_mean f4 [64]
0	0xbdd3f82d	-0.1035007
1	0x3e1779c3	0.14792542
2	0x3e19883a	0.14993373
3	0xbd663d43	-0.056210767
4	0xbc96d12a	-0.018410284
5	0x3c8039ec	0.01565262
6	0x3d0b407d	0.033997048
7	0xbdac14fe	-0.084024414
8	0x3df050f9	0.11734194
9	0x3cb5b4a8	0.02218087
10	0x3d31daf7	0.04342171
11	0xbc5f5f12	-0.013633506
12	0x3d09e2e4	0.033663645
13	0xbe370d44	-0.17876154
14	0x3d47c98c	0.048776194
15	0xbdb0a416	-0.08625047
16	0xbd985e0b	-0.07439812
17	0x3ce481cd	0.027893925
18	0xbe404a59	-0.18778361
19	0x3dabb613	0.08384337
20	0x3cdb51b8	0.026772365
21	0xbd99d227	-0.075107865
22	0xbdd3b58c	-0.10337362
23	0xbe1a209f	-0.15051506
24	0xbcb4cc27	-0.022070004
25	0x3ce0d6d1	0.027446182
26	0x3cf16aae	0.029469814
27	0x3cc90093	0.024536407
28	0xbe4fc231	-0.20288922
29	0x3e2b7cf1	0.1674688
30	0xbd750f59	-0.05982909
31	0x3dfbc5ed	0.12293611
32	0x3dcfdbd6	0.10149352
33	0x3d262319	0.040560815
34	0x3bfd19af	0.007724009
35	0x3e18e453	0.14930849
36	0xbd34c082	-0.044128902
37	0xbe01e895	-0.12686379
38	0x3e872472	0.26394993
39	0x3e27df5a	0.16393796
40	0x3dd1a4b8	0.10236496
41	0xbda332ef	-0.07968699
42	0x3e6f5847	0.23373519
43	0x3e4578bb	0.19284336
44	0xbe2b61f0	-0.16736579
45	0xbddfdf9c	-0.10931322
46	0x3e2506b0	0.16115832
47	0x3e08194e	0.13290903
48	0xbdfc7345	-0.123266734
49	0xbdaaf858	-0.08348149
50	0x3dcd682c	0.10029635
51	0xbe4f0331	-0.20216061
52	0x3d8ba793	0.068190716
53	0x3e193ec3	0.14965348
54	0x3d49e7cf	0.049293336
55	0xbcfce99a	-0.030873109
56	0xbd8d8f21	-0.06912065
57	0xbd9a3ac1	-0.07530738
58	0xbdece7d6	-0.11567657
59	0xbd12652f	-0.035741027
60	0xbd6a3a07	-0.057184245
61	0xbbcbf8ac	-0.0062247124
62	0x3d505007	0.05085757
63	0x3d8fdf06	0.0702496

projections.0.1.running_var f4 [64]
0	0x3ef7bf61	0.48388198
1	0x3ef72f5d	0.48278323
2	0x3f128216	0.57229745
3	0x3ea9f8ec	0.33197725
4	0x3ecf58e0	0.40497494
5	0x3ef1a398	0.47195125
6	0x3ee1c492	0.44095284
7	0x3f0b90c1	0.5451775
8	0x3e82b793	0.2553068
9	0x3ee1b668	0.44084477
10	0x3e9b4505	0.30326095
11	0x3e849cba	0.25900823
12	0x3eb166d6	0.3464877
13	0x3e971d97	0.29514763
14	0x3edc2f0d	0.43004647
15	0x3eedd487	0.46451208
16	0x3eb26fca	0.34850913
17	0x3efa52c3	0.48891267
18	0x3ebfd8fc	0.37470233
19	0x3e913a8b	0.28364977
20	0x3eb33886	0.3500406
21	0x3edbe911	0.42951253
22	0x3ee392d9	0.44447973
23	0x3f27236b	0.6528842
24	0x3ea16f9b	0.3153046
25	0x3ef11559	0.470866
26	0x3ef0affe	0.4700927
27	0x3ec365bd	0.38163558
28	0x3eb56d5b	0.35434994
29	0x3ed314d5	0.4122683
30	0x3eecee3e	0.46275514
31	0x3ed7e5a9	0.42167404
32	0x3eac3b53	0.3363901
33	0x3f0b1e50	0.5434313
34	0x3ea4f1f5	0.3221585
35	0x3ea0a3b5	0.313749
36	0x3f32adcd	0.6979645
37	0x3eec9ce4	0.46213448
38	0x3ecae69e	0.39629072
39	0x3edccceb	0.4312509
40	0x3ecb656a	0.3972581
41	0x3ebeaceb	0.372413
42	0x3ee805c0	0.45316887
43	0x3ee6248c	0.44949758
44	0x3eda656c	0.42655504
45	0x3eb6fa0f	0.35737655
46	0x3ec1d82d	0.37860242
47	0x3eabdc68	0.33566594
48	0x3e9b169d	0.3029069
49	0x3ed2d2e1	0.41176513
50	0x3edd8d51	0.43271878
51	0x3ea4e64d	0.32206956
52	0x3ebbfe29	0.36717346
53	0x3f0c9f27	0.5493035
54	0x3eb49207	0.3526766
55	0x3ecbd07b	0.39807495
56	0x3eaca7f5	0.3372189
57	0x3eb0f507	0.3456194
58	0x3ed90dfd	0.42393485
59	0x3ee5f3ca	0.4491256
60	0x3ee1cae5	0.4410011
61	0x3f029a1a	0.5101639
62	0x3f145f63	0.5795805
63	0x3eedab5b	0.46419796

projections.1.0.weight f4 [32, 64]
0	0x3c04d177	0.008106581
1	0xbc2ec930	-0.010668084
2	0xbdb3f334	-0.08786622
3	0x3d29e107	0.04147437
4	0x3b77cc0b	0.0037810828
5	0x3e013ee6	0.1262165
6	0x3d272e7f	0.040815827
7	0x3d0b37dc	0.03398882
8	0x3c33eb52	0.010981398
9	0xbd5bcd39	-0.053662512
10	0x3cbb46a6	0.022860836
11	0x3d73c0e6	0.059510134
12	0x3d90ba2f	0.07066762
13	0x3e009a9d	0.1255898
14	0xbd35bad2	-0.04436762
15	0xbd02f09a	-0.031967737
16	0xbe0479b1	-0.12937047
17	0xbce20369	-0.027589517
18	0x3d18acdc	0.037274227
19	0x3d7a435e	0.061099403
20	0xbdda5326	-0.106603906
21	0xbdadc296	-0.0848438
22	0xbe294337	-0.16529547
23	0xbdb287ad	-0.08717284
24	0xbdae1174	-0.08499423
25	0x3d16f65d	0.036856044
26	0xbcf421b4	-0.029801227
27	0x3dbcbad4	0.09215322
28	0xbc3c6dfd	-0.011500833
29	0xbdaeecb3	-0.085412405
30	0xbd988de6	-0.0744894
31	0xbceedd0e	-0.029158141
32	0x3d867ad1	0.06566394
33	0xbdf0d60c	-0.11759576
34	0xbceb5419	-0.028726624
35	0xbd82f148	-0.06393677
36	0xbe07103a	-0.13189784
37	0xbd1e43bd	-0.03863882
38	0xbdd10178	-0.10205358
39	0x3c79f8cb	0.015257071
40	0xbd3ceb5e	-0.0461229
41	0xbd5b6f04	-0.05357267
42	0x3e0d5482	0.13801768
43	0xb94f6468	-0.00019778463
44	0x3d088024	0.03332533
45	0xbe0546bc	-0.13015264
46	0x3d248753	0.040168118
47	0xbd5fb24e	-0.054613404
48	0xbd8e58d0	-0.069505334
49	0x3db8a3b1	0.09015597
50	0xbdc745f6	-0.09730141
51	0xba9178d2	-0.0011098629
52	0xbda00ce3	-0.07814958
53	0xbdd8822f	-0.105717055
54	0xbc92e1c0	-0.017929912
55	0x3d572621	0.052526597
56	0xbe26b245	-0.16278942
57	0xbd6440c9	-0.055725846
58	0x3d3cb052	0.04606659
59	0x3ca7b26a	0.020470817
60	0xbd4735dc	-0.04863535
61	0x3d97c48c	0.07410535
62	0xbd0432cd	-0.03227501
63	0x3cb3841d	0.021913582
64	0xbddf1c40	-0.1089406
65	0x3db6af7b	0.08920189
66	0x3d2f0253	0.042726826
67	0x3c242718	0.010019086
68	0xbdd057d5	-0.10173003
69	0x3d96d416	0.07364671
70	0x3d8df453	0.06931367
71	0xbe03d300	-0.12873459
72	0x3dc312f3	0.09525099
73	0xbdac6728	-0.08418113
74	0xbc7416ea	-0.014898041
75	0xbdc68726	-0.09693746
76	0x3d3aaff5	0.045577962
77	0xbda3954a	-0.07987459
78	0xbe219f42	-0.15783408
79	0xbd87f854	-0.06639162
80	0xbdb4df06	-0.08831601
81	0xbd61de16	-0.05514344
82	0x3d1ff8a0	0.039055467
83	0x3cea6efe	0.028617378
84	0xbccf9580	-0.025339842
85	0x3dd4c020	0.103882074
86	0xbd45b979	-0.048272584
87	0xbd94a956	-0.07258861
88	0x3d1b88cc	0.037972257
89	0xbdabefe4	-0.08395365
90	0x3cb767b0	0.02238831
91	0x3d9e0f01	0.077177055
92	0x3d56d2bb	0.052447062
93	0xbdf0ba60	-0.11754298
94	0xba8728a7	-0.0010311798
95	0x3b3c1d9c	0.0028704172
96	0x3dbad940	0.091234684
97	0x3cc29351	0.023751887
98	0x3ddd6648	0.10810524
99	0xbd47f843	-0.048820745
100	0xbdbf9265	-0.093540944
101	0x3e03c622	0.1286855
102	0x3c5e83ca	0.013581226
103	0x3cedb9fa	0.029019345
104	0x3c75fd26	0.015013969
105	0x3d329670	0.0436005
106	0xbdb2cdb2	-0.087306395
107	0xbc83fbfb	-0.016111365
108	0x3908fe68	0.00013064744
109	0xbd437a41	-0.047724012
110	0xbd73c860	-0.059517264
111	0xbcc00478	-0.02343963
112	0x3dbe2588	0.09284502
113	0xbda2ad93	-0.07943263
114	0xbd01724d	-0.031603146
115	0xbc7e33f5	-0.015515317
116	0x3d498f55	0.049208958
117	0xbdba7913	-0.09105124
118	0x3da114e4	0.07865313
119	0x3cdcf75a	0.026973415
120	0xbdc461d0	-0.09588969
121	0x3dbc0400	0.091804504
122	0x3cdb6110	0.026779681
123	0x3dc5d00c	0.096588224
124	0xbddbc847	-0.10731559
125	0xbd954150	-0.07287848
126	0xbd0c69b8	-0.03428051
127	0xbd7d1465	-0.061787028
128	0xbda24462	-0.07923199
129	0xbd0d8039	-0.03454611
130	0xbd4bfad0	-0.04979974
131	0x3d7d4f31	0.0618431
132	0x3da5db49	0.08098466
133	0xbda1246e	-0.078682765
134	0x3e12b1f6	0.14325699
135	0xbdc4fc12	-0.09618391
136	0xbde97089	-0.113984175
137	0x3d399b51	0.045314137
138	0xbc0f3df5	-0.008742799
139	0xbd99c524	-0.07508305
140	0xbdfdcd3d	-0.12392662
141	0xbbc48332	-0.005997085
142	0xbbb68387	-0.0055698785
143	0x3d4d0bfa	0.05006025
144	0x3e13520c	0.14386767
145	0x3d86c7cf	0.06581079
146	0xbd39ce70	-0.04536289
147	0x3d9a3e88	0.07531458
148	0xbe21c36b	-0.15797202
149	0xbe335ce7	-0.17515908
150	0xbcb8800a	-0.022521991
151	0xbd9f1cb2	-0.07769145
152	0xbd24f732	-0.040274806
153	0x3e07219c	0.13196415
154	0xbdfbdfd0	-0.12298548
155	0xbe0c35b1	-0.13692357
156	0xbdd51b36	-0.10405581
157	0x3b833136	0.004003669
158	0xbda7b092	-0.08187975
159	0x3bd78502	0.006577135
160	0xbd62c180	-0.055360317
161	0xbcf593d1	-0.02997771
162	0x3d29d999	0.041467283
163	0xbd7b16e6	-0.061301135
164	0x3de5f59c	0.11228487
165	0x3cda5e15	0.02665619
166	0x3d6a477f	0.05719709
167	0x3b8bec6c	0.004270127
168	0x3db52c1b	0.08846303
169	0x3d846814	0.06465164
170	0xbd1a5607	-0.0376797
171	0x3d73653a	0.05942271
172	0x3d3bf8db	0.045891624
173	0xbd033976	-0.03203722
174	0xbbefe5df	-0.007321104
175	0x3e292760	0.16518927
176	0xbdf7fa22	-0.12108256
177	0x3cad515a	0.021156956
178	0x3cb0ac82	0.021566633
179	0xbca1e429	-0.019762116
180	0xbe233461	-0.1593795
181	0xbb146f97	-0.002264952
182	0xbe17e0c2	-0.14831832
183	0x3ddecda0	0.108790636
184	0x3d935436	0.07193796
185	0x3d89319f	0.066989176
186	0x3d2dce48	0.042433053
187	0xbe1ad494	-0.15120155
188	0xbe027f9f	-0.12743996
189	0xbde8e1a9	-0.11371166
190	0x3d78bd81	0.0607276
191	0xbd941d63	-0.072321676
192	0x3de43bd9	0.111442275
193	0x3dcf2546	0.10114531
194	0xbddd9893	-0.10820117
195	0x3e01d6f8	0.1267966
196	0xbd5c89c7	-0.053842332
197	0xbbc95881	-0.0061445837
198	0x3ddcc0fe	0.10778998
199	0x3de92130	0.11383283
200	0xbbda8af6	-0.0066693975
201	0x3d1b68d5	0.037941772
202	0x3d330608	0.043706924
203	0x3c662b5d	0.014048425
204	0x3c9f298e	0.019428995
205	0x3d19345a	0.037403442
206	0x3e1008d5	0.14065869
207	0x3c82b75a	0.01595657
208	0x3e2aa266	0.16663513
209	0x3bab5376	0.005228455
210	0x3dd663bf	0.10468244
211	0xbe098e61	-0.1343322
212	0x3d95bd27	0.073114686
213	0xbc22667b	-0.009912129
214	0xbd30a14b	-0.04312257
215	0x3dc66697	0.09687536
216	0x3d2f722c	0.042833492
217	0x3d4c359f	0.049855825
218	0xbe37c41b	-0.17945902
219	0x3c81e42c	0.015855871
220	0x3dccb405	0.099952735
221	0x3c810b01	0.015752317
222	0xbc685f96	-0.014182946
223	0xbdc08952	-0.09401192
224	0xbdf0568d	-0.11735258
225	0xbcc3e5f7	-0.023913367
226	0xbcb0eecf	-0.021598248
227	0xbde82c71	-0.113366015
228	0x3b3470a5	0.0027532962
229	0x3cd4cf23	0.025977677
230	0x3cfe99b6	0.031079154
231	0x3ddc86a7	0.107678704
232	0xbd849ba5	-0.06474999
233	0xbe022a7e	-0.12711522
234	0x3dfbffe0	0.12304664
235	0xbd36ce0b	-0.04463009
236	0xbe1d14db	-0.15339987
237	0xbce94819	-0.028476762
238	0x3e00368f	0.12520812
239	0xbda282f5	-0.07935134
240	0xbd204c74	-0.03913541
241	0x3dde2d77	0.108485155
242	0x3dd46b9b	0.103720866
243	0xbd4134ba	-0.047169425
244	0x3deb69ea	0.11494811
245	0xbc3262d8	-0.010887824
246	0xbdb0e263	-0.0863693
247	0x3c3f3b3f	0.01167184
248	0xbdce2ed8	-0.100675285
249	0x3d753d4b	0.059872907
250	0x3dd6107e	0.104523644
251	0xbe1a4dc6	-0.1506873
252	0xbe09787a	-0.13424864
253	0x3db345bb	0.087535344
254	0x3cc85f9c	0.024459653
255	0x3ca5aef1	0.02022502

projections.1.0.bias f4 [32]
0	0x3d87be38	0.06628078
1	0x3c1e989d	0.0096799405
2	0x3d59b671	0.053152505
3	0xbd559f8b	-0.052154105
4	0x3d322259	0.043489788
5	0xbdf6097a	-0.12013526
6	0x3dee7a78	0.11644453
7	0xbdb2271d	-0.086988665
8	0xbdbd97f8	-0.09257501
9	0xbdf1f900	-0.11815071
10	0xbddd17ec	-0.10795578
11	0xbda043ce	-0.07825433
12	0xbdadbf1a	-0.08483715
13	0xbcbdb7d4	-0.023158945
14	0xbd04595d	-0.032311786
15	0x3d8d9eb1	0.069150336
16	0x3b31080d	0.0027012855
17	0x3d89ef49	0.06735093
18	0x3db8d828	0.090256035
19	0x3b129d37	0.002237154
20	0x3d409eed	0.047026563
21	0x3cb2753a	0.021784414
22	0xbb7cc4e5	-0.0038569507
23	0x3cceabfa	0.02522849
24	0x3d8c72fb	0.06857868
25	0xbdf314df	-0.11869215
26	0x3c27a725	0.010232721
27	0xbc3b4f69	-0.011432507
28	0xbd18afaa	-0.0372769
29	0x3d6d53ce	0.05794125
30	0xbdca2fe1	-0.098724134
31	0xbdac9e3d	-0.08428619

projections.1.1.weight f4 [32]
0	0x3f794914	0.97377133
1	0x3f878750	1.0588169
2	0x3f84903e	1.0356519
3	0x3f7349d9	0.9503456
4	0x3f819288	1.0122843
5	0x3f8310ff	1.0239562
6	0x3f78d705	0.97203094
7	0x3f7f542b	0.99737805
8	0x3f88bd87	1.0682839
9	0x3f7184e4	0.943434
10	0x3f859519	1.0436126
11	0x3f80bd81	1.0057832
12	0x3f85ba0b	1.0447401
13	0x3f8254c6	1.0182121
14	0x3f7c6b2f	0.9860105
15	0x3f78de97	0.97214645
16	0x3f822ca8	1.0169878
17	0x3f82fddb	1.023372
18	0x3f833485	1.0250403
19	0x3f769782	0.9632493
20	0x3f80939f	1.004505
21	0x3f7a74a6	0.9783424
22	0x3f80a281	1.0049592
23	0x3f8637d1	1.0485784
24	0x3f7c7ac2	0.98624814
25	0x3f8614c1	1.0475084
26	0x3f80ec85	1.007218
27	0x3f8762e2	1.0577052
28	0x3f839d43	1.0282367
29	0x3f750c6b	0.95722073
30	0x3f89d650	1.0768528
31	0x3f79febf	0.97654337

projections.1.1.bias f4 [32]
0	0xbb47d1e0	-0.0030490085
1	0x3c64ef93	0.013973135
2	0x3b8f3f26	0.0043715416
3	0xbba0695c	-0.0048953723
4	0x3c364998	0.011125945
5	0x3d0c31c4	0.034227148
6	0xbc50d60f	-0.012746348
7	0x3c274cdf	0.010211199
8	0x3d2b1680	0.041769505
9	0xbd500de0	-0.050794482
10	0x3cbf75ef	0.023371665
11	0x3c5b8a72	0.013399707
12	0x3d0c416e	0.034242086
13	0xba1c7f36	-0.00059698836
14	0xbc8e6f43	-0.017387038
15	0x3c6bd85c	0.014394846
16	0xbbb0af7a	-0.005392012
17	0x3ccfec63	0.025381273
18	0x3d0787d4	0.03308852
19	0xbce2bc5e	-0.027677711
20	0x3c44a425	0.012002026
21	0xbcd82ffe	-0.026390072
22	0xbd2a31ed	-0.04155152
23	0x3d82f0e4	0.063936025
24	0xbcaa5f30	-0.020797342
25	0x3c9f1049	0.019416945
26	0x3d1dbffc	0.03851317
27	0x3ca6e98c	0.020375036
28	0xbca2b83d	-0.019863242
29	0xbccd63f2	-0.025072072
30	0x3d81bbbc	0.063346356
31	0xbbe08717	-0.0068520415
