wandb/run-20251109_185405-vl5g81zk/files/best_model.pth (torch, 689395 bytes, 13 tensors)

network.0.weight f4 [512, 70]
000000 c3 cb ad 3d 42 cd 80 3d b1 39 b7 bd 27 db b0 bb
       0.0848613 0.0628915 -0.08946551 -0.0053972187
000010 bf ed cb 3c 8d 76 f6 bb 71 82 fb bd d9 3e 3a bd
       0.02489364 -0.0075214566 -0.12280739 -0.045470092
000020 c1 1d 3e 3d 03 f3 35 3d 02 7a d5 3d 35 c0 e9 bd
       0.046415094 0.044421207 0.10423662 -0.11413614
000030 53 50 ed 3d 4d 02 cf bd d1 52 f0 3d 0f 04 b6 bd
       0.11587586 -0.10107861 0.11734546 -0.08887493
000040 b9 bb 07 bd 1a 7d e0 bb fc 08 56 3d 94 ae fa bd
       -0.03313801 -0.006850851 0.052254662 -0.122403294
000050 bf 61 52 3c af af df 3d 2c 50 34 3d 46 56 ae 3d
       0.012840687 0.10922181 0.04402177 0.08512549
000060 53 4a 82 3c 8b 6c 79 bd 46 d5 40 bd 40 f9 b5 bc
       0.015904581 -0.06089453 -0.047078393 -0.022213578
000070 44 82 63 3d ee a3 61 3d 3f 26 bf bd 1a 26 b4 3d
       0.055544153 0.055087976 -0.09333467 0.0879633
000080 26 7e cc bc 81 2d 46 3d 78 4d 02 bd 37 4b 24 3c
       -0.024962496 0.04838324 -0.03181216 0.010027698
000090 a3 cf 6d 3d 20 13 d3 bd f6 2a 03 bd b8 e9 0d be
       0.058059346 -0.10306382 -0.032023393 -0.13858688
0000a0 6b e9 05 3c 5c f5 6f 3d b5 cd 9c bd 3a 3a 68 3c
       0.008173327 0.058583602 -0.07656423 0.014174039
0000b0 07 22 f8 3d e2 e4 d0 3b ec 2a 8b 3c f0 57 aa bc
       0.12115865 0.006374941 0.01698824 -0.020793885
0000c0 24 fe 3f 3d c4 5f c6 b9 c7 50 6f bd 53 a0 1e bd
       0.046873227 -0.00037836854 -0.058426645 -0.038727116
0000d0 e7 72 27 3d 80 0b 1b bd d9 02 59 bd 64 db af 3d
       0.040881064 -0.037852764 -0.05298123 0.08586767
0000e0 6b 2a bb 3d de f0 15 3d 97 8f dc bc 5e 6d db bd
       0.0913895 0.036606662 -0.026923938 -0.107142195
0000f0 4a a4 a9 3d 20 b4 82 3d 20 3c e2 3d 30 0c 86 bd
       0.08283289 0.06382012 0.11046624 -0.06545293
000100 0c b6 40 bd 48 30 4b 3b 00 f6 a0 bd 1e ac 8b 3d
       -0.047048613 0.003100412 -0.07859421 0.06819938
000110 40 e6 b3 3d ab cb 12 3e 73 c8 e9 bd 1f 61 b7 bd
       0.08784151 0.14335506 -0.11415186 -0.08954071
000120 96 f0 9c 3d bc 77 bd 3d 14 48 62 3d 60 98 0f bd
       0.076630756 0.09251353 0.05524452 -0.035057425
000130 81 e1 f3 3d 57 6c 71 3d db b9 ea 3d f1 c3 db bb
       0.11908246 0.05894121 0.1146123 -0.0067067076
000140 ef 74 aa bd 5c b0 af 3d 85 31 25 bd ef a3 d1 3d
       -0.083230846 0.0857856 -0.04033043 0.10236346
000150 2f 84 5a 3c ec 4b d6 bd 96 92 ba bd fc e3 c2 3d
       0.013337179 -0.104637 -0.0910999 0.09516141
000160 ba 8d c6 3d 86 89 cc bd 24 95 b7 bc 79 6d b9 bc
       0.09695001 -0.09987168 -0.022409983 -0.022635208
000170 51 63 a1 bd dd 02 96 bc e3 af d8 bd 8d 58 e2 3b
       -0.07880271 -0.018311912 -0.10580423 0.0069075287
000180 b7 a2 ba 3d db 68 5a bc 88 f3 8b 3d 26 dc 71 3d
       0.09113067 -0.013330664 0.06833559 0.05904784
000190 2c 52 67 bc 48 e1 46 bc 03 72 f2 3d 13 0b ca bd
       -0.014118712 -0.012138672 0.11838152 -0.098653935
0001a0 43 8e 28 3d 2b 5f 7f bd 82 dd 32 3d 02 3f 58 bd
       0.041151296 -0.06234662 0.043668278 -0.052794464
0001b0 53 fa de bd 59 48 04 bd 16 cd db 3d c2 7c ad 3d
       -0.10887589 -0.03229556 0.107324764 0.08471061
0001c0 2c 81 8d 3d 9f 60 b4 bd b6 22 9b bd 96 c2 c7 bd
       0.06909403 -0.088074915 -0.0757498 -0.09753911
0001d0 7d cb e0 bc a3 9b 38 bc 4c 0b 17 bd 6e fa 08 bc
       -0.02744078 -0.011267575 -0.036876008 -0.008360488
0001e0 cd 44 2c 3d 76 a4 b9 bd fd 87 b1 bd 51 d7 1b 3d
       0.0420578 -0.090645716 -0.08668516 0.03804714
0001f0 d5 91 83 ba df fa 9f bd c3 da a9 bd f2 dd 16 bd
       -0.0010037968 -0.07811522 -0.082936786 -0.036832757
000200 bc 8a aa 3a a2 53 0f 3c 62 7a 90 bd f7 25 e0 3d
       0.0013011317 0.008747967 -0.07054593 0.10944741
000210 8b fc 0c be 91 5f 07 3d 1a 49 67 3d 9c 6e 7c bc
       -0.13768212 0.033050124 0.0564662 -0.015407231
000220 ec 95 cf 39 83 fd 99 3c 35 35 fb bd 2d aa 6e bd
       0.00039593817 0.018797642 -0.12266008 -0.05826776
000230 ef 0d 92 bc d0 52 5a bd a0 1b 92 3d 6a fe 28 bd
       -0.01782891 -0.053301632 0.07134175 -0.041258253
000240 42 98 24 3d 00 58 0f bd 67 24 2d 3d 9e 07 b8 bd
       0.040184267 -0.034996033 0.042271044 -0.08985828
000250 e8 e7 83 3a 91 3e 6e 3d b4 7e d0 3d ce 04 27 3d
       0.001006362 0.058165137 0.10180417 0.040776066
000260 46 01 7f 3d de 32 8d 3c 83 d4 bc 3d 8a 1a 32 bc
       0.062257074 0.01723617 0.09220221 -0.010870585
000270 47 ee e8 3c d8 ef ac bd 07 62 87 3d 64 1f cd 3c
       0.028433932 -0.08444184 0.06610494 0.025039382
000280 3e b4 2e bc 81 ca eb bc 8a d6 1a 3d 4e 8c 97 bd
       -0.01066309 -0.028783085 0.037802257 -0.07399808
000290 26 67 90 bd 64 6e 16 3d b3 08 b9 bd e1 65 95 3d
       -0.07050924 0.03672637 -0.09034862 0.072948225
0002a0 e2 9a de bd 76 1e b6 bd 7d 0c c6 bd 10 e9 ef bd
       -0.10869385 -0.08892529 -0.09670351 -0.11714375
0002b0 86 86 13 3d 42 a7 ab bd 5a f7 7c bd 66 62 ba bd
       0.036016963 -0.08381511 -0.06175933 -0.09100799
0002c0 47 23 03 3e 4c e3 22 bd 0e 96 9a bd cb f1 11 bd
       0.12806426 -0.03976755 -0.07548152 -0.035630982
0002d0 3a 0b 3c bd 50 db 95 bb 3a 2e 27 3d 5d 6e 11 bd
       -0.045909144 -0.004573263 0.04081557 -0.03550564
0002e0 39 40 0d be 64 e1 e2 3d 9a 9f c8 bd b4 f9 cf 3b
       -0.1379403 0.11078146 -0.097960666 0.0063469056
0002f0 fa 58 d9 3d be 14 b4 3b 7a 6b 86 3d 8d fb 94 3d
       0.10612674 0.0054956367 0.06563468 0.07274542
000300 33 e8 84 bb ba 63 d3 3a f3 0d 31 bd 6e f1 81 3c
       -0.0040560006 0.0016127743 -0.043226194 0.015862193
000310 cd 01 c0 bd 83 4e 84 bd 4c ca b8 bd 70 2c 48 bd
       -0.093753435 -0.064602874 -0.0902296 -0.048870504
000320 18 80 b6 3d 7c 79 31 bb 47 a0 0c bd 53 84 11 bc
       0.08911151 -0.0027080467 -0.03433254 -0.008881646
000330 a0 77 66 3d 91 bd 81 bc 06 08 1a 3d e3 c0 de bc
       0.056266427 -0.015837463 0.037605308 -0.027191585
000340 9a 1a 09 3d 5b d1 7a bd a5 78 c8 bd 35 f5 60 bd
       0.033472635 -0.061234813 -0.09788636 -0.054921348
000350 f8 b6 90 bd 66 35 32 3d 19 68 df 3c ed 49 d3 3c
       -0.070661485 0.043507956 0.027271317 0.025792086
000360 0a e5 c2 3d 94 4d fd bd 97 e2 dc bc 61 08 70 3d
       0.09516342 -0.123683125 -0.026963515 0.05860174
000370 94 db f3 3d 04 1f e9 bc be a8 c2 bd 36 f9 ad bd
       0.119071156 -0.028457172 -0.09504841 -0.08494799
000380 16 74 11 bd 13 17 c6 bd 34 df fc 3d bb 7c 99 bd
       -0.0355111 -0.0967237 0.1234726 -0.074944936
000390 b3 3b a7 3c 23 85 85 3d 41 fb c9 b8 38 b1 23 3d
       0.020414209 0.065195344 -9.6312266e-05 0.03996393
0003a0 72 2a 16 bc da 3a ce 3d eb a2 c3 bd 2a c7 fe bd
       -0.009165393 0.10069819 -0.095525585 -0.12440331
0003b0 87 41 bc 3d 66 4d e9 3c c5 f6 28 3b df 49 8e 3d
       0.09192186 0.02847929 0.0025781852 0.069476835
0003c0 dd d7 2e bc 65 ff ac bd 60 df 40 ba ae 00 bc bd
       -0.010671583 -0.0844715 -0.0007357504 -0.09179817
0003d0 bc d0 5b 3d 0b a3 ab bd 30 8a cf bd 75 e3 2e bd
       0.05366586 -0.08380707 -0.10133779 -0.04269739
0003e0 bd 6d a0 bd 68 21 b8 3d 57 29 64 3c 9d fb 82 bb
       -0.07833431 0.08990747 0.013925872 -0.00399728
0003f0 1c ed a4 3d fa 2d 88 bd 3d 14 c1 3d c7 ac 1a 3d
       0.080530375 -0.06649394 0.09427688 0.03776243

network.0.bias f4 [512]
000000 21 81 43 bd 4a 82 17 bd c5 eb 26 bd f4 49 e0 bd
       -0.04773057 -0.036989488 -0.04075219 -0.109516054
000010 eb af b1 bc 62 7d e0 3d 68 76 f7 3c b3 9c a3 bd
       -0.02169033 0.10961415 0.030207828 -0.079888724
000020 84 93 6b bd e8 87 56 bd 13 0b 5c 3b 57 69 c7 3d
       -0.05751373 -0.052375704 0.0033575937 0.09736889
000030 f6 b3 2d bd 03 71 bf bb 64 2b ea 3a d0 24 7e 3d
       -0.042407952 -0.0058423295 0.0017865715 0.062046826
000040 8e ea be 3c df 89 8f 3d 97 ee 8c 3d bf 1d d0 3d
       0.023305204 0.07008719 0.06881445 0.101619236
000050 c6 7c 9d bd 00 64 84 3d 73 12 fd bc 8f aa 10 3d
       -0.07689814 0.06464386 -0.030892586 0.035318907
000060 fc 6d 6c 3d 82 cd b6 3d a0 69 a6 3b 6a c5 ad 3d
       0.057722077 0.08925916 0.0050785094 0.08484919
000070 a2 9f 60 bd 9f e4 8b 3d 35 48 bc bd fe bb d6 3d
       -0.054839738 0.068307154 -0.0919346 0.104850754
000080 a7 06 dc bd c4 dc ab bd 69 22 b1 3a 7a 38 9a 3d
       -0.10743456 -0.08391717 0.0013514283 0.07530303
000090 a8 74 c6 3d 5e dd 9c bd 05 e4 8b bd a9 1d d5 bd
       0.09690219 -0.0765941 -0.06830601 -0.10406048
0000a0 70 73 bd bd 4b ca e6 bd 67 b5 b8 3d 47 68 e6 bd
       -0.092505336 -0.11269053 0.09018975 -0.11250358
0000b0 04 16 d0 bc a9 57 62 3d ee 13 6a 3d 35 43 7c bd
       -0.025401123 0.05525938 0.057147913 -0.06158753
0000c0 0f 8a 9b 3d aa 52 44 bc 39 e5 88 3c c9 5f 68 3d
       0.07594692 -0.011982599 0.016710864 0.056731973
0000d0 c1 e8 51 3d 56 8f a2 bd c6 ed e3 3d 97 d2 7b 3a
       0.051247362 -0.079374954 0.11129336 0.00096062705
0000e0 1c 8a a1 bc 52 90 89 3c 91 71 d4 3d 82 94 b2 3d
       -0.019719176 0.01679245 0.103732236 0.08719732
0000f0 96 dd da 3c 69 fb ee 3d 2e ae 10 3d 12 f1 7e 3c
       0.026716989 0.116690464 0.03532236 0.015560405
000100 51 61 bf 3c 21 f6 3a bd 28 df bf 3d c5 67 c3 bd
       0.023361834 -0.045644883 0.093687356 -0.09541277
000110 2f 63 4f bd 6c 17 65 bd 5b 99 b2 bd fa 86 49 bd
       -0.0506317 -0.05593054 -0.087206565 -0.04920099
000120 94 06 ae 3d 55 84 0d 3d a8 26 a4 bc 15 dc bd 3c
       0.084973484 0.03455003 -0.020037964 0.023176232
000130 d0 7c e5 bd 9c a4 dd bd af 41 ef 3d d0 31 13 3d
       -0.11205447 -0.10822412 0.1168245 0.035936177
000140 db b5 86 3d 39 f2 bd bd 45 63 b1 bd 1e 0b 3b bd
       0.06577655 -0.09274716 -0.08661512 -0.0456649
000150 e9 92 55 3c 62 13 3d bb 22 91 fd 3c ee 5d 27 3d
       0.013035514 -0.0028850664 0.030952994 0.040861063
000160 1c 0d b2 bd 0a ae da 3d f3 d9 9b 3c 55 9b 4e 3d
       -0.08693907 0.106777266 0.019024825 0.050441105
000170 26 88 ce bd 1f f9 d1 3d d8 44 d7 bb 12 8e cc bd
       -0.10084562 0.10252594 -0.006569486 -0.09988035
000180 5c 77 a1 bc b1 86 22 bd 80 3f e4 3d af fd 55 3d
       -0.019710235 -0.039679233 0.11144924 0.052243885
000190 17 f6 ea bd 80 fd 99 ba 70 7c 9e 3d 60 5e ad bc
       -0.11472719 -0.0011748523 0.07738578 -0.021163166
0001a0 04 9e 81 3d b2 e8 dd bc 5e df 39 bd 39 48 82 bd
       0.06328967 -0.027088497 -0.045379035 -0.06361432
0001b0 88 6d dd 3d 8f 89 9b 3d ae 08 e4 bd 2e c2 7e bd
       0.10811907 0.075945966 -0.11134468 -0.062196903
0001c0 be 62 82 3d f4 0e 16 bd e7 f7 a7 bc 92 78 b2 3d
       0.0636649 -0.036635354 -0.020503951 0.08714403
0001d0 ec bd a4 bd 8c 50 ee bb 4c ed e9 bd 21 20 5d bd
       -0.08044037 -0.0072727855 -0.11422214 -0.05398572
0001e0 05 40 9a 3c ae ca 35 3d f3 7c e9 bc 49 bc 05 3d
       0.018829355 0.044382744 -0.028501963 0.032650266
0001f0 e2 cf dc 3d f7 ec bf 3d e5 ea 83 bd fb 94 71 3a
       0.10781838 0.09371369 -0.06441287 0.000921562
000200 3d 90 87 bb 8b 9c eb bd c4 54 5b 3d 31 07 b7 3d
       -0.0041370676 -0.115044676 0.053547636 0.089369185
000210 b6 61 85 bd 5a 58 a9 bd 36 5d db bc 08 82 ae 3c
       -0.065127775 -0.08268805 -0.026777845 0.021302238
000220 84 5e 2b 3d 1f 48 03 bd 95 fb d3 3d b2 d9 f0 bd
       0.041838184 -0.032051202 0.1035072 -0.11760272
000230 a9 63 1a 3d e8 b6 66 3d d9 96 cf bd 35 f6 3b bd
       0.0376927 0.056326777 -0.10136194 -0.0458891
000240 8f 90 4b bb 33 44 52 3d 7f 96 c5 3d 16 1b 66 bd
       -0.0031061505 0.05133457 0.096478455 -0.056178175
000250 20 d2 e9 3d 83 33 cf bd eb 63 49 3d 52 e5 a0 bd
       0.11417031 -0.10117247 0.049167555 -0.078562394
000260 b6 b1 17 3d ae 51 66 bd c3 41 3a bd 32 31 d6 bd
       0.037034713 -0.05623024 -0.04547287 -0.10458602
000270 b9 5e c4 3d a2 7c 44 3d 46 e7 c1 3d 4f 80 cb bd
       0.095883794 0.04797042 0.0946794 -0.09936582
000280 bf 8a 8d bd 50 d7 66 3d d7 d4 a6 3d 83 31 8d bd
       -0.06911229 0.05635768 0.08146065 -0.06894209
000290 f8 56 cc 3d d0 76 f0 3b 8c 63 1e bd 85 13 d5 3c
       0.099775255 0.0073383823 -0.038669154 0.026010284
0002a0 da 82 77 bd 5a 0e bd 3d 91 ec 31 bd d1 d0 29 3d
       -0.060427524 0.09231253 -0.043438498 0.04145891
0002b0 03 22 1b bd 01 55 c4 3c 05 8d 7c 3d e7 c3 c2 bd
       -0.037874233 0.023966314 0.061657924 -0.09510022
0002c0 0e dd fe bc c5 67 25 bc 51 11 70 3d 9f df 45 3d
       -0.031111266 -0.010095541 0.058610264 0.048308965
0002d0 b2 ac ee bd 24 46 08 3d ca ee d0 3c 42 df cd bd
       -0.11654033 0.033270016 0.025504488 -0.10052349
0002e0 bb 4a de bd 67 57 aa 3c 89 d6 f3 bd 59 fa 52 bd
       -0.108540975 0.02079363 -0.11906154 -0.05150828
0002f0 f7 e9 87 3d 60 3f 8a bd 46 36 70 3d 83 e2 b7 3d
       0.06636422 -0.06750369 0.05864551 0.089787506
000300 73 d6 47 bc ae be a5 3d 0a 48 96 3d da fd 1d bd
       -0.012197125 0.0809301 0.07337959 -0.03857217
000310 4d b5 b0 bb f6 be d0 bd 41 c9 a7 3d 15 b6 a0 3d
       -0.0053927065 -0.10192673 0.08192683 0.078472294
000320 43 51 dd bc 02 dc b9 3c 73 6b c0 3d a5 5f 85 3d
       -0.027016288 0.022687916 0.09395494 0.06512383
000330 17 0c aa 3d 3b bb 98 3d 87 04 86 bd a0 27 dd bc
       0.08303087 0.074575864 -0.06543832 -0.026996434
000340 af 06 5b bc 7b ed 72 bc 3e 30 a9 3c b7 24 47 bd
       -0.013368293 -0.014827128 0.020652886 -0.048619
000350 15 18 92 3d e2 df 04 bd 6c e5 95 3d 96 8b 2c bd
       0.071334995 -0.032440074 0.073191494 -0.042125307
000360 7e 7b a9 3d 1b 21 d8 bd 79 f3 80 bd b3 10 52 3d
       0.082755074 -0.10553189 -0.06296439 0.051285457
000370 7e 0c b6 3b 95 75 b8 bd 9f fa ee bb 59 13 80 3d
       0.0055556884 -0.09006802 -0.00729306 0.0625369
000380 37 15 21 3c 1d aa a7 bd f1 6d 22 3d 28 0b 05 3d
       0.009831718 -0.081867434 0.03965563 0.032481343
000390 0b 78 ed b9 a9 89 be bd 1e aa 65 bd 1b f2 b2 3d
       -0.00045293602 -0.093036 -0.05607044 0.08737584
0003a0 71 78 3f bc d8 8f a6 3c c0 16 af bd 7c 63 96 bd
       -0.01168643 0.020332262 -0.08549261 -0.07343194
0003b0 ee dc a1 3b d0 7e 56 bc 17 3b de bd 9a f9 8e 3d
       0.004939667 -0.013091758 -0.10851114 0.069812015
0003c0 51 de 7f 3d a4 65 5a bd 6e 9b e6 bd 4f 2c f2 bd
       0.062467877 -0.05331959 -0.112601146 -0.118248574
0003d0 2c 68 2f 3b e4 57 2d 3c 1c ab 9a bd 0e 79 04 bd
       0.0026764972 0.010580037 -0.07552168 -0.03234201
0003e0 b2 bb 6c 3d 28 b6 b1 3d f6 6b 45 bd b8 03 7f bd
       0.057796188 0.08677322 -0.048198663 -0.062259406
0003f0 35 d6 e7 3d 5e 44 87 bd 25 9c 3b 3d 7d a7 a8 bc
       0.113201536 -0.06604837 0.045803208 -0.020587677

network.1.weight f4 [512]
000000 33 98 7e 3f 27 36 7d 3f ca f0 7f 3f 59 fb 80 3f
       0.9945099 0.98910755 0.9997679 1.0076705
000010 b9 ad 80 3f a4 e2 7c 3f 02 76 7b 3f e8 b2 7b 3f
       1.0053016 0.98783326 0.9822694 0.98319864
000020 fb 8a 7b 3f ca 81 80 3f cd 76 80 3f 76 2a 81 3f
       0.9825894 1.0039608 1.0036255 1.0091083
000030 6e d6 80 3f 83 62 80 3f 86 f9 82 3f ac 40 80 3f
       1.0065439 1.0030063 1.0232399 1.0019736
000040 51 49 82 3f ad d1 7f 3f b5 21 7f 3f f5 ba 80 3f
       1.0178624 0.99929315 0.9966081 1.0057055
000050 d3 92 81 3f 67 2d 80 3f 20 3e 7d 3f 7d 4c 7f 3f
       1.0122932 1.0013856 0.9892292 0.99726087
000060 c8 da 80 3f 96 36 81 3f 60 3f 82 3f 83 13 7c 3f
       1.0066767 1.0094783 1.017559 0.9846727
000070 d1 52 7d 3f 74 02 81 3f 77 cf 7e 3f db ab 79 3f
       0.9895449 1.0078874 0.99535316 0.97527856
000080 8e e2 80 3f 31 ac 82 3f 84 6d 82 3f 1b 3e 81 3f
       1.0069139 1.0208799 1.0189672 1.0097078
000090 48 7a 7d 3f 1d be 7c 3f d6 c6 80 3f 52 d4 7d 3f
       0.9901471 0.9872759 1.006068 0.991521
0000a0 1e 38 80 3f 17 0f 80 3f 9f 3d 7f 3f 9e 02 80 3f
       1.0017126 1.0004605 0.997034 1.0000799
0000b0 eb 30 81 3f 63 54 7a 3f 14 b0 81 3f 05 ef 7d 3f
       1.0093054 0.97785014 1.013186 0.9919284
0000c0 ea 37 7e 3f 2a cf 7d 3f db 49 80 3f b9 44 7e 3f
       0.9930407 0.9914423 1.0022539 0.9932361
0000d0 37 4c 7e 3f b1 c1 7c 3f ac cb 7e 3f 8c 7e 81 3f
       0.99335045 0.9873305 0.9952953 1.0116744
0000e0 fb 60 7e 3f e6 4c 80 3f f6 52 7d 3f 49 8a 7f 3f
       0.9936673 1.0023468 0.98954713 0.9982038
0000f0 b5 a7 7e 3f 75 9c 7d 3f bd f6 7c 3f e1 d3 81 3f
       0.9947465 0.9906686 0.9881399 1.0142785
000100 4d 56 7d 3f 45 b8 7d 3f 4a de 82 3f 3f f6 81 3f
       0.9895981 0.991093 1.0224087 1.0153273
000110 3c 47 82 3f c8 dd 7f 3f ea f8 80 3f a5 d3 7d 3f
       1.0177989 0.99947786 1.0075963 0.9915107
000120 bc af 7e 3f ce ea 7d 3f c3 a9 7e 3f 9e b1 80 3f
       0.994869 0.9918641 0.99477786 1.0054204
000130 af f8 7f 3f e6 47 80 3f a1 d4 7d 3f e2 df 80 3f
       0.99988836 1.0021942 0.9915257 1.0068324
000140 66 c1 7b 3f 8a 2b 80 3f e8 e5 80 3f f6 9d 80 3f
       0.9834198 1.0013287 1.0070162 1.0048206
000150 f8 46 81 3f d2 47 80 3f 11 9c 7e 3f 17 cc 81 3f
       1.0099783 1.0021918 0.9945689 1.0140408
000160 2b e0 80 3f 2c 90 80 3f a0 3c 7d 3f 35 f8 7e 3f
       1.0068411 1.0043998 0.9892063 0.99597484
000170 dd 60 7f 3f 7e 57 7d 3f c4 60 7e 3f 7b b5 7e 3f
       0.99757177 0.9896163 0.993664 0.9949567
000180 99 9b 80 3f 3a 87 7f 3f 54 d4 7f 3f 1e 23 7e 3f
       1.0047485 0.99815714 0.9993336 0.99272335
000190 73 54 7b 3f 9a e2 7d 3f ee b8 80 3f ae 29 82 3f
       0.98175734 0.9917389 1.0056436 1.016897
0001a0 89 0a 80 3f 93 a1 7e 3f 82 a9 7d 3f 93 90 82 3f
       1.0003215 0.9946529 0.99086773 1.020037
0001b0 33 b6 7f 3f 42 0e 82 3f a5 9b 7e 3f ee df 7b 3f
       0.9988739 1.0160601 0.99456245 0.98388565
0001c0 45 60 7b 3f 3c b7 7f 3f df 1b 7c 3f 98 c1 7f 3f
       0.9819377 0.9988897 0.9848003 0.99904776
0001d0 25 fd 7c 3f cb 14 81 3f 21 76 7e 3f c2 2f 7b 3f
       0.9882377 1.008447 0.99399 0.9811975
0001e0 61 73 7e 3f eb 12 7f 3f 8b a0 7e 3f a7 5a 7f 3f
       0.99394804 0.9963824 0.9946372 0.997477
0001f0 07 af 81 3f 2a 1e 83 3f 81 9c 7b 3f 74 f0 7f 3f
       1.0131539 1.024358 0.9828568 0.9997628
000200 a0 41 7d 3f 13 d7 7d 3f 84 39 80 3f 64 0e 7c 3f
       0.9892826 0.991563 1.0017552 0.9845946
000210 55 2f 82 3f da fd 80 3f 75 0e 80 3f 10 4a 7e 3f
       1.0170695 1.0077469 1.0004412 0.9933176
000220 e8 cc 7b 3f e3 5b 80 3f 72 39 7f 3f 38 ee 80 3f
       0.9835954 1.0028042 0.9969703 1.0072699
000230 99 e6 80 3f 82 c3 7c 3f f5 a8 7f 3f 9a 89 7d 3f
       1.0070373 0.9873582 0.9986718 0.9903809
000240 8f 72 81 3f 4c 66 7f 3f cf 8d 7e 3f 64 0d 81 3f
       1.0113086 0.9976547 0.9943513 1.0082211
000250 14 c6 7d 3f 93 cd 7d 3f f9 53 7c 3f 7b 63 7d 3f
       0.9913037 0.99141806 0.9856563 0.9897992
000260 e9 18 7e 3f 68 8a 80 3f f1 c5 81 3f 6c f3 7f 3f
       0.9925676 1.0042238 1.0138532 0.9998081
000270 35 65 81 3f 16 90 80 3f a9 89 7e 3f 21 34 80 3f
       1.0109011 1.0043972 0.994288 1.0015908
000280 45 10 7c 3f 88 5b 80 3f 8b 77 7f 3f f7 12 81 3f
       0.98462325 1.0027933 0.99791783 1.0083913
000290 a4 1d 7f 3f 5c 64 80 3f 65 98 82 3f 5e d3 81 3f
       0.99654603 1.0030627 1.0202757 1.0142629
0002a0 5f 40 7f 3f f3 e4 80 3f 2f e2 80 3f 1e 3b 7e 3f
       0.997076 1.006987 1.0069026 0.99308956
0002b0 f6 28 7b 3f 9b 19 81 3f 9f 97 7d 3f 71 8c 80 3f
       0.98109376 1.0085939 0.9905948 1.0042859
0002c0 c4 49 7f 3f 20 45 80 3f d3 03 81 3f 58 6f 7e 3f
       0.9972193 1.0021095 1.0079292 0.9938865
0002d0 82 b9 81 3f 8e 04 82 3f f0 59 81 3f 44 8c 7d 3f
       1.0134737 1.015764 1.0105572 0.99042153
0002e0 4c 7b 80 3f e9 89 7d 3f 43 86 81 3f 8f ee 7b 3f
       1.0037627 0.9903856 1.0119098 0.98410887
0002f0 5f 99 80 3f 6d 89 80 3f 69 e2 7c 3f aa 13 7c 3f
       1.0046805 1.0041939 0.98782974 0.98467505
000300 ea 35 7f 3f af 7c 7e 3f d9 4f 82 3f 70 91 7d 3f
       0.9969164 0.99409 1.0180618 0.99050045
000310 e7 d8 81 3f e8 19 83 3f 58 c0 80 3f bf 79 80 3f
       1.0144318 1.0242281 1.0058699 1.0037154
000320 ba 97 80 3f df d9 7e 3f 5f 8f 80 3f e4 1b 7f 3f
       1.0046303 0.99551195 1.0043753 0.9965193
000330 a1 a8 7f 3f 3b f9 7f 3f ce c7 7b 3f 21 69 7f 3f
       0.9986668 0.9998967 0.9835175 0.9976979
000340 85 90 80 3f 8b 13 7f 3f a5 45 7f 3f ab 5b 7a 3f
       1.0044104 0.99639195 0.99715644 0.97796124
000350 26 3d 7e 3f d4 4c 80 3f 09 66 7d 3f 75 67 7f 3f
       0.99312055 1.0023446 0.9898382 0.9976724
000360 4f 7c 82 3f 0a e5 80 3f 8f f6 7e 3f 2f 1f 80 3f
       1.0194186 1.0069897 0.9959497 1.0009516
000370 1a f5 7f 3f 11 5d 7d 3f 67 83 81 3f 03 84 7f 3f
       0.9998337 0.98970133 1.0118226 0.9981081
000380 f3 0f 7e 3f d7 ca 7d 3f c9 64 81 3f 3d 6d 80 3f
       0.99243087 0.99137634 1.0108882 1.0033337
000390 5f 37 7d 3f 0c 26 82 3f ad 78 81 3f f5 6a 7c 3f
       0.98912615 1.0167861 1.0114952 0.98600703
0003a0 55 9c 80 3f 1f b1 81 3f 8b 87 83 3f 2f 4d 83 3f
       1.0047709 1.0132178 1.027574 1.025793
0003b0 48 01 81 3f c7 90 7b 3f cf 57 81 3f 2d 27 7e 3f
       1.0078516 0.9826779 1.0104922 0.9927853
0003c0 04 a0 7c 3f 1b d3 7e 3f b8 c1 80 3f 71 f5 80 3f
       0.98681664 0.9954087 1.0059118 1.0074903
0003d0 5d 34 80 3f ec d0 7f 3f 81 22 80 3f 07 72 7f 3f
       1.001598 0.99928164 1.001053 0.99783367
0003e0 ea 7f 80 3f 4d f3 7d 3f 1b 55 7d 3f d8 28 7f 3f
       1.0039036 0.9919937 0.98957986 0.996717
0003f0 6e 36 80 3f bd 76 80 3f cc 30 80 3f 78 36 81 3f
       1.0016611 1.0036236 1.0014892 1.0094748

network.1.bias f4 [512]
000000 74 85 d6 3b 1a fb 51 ba 2a e1 03 3c 20 d9 58 bb
       0.0065466706 -0.00080101343 0.008049289 -0.00330884
000010 01 08 78 bb e5 d8 9e 3b a5 7d 86 bc c6 c3 f2 ba
       -0.0037846568 0.004847633 -0.016417334 -0.001852148
000020 91 fc 4c bc c9 b0 a5 bb 32 28 0a bc b2 ca 04 3c
       -0.012511388 -0.005056475 -0.008432435 0.008104967
000030 50 5a 95 bb 18 70 1b bc b6 53 61 bc 77 a3 e5 3b
       -0.004557885 -0.009487174 -0.013752868 0.007008012
000040 8f 40 64 3c dd 34 7f bc 4f f1 ca bc 21 e8 0d 3c
       0.013931408 -0.015576568 -0.024773268 0.008661301
000050 b5 bf c6 3a 9c e0 e9 38 63 0e 88 bb b7 69 61 bc
       0.0015163334 0.000111521425 -0.0041521057 -0.013758115
000060 cc 7a 2f 3c 57 e4 d4 bb 9f 77 05 3c b8 f6 06 bc
       0.010710429 -0.006496947 0.008146196 -0.008237533
000070 b9 1e 97 bc 0d 12 e0 ba ce 61 bf bb 37 02 c9 bc
       -0.018447267 -0.0017095223 -0.0058405166 -0.024537189
000080 c4 38 72 3c 0b 37 8c 3c db cd db b9 8a 83 0c bc
       0.014784042 0.01711609 -0.0004192431 -0.008576283
000090 f4 76 af bc ae ae 41 bc f5 73 45 bb 79 95 0c 3c
       -0.021419026 -0.011821432 -0.003012893 0.008580559
0000a0 a2 7e 2a 3b da 30 a1 bb b1 4f af bc 3a 25 b6 bb
       0.002601542 -0.0049191536 -0.021400305 -0.005558637
0000b0 66 31 fc bb 5a 69 ec bb 7e 47 9b 3b e6 a5 22 bc
       -0.0076963184 -0.0072147073 0.004738747 -0.009927249
0000c0 c0 e8 13 3b 0c 39 40 bc 29 27 a4 3b ec ae 00 bc
       0.002256915 -0.011732351 0.005009551 -0.007854205
0000d0 1c 69 42 bc 1d 7c d0 bc b2 4d 58 bc fa 28 1b bc
       -0.01186588 -0.025449807 -0.013202118 -0.009470219
0000e0 40 3e e1 bb 05 29 ea bb b9 ea 57 bc 38 7b 0a bb
       -0.006873876 -0.007146003 -0.013178521 -0.0021130573
0000f0 81 ef bb bb e7 ff a6 bc 45 4e 78 3a 35 4f 6a bc
       -0.005735338 -0.020385696 0.0009472112 -0.014301111
000100 98 7e 50 3a d0 16 8d 3b 8a 21 2c 3c 12 12 08 ba
       0.0007953434 0.004305698 0.010506043 -0.0005190681
000110 05 75 9c 3c 22 29 2d 3c de bf bf 3c 42 dd 78 bb
       0.019098768 0.010568889 0.02340692 -0.0037973677
000120 91 e4 79 3b 14 eb 15 bc 9c 9b fa 39 f9 55 7a bc
       0.003813062 -0.009150285 0.00047799654 -0.015279287
000130 15 30 5b bc 16 b8 db 3b 0b a6 a8 bc ae b5 b2 bc
       -0.013378163 0.0067052944 -0.020586988 -0.021815147
000140 41 cf c3 3a 67 02 dd bc 5f 75 17 3c c4 3b c1 bb
       0.0014939086 -0.026978685 0.009244292 -0.005897017
000150 f2 ff 7e 3b 01 3b 93 bb 4f 25 5b 3a f9 09 8d bc
       0.003890988 -0.004493118 0.00083597464 -0.01721667
000160 30 93 a5 3a 04 92 63 bb 4a d3 8e ba ca bf e0 bc
       0.0012632366 -0.0034724483 -0.0010896709 -0.027435202
000170 14 91 34 ba 04 3c e7 39 cd c6 52 bc 42 0c 0b bc
       -0.00068880734 0.00044104469 -0.012864781 -0.008486809
000180 eb 50 ae bc 2d 2c 4a bc 96 04 71 3c 81 6c 3b bc
       -0.02127882 -0.012339634 0.014710566 -0.011439444
000190 b0 77 7a bc e7 72 2b bc 94 81 a7 bb de 67 1c bb
       -0.015287325 -0.010464407 -0.0051118825 -0.002386562
0001a0 db 79 3f 3c 94 94 39 bc 1c 78 e2 ba b4 a6 8b 3c
       0.011686767 -0.011326928 -0.0017278227 0.017047264
0001b0 f4 a3 12 bb 69 06 25 bc 6b c4 98 bb 51 2e a5 3a
       -0.0022375556 -0.010072329 -0.0046620867 0.0012602304
0001c0 07 d2 b2 bc 5e 3b 89 bb d6 89 88 bc 66 23 39 39
       -0.021828664 -0.0041879853 -0.016667288 0.00017656162
0001d0 43 0c 81 bc 74 3d 05 3a ac 67 46 bc c8 2b 1d ba
       -0.015752917 0.00050827046 -0.012109678 -0.00059955986
0001e0 04 77 98 bc ac cf 0f bc 25 b3 ab bb b3 a4 c4 3b
       -0.018611439 -0.00877754 -0.0052398616 0.006001079
0001f0 81 2d 0f bd b6 12 1e 3c c4 95 79 bc dd 93 1c 39
       -0.034955505 0.009648016 -0.015233461 0.00014932403
000200 79 0a d1 bc f8 29 00 bc 2c a0 54 bc b8 92 60 bc
       -0.025517689 -0.007822506 -0.012977641 -0.0137068555
000210 d4 85 87 bc a3 1e 07 bb 76 b3 a6 39 91 f7 96 bc
       -0.016543306 -0.0020617626 0.00031795696 -0.018428596
000220 fb b3 81 bc 5c 04 84 bb d4 a4 f4 bc 8c 47 ee 3b
       -0.015832892 -0.00402884 -0.029863752 0.0072717126
000230 61 30 d3 3b 96 a7 9b bc 86 bd bb bc 97 eb 2e bb
       0.006444976 -0.01900081 -0.02291752 -0.0026690715
000240 03 01 21 bb f5 22 0c 3b cc 3c 98 3c f0 00 30 3c
       -0.0024567253 0.002138314 0.018583678 0.010742411
000250 91 26 ad bc 4c fe e3 bc 28 82 cb bc bc c4 ab 3b
       -0.021136554 -0.02783122 -0.024842337 0.0052419584
000260 f0 b4 65 bc 89 45 18 3c 10 41 41 3c 41 71 89 bc
       -0.01402019 0.009293922 0.011795297 -0.016777636
000270 17 4c 15 3c 06 ec 11 3c 9a 72 70 bb 56 b2 ce bb
       0.0091123795 0.00890637 -0.0036689402 -0.0063078804
000280 b4 d1 ab bc 11 a0 e3 bb cc 4e f4 3b 64 51 f0 bb
       -0.020974018 -0.0069465716 0.0074556824 -0.0073339213
000290 a2 3c fc bb e2 5f ef 3b d0 47 7a bc ad 67 01 bc
       -0.0076976577 0.0073051313 -0.0152759105 -0.007898253
0002a0 ce ae 2b 3c 03 e2 67 3a 98 aa 44 bc 2d f9 72 bc
       0.010478688 0.0008845629 -0.012003563 -0.014829916
0002b0 95 d4 ae bb 88 64 a8 ba 0b d0 5b bc 2f 58 b1 bb
       -0.0053354003 -0.0012847343 -0.0134163005 -0.0054121236
0002c0 cb d0 76 bb b0 94 3a bc 8c 00 58 bc cf e7 66 bb
       -0.0037661071 -0.011387989 -0.013183724 -0.0035233384
0002d0 fd 4b bf 3b 48 0c 0e bc 00 6b c6 bc 62 37 e9 bc
       0.005837916 -0.00866992 -0.024220943 -0.028468791
0002e0 95 4a ce bb 29 22 dd bc 8e 53 ce 3b 78 df 2b bc
       -0.006295512 -0.026993828 0.0062965816 -0.010490291
0002f0 37 dd ab bb cb db b8 3a 6f 01 2d bc 27 86 90 bb
       -0.0052448767 0.0014103589 -0.010559424 -0.0044105235
000300 ee 17 90 bc 67 64 b3 bb 4b dd 88 bc 0f a1 d5 bb
       -0.017589536 -0.0054746154 -0.016707083 -0.006519444
000310 a0 0f 6d 3b d9 0c 1d 3b c4 64 34 bc 6e c2 85 bc
       0.0036172643 0.0023963957 -0.0110103525 -0.016328063
000320 a5 7b 59 bc ba a2 10 bc af 3c 83 bc 98 da 42 3c
       -0.013274108 -0.00882786 -0.016020147 0.011892937
000330 a7 2f df 3b 65 bc d2 bc 22 ca 78 bb de 1d 79 bb
       0.0068111005 -0.0257246 -0.0037962277 -0.0038012187
000340 0e db d9 3b 0c 33 ac 3c f9 7f 3d bc 49 26 eb bc
       0.006648428 0.021020435 -0.011566156 -0.02870478
000350 67 69 43 bb 3b 12 61 ba 7b 99 b9 bc c5 ef e4 bb
       -0.0029817463 -0.00085857854 -0.022656193 -0.0069865906
000360 8d 02 f8 bc f6 eb 06 bb 73 ee 77 bc 3b e8 0c bc
       -0.030274654 -0.002058742 -0.015132534 -0.00860029
000370 9c a9 ff 3a 6d ac 2f bb 84 d3 a5 3c 5d af a3 bc
       0.0019505504 -0.0026805655 0.02024246 -0.01998108
000380 ab 85 6a bc b2 08 92 bb a7 7b 90 3c 88 c6 9a ba
       -0.0143140955 -0.004456603 0.017637087 -0.0011808435
000390 ce a4 e5 bc 47 7a 1f 3c 02 51 57 bc 84 4f 67 bb
       -0.028032687 0.009733743 -0.013141872 -0.0035295198
0003a0 df 04 5d bc 7c d9 88 bc 19 4f 70 b9 13 99 69 bc
       -0.013489931 -0.016705267 -0.0002291765 -0.014257687
0003b0 77 3a 1b bc e7 81 ad bb 32 b4 0d bb 3d 86 c7 bb
       -0.009474388 -0.0052950266 -0.0021622297 -0.0060890005
0003c0 3e 52 82 bc 35 28 02 bd b0 7f 2d 3a 13 19 02 bd
       -0.015908357 -0.031776626 0.0006618453 -0.031762194
0003d0 44 65 8f 3c f4 19 46 bc 20 cf 7c bc 44 db ad bc
       0.017504342 -0.012091149 -0.015430242 -0.021222718
0003e0 eb 8d 30 bc dc 26 8f bc 2b 6b 59 bc 7b 2e a4 bc
       -0.010776023 -0.017474584 -0.01327018 -0.020041695
0003f0 3e 71 61 3c 13 d1 df ba 61 6f db bb 14 40 4b bc
       0.013759909 -0.0017075859 -0.006696627 -0.012405414

network.1.running_mean f4 [512]
000000 5e 2e f8 3d 34 36 35 be b3 15 05 bd 0e d1 1b bd
       0.12118219 -0.17696458 -0.032491397 -0.038041167
000010 75 d0 a8 bd 27 15 a4 3c de a7 6d 3d 62 2b 09 be
       -0.08242885 0.020029617 0.05802142 -0.13395455
000020 5d e7 12 be 77 fd de 3c b1 38 a1 3d dc 49 17 3e
       -0.1434607 0.02722047 0.07872141 0.14774269
000030 e6 d6 20 bc 9f 3f 35 bd 75 9b 27 bd 7c 06 e4 bc
       -0.009816861 -0.044250127 -0.04091974 -0.027835123
000040 05 07 43 3d 8b ee b9 bd 31 0b ee 3b ab d4 03 3e
       0.047614116 -0.090787016 0.0072645177 0.12874095
000050 06 61 ea bd 38 96 67 3d 2c 4c 1b bd cd 76 17 bc
       -0.11444287 0.056539744 -0.03791444 -0.009244633
000060 9e 13 b2 bc b5 08 ed 3d 6a a5 11 3e 42 89 f1 3d
       -0.02173787 0.11573926 0.14223257 0.11793758
000070 ca 5c c0 bc de a6 94 bd 32 5a be 3c 98 51 32 3e
       -0.023481745 -0.0725839 0.023236368 0.17413938
000080 78 ba 8e be 84 c9 1f be 16 83 32 be b6 d4 26 bd
       -0.2787664 -0.15604216 -0.17432818 -0.0407302
000090 63 db 06 bd 40 fa c1 bd 9c 3b a9 bd 64 01 b6 bd
       -0.032924067 -0.094715595 -0.08263323 -0.08886984
0000a0 2e d4 c0 bd f2 c5 2b be 31 cd 25 3e 94 d5 0f be
       -0.0941547 -0.16774729 0.16191556 -0.14046317
0000b0 55 08 2e bc 71 cb d0 3d 77 ff e7 bd 67 11 3d bd
       -0.010622104 0.10195053 -0.11328023 -0.046159174
0000c0 8e ed 34 3e 68 0a db bd 4f da 5c bd 77 c6 d9 3d
       0.17668745 -0.10695344 -0.053919133 0.10633557
0000d0 aa 56 67 bd e6 97 e9 bd 8f e4 18 3e 35 3a bf bd
       -0.056479134 -0.114059255 0.14930938 -0.09337274
0000e0 67 51 79 bd 60 ef b8 3d 57 21 7d 3e 66 e4 e5 3d
       -0.060868647 0.09030032 0.2471975 0.11225204
0000f0 c2 52 a5 3a b9 8c 25 3e 6d 4b 55 3d ee e5 74 3d
       0.0012613165 0.16166963 0.052073885 0.05978959
000100 2b 94 39 bd 60 47 35 be bf 41 b9 3d 8f d7 18 be
       -0.04530732 -0.17703009 0.09045743 -0.14925979
000110 ec 28 ee 3c a7 42 06 be cf 29 fc bd 27 b9 05 be
       0.029072247 -0.13111363 -0.12312662 -0.13058911
000120 7e c2 e6 3d 2a 8b e1 3c d4 bd 65 bd 3a 4c ca 3d
       0.11267565 0.027532179 -0.056089237 0.0987782
000130 3e f5 99 bc bc 0f a1 bd ef ab dc 3d 7f b7 09 3e
       -0.018793698 -0.07864329 0.10774981 0.13448904
000140 ac ca e7 3d 64 31 13 be d1 6a 0f bd 2a d1 20 be
       0.113179535 -0.1437431 -0.035013977 -0.1570479
000150 8b 58 2e 3d 35 26 b2 3d 15 7d 31 3c d6 b8 19 3e
       0.04256491 0.08698694 0.010833045 0.15011916
000160 4e f2 26 bd b0 c2 61 3e 01 10 d8 3d 4d 85 8c bc
       -0.040758424 0.22046924 0.105499275 -0.017153407
000170 11 52 33 be 9b ce c0 3c 6e 27 14 3d 8d b7 76 be
       -0.17511775 0.023536017 0.036170416 -0.24093457
000180 3a 5a dc bd 68 dc a7 3c e5 e3 55 3e fd ad d4 3d
       -0.10759397 0.02049084 0.20887716 0.10384748
000190 8f 6c 3f be 49 55 71 bc 32 c6 3d 3e 21 9a ba bd
       -0.18693756 -0.014729806 0.18532637 -0.09111429
0001a0 66 ca d7 3c 8e 40 6f be bb 70 30 3d 78 28 f0 bd
       0.026341628 -0.2336447 0.04307626 -0.11726469
0001b0 c9 f1 86 bd b9 92 5b 3e 7a 8d 40 bc 17 47 66 bd
       -0.065890856 0.21442689 -0.011752481 -0.05622014
0001c0 e2 36 77 bd b4 85 a9 3d 00 95 88 3d 80 d2 16 3e
       -0.060355075 0.08277455 0.066690445 0.14728737
0001d0 0c 85 fc bd 73 19 70 bd 35 e4 27 be 51 62 28 be
       -0.12330064 -0.05861802 -0.16395648 -0.16443755
0001e0 e8 26 16 3c b5 23 15 3d 83 76 cf 3d c2 9f eb bd
       0.009164549 0.036411006 0.10130026 -0.11505081
0001f0 4c b5 54 3e cc 79 d6 3c 65 8a 53 bd 9e f2 d1 bd
       0.20772284 0.026181124 -0.051645655 -0.10251354
000200 06 c8 cf bd 7e 45 a1 bd cc f6 be bd a8 e6 1f 3e
       -0.10145573 -0.07874583 -0.093244165 0.15615332
000210 f8 73 88 bb 31 eb c0 bd 90 a2 ba bd e3 2c 1b 3d
       -0.004164215 -0.09419859 -0.091130376 0.037884604
000220 97 74 05 3d b2 96 60 be e3 db 15 3e 15 16 ef 3c
       0.032581892 -0.21932486 0.14634661 0.029185334
000230 9d f8 9b bd 0b d1 30 3d 76 64 4d be 30 65 79 bd
       -0.076157786 0.04316811 -0.20057854 -0.060887516
000240 aa c6 dc bc 98 43 30 be b9 46 3b 3e a7 e9 2a be
       -0.0269502 -0.17213285 0.18288697 -0.16690694
000250 8b 24 d0 3d 50 d0 f2 bd 8d 92 f8 3d 97 2f 36 be
       0.1016322 -0.11856139 0.12137327 -0.17791592
000260 b0 6f 1c bd 69 4c d1 bd b3 15 26 be d8 dd 1d be
       -0.03819245 -0.10219652 -0.16219215 -0.15416658
000270 73 84 e3 3b 35 c3 d0 3d a0 f5 0a 3e b3 55 34 be
       0.0069432794 0.10193483 0.13570261 -0.17610817
000280 1c c1 ad 3d 88 b1 63 bc 1f fa 84 3d d3 02 17 be
       0.08484098 -0.013897307 0.06493019 -0.14747171
000290 58 1b f1 3d 28 91 4c 3d 6c db 42 be ac b0 a6 3c
       0.117727935 0.04994312 -0.19029015 0.020347916
0002a0 2c cb 33 bc 33 b5 a1 3d ad b6 90 bc 57 fe 38 bd
       -0.010973733 0.07895889 -0.017665232 -0.045164432
0002b0 23 d5 47 bd 7e d6 10 be a7 97 aa 3d 03 90 a1 bd
       -0.048787247 -0.14144322 0.08329707 -0.07888796
0002c0 3b 1c 3e bd 74 f3 ab bd 18 eb 38 3e 03 28 0e bd
       -0.04641364 -0.083960444 0.18058431 -0.034706127
0002d0 e4 c2 0d be ba d0 21 3d b5 f7 90 bb 8b 53 9e bd
       -0.13843876 0.039505698 -0.00442406 -0.07730778
0002e0 f8 f3 49 3d 69 eb 9b 3d 91 34 56 be a9 11 1f be
       0.049304932 0.0761326 -0.2091849 -0.1553408
0002f0 32 ac 84 3d 80 ea 9b bd da 1d f5 3d 79 3c 3e 3e
       0.06478156 -0.07613087 0.11968584 0.18577756
000300 6c d3 5b bc af d0 48 3e 1c 97 43 3d b7 83 a4 bd
       -0.013417106 0.19610856 0.04775153 -0.08032935
000310 ef 2e d7 bd ee 51 cb bd 43 ce 2f bd 52 44 a4 bd
       -0.10506999 -0.09927736 -0.042921316 -0.080208436
000320 72 05 7a bd cf b5 fd bc 64 bf 01 3d a9 cb 6a 3d
       -0.06104035 -0.030970482 0.031676665 0.05732313
000330 51 99 b2 3d a5 18 48 3c 18 df 95 bd 98 17 ae bc
       0.08720649 0.012212907 -0.073179424 -0.021251485
000340 03 c9 5b bc 8c 35 fb bc d8 22 4f bd bc d6 46 bd
       -0.013414624 -0.030665182 -0.05057034 -0.04854463
000350 a4 5a 49 3e a3 35 e2 bb c9 56 eb 3d f4 b0 f0 bd
       0.19663483 -0.0069033667 0.11491162 -0.11752501
000360 14 79 14 3e 0b 0a b9 bd 8e 1c cb bc 70 61 fc ba
       0.14499313 -0.09035119 -0.02479389 -0.0019255113
000370 64 b9 98 bd f3 88 43 be ef ba 75 bd 57 74 2a 3e
       -0.074572355 -0.1909521 -0.059992727 0.16645943
000380 e8 67 11 be d8 5b 31 bd 4c 00 35 ba b2 95 23 bc
       -0.14199793 -0.04330048 -0.0006904646 -0.009984421
000390 c6 29 68 bb dc 37 1d bd 65 1e a9 bd 8c 33 ad 3d
       -0.003542529 -0.03838335 -0.082577504 0.084570974
0003a0 2f a7 25 be 62 c6 55 3e 3b f2 38 bd 9d 50 04 be
       -0.16177057 0.20876458 -0.045152884 -0.12921377
0003b0 b0 32 ad bd b9 c3 13 3e 1b f8 54 bd 0b aa 31 3e
       -0.084569335 0.14430131 -0.051994424 0.17350022
0003c0 b5 7d 08 be ae ec 58 bc 46 ce 27 3d 6d ee b4 bd
       -0.13329203 -0.013240023 0.040968202 -0.088345386
0003d0 c2 ea d3 3c 7b 78 be 3d 35 98 02 be 06 b2 ed bd
       0.025868777 0.093003236 -0.12753375 -0.11606221
0003e0 f0 ad 98 3d eb 01 e2 3d 6c b6 b5 3d 94 fd ae bc
       0.07455051 0.11035522 0.08872685 -0.02136115
0003f0 a1 51 e8 3d 97 17 5d bd d0 99 b7 bc 84 e7 db 3c
       0.113436945 -0.053977575 -0.02241221 0.026843794

network.1.running_var f4 [512]
000000 7d 0d 5a 3e fb eb 79 3e e4 d6 b4 3e 44 4d ae 3e
       0.21294208 0.24406426 0.353202 0.34043324
000010 3e 0f a2 3e 18 99 be 3e 79 29 68 3e 9d 98 a0 3e
       0.31652254 0.37226176 0.2267207 0.31366435
000020 6c 3d 8c 3e 3a e4 79 3e b7 23 a9 3e 42 04 8b 3e
       0.2739061 0.24403468 0.3303506 0.27151686
000030 1d 1e 82 3e 86 cc a2 3e 35 ad 61 3e 97 73 29 3e
       0.254136 0.31796664 0.2203873 0.16548
000040 f5 86 6b 3e 6b 30 73 3e 9f 49 74 3e ef 05 5c 3e
       0.23000701 0.23748939 0.23856209 0.21486638
000050 f6 9d 61 3e 86 2d 78 3e bd 42 8f 3e c2 cb 5a 3e
       0.22032914 0.24236116 0.27980605 0.2136679
000060 3e f4 9d 3e 02 b6 be 3e 04 7e 4b 3e 9d 37 5a 3e
       0.30850405 0.37248236 0.1987229 0.21310277
000070 5f 4e 81 3e 71 c8 ad 3e 4f 5a 92 3e d1 aa 5e 3e
       0.25255105 0.33941987 0.28584525 0.21744849
000080 ba 70 ba 3e e8 46 7f 3e c0 c3 a0 3e 18 71 62 3e
       0.3641413 0.24929392 0.31399345 0.22113454
000090 c6 01 88 3e 7f 80 87 3e 6f 8e 65 3e 5a 6e 04 3f
       0.26563853 0.26465222 0.22417615 0.51730883
0000a0 ce a8 c7 3e c2 a4 e2 3e 19 2a 9d 3e d0 c3 69 3e
       0.38995975 0.44266325 0.3069618 0.22828603
0000b0 d0 1f 65 3e 70 5f 90 3e 15 4d ad 3e 7a ac 89 3e
       0.22375417 0.28197813 0.3384787 0.26889402
0000c0 ef 99 d4 3e a5 09 98 3e 1a 5d 7c 3e 62 5e 93 3e
       0.41523692 0.29694858 0.2464489 0.28782946
0000d0 b9 72 67 3e 42 ef 82 3e 4a f1 c0 3e 58 45 83 3e
       0.22602357 0.25573164 0.3768409 0.25638843
0000e0 cc 99 4a 3e 3d 99 92 3e a5 a9 b5 3e f6 cc 94 3e
       0.19785231 0.28632537 0.3548099 0.29062623
0000f0 5e fa 76 3e 5a b1 64 3e 2f 29 87 3e 1b f5 5f 3e
       0.24118945 0.22333279 0.26398608 0.21870844
000100 41 dd 90 3e 3d 1c bc 3e c2 bc 97 3e 78 9a 9d 3e
       0.28293803 0.36740294 0.29636198 0.30781913
000110 36 11 6f 3e bc 9f 85 3e f0 da 87 3e a8 3b 87 3e
       0.23346409 0.2609843 0.26534224 0.26412702
000120 43 bc 59 3e 01 21 ac 3e 07 97 98 3e af 0d b4 3e
       0.21263222 0.3361893 0.29802725 0.3516669
000130 2a bd 49 3e 8c da 0e 3e 21 9c 87 3e 1e 4f 7e 3e
       0.19701067 0.13950557 0.26486304 0.24834868
000140 10 fd 7b 3e 90 3f a3 3e ba a5 83 3e 64 2b b2 3e
       0.24608254 0.31884432 0.25712377 0.3479873
000150 a9 6d ca 3e 13 77 95 3e 18 23 66 3e e2 e8 90 3e
       0.3953679 0.2919241 0.22474325 0.28302675
000160 12 4e 95 3e dc 06 7f 3e cf 56 7d 3e 5d 33 ce 3e
       0.29161125 0.2490496 0.24740146 0.40273562
000170 6f 6a 87 3e 09 9b 8d 3e dc d2 87 3e b4 60 81 3e
       0.2644839 0.27657345 0.2652806 0.2526909
000180 39 8e 0f 3f 59 6a 56 3e 46 73 9e 3e 1a f6 af 3e
       0.5607639 0.20939006 0.30947322 0.34367448
000190 8c ee 7a 3e 96 c9 73 3e 7d ed ce 3e 75 05 78 3e
       0.24505061 0.23807368 0.40415564 0.24220832
0001a0 de 87 5b 3e ae 84 8e 3e 11 a4 94 3e 2a 2d c5 3e
       0.21438548 0.27835602 0.29031423 0.3851102
0001b0 f8 2b 57 3e 4d f0 bc 3e c6 40 7b 3e 06 2f a3 3e
       0.21012866 0.36902085 0.24536428 0.31871814
0001c0 df bf a0 3e 79 94 9b 3e 46 46 68 3e 98 78 a1 3e
       0.31396386 0.30386713 0.22683057 0.31537318
0001d0 bc a7 76 3e e8 57 98 3e b0 41 86 3e 0b 61 8c 3e
       0.24087423 0.29754567 0.2622199 0.27417788
0001e0 74 e5 c7 3e 75 be 82 3e eb fb 6d 3e ac 5a 92 3e
       0.39042246 0.25535932 0.2324063 0.28584802
0001f0 3d 5c 73 3e e4 71 a0 3e fb 3e ca 3e af 36 94 3e
       0.23765655 0.31336892 0.39501175 0.2894797
000200 69 db b8 3e 1a 0e 91 3e 3f af 9c 3e 07 09 68 3e
       0.36104897 0.2833107 0.30602452 0.22659694
000210 1f 80 82 3e a6 47 78 3e 29 9c a0 3e db c7 7b 3e
       0.25488374 0.24246082 0.3136914 0.24587958
000220 6d 74 70 3e d6 71 8a 3e 83 1d a1 3e 2a d5 50 3e
       0.23481913 0.27039975 0.31467828 0.20393816
000230 b8 d8 bd 3e b3 51 53 3e 5d b3 7a 3e 26 02 83 3e
       0.37079406 0.20636635 0.24482484 0.25587577
000240 66 f8 7d 3e a3 92 8e 3e ac c5 c8 3e 8e 53 96 3e
       0.24801788 0.2784625 0.39213312 0.29360622
000250 51 01 92 3e 1c eb 78 3e 8f 7c 90 3e 56 12 ac 3e
       0.2851663 0.24308437 0.2822003 0.3360774
000260 32 c7 91 3e 9d 45 a6 3e 5f 01 86 3e 7b 3a 91 3e
       0.28472286 0.32474986 0.2617292 0.2836493
000270 15 d0 aa 3e 33 0a 75 3e 06 26 a1 3e 83 af 99 3e
       0.3336188 0.23929672 0.31474322 0.30016717
000280 55 15 ab 3e c2 ff a3 3e 6d b1 7c 3e 2c 7a a3 3e
       0.33414713 0.32031065 0.24677058 0.31929147
000290 d1 24 72 3e ea d5 aa 3e 41 22 8d 3e 9b 05 77 3e
       0.23646857 0.33366328 0.27565196 0.24123232
0002a0 dd f8 83 3e a5 04 d6 3e 67 ca a8 3e f1 c1 4f 3e
       0.25775805 0.41800418 0.3296692 0.20288827
0002b0 7c c2 b9 3e dd 44 b3 3e 82 a6 6e 3e bc 6f c8 3e
       0.36281192 0.35013476 0.23305705 0.39147747
0002c0 93 60 9d 3e 6e 97 32 3e 91 e3 90 3e 63 e1 9c 3e
       0.30737743 0.17440578 0.2829862 0.30640706
0002d0 75 dc 8c 3e 33 19 d1 3e 9c 87 a2 3e 65 1e a8 3e
       0.27511945 0.40839538 0.31744087 0.3283569
0002e0 d6 c5 93 3e 8a 92 c8 3e c6 55 a1 3e a1 a5 b4 3e
       0.28861874 0.391743 0.31510752 0.35282615
0002f0 2e 51 68 3e 06 70 74 3e e0 c4 8d 3e 33 9b a1 3e
       0.22687218 0.23870859 0.27689266 0.3156372
000300 76 ad 75 3e a7 80 8e 3e 6a d9 93 3e 85 28 cf 3e
       0.23991951 0.2783253 0.2887681 0.404606
000310 87 e9 64 3e 58 e8 89 3e c9 47 8d 3e 21 04 aa 3e
       0.22354709 0.26935077 0.2759383 0.33206275
000320 72 a7 5c 3e 8b aa 94 3e 84 80 9b 3e 01 cc 9f 3e
       0.2154825 0.29036364 0.30371487 0.3121033
000330 9c ba a5 3e 30 a1 9f 3e b6 c8 d0 3e b9 f1 c2 3e
       0.32368934 0.31177664 0.4077813 0.38075045
000340 59 ff 87 3e b9 a9 92 3e bf 61 67 3e 7e 62 8c 3e
       0.26562002 0.28645113 0.22595881 0.27418894
000350 57 7e 9d 3e 06 91 a3 3e f3 66 b5 3e 6a 44 9e 3e
       0.30760452 0.31946582 0.35430107 0.3091157
000360 74 87 9e 3e ed 59 6d 3e 14 cf 7e 3e d8 88 9f 3e
       0.30962718 0.23178835 0.24883682 0.3115909
000370 d5 5e bd 3e 63 29 6f 3e a3 c9 4c 3e ca 4a 9a 3e
       0.36986414 0.23355632 0.19998793 0.30135185
000380 5e f3 83 3e 2e a1 90 3e 17 e0 95 3e 4f 3f 92 3e
       0.25771612 0.2824797 0.2927253 0.28563926
000390 60 b4 98 3e 44 57 86 3e e1 c6 86 3e ec f1 b9 3e
       0.29825115 0.26238453 0.26323608 0.36317384
0003a0 86 da 61 3e bb 04 96 3e 4e a2 8d 3e 0c 28 ab 3e
       0.22056016 0.29300484 0.2766289 0.3342899
0003b0 95 e8 a7 3e 18 47 90 3e 3c 26 a7 3e 21 b8 7d 3e
       0.32794634 0.2817924 0.32646358 0.24777271
0003c0 e8 9c 06 3f 2e 4c a6 3e a5 f1 89 3e 31 45 40 3e
       0.5258317 0.32479995 0.26942173 0.18776394
0003d0 70 8c ab 3e 46 29 9d 3e b9 05 b6 3e 8f 4b fe 3e
       0.33505583 0.30695552 0.3555124 0.49667022
0003e0 07 63 53 3e 20 44 78 3e 54 86 53 3e 58 e7 55 3e
       0.20643245 0.24244738 0.20656711 0.20889032
0003f0 46 12 7e 3e 40 02 87 3e c3 b3 be 3e 6a 97 67 3e
       0.24811658 0.26368904 0.37246522 0.22616354

network.4.weight f4 [256, 512]
000000 c8 2d 19 3d 4a 0f 40 bc e9 43 42 3c dd 25 d3 bc
       0.037397176 -0.011722395 0.011857011 -0.02577489
000010 63 36 30 bd a8 9c fb bb e7 fb e3 bc ec 12 3e bd
       -0.043020617 -0.007678587 -0.027830077 -0.046404764
000020 8e 9c ac bc 33 8d 07 bd c2 82 74 3c c8 aa 7a 3b
       -0.021070745 -0.033093642 0.014923753 0.0038248766
000030 8c 5a 63 3c 09 83 2d 3d 26 b0 3f bd 42 ec a8 3c
       0.0138765685 0.042361293 -0.046798848 0.020620469
000040 c8 28 99 bc 33 89 56 bc 73 5c b4 3b f2 31 8e 3c
       -0.018696204 -0.013094234 0.005504185 0.0173578
000050 41 2e 51 3c fa 43 46 bd 1c 71 fe 3c 7d 58 a8 bc
       0.012767375 -0.04840467 0.031059794 -0.020550007
000060 dc 42 57 3a 00 31 a6 3c 97 a1 1f bc 98 1d 38 ba
       0.0008211562 0.020287037 -0.009743116 -0.0007023453
000070 e3 31 09 bd 4c b9 db bc 74 7f a9 bc 77 89 3c bc
       -0.03349484 -0.026821755 -0.020690657 -0.011507384
000080 dc 09 a1 3c 4e 1c e6 bc 4a 26 ff 3a 5f 0c f7 bc
       0.019658022 -0.028089669 0.0019466367 -0.030157266
000090 b5 8e d2 bb c9 ed 70 bc f6 ed 32 3d ca 41 9c 3c
       -0.0064257034 -0.01470513 0.04368397 0.01907434
0000a0 fe 4e 23 3c 97 86 dd bc 16 73 1f 3c d8 af 45 bc
       0.009967564 -0.027041717 0.0097320285 -0.01206585
0000b0 fc 86 00 bd a0 cb ac bc b0 e3 c2 3a 16 cc 4e 3c
       -0.03137873 -0.02109319 0.0014868882 0.0126219
0000c0 b0 e7 9c 3c a3 32 a4 3c 74 a1 0e 3b 76 b7 e2 bc
       0.019153446 0.020043677 0.0021763714 -0.027675372
0000d0 39 1e 08 bc c3 11 1b bd 38 5c 75 3c 95 99 a0 3c
       -0.008307987 -0.037858736 0.0149756 0.019604484
0000e0 1b e7 62 bd cb de 4c 3c 5c 52 25 bd 0e a1 18 3d
       -0.05539618 0.01250429 -0.040361747 0.03726297
0000f0 f5 25 50 3b d6 ff 5b 3a f4 7d 26 3d 74 2f 4b 3d
       0.0031760905 0.00083923095 0.040647462 0.0496058
000100 c4 3b d7 bc 72 c5 86 3c 11 ff 3f bb c5 9f 2d bd
       -0.026273616 0.016451571 -0.0029296319 -0.042388696
000110 a8 89 9c bb ba a3 d9 b8 e5 62 77 3c 87 35 22 3b
       -0.004777152 -0.00010377863 0.015099262 0.0024751143
000120 85 46 91 bc 48 a3 27 bc 7d 2f 12 bd b8 ef f3 3a
       -0.017733822 -0.0102318 -0.03568982 0.001861087
000130 02 fb 05 bd d4 d4 2e 3d cc 79 1b bd 5a ff 89 bb
       -0.032710083 0.042683437 -0.03795795 -0.0042113485
000140 2b 30 d2 bc 84 87 f1 3c 9b 24 ae bc 3e fe 62 3c
       -0.025657734 0.029483564 -0.02125769 0.013854561
000150 02 c1 e5 3b a6 09 26 3d 18 57 4a bc a4 61 3d bd
       0.0070115337 0.040536545 -0.012349866 -0.046235695
000160 b9 3f 08 bd 0d 72 ae 3c 92 0b 6f 3c bc 3f d4 3b
       -0.033263896 0.021294618 0.014590161 0.0064773243
000170 54 65 1c bd f5 70 68 bc 1d 25 13 bc 20 1c 14 bd
       -0.03818257 -0.014187087 -0.008981016 -0.036159635
000180 65 bc 16 3d e0 c3 d1 bc 03 de 45 3d 7f 44 86 bc
       0.03680076 -0.025606096 0.04830743 -0.016390083
000190 39 96 c3 3c b7 e0 f1 bb 9c 6a 0e 3a 87 8f df bc
       0.023875343 -0.0073815244 0.0005432756 -0.027290119
0001a0 80 fd 32 3c 99 09 23 3c 57 c7 47 3c b1 a8 1d bd
       0.010924697 0.009951019 0.012193522 -0.038490955
0001b0 7b 11 b5 bc d1 b6 ed bb 67 36 3e 3c 26 f1 09 3c
       -0.022103062 -0.0072544594 0.01160965 0.008419311
0001c0 ce cb 26 bb 1f 54 11 3d 0e a3 20 bc f8 59 81 3c
       -0.0025451067 0.035480615 -0.0098045 0.01578997
0001d0 b6 59 d3 bc 84 f0 c9 3c 58 a4 d6 bc a6 7a 3f 3d
       -0.025799613 0.02465082 -0.026201412 0.046747826
0001e0 be d3 ce 3b 81 20 93 3b 1f d6 d9 bc 81 19 c1 bc
       0.0063118627 0.0044899588 -0.026591359 -0.023571732
0001f0 7a c0 ee bc 07 64 a0 bc 04 73 dd bc 78 7f df bc
       -0.029144514 -0.019578947 -0.027032383 -0.027282462
000200 f9 1f 0d bd eb 28 a4 3b 79 91 4b 3c e0 7d 74 b9
       -0.03445432 0.0050097606 0.01242482 -0.00023316545
000210 69 1b 2f bc 4c 58 6d 3c 02 86 30 bd 7b 9f 41 bc
       -0.010687687 0.014486384 -0.04309655 -0.011817808
000220 8b af 74 bc fd a9 40 bc e8 a4 8c bb be eb 27 3b
       -0.014934431 -0.011759278 -0.0042921193 0.002562269
000230 9a 95 b1 bc 2b 51 8e ba 41 90 1c bc ec 24 92 3c
       -0.02167778 -0.001085793 -0.009555877 0.017839871
000240 a8 b2 8f bc 30 83 9c bc 4f e3 18 bd 07 27 70 bc
       -0.017541245 -0.019105524 -0.037326153 -0.014657742
000250 cd 06 85 3a 03 3e 74 3c fa 25 11 bd 9d 43 39 3d
       0.0010149122 0.014907363 -0.035436608 0.045230497
000260 da 54 6f 3c e1 6e 0d 3d b5 9d 81 3c 36 fe 05 3d
       0.0146076325 0.03452957 0.01582227 0.032713138
000270 30 8e fa 3c f4 46 81 3c 97 81 f7 bb 02 50 82 3c
       0.030585378 0.015780903 -0.00755329 0.015907291
000280 bc 3b c8 3c cf ef e0 bc 04 3c a5 bc 18 98 03 3d
       0.024442546 -0.0274581 -0.02017022 0.03212747
000290 a7 85 b5 bc 14 b0 24 ba 99 b7 19 3a c2 53 37 3d
       -0.022158457 -0.0006282341 0.0005863845 0.044757612
0002a0 d3 ee b7 3c 9b 3e 3f bc ef a7 15 3c 21 d7 80 bc
       0.022452747 -0.011672641 0.009134277 -0.015727581
0002b0 05 d2 b0 bc 6b 2c 04 3c ed 34 d5 bc c5 d2 26 3d
       -0.02158452 0.008067231 -0.026026214 0.04072835
0002c0 e1 1f 04 3c b0 a4 78 bc bd 78 b8 bc 64 4a 29 bd
       0.008064241 -0.015175983 -0.02251851 -0.04133071
0002d0 1c d0 8e 3b d1 a1 4b 3d 87 6b 2f 3d db 27 a4 3b
       0.0043583047 0.049714867 0.042827155 0.005009634
0002e0 77 1f 0f bd c4 05 e2 3a 00 b2 0d 3d c6 56 cf 3c
       -0.034942117 0.001724415 0.034593582 0.025309931
0002f0 2e f6 7d 3c 74 7c df 3c 5f 11 26 bd fb 1e 97 3b
       0.015500588 0.027281024 -0.04054391 0.0046118475
000300 ed de ec bc 53 24 eb 3b 15 00 d3 3c 0f fd 2b 3d
       -0.028914893 0.007175961 0.025756875 0.041989382
000310 c0 d9 aa 3b 5e 92 32 bd 85 69 82 bc 4b d0 80 bc
       0.005213946 -0.043596618 -0.015919456 -0.015724322
000320 66 47 aa 3c 74 b8 dd 3a a5 b5 a0 3c 44 b7 16 bc
       0.020785999 0.0016915933 0.019617865 -0.009198967
000330 72 30 e1 3c ec 57 a4 3b 67 2d 34 bb e4 8b 31 3d
       0.02748892 0.005015364 -0.0027492882 0.0433463
000340 67 69 3d 3d 25 7a f8 3b 87 45 b5 3c 98 3a 0a bd
       0.046243098 0.00758292 0.02212788 -0.033747286
000350 08 00 36 3b 74 d8 20 3c cc f4 0d 3d 9a 82 36 bc
       0.0027771015 0.009817231 0.034657285 -0.011139536
000360 70 81 c1 3c 1b b6 5b 3d 31 46 10 3c 02 74 b2 3c
       0.02362129 0.053640466 0.008805797 0.021783832
000370 86 b4 1d bb 38 4f ba 3c 66 a2 12 3d 0d 56 2a 3d
       -0.00240639 0.022742853 0.035799406 0.04158597
000380 09 8d bd 3c a0 d9 e7 3c 0a 82 b1 3c 63 b3 bb bc
       0.02313854 0.028302014 0.021668453 -0.022912687
000390 01 59 86 bc 24 1c 58 bd c6 38 f3 3c fc 94 f4 bb
       -0.016399862 -0.052761212 0.029690158 -0.0074640494
0003a0 13 7c b8 3c 95 85 09 3d d6 3a 3b bd 60 c8 12 3d
       0.0225201 0.03357466 -0.045710407 0.035835624
0003b0 7d c3 b0 bc 8d 54 33 bc 6b 38 42 bc 55 db 01 3d
       -0.021577591 -0.010945451 -0.011854271 0.031703312
0003c0 cc 8e 44 3c 2b 0e 54 3d fd 9b ba 3c 14 3e e2 b9
       0.011996936 0.051771324 0.02277946 -0.0004315233
0003d0 7c 0e 28 bc 66 cf 3f 3d 50 b6 29 3d c2 81 bc 3c
       -0.01025736 0.04682865 0.041433632 0.023011092
0003e0 a7 f1 25 bd 38 9c 99 bc 13 13 a9 bc 9f 18 1f 3d
       -0.04051366 -0.018751249 -0.020638978 0.03884184
0003f0 bc d9 1c bd e8 a4 07 bd 7f 31 12 bd e4 46 1a 3d
       -0.038293585 -0.03311625 -0.035691734 0.037665263
