wandb/run-20251108_173226-d8hndbjj/files/best_model.pth (torch, 839365 bytes, 9 tensors)

network.0.weight f4 [512, 70]
000000 95 5f 5f 3d 0a 1e 9d 3d 0f 1e 8c bd bf 14 02 3d
       0.054534514 0.07671745 -0.06841671 0.031758066
000010 ee 91 64 3d 25 bf 57 3c 63 96 08 be ca 76 83 bd
       0.055803232 0.013168131 -0.13338618 -0.064191416
000020 28 0d 9a 3d 79 9f e9 3c db 46 ce 3d 89 76 ab bd
       0.075220406 0.028518425 0.10072108 -0.08372218
000030 77 53 09 3e 0f 6a a4 bd 2b 55 03 3e 92 9a be bd
       0.13410746 -0.080280416 0.12825458 -0.09306826
000040 69 e9 40 bd 0b 3c a2 bc b1 f8 03 3d 7f 1b 83 bd
       -0.047097597 -0.019804021 0.032219592 -0.06401729
000050 fc 0e af b9 6e fa be 3d f5 c2 2b 3d 8f 6e ca 3d
       -0.00033389765 0.093251094 0.041933972 0.09884369
000060 75 9d 4b 3c 49 dd a8 bc 1f 1b 5d bd e9 ba 27 bb
       0.012427677 -0.02061333 -0.053980943 -0.0025593585
000070 b1 54 20 3d 3d 74 84 3c ed c9 19 be 37 e0 7c 3d
       0.039143268 0.016168708 -0.15018435 0.061737265
000080 90 63 4d bd 9c 96 8b 3c a1 03 fb bc 30 5b 25 bc
       -0.05014378 0.01703959 -0.030641379 -0.010092542
000090 94 c2 5d 3d 81 70 00 be f3 69 b6 bc 1b e6 f2 bd
       0.054140642 -0.12542917 -0.022267317 -0.118602954
0000a0 21 eb c6 3c c3 1b 5f 3d a1 a1 12 be aa 3b a8 3c
       0.02428204 0.054469835 -0.14319469 0.020536263
0000b0 53 ad e5 3d 3d ab d3 3b 32 ec 26 3d a8 9d 03 3c
       0.112146996 0.006459622 0.040752597 0.008033194
0000c0 66 45 49 3d eb 65 87 3c e4 6f 8c bd 06 48 07 bd
       0.04913845 0.01652809 -0.06857279 -0.03302767
0000d0 ee d4 0c 3d 0d 6d 5c bd b2 d8 b7 bd f8 0c a6 3d
       0.034382753 -0.053814936 -0.08976878 0.08107942
0000e0 b9 e7 ce 3d eb af ce 3c 7e 72 d5 bc 11 d6 c4 bd
       0.10102791 0.025230369 -0.02605557 -0.096111424
0000f0 3a 98 7c 3d 4b 4a 58 3d 64 c8 c3 3d f0 d0 9b bd
       0.061668612 0.052805226 0.09559706 -0.07608211
000100 44 22 a7 bd 85 0d 8b 3c ae 30 ef bd da 40 9d 3d
       -0.081608325 0.01697422 -0.11679207 0.07678385
000110 3a ea 61 3d ce 74 d3 3d e4 bd ee bd c0 18 20 bd
       0.055155016 0.10325013 -0.116573125 -0.039086103
000120 d2 f5 f1 3d a1 99 b1 3d 49 e7 aa 3d b2 e6 51 bd
       0.11814465 0.086718805 0.083448954 -0.0512454
000130 ac 2b 1b 3e 8f 86 23 3d 0e 2e ca 3d 72 e7 ff bc
       0.15153378 0.039923247 0.098720655 -0.031238291
000140 33 a1 41 bd 50 fc 5f 3d 2c 07 4c bd ba c7 5b 3d
       -0.047272872 0.054683983 -0.049811527 0.05365727
000150 9b e4 23 bd bf da ca bd 74 f1 c8 bd 9e 8d 8b 3d
       -0.040012937 -0.09905004 -0.098116785 0.06814121
000160 d4 bc a7 3d af 50 ce bd fb fa 50 3b ae f3 cd bc
       0.08190313 -0.10073983 0.0031887877 -0.02514061
000170 ae e7 68 bd 44 28 dd bc 86 ce a0 bd 58 57 99 3b
       -0.056861572 -0.02699674 -0.07851891 0.0046796016
000180 b4 6c cf 3d 1b 42 a0 bc e3 36 98 3d d8 be 04 3c
       0.10128155 -0.019562772 0.07432344 0.008102141
000190 22 13 e4 bc fc 5e 51 bd 1a 51 c5 3d a5 4e b8 bd
       -0.027841154 -0.051115975 0.096346095 -0.08999375
0001a0 14 15 10 3d 3d 94 9c bd a6 3b 7f 3d 88 cc 47 bd
       0.03517635 -0.07645462 0.062312745 -0.04877904
0001b0 f6 7b ab bd 38 a9 e6 bc 36 50 d9 3d 2d 15 7e 3d
       -0.08373253 -0.028156862 0.10611002 0.062031914
0001c0 c1 bd 8e 3d 65 11 4c bd 5f e7 f7 bd c7 ad f8 bd
       0.069697864 -0.049821276 -0.121046774 -0.121425204
0001d0 b4 43 81 3c 16 b8 eb 3b 7a 69 0c bb 68 2e 66 3c
       0.015779354 0.0071935756 -0.0021425174 0.01404915
0001e0 27 57 85 3d 56 75 aa bd 30 56 ab bd aa fb 92 3d
       0.065107636 -0.08323161 -0.08366048 0.07176907
0001f0 88 8b 1b bd 96 9f 13 be 78 69 dd bd 51 71 51 bd
       -0.037974864 -0.14416346 -0.10811132 -0.051133458
000200 46 62 87 3d e7 04 af 3b cd d7 9a bd ba c8 ec 3d
       0.06610541 0.0053411606 -0.07560692 0.11561723
000210 e4 33 07 be 7b 88 b3 3c da 6f 02 3e 67 64 f6 bc
       -0.13203388 0.021915665 0.1273798 -0.030077172
000220 18 90 05 bd 7b 7f 95 3c 76 27 04 be 9f 62 d2 bd
       -0.03260812 0.018249264 -0.12905678 -0.10272717
000230 fd cd 2a bc 66 b6 b1 bd 09 04 a9 3d dc 23 df bc
       -0.010425088 -0.08677368 0.08252723 -0.027238779
000240 30 5d 9c 3d 64 ef 95 bc 14 77 14 3d a6 5b 57 bd
       0.076349616 -0.018302627 0.036246374 -0.052577637
000250 c7 7a 14 bd 9a 2a 8a 3d bc 45 e9 3d fe 95 07 3d
       -0.036249902 0.06746407 0.11390254 0.033102028
000260 41 51 cd 3c 22 53 ba 3b 66 72 97 3d 17 7d 91 bc
       0.025063159 0.0056861797 0.07394867 -0.017759843
000270 50 4b 06 3d ea 51 bb bd 2a 25 e9 3d ff d6 ff 3b
       0.032786667 -0.09146483 0.113840416 0.007807612
000280 25 c7 8d bc d6 17 72 bd 44 6f fc 3c 86 f4 cc bd
       -0.017306874 -0.059104763 0.030814774 -0.10007577
000290 65 4f 35 bd 00 2d 8c 3d 26 24 ae bd 81 3d a9 3d
       -0.04426517 0.068445206 -0.085029885 0.08263684
0002a0 6f 35 09 be c9 6f 06 be 84 53 a3 bd d6 a4 e4 bd
       -0.1339929 -0.1312858 -0.07974914 -0.111642525
0002b0 61 2d 15 3d 6e 8c 8b bd a7 2d 6c bd 79 df ac bd
       0.03642023 -0.06813894 -0.057660725 -0.084410615
0002c0 45 70 2d 3e 94 27 e3 bc 5b 6b c2 bd ed 9b 39 bd
       0.16937359 -0.027728833 -0.09493133 -0.045314718
0002d0 e6 93 58 bd 18 14 06 3d c9 e7 20 3d 62 4b 57 bc
       -0.052875422 0.032734007 0.039283548 -0.013140531
0002e0 79 c5 e9 bd 94 c3 ed 3d 25 67 a1 bd ee d2 e2 ba
       -0.11414618 0.11609569 -0.078810014 -0.0017305294
0002f0 2e 03 eb 3d cc 89 85 3c 0e f9 7f 3d cb 6c 59 3d
       0.11475216 0.016301058 0.062493376 0.05308227
000300 16 f2 e4 bc 97 dd 3f bc 15 a7 73 bd df c9 1e bd
       -0.027947467 -0.011710546 -0.059485514 -0.038766738
000310 5d 35 a7 bd 6b e2 8c bd cf 10 ba bd 6b 45 26 bd
       -0.08164475 -0.06879123 -0.09085237 -0.040593546
000320 69 b8 e4 3d ae d7 34 bb b8 a6 16 bc 95 36 54 bb
       0.11167986 -0.0027594375 -0.009195022 -0.0032381166
000330 9e 62 bd 3d 7c 44 7b 3a e6 ed 2e ba 14 33 bc bc
       0.09247325 0.0009585095 -0.0006673023 -0.022973575
000340 5d 6c 31 3d ab 84 56 bd 80 76 d2 bd 68 f0 90 bd
       0.043316234 -0.052372616 -0.10276508 -0.07077104
000350 85 fa 85 bd fe e8 05 3d 3e b9 17 b9 fc d4 c9 3c
       -0.065419234 0.0326929 -0.0001446949 0.024637692
000360 6c 46 8c 3d 00 5f a4 bd 63 9b 97 bc 40 aa 8b 3d
       0.068493694 -0.08025932 -0.018506711 0.06819582
000370 32 33 0c 3e b9 42 a5 bc 58 35 f9 bd 3c 8f 72 bd
       0.13691404 -0.020173417 -0.12168378 -0.05921863
000380 69 93 22 bd 0f bd ac bd 03 ef 12 3e 87 07 b6 bd
       -0.039691363 -0.084344976 0.14348988 -0.088881545
000390 a1 7c 63 3d 44 3a a8 3d eb bc 38 bb 86 7f 24 3d
       0.055538777 0.08214238 -0.0028188776 0.04016068
0003a0 43 3a 4f bd 24 15 92 3d eb 37 b6 bd bc 03 bd bd
       -0.050592672 0.071329385 -0.08897384 -0.09229228
0003b0 28 60 f9 3d 31 bd c5 3c e5 87 69 b9 7d ca ef 3d
       0.121765435 0.024138065 -0.00022271236 0.117085434
0003c0 6a 9f 09 3c 89 1e 53 bd 8a e3 55 3d 37 27 1b bd
       0.008399824 -0.051542792 0.05221895 -0.037879195
0003d0 57 a5 93 3d ce d8 84 bd d5 36 d5 bd 34 66 16 bd
       0.072092704 -0.06486665 -0.10410849 -0.036718562
0003e0 53 5c 7d bd a8 ba 97 3d ba 2f 22 bc 98 aa c7 3c
       -0.061855625 0.07408649 -0.009899074 0.024373338
0003f0 a2 fb d6 3d 15 f5 5c bd 82 bb ad 3d 6a 87 02 3d
       0.10497214 -0.053944666 0.0848303 0.031867422

network.0.bias f4 [512]
000000 19 e7 87 bd b6 03 31 bd 72 53 fb bc b6 6e 10 be
       -0.06635875 -0.04321643 -0.030679438 -0.14104733
000010 53 ea 2c bd 4b 4d f0 3d 45 d9 59 3b 5a 3a 73 bd
       -0.042215656 0.117334925 0.0033241075 -0.05938182
000020 96 2c 6a bd bc 2b 49 bd 18 5d 1f bc a5 f6 85 3d
       -0.057171427 -0.049113974 -0.009726785 0.06541184
000030 23 8b 43 bd 30 65 5a bd de f0 bb bc 2a 92 0f 3d
       -0.047740113 -0.053319156 -0.022942003 0.035051502
000040 03 8e 73 3b 13 63 96 3d e8 b6 62 3d 49 47 c8 3d
       0.0037163503 0.07343116 0.055350214 0.097792216
000050 3e c8 bc bd fd 0a 12 3d c7 f2 1c bd ca ab f1 3a
       -0.09217881 0.03565501 -0.038317468 0.0018438038
000060 56 c3 09 3d 0a fa 92 3d 46 76 85 bc d2 d9 ba 3d
       0.033633552 0.071765974 -0.016291749 0.09123577
000070 38 f8 9e bd 28 95 00 3d 6a 41 a4 bd 9c 49 ce 3d
       -0.07762188 0.031392246 -0.08020289 0.100726336
000080 b7 56 e9 bd 59 2c 74 bd b8 74 14 3c 53 26 d1 3c
       -0.11393493 -0.059612606 0.009061031 0.02553097
000090 3a 80 b8 3d 6b 27 d1 bd 58 bd c9 bd 09 b6 f3 bd
       0.09008832 -0.102125965 -0.098505676 -0.11899955
0000a0 c3 1d 06 be 81 88 03 be 7d d2 9a 3d 31 c9 aa bd
       -0.1309729 -0.12845041 0.07559679 -0.083391555
0000b0 5e 32 0e bd 98 ad c8 3c 52 c8 94 3d 24 4d a8 bd
       -0.034716003 0.024496838 0.072647706 -0.082178384
0000c0 38 b8 3d 3d 70 c7 46 bc 3b b7 9d 3b 8a d7 1b 3d
       0.046318263 -0.012132511 0.0048131025 0.03804735
0000d0 e2 54 00 3d 93 a6 ea bd b4 3c bc 3d d4 0c 6a ba
       0.03133095 -0.11457553 0.09191266 -0.0008928303
0000e0 8d 11 94 bc 7a 13 08 3d 12 62 b6 3d 4b 2a a4 3d
       -0.018074775 0.0332217 0.08905424 0.08015879
0000f0 14 3a 1e bc 26 6a a7 3d da 88 98 3c 52 ec 8f 3c
       -0.009657402 0.08174543 0.018619943 0.017568741
000100 b2 14 ba bb ad 14 30 bd 16 ba be 3d 2d bb ad bd
       -0.0056787366 -0.042988468 0.09312837 -0.084829666
000110 52 43 4c bd 97 5f 54 bd 9c a3 b0 bd e9 42 58 bd
       -0.04986889 -0.051848974 -0.08624956 -0.052798185
000120 d5 25 ba 3d 6e 64 af 3c a5 cf ba bc 02 44 6b 3c
       0.09089247 0.021410193 -0.02280409 0.014359476
000130 99 fc e6 bd e6 90 cb bd 9c 8f ac 3d ef 2b 4e ba
       -0.11278648 -0.099397466 0.08425829 -0.0007864823
000140 3a 33 85 3d 6c 88 f3 bd 64 3d b4 bd 7f 92 b3 bc
       0.06503911 -0.11891255 -0.08800772 -0.02192044
000150 77 1e 64 bb 0a ab bf bc 0e c4 af 3c fe 43 8b 3c
       -0.0034808198 -0.023396987 0.02145579 0.017000195
000160 03 37 f8 bd fc 09 c0 3d 14 c9 2e bc 2c dd fe 3c
       -0.12119868 0.09376904 -0.010668058 0.031111322
000170 96 37 d3 bd f5 04 88 3d f1 70 49 3c 8a 2b 98 bd
       -0.103133366 0.066415705 0.012294994 -0.074301794
000180 13 c1 1f bd 4f 27 81 bd 8f c2 c0 3d a8 ff a5 3c
       -0.03900249 -0.06306326 0.09412109 0.020263508
000190 99 6a 0a be 35 ff 39 bc 96 3d 82 3d 92 54 cb bc
       -0.13517226 -0.01135235 0.06359403 -0.0248206
0001a0 ff 69 a3 3d 7d 70 14 bd 76 9f 73 bd e7 62 b4 bd
       0.079792015 -0.03624009 -0.059478246 -0.088079266
0001b0 61 b5 9f 3d 8b 2b 17 3d d7 3f c7 bd 9b ec b3 bc
       0.07798267 0.03690676 -0.09728973 -0.021963408
0001c0 27 3d a7 3d 16 5f 19 bd 2f f3 3c bd c7 46 96 3d
       0.08165961 -0.037444197 -0.046130355 0.073377185
0001d0 a3 85 f2 bd cb be 18 bd 2b 79 12 be a8 e9 90 bd
       -0.118418954 -0.03729133 -0.14304034 -0.070758164
0001e0 3a 92 78 3c fa d4 df 3c 2c 87 de bc 8c 8b b2 3c
       0.015171582 0.027323235 -0.027164064 0.021795057
0001f0 a7 70 bc 3d 1f 43 a9 3d 36 83 c9 bd 76 34 c0 bc
       0.09201174 0.082647555 -0.098394796 -0.023462515
000200 26 da dd bc 15 c0 09 be 2d 15 1f 3d 8f f5 9c 3d
       -0.02708156 -0.1345218 0.038838554 0.07664024
000210 11 41 5a bd cc 52 ce bd 60 08 4d ba 4c 0f 38 3c
       -0.05328471 -0.10074386 -0.00078213774 0.011234116
000220 4f 90 40 3d 3f 35 3f bd 78 d0 90 3d 65 75 02 be
       0.047012623 -0.04668164 0.07071012 -0.12740095
000230 79 5d 05 3d cf e9 70 3d 6d 5e ac bd 27 56 80 bd
       0.032559846 0.058816727 -0.08416448 -0.06266432
000240 b4 94 2b bc c1 b9 36 3d 98 f4 99 3d 81 9b 79 bd
       -0.010472465 0.044610742 0.07517356 -0.060939316
000250 53 41 a2 3d 01 77 07 be a4 e2 d0 3c 45 97 d0 bd
       0.07922616 -0.1322899 0.025498696 -0.101851024
000260 fb 6c 13 3c 76 2c 80 bd d8 b2 74 bd 99 42 ff bd
       0.008998151 -0.0625848 -0.05974087 -0.12463874
000270 81 33 da 3d 54 c1 01 3d fc 7c ab 3d af 5d ad bd
       0.10654355 0.031678513 0.08373448 -0.08465134
000280 ad 8d cb bd 56 69 e2 3c df 15 a6 3d ef b5 96 bd
       -0.09939132 0.027638119 0.0810964 -0.0735892
000290 a0 d7 bd 3d 49 1d 28 bc 03 93 fa bc fb 53 ae 3c
       0.09269643 -0.010260888 -0.030587679 0.02128028
0002a0 8f 3b 8a bd 89 23 d0 3d 8e 35 b0 bd 0c ba 42 3d
       -0.06749641 0.10163028 -0.08603965 0.04754071
0002b0 c2 eb cd bc db 5f f5 3c d1 23 31 3d 8d 78 bd bd
       -0.025136832 0.029952934 0.043247048 -0.09251509
0002c0 d2 1a 1f bd 62 24 8e bc 64 1a 63 3d 8a 9e 22 3d
       -0.038843937 -0.017351333 0.05544509 0.039701976
0002d0 3d e8 f0 bd 51 37 36 bc 29 cd 96 3c ad b8 c5 bd
       -0.11763046 -0.011121587 0.018408375 -0.09654365
0002e0 ad 37 01 be db a6 c0 bb 70 6b 14 be df 11 a0 bd
       -0.12618895 -0.0058792657 -0.14494109 -0.07815909
0002f0 4c 84 50 3d d2 1d 7f bd b7 c6 12 3d d1 6c a3 3d
       0.050907418 -0.0622843 0.03583404 0.079797395
000300 17 76 e4 bc 04 31 81 3d 82 b1 22 3d 34 24 54 bd
       -0.02788834 0.06308177 0.039720066 -0.05179234
000310 34 48 94 bc a7 99 e7 bd f0 48 9a 3d 42 b7 a1 3d
       -0.018100835 -0.11308604 0.07533443 0.07896282
000320 49 9a 21 bd 8e 02 b8 3c 4f 81 a3 3d 5c 61 44 3d
       -0.03945378 0.022462156 0.07983648 0.04794441
000330 3a 9c ae 3d 80 65 5a 3d 68 52 81 bd ae da 3d bd
       0.085258916 0.053319454 -0.06314546 -0.046351127
000340 70 90 09 3b 53 64 5e bd 29 4c b8 3c c3 15 8c bd
       0.0020990632 -0.054294895 0.022497253 -0.06840088
000350 ec 72 56 3d eb 14 08 bd dd 79 5a 3d 9e c7 80 bd
       0.05235569 -0.033223074 0.053338874 -0.06288074
000360 4a ab 9e 3d 47 c3 e9 bd f6 4d b1 bd eb 53 0b 3d
       0.077475145 -0.11414199 -0.08657448 0.034015577
000370 1d 1d 03 bc c5 18 83 bd 8b 1a ae 3c 47 15 15 3d
       -0.008002547 -0.06401209 0.021252891 0.036397245
000380 3e 42 21 bc 9f 3b a9 bd 6c 11 2a 3c fe 12 98 3a
       -0.0098424535 -0.08263325 0.01038013 0.001160234
000390 f3 db 18 bd f3 9a ab bd f1 9e 40 bd 69 58 9c 3d
       -0.037319135 -0.083791636 -0.04702658 0.076340504
0003a0 ae 83 51 bc 00 b4 28 bc d4 cd a3 bd b8 1c a7 bd
       -0.012787743 -0.010296822 -0.07998243 -0.081597745
0003b0 52 12 8b bc ee 1c fe bb 69 ff bc bd 7d c6 15 3d
       -0.01697651 -0.0077549135 -0.09228403 0.036566246
0003c0 33 a0 fe 3c ce cf 83 bd 43 5c ea bd d0 76 e5 bd
       0.031082248 -0.0643612 -0.11443379 -0.11204302
0003d0 2f 29 03 3c 78 fe a1 bb c8 62 a5 bd 12 60 38 bd
       0.008005424 -0.004943665 -0.08075482 -0.045013495
0003e0 3a 85 19 3d 8f fa 8e 3d 29 62 48 bd a7 09 99 bd
       0.03748057 0.06981384 -0.048921738 -0.07472544
0003f0 d8 ff c2 3d 59 9d 8d bd fe b6 c8 3c f4 50 9b bc
       0.095214546 -0.06914777 0.02450132 -0.0189595

network.3.weight f4 [256, 512]
000000 84 90 2e 3c e5 d2 ce bc 03 02 2a 3d 8a 43 dd bc
       0.010654572 -0.025247047 0.041505825 -0.027009744
000010 26 22 bd bc fe f3 4a bc 19 ad ed bc 10 8e d6 bc
       -0.023087572 -0.012387274 -0.029013203 -0.026190788
000020 73 a7 9d bc fd 0e 77 bd 04 8e e9 3c 13 92 4f bc
       -0.019244885 -0.06031703 0.028510101 -0.012669104
000030 f0 96 f8 3c d4 09 54 3d 70 bd ee b9 ec ae 44 bb
       0.03034541 0.051767185 -0.0004553604 -0.0030011488
000040 7b 53 82 bc 46 bf 18 bc 0a cc 84 3c 3d bf ea 3c
       -0.015908947 -0.009322947 0.016210575 0.028655643
000050 b8 42 70 3d 27 30 12 bd 2f 72 cf bb 98 c1 e7 bc
       0.058657378 -0.035690453 -0.0063307504 -0.028290555
000060 64 17 0b bd 35 2a 11 3d 9e 8b fa 3c ea 8b a8 bb
       -0.033957854 0.035440642 0.030584153 -0.005143632
000070 63 5e 9c bc 0f 30 81 bc 11 35 53 bd 52 61 01 3c
       -0.019087976 -0.015769986 -0.05156428 0.007896738
000080 2c 2f bd 3c 15 eb b1 bc f7 63 19 3d 2a 0c ae bc
       0.023093782 -0.021718541 0.03744885 -0.021246035
000090 bf d0 e4 bb 22 8c ba bc ba 0f f4 3c 9c 31 6d bb
       -0.0069828923 -0.022771899 0.029792655 -0.00361929
0000a0 98 34 06 bb 33 83 3a bd b8 7d 62 3c bd 45 a6 bb
       -0.0020478126 -0.045535278 0.013823919 -0.0050742314
0000b0 51 cc 59 bd 27 cd e1 bc 19 bd 34 3c 3e c8 b7 3b
       -0.053173367 -0.027563645 0.0110314125 0.0056085875
0000c0 08 19 c6 3c f8 95 59 3d 76 de cc bb 90 da 24 bb
       0.024181858 0.053121537 -0.0062521053 -0.0025154687
0000d0 38 d2 01 bd 9a 92 4c bd c6 a7 f8 3b d0 c0 30 3d
       -0.03169462 -0.049944498 0.0075883595 0.04315263
0000e0 d3 23 64 bd b6 57 1a 3d 34 28 06 bd 75 59 48 3d
       -0.055698227 0.037681304 -0.032753184 0.048913438
0000f0 a3 97 97 3b a0 60 4b bb 4d 5e 4c 3d b4 0c 59 3d
       0.004626231 -0.0031032935 0.04989462 0.05299063
000100 20 41 73 bc 55 0d 28 3d 8e ef 01 3d 6e 1f 7a bd
       -0.01484707 0.04102834 0.031722598 -0.06106513
000110 cd bd 18 3d 73 49 22 3c bd 2c 1d 3c e9 64 53 3c
       0.037290383 0.009905207 0.009593186 0.012902477
000120 2d 03 d9 3c 73 66 20 bd 78 26 6a bd ea 15 9f 3b
       0.026490772 -0.039160203 -0.057165593 0.0048549073
000130 f6 bb 59 bd 49 52 80 3d f0 61 23 bd e7 03 27 3c
       -0.05315777 0.06265695 -0.039888322 0.0101938015
000140 6a 30 2d bd 5b 2b a4 bb 2f 9c 90 3c 02 38 5c 3d
       -0.0422825 -0.005010051 0.0176526 0.05376435
000150 9f 50 01 3d c1 86 47 3d 05 7c 8b 3c e4 71 3e bd
       0.031571027 0.048712496 0.01702691 -0.046495333
000160 29 d6 04 bc 6c d8 ab 3c 8d 5a 16 3d 56 14 86 bc
       -0.0081077 0.020977221 0.03670745 -0.016367119
000170 87 61 60 bc 27 56 f6 ba 72 53 88 3b a3 48 9b bb
       -0.013695127 -0.0018793986 0.004160338 -0.0047388836
000180 b6 d2 63 3b 0e 17 06 bd cf c4 39 3d 11 50 0e bb
       0.0034763045 -0.03273683 0.045353707 -0.0021715204
000190 6f a7 d8 3c ce f9 37 3c a6 27 b7 bc 1f a0 32 bd
       0.026447026 0.011228992 -0.022357773 -0.043609735
0001a0 23 65 91 3c cb f6 08 3d 32 17 f4 3b e3 82 30 bd
       0.017748421 0.033438485 0.007449054 -0.043093573
0001b0 7f 5f 8f bc a0 77 77 bc 73 be 09 bc 66 4b 8b 3c
       -0.01750159 -0.015104204 -0.008407223 0.017003726
0001c0 b8 90 da 3b e0 56 6f 3d 6c 63 63 bc 06 89 41 3d
       0.006670084 0.05843246 -0.0138786845 0.047249816
0001d0 3c ad e3 bc 0d 9a 23 bc 6a 6b fd bb 9c 9d 19 3d
       -0.027792566 -0.009985459 -0.007733752 0.037503824
0001e0 f0 a0 01 bc fb 0f 37 3d 69 9f a2 bc 3e d8 0a bd
       -0.007911906 0.044692975 -0.019851403 -0.03389763
0001f0 23 1e a5 bd 05 ae 18 bd ac de 18 bd 1b 06 9d bc
       -0.08062389 -0.037275333 -0.03732173 -0.01916795
000200 9d bf 4d bd 99 b2 8c 3c a8 85 94 bc 2f 82 13 bd
       -0.050231565 0.017175006 -0.018130139 -0.036012825
000210 32 f9 30 bd d9 b5 95 3c 1d 33 93 bc da bf 96 bc
       -0.0432064 0.018275188 -0.017968709 -0.018402029
000220 82 18 c8 bc 4c ef 30 bd 8f e2 ec bc 94 b7 d7 3c
       -0.024425749 -0.04319696 -0.028916625 0.026332654
000230 c8 be 4e bd 1e db df 3a 57 83 dc bc 95 8c 15 3c
       -0.050474912 0.0017078852 -0.026918096 0.009127756
000240 ff 57 1f bd 22 fb 3b bc fc 3d f6 bc be a9 29 bc
       -0.03890228 -0.011473449 -0.030058853 -0.010355411
000250 dc d4 31 bb d0 63 cb 3b f4 98 14 bd 68 3f 4c 3d
       -0.002713493 0.006206967 -0.03627868 0.049865156
000260 90 99 78 3c 18 78 fd 3c cd 7f 74 3c b7 d1 24 3d
       0.015173331 0.030941054 0.014923048 0.040239062
000270 c4 bc 49 3d 04 89 08 bb 4c 72 31 3c 99 c3 6a 3d
       0.049252287 -0.002083362 0.010830473 0.057315443
000280 15 39 6b 3c 33 42 6d bc 23 55 dc bb be f9 72 3c
       0.014356871 -0.014481115 -0.0067240163 0.014830051
000290 62 4a 9c bc 47 70 1d 3c 28 37 02 3d 18 53 19 3d
       -0.019078437 0.009609289 0.031790882 0.03743276
0002a0 91 12 25 3d 74 dd 12 3d a2 2d ef b8 a3 7a ff bc
       0.04030091 0.035855725 -0.00011404908 -0.031186407
0002b0 b5 84 19 3c e0 46 95 bb 2f f9 df bc 65 42 d8 3c
       0.009370019 -0.004555568 -0.0273405 0.026398847
0002c0 d8 aa a0 3b 25 dd 44 bb 11 36 32 3c d0 ac 97 bc
       0.0049031787 -0.003003904 0.010877148 -0.01851502
0002d0 6e 69 83 3c 7c c3 bb 3c c5 d8 fd 3c 79 ce 5b 3c
       0.016041484 0.022920363 0.030987153 0.013415926
0002e0 ef a9 29 bd 38 fb d9 3b 19 e6 83 3d 60 56 66 3d
       -0.041421827 0.006652262 0.06440372 0.056234717
0002f0 1c b9 52 bc 82 d4 b1 ba 0f 6a 8b bb 8b 33 c3 3c
       -0.012861516 -0.0013567361 -0.0042545865 0.023828289
000300 b5 86 86 bc 5d 35 92 3c a7 82 a1 bc 35 90 4c 3d
       -0.016421655 0.017847711 -0.01971562 0.049942214
000310 74 7a 9d 3c b8 d2 67 bd 37 02 16 bd 0e 06 bf 3c
       0.01922343 -0.05659744 -0.036623206 0.023318317
000320 a2 ea 3f 3d aa 37 1a 3d 70 43 91 ba ab 26 6d bc
       0.046854623 0.03765074 -0.001108272 -0.014474551
000330 e9 9d fc bb 72 f3 19 bc 0c 8f 24 3c 98 4b 40 3d
       -0.007709254 -0.009396421 0.010043871 0.04694709
000340 d8 c6 4c 3c ea 53 ad b9 93 5a 66 3b 26 c0 80 bd
       0.01249858 -0.00033059652 0.0035149201 -0.062866494
000350 87 e5 93 bb 01 63 e0 3a aa 80 dd 3c 64 54 0f 3d
       -0.004513446 0.0017119349 0.02703889 0.03499259
000360 12 22 7e 3d 37 89 f6 3c 57 c0 bb bb 99 39 03 3c
       0.06204421 0.030094726 -0.005729716 0.008009338
000370 f4 50 bd 3c 4a 6d 1b 3d 81 6c 4b 3c 25 b7 b3 3c
       0.02310989 0.037946023 0.012416006 0.021937916
000380 97 88 92 3d f6 13 18 3d 4f 2b af 3c ee f0 02 bd
       0.07154959 0.03712841 0.021382956 -0.03196805
000390 06 99 06 bd 22 7e f2 bc 76 2a d0 bb 17 58 4d 3c
       -0.03286078 -0.02960116 -0.006352718 0.012533209
0003a0 83 e4 63 3d 4c 94 e6 3c a4 d6 12 bd 8c 63 a2 3d
       0.055637848 0.028146885 -0.03584923 0.07929143
0003b0 8f 1b 90 bc ce 50 2f 3a c9 90 c4 3b b6 83 17 3d
       -0.017591266 0.0006687761 0.005998705 0.036990844
0003c0 17 92 46 bc dc 2f 40 3c 33 92 d8 3c 1f 02 60 bd
       -0.0121197915 0.011730161 0.0264369 -0.054689523
0003d0 f8 71 b8 bc 6f d8 6c 3b af b4 46 3d c6 04 9f bc
       -0.022515282 0.0036139747 0.048512157 -0.019411456
0003e0 d7 91 6c bd ed 35 fc 3b a8 0e 2c 3c e7 a4 10 3d
       -0.05775627 0.007696858 0.010501541 0.035313513
0003f0 e1 dc 3c bd c8 19 04 bd 4f b2 0a bc 17 69 06 3d
       -0.046109084 -0.03225115 -0.008465364 0.032815065

network.3.bias f4 [256]
000000 74 39 22 3d 20 e0 c9 39 10 6f 4b ba e7 9d e1 bc
       0.039605573 0.00038504694 -0.0007760385 -0.027541114
000010 10 b4 ff bc 37 27 42 bd 6f 83 e2 3c d4 6e c9 3b
       -0.03121379 -0.04740068 0.027650563 0.006147245
000020 09 e5 a2 3c ef b8 b6 39 33 72 d8 bc 00 85 e7 bb
       0.019884603 0.0003485153 -0.026421642 -0.0070654154
000030 3d 0f db bc 38 6c 38 3d 76 0e df bc 1d 3b d7 3c
       -0.026740665 0.04502508 -0.027228575 0.026273305
000040 b5 bd e3 3c eb 30 1e ba 20 9a 23 bd f9 54 01 bd
       0.02780042 -0.0006034511 -0.039941907 -0.031575177
000050 f6 18 d2 3b d9 7a f9 3c 71 c3 7d ba 59 f2 a9 3c
       0.006411667 0.030454086 -0.0009680307 0.020745443
000060 11 e7 14 bc 74 3c 23 bd 7e ac 12 ba 97 ce 00 3d
       -0.009088294 -0.039852574 -0.00055951613 0.03144702
000070 3b 5d 6c 3b a2 42 01 bd a1 c8 e6 bb b8 10 17 3d
       0.0036066312 -0.031557687 -0.00704296 0.03688118
000080 58 6c ca bc e7 b7 d0 bc bf e6 b9 3a 94 4a aa 3c
       -0.024709865 -0.025478316 0.0014183148 0.020787515
000090 2c 93 1e bd 17 a4 0b bd e9 5f 55 ba 55 15 5c 3c
       -0.038714573 -0.034092035 -0.0008139597 0.01343282
0000a0 9f 67 26 bd 3c 35 f0 3c 57 a3 1a 3d c8 3c 3b bd
       -0.040626165 0.02932226 0.03775343 -0.045712262
0000b0 c5 ee ea 3c db ee db 3c 6f 55 03 bd 79 80 2e bd
       0.028678307 0.026847294 -0.032063898 -0.04260299
0000c0 91 9e 15 3c 98 51 fc 3c a5 0b e4 3b 2d 26 bd 3c
       0.009132043 0.030800626 0.006959396 0.023089493
0000d0 be e0 14 bd 84 ef 06 3d dd 5c 15 bd da ed 3e bd
       -0.036347143 0.032943264 -0.036465514 -0.04661355
0000e0 d7 dc 09 3d e3 b9 6f bd 3f 7b 19 bd 2b d3 82 3a
       0.033657875 -0.058526885 -0.037471052 0.0009981146
0000f0 78 2b 58 bd 37 61 32 bd 0d bf bc bc a2 12 93 bc
       -0.05277583 -0.043549743 -0.023040319 -0.01795322
000100 da 16 fa bc b0 8e 46 bd a1 d7 86 bb d3 f5 15 3d
       -0.030528475 -0.04847592 -0.0041150604 0.03661139
000110 7d 39 68 3c d4 6b 8d 3c 2a dd 05 bc 28 6d 5e bb
       0.0141738625 0.01726333 -0.008170405 -0.0033939574
000120 02 02 42 bd 96 ed 18 3d 7a f3 ca bc fa df 03 bc
       -0.047365196 0.037335955 -0.024774302 -0.008049006
000130 6e 3a 25 bd e0 37 32 bc 99 7e 62 bd cf ac be bb
       -0.040338926 -0.010877579 -0.055296514 -0.0058189402
000140 54 c3 ac bb d4 aa 59 39 d3 a9 a1 bc 6e b8 a5 bc
       -0.0052723084 0.00020758371 -0.019734299 -0.020229544
000150 67 8f 35 bd 1b 55 55 bb 66 58 5e bc 9c aa b4 bc
       -0.044326212 -0.0032551948 -0.0135708805 -0.02205401
000160 3b 30 ea bc 7c 2e 05 3c 3a e0 01 bc 58 e0 86 3c
       -0.028587451 0.0081287585 -0.007926995 0.016464397
000170 6d d2 29 3d cd e1 fc 3c 93 cb 0a 3d 07 83 0c bd
       0.041460443 0.030869389 0.03388555 -0.034304645
000180 9c a6 49 ba b7 37 3c bd a6 fb b5 bc 47 3e b5 3b
       -0.0007692368 -0.04595157 -0.022214722 0.0055311057
000190 b2 7d 07 3d 3d ed b6 3c 9f fe 72 bb ed 2f ee bb
       0.033078857 0.02232992 -0.0037078036 -0.007268897
0001a0 00 91 cb ba 57 ac 6c 3c a1 4e ac bc 24 86 7e bc
       -0.0015530884 0.014445386 -0.021033587 -0.015534911
0001b0 8a af e8 bb 22 e2 48 bc 7a e8 9a 3c 56 60 91 bc
       -0.007101004 -0.0122609455 0.018909682 -0.017746132
0001c0 e0 6b 4a bd ac fa ac 3c 5d f0 51 bd 8d 68 4d bd
       -0.049419284 0.021115623 -0.05125462 -0.050148536
0001d0 b8 4f 39 3c 1f 94 40 bc 5d 83 23 bd 56 0c 11 bd
       0.01131051 -0.011754065 -0.0399202 -0.035412155
0001e0 41 61 88 bc 6d e0 2b 3d d8 dd 2c bd 30 ec 41 3d
       -0.016647937 0.041962076 -0.042203754 0.047344387
0001f0 83 9e f9 3c 09 08 bb 3c 52 29 df 3a be 23 c7 bc
       0.030471092 0.02283098 0.0017025864 -0.024309035
000200 01 3e db bb 59 dd 5c 3c ef e7 0b bd e7 71 25 bd
       -0.006690741 0.013480508 -0.034156736 -0.04039183
000210 d7 f8 c8 3c ee 42 e3 bc 98 aa 9a 3b e5 d2 61 bd
       0.024532719 -0.027741875 0.0047200434 -0.055132765
000220 f2 c1 32 bd 67 f0 c0 3c 07 f5 aa 3c 81 e7 87 bd
       -0.043641992 0.023552133 0.020868791 -0.06635953
000230 4a 95 24 ba d6 e4 c2 bc 85 3a 31 3d 63 f4 18 3d
       -0.00062783493 -0.023790758 0.0432687 0.03734244
000240 16 f3 28 bd c4 92 ff 3c 19 fd cc ba 7a e3 3f 3d
       -0.04124745 0.031197913 -0.0015639394 0.046847798
000250 61 fe 2f bd d3 f2 42 bd 49 ed 92 3c fe 89 fc 3c
       -0.042967204 -0.047594856 0.017935412 0.030827519
000260 b9 22 87 3c 5c cf b3 3c 1d 31 1c 3d 34 2b e3 3b
       0.01649605 0.021949463 0.038132776 0.0069326404
000270 5d ae d2 b9 40 b9 5c 3c 0c 2e 2b bd ba da c5 3b
       -0.00040184232 0.013471901 -0.04179196 0.006038037
000280 24 dc d8 3c 8c 8a 35 bd 38 a1 4a bc 0e e5 20 bd
       0.026472159 -0.04432158 -0.012367539 -0.039280944
000290 81 e3 1f bd 63 a0 eb 3c 74 6d 0a bc 11 26 51 3c
       -0.039035324 0.028763002 -0.008448947 0.012765423
0002a0 14 23 e7 3b 49 6e db 3c 00 69 d6 3c d9 e0 f6 bc
       0.007053742 0.026785986 0.026173115 -0.030136513
0002b0 33 46 8d 3c 76 27 6a 3c 91 fb 28 bd 1f 92 97 3c
       0.017245388 0.014291635 -0.041255537 0.018502293
0002c0 e0 66 8e 3c 5d da 5f bc ed b1 9e bc 29 59 d1 3c
       0.017383039 -0.013662902 -0.019371951 0.02555521
0002d0 01 21 61 3c b7 90 45 3c 9c 3b 92 3c 0c 5e 37 bd
       0.013740779 0.0120584285 0.01785069 -0.044767424
0002e0 55 3f db bc f6 b4 a9 3c 60 b9 1e bd 9d df 48 bb
       -0.026763598 0.020716172 -0.038751006 -0.0030650862
0002f0 4f 14 84 3c 26 c6 dc 3c 69 05 c2 bb 18 7b 84 bc
       0.016122965 0.026949953 -0.005921055 -0.016171977
000300 55 4f 85 ba 27 a8 af b9 e4 e6 ee 3c b5 35 08 bd
       -0.0010170738 -0.00033503884 0.029162832 -0.033254344
000310 c0 94 00 3b 3f e9 9f 3c 71 0d 4f 3c aa ae 1b bd
       0.0019619912 0.0195204 0.012637482 -0.03800837
000320 e7 26 23 bd 9e c0 4a 3b 89 48 de bb a1 df b1 3c
       -0.039832022 0.0030937563 -0.006783549 0.02171308
000330 66 6e 04 bc 65 81 ef bc 50 94 11 bd ba 50 17 bc
       -0.008082962 -0.029236505 -0.035541832 -0.009235555
000340 90 45 a4 3b 69 ee 30 bd 5f 2f 38 bb 6c 8f 80 3c
       0.0050131753 -0.043196116 -0.0028104407 0.015693389
000350 e2 da 8b 3c 83 f2 04 3d 3a c5 d7 3c 3d f8 e2 3c
       0.017072145 0.03245784 0.026339162 0.02770626
000360 b6 c5 8c bc 96 62 09 bd 18 8b 1c 3c 8a de 91 3b
       -0.01718412 -0.033541285 0.009554647 0.0044515776
000370 41 c1 15 bd 18 cd 1d bc c4 3f 42 bd f8 44 2c 3d
       -0.036561254 -0.009631418 -0.047424093 0.04205796
000380 3d a2 ba bc 9a b8 52 3b da 22 1d 3c c0 c7 f3 bc
       -0.02278244 0.0032153488 0.009590829 -0.029758334
000390 6c ed e0 3c b6 c7 08 bd 85 b6 08 3d f6 82 1e bb
       0.027456962 -0.033393584 0.03337719 -0.0024186946
0003a0 61 a2 f8 bc 44 bb 44 bc 57 a6 9e 3c d6 ea 7f bd
       -0.030350866 -0.012007538 0.019366426 -0.062479816
0003b0 28 7e bf 3c bf b1 36 bd a8 52 53 bd 02 47 07 3d
       0.023375586 -0.044603106 -0.0515925 0.033026703
0003c0 ec d9 b5 ba 17 b7 10 3c b9 22 e1 bc ff a5 eb bc
       -0.001387415 0.0088327145 -0.027482377 -0.028765677
0003d0 74 58 d4 3c f0 57 03 3d f4 34 c7 bc b1 ea 05 bd
       0.025921084 0.032066286 -0.024317242 -0.032694522
0003e0 57 61 ae bb b4 1e 00 3c 64 f2 32 3d 3c e7 b5 bc
       -0.0053216624 0.00781982 0.043688193 -0.022204988
0003f0 6e 47 ed bc e4 e3 29 bd 8f 9f 65 3c 4b 0e e9 3c
       -0.028964724 -0.0414771 0.0140150925 0.028449198

network.6.weight f4 [128, 256]
000000 af c0 aa 3b 22 cb 9c bc 3c 7c fd 3c 54 4c 2c bb
       0.005210958 -0.01913983 0.030943029 -0.0026290612
000010 ac c6 04 3d a0 94 00 bd 2b 6e b5 bc a4 c6 56 3d
       0.03241603 -0.03139174 -0.022147259 0.052435532
000020 37 7b 3f 3b ef 84 4d 3c 5e c1 1e 3d b1 ac 5d bd
       0.002921773 0.012543901 0.038758628 -0.05411977
000030 91 5f 9d 3c a1 e6 6e bd cb 2a 06 3a 76 c5 aa bd
       0.019210609 -0.058325414 0.0005118071 -0.08338444
000040 ed ff 86 3d 32 ec 47 3d 5c 0c 93 bc f0 6e 70 3c
       0.06591783 0.048809238 -0.01795023 0.014674887
000050 13 e8 eb bc 95 6a 7f bd d2 e6 82 bd 8b c4 e6 bb
       -0.028797185 -0.062357504 -0.06391682 -0.0070424727
000060 94 79 48 3c 34 39 88 bd f5 3c 95 bc 14 3d ee 3c
       0.012236018 -0.06651536 -0.018217543 0.029081859
000070 83 85 23 bd b3 16 86 3c 5f a4 23 3d 88 35 7f bd
       -0.03992225 0.016368246 0.03995168 -0.06230691
000080 87 1e 6b 3d 75 db 64 3d 8a d3 82 bd dd e0 0e 3d
       0.05740216 0.055873353 -0.06388004 0.034882415
000090 49 36 31 bd ae 94 44 3d e4 4f 65 3d c1 78 22 bd
       -0.04326466 0.047993354 0.055984393 -0.03966594
0000a0 47 2d 8d 3c 28 f6 52 3a c0 56 bc bb 4f fc 1f bc
       0.017233504 0.00080475444 -0.005747646 -0.009764745
0000b0 9d 2e 08 bd 46 5d 64 bd 7f f0 54 bd 49 3c e1 3b
       -0.03324758 -0.055753015 -0.051987167 0.0068736416
0000c0 3f f6 16 bd 8f 0d 4a bc f2 99 5a bc 1c 9e 25 bd
       -0.036855932 -0.012332334 -0.0133423675 -0.040433988
0000d0 7b 98 43 bc 12 e9 1b 3d 73 c1 d0 ba 2a 0c 27 bd
       -0.01193821 0.03806407 -0.0015926793 -0.040783085
0000e0 ec a6 1c bd 99 50 91 bc a2 08 3d bd 1e 8d 57 bd
       -0.038245127 -0.017738627 -0.04615081 -0.052624814
0000f0 3a 76 88 3c 35 d9 06 bd 96 d5 f5 3b 40 fd 23 3d
       0.016657937 -0.03292199 0.007502268 0.04003644
000100 1d 83 41 3d 9b 09 56 bd 3c 73 5f bd 36 98 0a bd
       0.04724418 -0.052255254 -0.054553255 -0.033836566
000110 d3 ff 41 3d 02 ab 92 ba 28 0a 61 3c ab e5 4d 3d
       0.047363114 -0.001118988 0.013735332 0.050267857
000120 bf ca f9 3c 30 43 52 bd d8 5a 68 ba 56 1a e2 bc
       0.030492185 -0.051333606 -0.00088636344 -0.027600449
000130 4a e4 48 3d a8 02 0a bc a0 47 67 bd bf da b0 bc
       0.04904584 -0.008423485 -0.05646479 -0.021588681
000140 0e 7a 8b 3c fc 2d 94 b8 40 5e fa 3c 6c d5 06 3c
       0.017025974 -7.065755e-05 0.03056252 0.008229595
000150 5a d5 6e 3d b7 7d 8d bd 56 38 2f 3b 1e 58 46 3d
       0.058308937 -0.06908744 0.002673646 0.04842388
000160 b5 8c 28 bb 11 86 35 bd e1 c1 d1 3c a3 ff 27 3d
       -0.0025718634 -0.04431731 0.025605144 0.04101528
000170 47 96 c3 b9 a8 68 2f bd 94 1f ac bd b9 92 c0 3c
       -0.00037305264 -0.042824417 -0.084044605 0.023507463
000180 fb e8 e0 bc 83 f1 9c 3c 19 3b 48 bd 1a 27 0a 3d
       -0.027454844 0.01915813 -0.048884485 0.033728696
000190 75 6c 04 bd 8a 7c 25 bd 09 86 8b bd f8 c6 a3 3c
       -0.032329995 -0.040401973 -0.068126746 0.019992337
0001a0 10 19 0a 3d bf 76 71 bd 5d 22 d3 bb 7e 38 11 bd
       0.033715308 -0.058951136 -0.0064433054 -0.035454266
0001b0 24 d7 02 ba 9b 64 99 3c d8 11 aa 3c b1 a2 8e 3c
       -0.0004991165 0.01872473 0.020760462 0.017411562
0001c0 61 af 94 39 22 92 28 bd 75 5a 08 3b dd df 3a 3d
       0.00028359427 -0.041154988 0.002080587 0.04562365
0001d0 10 d4 26 bd 70 e2 e7 3b 67 18 a1 bd e9 69 21 bd
       -0.040729582 0.007076554 -0.078659825 -0.039407644
0001e0 39 6d 46 bc f4 17 a9 bc c0 2b 0e 3d a0 cb a5 3b
       -0.012111002 -0.020641305 0.034709692 0.0050596744
0001f0 f9 b8 25 bb e0 59 83 bd e3 7a 0b bd f3 50 7a bd
       -0.0025287254 -0.06413627 -0.03405274 -0.061112355
000200 f5 77 0d bd ee d6 28 bd 66 78 27 3d c9 7b a1 bd
       -0.034538228 -0.041220598 0.040886305 -0.07884938
000210 e3 e9 72 bd 86 44 0a 3d 70 4b 2b bd ae 9d ef ba
       -0.059305083 0.033756755 -0.04181999 -0.0018281245
000220 8d ab 6c 3c f3 ac 7a 3c 8d ff 54 bd 95 b3 08 3d
       0.014445198 0.015300023 -0.052001525 0.033374388
000230 2c cd 4c 3b c8 75 ad bc 22 96 67 bc c2 88 8e 3c
       0.0031250222 -0.021174327 -0.014134916 0.017399196
000240 a0 65 ea 3c 78 96 0e 3b 91 ad 04 3d d5 a3 45 3d
       0.028612912 0.0021757167 0.03239209 0.048251946
000250 85 75 cd bb 1a 24 9b bc fd 9c 13 bd 21 b5 26 bd
       -0.006270113 -0.018938113 -0.036038388 -0.04070008
000260 24 5b 38 3c b9 f6 be 3c 4e 2b 2a bb a2 86 e0 bc
       0.011252198 0.023311006 -0.0025965753 -0.027407948
000270 9c 3f a6 3c a6 c5 20 bd b8 57 13 3d 52 8e 9e bc
       0.020294003 -0.039250992 0.035972327 -0.019354973
000280 dd d9 0d 3d f5 0a 87 bc 79 c2 34 3b 86 bd 1d bd
       0.0346316 -0.016484717 0.0027581735 -0.03851082
000290 89 3e 1c bd 6b 93 45 bd 6d e4 1f 3c f3 a2 26 bc
       -0.038145576 -0.04823629 0.009759051 -0.010170686
0002a0 42 13 80 bd 8a 7c 25 3d a5 78 3c bd d6 3a 30 3d
       -0.06253673 0.040401973 -0.046013493 0.04302486
0002b0 d4 6c 29 3d b6 19 ab 3c 30 86 ba 3c cd de 20 3c
       0.041363552 0.020886283 0.022769064 0.009818745
0002c0 33 06 21 3d 44 2a 03 bb e9 84 51 bc e3 7f 83 bd
       0.039312553 -0.0020014206 -0.012788036 -0.06420877
0002d0 95 72 57 bd 8c 6c 1e bc ef 28 ee bc 6b d5 f2 bc
       -0.05259951 -0.009669434 -0.029072253 -0.029642781
0002e0 77 30 e5 3c 35 bf bc 3c 24 7d 41 3c ce 62 8d bd
       0.027977211 0.023040393 0.011809621 -0.06903611
0002f0 e6 da a7 3c 1b 39 33 3d a5 4b 91 bd 3b 7c d7 ba
       0.020490121 0.043755632 -0.07094506 -0.0016440222
000300 17 e7 ee bc 9e 1e d0 3c 34 0c 86 bd 3a 01 47 bc
       -0.029162927 0.025405224 -0.06545296 -0.0121462885
000310 9d 11 86 3c cd b9 8a 3b b1 69 cf 3c b4 3f 84 bc
       0.01636582 0.004233575 0.025318952 -0.016143657
000320 13 14 37 3c a2 e4 61 bd 8a d0 42 bd 1b fa 49 3d
       0.01117422 -0.055149682 -0.04756216 0.049310785
000330 63 ec 02 3d b3 45 80 3d 25 90 55 3d e0 27 80 bc
       0.031963717 0.06263294 0.05213942 -0.015644014
000340 a2 37 31 bc 79 8d 30 bd ed 89 4b bd db 5e 88 bb
       -0.010816487 -0.04310367 -0.049692083 -0.0041616983
000350 e4 59 a6 3c 4e aa 21 3d 7a cc 56 3d 11 f5 79 3a
       0.020306535 0.039469056 0.052441098 0.0009535114
000360 66 a8 97 bc 11 9b 70 bd 3d fb 3e 3d 3a 12 24 bb
       -0.018512916 -0.058741633 0.04662632 -0.0025035278
000370 d2 c3 7a bd ee cc 11 bd a7 dd ce 3c ef 48 76 bd
       -0.061221905 -0.035595827 0.025252176 -0.06012815
000380 d7 47 4d bc cd 67 81 bb 86 d2 c4 bc e6 3b 72 3d
       -0.012529335 -0.0039491416 -0.024026167 0.059139155
000390 ef c6 cc 3c 7b 4f 11 3d 32 65 2c 3d d9 37 cb 3c
       0.024997203 0.03547619 0.042088695 0.024806904
0003a0 16 c0 00 3b 45 83 66 3c b1 dc 2e 3c 69 4f 12 3d
       0.0019645742 0.014069383 0.010672734 0.035720263
0003b0 c5 83 9d 3c 77 3f b7 3c 18 86 5d bd 17 56 a1 ba
       0.019227872 0.02236913 -0.05408296 -0.0012308982
0003c0 95 87 3a bd 62 ae 22 3d 6b 57 a1 bd 19 96 19 3d
       -0.045539457 0.039717086 -0.07878002 0.03749666
0003d0 20 92 ab 3b bc 5f 69 bd 4b 31 2c bd 69 32 3b 3c
       0.0052359253 -0.056976065 -0.042039197 0.011425593
0003e0 34 c5 f6 bc f7 7a 3d bd 95 b2 77 bd 1b 60 26 bd
       -0.03012333 -0.046259847 -0.060473043 -0.040618997
0003f0 82 61 ae 3a 54 e3 41 3c cb b5 64 bc c1 4c 62 bd
       0.0013304206 0.011833984 -0.013959358 -0.05524898

network.6.bias f4 [128]
000000 3c 69 b7 bd 42 0e c7 bb 22 9a 06 bd 1b ae cc 3b
       -0.08955619 -0.0060746977 -0.032861836 0.006246341
000010 66 ae 66 bd 77 a7 11 bd 7a 14 a0 3a 4b 94 b2 bc
       -0.056318663 -0.035560098 0.0012213134 -0.021799227
000020 7a b2 39 bb ae 04 6a bc b8 47 84 bd 2c bb b6 3c
       -0.002833514 -0.014283342 -0.06458992 0.022306047
000030 73 db 27 bc e6 d1 79 3d a6 4e 23 3d ad 0b c4 3c
       -0.010245192 0.06099119 0.039869927 0.023931349
000040 cb 94 ab 3c 69 03 00 3b 98 94 aa 3b a8 1c a4 3c
       0.020944973 0.0019533283 0.005205702 0.020033196
000050 44 57 cd 3b a8 65 7d 3c b7 d7 d2 bc 94 e1 8b 3c
       0.0062665064 0.015466131 -0.025737626 0.017075337
000060 1d ad 7e bd 08 d0 30 bc dd 11 85 3c 88 b3 3c bd
       -0.062176812 -0.010791786 0.01624387 -0.04606965
000070 84 04 63 bb 04 26 02 3a a3 44 f0 b9 e6 95 45 3c
       -0.0034640143 0.0004964771 -0.00045827506 0.012059664
000080 f7 8d 25 bd 28 9b 70 bd c7 8d 0f 3d f2 08 49 3a
       -0.04041859 -0.05874172 0.03504732 0.00076688745
000090 50 3c 3d bd 1d d7 e2 3c a5 41 49 3d 4a 0a 5c 3d
       -0.046200097 0.027690465 0.04913487 0.05372075
0000a0 e6 39 33 bd 23 82 e3 bc 6c 77 22 bd d1 0a 62 3d
       -0.043756388 -0.027772015 -0.03966467 0.055186097
0000b0 cc 65 47 bd 3c 56 30 bd 18 00 6c bd 71 ce 34 bd
       -0.048681065 -0.04305099 -0.057617277 -0.04414219
0000c0 52 62 50 bd 9a 4f e4 3c e0 4e 51 bc 4a 10 0a bd
       -0.050875016 0.027869988 -0.012775153 -0.03370694
0000d0 09 0f 06 bd 64 22 d1 bc db 51 08 3b d2 18 32 bd
       -0.032729182 -0.025529094 0.0020800743 -0.0434807
0000e0 f8 5b b3 bd 25 b9 1e bd 73 e8 b2 bc 78 c1 ea b9
       -0.08757776 -0.038750786 -0.021839356 -0.00044776103
0000f0 6d 08 b0 bc 40 c7 8e bc 95 1d 10 3d 1c 4a dd 3c
       -0.021488393 -0.017428994 0.03518446 0.027012877
000100 5a 30 2f bd f3 41 f2 bc d5 26 67 bd 12 92 95 bd
       -0.04277072 -0.029572463 -0.056433517 -0.07303251
000110 1b 29 4a 3d b5 63 59 bb 9d 18 86 3d 30 f7 14 bd
       0.049355607 -0.0033171002 0.06547663 -0.03636855
000120 49 cc 9a bd 1f 77 6f bd 82 42 3e 3d 18 c8 3b 3d
       -0.075584956 -0.058463212 0.046450146 0.04584512
000130 a7 1e 53 bd 0d 92 94 bb 0c 41 1c bc 9f e6 16 3d
       -0.051542904 -0.004534012 -0.009536993 0.03684103
000140 da 12 ac bd 8b 24 29 bd b6 5b e9 bb e3 78 5e 3d
       -0.08402033 -0.041294616 -0.0071215285 0.054314505
000150 35 c5 aa 3d 59 03 f7 bb 6a 93 89 b9 cc 36 42 3d
       0.083383955 -0.007538241 -0.00026240508 0.04741554
000160 72 18 e5 3c 05 5a ed 3a 49 8e 7d 3d 83 4d 4c bd
       0.027965758 0.0018108493 0.06190327 -0.04987861
000170 d4 8a d8 bc 0b e2 7d 3c cf 4a 7e bd b9 a4 4a bc
       -0.026433386 0.015495787 -0.06208306 -0.0123683745
000180 fb af 27 bd 06 09 12 bd c9 69 7a 3d 2e 52 15 bd
       -0.040939312 -0.035653137 0.06113604 -0.036455326
000190 73 3b 4b 3d 59 52 8b bc e9 3d 29 3b b5 4a 0e bc
       0.049617242 -0.01700704 0.0025824255 -0.008684804
0001a0 4a 7d 85 3c b1 19 53 3c 3a aa 86 bd ca 40 55 3c
       0.016295094 0.012884543 -0.06575437 0.013015935
0001b0 6d 62 1e 3d 00 39 88 bb 94 af 98 3c ec 8d 60 3c
       0.038668085 -0.0041571856 0.01863841 0.013705712
0001c0 0e ad 9c b8 52 9c 0a 3d 95 13 2e bd 57 b1 2e 3c
       -7.4708936e-05 0.033840485 -0.042499144 0.010662398
0001d0 b5 bd 9f 3b 78 c7 1c 3d e6 13 2a 3b a6 0f 1a b9
       0.0048749098 0.038276166 0.0025951802 -0.00014692414
0001e0 c0 83 03 3d 7f e0 82 3b c1 04 66 bc e7 01 25 3d
       0.03210807 0.003994047 -0.014039219 0.040285017
0001f0 0c 35 5e bc ce 9e 31 3d e5 db 48 3d 3f 79 4b bc
       -0.013562452 0.04336434 0.049037833 -0.012419044

network.9.weight f4 [64, 128]
000000 81 4d 64 3d 9e f0 8c bd 0d 56 07 bc 74 fb 4f 3d
       0.055737976 -0.068818316 -0.008260262 0.050776914
000010 b3 c3 24 3d 14 9c ae bd b2 2e f1 3d c2 7e 7e bd
       0.040225696 -0.08525863 0.117764845 -0.062132604
000020 42 fb 27 bd 28 7f 68 bd ec e8 ec bc 4a 6b 10 3d
       -0.041011102 -0.05676189 -0.02891966 0.03525857
000030 d7 ce 4f bd ec e2 5e bd b4 dd 85 3d 96 34 55 bc
       -0.050734367 -0.05441563 0.06536427 -0.013013026
000040 b3 32 93 3c d5 99 4d bd 33 af 90 3d ac ce 90 bc
       0.017968511 -0.050195534 0.070646666 -0.017676674
000050 ac 18 03 bd c6 b5 ff bc 72 ad 8c bd 57 8e 2d bd
       -0.03200595 -0.031214606 -0.068690196 -0.042372074
000060 d2 06 99 3d 3a a2 0b 3d 50 2b ab bd f2 75 38 bc
       0.07472004 0.03409026 -0.083578706 -0.011258589
000070 54 88 31 3d 63 75 5b 3d 17 49 9c 3c 4d 04 30 bd
       0.043342903 0.053578746 0.01907782 -0.04297285
000080 db dc e2 bc 2d 7e 88 bd b2 79 a5 3b 8d 64 87 3d
       -0.027693203 -0.06664691 0.0050499076 0.066109754
000090 ab 36 73 bd 6c 8d 5d 3d 02 9a 50 3d 42 0d a5 ba
       -0.059378307 0.05408995 0.050928123 -0.0012592452
0000a0 4f 5e 3d bd df 0f c1 3b a6 77 c2 bc ef b4 c2 3d
       -0.046232518 0.0058917846 -0.023738693 0.095071666
0000b0 2e ff 82 bd 34 27 e8 bc 6e 44 4e 3d 51 73 c3 bd
       -0.06396328 -0.028339006 0.05035823 -0.09543479
0000c0 64 7a dc 3b 33 ed 98 3d c9 c3 e8 3c f3 2a 59 bd
       0.0067284573 0.07467117 0.02841367 -0.053019475
0000d0 ad 6b 90 3d 36 36 e0 3c 66 ec b0 3d 01 25 92 3d
       0.070517875 0.0273696 0.086388394 0.07135964
0000e0 b3 ae a5 3d 8b 4e 11 bc e4 b4 d0 bc 05 19 06 bd
       0.08089962 -0.008868824 -0.02547688 -0.032738704
0000f0 a9 8f 8d bd 78 03 20 bd 9d 81 43 bd b7 4e 7d bd
       -0.069121666 -0.039065808 -0.04773103 -0.061842646
000100 2b 5f 6a bd a3 dc d8 3c b4 e7 e0 3b 9b 34 e1 3c
       -0.057219665 0.026472395 0.0068635587 0.027490905
000110 a1 d5 17 bc 72 6a 15 3d 3b 6d 0e 3d 1a cd 2e bd
       -0.009267242 0.036478467 0.03477214 -0.04267607
000120 03 26 81 3c c3 42 8a 3c 09 52 95 bd 9f e5 ba bd
       0.015765196 0.016877538 -0.072910376 -0.09125828
000130 79 fb 79 3c 29 77 60 bd fd 77 9f bb 24 a9 3d bd
       0.01525771 -0.05480114 -0.0048665986 -0.046303883
000140 6e 36 be bc 5f 2c 4d bd 97 bb 96 3c 42 c0 4a 3c
       -0.023219313 -0.050091144 0.018399997 0.012374939
000150 2a 66 f6 3a 31 07 98 3a 1d 58 1a 3d 48 ba 10 3d
       0.0018798758 0.0011598823 0.037681688 0.0353339
000160 85 c9 19 bd d4 a2 a7 3d dc d0 98 3d 45 f7 d3 3c
       -0.0375457 0.08185354 0.07461712 0.025874743
000170 09 76 53 3c 22 07 f4 bc a9 aa a4 bb e4 52 d4 3c
       0.01290656 -0.029788557 -0.005025227 0.025918432
000180 71 3a 65 bd a8 ca a1 bd fb 96 8a 3c 7d 73 c1 bd
       -0.055963937 -0.07899982 0.016917696 -0.09445856
000190 98 18 a3 3c fd 13 1a bd 9a 11 59 bd a4 0c 29 bc
       0.019909188 -0.03761672 -0.0529953 -0.010317955
0001a0 0d 26 85 3d b5 8f 8a bd f0 a4 05 3d 65 cd 57 3d
       0.06501398 -0.06765691 0.032628 0.052686114
0001b0 6e fd 48 bd f3 e3 87 bd 89 53 1e 3d b3 1c b8 3c
       -0.049069814 -0.06635275 0.038653884 0.022474622
0001c0 ea 9c 98 bd 17 a4 56 3d 78 d4 29 3c 87 36 c3 bd
       -0.07451804 0.052402582 0.010365598 -0.09531885
0001d0 24 16 49 3d 32 99 82 bd db cf 5d bd 35 3c 0b 3c
       0.04909338 -0.06376876 -0.054153305 0.008498241
0001e0 55 33 22 3d 73 22 99 bd 19 cc c2 bd ff c4 cd 3b
       0.039599735 -0.07477274 -0.09511585 0.0062795873
0001f0 5f fe 8a 3b 03 88 3b bd e6 3f 82 bd cb bf 67 bd
       0.004241749 -0.045784008 -0.06359844 -0.056579392
000200 9b c8 c6 3c 84 b9 1c 3d 09 d4 3f 3d d2 dc 25 3d
       0.024265578 0.03826286 0.04683307 0.040493794
000210 97 0a 92 3b 5a 18 0b 3d 2d c9 b4 3d 64 7c db bc
       0.004456829 0.03395877 0.08827434 -0.026792713
000220 62 08 aa bb 1c 32 06 bd 66 95 52 3d 63 3f 12 3d
       -0.0051889876 -0.03276263 0.05141201 0.03570498
000230 d0 0b 76 3d 3c b6 93 bd d1 ae 38 bc 39 e5 4c 3d
       0.06006986 -0.07212493 -0.011272148 0.05002329
000240 4e 5f 1e bd 26 c8 71 3d d8 6e a8 3a d3 33 32 bd
       -0.03866511 0.059028767 0.0012850417 -0.043506455
000250 b3 5b 91 3c 7b db e3 3b 23 f2 21 3d 7c d8 59 3d
       0.01774392 0.0069536543 0.03953756 0.05318497
000260 f5 e5 ef bc a4 59 09 bd bf c9 a1 bd 6c bf 6e 3d
       -0.029284457 -0.033532754 -0.07899808 0.058288023
000270 23 17 f5 bc ea 5b b8 3d 8b 5a 81 bd d8 7e ac bd
       -0.029918259 0.09001906 -0.06316098 -0.08422631
000280 f5 c0 21 bd b1 62 14 3d 8c e7 01 bd 95 9e 8c bd
       -0.03949066 0.036226932 -0.03171496 -0.068661846
000290 bb 46 38 bd 1e a1 5c bc ec 4a a9 bc 0b 44 b1 3a
       -0.04498933 -0.013466148 -0.020665608 0.0013524307
0002a0 89 51 80 3c fe 59 7c bd 90 73 09 3c 30 eb 16 bd
       0.015663879 -0.06160926 0.008389369 -0.036845386
0002b0 c6 a6 d0 3c 2a ea f5 3b 80 2a 89 3c f3 60 ed bc
       0.025470149 0.007504721 0.016743898 -0.028976893
0002c0 a6 34 8d bd 1e ff d6 3c c0 04 99 3d be b3 00 bd
       -0.068948075 0.026244696 0.07471609 -0.031421416
0002d0 a4 d6 24 3d 9f 7c e3 bc c1 40 37 3c bf da af bc
       0.04024376 -0.027769385 0.011184872 -0.021466611
0002e0 56 ee 9c 3c 5d 81 7a bc 74 ec 89 3c c2 c6 a4 bd
       0.019156616 -0.015289632 0.016836382 -0.080457225
0002f0 9f da 70 bc c2 2c 7f 3d ff 91 6d 3d 1c b1 80 bd
       -0.014700561 0.062298544 0.05800056 -0.06283781
000300 49 05 11 3d 84 2f a0 bd 82 0d 91 bd 27 33 4a 3d
       0.03540543 -0.07821563 -0.070826545 0.04936519
000310 83 c9 8f bd 03 e6 7d bd 6e ce 9e 3a fd ec 96 3b
       -0.07020857 -0.061986934 0.0012115964 0.004605888
000320 6f 53 a6 3d f0 2e c1 3c 64 38 a6 bd 7d 67 55 3d
       0.081213824 0.023581952 -0.081162244 0.052100647
000330 2e ad 8c 3c 3c cd 38 3d 99 f2 9b 3c 53 0d 37 3d
       0.017172422 0.0451176 0.019036578 0.04469044
000340 6f 20 88 3d 13 13 a3 bd 8a 0a 13 bd d5 9f 21 3d
       0.06646811 -0.079626225 -0.035898723 0.03945907
000350 bb 8a f9 3d 77 70 50 bd 5d 79 1d 3c 86 6b ff 3d
       0.12184664 -0.050888505 0.009611455 0.1247168
000360 e2 2c 6e bd cc f7 70 3d be b6 c8 3d 35 d9 83 3d
       -0.058148272 0.058830068 0.0980048 0.06437913
000370 93 91 bf bd a7 5c ac bd 6b 98 54 bd 7b 8b 08 bb
       -0.09353938 -0.084161095 -0.05190317 -0.002083509
000380 f4 ad d4 3c a6 1e d0 bd 7f d1 40 3d ae de 9f bd
       0.025961854 -0.10162096 0.04707479 -0.07806145
000390 2e 85 c5 3d 7c 89 ab bd 22 9b 26 bd b0 c1 62 bd
       0.09644543 -0.083758324 -0.04067529 -0.055360496
0003a0 4f 9e 1e bd fa f4 e0 3c 93 e9 ab 3c ea 0c 2f 3b
       -0.038725194 0.027460564 0.0209854 0.0026710578
0003b0 9d ac c1 3c 83 e8 50 bc e7 88 37 3c 37 a5 6a 3d
       0.023641879 -0.012750748 0.011202074 0.057286467
0003c0 47 6d 74 bd ec 46 6f 3d a6 7b 18 3c 77 00 50 bc
       -0.059674527 0.058417246 0.009306824 -0.012695423
0003d0 8d 3d 2a bd 8e f0 14 bd 50 1b 68 bd 9f 14 17 3c
       -0.041562606 -0.036362223 -0.056666672 0.009221225
0003e0 38 cf 16 bd 32 5e c2 bd 10 8c 5e 3d 2f 03 a3 3c
       -0.036818713 -0.094906226 0.054332793 0.019898979
0003f0 19 85 83 bd 61 a1 ad bd c9 99 01 be 65 89 27 bb
       -0.06421871 -0.08478046 -0.1265632 -0.0025564071

network.9.bias f4 [64]
000000 23 b0 a5 3d 57 bc ba 3c c0 41 86 bd c5 2a 14 3d
       0.08090236 0.022794886 -0.065555096 0.0361736
000010 99 94 a2 3d 9a f7 69 bd 71 29 92 bc 8c 23 65 bd
       0.07938499 -0.057120897 -0.017842026 -0.055942103
000020 a2 2a a3 bc d7 23 1b bd 0b a8 54 bc 42 02 ec bc
       -0.01991779 -0.037875976 -0.012979518 -0.02880967
000030 e9 f0 9c bd f3 a9 a2 3d df ae 76 bc 1a 4d 2c bd
       -0.076631375 0.079425715 -0.015056341 -0.042065717
000040 ce fd ce 3d 54 07 19 bd 42 2f 79 3d f7 dc 71 3d
       0.10107003 -0.037360504 0.060836084 0.05904862
000050 fc 66 31 3d 13 38 44 3d 65 15 10 3b 27 57 e8 3d
       0.043311104 0.04790504 0.0021985408 0.11344748
000060 64 fc 0e 3d e7 05 bf 3d 61 1f 3f 3d 72 55 f9 3b
       0.034908667 0.09327298 0.046660785 0.007609063
000070 b7 d1 87 bd 9c e6 5d bd 46 64 1e bd ce c0 eb 3c
       -0.06631797 -0.054175004 -0.038669847 0.02877846
000080 93 d3 e4 3d a1 6b 59 3c 98 ff 77 bb d9 54 9d bd
       0.11173167 0.01327029 -0.0037841555 -0.07682199
000090 ad 2f 58 3d c8 60 da bd 99 18 b1 bb 96 7c 87 3c
       0.052779842 -0.10662991 -0.0054045436 0.0165389
0000a0 e4 a4 16 bd 26 4f 59 3d 7b 64 e5 3c 20 b9 c5 3d
       -0.036778346 0.053053997 0.028002014 0.096544504
0000b0 62 e6 80 bd 31 5a 6f 3d 5a 05 e6 bc a7 06 69 3c
       -0.06293942 0.058435623 -0.028078724 0.014222777
0000c0 ff 0d 83 3d 06 5d 57 bc 5f f1 87 bd eb bd 84 bd
       0.06399154 -0.013144737 -0.06637835 -0.064815365
0000d0 7f fd be 3d 10 c7 81 3c 22 73 83 bd 46 2e 8e bd
       0.09325694 0.01584199 -0.06418444 -0.0694242
0000e0 27 92 83 3d f0 ce bd 3d 0c 4e 8c bc eb 6b e9 3c
       0.06424361 0.09267986 -0.01712706 0.028493842
0000f0 6d fe 8a 3d 77 9b 2e 3d f4 c7 68 bd 40 18 46 3d
       0.06786809 0.04262873 -0.056831315 0.04836297

network.12.weight f4 [1, 64]
000000 74 b6 85 3d 60 06 7a 3d f9 66 6f 3d 20 9c 77 bd
       0.06528941 0.061041236 0.05844781 -0.060451627
000010 1a f2 cc 3d a8 b6 20 bd b6 05 63 bd 0e f7 c2 3d
       0.10007115 -0.039236695 -0.05542537 0.09519778
000020 63 bf 6d 3d c6 49 c0 bd 47 9a 03 3d 79 57 0f bd
       0.05804385 -0.09389071 0.032129552 -0.03499553
000030 17 31 20 bb 79 9a 0d bd 2a ff c5 3d 8d 0d 7b bd
       -0.0024443322 -0.034571145 0.09667809 -0.06129222
000040 5c 1d e0 3d 9f 9e b6 bd 71 20 66 bd fd ad b1 3d
       0.109431 -0.08916973 -0.056183282 0.08675764
000050 22 45 e5 3d c4 11 0c bd 76 b0 80 bd d5 37 4a 3d
       0.11194827 -0.03419663 -0.06283657 0.04936965
000060 bf de 6f bd 4e 24 c3 3c 6f 6e 5e bd 5d 95 78 3d
       -0.058562037 0.023821022 -0.054304536 0.06068932
000070 b0 e1 c5 3d f7 ac 63 bd d4 74 c0 bd f0 05 2d 3d
       0.09662187 -0.055584874 -0.09397283 0.04224199
000080 5e 35 8d 3d e7 fe 84 3c 6c 94 e0 bc 91 40 d2 3d
       0.068949446 0.016234828 -0.027414523 0.10266221
000090 b9 f4 9d 3d 22 83 a6 3c 06 7a c1 3d 90 dc b1 3d
       0.07712693 0.0203262 0.09447102 0.08684647
0000a0 22 17 54 bd 15 49 d6 3b 96 8d 55 3d 8e 40 63 3d
       -0.051779874 0.006539474 0.05213698 0.055481486
0000b0 09 76 3a bd 70 fc 24 bd 62 57 86 bd 9e ee af 3d
       -0.045522723 -0.040279806 -0.06559636 0.085904345
0000c0 61 29 22 3e a0 2d 3f 3d 59 ea e1 bd 5c 7a 3b 3d
       0.15836097 0.04667437 -0.110310264 0.045770988
0000d0 ef 1e b7 3d 8d e2 93 bd 8d 32 1c bd 1a 87 c5 bd
       0.08941447 -0.072209455 -0.038134146 -0.09644909
0000e0 66 5d fe 3c a6 02 89 bd 5f 9a b4 bd 72 af ab bd
       0.031050395 -0.06689958 -0.088185064 -0.08383073
0000f0 9a 61 02 bd be ca af 3d c5 c9 58 bd 3c 6d 53 bd
       -0.03183136 0.08583592 -0.052926797 -0.051617846
