wandb/run-20251108_183430-vmfj5vr1/files/best_model.pth (torch, 204045 bytes, 7 tensors)

network.0.weight f4 [256, 34]
0.0989131 0.10219592 -0.14404707 -0.034902126 0.028309487 -0.0755783 -0.15720575 -0.12098742
0.06987911 0.018396234 0.14921515 -0.15516323 0.14825039 -0.14733602 0.16368079 -0.19962382
-0.0476731 -0.03874751 0.039294876 -0.1304728 0.036367152 0.14743002 0.05530355 0.16508234
0.056871794 -0.09469827 -0.05027428 -0.029170157 0.08426717 0.06612352 -0.13025326 0.11785735
-0.020176562 0.06393524 -0.03285833 0.046035666 0.13446358 -0.18042824 -0.017789345 -0.17371856
-0.0033614384 0.02499563 -0.13756406 -0.03526244 0.15587577 0.058941767 0.05088528 0.0008683109
0.062260408 0.010085252 -0.04158144 -0.06869472 0.10122652 0.015174667 -0.11827815 0.108155325
0.108337425 0.05405602 -0.013838968 -0.19558989 0.108889736 0.12143622 0.14205198 -0.11537728
-0.13489088 0.062386855 -0.14531074 0.073308825 0.14760303 0.19377011 -0.11517051 -0.07959974
0.14497219 0.1637002 0.091476366 -0.026853573 0.13436863 0.07893871 0.16934486 -0.042698663
-0.10243073 0.14845839 -0.06170954 0.13755617 0.032506328 -0.15336642 -0.17400022 0.11529469
0.10133467 -0.14555788 -0.030310728 -0.020617424 -0.10560421 -0.022833968 -0.14558709 0.031415116
0.10081188 -0.0016406695 0.0633248 0.07476518 -0.06374817 -0.016613584 0.10995466 -0.18487668
0.0050867447 -0.15465048 0.04175988 -0.11856652 -0.1443762 -0.06566527 0.15232502 0.09929204
0.10669886 -0.092075124 -0.09371635 -0.14755164 -0.018795462 -0.0237161 -0.037481565 -0.02237367
0.058451973 -0.09038422 -0.121999614 0.04783125 -0.008939468 -0.11133227 -0.09975369 -0.034564648
0.0028294125 0.0342729 -0.09865895 0.18153146 -0.17256092 0.032070443 0.16403164 -0.05968456
-0.07089795 0.00017311671 -0.18011563 -0.16604896 -0.049529523 -0.067137614 0.10265603 -0.07305828
0.023382312 -0.027431099 0.06725785 -0.17462596 -0.04520036 0.09561496 0.12691961 0.04772435
0.07232044 0.009463273 0.13199429 0.008455316 0.020257402 -0.1300354 0.08817252 0.06501495
-0.0019639623 -0.0442351 0.08874707 -0.09153636 -0.10612613 0.053736143 -0.08604228 0.11391469
-0.13728797 -0.14934717 -0.19532043 -0.1747 0.03289745 -0.18829902 -0.10427022 -0.15425213
0.13132241 -0.1016738 -0.11169358 -0.08054743 -0.040517505 0.0030971735 0.042136326 -0.015814567
-0.20191507 0.13565789 -0.11919031 -0.037425537 0.16473608 0.026074812 0.081985064 0.110801645
0.044913184 0.0007414159 0.004072866 0.09456563 -0.14589202 -0.059549518 -0.09382887 -0.044275615
0.12277798 0.02956899 -0.030639837 0.007770621 -0.0068283076 -0.048175886 0.012783206 -0.017666684
-0.0036765996 -0.060295526 -0.19724886 -0.07715675 -0.11203097 0.040453978 -0.024703098 0.05417653
0.107617095 -0.1737576 -0.018669244 0.12211486 0.14649224 -0.1122041 -0.11717006 -0.12705421
-0.010258504 -0.09910015 0.16759802 -0.06823762 0.07106982 0.100615814 0.014572176 0.040142033
-0.05827891 0.1688608 -0.12548363 -0.1648622 0.16937774 -0.0006527484 -0.07743404 0.05547905
-0.06400248 -0.15576065 -0.027416227 -0.18056943 0.048324246 -0.12487024 -0.12422399 -0.057774726
-0.12390337 0.13114803 -0.020966943 -0.002972233 0.12963653 -0.13076507 0.112564094 0.014745263
00000000: f492 ca3d 184c d13d 1381 13be 88f5 0ebd
00000010: 4ce9 e73c ccc8 9abd 8bfa 20be 41c8 f7bd
00000020: c71c 8f3d b3b3 963c dbcb 183e 1ce3 1ebe
00000030: f3ce 173e 41df 16be f09b 273e 306a 4cbe
00000040: de44 43bd b6b5 1ebd aaf3 203d a99a 05be
00000050: b9f5 143d e5f7 163e fa85 623d 580b 293e
00000060: 66f2 683d 2bf1 c1bd 67ec 4dbd 41f6 eebc
00000070: 4494 ac3d c56b 873d 1c61 05be 325f f13d
00000080: 5149 a5bc 7bf0 823d 7596 06bd e58f 3c3d
00000090: d2b0 093e 2ec2 38be f6ba 91bc 47e3 31be
000000a0: 944b 5cbb a3c3 cc3c 98dd 0cbe 596f 10bd
000000b0: e69d 1f3e ec6c 713d 156d 503d 5c9f 633a
000000c0: c504 7f3d 9d3c 253c 4d51 2abd d1af 8cbd
000000d0: da4f cf3d 2b9f 783c d13b f2bd 8a80 dd3d
000000e0: 03e0 dd3d d869 5d3d d7bc 62bc b748 48be
000000f0: 9501 df3d 8eb3 f83d 1376 113e ec4a ecbd
00000100: d620 0abe 5c89 7f3d 57cc 14be f022 963d
00000110: 4025 173e ac6b 463e 84de ebbd 3005 a3bd
00000120: 9773 143e 06a1 273e f657 bb3d 06fc dbbc
00000130: ee97 093e 9eaa a13d bd68 2d3e cbe4 2ebd
00000140: 34c7 d1bd 7a05 183e 25c3 7cbd 86db 0c3e
00000150: 5b25 053d 160c 1dbe 1d2d 32be 9f1f ec3d
00000160: 8d88 cf3d 200d 15be 344e f8bc dfe5 a8bc
00000170: 0547 d8bd 4d0e bbbc c814 15be 23ad 003d
00000180: 7576 ce3d bc0b d7ba 6fb0 813d 7d1e 993d
00000190: 678e 82bd 3619 88bc e92f e13d 5050 3dbe
000001a0: b5ae a63b b25c 1ebe 680c 2b3d 01d3 f2bd
000001b0: 5bd7 13be 837b 86bd 17fb 1b3e a059 cb3d
000001c0: ef84 da3d e291 bcbd 5cee bfbd c717 17be
000001d0: f1f8 99bc 4448 c2bc 4586 19bd fd48 b7bc
000001e0: 566b 6f3d 5d1b b9bd efda f9bd b3ea 433d
000001f0: d976 12bc 2c02 e4bd aa4b ccbd a993 0dbd
00000200: aa6d 393b be61 0c3d b40d cabd 62e3 393e
00000210: cfb3 30be 4c5c 033d e9f7 273e cc77 74bd
00000220: f232 91bd aa86 3539 3b70 38be bd08 2abe
00000230: 78df 4abd 727f 89bd 533d d23d 949f 95bd
00000240: 438c bf3c 2fb7 e0bc 7cbe 893d 26d1 32be
00000250: 0324 39bd c7d1 c33d 37f7 013e 9c7a 433d
00000260: bd1c 943d d80b 1b3c 8329 073e 2a88 0a3c
00000270: daf2 a53c 0028 05be cb93 b43d 8f26 853d
00000280: d2b5 00bb dd2f 35bd 06c1 b53d 6a77 bbbd
00000290: a858 d9bd 6e1a 5c3d ef36 b0bd 1b4c e93d
000002a0: 3895 0cbe 77ee 18be 1402 48be 8fe4 32be
000002b0: 7abf 063d 75d1 40be a08b d5bd 45f4 1dbe
000002c0: 6279 063e 5a3a d0bd 9bbf e4bd 0df6 a4bd
000002d0: aff5 25bd f3f9 4a3b 2497 2c3d 8d8d 81bc
000002e0: d3c2 4ebe e7e9 0a3e 0d1a f4bd 854b 19bd
000002f0: 93b0 283e d89a d53c c9e7 a73d f9eb e23d
00000300: e3f6 373d 945b 423a ad75 853b a0ab c13d
00000310: b864 15be 32ea 73bd 5a29 c0bd 595a 35bd
00000320: 0673 fb3d ab3a f23c 6500 fbbc b2a0 fe3b
00000330: ffbf dfbb 1454 45bd a770 513c b9b9 90bc
00000340: 1bf3 70bb 71f8 76bd 9bfb 49be 5c04 9ebd
00000350: 7e70 e5bd 12b3 253d 275e cabc 36e8 5d3d
00000360: 5a66 dc3d 83ed 31be 3ef0 98bc 5b17 fa3d
00000370: 1002 163e 43cb e5bd dbf6 efbd 801a 02be
00000380: 4913 28bc 05f5 cabd d19e 2b3e 2ac0 8bbd
00000390: 0e8d 913d aa0f ce3d 23c0 6e3c f96b 243d
000003a0: deb5 6ebd d8e9 2c3e c87e 00be a3d1 28be
000003b0: 5c71 2d3e 341d 2bba bd95 9ebd 003e 633d
000003c0: bb13 83bd b87f 1fbe ff97 e0bc 31e7 38be
000003d0: a5ef 453d f8bb ffbd 2669 febd 31a5 6cbd
000003e0: 0dc1 fdbd ab4b 063e dec2 abbc ccc9 42bb
000003f0: 70bf 043e 47e7 05be 0188 e63d 1e96 713c

network.0.bias f4 [256]
-0.013299525 -0.16060545 -0.08457918 0.1375287 -0.10415413 0.09795117 0.027341524 0.11550589
0.15227923 -0.116021335 -0.06118379 -0.01673592 -0.061683778 0.09470465 -0.005322409 -0.14554355
0.17338508 0.09462037 -0.13890846 0.0057344874 -0.09561939 0.041571103 -0.014315099 0.0006940745
0.19573677 -0.15165463 0.04443693 -0.027076274 0.10052913 -0.110240646 0.06823367 -0.029654345
0.058051422 -0.06071082 0.12890421 0.049278412 -0.030819017 -0.01331471 0.180479 -0.004574079
-0.107545584 0.051453024 0.0069667487 0.014687286 0.17183559 0.17779876 0.03135055 -0.10094157
-0.083344504 -0.026076896 0.09634567 0.12993191 0.045305565 -0.060301393 0.119016625 -0.048511118
0.044618376 -0.0907768 0.15719195 0.107786395 -0.10019328 0.032560658 0.13833152 -0.1723472
-0.057189707 0.03240737 0.02895219 -0.12588292 0.05839807 0.07608056 0.010265926 0.08449885
0.03890068 -0.12627943 0.08396699 -0.09661581 0.13240717 -0.091383465 0.10482051 -0.006113527
0.17137136 0.12585403 0.03332962 -0.046423793 0.15069997 0.08348643 -0.13506688 -0.08661472
-0.13587517 0.13462375 -0.09941838 0.18900141 0.033279553 -0.014327067 0.006536322 0.0865297
-0.040173326 -0.016025385 -0.12764761 -0.051872965 0.15967372 0.13931794 0.11664527 0.018275807
-0.10953806 -0.054020066 -0.16539559 -0.16924606 0.16602632 -0.18223798 0.011713067 -0.0012711458
-0.02273478 0.022246266 -0.04593291 0.1398746 0.08454557 0.14754362 -0.053412825 -0.16921179
-0.13833429 0.0883155 -0.16524866 0.06895641 -0.026326755 -0.012003607 -0.019782674 -0.042260587
-0.17802338 0.028143281 0.025369478 0.092604205 -0.062091365 -0.16424556 0.02289409 0.027390799
0.13828431 0.027484166 0.09979812 0.13973707 0.17874706 0.16357592 0.084251046 0.10141825
0.07947733 0.049073525 -0.10543598 0.16933316 -0.15175425 -0.0981715 -0.039869264 -0.1784115
-0.14780791 -0.084429935 0.035839945 0.14947303 -0.16687088 -0.16209802 0.09625146 0.18899299
-0.060307465 0.105180666 0.006756793 0.07638788 -0.15035564 0.15066558 0.12959787 0.075344935
0.09654686 -0.009861396 0.17137164 -0.07234622 -0.049017884 0.1377894 -0.14009593 0.053684775
-0.11778176 -0.11519575 -0.062203314 -0.01868461 0.1579714 -0.04556104 0.14315772 0.14629999
-0.04539102 0.09401062 0.0033804064 -0.12882696 0.14642164 -0.05647718 -0.1318967 -0.019073278
-0.11942829 0.14309265 0.063982055 0.11651427 -0.118510365 -0.12067579 0.07728628 0.121143125
0.06127047 -0.015406606 0.04667201 -0.018272344 0.0684116 -0.013396432 -0.13397293 0.14265797
0.10294359 -0.12378007 -0.08897456 0.14830065 -0.07591731 -0.13862851 -0.091117695 -0.1492764
-0.08935973 0.08542287 -0.063678674 -0.14856505 -0.0079898415 -0.023611719 -0.15866907 0.1348789
0.013966817 -0.09778253 0.13464917 -0.11523698 0.07117836 -0.05615479 0.029269664 -0.021904211
0.07853708 -0.028393444 0.14957352 -0.03637063 -0.09313063 -0.089233935 -0.038927156 -0.100254126
-0.16451928 0.14172833 -0.122792974 -0.15846398 -0.07630446 -0.021023287 -0.0926856 -0.034988496
0.17221995 -0.07226289 0.14180306 -0.0307521 -0.010277138 -0.065726385 0.0009449534 -0.09440106
00000000: 40e6 59bc c175 24be d937 adbd 53d4 0c3e
00000010: c34e d5bd 9f9a c83d 55fb df3c 5a8e ec3d
00000020: 16ef 1b3e 989c edbd db9b 7abd c519 89bc
00000030: 21a8 7cbd 83f4 c13d 9a67 aebb 5e09 15be
00000040: dc8b 313e 53c8 c13d 053e 0ebe 5ee8 bb3b
00000050: 19d4 c3bd 7646 2a3d e189 6abc 8df2 353a
00000060: 386f 483e 5a4b 1bbe 8003 363d 10cf ddbc
00000070: 37e2 cd3d d9c5 e1bd 18be 8b3d abed f2bc
00000080: 54c7 6d3d e9ab 78bd 77ff 033e 29d8 493d
00000090: 2a78 fcbc f125 5abc 7dcf 383e 28e2 95bb
000000a0: dc40 dcbd 68c0 523d 5349 e43b f1a2 703c
000000b0: abf5 2f3e e110 363e 6f69 003d 74ba cebd
000000c0: 86b0 aabd 379f d5bc e150 c53d df0c 053e
000000d0: 5492 393d 98fe 76bd fdbe f33d 98b3 46bd
000000e0: c2c1 363d 30e9 b9bd edf6 203e 1dbf dc3d
000000f0: 2232 cdbd 535e 053d c7a6 0d3e c97b 30be
00000100: c13f 6abd 97bd 043d 252d ed3c 74e7 00be
00000110: d132 6f3d 20d0 9b3d 6a32 283c bc0d ad3d
00000120: 5256 1f3d 654f 01be e3f6 ab3d 83de c5bd
00000130: bf95 073e 4127 bbbd 23ac d63d fb53 c8bb
00000140: f97b 2f3e e1df 003e a484 083d e026 3ebd
00000150: 1851 1a3e effa aa3d f94e 0abe 0f63 b1bd
00000160: dc22 0bbe cfda 093e dd9b cbbd 9689 413e
00000170: 2450 083d 13bc 6abc a52e d63b 7c36 b13d
00000180: c98c 24bd ab47 83bc 0eb6 02be bf78 54bd
00000190: 8281 233e 5da9 0e3e b7e3 ee3d 25b7 953c
000001a0: 7e55 e0bd 2544 5dbd 765d 29be d74e 2dbe
000001b0: ce02 2a3e 989c 3abe 2ae8 3f3c 939c a6ba
000001c0: 4a3e babc cd3d b63c 2624 3cbd 4a3b 0f3e
000001d0: 3a26 ad3d ad15 173e 68c7 5abd db45 2dbe
000001e0: 81a7 0dbe c2de b43d f236 29be 0539 8d3d
000001f0: 35ab d7bc c7aa 44bc 460f a2bc 7019 2dbd
00000200: c34b 36be bd8c e63c a7d3 cf3c 46a7 bd3d
00000210: 8453 7ebd fd2f 28be 638c bb3c ab62 e03c
00000220: 679a 0d3e 7926 e13c f562 cc3d 3c17 0f3e
00000230: 7809 373e 7280 273e d08b ac3d 5fb4 cf3d
00000240: 03c5 a23d 5201 493d d2ee d7bd ac65 2d3e
00000250: 7765 1bbe 240e c9bd f44d 23bd 81b1 36be
00000260: f55a 17be 9ae9 acbd e8cc 123d 750f 193e
00000270: 33e0 2abe 06fd 25be 7c1f c53d 6187 413e
00000280: f604 77bd f668 d73d 1668 dd3b 4071 9c3d
00000290: d4f6 19be 1448 1a3e 4eb5 043e 724e 9a3d
000002a0: 5cba c53d b191 21bc 0c7c 2f3e 412a 94bd
000002b0: fac6 48bd aa18 0d3e 4f75 0fbe 91e4 5b3d
000002c0: 9037 f1bd c0eb ebbd e7c8 7ebd 7810 99bc
000002d0: 41c3 213e 379e 3abd f097 123e aacf 153e
000002e0: efeb 39bd a488 c03d cf89 5d3b 37eb 03be
000002f0: 8eef 153e 9e54 67bd ee0f 07be 903f 9cbc
00000300: d296 f4bd e186 123e 0609 833d 099f ee3d
00000310: 90b5 f2bd de24 f7bd 4548 9e3d e319 f83d
00000320: bff6 7a3d fd6b 7cbc 262b 3f3d e2af 95bc
00000330: 621b 8c3d b57c 5bbc 3330 09be ee14 123e
00000340: 17d4 d23d 6880 fdbd 4b38 b6bd 20dc 173e
00000350: 897a 9bbd a2f4 0dbe ea9b babd eadb 18be
00000360: 3c02 b7bd 30f2 ae3d f769 82bd 7021 18be
00000370: d3e7 02bc 5d6d c1bc 257a 22be b21d 0a3e
00000380: 14d5 643c 3542 c8bd 79e1 093e 5e01 ecbd
00000390: f6c5 913d 9102 66bd efc6 ef3c 7670 b3bc
000003a0: 0cd8 a03d 5e99 e8bc cd29 193e 5ff9 14bd
000003b0: 46bb bebd 48c0 b6bd 1572 1fbd 0952 cdbd
000003c0: be77 28be 3b21 113e e27a fbbd 6244 22be
000003d0: 8345 9cbd 0739 acbc f3d1 bdbd 1950 0fbd
000003e0: 6d5a 303e 91fe 93bd d234 113e d4eb fbbc
000003f0: 7161 28bc 8e9b 86bd c0b6 773a 5855 c1bd

network.3.weight f4 [128, 256]
0.053134553 0.010139905 -0.01377869 -0.02214501 -0.007376329 -0.012436048 -0.0064606406 -0.0593283
0.052978676 -0.0643772 -0.0006611454 -0.034273982 0.042279962 0.0032634921 -0.044450622 0.044694465
0.0066809813 0.054752164 0.04020581 -0.052871127 -0.056674648 -0.048174288 0.068350434 -0.016641075
-0.03072852 0.057706594 -0.021495143 -0.04174592 -0.0074220696 0.029106803 -0.033427153 0.04375125
0.051125735 0.025159208 0.019317044 -0.042616103 -0.013963119 0.0319473 -0.019005563 0.030411713
0.004251205 -0.03150531 -0.040337816 0.052201524 0.06310168 0.06813398 0.061085347 -0.0078077586
0.07476108 -0.042268716 0.058069415 -0.024808308 0.06926357 -0.056533393 -0.045467008 0.05064109
0.015360966 0.017837765 -0.066877306 -0.0111470055 0.010621704 0.061715316 -0.0453593 -0.0632408
0.056551024 -0.045376074 0.02117126 0.011225717 -0.037651494 0.028222578 0.0021822257 0.0009307647
-0.03210804 -0.0037901811 0.02262716 0.05161044 -0.01564141 0.033639356 0.055679962 -0.00081184343
-0.043974772 0.025057686 0.037334606 0.023647718 0.0552736 -0.031084513 -0.06258188 0.043129086
-0.01633325 -0.01028932 0.048915308 0.004885763 -0.013417148 -0.033588454 0.002545176 -0.01817645
0.07221462 -0.027056735 0.03233764 0.0024221523 -0.016121384 -0.0010514604 -0.04091753 0.0708299
-0.022687802 0.049388763 -0.0048301914 0.00336298 -0.017231708 0.04248547 0.024394428 0.0011802879
-0.057140972 -0.0007108642 0.04123918 0.04727912 0.049292963 0.035339803 -0.012432694 0.05668788
0.012190085 -0.05044611 -0.0755395 0.06606252 -0.06539001 0.031665076 0.024541328 -0.037406966
-0.047775425 0.026137335 0.055198744 -0.013359217 0.054622542 0.014610047 -0.00018186664 -0.017613353
-0.061068732 -0.014175822 0.032992397 -0.019506956 0.06571287 0.049981907 -0.02213392 -0.0016592856
0.045080774 -0.0037241539 0.032242645 -0.050199993 -0.033042595 -0.03503447 -0.054721937 -0.020720666
-0.0026768711 -0.04027885 0.07560874 0.0770048 0.03834535 0.05816457 -0.06511368 0.054365255
-0.005203866 -0.034856047 -0.015485801 0.011769456 -0.0054411744 0.009014182 0.03510799 0.038437545
-0.040047448 -0.029501949 0.01728272 0.0475677 0.016040912 0.0098209735 -0.018395027 0.019341175
0.07483884 -0.036532998 -0.04565324 -0.05549243 0.03079192 0.004723653 0.043359343 0.027055902
0.06545793 -0.050890744 0.013463678 0.03210709 0.05188234 -0.053366143 -0.057891104 -0.021971218
-0.0062589324 0.07548624 0.03657442 0.055520326 0.029215088 -0.044002928 0.027475975 -0.057810437
0.05711035 0.009886106 0.027354445 0.015180392 -0.02589236 -0.06283291 -0.027062634 -0.04997285
-0.034960397 -0.008762666 -0.027411047 0.04377557 0.0027488885 -0.03909464 -0.032182395 -0.06473364
-0.0033724862 -0.05108638 0.0098515395 0.058808006 -0.03459617 0.047190424 -0.014302521 -0.0025438324
0.042581636 -0.0138516445 0.032757964 0.043605015 -0.026753277 -0.0026558212 0.06307855 0.07516722
-0.0024482775 -0.00074331794 0.033282828 0.028059497 -0.043969132 -0.0044531142 0.046863794 0.052725393
-0.04656412 -0.004445618 0.038201876 0.00092432747 -0.052901063 0.0648769 0.016139844 0.0044748452
0.012439077 -0.014305636 -0.042784423 -0.039221916 -0.0029833196 -0.036984306 -0.005229399 0.036854677
00000000: 9ea3 593d d821 263c 04c0 61bc 7469 b5bc
00000010: 22b5 f1bb 91c0 4bbc c8b3 d3bb 3b02 73bd
00000020: 2b00 593d 32d8 83bd b750 2dba e062 0cbd
00000030: c12d 2d3d 50e0 553b db11 36bd 8b11 373d
00000040: 22ec da3b ce43 603d d9ae 243d 658f 58bd
00000050: ad23 68bd 6752 45bd 50fb 8b3d dd52 88bc
00000060: 61ba fbbc c05d 6c3d 9516 b0bc c5fd 2abd
00000070: d534 f3bb 6471 ee3c e9ea 08bd 8334 333d
00000080: 3869 513d af1a ce3c c73e 9e3c 398e 2ebd
00000090: 91c5 64bc 2cdb 023d 8eb1 9bbc fc21 f93c
000000a0: b14d 8b3b b60b 01bd 4439 25bd 44d1 553d
000000b0: 743b 813d d489 8b3d a134 7a3d 3ad8 ffbb
000000c0: 561c 993d f621 2dbd 32da 6d3d cb3a cbbc
000000d0: 0fda 8d3d 8f8f 67bd 9d3b 3abd 086d 4f3d
000000e0: 90ac 7b3c 8120 923c f8f6 88bd eea1 36bc
000000f0: a806 2e3c 33c9 7c3d acca 39bd 6484 81bd
00000100: 0ca2 673d 43dc 39bd 5a6f ad3c 12ec 373c
00000110: 7438 1abd 0933 e73c ac03 0f3b 90fe 733a
00000120: b883 03bd b064 78bb 985c b93c 7865 533d
00000130: 6a22 80bc 6cc9 093d ac10 643d e4d1 54ba
00000140: e41e 34bd c745 cd3c 2cec 183d dcb8 c13c
00000150: 9266 623d f3a4 febc ee2a 80bd 20a8 303d
00000160: 4fcd 85bc 8994 28bc 6b5b 483d c018 a03b
00000170: 99d3 5bbc 0c94 09bd f8cc 263b c7e6 94bc
00000180: 42e5 933d 16a6 ddbc 7974 043d f9bc 1e3b
00000190: fe10 84bc 28d1 89ba 2499 27bd 440f 913d
000001a0: c5db b9bc df4b 4a3d 9546 9ebb 7165 5c3b
000001b0: 8329 8dbc 3f05 2e3d d3d6 c73c e4b3 9a3a
000001c0: a70c 6abd 4a59 3aba 6aea 283d c0a7 413d
000001d0: 6be7 493d 78c0 103d 80b2 4bbc 8d31 683d
000001e0: ecb8 473c 95a0 4ebd 74b4 9abd c94b 873d
000001f0: 33eb 85bd 3db3 013d e50a c93c 0c38 19bd
00000200: 2ab0 43bd f71d d63c 1418 623d 9ee0 5abc
00000210: e3bb 5f3d fb5e 6f3c 74b3 3eb9 e149 90bc
00000220: 3523 7abd b541 68bc 0923 073d 0dcd 9fbc
00000230: 7894 863d d4b9 4c3d 3252 b5bc 637c d9ba
00000240: 9ea6 383d ef10 74bb dd10 043d 829e 4dbd
00000250: ac57 07bd 4e80 0fbd 1c24 60bd 63be a9bc
00000260: 726e 2fbb 6ffb 24bd c1d8 9a3d b1b4 9d3d
00000270: 0410 1d3d f93d 6e3d 525a 85bd 1aae 5e3d
00000280: 3185 aabb 37c5 0ebd 28b8 7dbc add4 403c
00000290: e14b b2bb 38b0 133c 65cd 0f3d b070 1d3d
000002a0: cb08 24bd 12ae f1bc 7e94 8d3c 59d6 423d
000002b0: 3b68 833c 26e8 203c 2bb1 96bc 6271 9e3c
000002c0: 1b45 993d a0a3 15bd e4fe 3abd 084c 63bd
000002d0: 563f fc3c e0c8 9a3b 9199 313d 57a4 dd3c
000002e0: cf0e 863d d072 50bd c296 5c3c b982 033d
000002f0: 9482 543d 7596 5abd 391f 6dbd fcfc b3bc
00000300: bb17 cdbb 8898 9a3d 0fcf 153d 4869 633d
00000310: 7b54 ef3c 6a3c 34bd 4c15 e13c a3ca 6cbd
00000320: 8bec 693d 55f9 213c 6e16 e03c 2eb7 783c
00000330: 371c d4bc 8aae 80bd 75b2 ddbc 55b0 4cbd
00000340: a232 0fbd 4991 0fbc 228d e0bc 034e 333d
00000350: b226 343b b421 20bd b0d1 03bd 1293 84bd
00000360: ee04 5dbb f43f 51bd 5a68 213c aae0 703d
00000370: b7b4 0dbd bf4a 413d 1f55 6abc 6db6 26bb
00000380: 156a 2e3d 02f2 62bc 372d 063d 2c9b 323d
00000390: b029 dbbc 490d 2ebb 542f 813d 45f1 993d
000003a0: 4873 20bb 39db 42ba 9353 083d 08dd e53c
000003b0: fa18 34bd 6eeb 91bb 40f4 3f3d 95f6 573d
000003c0: 05ba 3ebd 8cac 91bb 9279 1c3d 914e 723a
000003d0: c9ae 58bd 2ede 843d b537 843c b9a1 923b
000003e0: 45cd 4b3c 3062 6abc b83e 2fbd 29a7 20bd
000003f0: cc83 43bb db7c 17bd 615b abbb eef4 163d

network.3.bias f4 [128]
-0.013552121 -0.0036368417 -0.039596118 -0.048828833 -0.009174777 -0.037378512 -0.0054891473 0.00062619866
-0.0328127 0.06252239 -0.023295425 0.038266394 0.021556102 -0.0011991734 -0.051159438 0.016121102
-0.0034809036 -0.017584862 0.02894601 0.013322064 -0.054397218 0.00925826 -0.014565405 -0.028657412
0.0642343 -0.00081989565 -0.03206049 -0.04639724 0.025949188 0.04093742 -0.039565388 -0.041010745
0.006862435 -0.06009748 -0.049680177 0.0016458911 0.010944966 0.04290255 0.02732409 0.06637804
0.053576417 -0.027146053 -0.007977065 0.014569887 0.021945974 0.009001205 -0.014800853 0.04262366
-0.0043153893 0.034117393 -0.026647652 0.010038031 0.023353381 -0.043958556 -0.01175507 -0.03192801
0.009535104 0.06891543 -0.002026739 0.0026335458 -0.005279819 -0.048236918 0.01726945 -0.03272863
0.045458063 0.032599106 0.025505546 -0.0009206411 -0.006736769 0.015718434 0.02849853 0.033259533
-0.013719702 0.062323812 0.068703115 0.021276494 0.021030826 0.045763034 -0.026113626 0.03786971
-0.033013422 -0.0025530388 0.0016424785 -0.0074758856 0.050097737 -0.013989026 0.020083807 -0.017322868
-0.03576391 0.037499044 0.05239997 0.07156239 0.058634 0.047770787 0.046282105 0.06479415
0.02598443 0.033219565 0.055544708 -0.038828902 0.009162937 -0.010661538 0.024349252 0.039327573
0.05090751 0.029896382 0.063940264 -0.04142102 0.009417198 0.045541126 0.009213356 -0.019313002
0.05830228 -0.042976502 0.0066882204 0.02657839 0.07334803 -0.035537276 0.054159164 -0.035635002
0.025222935 0.015191995 0.028106578 -0.03097142 -0.033551916 0.030197863 0.010209453 -0.06871107
00000000: b709 5ebc 1458 6ebb 8a2f 22bd be00 48bd
00000010: ce51 16bc 361a 19bd 4ede b3bb 7b27 243a
00000020: 9c66 06bd bd0b 803d 0cd6 bebc 39bd 1c3d
00000030: 6c96 b03c 952d 9dba 8f8c 51bd 6710 843c
00000040: df1f 64bb 210e 90bc 2f20 ed3c c944 5a3c
00000050: 9ecf 5ebd f5af 173c bda3 6ebc f3c2 eabc
00000060: 468d 833d 44ee 56ba dc51 03bd 080b 3ebd
00000070: 6493 d43c ffad 273d 510f 22bd e2fa 27bd
00000080: 47de e03b c628 76bd 717d 4bbd f1ba d73a
00000090: 8452 333c 96ba 2f3d c5d6 df3c 36f1 873d
000000a0: f272 5b3d 6661 debc 3cb2 02bc 89b6 6e3c
000000b0: 0bc8 b33c ca79 133c 477f 72bc 2696 2e3d
000000c0: 1c68 8dbb aebe 0b3d 2d4c dabc 8e76 243c
000000d0: 974f bf3c e30d 34bd 5698 40bc f2c6 02bd
000000e0: 2039 1c3c 8823 8d3d 0ad3 04bb 9197 2c3b
000000f0: 5502 adbb 1394 45bd a978 8d3c 750e 06bd
00000100: 3c32 3a3d a486 053d 02f1 d03c 2e57 71ba
00000110: 1dc0 dcbb f2c3 803c c075 e93c 263b 083d
00000120: 9ac8 60bc 4147 7f3d 38b4 8c3d 0b4c ae3c
00000130: d748 ac3c 0572 3b3d 3eec d5bc 451d 1b3d
00000140: 1539 07bd e250 27bb 6f48 d73a 46f8 f4bb
00000150: 4933 4d3d 3a32 65bc cc86 a43c b0e8 8dbc
00000160: 2d7d 12bd 9998 193d 5aa1 563d 4d8f 923d
00000170: 352a 703d 4dab 433d 4e92 3d3d ccb2 843d
00000180: 4ddd d43c 3d11 083d d982 633d 0e0b 1fbd
00000190: 2520 163c bbad 2ebc 1578 c73c f315 213d
000001a0: 6584 503d 42e9 f43c 1df3 823d 16a9 29bd
000001b0: 974a 1a3c 5589 3a3d 9ef3 163c 4d36 9ebc
000001c0: 5fce 6e3d 2108 30bd dc28 db3b ecba d93c
000001d0: 7e37 963d 898f 11bd 00d6 5d3d 02f6 11bd
000001e0: 54a0 ce3c d8e7 783c c43f e63c c7b7 fdbc
000001f0: bc6d 09bd 8261 f73c 8d45 273c 64b8 8cbd

network.6.weight f4 [64, 128]
0.0040432047 -0.013873962 -0.0018301449 0.098411754 0.017393118 0.100121304 0.08726689 -0.044280164
0.10042115 0.0367627 0.023467788 -0.011327435 -0.0048590726 -0.071679346 -0.023973785 0.10133832
0.044123612 -0.08197129 0.06465905 0.0065420293 0.07446227 -0.02173477 0.047890663 0.043355517
0.099707805 -0.01528364 0.06712863 0.00818109 0.00075721747 -0.034192823 0.060618892 -0.045378197
0.040379282 0.00088867254 0.054870244 -0.038952164 0.024072228 0.015312385 -0.020487502 0.05417718
0.013891909 0.05570769 -0.045158956 -0.074214 0.010183365 0.09032716 0.06468435 0.009257679
0.07743142 0.09394467 0.09092974 0.10547864 -0.004016776 0.06996808 0.06743018 -0.011932451
-0.08051943 -0.045656662 -0.030218294 0.10737974 0.08640092 -0.07922136 0.008298221 0.025178313
0.0549041 -0.005131752 0.0931289 0.0318466 -0.058127783 0.08072534 -0.03297328 0.12721837
0.08084016 0.0046425094 0.0535454 -0.0231537 -0.005143474 -0.02365808 -0.0048750965 -0.029632157
0.05606506 0.052573763 -0.015084374 0.0661633 0.01080417 0.032482836 0.10549775 -0.07834195
0.1055763 0.057324726 0.016122503 -0.019082148 0.04245619 0.088265195 -0.030854767 0.015794713
-0.040052164 0.117041305 -0.036738005 -0.048148997 -0.024652641 0.029259115 0.030993532 -0.047706056
-0.073430024 0.00012228478 -0.020199824 -0.024666194 -0.063759424 0.079704046 0.040804576 -0.03539936
0.08519012 -0.038153417 -0.020565104 0.03386556 0.035501428 0.095917724 0.022402046 0.11962183
-0.0097543765 0.0050403015 0.08765859 -0.03630513 -0.0021109402 0.04792619 0.04502754 0.061819214
0.06327221 0.005656021 0.038792267 0.08642951 0.035161506 0.07456371 -0.07041518 0.039392605
-0.0049048793 0.05377761 -0.06429871 0.03198992 -0.07977482 0.00036392442 0.0365353 -0.07967365
0.028681377 0.09579833 0.020901313 0.050916158 -0.03802662 -0.06818915 0.04776783 -0.052621678
-0.07365204 0.027831348 0.03326045 -0.05204721 -0.04153098 -0.07243712 -0.026153227 0.045854736
-0.065348685 0.061212964 -0.0036232125 -0.10789002 -0.014726109 -0.08269485 -0.048198957 -0.095498115
-0.06555672 -0.011750655 0.026174497 -0.014554307 -0.0651472 0.07057429 -0.010414282 -0.030627329
-0.07739882 -0.00814194 -0.0059332396 0.0061633703 -0.021710588 0.010173298 -0.08126401 -0.05641067
0.031804543 0.012555226 -0.008333434 -0.06236376 0.0020267782 -0.020720892 0.06720688 -0.060852945
0.07957658 0.0044212407 0.0506754 -0.094726235 0.035369974 0.07657237 -0.029956592 -0.08946341
0.017616456 -0.018956704 0.04567705 -0.091584966 0.11511751 -0.06659509 -0.056111112 0.013953026
0.060221363 -0.01163742 0.028432187 -0.019932695 -0.07820262 0.056992985 0.032117736 0.0950492
-0.09974353 -0.048573814 -0.038328964 0.0089861145 -0.048147738 -0.06742868 0.010162875 -0.033541854
0.03047483 -0.00727862 0.060377855 -0.07802647 -0.038841203 0.052225366 -0.059697464 0.016550202
0.0075143278 0.009622659 -0.009040359 0.06751652 -0.010854856 -0.0014595971 -0.09279282 0.036944564
-0.08423012 -0.01450124 0.10267936 -0.007409677 0.030804502 0.050874427 0.035526425 -0.041946888
-0.08227078 -0.04876038 0.051824003 0.03452342 0.04834146 -0.03407328 -0.06697627 0.040490028
00000000: dc7c 843b 9d4f 63bc 79e1 efba 1a8c c93d
00000010: 037c 8e3c 660c cd3d fcb8 b23d 1e5f 35bd
00000020: 9ba9 cd3d 7c94 163d 853f c03c b596 39bc
00000030: db38 9fbb 9fcc 92bd ac64 c4bc 778a cf3d
00000040: f6ba 343d 90e0 a7bd f76b 843d 855e d63b
00000050: ad7f 983d 1e0d b2bc 0029 443d 8e95 313d
00000060: 9b33 cc3d 3b68 7abc bc7a 893d fa09 063c
00000070: 0180 463a c60d 0cbd 844b 783d 7dde 39bd
00000080: bf64 253d cef5 683a 9fbf 603d 4e8c 1fbd
00000090: 1f33 c53c cce0 7a3c 68d5 a7bc e4e8 5d3d
000000a0: e49a 633c bf2d 643d 99f8 38bd 82fd 97bd
000000b0: 21d8 263c 72fd b83d 3a79 843d 85ad 173c
000000c0: 5d94 9e3d 1066 c03d 5f39 ba3d 2f05 d83d
000000d0: 299f 83bb 6d4b 8f3d d618 8a3d 5480 43bc
000000e0: 5fe7 a4bd 7b02 3bbd 5b8c f7bc e9e9 db3d
000000f0: f7f2 b03d cf3e a2bd 43f5 073c c042 ce3c
00000100: 1fe3 603d 4228 a8bb 5dba be3d 9571 023d
00000110: 6617 6ebd 5453 a53d fd0e 07bd 8845 023e
00000120: 878f a53d 3120 983b 6c52 5b3d d4ac bdbc
00000130: 968a a8bb 97ce c1bc 46bf 9fbb 23bf f2bc
00000140: 7aa4 653d 9657 573d 7324 77bc a080 873d
00000150: f903 313c b90c 053d 340f d83d bf71 a0bd
00000160: 6338 d83d 55cd 6a3d 5713 843c 2a52 9cbc
00000170: 8be6 2d3d 62c4 b43d 23c3 fcbc ea63 813c
00000180: bd0d 24bd 5ab3 ef3d 977a 16bd e237 45bd
00000190: 56f4 c9bc d0b0 ef3c 26e6 fd3c 6d67 43bd
000001a0: 7b62 96bd 9239 0039 1a7a a5bc c210 cabc
000001b0: 4d94 82bd e03b a33d b322 273d ebfe 10bd
000001c0: 2878 ae3d c246 1cbd 2678 a8bc 9db6 0a3d
000001d0: f269 113d 8370 c43d 7f84 b73c 4afc f43d
000001e0: d2d0 1fbc 1d29 a53b 5986 b33d b0b4 14bd
000001f0: b357 0abb 414e 443d cc6e 383d 2536 7d3d
00000200: dc94 813d 2556 b93b a4e4 1e3d f401 b13d
00000210: 8305 103d dcb4 983d d535 90bd 245a 213d
00000220: 1cb9 a0bb e945 5c3d 0baf 83bd dd07 033d
00000230: fb60 a3bd 1ccd be39 0aa6 153d f02b a3bd
00000240: 35f5 ea3c ea31 c43d 3b39 ab3c 768d 503d
00000250: cdc1 1bbd c1a6 8bbd 33a8 433d d489 57bd
00000260: e1d6 96bd 91fe e33c 1c3c 083d 752f 55bd
00000270: 641c 2abd ea59 94bd 4b3f d6bc 2dd2 3b3d
00000280: 88d5 85bd 72ba 7a3d 6b73 6dbb 71f5 dcbd
00000290: c745 71bc eb5b a9bd 456c 45bd 8494 c3bd
000002a0: 9a42 86bd d285 40bc e66b d63c 3075 6ebc
000002b0: e56b 85bd 4189 903d aaa0 2abc 2ae6 fabc
000002c0: 4683 9ebd c665 05bc 9f6b c2bb 19f6 c93b
000002d0: 67da b1bc e8ad 263c bf6d a6bd e00e 67bd
000002e0: 7b45 023d 6fb4 4d3c f588 08bc 2471 7fbd
000002f0: b2d3 043b dcbe a9bc c3a3 893d f040 79bd
00000300: 0cf9 a23d 0ee0 903b 0291 4f3d d4ff c1bd
00000310: 1be0 103d fad1 9c3d 8767 f5bc 9838 b7bd
00000320: 6350 903c 174b 9bbc dc17 3b3d e690 bbbd
00000330: bbc2 eb3d 0263 88bd c4d4 65bd 3c9b 643c
00000340: adaa 763d e1aa 3ebc 9eea e83c e449 a3bc
00000350: b228 a0bd 7a71 693d e38d 033d 28a9 c23d
00000360: 5646 ccbd 56f5 46bd d5fe 1cbd 7f3a 133c
00000370: 9036 45bd 0c18 8abd 3082 263c 2f63 09bd
00000380: 5aa6 f93c 7d81 eebb c54e 773d 58cc 9fbd
00000390: f417 1fbd 44ea 553d 5485 74bd 4a94 873c
000003a0: c03a f63b 5ba8 1d3c 041e 14bc 1a46 8a3d
000003b0: 91d8 31bc f44f bfba 290a bebd 2f53 173d
000003c0: d780 acbd 9c96 6dbc 8e49 d23d e0cc f2bb
000003d0: b959 fc3c b461 503d 2884 113d 80d0 2bbd
000003e0: 957d a8bd f7b8 47bd 6845 543d 6e68 0d3d
000003f0: b201 463d 6c90 0bbd db2a 89bd dfd8 253d

network.6.bias f4 [64]
-0.053269062 0.07725329 -0.03073884 -0.036714718 -0.055498388 0.029635679 -0.07962467 -0.016034557
-0.012870747 0.053006966 0.012393302 0.08892173 -0.02420366 -0.015196722 -0.022316212 0.08959504
-0.0279603 0.03521044 0.034860432 -0.08916361 0.008582739 -0.00093920255 0.02019399 0.10019425
-0.044454243 0.023666423 -0.01572291 -0.001572005 -0.04850468 0.0024551274 0.03338871 -0.006968242
0.015454156 -0.030242937 0.10268392 -0.062034927 0.070816524 0.08432605 0.09055847 0.014111481
-0.101262435 0.085637584 0.055471733 0.010121443 0.09764787 0.0523952 0.018887457 -0.037902765
0.082156405 0.048835576 0.029062642 0.08622486 0.06956561 0.01404027 -0.012478724 0.07252382
0.046615735 0.030243032 0.09128893 -0.023712577 0.0940503 0.002083717 0.09155986 0.002130025
00000000: a930 5abd f936 9e3d 05d0 fbbc 2c62 16bd
00000010: 4752 63bd 86c6 f23c 4212 a3bd e75a 83bc
00000020: d3df 52bc d51d 593d 470d 4b3c 991c b63d
00000030: c146 c6bc acfb 78bc 7dd0 b6bc 9b7d b73d
00000040: 000d e5bc d338 103d d0c9 0e3d 699b b6bd
00000050: 9e9e 0c3c d134 76ba de6d a53c a532 cd3d
00000060: a715 36bd 16e0 c13c 55cd 80bc bc0b ceba
00000070: d8ac 46bd 34e6 203b 9ac2 083d da55 e4bb
00000080: 6e33 7d3c 09c0 f7bc f24b d23d 5618 7ebd
00000090: 4108 913d 23b3 ac3d b876 b93d d733 673c
000000a0: ae62 cfbd c262 af3d 5436 633d 69d4 253c
000000b0: 9bfb c73d 599c 563d deb9 9a3c ee3f 1bbd
000000c0: 9e41 a83d d007 483d c714 ee3c a996 b03d
000000d0: 6a78 8e3d 2909 663c 9073 4cbc 5e87 943d
000000e0: 24f0 3e3d 3cc0 f73c b1f5 ba3d e140 c2bc
000000f0: 729d c03d f88e 083b bc83 bb3d e497 0b3b

network.9.weight f4 [1, 64]
-0.081339516 0.0971326 0.08361386 -0.11591229 0.13465326 0.13636318 0.008500479 -0.07692771
0.069162086 0.062396765 0.083912395 -0.062464934 -0.09466768 -0.043709975 0.16626152 -0.066992626
-0.12980145 -0.082886785 0.1219544 0.06910767 -0.06101922 -0.023937266 -0.031104177 0.045205217
0.08878258 -0.04687344 -0.13469644 0.10858986 -0.02751943 -0.08163697 -0.036638025 0.050286595
0.04981544 -0.13589491 -0.054635115 -0.0020778717 0.12073068 -0.105977245 0.07924866 0.12084595
0.002755848 0.115691215 0.057367098 -0.10615426 -0.06541265 -0.057526633 0.0260938 -0.09441765
0.10527186 -0.06902867 0.14022037 0.043325353 -0.09277843 0.06714843 -0.100557335 -0.108075835
-0.03773587 -0.07583677 -0.12811096 0.1244534 -0.07863595 0.09129831 -0.11566236 0.07137549
00000000: 5595 a6bd 75ed c63d be3d ab3d 6c63 edbd
00000010: 8be2 093e caa2 0b3e 9845 0b3c 468c 9dbd
00000020: daa4 8d3d c093 7f3d 43da ab3d 3bdb 7fbd
00000030: 21e1 c1bd 3b09 33bd 7640 2a3e 6e33 89bd
00000040: acea 04be 8cc0 a9bd 3ac3 f93d 5288 8d3d
00000050: 4aef 79bd 1618 c4bc 30ce febc 1b29 393d
00000060: a4d3 b53d 5dfe 3fbd dded 09be 5c64 de3d
00000070: 6d70 e1bc 4931 a7bd c111 16bd 51f9 4d3d
00000080: 460b 4c3d 0928 0bbe 12c9 5fbd e72c 08bb
00000090: a641 f73d 990a d9bd 1f4d a23d 157e f73d
000000a0: 759b 343b 84ef ec3d c3f9 6a3d 6867 d9bd
000000b0: 11f7 85bd 0ca1 6bbd aac2 d53c 0a5e c1bd
000000c0: c698 d73d e75e 8dbd ee95 0f3e ed75 313d
000000d0: 9e02 bebd 1e85 893d 01f1 cdbd dd56 ddbd
000000e0: ed90 1abd 4f50 9bbd 852f 03be 6de1 fe3d
000000f0: e30b a1bd 9cfa ba3d 63e0 ecbd 502d 923d
