projekt1/wandb/run-20251108_163137-8dba3ozs/files/best_model.pth (torch, 81101 bytes, 7 tensors)

network.0.weight f4 [128, 70]
0	0x3dbb21fe	0.09137343
1	0x3d8b06af	0.06788384
2	0xbd6e1196	-0.05812224
3	0xbc9f2c92	-0.019430432
4	0x3d1b4a7a	0.037912823
5	0xbcbb1304	-0.022836216
6	0xbdb13673	-0.086529635
7	0xbd1b802c	-0.03796403
8	0x3d072369	0.032992754
9	0x3c58872d	0.013215822
10	0x3daa47a7	0.08314448
11	0xbdc83cd4	-0.09777227
12	0x3d18d1df	0.037309524
13	0xbe08c4c8	-0.13356316
14	0x3dbe57c9	0.092940874
15	0xbe1f072e	-0.15530083
16	0xbd152863	-0.03641547
17	0xbd874242	-0.066044345
18	0x3ca058eb	0.01957365
19	0xbdb05c55	-0.08611361
20	0x3ca2b48d	0.019861484
21	0x3db87358	0.09006375
22	0x3da47251	0.080296166
23	0x3dcd3ff7	0.10021966
24	0x3c810e14	0.015753783
25	0xbd348918	-0.044076055
26	0xbcef26fd	-0.029193396
27	0xbaf775dd	-0.001887973
28	0x3d27d2fe	0.040972702
29	0xbcbbae40	-0.022910237
30	0xbddc87de	-0.10768102
31	0x3d8592ec	0.06522164
32	0xbda7944f	-0.081825845
33	0x3d59accb	0.053143304
34	0xbd903e6a	-0.070431545
35	0x3d16fbde	0.036861293
36	0x3daca53a	0.08429952
37	0xbdc4a1c8	-0.0960117
38	0xbc961f88	-0.018325582
39	0xbdc6770b	-0.096906744
40	0x3ce2aa47	0.027669085
41	0x3d4e57ab	0.050376575
42	0xbe02fdb1	-0.12792088
43	0xbc5fad39	-0.013652139
44	0x3dc0584a	0.0939184
45	0x3ce356cf	0.027751355
46	0x3d1274d6	0.035755955
47	0xbb38ce8c	-0.0028199283
48	0x3d5e5d53	0.05428822
49	0xbc08ecec	-0.008357268
50	0xbcf0d19f	-0.02939683
51	0xbd8a6f3d	-0.06759498
52	0x3d6456a8	0.055746704
53	0xbd04a239	-0.03238127
54	0xbd9a9eb3	-0.07549801
55	0x3ce50661	0.027957143
56	0x3d32d9de	0.043664806
57	0x3c1f13db	0.009709324
58	0xbd6dd09f	-0.058060285
59	0xbdf80077	-0.12109464
60	0x3d66034f	0.0561555
61	0x3d577f52	0.052611656
62	0x3d859bd7	0.06523865
63	0xbdbd01f7	-0.092288904
64	0xbdd196f9	-0.10233874
65	0x3c20d3d9	0.009816133
66	0xbdd01ee2	-0.101621404
67	0x3d2c287e	0.042030804
68	0x3d5d178b	0.05397753
69	0x3d32e8ce	0.04367905
70	0xbe090d02	-0.13383868
71	0xbcea03b7	-0.028566225
72	0x3e1c21cf	0.15247272
73	0x3db2511e	0.08706878
74	0x3db58f57	0.088652305
75	0xbd26b48c	-0.040699527
76	0x3e32d8ac	0.17465466
77	0x3b7d0d77	0.0038612762
78	0x3dd8d62d	0.10587726
79	0xbd394258	-0.045229286
80	0xbd2755b8	-0.040853232
81	0x3d091074	0.033462957
82	0xbe19cfb6	-0.15020642
83	0x3d1c4a2f	0.038156684
84	0xbd87c80b	-0.06629952
85	0xbe1bb4e6	-0.15205726
86	0xbdf7c01d	-0.120971896
87	0x3cfe111c	0.031014018
88	0x3d87a051	0.06622375
89	0xbd884e8b	-0.06655606
90	0xbd01f713	-0.03172977
91	0xbcc5360f	-0.024073629
92	0xbce3003e	-0.027710076
93	0xbcbb9d83	-0.022902256
94	0xbdb18bd3	-0.086692475
95	0x3d34ec7e	0.04417085
96	0x3d62d1dc	0.05537592
97	0xbc08652c	-0.0083249025
98	0x3dab1e94	0.08355442
99	0x3c724797	0.014787576
100	0x3a2aff15	0.00065229955
101	0x3b8df5b5	0.004332269
102	0x3df91dc4	0.121638805
103	0xbd38da64	-0.04513015
104	0x3daf88cd	0.085710146
105	0xbd9087d9	-0.07057161
106	0x3da6a7c2	0.08137466
107	0xbc8788f6	-0.0165448
108	0xbdcbdd81	-0.09954358
109	0xbcac6a4e	-0.021046784
110	0x3dafc7c2	0.08583023
111	0x3d60559f	0.054769155
112	0x3d74a4a7	0.059727337
113	0xbd4d077b	-0.050055962
114	0xbdce902d	-0.10086093
115	0xbdc2e978	-0.09517187
116	0x3d37a141	0.044831518
117	0x3d15a175	0.03653093
118	0xbca2b7b0	-0.01986298
119	0x3c9d2620	0.019183218
120	0x3d55194a	0.05202607
121	0xbdbb78e1	-0.09153915
122	0xbdacf6c8	-0.08445507
123	0x3d5c5557	0.053792324
124	0xbd03772d	-0.032096077
125	0xbde83af1	-0.11339367
126	0xbd9ced87	-0.07662492
127	0xbd7a6cb7	-0.061138835
128	0x3d78f61b	0.06078158
129	0x3c9bb0fe	0.019005295
130	0xbd8c6940	-0.06856012
131	0x3db11ccb	0.0864807
132	0xbe0998a7	-0.13437138
133	0x3d39c126	0.045350216
134	0x3dc045f5	0.09388343
135	0xbce2d308	-0.027688518
136	0xbd41b4d6	-0.0472916
137	0xbb930781	-0.0044869785
138	0xbdd64bd5	-0.104636826
139	0xbe001722	-0.12508824
140	0xbd4c5a64	-0.04989089
141	0xbdbc141d	-0.09183524
142	0x3dc7aea1	0.09750105
143	0xbd8028f1	-0.06257809
144	0x3df828b7	0.12117141
145	0xbd21b028	-0.039474636
146	0x3cd33318	0.0257812
147	0xbd8a92b7	-0.06766265
148	0xbc99c9a4	-0.018772908
149	0x3d3b8207	0.0457783
150	0x3e1db00a	0.15399185
151	0x3d68cbf1	0.05683512
152	0xbc486c76	-0.01223289
153	0xbb1b9326	-0.002373883
154	0x3d9a317f	0.07528972
155	0xbda4b5e0	-0.080425024
156	0x3cfee374	0.031114317
157	0xbe18e4bc	-0.14931005
158	0x3db96733	0.09052887
159	0xbb2bf476	-0.002623824
160	0xbd15f1cf	-0.03660756
161	0xbd2cb7c7	-0.04216745
162	0x3d5b3dc3	0.053525697
163	0xbdc17de7	-0.09447842
164	0xbd3d7323	-0.04625238
165	0x3d2ed31a	0.04268179
166	0xbdd35496	-0.10318868
167	0x3dc993ef	0.09842669
168	0xbdf6b0f8	-0.12045473
169	0xbe3e01bf	-0.18555354
170	0xbdc0647f	-0.09394168
171	0xbe086861	-0.13321067
172	0xbc8c0e48	-0.017096654
173	0xbda6138a	-0.081091955
174	0xbdbb1f42	-0.09136821
175	0xbd8a718f	-0.06759941
176	0x3e2a0375	0.16602881
177	0xbc0a43b2	-0.008438991
178	0xbdcca551	-0.09992469
179	0xbd5b6c4c	-0.053570077
180	0xbdb23eac	-0.0870336
181	0xbd0d5497	-0.0345045
182	0x3d162d27	0.036664154
183	0x3a8ec4fc	0.0010892446
184	0xbe043b85	-0.1291333
185	0x3e10883b	0.14114468
186	0xbd4811e2	-0.04884518
187	0x3d5987e4	0.05310811
188	0x3d8908ff	0.06691169
189	0xbb8fafb7	-0.0043849605
190	0x3ddb118a	0.10696705
191	0x3b0a2fc0	0.002108559
192	0xbc45cbeb	-0.012072544
193	0xbc98cb60	-0.018651664
194	0xbe0de291	-0.1385596
195	0xbd8161b5	-0.06317464
196	0xbe15f89d	-0.1464562
197	0xbd3f15a3	-0.046651494
198	0xbd13eeec	-0.036116526
199	0x3baee2be	0.0053370884
200	0x3df9348d	0.121682264
201	0x3b82c587	0.0039908323
202	0x3bce1fdd	0.0062904195
203	0xbb9ecde2	-0.0048463205
204	0x3dba15f7	0.09086221
205	0x3cfd8d87	0.030951275
206	0x3bc62511	0.006046899
207	0xbbbdeeda	-0.0057962956
208	0x3d83b4a9	0.064309426
209	0xbd37c6e2	-0.044867404
210	0xbdd5e132	-0.10443343
211	0xbd8bf64a	-0.06834085
212	0xbd65bd15	-0.056088526
213	0x3d3a6e06	0.045515083
214	0x3d154707	0.03644469
215	0x3d4ad14e	0.049516015
216	0x3d80ab16	0.06282632
217	0xbdf4a972	-0.11946382
218	0x3ac90062	0.0015335197
219	0x3d51133f	0.051043745
220	0x3e241afe	0.16025922
221	0xbc42ffd8	-0.011901818
222	0xbe2ece1c	-0.17070812
223	0xbd81183e	-0.06303452
224	0xbd63dda0	-0.05563128
225	0xbe027884	-0.12741286
226	0x3de12696	0.10993688
227	0xbe1c186e	-0.15243694
228	0x3d37a38e	0.044833712
229	0x3d9a846d	0.075447895
230	0xbba56bd9	-0.005048257
231	0xbb01a593	-0.0019782528
232	0x3c40337e	0.011731027
233	0x3daa4ace	0.08315049
234	0xbd98c169	-0.07458765
235	0xbdbfb76c	-0.09361157
236	0x3dc264f6	0.09491913
237	0x3d99f541	0.075174816
238	0x3b11dc86	0.0022256686
239	0x3d9e16e4	0.0771921
240	0xbcf82a8d	-0.030293727
241	0xbd8e6341	-0.06952525
242	0x3c66952c	0.014073651
243	0xbd36e2e8	-0.04464999
244	0x3d5f8068	0.054565817
245	0xbd88aac3	-0.06673195
246	0xbdd2cb57	-0.1029269
247	0xbc1d2d97	-0.009593389
248	0xbd83b614	-0.06431213
249	0x3e026595	0.12734063
250	0x38ace158	8.243573e-05
251	0x3d02fce4	0.031979457
252	0x3de8e6f9	0.113721795
253	0xbd523481	-0.051319603
254	0x3da40dc6	0.080104396
255	0xbb82fea8	-0.0039976425

network.0.bias f4 [128]
0	0x3d3abdfd	0.045591343
1	0xbb37007a	-0.0027923868
2	0xbd0969f7	-0.03354832
3	0xbd1f6e42	-0.03892351
4	0x3b547390	0.0032417513
5	0x3c28ee49	0.010310718
6	0xbd351f59	-0.04421935
7	0xbda01fe5	-0.078185834
8	0x3d91585b	0.070969306
9	0xbddc4263	-0.1075485
10	0x3c668e1c	0.014071967
11	0xbd22f904	-0.03978826
12	0x3da4c5f4	0.08045569
13	0xbd4d8988	-0.05017999
14	0xbd2f2810	-0.042762816
15	0x3e040f2b	0.12896411
16	0x3bbf0d9c	0.00583048
17	0x3dd01eef	0.1016215
18	0x3d187bde	0.037227504
19	0xbd2d79f2	-0.042352624
20	0xbe026af1	-0.12736107
21	0xbdb74db8	-0.089503706
22	0x3dd3c16c	0.10339627
23	0xbd901e06	-0.070369765
24	0xbd1703bf	-0.036868807
25	0x3df4e5af	0.11957871
26	0xba52108c	-0.000801333
27	0xbc98f64b	-0.01867213
28	0xbd3257cc	-0.04354076
29	0x3d3c78d0	0.046013653
30	0xbcecc965	-0.028904626
31	0x3de664fd	0.11249731
32	0x3d9c2f78	0.076262414
33	0x3dcee8ae	0.10102974
34	0x3c500bb7	0.012698106
35	0xbd4c3063	-0.049850833
36	0xbd2170cc	-0.039414212
37	0x3d525413	0.05134971
38	0xbd2c30b1	-0.042038623
39	0x3ddcec9c	0.10787317
40	0xb912d5ea	-0.00014003334
41	0xbdea5214	-0.114414364
42	0xbd9fadf9	-0.077968545
43	0x3df2794d	0.118395425
44	0x3de9f0f4	0.11422911
45	0x3db5f93a	0.08885427
46	0x3ddcf773	0.10789385
47	0xb8448cd6	-4.6861205e-05
48	0x3decd1d6	0.115634605
49	0xbcad2a1c	-0.021138243
50	0x3db5585e	0.08854745
51	0xbd747cb6	-0.059689246
52	0x3dc99a55	0.098438896
53	0xbdae3ccd	-0.085076906
54	0xbd8ab907	-0.067735724
55	0x3d0b5eb0	0.034025848
56	0x3d869f85	0.06573395
57	0x3df9aa6a	0.12190707
58	0xbda154ba	-0.078774884
59	0xbd1e6213	-0.03866775
60	0xbcb9e637	-0.022692783
61	0x3dc54306	0.09631924
62	0xbdb17ca6	-0.08666353
63	0xbe147b9e	-0.14500281
64	0x3d8b9d7b	0.068171464
65	0xbd392185	-0.045197982
66	0xbaf6953d	-0.0018812787
67	0x3c3dfa6e	0.011595352
68	0xbd3616d1	-0.044455353
69	0x3d95e157	0.07318371
70	0x3ca6e03c	0.020370595
71	0x3b15248a	0.0022757375
72	0xb896b100	-7.185526e-05
73	0x3ae4b86e	0.0017449984
74	0x3c89593b	0.016766181
75	0x3db1ef9e	0.086882815
76	0xbd8ea08a	-0.06964214
77	0x3c1abc4c	0.009444308
78	0x3dac53a2	0.08414389
79	0x3ca13715	0.019679585
80	0xbd2e4b45	-0.04255225
81	0x3d5e0060	0.054199576
82	0x3daaefaf	0.08346497
83	0x3d927e2f	0.07152974
84	0x3d959f52	0.073057786
85	0xbd270c50	-0.040783226
86	0xbdbb3df1	-0.09142674
87	0x3d286738	0.041114062
88	0xbd9f88a8	-0.07789737
89	0xbd9674d5	-0.07346503
90	0x3da8885d	0.08229134
91	0x3c42e34e	0.011895014
92	0x3d212a7a	0.03934715
93	0xbdb2eb7e	-0.08736323
94	0x3cf735ce	0.030177023
95	0xbc802c4b	-0.01564612
96	0x3dd77e04	0.105220824
97	0x3d581402	0.052753456
98	0x3da66ba7	0.08126002
99	0x3c454dba	0.012042457
100	0xbbbc3022	-0.0057430426
101	0x3b080479	0.002075462
102	0xbdd1beea	-0.10241492
103	0x3dffda35	0.124927916
104	0xbc8ec005	-0.017425546
105	0x3d8c53ea	0.06851943
106	0x3af669c7	0.0018799835
107	0x3cab39c4	0.020901568
108	0xbc64d60d	-0.013967049
109	0x3db5c8ab	0.08876165
110	0x3d345d4a	0.04403428
111	0xbc4a7aac	-0.012358349
112	0xbde53453	-0.11191621
113	0x3d01d0b6	0.031693183
114	0x3df47283	0.11935904
115	0x3d967124	0.073457986
116	0x3da2c6dc	0.07948086
117	0x3db3480d	0.08753977
118	0x3d0213a9	0.03175703
119	0x3dddae06	0.10824208
120	0x3d00ef48	0.031478196
121	0xbdbd7541	-0.0925088
122	0xbd9f9c33	-0.077934645
123	0x3d9e16e0	0.07719207
124	0xbda6ff89	-0.08154208
125	0x3d5cace5	0.053875823
126	0x3d484f00	0.048903465
127	0xbd2defda	-0.04246507

network.3.weight f4 [64, 128]
0	0xbd935197	-0.071932964
1	0x3d81bd93	0.063349865
2	0x3dfe2488	0.124093115
3	0x3cc72da6	0.024313759
4	0x3dee2702	0.11628534
5	0x3d90cf83	0.0707083
6	0x3d11df84	0.03561355
7	0xbbc40421	-0.0059819375
8	0xbcd53477	-0.026025994
9	0x3c4d7a69	0.012541392
10	0x3d9a3360	0.0752933
11	0x3aa092db	0.0012250798
12	0x3dfc654b	0.123240076
13	0x3da549a4	0.080706865
14	0x3cd82b7c	0.026387922
15	0x3d42b89c	0.04753934
16	0x3dbcab97	0.09212416
17	0x3cbf9e9b	0.023391059
18	0x3d8f0a51	0.069843896
19	0xbd1b45fb	-0.037908535
20	0xbd3f0539	-0.04663584
21	0xbc8cbc8d	-0.017179752
22	0xbd5cb73b	-0.05388568
23	0xbd25c50b	-0.040471118
24	0x3d4e0396	0.05029639
25	0x3bd5472a	0.0065087276
26	0x3e0a56ce	0.13509676
27	0x3dfc8eb0	0.12331903
28	0x3de7c628	0.11317092
29	0x3dbdfd3f	0.092768185
30	0xbdc72669	-0.09724123
31	0x3dbbf47d	0.09177492
32	0x3d306cb7	0.04307243
33	0x3c879176	0.016548853
34	0x3cb67795	0.022273818
35	0x3d1199e0	0.035547137
36	0x3be6f477	0.0070481854
37	0xbd3ec6c0	-0.04657626
38	0x3db205ff	0.0869255
39	0x3ce31a20	0.027722418
40	0xbd15e25e	-0.036592834
41	0xbd23f716	-0.04003056
42	0x3d1cba1a	0.038263418
43	0x3ddbb2d0	0.10727465
44	0x3d9bdae3	0.07610109
45	0x3cda4d7f	0.026648281
46	0xbcf2ea84	-0.029652841
47	0x3d409b58	0.047023147
48	0x3deb4064	0.11486891
49	0x3b045669	0.0020193106
50	0xbd637893	-0.05553491
51	0xbd5972e4	-0.053088084
52	0x3db1fd6c	0.086909145
53	0x3d4732a7	0.04863229
54	0x3dd5f67e	0.10447405
55	0x3d7392bf	0.05946612
56	0x3dcbdb13	0.099538945
57	0xbc8f310d	-0.017479444
58	0x3d124189	0.03570703
59	0x3d84adac	0.06478438
60	0x3e14017a	0.14453688
61	0xbca71e94	-0.020400323
62	0xbcf2f574	-0.029658057
63	0x3ca8f562	0.02062482
64	0xbcc12187	-0.023575557
65	0x3ddd6ae3	0.10811403
66	0x3dfd161b	0.12357732
67	0x3d9883c6	0.07447009
68	0x3d97c247	0.07410102
69	0xbc9f9617	-0.019480748
70	0x3df6194b	0.12016543
71	0xbd12bcad	-0.035824466
72	0x3e01d77d	0.12679859
73	0x3c30c029	0.010788002
74	0x3cf5c1b0	0.029999584
75	0x3bf9c725	0.007622617
76	0xbd431e2d	-0.0476362
77	0xbd00f6c5	-0.031485338
78	0xbca8b20b	-0.02059271
79	0xbd3d152d	-0.046162773
80	0xbcbfc35a	-0.02340858
81	0xbd6ac3fa	-0.057315804
82	0xbcbe0c5e	-0.023199257
83	0x3dfbecc4	0.12301019
84	0x3cff1319	0.031137036
85	0xbcf4b215	-0.029870072
86	0x3b34fffd	0.0027618401
87	0xbd9700e1	-0.073732145
88	0x3cc167e1	0.023609104
89	0xbd18d9a2	-0.037316926
90	0x3d892609	0.06696708
91	0x3db67f82	0.08911039
92	0x3bd61a92	0.006533929
93	0x3dbb210e	0.09137164
94	0xbba891c6	-0.0051443307
95	0x3d58854e	0.052861504
96	0x3d3758ba	0.04476235
97	0x3d093985	0.03350212
98	0x3da62097	0.08111685
99	0x3dc69a08	0.09697348
100	0x3c4d541b	0.012532259
101	0xbc638a70	-0.013887987
102	0x3dc48828	0.09596282
103	0x3dd21a62	0.10258938
104	0x3cc50108	0.024048343
105	0x3ce7d0e9	0.028297858
106	0x3dc50296	0.09619634
107	0x3dd940d7	0.1060807
108	0xbddbb7b3	-0.10728397
109	0x3a936404	0.0011245017
110	0x3dc58209	0.09643943
111	0x3db02f59	0.08602781
112	0xbc49fafb	-0.012327905
113	0x3cff7bb5	0.031186918
114	0x3ddacc5d	0.106835105
115	0x3c8b8e95	0.017035762
116	0xbce2a4ae	-0.027666416
117	0x3dab8e8e	0.083767995
118	0x3d9b6182	0.075869575
119	0x3cd0bc83	0.025480514
120	0x39ed2ff4	0.0004523989
121	0xbbea2da9	-0.0071465564
122	0xbc5583d7	-0.013031921
123	0xbdac5c07	-0.0841599
124	0x3ce0a728	0.027423456
125	0xbd7d811b	-0.061890703
126	0xbc46e667	-0.012139893
127	0x3dbfa9e6	0.093585774
128	0x3cc6ade1	0.024252834
129	0x3d405fa5	0.046966214
130	0xbdb7d1eb	-0.089755856
131	0x3d77a032	0.06045551
132	0xbc28eba2	-0.0103100855
133	0x3cde7bff	0.027158735
134	0xbc480fab	-0.012210767
135	0xbc4d0054	-0.012512285
136	0x3b01b360	0.0019790754
137	0xbd4bbb06	-0.049738906
138	0x3cb60538	0.022219285
139	0x3d157141	0.03648496
140	0x3b88a410	0.0041699484
141	0x3d971517	0.073770694
142	0x3d830e05	0.063991584
143	0x3d95b961	0.07310749
144	0xbdb091fe	-0.08621596
145	0xbd1490b9	-0.03627083
146	0xbd7702cc	-0.0603054
147	0xbd521afe	-0.051295273
148	0xbd118782	-0.03552962
149	0x3d45ecd2	0.048321553
150	0x3bc5c48c	0.006035393
151	0x3c839fbb	0.016067376
152	0x3caad3ae	0.02085289
153	0xbd1b34b8	-0.037892073
154	0xbd6b2566	-0.057408713
155	0xbcaef52f	-0.021357147
156	0x3c36e598	0.011163138
157	0x3d3c8555	0.046025593
158	0xbdb1a916	-0.08674829
159	0xbce7ab64	-0.028279968
160	0x3d8be0f3	0.06830015
161	0xbd28dce5	-0.041226286
162	0x3dc5f16d	0.09665189
163	0xbd82d492	-0.06388201
164	0x3d0a6630	0.03378886
165	0x3d11e94e	0.035622887
166	0xbd96fe50	-0.07372725
167	0xbd5e2f20	-0.05424416
168	0x3c6dfd2e	0.014525695
169	0x3db93ce9	0.09044821
170	0xbcba1bd5	-0.02271835
171	0x3da0971b	0.07841321
172	0xbd6977f4	-0.05699916
173	0xbd4a225d	-0.049349178
174	0xbc8ccfe0	-0.017188966
175	0x3c296443	0.010338846
176	0x3c8dd9e1	0.017315807
177	0xbd590fd3	-0.052993607
178	0x3c4d6c8f	0.012538089
179	0xbd4677e1	-0.04845417
180	0xbd4a7432	-0.04942722
181	0x3d2bc727	0.041937973
182	0xbdb3c9c4	-0.08778718
183	0xba99f356	-0.0011745493
184	0x3d6a62a6	0.057222985
185	0xbd496c89	-0.049175773
186	0x3d45b4d9	0.048268173
187	0xbd708aca	-0.05872611
188	0x3db47ca8	0.08812839
189	0xbb80acb8	-0.0039268397
190	0xbcdd4792	-0.027011666
191	0x3cd04614	0.02542404
192	0x3d3ef237	0.046617713
193	0x3d401001	0.046890263
194	0xbd06423a	-0.032778002
195	0xbd8130a0	-0.063081026
196	0xbd79857d	-0.06091832
197	0xbd206c62	-0.039165862
198	0xbd82d95f	-0.063891165
199	0xbc000642	-0.007813992
200	0x3d7574f9	0.059926007
201	0x3c9a42b4	0.018830635
202	0xbd9255a1	-0.07145239
203	0xbd44ca75	-0.04804464
204	0xbc9b65f9	-0.018969523
205	0xbda7b331	-0.08188475
206	0xbd1155a8	-0.03548208
207	0x3d78f6e0	0.060782313
208	0x3cb56553	0.022143042
209	0x3cce5714	0.025188006
210	0x3d15a3f9	0.03653333
211	0xbd6c2b62	-0.05765856
212	0xbca880c9	-0.020569222
213	0x3c3c8f80	0.011508822
214	0xbd827785	-0.06370453
215	0x3d6852f4	0.056719735
216	0xbcc495e7	-0.02399726
217	0x3d9964c2	0.07489921
218	0xbdac259a	-0.084056094
219	0x3d38e51a	0.045140363
220	0xbc081057	-0.008304677
221	0x3d935cb6	0.071954176
222	0x3ce2d39b	0.027688792
223	0xbd8c1b99	-0.06841201
224	0x3d449c72	0.04800076
225	0x39ec5239	0.00045074688
226	0x3d56bd8c	0.05242686
227	0xbd41a3fb	-0.047275525
228	0x3a510771	0.0007973826
229	0xbc9065c3	-0.017626649
230	0xbd29f19a	-0.041490175
231	0x3db73223	0.0894511
232	0x3d6d5df3	0.057950925
233	0x3c5d7c10	0.013518348
234	0xbda240cd	-0.07922516
235	0xbdaf9e88	-0.08575159
236	0x3d65714e	0.05601626
237	0x3d1172d2	0.03550989
238	0x3d93493e	0.07191704
239	0xbd8132d1	-0.063085206
240	0x3be3fe1c	0.0069577824
241	0xbd84dec6	-0.06487803
242	0xbd5e95b8	-0.054342
243	0xbd8395b2	-0.064250365
244	0x3d429254	0.04750283
245	0x3d45f930	0.048333347
246	0xbd0bc9ce	-0.034128003
247	0xbdaad784	-0.083418876
248	0x3d3bd4b6	0.045857154
249	0x3db4289f	0.0879681
250	0xbc0be195	-0.00853767
251	0x3cc66d7b	0.024222126
252	0x3baf0df2	0.0053422386
253	0x3d0b1ebf	0.03396487
254	0x3cd95046	0.026527535
255	0xbdd07416	-0.10178392

network.3.bias f4 [64]
0	0x3c8610bb	0.0163654
1	0xbd7a0960	-0.061044097
2	0xbd386748	-0.04502037
3	0x3d8ed689	0.06974513
4	0xbdaa11ab	-0.08304151
5	0xbc05163a	-0.008122975
6	0x3c7218ee	0.0147764515
7	0xbda5a7cb	-0.080886446
8	0x3d5dfea2	0.054197915
9	0xbdbc722a	-0.092014626
10	0x3e047157	0.1293386
11	0xbd81cef6	-0.06338303
12	0x3d9d1470	0.07669914
13	0xbdb97002	-0.09054567
14	0x3c9571fb	0.018242827
15	0x3d8179da	0.063220695
16	0x3d371dba	0.044706084
17	0x3e06138e	0.13093397
18	0xbcd13264	-0.025536723
19	0x3da4a2c4	0.080388576
20	0xbd3fe94e	-0.046853356
21	0x3d9b596a	0.07585414
22	0x3d9d4418	0.076790035
23	0xbc90822c	-0.017640196
24	0xbcf09e0e	-0.029372241
25	0x3dba8266	0.09106903
26	0x3a87e409	0.0010367642
27	0x3e0315d4	0.12801296
28	0xbd8af25b	-0.06784507
29	0xbd882ad4	-0.06648794
30	0x3ccfdc0c	0.025373481
31	0x3d996dcc	0.07491645
32	0x3dc176bc	0.09446475
33	0x3bdcbc13	0.0067362874
34	0x3d86ccbe	0.0658202
35	0xbdc5b300	-0.09653282
36	0xbcf7998b	-0.030224582
37	0x3def8939	0.11696095
38	0x3d634666	0.05548706
39	0x3d075f25	0.03304972
40	0x3d5aa381	0.053378586
41	0x3d663238	0.056200236
42	0x3ce56562	0.028002445
43	0xbc88b443	-0.016687518
44	0xbad286ba	-0.001606188
45	0xbc9f225d	-0.019425565
46	0xbdcd2f08	-0.10018736
47	0xbdc66aad	-0.096883155
48	0x3d4a003e	0.049316637
49	0x3d811b5b	0.06304046
50	0x3d6a641d	0.05722438
51	0x3d22dfe2	0.039764293
52	0x3c6b72bb	0.014370616
53	0xbd1381b7	-0.036012378
54	0xba0e5c1a	-0.00054305943
55	0xbd3b0913	-0.04566295
56	0x3d801cce	0.06255494
57	0x3d3f01c3	0.04663254
58	0xbcf8183a	-0.03028499
59	0xbd891f68	-0.066954434
60	0x3da6ad95	0.08138577
61	0x3cc75eb4	0.02433715
62	0xbc874b08	-0.01651527
63	0x3d43ecd3	0.047833275

network.6.weight f4 [32, 64]
0	0xbd2f666c	-0.042822286
1	0xbd342fba	-0.043990828
2	0x3c2f7d09	0.010710963
3	0x3d827209	0.06369407
4	0x3cca6993	0.024708545
5	0x3dbfe656	0.09370105
6	0x3c03e406	0.0080499705
7	0xbcec15a9	-0.028818922
8	0xbdcb2316	-0.099188015
9	0x3d3ebb15	0.046565134
10	0x3d4e976a	0.05043737
11	0xbd3c5cfa	-0.045987107
12	0xbc3b156e	-0.011418683
13	0x3de851ef	0.113437526
14	0x3ccc5bb9	0.02494608
15	0xbd6e09e9	-0.05811492
16	0xbd786200	-0.060640335
17	0xbca622ee	-0.020280328
18	0x3e06df46	0.1317111
19	0x3d462c19	0.0483819
20	0x3e0d5d55	0.13805135
21	0x3e15ca49	0.14627947
22	0x3deeff56	0.11669795
23	0xbce3659c	-0.027758412
24	0x3d5dbc16	0.05413445
25	0x3d1268c2	0.035744436
26	0x3dbe741d	0.092994906
27	0xbe533895	-0.20627053
28	0xbd64d3d0	-0.055866063
29	0x3e51d3b6	0.20490918
30	0x3d91f8f0	0.07127559
31	0x3d092970	0.033486784
32	0x3da9c53f	0.08289575
33	0x3d3356ef	0.04378408
34	0x3d7fe729	0.06247631
35	0x3e057ed6	0.13036665
36	0xbcd50e34	-0.02600775
37	0xbd8d9ec8	-0.06915051
38	0xbd2a437a	-0.041568257
39	0x3d235462	0.039875396
40	0x3d042ccb	0.03226928
41	0x3d2b0e2e	0.04176157
42	0x3bff8521	0.0077978526
43	0x3de830c2	0.11337425
44	0x3e006bf0	0.12541175
45	0xbe213e54	-0.15746433
46	0x3d27fb08	0.041010886
47	0x3dd0df69	0.10198862
48	0x3d4f62c4	0.0506313
49	0x3dacf675	0.084454454
50	0xbdb58734	-0.088636786
51	0xbdf8f8e3	-0.121568464
52	0xbda41125	-0.080110826
53	0x3da3cd1d	0.07998107
54	0x3e2bfe33	0.16796188
55	0xbd2cb06b	-0.042160433
56	0xbad83e28	-0.0016498016
57	0x3cf9b628	0.030482367
58	0x3ddb2ca3	0.10701873
59	0xbd301005	-0.042984027
60	0xbc6167b6	-0.013757637
61	0xbe2407b1	-0.16018559
62	0x3db757cb	0.08952292
63	0xbd66cc94	-0.056347445
64	0x3bdcaebf	0.0067346985
65	0xbd5dedb7	-0.05418178
66	0xbd6801d8	-0.056642383
67	0xbd50ee98	-0.05100879
68	0x3dd89460	0.10575175
69	0xbdef51e0	-0.11685538
70	0x3be6667d	0.0070312605
71	0x3c093218	0.00837376
72	0x3d9a132b	0.07523187
73	0x3d3ac530	0.04559821
74	0x3da02667	0.07819825
75	0x3c5db6f3	0.013532388
76	0x3d381d3b	0.04494975
77	0x3cf11f63	0.029433912
78	0xbd1fc533	-0.039006423
79	0xbd2f7c44	-0.04284312
80	0x3d814920	0.063127756
81	0xbdbc4326	-0.09192495
82	0x3c88bdfd	0.016692156
83	0x3dcbc222	0.09949137
84	0xbdfe5346	-0.12418227
85	0x3d341b3d	0.04397129
86	0xbdd2be19	-0.102901645
87	0x3d49eb64	0.04929675
88	0x3d37da67	0.04488602
89	0xbd8132d4	-0.06308523
90	0x3c331341	0.010929883
91	0xbde3c178	-0.111208856
92	0x3c0a141d	0.008427647
93	0xbd1caff3	-0.038253736
94	0xbd54cc63	-0.05195273
95	0xbdb72ee5	-0.08944491
96	0xbca0c2e2	-0.019624177
97	0xbe06a4bb	-0.13148777
98	0x3c7f5838	0.015584998
99	0x3dca9c14	0.09893051
100	0x3d880a28	0.06642562
101	0xbc963aa3	-0.018338507
102	0xbc95473e	-0.018222447
103	0xbc33383c	-0.0109387
104	0x3c901bea	0.017591435
105	0xbd491c10	-0.049099028
106	0x3daa0246	0.08301215
107	0xbc6e5882	-0.014547469
108	0xbd253719	-0.04033575
109	0xbdde4379	-0.10852713
110	0x3d175c72	0.036953397
111	0xbe065a32	-0.13120344
112	0xbdfc7e97	-0.123288326
113	0x3de15661	0.110028036
114	0x3c580f0a	0.013187179
115	0x3d4d02e1	0.050051574
116	0x3d80aca9	0.06282932
117	0x3c7e53cb	0.0155229075
118	0x3d151707	0.036398914
119	0xba93e496	-0.0011283334
120	0x3c17d148	0.009266205
121	0xbd750280	-0.059816837
122	0xbde7e039	-0.11322064
123	0x3d1495d2	0.036275692
124	0x3cdda337	0.027055366
125	0x3d0086a2	0.031378396
126	0xbe000655	-0.12502415
127	0xbcd49b58	-0.02595298
128	0x3d5ab3c4	0.053394094
129	0x3d034ebc	0.03205751
130	0x3d7a69ad	0.061135937
131	0x3d1549f9	0.0364475
132	0x3dcc83d5	0.099860825
133	0x3d0f235e	0.03494584
134	0x3bbea75a	0.0058182897
135	0x3caa0cdb	0.020758083
136	0xbdafe0c2	-0.08587791
137	0xbe0c2626	-0.13686427
138	0x3ddcd6d1	0.107831605
139	0x3d00e606	0.031469367
140	0xbc9a4b4a	-0.018834729
141	0x3cf5403d	0.029937858
142	0xbd997d06	-0.074945495
143	0xbdb83c9a	-0.08995934
144	0x3d839645	0.06425146
145	0x3e528e96	0.20562205
146	0x3d82c118	0.06384486
147	0xbd452ed9	-0.04814038
148	0xbd6eb172	-0.058274694
149	0xbde909f0	-0.113788486
150	0x3d41ae03	0.04728509
151	0xbe04335c	-0.12910217
152	0xbd447794	-0.0479656
153	0xbc0094ff	-0.007848023
154	0x3ddbd1e7	0.10733395
155	0x3e426b04	0.18986136
156	0xbdb4bffa	-0.08825679
157	0x3b0535e1	0.0020326304
158	0xbdd41d67	-0.103571706
159	0xbbe42d16	-0.0069633825
160	0x3da2d8cf	0.07951509
161	0xbd30b5a3	-0.043141972
162	0x3ddfee51	0.10934127
163	0xbd46f4c5	-0.048573274
164	0x3dcd581b	0.100265704
165	0x3d1b122b	0.037859123
166	0xbccd8c80	-0.02509141
167	0xbdb54023	-0.08850124
168	0xbc1607ef	-0.009157165
169	0x3db876d5	0.090070404
170	0x3d3d4195	0.046205122
171	0xbd7fa767	-0.062415507
172	0xbc59c40d	-0.013291371
173	0x3dab99f8	0.083789766
174	0xbd85d3b1	-0.065345176
175	0x3d7cd2f2	0.06172461
176	0xbd993866	-0.0748146
177	0x3b62b2a4	0.0034591341
178	0xbd597524	-0.05309023
179	0x3c3c496f	0.011492117
180	0x3d98716d	0.07443509
181	0x3b2108cc	0.0024571894
182	0xbdb64ecd	-0.08901749
183	0xbdb7a3cf	-0.08966791
184	0xbe02a821	-0.12759449
185	0xbd3edeee	-0.04659932
186	0xbd82278d	-0.063552
187	0xbdfedb69	-0.12444193
188	0x3c815d4d	0.01579156
189	0x3df009e0	0.117206335
190	0x3c87c2ba	0.016572345
191	0x3d830c69	0.063988514
192	0xbd1c1318	-0.038104147
193	0xbd1870cc	-0.037216946
194	0xbdd67f42	-0.10473491
195	0xbc1fdc92	-0.009757178
196	0xbd1f9392	-0.038959093
197	0x3d8c6b94	0.068564564
198	0xbdb4982d	-0.08818088
199	0x3d385931	0.045006935
200	0x3d453087	0.048141982
201	0xbdeea4c2	-0.11652519
202	0xbaefb420	-0.0018287934
203	0x3daf54a3	0.08561065
204	0x3d54287a	0.051796414
205	0x3d1862c5	0.03720357
206	0x3c98d877	0.018657906
207	0xbc44cff5	-0.012012471
208	0x3c811e45	0.015761504
209	0x3cd1eb02	0.025624756
210	0xbda99651	-0.08280624
211	0xbca9a3d9	-0.020708011
212	0x3cfdf856	0.031002205
213	0x3dcab3d1	0.098975785
214	0xbd17fe9f	-0.03710806
215	0x3da5a707	0.080884986
216	0x3dc286ad	0.094983436
217	0xbdefbc44	-0.11705831
218	0x3da6119b	0.08108827
219	0xbc44d618	-0.012013935
220	0xbc39a004	-0.011329655
221	0xbd2a3cc2	-0.04156185
222	0x3dc78c09	0.097435065
223	0xbd2ea1e7	-0.04263487
224	0x3d57089b	0.05249844
225	0xbd850d79	-0.0649671
226	0x3cb6ca44	0.022313245
227	0xbdeeb8a2	-0.1165631
228	0x3dd6fd47	0.104975276
229	0xbd84a5c0	-0.06476927
230	0xbd875ddf	-0.06609701
231	0x3c35492d	0.01106481
232	0xbdb25bac	-0.08708891
233	0xbd800a3a	-0.062519506
234	0xbc05a095	-0.0081559615
235	0x3d7a8416	0.061161123
236	0xbd7a0f8f	-0.061049994
237	0x3d1c8b1c	0.038218603
238	0x3d814b48	0.06313187
239	0xbdf310c4	-0.11868432
240	0x3b330b50	0.0027319975
241	0x3d9ca3b4	0.076484114
242	0x3d9983ed	0.07495866
243	0xbd78a020	-0.060699582
244	0x3de825fa	0.113353685
245	0x3d88e786	0.066847846
246	0x3c914b2b	0.017736038
247	0xbc167fde	-0.009185759
248	0x3d6544b0	0.05597371
249	0xbc4ba832	-0.012430238
250	0xbe1bc3f9	-0.15211476
251	0xbd717e08	-0.058958083
252	0xbdb97445	-0.0905538
253	0xbdba2284	-0.090886146
254	0xbdfcd02b	-0.123443924
255	0xbe052a66	-0.13004455

network.6.bias f4 [32]
0	0x3dff4114	0.124635845
1	0xbdd6e95c	-0.104937285
2	0x3d702b90	0.058635294
3	0xb915415b	-0.00014234094
4	0x3d004544	0.031316057
5	0xbc6aec70	-0.014338598
6	0xbbf3b193	-0.00743694
7	0x3d1b95d9	0.037984703
8	0xbd70d069	-0.058792505
9	0x3dd36463	0.103218816
10	0x3db53064	0.088471204
11	0x3d92d4ad	0.07169471
12	0xbc2f0d13	-0.0106842695
13	0x3c4d7817	0.012540839
14	0x3d472733	0.048621368
15	0xbdb3571d	-0.0875685
16	0xbd029143	-0.031876814
17	0xbd61993e	-0.055077784
18	0x3cf7cb3d	0.030248279
19	0x3c5dca09	0.0135369385
20	0x3cb82813	0.022480046
21	0x3e0dd10c	0.13849276
22	0x3d49f1bc	0.0493028
23	0xbd498063	-0.049194705
24	0x3d050433	0.032474708
25	0xbd970fb7	-0.07376044
26	0xbd99afda	-0.07504244
27	0xbde30b95	-0.110861935
28	0xbdce001b	-0.10058614
29	0x3d7ef089	0.06224111
30	0xbdc378b3	-0.09544506
31	0xbd17304f	-0.036911305

network.9.weight f4 [1, 32]
0	0xbdf20a2e	-0.11818348
1	0x3d815bab	0.063163124
2	0x3d252cd8	0.04032597
3	0x3cd81f6a	0.026382167
4	0x3d08c37c	0.033389553
5	0xbe0dabcc	-0.13835067
6	0x3e0a5120	0.13507509
7	0xbdffc40e	-0.12488566
8	0x3d8832e1	0.066503294
9	0x3e228730	0.15871882
10	0x3ad141c9	0.001596504
11	0xbddb0aea	-0.10695441
12	0x3e00d622	0.12581685
13	0x3e1629fc	0.14664453
14	0xbd9b07e6	-0.07569866
15	0x3d933385	0.07187561
16	0xbd8efa88	-0.06981379
17	0x3e32df5a	0.17468014
18	0x3db65197	0.08902281
19	0x3d403d69	0.046933565
20	0xbe04edbb	-0.12981312
21	0xbd7e1a1c	-0.06203662
22	0xbe255f69	-0.16149677
23	0xbdaf75a0	-0.08567357
24	0x3d3b8f4d	0.04579096
25	0xbe2edc10	-0.17076135
26	0x3d5cd4ff	0.053914066
27	0x3e00d46a	0.1258103
28	0x3e20e184	0.15711027
29	0x3e5309ed	0.20609255
30	0xbda400ef	-0.080079906
31	0x3db2f843	0.087387584
