projekt1/wandb/run-20251108_163420-t8qafun8/files/best_model.pth (torch, 674581 bytes, 5 tensors)

network.0.weight f4 [512, 70]
0	0x3d8c19cc	0.06840858
1	0x3d7d9124	0.061905995
2	0xbdb30cd9	-0.08742685
3	0xbc462caa	-0.01209561
4	0x3d2ee05c	0.042694435
5	0x3ca00a26	0.01953609
6	0xbdeaf280	-0.114720345
7	0xbd0c9c12	-0.034328528
8	0x3d4841b7	0.048890796
9	0x3cc9c7aa	0.02463134
10	0x3dc8eb44	0.09810498
11	0xbded5d03	-0.11590006
12	0x3db1121a	0.08646031
13	0xbddd4924	-0.10804966
14	0x3de1f725	0.11033467
15	0xbdf97cbb	-0.121819936
16	0xbd0f28ec	-0.034951136
17	0xbcbda054	-0.02314774
18	0x3d0a192b	0.03371541
19	0xbdc09f5c	-0.094053954
20	0x3bdc866c	0.0067298915
21	0x3dd5b8a6	0.104356095
22	0x3d368b49	0.044566426
23	0x3dbbd0a3	0.09170654
24	0x3aa69288	0.0012708465
25	0xbd290db6	-0.04127284
26	0xbce27f50	-0.027648598
27	0xbc8d4a12	-0.017247234
28	0x3d2eac3f	0.042644735
29	0x3cf07b2e	0.029355612
30	0xbdbf894f	-0.093523614
31	0x3d856bd6	0.06514709
32	0xbd17fa11	-0.037103716
33	0x3d2267a2	0.039649613
34	0xbd2048a0	-0.03913176
35	0x39b8f250	0.00035275752
36	0x3da21ef0	0.07916057
37	0xbdbc7dc9	-0.09203679
38	0xbbdceccd	-0.006742096
39	0xbe060a20	-0.130898
40	0x3b60ef67	0.0034322382
41	0x3d275b52	0.040858574
42	0xbde7b186	-0.11313157
43	0x3ba57069	0.0050488007
44	0x3dd9fb46	0.1064363
45	0x3cd9c8b5	0.026584962
46	0x3d35d6b2	0.044394203
47	0x3c373bd9	0.011183702
48	0x3d6cf7c0	0.05785346
49	0x3c1e79e6	0.009672618
50	0xbcdf7df8	-0.027281746
51	0xbd72d357	-0.05928358
52	0x3d24afe4	0.040206805
53	0xbd577d4c	-0.052609727
54	0xbd8a61db	-0.06756946
55	0x3d9b67cb	0.07588156
56	0x3dae107e	0.084992394
57	0x3c550859	0.0130024785
58	0xbd6c9638	-0.057760447
59	0xbdddb716	-0.108259365
60	0x3d81d2c3	0.06339028
61	0x3d612440	0.05496621
62	0x3da30483	0.07959845
63	0xbddc95bf	-0.10770749
64	0xbdbd240f	-0.09235393
65	0x3c64754f	0.013943984
66	0xbdd56b42	-0.104208484
67	0x3d5ee4ee	0.054417543
68	0x3d7b5142	0.06135679
69	0x3d93f4e1	0.07224441
70	0xbdcd25b0	-0.10016954
71	0xbd59b4fe	-0.053151123
72	0x3dc3acdb	0.09554454
73	0x3dca8083	0.09887793
74	0x3d952c9e	0.07283901
75	0xbcad9469	-0.021188932
76	0x3e00a49d	0.12562795
77	0x3d507985	0.05089714
78	0x3db75d78	0.089533746
79	0xbbf74d91	-0.0075470884
80	0xbd532c35	-0.05155583
81	0x3d9dc098	0.0770275
82	0xbd9c384b	-0.076279245
83	0x3db9329e	0.090428576
84	0x3b672388	0.003526898
85	0xbdffea8b	-0.124959074
86	0xbdaf78d8	-0.08567971
87	0x3d9506b7	0.072766714
88	0x3d9a990e	0.07548724
89	0xbd9da0fd	-0.07696722
90	0xbd3643d5	-0.044498283
91	0xbca12da6	-0.019675087
92	0xbd0f7aff	-0.035029408
93	0xbcb11ed6	-0.021621149
94	0xbdd94841	-0.106094845
95	0x3cc1b688	0.023646608
96	0x3d8be803	0.06831362
97	0xbb5b9976	-0.0033508218
98	0x3dc11610	0.09428036
99	0x3ce848d9	0.028355049
100	0xbcb5f18d	-0.022209907
101	0xbcc0402c	-0.0234681
102	0x3dce51d8	0.10074204
103	0xbdac7d08	-0.08422285
104	0x3d15176a	0.036399283
105	0xbd8104d6	-0.062997505
106	0x3dbb2578	0.09138006
107	0xbd0fa891	-0.035072867
108	0xbdb47b2a	-0.08812554
109	0xbc91d0da	-0.017799783
110	0x3db6930f	0.08914768
111	0x3d8193a5	0.06326989
112	0x3d800c35	0.06252328
113	0xbcc69091	-0.024238857
114	0xbd965f89	-0.07342441
115	0xbde09a9d	-0.1096699
116	0xbba1aa82	-0.004933656
117	0x3bca92f3	0.0061820685
118	0xbd3b9fda	-0.045806743
119	0xbbb8cee5	-0.005639898
120	0x3d840179	0.064455934
121	0xbd97e18c	-0.074160665
122	0xbda19e27	-0.07891493
123	0x3cd2f1b3	0.025750017
124	0xbd17bb5a	-0.037043907
125	0xbdc72f2a	-0.09725793
126	0xbdd31a9f	-0.10307812
127	0xbd39a6fe	-0.04532527
128	0x3caee076	0.021347266
129	0xbb15cd46	-0.0022857948
130	0xbdba8992	-0.09108271
131	0x3d8ad9bd	0.067798115
132	0xbe0699ca	-0.13144603
133	0x3c4d7647	0.012540407
134	0x3d73139f	0.059344884
135	0xbd4af1a2	-0.049546845
136	0xbd2df720	-0.042472005
137	0x3a1a12c8	0.00058774324
138	0xbe082e94	-0.13299018
139	0xbdc562cd	-0.096379854
140	0x39e767a0	0.0004413696
141	0xbd8a68d9	-0.06758279
142	0x3dae3720	0.08506608
143	0xbd3416a6	-0.04396691
144	0x3d9b692c	0.07588419
145	0xbc9b6480	-0.01896882
146	0x3d034d16	0.032055937
147	0xbdae74c3	-0.08518364
148	0xbcb0df42	-0.021590833
149	0x3d84c595	0.06482998
150	0x3de496d2	0.11161579
151	0x3cc7247e	0.024309393
152	0x3c8e85dc	0.017397813
153	0xbc457d4a	-0.012053797
154	0x3d894725	0.06703023
155	0xbd50abbc	-0.05094503
156	0x3c458623	0.0120559065
157	0xbe0151ee	-0.1262891
158	0x3dc94dbe	0.09829281
159	0x3cd35367	0.025796605
160	0xbd79d1c8	-0.06099108
161	0xbd29ed96	-0.041486345
162	0x3d8d29b4	0.0689272
163	0xbda5d6bf	-0.080976
164	0xbd5c36a0	-0.053763032
165	0x3d19ef29	0.037581597
166	0xbd94dafe	-0.07268332
167	0x3da79852	0.0818335
168	0xbde00b47	-0.10939651
169	0xbe0e94f9	-0.13924016
170	0xbdd96572	-0.10615052
171	0xbdd8c7df	-0.105849974
172	0x3a886b40	0.001040794
173	0xbdb6f6c8	-0.089337885
174	0xbdad8b30	-0.084738135
175	0xbdc3d1b7	-0.09561484
176	0x3e0bf368	0.13667071
177	0xbd2971ef	-0.04136842
178	0xbdb91471	-0.09037102
179	0xbd2e3e83	-0.042540085
180	0xbd8d9550	-0.06913245
181	0x3b36dbae	0.0027901935
182	0x3cb65777	0.022258503
183	0xbc284807	-0.010271079
184	0xbdde6b46	-0.108603045
185	0x3ded3535	0.11582414
186	0xbdac9b49	-0.08428056
187	0x3afe3359	0.0019393965
188	0x3d9acefc	0.075590104
189	0x3be8de7f	0.0071066017
190	0x3d7b0439	0.061283324
191	0x3d069f86	0.032866977
192	0xbc16c8d4	-0.009203155
193	0xbcbe81fe	-0.023255344
194	0xbd9e1612	-0.07719053
195	0xbcccda1e	-0.02500635
196	0xbe08f818	-0.1337589
197	0xbd5968f4	-0.053078607
198	0xbd6ddecf	-0.058073815
199	0xbd33983d	-0.043846358
200	0x3dc73e9e	0.0972874
201	0xbb2461df	-0.002508275
202	0xbce00d4c	-0.02735009
203	0xba246e2c	-0.00062725204
204	0x3d8bc199	0.06824035
205	0x3bbabf54	0.0056990776
206	0x3d339382	0.043841846
207	0xbb7c9de8	-0.0038546268
208	0x3cd287d5	0.025699535
209	0xbcebaaaf	-0.028767912
210	0xbdcaf096	-0.099091694
211	0xbd67ff18	-0.05663976
212	0xbda1e55d	-0.07905076
213	0x3d2a3e8d	0.04156356
214	0x3c4cd048	0.01250083
215	0x3d2ef9fc	0.042718872
216	0x3d4c756d	0.049916673
217	0xbdc1049e	-0.09424709
218	0x3b6df80f	0.0036311185
219	0x3d9feebe	0.07809208
220	0x3e14abee	0.14518711
221	0xbc9a5b5f	-0.018842397
222	0xbe1168ac	-0.14200085
223	0xbda6c4f9	-0.08143038
224	0xbd96909f	-0.07351803
225	0xbdf681cc	-0.120364755
226	0x3dce2a2a	0.10066636
227	0xbdd58b2e	-0.10426937
228	0x3d479a7b	0.04873131
229	0x3d13fce0	0.036129832
230	0xbb8b6cce	-0.004254914
231	0x3c9bbb3e	0.019010182
232	0x3b93ed18	0.0045143478
233	0x3d9e65b4	0.07734242
234	0xbda150ca	-0.078767374
235	0xbde19b98	-0.11016005
236	0x3df4b132	0.1194786
237	0x3d74dd61	0.059781436
238	0x3cb8e051	0.0225679
239	0x3d7b114e	0.0612958
240	0x3be50cf0	0.0069900677
241	0xbd52f26b	-0.05150072
242	0x3c626db0	0.013820097
243	0xbd1aeb2a	-0.037821926
244	0x3d57c60b	0.052679103
245	0xbda0161c	-0.07816717
246	0xbdd0810d	-0.101808645
247	0xbc70d769	-0.014699795
248	0xbd759e5d	-0.05996548
249	0x3d9762a1	0.07391859
250	0xbc8e894a	-0.017399449
251	0x3ca765ae	0.020434227
252	0x3dd80fa7	0.105498604
253	0xbdb77e17	-0.089595966
254	0x3dbf044b	0.09326991
255	0x3d617ffa	0.05505369

network.0.bias f4 [512]
0	0xbd8b6293	-0.06805911
1	0xbd517833	-0.05114002
2	0xbd02aa30	-0.031900585
3	0xbddfb375	-0.109229006
4	0xbc919ea9	-0.01777585
5	0x3dff1383	0.124548934
6	0x3c3a63c2	0.011376323
7	0xbd8e2626	-0.0694087
8	0xbd6dae3b	-0.058027487
9	0xbd8a5034	-0.06753579
10	0x3c558529	0.013032236
11	0x3dc30115	0.09521691
12	0xbd0d8d83	-0.034558784
13	0xbc088996	-0.008333584
14	0x3c9cab63	0.019124692
15	0x3d363ea7	0.044493344
16	0x3cd888c3	0.0264324
17	0x3d43a9c9	0.04776934
18	0x3d43dac5	0.047816057
19	0x3de68cac	0.112573
20	0xbdd10462	-0.10205914
21	0x3d85a3f9	0.06525416
22	0xbcfd9ec1	-0.030959489
23	0x3c46a84b	0.012125085
24	0x3d667554	0.056264237
25	0x3d95415e	0.072878584
26	0x3c7df218	0.015499614
27	0x3dbfd5b7	0.09366935
28	0xbd96fec8	-0.073728144
29	0x3d478704	0.048712745
30	0xbdbda174	-0.0925931
31	0x3dabdc19	0.0839159
32	0xbdf8efb0	-0.12155092
33	0xbd373b33	-0.04473419
34	0xbaa452c7	-0.0012536877
35	0x3d9f1a3d	0.077686764
36	0x3d9a7cd0	0.07543337
37	0xbd9f4e54	-0.07778612
38	0xbd8ab535	-0.06772844
39	0xbdd8f4ae	-0.10593544
40	0xbde38d66	-0.11110954
41	0xbe08dce0	-0.13365507
42	0x3d8d1d49	0.06890351
43	0xbe018dd8	-0.12651765
44	0xbc91e70a	-0.017810363
45	0x3d0bf0b8	0.034165114
46	0x3d6496fa	0.055808045
47	0xbdabda46	-0.08391242
48	0x3d5e0f31	0.054213706
49	0xbbccb30f	-0.0062469314
50	0xbb519466	-0.0031979322
51	0x3d64e950	0.055886567
52	0x3d52b086	0.051437877
53	0xbda22b93	-0.079184674
54	0x3db41d6b	0.087946735
55	0x3c6820f5	0.014168014
56	0x384d6350	4.89683e-05
57	0x3cb4d259	0.022072958
58	0x3df105dd	0.117686965
59	0x3d91fedc	0.07128689
60	0x3be8a64c	0.0070999023
61	0x3dc42354	0.09577051
62	0x3c754358	0.014969669
63	0xbba0eb17	-0.0049108374
64	0x3a8e97d8	0.0010878993
65	0xbd850137	-0.06494372
66	0x3d9f400a	0.07775886
67	0xbdc4d0c5	-0.09610132
68	0xbd0ad92b	-0.033898514
69	0xbd94de28	-0.072689354
70	0xbd8dc65a	-0.06922598
71	0xbd8b5c8d	-0.06804762
72	0x3db64c27	0.08901244
73	0x3d0853fa	0.03328321
74	0xbc4d5ac6	-0.012533849
75	0x3cb706ad	0.02234205
76	0xbe073a9f	-0.13205956
77	0xbdbd375d	-0.09239075
78	0x3df64c66	0.120262906
79	0x3c71d23c	0.014759596
80	0x3d8ecc68	0.06972581
81	0xbdbe5d67	-0.09295159
82	0xbdac24f8	-0.08405489
83	0xbd775c8a	-0.060390987
84	0x3c5827fc	0.013193127
85	0xba0108cc	-0.00049222703
86	0x3d07d7b4	0.033164695
87	0x3cb3ac6a	0.0219328
88	0xbd9b81dc	-0.07593128
89	0x3dae0069	0.08496172
90	0xbb1a1482	-0.0023510759
91	0x3ce8cf71	0.028419228
92	0xbdbf3054	-0.0933539
93	0x3dcfdbbb	0.10149332
94	0xbb7defbc	-0.003874763
95	0xbd9faaff	-0.07796287
96	0xbd17058c	-0.036870524
97	0xbd672b99	-0.056438062
98	0x3ddedb30	0.108816504
99	0x3d4782af	0.048708614
100	0xbe0aee63	-0.135675
101	0x3b8dd9dc	0.0043289494
102	0x3d985a1d	0.07439063
103	0xbcbc628d	-0.022996211
104	0x3d78fa72	0.06078572
105	0xbd2b3e28	-0.041807324
106	0xbd559e14	-0.05215271
107	0xbdad3c38	-0.084587514
108	0x3db4623c	0.08807799
109	0x3d64bd8e	0.055844836
110	0xbdefa6fa	-0.1170177
111	0xbda6f54f	-0.08152258
112	0x3d3aeba1	0.04563487
113	0xbd4afc59	-0.049557064
114	0xbc8bb281	-0.01705289
115	0x3dbcce60	0.092190504
116	0xbd98c357	-0.07459133
117	0xbce53d7d	-0.027983421
118	0xbe0743ba	-0.1320943
119	0xbd97d747	-0.07414108
120	0x3b91352c	0.0044313874
121	0x3cad45bb	0.021151414
122	0xbce07797	-0.027400775
123	0x3cf67d5d	0.030089075
124	0x3db09cc1	0.086236484
125	0x3d9ecf70	0.07754409
126	0xbd9d7018	-0.07687396
127	0xbc972c10	-0.018453628
128	0xbba28cd5	-0.004960636
129	0xbe0b5bf8	-0.13609302
130	0x3d0574a8	0.032581955
131	0x3db7c9d0	0.089740396
132	0xbd8879d1	-0.0666386
133	0xbda432a0	-0.080174685
134	0xbcb9eccf	-0.022695927
135	0x3cd388da	0.025822092
136	0x3d37bbf2	0.044856973
137	0xbd4a1255	-0.04933389
138	0x3da8135c	0.082068175
139	0xbdf2bb77	-0.11852162
140	0x3c968a2b	0.01837643
141	0x3d1e0bb5	0.038585383
142	0xbdcf5128	-0.10122901
143	0xbd87a708	-0.066236556
144	0xbcc59c50	-0.024122387
145	0x3cf9cd55	0.030493418
146	0x3db385e2	0.087657705
147	0xbd9d8268	-0.07690889
148	0x3dec116e	0.11526762
149	0xbdf996ce	-0.12186967
150	0x3ce25a0f	0.027630834
151	0xbdc5e763	-0.09663274
152	0x3d1277d1	0.035758797
153	0xbda05cd5	-0.07830206
154	0xbd3e1539	-0.04640696
155	0xbdb42fbb	-0.08798166
156	0x3dd3fd08	0.10350996
157	0x3d70d57d	0.05879735
158	0x3da10703	0.078626655
159	0xbdef8de7	-0.116969876
160	0xbd85c06e	-0.06530844
161	0x3d7c9a2a	0.06167046
162	0x3da3bc3d	0.07994888
163	0xbd8c4bcf	-0.06850397
164	0x3dd526f2	0.10407819
165	0x3c2aff2c	0.010436814
166	0xbd3a3117	-0.045456972
167	0x3ccea578	0.025225386
168	0xbd89542a	-0.06705506
169	0x3d970c79	0.07375426
170	0xbd83acf2	-0.06429471
171	0x3cc6a51c	0.024248652
172	0xbced5fe0	-0.02897638
173	0x3cc574aa	0.024103481
174	0x3d819119	0.06326503
175	0xbde24d6b	-0.110499226
176	0xbd55076e	-0.05200904
177	0xbbae0681	-0.005310834
178	0x3d8ce9be	0.0688052
179	0x3ce24d79	0.027624832
180	0xbddd35d8	-0.108012855
181	0x3c3f7c1e	0.011687307
182	0x3c40d3c7	0.011769242
183	0xbdd226cc	-0.10261306
184	0xbdd967c1	-0.106154926
185	0x398be57f	0.00026683134
186	0xbe0dc5ef	-0.13845037
187	0xbd946a7a	-0.07246871
188	0x3d353513	0.04424007
189	0xbda215e7	-0.07914334
190	0x3d197bf1	0.037471715
191	0x3dc25179	0.09488196
192	0xbc3aa17e	-0.011391042
193	0x3d81143a	0.06302686
194	0x3d60741b	0.054798227
195	0xbd123fc7	-0.035705354
196	0xba211afe	-0.0006145685
197	0xbdecd1c3	-0.115634464
198	0x3d7e80f5	0.0621347
199	0x3d963c8f	0.073357694
200	0xbd27af79	-0.04093883
201	0x3b2642e4	0.002536946
202	0x3da61d8b	0.081111036
203	0x3d8da751	0.06916679
204	0x3d9528c4	0.07283166
205	0x3d98d1b5	0.074618734
206	0xbd580841	-0.052742247
207	0xbd49421f	-0.049135324
208	0xbcfffcbc	-0.031248443
209	0xbc82e900	-0.015980244
210	0x3a2255b2	0.0006192579
211	0xbd495155	-0.04914983
212	0x3d5346ef	0.05158132
213	0xbd0b65b2	-0.03403253
214	0x3d9d2615	0.07673279
215	0xbd5eea54	-0.05442269
216	0x3db4a2f0	0.0882014
217	0xbdfec4c5	-0.124398746
218	0xbda88068	-0.082276165
219	0x3d0a73db	0.033801895
220	0xbbfc1582	-0.0076929936
221	0xbdb804fa	-0.08985324
222	0xbcc91e74	-0.024550654
223	0x3d3c385a	0.04595218
224	0xbb52a47d	-0.00321415
225	0xbdd36d10	-0.103235364
226	0x3ca3d7cd	0.020000363
227	0x3c2a54c3	0.010396185
228	0xba7fc91b	-0.0009757445
229	0xbd852f24	-0.06503132
230	0xbd9c63f5	-0.07636253
231	0x3d8755ea	0.06608184
232	0xbce4eac5	-0.027943978
233	0x3c9a992d	0.018871868
234	0xbda34e4d	-0.07973919
235	0xbd6c1b7c	-0.0576434
236	0xbc0f0330	-0.008728787
237	0xbcd11481	-0.025522472
238	0xbdb8f81f	-0.090317
239	0x3d8f0009	0.069824286
240	0x3d2931d0	0.04130727
241	0xbd9c5c3c	-0.0763478
242	0xbe088ef5	-0.13335784
243	0xbdf0b8f4	-0.11754027
244	0x3c3b2918	0.011423372
245	0x3c0fc9ce	0.008776141
246	0xbdb83583	-0.089945816
247	0xbd546dd2	-0.051862545
248	0x3d7b9045	0.061416883
249	0x3daff484	0.085915595
250	0xbd401220	-0.046892285
251	0xbda7e7e0	-0.081985235
252	0x3de6acbf	0.112634175
253	0xbd8670ae	-0.06564461
254	0x3ccbda46	0.024884354
255	0xbd264332	-0.040591426

network.3.weight f4 [256, 512]
0	0x3cce93b0	0.025216907
1	0xbc758154	-0.0149844475
2	0x3ba9e6b0	0.005184971
3	0xbd14cb20	-0.036326528
4	0xbd4194a6	-0.047260903
5	0xbc8a50fc	-0.01688432
6	0xbd15a7be	-0.036536925
7	0xbd4d33ac	-0.050098106
8	0xbd20bda3	-0.03924335
9	0xbd57e771	-0.052710954
10	0x3c4fa6bc	0.01267403
11	0xbc0f8a65	-0.008761023
12	0x3c2cc6d0	0.0105454475
13	0x3cc5cc84	0.024145372
14	0xbd1e9120	-0.03871262
15	0x3bfd5ec6	0.007732245
16	0xbc7bab64	-0.015360687
17	0xbd1aae9a	-0.03776417
18	0xbbc3fca6	-0.005981046
19	0x3c0c4de4	0.008563492
20	0x3c27723d	0.010220108
21	0xbd440cd1	-0.047863785
22	0x3c890494	0.016725816
23	0xbd014264	-0.031557456
24	0xbcabbb29	-0.020963268
25	0x3cf558e8	0.02994962
26	0xbc28b80e	-0.010297788
27	0xbc4baf2b	-0.0124319
28	0xbd2429f6	-0.04007908
29	0xbcfe9544	-0.031077035
30	0xbd262757	-0.04056486
31	0xbc9a9f28	-0.01887472
32	0x3c51daf0	0.012808546
33	0xbcacf93e	-0.021114942
34	0x3a66c810	0.00088036153
35	0xbd2c090b	-0.04200081
36	0xbc6260a6	-0.013816988
37	0xbcc0c3b6	-0.023530822
38	0x3cc07e57	0.023497744
39	0x3b347aac	0.0027538938
40	0x3b41ea94	0.0029589282
41	0xbd3bb3c4	-0.045825735
42	0x3ad313c0	0.0016103908
43	0xbc93f333	-0.018060302
44	0xbd335618	-0.043783277
45	0xbce90021	-0.028442444
46	0x3bf13dc0	0.0073620975
47	0x3b2a15a0	0.002595283
48	0x3c9d52ae	0.019204464
49	0x3cc83b8c	0.024442457
50	0xbca7c0e0	-0.020477712
51	0xbd32f39d	-0.04368936
52	0xbd058fb7	-0.03260776
53	0xbd565ad9	-0.052332733
54	0xbb829222	-0.0039847055
55	0x3c74188b	0.01489843
56	0xbd53fbe4	-0.051753893
57	0x3c8b612a	0.017014105
58	0xbd2cddb4	-0.04220362
59	0x3d081f67	0.033233073
60	0xbc7a296b	-0.015268664
61	0xbcd1f0da	-0.025627542
62	0x3ceb6567	0.028734876
63	0x3cfc030a	0.030763168
64	0xbd1258a4	-0.035729066
65	0x3b90b96c	0.0044166353
66	0xbbb75e14	-0.005595932
67	0xbd33f6ca	-0.04393653
68	0xbbd75df4	-0.0065724794
69	0xbb376038	-0.0027980935
70	0x3c83d538	0.016092882
71	0xbc3188f6	-0.010835877
72	0xbc81ae8e	-0.015830304
73	0xbd0a0ad5	-0.033701736
74	0xbd4c3c4e	-0.0498622
75	0xbaded660	-0.0017001145
76	0xbd34bc92	-0.044125147
77	0x3d06a6b4	0.032873824
78	0xbd30887f	-0.043098923
79	0xbc68009a	-0.0141603
80	0xbd25498c	-0.040353343
81	0x3bd80ea2	0.0065935412
82	0xbcd73e66	-0.026274871
83	0x3b02cb74	0.0019957693
84	0x3bdbf730	0.0067128167
85	0x3ca74eea	0.020423371
86	0xbc162bf4	-0.009165753
87	0xbd535149	-0.05159119
88	0xbd206433	-0.039158057
89	0xba94ca98	-0.0011351882
90	0x3ca46b0b	0.020070573
91	0xbc78b4a8	-0.015179791
92	0xbd26e323	-0.04074396
93	0xbcad64c2	-0.02116621
94	0xbce2e70e	-0.027698066
95	0xbd0cc08c	-0.034363315
96	0x3ca08eb3	0.019599294
97	0xbd042df2	-0.03227038
98	0x3d082770	0.033240736
99	0xbce29933	-0.027660942
100	0x3c48db9c	0.01225939
101	0xbc5d94f7	-0.0135242855
102	0xbc96fd58	-0.01843135
103	0xbd388022	-0.045044072
104	0x3ace4730	0.0015737768
105	0x3ae526b0	0.0017482843
106	0x3c31e66b	0.010858159
107	0xbd3b583a	-0.045738436
108	0xbd2ce306	-0.042208694
109	0xbca1764c	-0.019709729
110	0xbb3e9fe8	-0.002908701
111	0xba427160	-0.0007417407
112	0xbc66e2ab	-0.014092128
113	0x3d01fe44	0.031736627
114	0xbcc302b6	-0.023805004
115	0x3c3260f3	0.010887372
116	0xbd1bad89	-0.038007293
117	0xbb8a8300	-0.004227042
118	0xbcf11be2	-0.02943224
119	0x3cf1a5ce	0.029498007
120	0xbc13a93a	-0.009012515
121	0xbbaade4e	-0.005214489
122	0xbd18507d	-0.037186135
123	0xbce8d510	-0.028421909
124	0xbd422b4b	-0.04740457
125	0xbd273f77	-0.04083201
126	0xbd1122b3	-0.035433482
127	0xbd462921	-0.048379067
128	0xbd4b5833	-0.04964466
129	0xba16f9d0	-0.0005759271
130	0xba811c38	-0.0009850329
131	0xbcae3443	-0.021265155
132	0xbcd6b8e0	-0.026211202
133	0xbb9c7d3c	-0.0047756713
134	0xbd5d6114	-0.05404766
135	0xbca66d82	-0.02031589
136	0xbcfbc636	-0.030734163
137	0xbca0ae64	-0.019614406
138	0xbcc1c387	-0.023652805
139	0x3b0dcb6c	0.0021636141
140	0xbd2132d6	-0.03935512
141	0xbac2ba50	-0.0014856551
142	0xbd068534	-0.032841876
143	0x3c3a20b9	0.011360341
144	0xbd105deb	-0.035245817
145	0xbcb3d19a	-0.021950532
146	0xbd207d9a	-0.039182283
147	0xbcc6b93b	-0.024258247
148	0x3b65ec24	0.0035083378
149	0x39bad800	0.00035637617
150	0xbd4a4556	-0.04938253
151	0x3d057f1e	0.03259193
152	0x3bfe595c	0.0077621173
153	0x3c2108a7	0.009828723
154	0x3ad1e770	0.0016014408
155	0x3cfad7b8	0.03062044
156	0x3ca00cb6	0.019537311
157	0x3b734614	0.0037120627
158	0xbc0c6874	-0.008569825
159	0x3c342974	0.010996211
160	0x3c52cd96	0.012866398
161	0xbd23704c	-0.039902017
162	0xbccbedd9	-0.024893688
163	0x3c5b5a1f	0.013388186
164	0xbcd82258	-0.026383564
165	0xbc145da6	-0.009055531
166	0xbbaea900	-0.005330205
167	0x3cb9c51a	0.022676993
168	0x3cc8f846	0.024532449
169	0xbc0364af	-0.00801961
170	0xb9b4fb60	-0.00034519564
171	0xbd12cff1	-0.03584284
172	0xbce0fdc2	-0.027464751
173	0xbc4d2ed8	-0.012523375
174	0xbd024332	-0.031802364
175	0x3cb55860	0.022136867
176	0xbc524f1c	-0.012836244
177	0xbd06045c	-0.032719
178	0xbcbfc736	-0.02341042
179	0xbd43348a	-0.047657527
180	0x3bb862ac	0.005626997
181	0x3cf03bc6	0.029325377
182	0x3cbc249b	0.022966674
183	0x3a62fb20	0.00086586364
184	0xbd3fc0b0	-0.04681462
185	0xbc1f94d6	-0.009740075
186	0x3ca6e710	0.020373851
187	0x3cc4d9cd	0.024029637
188	0x3b6f64f0	0.003652867
189	0x3c29839a	0.010346318
190	0xbd54074c	-0.05176477
191	0xbba2a294	-0.0049632285
192	0xbd1237b7	-0.035697665
193	0x3b2aac04	0.002604247
194	0x3b96be00	0.0046002865
195	0x3d09594b	0.033532422
196	0xbab635c0	-0.0013901517
197	0xbd5c70da	-0.05381856
198	0xbcfc128e	-0.030770566
199	0xbc357e05	-0.011077409
200	0x3c181667	0.009282685
201	0x3a932740	0.0011226907
202	0xbafd15a0	-0.0019308813
203	0xbc9ba4a0	-0.018999398
204	0x3b7c8eb8	0.0038537215
205	0xbc6f132e	-0.014591975
206	0x3ba1920e	0.004930741
207	0x3d01db6c	0.031703398
208	0x3ce72d5a	0.028219867
209	0xbbd7854c	-0.0065771695
210	0x3b7ec13c	0.00388725
211	0xbd2b8b6e	-0.041881017
212	0xbbe8533a	-0.0070899995
213	0xb999fe80	-0.0002937205
214	0x3cb1ccd8	0.021704122
215	0xbc9e76f3	-0.019343829
216	0x3cd2dd52	0.0257403
217	0x3d01d44d	0.031696606
218	0xbb984eaa	-0.0046480494
219	0x3c865ab5	0.016400674
220	0xbc88367c	-0.016627543
221	0x3cabb28f	0.020959167
222	0x3cea29df	0.028584419
223	0x3c8d2914	0.017231502
224	0x3d04343d	0.03227638
225	0x3b9763ea	0.004620065
226	0x3a3849f0	0.00070300605
227	0xbce50829	-0.027957993
228	0xbd082ae9	-0.033244047
229	0xbd4cf781	-0.050040726
230	0x3c04dd4d	0.008109403
231	0xbc9bdefe	-0.01902723
232	0x3c853bb0	0.016263813
233	0x3c91fded	0.017821277
234	0xbd33ed6c	-0.043927595
235	0x3d09d366	0.03364887
236	0xbd068266	-0.0328392
237	0xbc7bc44e	-0.015366627
238	0xbc1118e8	-0.008856036
239	0x3cfba052	0.030716095
240	0x3b001248	0.0019542146
241	0x3cf16ca6	0.029470753
242	0x3c2fa779	0.010721081
243	0xbc8d1c5c	-0.017225437
244	0xbc1d147c	-0.009587403
245	0x3cb94a8e	0.022618558
246	0x3cdc5aa4	0.02689869
247	0xbb18510c	-0.0023241667
248	0xbd49f648	-0.049307138
249	0xbce48fc0	-0.027900577
250	0xbcc45c9c	-0.02396994
251	0x3caba344	0.020951875
252	0xbd50b6f6	-0.050955735
253	0xbd516612	-0.051122732
254	0xbd208fba	-0.03919957
255	0x3c8bf4ae	0.017084446

network.3.bias f4 [256]
0	0x3cb6eb12	0.022328887
1	0x3cd261d1	0.025681408
2	0xbc61d9d6	-0.013784846
3	0xbc19ecd0	-0.009394839
4	0xbc941572	-0.018076632
5	0xbd1e27b7	-0.038612094
6	0x3cd844f8	0.026400074
7	0x3c89d820	0.01682669
8	0x3cb5b226	0.022179674
9	0xbbee30f1	-0.007269018
10	0xbcb3838d	-0.021913314
11	0x3bc58fe6	0.006029117
12	0xbd10b154	-0.035325363
13	0x3d253fca	0.040344037
14	0xbcc4c2a8	-0.0240186
15	0x3d174106	0.036927246
16	0x3cea4899	0.02859907
17	0x3c06de76	0.00823175
18	0xbd0fe27d	-0.035128105
19	0xbd494658	-0.04913935
20	0x3bf3bde5	0.0074384087
21	0x3d27c308	0.04095748
22	0xbb1d42de	-0.0023996155
23	0x3cceca49	0.025242941
24	0xbc52883f	-0.012849866
25	0xbc9e95a7	-0.01935847
26	0xbc4928fe	-0.01227784
27	0x3c8fe714	0.017566241
28	0x3cb07d17	0.021544022
29	0xbd065067	-0.03279152
30	0xbc97b5a0	-0.018519223
31	0x3cea833f	0.028627036
32	0xbcdd5314	-0.027017154
33	0xbcf2c462	-0.029634658
34	0x3cb84d5c	0.022497825
35	0x3cfa5cce	0.03056183
36	0xbd0b786b	-0.034050386
37	0xbd0738d0	-0.033013165
38	0x3bf29570	0.0074030682
39	0x3be502a5	0.0069888406
40	0xbd0305a0	-0.031987786
41	0x3cd98e2e	0.026557054
42	0x3d3784e3	0.044804465
43	0xbd336683	-0.043798935
44	0x3d1318fd	0.035912503
45	0x3d2b90d4	0.041886166
46	0xbcc072e4	-0.023492284
47	0xbd29eaa8	-0.04148355
48	0x3cd08dc6	0.025458228
49	0x3cdc13e6	0.026864957
50	0xba8aa498	-0.0010577617
51	0x3c8d853f	0.01727545
52	0xbd3ef5c8	-0.046621114
53	0x3d017085	0.031601448
54	0xbd1ed359	-0.038775776
55	0xbce83b15	-0.028348485
56	0x3d0d4fd4	0.03449996
57	0xbd2b3e8f	-0.041807707
58	0xbca7b6fe	-0.020473
59	0x3c4451a2	0.011982353
60	0xbd4f084e	-0.05054503
61	0xbcedabb5	-0.02901254
62	0xbc8409c1	-0.016117932
63	0xbd0363b2	-0.0320775
64	0xbcbf1edf	-0.02333015
65	0xbce3ffd7	-0.027831955
66	0xbad3735a	-0.00161324
67	0x3d2108f0	0.039315164
68	0x3c56d010	0.013111129
69	0x3c3d0c5c	0.011538591
70	0xbc359bca	-0.011084506
71	0xbc8df4a1	-0.017328562
72	0xbd3c749e	-0.046009652
73	0x3d2a46df	0.041571494
74	0xbc9887a4	-0.018619366
75	0xbca46c21	-0.020071091
76	0xbd16eaed	-0.036845136
77	0xbab074f0	-0.0013462584
78	0xbd145b81	-0.036220077
79	0x3be88e95	0.007097075
80	0xbc3b2313	-0.011421937
81	0xbbaa339c	-0.0051941406
82	0xbd003caf	-0.031307872
83	0xbc0921ae	-0.008369846
84	0xbd0a0348	-0.033694535
85	0xbbdc17fe	-0.0067167273
86	0xbbb42a12	-0.0054981792
87	0xbcf4a722	-0.029864851
88	0xbcfc3134	-0.03078518
89	0x3c389b62	0.011267515
90	0xbb8786e7	-0.0041359547
91	0x3bc0b886	0.005881372
92	0x3ced1d0a	0.028944511
93	0x3cf60624	0.030032225
94	0x3d3105a6	0.043218277
95	0xbd42deaf	-0.04757565
96	0x3c49db99	0.012320423
97	0xbd29b6db	-0.04143415
98	0xbc7e6ae0	-0.015528411
99	0x3c9c4882	0.019077543
100	0x3d260e28	0.040540844
101	0x3d089bee	0.03335183
102	0x3b087680	0.0020822585
103	0xbbdb9aa2	-0.0067017833
104	0xbb595d1c	-0.003316707
105	0x3cb9a210	0.022660285
106	0xbd125836	-0.035728656
107	0xbce0a698	-0.027423188
108	0x3c3b712a	0.011440555
109	0xbcc2b6f8	-0.023768887
110	0x3c7dbea7	0.01548735
111	0xbc3c7e6e	-0.011504753
112	0xbd479510	-0.04872614
113	0x3cdd9f90	0.027053624
114	0xbd4f49ee	-0.050607614
115	0xbd4de4a2	-0.05026687
116	0x3d094e47	0.033521917
117	0xbc76bcc9	-0.015059658
118	0xbcee83bb	-0.029115548
119	0xbcf332b1	-0.029687257
120	0xbc216005	-0.009849553
121	0x3d3895e0	0.045064807
122	0xbd4feb3d	-0.05076145
123	0x3d0749b3	0.03302927
124	0x3cb388df	0.021915851
125	0x3c80b71c	0.015712313
126	0x3bca8eb8	0.006181564
127	0xbcb57b3e	-0.022153493
128	0x3cb232b9	0.021752702
129	0x3cf74b0c	0.030187152
130	0xbd0aad2a	-0.03385655
131	0xbd34308e	-0.043991618
132	0x3d2680a9	0.040650044
133	0xbd3c1dcd	-0.045926858
134	0xbb1a60f6	-0.0023556328
135	0xbd3a9dd4	-0.045560673
136	0xbd263aac	-0.040583298
137	0x3cc4bd59	0.02401607
138	0x3c0403b4	0.0080575235
139	0xbd5388dd	-0.051644195
140	0x3a09744b	0.0005243464
141	0xbc7c61e5	-0.015404199
142	0x3d2de899	0.04245815
143	0x3ccac23d	0.024750823
144	0xbd1c9a16	-0.038232885
145	0x3cacd8ba	0.021099437
146	0xbb12056c	-0.0022281064
147	0x3cf39ca8	0.029737785
148	0xbd17c604	-0.037054077
149	0xbd124777	-0.035712685
150	0x3caf8387	0.021425022
151	0x3d0ae94d	0.0339139
152	0x3bf2ef3c	0.007413773
153	0xba2cdc1c	-0.0006594078
154	0x3ce53dee	0.027983632
155	0x3c77ef28	0.015132703
156	0xbc8a4e2d	-0.01688298
157	0x3ca0bcc5	0.019621262
158	0xbd264a4a	-0.04059819
159	0x3c2ec7cb	0.010667752
160	0x3c96e6dc	0.01842063
161	0xbcc7292b	-0.024311623
162	0xbcc4355a	-0.023951221
163	0xbcbe702d	-0.023246849
164	0xbce906af	-0.02844557
165	0x3d009095	0.031387884
166	0xbc5ae314	-0.013359804
167	0x3b6472cf	0.003485847
168	0x3c662739	0.014047437
169	0x3c4c4ee3	0.01246998
170	0x3d33cd80	0.043897152
171	0xbc944656	-0.018099945
172	0x3cc5d66e	0.0241501
173	0x3c220e9f	0.009891181
174	0xbd4a5104	-0.04939367
175	0x3ce089b2	0.027409408
176	0x3c9e8397	0.019349856
177	0xbc58be8e	-0.0132290255
178	0xbce2c980	-0.027683973
179	0x3cba1714	0.022716083
180	0x3cdd82e9	0.027039962
181	0x3d162ded	0.036664892
182	0x3ac580cf	0.0015068295
183	0xbd06679c	-0.032813653
184	0xbd301a1c	-0.04299365
185	0x3cce471a	0.025180388
186	0xbd14e80d	-0.036354113
187	0xba014b58	-0.00049321866
188	0xbc0ebd51	-0.008712129
189	0x3ccd1f54	0.025039352
190	0x3bddd413	0.006769666
191	0xbce7b01a	-0.028282214
192	0x3c88be3a	0.01669227
193	0xbc5fca61	-0.013659091
194	0x3d05a176	0.032624684
195	0xbd19aab4	-0.03751631
196	0xbc28196a	-0.010259965
197	0x3c857f7f	0.016296146
198	0x3c7d3808	0.015455253
199	0xbc73ce47	-0.014880723
200	0xbd10516a	-0.035233893
201	0x3a0647c2	0.0005122387
202	0x3b33f8af	0.002746146
203	0x3cb2a9a0	0.0218094
204	0xbc379915	-0.011205931
205	0xbd15a9a4	-0.036538735
206	0xbd0d229e	-0.03445684
207	0xbc4242ae	-0.011856718
208	0xba91153d	-0.0011068952
209	0xbcb5c727	-0.02218969
210	0xba6b37fd	-0.00089728815
211	0x3c55cd7c	0.01304948
212	0x3ccd304f	0.02504745
213	0x3c86140e	0.016366985
214	0x3ce98208	0.028504387
215	0x3c84fbd9	0.016233372
216	0xbc9f642c	-0.019456945
217	0xbd25222f	-0.040315803
218	0x3c8070e2	0.015678827
219	0x3bd314ae	0.006441674
220	0xbc38dd02	-0.011283161
221	0xbb804180	-0.003914058
222	0xbd550671	-0.052008096
223	0x3d37af92	0.04484517
224	0xbc32f2fa	-0.010922188
225	0xbbb02e1e	-0.0053765913
226	0x3bd94606	0.006630662
227	0xbd1a6b6a	-0.037700094
228	0x3c0beb02	0.008539917
229	0xbd0d6a7e	-0.034525387
230	0x3d065fcb	0.0328062
231	0x3c08c0d4	0.008346755
232	0xbd2fd3de	-0.04292666
233	0xbadc7f50	-0.001682261
234	0x3caf85d4	0.021426119
235	0xbd4ce826	-0.05002608
236	0x3c3350e3	0.010944578
237	0xbd2346c2	-0.0398624
238	0xbcf45fc0	-0.029830813
239	0x3c99e64a	0.018786568
240	0x3c4c1451	0.012456016
241	0xbb08772c	-0.0020822985
242	0xbc2469c8	-0.010034986
243	0xbd04f799	-0.03246269
244	0x3ced7760	0.028987586
245	0x3d11af1e	0.035567395
246	0xbcd5bd59	-0.026091265
247	0xbcbacbcb	-0.022802254
248	0xbc440210	-0.011963382
249	0x3c6755b3	0.014119553
250	0x3d32c331	0.04364318
251	0xbc1be125	-0.009514128
252	0xbcf0b360	-0.029382408
253	0xbd1b764e	-0.03795462
254	0x3c1e6d07	0.009669549
255	0x3d195c4f	0.037441548

network.6.weight f4 [1, 256]
0	0x3c81ed58	0.015860245
1	0xbcf7c515	-0.030245343
2	0x3cc5935a	0.024118114
3	0xbbedb58e	-0.007254309
4	0x3d049991	0.032373015
5	0xbcba9770	-0.02277729
6	0xbd05869a	-0.03259907
7	0x3d4d9d2a	0.05019871
8	0xbad7194c	-0.0016410737
9	0x3c430de3	0.011905166
10	0x3d01e20e	0.031709723
11	0xbd610942	-0.05494047
12	0x3cb42ca0	0.021993935
13	0xbd17c93a	-0.03705714
14	0xbbea2040	-0.007144958
15	0xbd79dfef	-0.061004575
16	0x3d22f84d	0.03978758
17	0x3d3888a7	0.045052197
18	0xbc49970c	-0.012304079
19	0x3bd896b6	0.006609763
20	0xb9ddac0a	-0.00042280584
21	0xbd6e2838	-0.058143824
22	0xbd128c8c	-0.035778567
23	0xbaf93e9c	-0.0019015851
24	0xbc162498	-0.009163998
25	0xbd810aac	-0.063008636
26	0xbb00b982	-0.0019641821
27	0x3d37b054	0.044845894
28	0xbd41a5c1	-0.047277216
29	0x3badceac	0.005304178
30	0x3cd6d0a6	0.026222538
31	0xbd5c6100	-0.053803444
32	0x3d56c3b1	0.05243272
33	0x3d4a7429	0.049427185
34	0xbd7f4dae	-0.06232994
35	0x3cd2b1c3	0.025719529
36	0xbd1aef8a	-0.0378261
37	0x3d549b8a	0.051906146
38	0x3d288149	0.04113892
39	0xbd048ed3	-0.03236277
40	0x3c54afe0	0.012981385
41	0x3a00fc80	0.0004920438
42	0xbc840fe9	-0.016120868
43	0xbc15150d	-0.009099257
44	0xbd0a4ae5	-0.03376283
45	0xbd5ec018	-0.054382414
46	0xbd818277	-0.06323712
47	0x3bbb3d1e	0.005714073
48	0xbd720efa	-0.059096314
49	0xbc85a186	-0.016312372
50	0x3b8d16c2	0.0043056915
51	0xbccfff82	-0.02539039
52	0xb9814120	-0.0002465332
53	0x3c089a86	0.0083376225
54	0xb98a5e00	-0.00026391447
55	0xbca79106	-0.020454895
56	0xbcb8c1b6	-0.022553306
57	0x372f8aa6	1.0463094e-05
58	0xbd530f61	-0.05152834
59	0xbd7c7af2	-0.061640687
60	0x3b6e9878	0.0036406796
61	0xbd133c8e	-0.03594642
62	0x3aa2d9b3	0.0012424499
63	0x3d054cdf	0.032544013
64	0x3d40513f	0.046952482
65	0xbd5a82f5	-0.053347547
66	0xbd2bb702	-0.041922577
67	0xbcfb3065	-0.030662725
68	0x3d4c8249	0.049928937
69	0x3c3d5d11	0.011557833
70	0x3cba05c4	0.022707827
71	0x3d4f6e8c	0.050642535
72	0x3d032076	0.03201338
73	0xbd2a8e21	-0.04163945
74	0xbbaf6022	-0.005352036
75	0xbccbe677	-0.024890168
76	0x3d37aeba	0.044844367
77	0xbbfeb60e	-0.0077731675
78	0xbd2e2d75	-0.04252382
79	0xbcf8eace	-0.030385401
80	0x3c49cb78	0.012316577
81	0xbc0d727d	-0.008633253
82	0x3cff5b64	0.031171508
83	0x3b005a20	0.0019584969
84	0x3d526e1e	0.051374547
85	0xbd7f580c	-0.062339827
86	0x3c7d2de6	0.015452838
87	0x3d172314	0.036898687
88	0x3c1ccc32	0.009570168
89	0xbd3be6db	-0.045874458
90	0x3c4e1fa5	0.012580787
91	0x3c895180	0.016762495
92	0x3d04bdbf	0.03240752
93	0xbd09e056	-0.03366121
94	0xbd8779a0	-0.06614995
95	0x3b2cbcb0	0.0026357584
96	0xbcc4362c	-0.023951612
97	0x3bd32cd0	0.006444551
98	0xbd234d4a	-0.03986863
99	0x3d046465	0.032322306
100	0xbd01017c	-0.031495556
101	0xbd09375b	-0.033500057
102	0xbd6a5c9b	-0.05721722
103	0x3c893bc5	0.016752133
104	0x3d0a5758	0.033774704
105	0xbd84ba7b	-0.06480881
106	0xbc228c5e	-0.009921161
107	0xbcbb61ad	-0.022873724
108	0xbc386c09	-0.011256226
109	0x3d12bbd0	0.035823643
110	0x3ccf702b	0.02532204
111	0x3c8881cf	0.01666346
112	0x3b529d2a	0.0032137134
113	0xbcbc7557	-0.02300517
114	0xbbe0a5d4	-0.0068557058
115	0x3cfd207b	0.030899277
116	0xbcfeee32	-0.03111944
117	0x3ca59ffd	0.02021789
118	0xbd818ffd	-0.06326292
119	0xbd36e516	-0.044652067
120	0xbb6f1aed	-0.0036484555
121	0xbcf14734	-0.029452898
122	0x3d0d4bbe	0.03449606
123	0xbbb4ba16	-0.0055153472
124	0xbb9176c0	-0.004439205
125	0xbd4b2c6d	-0.049602915
126	0xbcb023fa	-0.02150153
127	0xbd5e0d05	-0.054211635
128	0xbd169932	-0.036767192
129	0xbd1b1620	-0.037862897
130	0x3d0fa188	0.035066158
131	0xbd7bf7da	-0.061515667
132	0xbd6e560a	-0.058187522
133	0x3cea8e0a	0.028632183
134	0xbca94782	-0.02066398
135	0x3bfd2410	0.0077252463
136	0x3ca6661d	0.020312363
137	0x382a12f5	4.0548814e-05
138	0xbd63820f	-0.055543955
139	0x3ce42cc6	0.02785338
140	0x3be5c333	0.007011795
141	0xbcb42eeb	-0.021995028
142	0xbc7d8703	-0.015474084
143	0x3c9122ff	0.017716883
144	0x3d03d62a	0.032186665
145	0xbb0876ed	-0.0020822838
146	0x3d1a5eed	0.037688185
147	0x3cfaed94	0.030630864
148	0xbd14bf9a	-0.036315538
149	0xbb2cc238	-0.002636088
150	0xbcd4878b	-0.025943538
151	0xbd1d3e22	-0.038389333
152	0x3adc86b8	0.0016824817
153	0x3cc7b3fe	0.02437782
154	0x3c18ed16	0.009333869
155	0xbcd8adff	-0.026450155
156	0x3cee4547	0.029085768
157	0xbd2dceb4	-0.042433456
158	0x3d30b067	0.04313698
159	0xbcd98b3c	-0.02655565
160	0x3c90bfb4	0.017669536
161	0xbc99ccea	-0.018774468
162	0xbc031abb	-0.0080019785
163	0xbd0a4ae8	-0.033762842
164	0xbd1652fa	-0.036700226
165	0xbd123a95	-0.0357004
166	0x3ac74ea0	0.0015205927
167	0xbad646b0	-0.0016347971
168	0xbd48b9ce	-0.049005322
169	0x3d1c74fe	0.03819751
170	0xbd0cf42f	-0.03441256
171	0x3d2d0cd0	0.042248547
172	0x3d1db882	0.03850604
173	0x3b6f0cfc	0.0036476245
174	0x3c962528	0.018328264
175	0xbc0c03ab	-0.008545796
176	0x3d441ccb	0.04787902
177	0xbb49675a	-0.0030731768
178	0xbb93e0a2	-0.0045128623
179	0xbd8de0d5	-0.06927649
180	0xbd691456	-0.05690416
181	0xbca6f6f1	-0.020381423
182	0x3a447392	0.0007494028
183	0xbce84e45	-0.028357634
184	0x3ce8cf64	0.028419204
185	0x3d1c6019	0.038177583
186	0x3c161c49	0.009162017
187	0xbd5f3a06	-0.054498695
188	0x3d0c8cdf	0.034314033
189	0x3d3d5a4a	0.046228684
190	0xbd865d50	-0.06560767
191	0x3681a800	3.8640574e-06
192	0xbd08bab4	-0.03338118
193	0x3d13c4a8	0.036076218
194	0xbd788bd4	-0.060680225
195	0xbc14e90c	-0.009088766
196	0x3b811340	0.0039390624
197	0x3b352ac1	0.0027643892
198	0x3c4e8587	0.012605078
199	0xbcb21e41	-0.021742942
200	0x3cd8d1f2	0.026467297
201	0xbd4fae35	-0.050703246
202	0xbd4b9208	-0.049699813
203	0x3d4e6831	0.050392333
204	0x3d25c541	0.04047132
205	0x3d54bb3a	0.051936366
206	0x3d10ad7b	0.035321694
207	0xbc231d5f	-0.009955733
208	0xba81dba8	-0.0009907382
209	0xbd2afb58	-0.041743606
210	0xbd3c82a0	-0.04602301
211	0xb91a0bc0	-0.00014690962
212	0x3c296b76	0.010340562
213	0x3d3518da	0.044213153
214	0x3d569496	0.052387796
215	0xba2d99a0	-0.0006622318
216	0xbd0789eb	-0.033090513
217	0xbd2e4a9b	-0.042551618
218	0x3d514b4e	0.051097207
219	0xbaa444b8	-0.0012532687
220	0xbd6bf056	-0.05760225
221	0xbcd0b60b	-0.02547743
222	0x3d0ccb90	0.03437382
223	0xbd7b360e	-0.061330847
224	0xbc5ed268	-0.013599969
225	0x3b122ed5	0.0022305746
226	0xbd110be3	-0.035411727
227	0x3d4f4976	0.050607167
228	0x3cb0413f	0.021515487
229	0x3ce6c9f2	0.028172467
230	0x3d3935f0	0.045217454
231	0x3c9a1fd6	0.018814009
232	0x3c5eb82a	0.013593713
233	0x3c9d4c6e	0.019201484
234	0x3bba5cea	0.0056873458
235	0x3cf09f72	0.029372904
236	0xbb82bbd2	-0.003989675
237	0xbc11430e	-0.008866085
238	0xbd292f49	-0.04130486
239	0x39cf9260	0.00039591175
240	0xbd0158e3	-0.03157891
241	0x3d04e68e	0.032446437
242	0xbd82467d	-0.06361101
243	0x3cedd4d7	0.029032154
244	0x3cac6e05	0.021048555
245	0xbd76b315	-0.06022938
246	0xbd2a6ddf	-0.041608687
247	0xb9a7807a	-0.00031948445
248	0xbcb2bb28	-0.021817759
249	0xbd1c253b	-0.038121443
250	0xbd61a49e	-0.05508863
251	0xbd031e09	-0.032011066
252	0xbb8e29dd	-0.0043384866
253	0x3a0c7220	0.0005357582
254	0xbb8a287c	-0.004216252
255	0xbd6276ec	-0.055289194
