projekt1/wandb/run-20251108_163414-ml9l1vk3/files/best_model.pth (torch, 240909 bytes, 7 tensors)

network.0.weight f4 [256, 70]
0.102266654 0.11497597 -0.03238285 0.00978758 0.055850882 0.01168948 -0.052213475 -0.07955119
0.0024790268 0.0097490335 0.090651914 -0.09170284 0.0015602388 -0.12680891 0.09235268 -0.17660752
-0.02946057 -0.100348644 0.014112381 -0.08570229 0.027011827 0.045861248 0.07969464 0.12447462
0.047952015 -0.038832914 -0.023009926 0.040651232 0.049564485 -0.04423523 -0.08867616 0.06756291
-0.08833548 0.07722271 -0.07442218 0.02081869 0.14313272 -0.09346973 -0.048611827 -0.10279776
0.009218045 0.053856455 -0.11498332 -0.026387172 0.09003535 0.06469295 0.040498342 0.048171688
0.0653303 0.006408302 -0.024783827 -0.08993596 0.061043378 0.033732124 -0.08443078 0.011673562
0.036763307 -0.014524922 -0.063869804 -0.14471237 0.0837708 0.07670411 0.045917906 -0.1323931
-0.15542114 0.0375171 -0.088897 0.041394785 0.06509792 0.04348522 -0.1787748 -0.023037676
0.11098137 0.07117959 0.13400383 -0.039445445 0.17968494 0.03325052 0.06359622 -0.05173432
-0.025192467 0.03061179 -0.15971379 0.03308979 -0.070781924 -0.20386359 -0.12298975 0.004347197
0.077232495 -0.069837295 -0.041393906 -0.04894872 0.0008645779 -0.017288277 -0.081959836 0.06094895
0.056564383 0.022520838 0.08349048 0.019850094 0.018235417 0.008391048 0.12061902 -0.026445795
0.08989017 -0.10800808 0.06847133 -0.029961897 -0.10020672 -0.036061935 0.07276961 0.09479518
0.11075952 -0.04367843 -0.06615766 -0.07056588 0.04485377 0.068683095 -0.005697759 0.04162303
0.0652698 -0.08928622 -0.112076394 0.049941413 -0.022439038 -0.12492916 -0.09393149 -0.05788512
0.112854265 -0.0027302396 -0.058890425 0.13303123 -0.14619055 0.055628236 0.13243175 -0.0015266244
-0.04706627 0.013962296 -0.097397946 -0.11578877 -0.03664645 -0.11996015 0.024416277 -0.08919946
0.10984559 -0.00058891973 0.06246479 -0.04728449 -0.042930484 0.024250815 0.1497847 -0.006305104
-0.012779294 0.01230801 0.118560575 -0.052858967 0.06805905 -0.13327429 0.062366977 0.030509561
-0.03129417 -0.040063817 0.09746915 -0.08962988 -0.0061851474 0.07498596 -0.044486973 0.049793944
-0.11175206 -0.13809234 -0.058583688 -0.09100993 0.01672567 -0.0219022 -0.041444864 -0.11869126
0.14668243 0.0037121964 -0.044246383 -0.041253544 -0.040489245 0.061276488 0.036526565 0.012292208
-0.13241903 0.13340513 -0.06417796 0.01669852 0.08203186 0.032037318 0.08957237 0.043261528
0.020537745 -0.010719334 -0.12386556 -0.051648587 -0.14099698 -0.103816025 -0.08239268 -0.004868578
0.056651846 0.0096686045 -0.04224122 -0.023397814 0.07182076 -0.029223673 -0.017987661 -0.014451551
-0.019286718 -0.09503863 -0.08242716 -0.056900457 -0.059298906 0.088640474 0.01811483 0.07788332
0.058000777 -0.12104453 0.021733087 0.04496455 0.12876573 -0.021849087 -0.21870388 -0.095921576
-0.04396534 -0.18146804 0.12025258 -0.14665467 0.064321205 0.09920041 -0.027162278 0.010325735
0.06423369 0.030406436 -0.010330441 -0.12789157 0.15501377 0.017843636 0.04397369 0.0678321
0.0033840188 -0.078198224 -0.040664833 -0.039747916 0.0646589 -0.08681341 -0.10003415 0.012668986
-0.09154849 0.096488066 -0.00193435 0.015907165 0.10463626 -0.06200358 0.050352067 0.04124823
00000000: 2e71 d13d 8578 eb3d e1a3 04bd 165c 203c
00000010: e5c3 643d 3c85 3f3c ccdd 55bd bceb a2bd
00000020: 2b77 223b 69ba 1f3c b6a7 b93d b3ce bbbd
00000030: ed80 cc3a 32da 01be 6723 bd3d 9ad8 34be
00000040: 4b57 f1bc 9783 cdbd 9e37 673c af84 afbd
00000050: e847 dd3c 01d9 3b3d f236 a33d 8dec fe3d
00000060: 5569 443d 430f 1fbd 507f bcbc e881 263d
00000070: 2104 4b3d 0030 35bd d99b b5bd 6c5e 8a3d
00000080: 3be9 b4bd f126 9e3d a86a 98bd f58b aa3c
00000090: 6291 123e 0f6d bfbd 321d 47bd a287 d2bd
000000a0: 4807 173c 9698 5c3d 607c ebbd e929 d8bc
000000b0: 7464 b83d bd7d 843d 97e1 253d ad4f 453d
000000c0: e4cb 853d bcfc d13b 7407 cbbc 5830 b8bd
000000d0: 9f08 7a3d b22a 0a3d 0bea acbd 7842 3f3c
000000e0: 1f95 163d f0f9 6dbc 2cce 82bd 7b2f 14be
000000f0: 0690 ab3d 0b17 9d3d 6a14 3c3d 0f92 07be
00000100: b826 1fbe 88ab 193d a10f b6bd 948d 293d
00000110: 0f52 853d 8f1d 323d be10 37be 82b9 bcbc
00000120: 334a e33d 9bc6 913d 4d38 093e 8c91 21bd
00000130: 54ff 373e b231 083d bc3e 823d 5ee7 53bd
00000140: 6f60 cebc 94c5 fa3c 038c 23be 2989 073d
00000150: 1df6 90bd 9ec1 50be 0de2 fbbd ee72 8e3b
00000160: 122c 9e3d db06 8fbd a88c 29bd 747e 48bd
00000170: d7a4 623a 25a0 8dbc 8fda a7bd 9ba5 793d
00000180: 0eb0 673d 9f7d b83c 0ffd aa3d aa9c a23c
00000190: 7162 953c 9b7a 093c 1b07 f73d daa4 d8bc
000001a0: 5618 b83d 5733 ddbd b23a 8c3d a772 f5bc
000001b0: 2e39 cdbd aeb5 13bd 3c08 953d fa23 c23d
000001c0: e3d5 e23d 27e8 32bd ab7d 87bd d884 90bd
000001d0: 96b8 373d b9a9 8c3d 44b4 babb e97c 2a3d
000001e0: 2cac 853d b2db b6bd 4f88 e5bd 5e8f 4c3d
000001f0: 13d2 b7bc dcda ffbd 275f c0bd f318 6dbd
00000200: 2320 e73d d2ed 32bb 1637 71bd 5739 083e
00000210: fab2 15be 6fda 633d 309c 073e 0419 c8ba
00000220: 90c8 40bd 1dc2 643c 9378 c7bd aa22 edbd
00000230: 971a 16bd abad f5bd a504 c83c 35ae b6bd
00000240: baf6 e03d bc61 1aba 14db 7f3d 62ad 41bd
00000250: e0d7 2fbd a5a9 c63c 2961 193e 0c9b cebb
00000260: 3e60 51bc 89a7 493c e3cf f23d a582 58bd
00000270: 8b62 8b3d 0e79 08be 8474 7f3d 30ef f93c
00000280: 512e 00bd f519 24bd e89d c73d df8f b7bd
00000290: c7ac cabb 3d92 993d f937 36bd bcf4 4b3d
000002a0: 44de e4bd 1468 0dbe 73f5 6fbd 6a63 babd
000002b0: 4604 893c 3e6c b3bc 17c2 29bd 6714 f3bd
000002c0: eb33 163e 5248 733b b23b 35bd 7af9 28bd
000002d0: 0dd8 25bd 0efd 7a3d e19c 153d 4265 493c
000002e0: db98 07be 5b9b 083e bc6f 83bd 56cb 883c
000002f0: 5200 a83d 9039 033d b871 b73d 0033 313d
00000300: c63e a83c 25a0 2fbc 3aad fdbd 788d 53bd
00000310: 8361 10be 7f9d d4bd 7ebd a8bd 9888 9fbb
00000320: c40b 683d 1169 1e3c 2105 2dbd c6ac bfbc
00000330: c316 933d 7c66 efbc dc5a 93bc 33c6 6cbc
00000340: 2eff 9dbc 9da3 c2bd 92cf a8bd 7410 69bd
00000350: 69e3 72bd 2389 b53d 8d65 943c 4a81 9f3d
00000360: 3992 6d3d 32e6 f7bd 9609 b23c bf2c 383d
00000370: 2adb 033e dbfc b2bc e9f3 5fbe 8872 c4bd
00000380: 0015 34bd c2d2 39be fc46 f63d a42c 16be
00000390: d6ba 833d 9629 cb3d 6d83 debc 462d 293c
000003a0: f48c 833d eb16 f93c 0341 29bc 02f6 02be
000003b0: eebb 1e3e d12c 923c c21d 343d 8eeb 8a3d
000003c0: 6ac6 5d3b 6426 a0bd 2b90 26bd b6ce 22bd
000003d0: e36b 843d 3bcb b1bd b4de ccbd 9491 4f3c
000003e0: c67d bbbd 899b c53d 048a fdba be4f 823c
000003f0: 894b d63d 77f7 7dbd f83d 4e3d e7f3 283d

network.0.bias f4 [256]
-0.03321053 -0.003452746 -0.08804656 0.093595214 0.017625606 0.12936366 -0.07030839 -0.026436446
0.049061667 -0.1178929 0.087058015 0.06505305 -0.11397541 -0.1125237 -0.07951282 -0.016911592
0.056298874 0.1029185 -0.058246583 -0.087926105 0.00529618 0.05789888 -0.03868541 -0.04463481
-0.029068701 -0.08096575 0.088360205 0.10334071 -0.13750671 0.026108311 -0.09080012 0.025760433
0.059981856 0.09894711 -0.078574665 0.060771182 -0.07574098 -0.020325942 -0.09187319 0.02029568
-0.115236245 -0.07929839 -0.1126483 -0.06408454 -0.016777543 -0.004957874 -0.003982539 -0.1005954
0.07731914 0.053101987 -0.06610414 0.028051062 -0.019664302 -0.011765353 -0.047464985 0.08313314
0.03698022 0.053106803 -0.1169527 -0.038300533 0.070563994 -0.106814526 -0.08209023 -0.09074576
0.072333835 0.049320582 0.0031276976 -0.12322004 -0.032871895 0.060871564 -0.092907205 -0.044859853
0.097333916 0.10760878 -0.07520872 -0.07191307 0.021611966 -0.005273964 -0.10247819 0.021179982
0.071124166 -0.11500447 -0.030939521 -0.053781178 -0.010940608 -0.11757189 -0.08037408 -0.047239974
-0.032964475 -0.02625198 -0.13588235 0.08344542 0.019955548 0.05049347 0.077891655 -0.047448844
0.06170617 -0.05401834 0.07538177 0.034637164 -0.013061546 -0.12722187 -0.0062697907 -0.062667176
-0.0018246005 -0.054627236 -0.0072461437 -0.14386645 0.003102915 -0.11878209 -0.00025399838 -0.049826104
-0.071755104 -0.11042712 0.07931844 0.106782034 -0.08094349 -0.107736215 -0.004632259 0.03239373
0.0040634684 -0.0502972 -0.047435127 0.023897044 0.06003552 0.105545744 -0.058471687 0.019555321
-0.13287653 -0.09586515 -0.08233321 -0.07837239 0.07474349 0.0681516 0.072109096 0.0046935086
-0.06597758 0.09233399 -0.083545595 -0.07519158 -0.007019981 -0.07586573 -0.024945278 -0.12003301
-0.07536505 -0.10868018 0.1258784 0.016773278 -0.0063456562 0.08638154 -0.11504019 -0.05137239
0.097448 -0.02646287 0.044331167 -0.06494571 0.08912951 -0.041252144 0.022178894 0.023429198
-0.07835567 -0.048769325 0.07599536 0.10890896 -0.03462766 -0.1514984 -0.092053875 -0.12355119
-0.06052047 -0.032265257 -0.00191117 -0.1284135 0.14258428 0.04281486 0.12496153 -0.08591709
-0.13402906 0.008738129 -0.01941762 -0.12301451 0.08179534 -0.059887674 0.016810376 -0.12154424
-0.09282929 -0.005347753 -0.025099166 -0.058603153 -0.046104603 -0.032533303 -0.11754394 0.08063994
-0.025578482 -0.16138954 0.075641975 -0.035836067 0.15333499 -0.10626967 -0.05153647 0.1285768
0.0053871414 -0.012723524 -0.09925047 -0.04854996 0.037122164 0.11330914 0.07306451 -0.10287026
0.03276768 0.047264826 -0.026189724 -0.06707844 -0.035473175 -0.0632867 0.039188594 0.09733514
0.0770249 -0.075009204 0.012742556 0.08734945 -0.042099692 0.01922416 0.013675952 0.060647592
0.054496687 -0.06335422 0.02977793 -0.016879275 0.030341411 -0.062057693 -0.02775754 -0.11382693
-0.036635585 0.017651318 0.11930947 0.009955651 -0.11357609 0.10343151 0.03270201 0.104516305
-0.013329596 0.10891869 0.041334286 -0.014132624 -0.0074328687 0.03657156 -0.044995822 0.059399717
-0.03897455 -0.09726861 -0.09047629 0.024430577 0.04407587 -0.12136999 0.057317834 0.11162198
00000000: c407 08bd 7747 62bb c151 b4bd d9ae bf3d
00000010: 9363 903c e877 043e d8fd 8fbd 3f91 d8bc
00000020: e3f4 483d d571 f1bd 794b b23d 893a 853d
00000030: f16b e9bd d372 e6bd 9ed7 a2bd 2e8a 8abc
00000040: a699 663d efc6 d23d f893 6ebd 9a12 b4bd
00000050: 948b ad3b 6027 6d3d 9874 1ebd fed2 36bd
00000060: 7c21 eebc 5fd1 a5bd 32f6 b43d 4ba4 d33d
00000070: 8fce 0cbe 19e1 d53c 6af5 b9bd 8b07 d33c
00000080: 89af 753d c8a4 ca3d c1eb a0bd 34eb 783d
00000090: 161e 9bbd 9782 a6bc 0328 bcbd 2043 a63c
000000a0: fb00 ecbd 3267 a2bd 27b4 e6bd c13e 83bd
000000b0: 0f71 89bc a975 a2bb f57f 82bb f604 cebd
000000c0: 7f59 9e3d 7881 593d 9b61 87bd 57cb e53c
000000d0: 0817 a1bc 78c3 40bc a56a 42bd b541 aa3d
000000e0: 9278 173d 8586 593d e684 efbd 05e1 1cbd
000000f0: db83 903d 93c1 dabd ec1e a8bd ead8 b9bd
00000100: c323 943d 6104 4a3d 0ffa 4c3b ca5a fcbd
00000110: aea4 06bd 7654 793d 2246 bebd f7be 37bd
00000120: 0157 c73d fe61 dc3d 0807 9abd 2947 93bd
00000130: 940b b13c 37d1 acbb 16e0 d1bd a481 ad3c
00000140: 8ca9 913d 7787 ebbd e174 fdbc a749 5cbd
00000150: 3c40 33bc 88c9 f0bd 2a9b a4bd b47e 41bd
00000160: c205 07bd 640e d7bc be24 0bbe 6fe5 aa3d
00000170: d179 a33c 3ed2 4e3d a985 9f3d b859 42bd
00000180: 9cbf 7c3d 5642 5dbd c261 9a3d b3df 0d3d
00000190: 1800 56bc 7346 02be d172 cdbb a657 80bd
000001a0: 6f27 efba cfc0 5fbd 0f71 edbb ba51 13be
000001b0: 465a 4b3b 0644 f3bd 162b 85b9 7516 4cbd
000001c0: 57f4 92bd 9d27 e2bd b571 a23d 8ab0 da3d
000001d0: b3c5 a5bd cea4 dcbd 34ca 97bb 4aaf 043d
000001e0: d826 853b 7004 4ebd 564b 42bd bcc3 c33c
000001f0: cee7 753d 5e28 d83d 0280 6fbd 7b32 a03c
00000200: c910 08be f354 c4bd 509e a8bd b481 a0bd
00000210: 1d13 993d 1193 8b3d efad 933d 01cc 993b
00000220: 411f 87bd 9a19 bd3d f419 abbd 0bfe 99bd
00000230: de07 e6bb 7e5f 9bbd 0a5a ccbc ded3 f5bd
00000240: fe58 9abd b793 debd 44e6 003e 1d68 893c
00000250: 39ef cfbb cee8 b03d 319a ebbd db6b 52bd
00000260: d192 c73d a9c8 d8bc 9994 353d 4202 85bd
00000270: 8889 b63d 02f8 28bd 83b0 b53c 97ee bf3c
00000280: f078 a0bd 58c2 47bd 75a3 9b3d a90b df3d
00000290: bcd5 0dbd 6622 1bbe be86 bcbd 6808 fdbd
000002a0: 50e4 77bd 9328 04bd 3980 faba d47e 03be
000002b0: 9d01 123e a25e 2f3d d5eb ff3d 4df5 afbd
000002c0: ea3e 09be 5f2a 0f3c b311 9fbc 08ef fbbd
000002d0: 5184 a73d c74c 75bd eab5 893c 30ec f8bd
000002e0: 481d bebd 343c afbb c49c cdbc dc09 70bd
000002f0: 2ed8 3cbd a441 05bd e1ba f0bd 8e26 a53d
00000300: f789 d1bc 4d43 25be 2eea 9a3d d7c8 12bd
00000310: d903 1d3e eaa3 d9bd e817 53bd a3a9 033e
00000320: 9e86 b03b 5476 50bc d543 cbbd 53dc 46bd
00000330: 690d 183d 9f0e e83d d9a2 953d a5ad d2bd
00000340: 6737 063d c398 413d d58b d6bc 6c60 89bd
00000350: 524c 11bd 759c 81bd 3884 203d a557 c73d
00000360: 3bbf 9d3d 6d9e 99bd 27c6 503c 45e4 b23d
00000370: ba70 2cbd fc7b 9d3c 1a11 603c 9c69 783d
00000380: eb37 5f3d dbbf 81bd d8f0 f33c 6846 8abc
00000390: 8d8e f83c 3530 7ebd c863 e3bc 181e e9bd
000003a0: 320f 16bd 7f99 903c 8658 f43d 071d 233c
000003b0: 959a e8bd e6d3 d33d 8bf2 053d a50c d63d
000003c0: 6164 5abc c310 df3d 244e 293d 858c 67bc
000003d0: 6c8f f3bb 0fcc 153d 8a4d 38bd 1e4d 733d
000003e0: c7a3 1fbd c434 c7bd a24b b9bd a222 c83c
000003f0: e688 343d d490 f8bd 1bc6 6a3d 119a e43d

network.3.weight f4 [128, 256]
0.041059233 -0.025992988 0.06526734 0.038743682 0.0023832046 0.07453302 0.03348405 0.071018435
-0.020580662 -0.061232008 0.0681702 0.012622394 0.025505245 0.046628382 0.044411127 0.03559708
0.035886575 0.081603944 0.08270462 0.08544164 0.02534565 -0.018989695 -0.0588135 0.032955416
-0.015606336 0.014523928 0.05917085 0.07089562 -0.017449055 -0.06927568 -0.00564376 0.08556652
0.06736946 0.028529547 0.009270667 0.036947988 0.03302498 -0.08044996 -0.024235532 -0.04787491
-0.049888317 0.023208043 0.06589178 0.07319641 -0.014817009 0.033263434 0.10174775 -0.057986576
0.0047550867 0.03902153 0.030586567 -0.035125025 0.053136993 -0.058039628 0.03171563 0.0433392
0.09498866 -0.04198656 0.039571922 -0.0039577116 0.0025360922 -0.04238947 -0.008294458 0.025310926
0.0112833055 0.06803716 0.073412724 0.06763768 0.052655123 -0.050924394 -0.0066158697 0.015992897
0.020326773 -0.03483434 0.052317746 0.018585911 -0.05345004 0.027163267 -0.0030871015 0.033741746
0.024296928 -0.08383222 0.09472644 0.037745804 -0.023142863 0.05558797 0.023950813 0.03821677
0.02440743 0.03979729 -0.042247325 0.052907098 -8.117e-06 0.015680756 0.0061512776 0.013588772
0.011537393 0.043720946 0.0023266445 -0.0067841685 0.016487947 -0.008781865 -0.027302003 -0.005011139
0.0015382412 0.059495553 0.04959285 0.035727777 0.07346327 0.05361667 0.05399329 0.037850123
-0.013154093 0.035460066 0.0669327 0.054431655 0.07729489 -0.049086828 0.052007653 0.040850334
0.0073856115 0.038756963 0.048029713 -0.016315926 0.04361968 -0.0472309 0.021580756 0.06986218
-0.0027790803 0.06647794 -0.044025667 -0.062443007 -0.010359253 0.021511592 -0.027350776 0.06114991
0.029240107 0.0050032097 -0.059736364 -0.024097484 0.018383255 0.087335825 0.015771069 0.06453602
0.06292248 0.01843035 0.007242559 -0.03862426 -0.0005273426 0.031469032 -0.060540203 0.041129474
0.024497727 -0.043026112 -0.024629986 0.057266846 -0.008329958 0.009840022 0.0039139814 0.020434665
-0.025007827 -0.02028612 0.034708977 0.053314056 0.03627777 0.042098664 0.011520277 -0.014199426
0.13483204 0.108300485 0.022393698 -0.054098614 0.11352046 -0.04650532 0.05215101 0.03880218
0.026618611 0.044042785 0.113165595 -0.04958431 0.05071141 0.013347331 -0.037118975 -0.052027706
0.0400513 -0.057577718 -0.040890504 -0.043893497 0.05689737 -0.035356905 -0.012427878 0.05065286
-0.049917076 0.017720224 -0.046375412 0.05929652 0.015943248 0.02394767 -0.029339882 0.027563095
-0.011002807 0.040220167 -0.08997617 0.053680576 -0.025895568 0.05917604 -0.00892307 -0.0552011
-0.008442058 -0.058016393 0.053829685 0.014574058 0.09138617 -0.04229743 0.06481283 0.07162943
0.057913814 0.020875184 -0.039288975 0.07789012 0.038813777 0.03994044 0.053342 -0.01736052
0.06723739 0.0070923073 0.0059491647 -0.020511944 -0.047837846 0.0927082 0.053439908 -0.04211116
-0.0308555 -0.04608291 0.034034498 0.1304056 0.034246355 0.007893537 0.08127133 0.07266014
4.1629624e-05 0.0013042726 0.06829464 -0.10160722 0.012242197 -0.019310245 -0.057726007 -0.06662177
0.022070883 0.029597534 0.014319653 0.049690086 0.032045398 -0.0645007 0.05751545 -0.053786643
00000000: ba2d 283d 3fef d4bc e2aa 853d b2b1 1e3d
00000010: 8a2f 1c3b c5a4 983d 9226 093d 1d72 913d
00000020: c798 a8bc 6ace 7abd d19c 8b3d 28ce 4e3c
00000030: 60f0 d03c 67fd 3e3d 71e8 353d 3ece 113d
00000040: cdfd 123d f81f a73d 0a61 a93d 07fc ae3d
00000050: aea1 cf3c 4790 9bbc 6de6 70bd 42fc 063d
00000060: b8b1 7fbc c5f5 6d3c 225d 723d b931 913d
00000070: 52f1 8ebc 68e0 8dbd 4aef b8bb 803d af3d
00000080: 00f9 893d ccb6 e93c ffe3 173c c656 173d
00000090: 3445 073d f3c2 a4bd 9889 c6bc 7b18 44bd
000000a0: b157 4cbd cb1e be3c 45f2 863d 00e8 953d
000000b0: 0ac3 72bc 3d3f 083d 2061 d03d 5583 6dbd
000000c0: 8fd0 9b3b 0ad5 1f3d ae90 fa3c 42df 0fbd
000000d0: 2da6 593d f6ba 6dbd 40e8 013d 7284 313d
000000e0: 6a89 c23d 19fa 2bbd 2b16 223d b1af 81bb
000000f0: 9134 263b 95a0 2dbd 7ae5 07bc dc58 cf3c
00000100: 9ddd 383c 1157 8b3d 6959 963d a085 8a3d
00000110: e6ac 573d 1996 50bd f0c9 d8bb 8903 833c
00000120: 5584 a63c 74ae 0ebd 224b 563d 7b41 983c
00000130: 6eee 5abd 8085 de3c f850 4abb c934 0a3d
00000140: 5a0a c73c 3ab0 abbd f0ff c13d 589b 1a3d
00000150: 1a96 bdbc 36b0 633d 7f34 c43c 3089 1c3d
00000160: 17f2 c73c 7c02 233d 880b 2dbd 1db5 583d
00000170: 402e 08b7 ee74 803c a890 c93b 71a3 5e3c
00000180: 5507 3d3c bc14 333d 9e7a 183b bb4d debb
00000190: bb11 873c d0e1 0fbc 73a8 dfbc 7b34 a4bb
000001a0: cf9e c93a 9cb1 733d df21 4b3d 4a57 123d
000001b0: e973 963d 279d 5b3d 1128 5d3d bb08 1b3d
000001c0: 4484 57bc 933e 113d 0314 893d baf3 5e3d
000001d0: c94c 9e3d 450f 49bd fa05 553d ae52 273d
000001e0: 0003 f23b 9fbf 1e3d ceba 443d faa8 85bc
000001f0: 8daa 323d 3075 41bd 20ca b03c e713 8f3d
00000200: 3b21 36bb 9625 883d 4254 34bd 3dc4 7fbd
00000210: dbb9 29bc 1439 b03c bc0e e0bc 5478 7a3d
00000220: f388 ef3c f7f1 a33b 1eae 74bd 1668 c5bc
00000230: 7b98 963c 20dd b23d 5432 813c 762b 843d
00000240: 80dd 803d 3ffb 963c fd52 ed3b 7934 1ebd
00000250: 5d3d 0aba ace5 003d 01f9 77bd 6177 283d
00000260: 75af c83c 263c 30bd d3c4 c9bc a490 6a3d
00000270: 607a 08bc 0b38 213c db40 803b 9966 a73c
00000280: 37dd ccbc 142f a6bc 002b 0e3d d75f 5a3d
00000290: 0098 143d a66f 2c3d 8bbf 3c3c b6a4 68bc
000002a0: 6911 0a3e a5cc dd3d fd72 b73c 8296 5dbd
000002b0: 6a7d e83d 5d7c 3ebd 4c9c 553d 09ef 1e3d
000002c0: 460f da3c 3566 343d 5dc3 e73d eb18 4bbd
000002d0: c4b6 4f3d c4ae 5a3c 110a 18bd 011b 55bd
000002e0: d50c 243d 9dd6 6bbd cd7c 27bd abc9 33bd
000002f0: 370d 693d 67d2 10bd 4c9e 4bbc 6079 4f3d
00000300: d975 4cbd 012a 913c 25f4 3dbd e8e0 723d
00000310: 6a9b 823c e72d c43c 315a f0bc 00cc e13c
00000320: 1e45 34bc e7bd 243d 6d45 b8bd 2ae0 5b3d
00000330: f122 d4bc 9362 723d 1132 12bc 8c1a 62bd
00000340: 8f50 0abc 99a2 6dbd 847c 5c3d 08c8 6e3c
00000350: ac28 bb3d 1240 2dbd 97bc 843d 73b2 923d
00000360: 0937 6d3d 6f02 ab3c 7aed 20bd db84 9f3d
00000370: 32fb 1e3d 9698 233d 247d 5a3d a637 8ebc
00000380: c2b3 893d 9666 e83b 36f1 c23b aa08 a8bc
00000390: 9ef1 43bd ccdd bd3d cee3 5a3d c07c 2cbd
000003a0: acc4 fcbc 6fc1 3cbd c267 0b3d 0c89 053e
000003b0: e845 0c3d e553 013c 9571 a63d d7ce 943d
000003c0: 789b 2e38 20f4 aa3a 0fde 8b3d 7217 d0bd
000003d0: 7f93 483c 8530 9ebc 1b72 6cbd ff70 88bd
000003e0: ffcd b43c 8776 f23c fa9c 6a3c d587 4b3d
000003f0: 0942 033d f118 84bd 5295 6b3d 624f 5cbd

network.3.bias f4 [128]
-0.018065939 0.03058581 -0.08164094 -0.048036482 0.005221424 -0.015512779 -0.040372603 0.0028367564
-0.029454354 -0.067967124 -0.01424228 -0.025304325 0.0022458083 0.012252667 0.07905249 0.013949138
-0.017999053 -0.07021077 -0.07131231 0.03556125 -0.06620078 0.009915909 0.052920092 0.026792387
-0.016782245 -0.033554394 -0.031197038 0.031388573 0.026060978 -0.041529223 0.03045205 -0.0260639
-0.03507788 -0.00979256 -0.020678444 0.004796273 -0.014503964 -0.01157245 -0.0076627648 0.017443372
-0.011326112 0.029982805 -0.020910755 0.015587705 -0.046515957 0.042628188 -0.09078073 0.025152741
-0.030707225 -0.046238307 0.04014526 -0.053235542 -0.052046325 -0.054237496 -0.042715732 -0.0070389346
-0.0739758 0.009241132 -0.0011193898 -0.042933855 -0.04523813 -0.026816197 0.04901897 0.0120158605
0.03815949 -0.025946992 0.050571162 0.0025597725 -0.062159654 -0.07317897 -0.04477676 -0.055344045
-0.0058217114 0.015301775 0.051306214 -0.008425414 -0.034731936 0.020252338 -0.015074322 0.01752524
0.030271145 0.010116793 0.016912684 -0.047278605 -0.050924398 0.007772201 -0.03647263 -0.081130266
-0.04555881 0.03589748 -0.00016686438 -0.06496107 0.008233481 -0.00835249 -0.009894971 -0.0038539474
0.04590231 0.001865475 0.01863887 0.014952376 0.030767903 0.019310337 -0.017198727 -0.04024955
0.01676775 0.000775028 -0.06851967 0.010569906 -0.0012281367 -0.08437301 -0.0014950748 -0.0057882653
0.010659322 0.059104048 0.051500946 0.009857446 0.021416068 -0.046100143 -0.010202721 0.0253371
-0.015244402 -0.06540496 -0.031659435 -0.03470884 -0.026096132 -0.017163841 -0.07410254 -0.04881467
00000000: 05ff 93bc 188f fa3c 5d33 a7bd e7c1 44bd
00000010: 7b18 ab3b 5029 7ebc be5d 25bd e0e8 393b
00000020: 424a f1bc 5932 8bbd 7458 69bc 044b cfbc
00000030: 692e 133b 69bf 483c 46e6 a13d ed8a 643c
00000040: c072 93bc aaca 8fbd 300c 92bd aca8 113d
00000050: 4694 87bd 5676 223c bdc2 583d b57b db3c
00000060: eb7a 89bc 5570 09bd ee90 ffbc 4e91 003d
00000070: d57d d53c 8c1a 2abd 9476 f93c f683 d5bc
00000080: d3ad 0fbd f970 20bc d765 a9bc 0e2a 9d3b
00000090: 09a2 6dbc 609a 3dbc ee17 fbbb 67e5 8e3c
000000a0: 2891 39bc 809e f53c 084d abbc 9363 7f3c
000000b0: 8487 3ebd e59a 2e3d 3feb b9bd 1f0d ce3c
000000c0: b88d fbbc 6164 3dbd 5b6f 243d 830d 5abd
000000d0: 872e 55bd 2328 5ebd b1f6 2ebd dda6 e6bb
000000e0: a080 97bd 1e68 173c 7db8 92ba 69db 2fbd
000000f0: 9e4b 39bd a4ad dbbc 1ec8 483d 2cde 443c
00000100: 204d 1c3d c98e d4bc b523 4f3d dbc1 273b
00000110: 1f9b 7ebd dbde 95bd d667 37bd 70b0 62bd
00000120: 0ec4 bebb 4cb4 7a3c 7726 523d bf0a 0abc
00000130: 1343 0ebd 3be8 a53c 4afa 76bc 1891 8f3c
00000140: 31fb f73c e8c0 253c 788c 8a3c 36a7 41bd
00000150: 1a96 50bd f3ad fe3b 5364 15bd a027 a6bd
00000160: e09b 3abd 3c09 133d 51f8 2eb9 4f0a 85bd
00000170: b9e5 063c e2d8 08bc 841e 22bc 8292 7cbb
00000180: 1004 3c3d f482 f43a 8bb0 983c cffa 743c
00000190: f80c fc3c b630 9e3c 58e4 8cbc b6dc 24bd
000001a0: 855c 893c 402b 4b3a 0a54 8cbd 662d 2d3c
000001b0: 6ef9 a0ba c2cb acbd 63f6 c3ba 7dab bdbb
000001c0: 70a4 2e3c 1617 723d a8f2 523d 2081 213c
000001d0: c070 af3c 81d3 3cbd 5029 27bc c08f cf3c
000001e0: a8c3 79bc 09f3 85bd 53ad 01bd db2a 0ebd
000001f0: 8ec7 d5bc 2f9b 8cbc 13c3 97bd e4f1 47bd

network.6.weight f4 [64, 128]
-0.045098953 0.03946249 -0.11183528 -0.046591077 0.010228461 0.01777315 -0.11802076 0.04062581
0.0054630837 -0.035169214 0.04744503 -0.002981705 0.04641058 -0.08492987 -0.026335534 -0.011607122
-0.05548217 -0.10639379 -0.0034813366 -0.09851577 0.055678613 0.02690404 -0.071917705 0.048924904
-0.04070998 0.054264653 0.053361066 0.01665587 -0.098340765 0.0003960716 0.037635483 -0.061991695
-0.024002923 -0.0493027 -0.022831168 0.032370854 0.027187178 0.01945274 0.036903165 -0.07915888
-0.015239604 -0.06479402 0.054624483 -0.088906795 -0.014752694 -0.04902497 0.040279996 -0.03262804
-0.002345024 -0.12536554 0.011553035 0.025000589 -0.10723461 0.0100313015 -0.11040966 0.027700106
0.053188354 0.0021094875 -0.09559707 -0.030976597 -0.022988193 0.03165841 -0.007407023 0.0006319287
-0.04382088 0.038060457 -0.10975218 0.032047164 -0.082973294 -0.090617314 -0.058402084 0.005768517
-0.053163394 -0.08855765 -0.07218787 0.029495846 -0.03660208 -0.0498671 -0.095672235 -0.08691547
-0.10429269 -0.008629872 -0.09040307 0.015661988 -0.029753853 -0.09044197 0.0003246531 -0.10314468
0.03720238 -0.061109517 -0.01056355 -0.051906563 -0.09881379 0.031275608 -0.11630538 -0.103149384
-0.03466603 -0.030796805 0.0073237037 -0.050454542 -0.1035944 0.006083389 -0.020756118 0.010339076
-0.04375539 -0.0127285905 0.004108421 -0.042287856 -0.1189768 -0.03743145 -0.040227205 -0.0072154948
-0.116281584 0.023508424 0.019826002 -0.10755098 0.05164905 -0.101285905 -0.018679567 -0.08411687
0.035704985 -0.044974893 -0.032463975 -0.119089656 -0.08363961 0.044158492 0.021996891 -0.049561135
0.014791255 -0.036354017 -0.056017593 -0.1034541 -0.04197764 -0.011194858 -0.11527368 -0.08239495
-0.014755927 0.0009668025 -0.06584615 0.008193362 -0.09441705 -0.09564073 -0.06339082 -0.036670767
0.04280184 -0.091973774 -0.03388217 0.013166403 0.042527393 0.028408945 -0.034911104 -0.015210617
-0.024915338 -0.01060247 -0.07057724 -0.05943604 -0.017577825 -0.004016584 -0.065978765 -0.037406873
0.035877425 -0.026651002 0.0028889766 0.0032103078 -0.008729694 -0.113750316 -0.09605778 -0.11433835
-0.021886827 -0.12440522 0.009888844 0.014224992 -0.06894442 -0.09403041 -0.011515897 0.022298232
0.043366335 0.024063291 0.0323877 -0.06107349 0.009323588 -0.04242135 0.034709193 -0.115474574
-0.02630968 -0.020212188 -0.001988323 -0.06167384 -0.10280873 -0.11576639 -0.026051145 -0.11910758
-0.103938416 0.018782623 0.011465057 -0.08485359 0.0069382144 0.011844547 -0.101128764 0.0059182504
-0.010168999 0.021165738 0.011842651 0.0059526353 -0.013274509 0.0045698397 0.045651194 0.00011256733
0.0023420858 0.032128133 0.02804434 0.007728626 -0.026588863 -0.0659846 0.023428312 -0.11240132
-0.0021835885 0.034924712 -0.102745146 -0.097253144 -0.029262925 -0.0962312 -0.06516629 -0.08613566
-0.05877196 -0.04380159 -0.09158514 0.060570166 -0.09212589 -0.10173235 -0.062795825 -0.0564507
-0.103650406 -0.0883139 0.046419226 0.067502685 0.022622539 -0.06412016 -0.050795723 -0.08235186
-0.046468105 -0.036845885 -0.0641433 -0.054713678 -0.09725659 -0.05851793 -0.058127414 -0.04738596
0.027243508 0.028548269 -0.0113132885 0.0023099803 -0.054367837 -0.014695474 -0.04056229 0.040220447
00000000: aeb9 38bd 6ba3 213d e509 e5bd 49d6 3ebd
00000010: 4695 273c ff98 913c deb4 f1bd 4067 263d
00000020: ab03 b33b 980d 10bd b855 423d b568 43bb
00000030: 0519 3e3d b6ef adbd 9ebd d7bc cc2b 3ebc
00000040: 4641 63bd fde4 d9bd 2327 64bb a3c2 c9bd
00000050: 420f 643d dc65 dc3c 9749 93bd 7b65 483d
00000060: 82bf 26bd 9d44 5e3d 2291 5a3d e471 883c
00000070: e266 c9bd d5a7 cf39 aa27 1a3d 01eb 7dbd
00000080: c7a1 c4bc a1f1 49bd 6e08 bbbc 4d97 043d
00000090: a5b7 de3c 5a5b 9f3c c627 173d 0d1e a2bd
000000a0: 88af 79bc bab2 84bd ecbd 5f3d c414 b6bd
000000b0: 49b5 71bc 68ce 48bd a3fc 243d fba4 05bd
000000c0: f9ae 19bb d35f 00be f148 3d3c 09ce cc3c
000000d0: d29d dbbd 545a 243c 761e e2bd 55eb e23c
000000e0: 08dc 593d 543f 0a3b 66c8 c3bd a2c2 fdbc
000000f0: bc51 bcbc 40ac 013d 9db6 f2bb 04a8 253a
00000100: 867d 33bd 48e5 1b3d c0c5 e0bd e343 033d
00000110: e7ed a9bd 9295 b9bd 0637 6fbd d405 bd3b
00000120: dcc1 59bd b75d b5bd 3cd7 93bd 46a1 f13c
00000130: 10ec 15bd 7241 4cbd ceef c3bd bd00 b2bd
00000140: 6897 d5bd 4f64 0dbc 3f25 b9bd 924d 803c
00000150: 5abe f3bc a439 b9bd 3436 aa39 853d d3bd
00000160: 8661 183d f94d 7abd bd12 2dbc fa9b 54bd
00000170: e25e cabd da1a 003d 8431 eebd fc3f d3bd
00000180: f8fd 0dbd 9549 fcbc aefb ef3b 6ca9 4ebd
00000190: 4d29 d4bd 2a57 c73b bc08 aabc 3a65 293c
000001a0: da38 33bd 948b 50bc ef9f 863b 0836 2dbd
000001b0: 1caa f3bd b851 19bd 48c5 24bd f56f ecbb
000001c0: 0a25 eebd bd94 c03c 246a a23c b043 dcbd
000001d0: f48d 533d fc6e cfbd e405 99bc 7745 acbd
000001e0: 643f 123d 9837 38bd f2f8 04bd 47e5 f3bd
000001f0: 3e4b abbd 89df 343d d332 b43c 9e00 4bbd
00000200: 0557 723c f3e7 14bd b472 65bd bedf d3bd
00000210: bff0 2bbd a36a 37bc 9b14 ecbd afbe a8bd
00000220: d8c2 71bc 0471 7d3a 59da 86bd 733d 063c
00000230: ba5d c1bd 49df c3bd 0cd3 81bd 1634 16bd
00000240: fb50 2f3d bf5c bcbd 08c8 0abd e6b7 573c
00000250: 3431 2e3d e0b9 e83c f2fe 0ebd f435 79bc
00000260: 401b ccbc fbb5 2dbc cd8a 90bd 3573 73bd
00000270: 5fff 8fbc 8c9d 83bb e01f 87bd f337 19bd
00000280: 35f4 123d 3453 dabc fc54 3d3b 0764 523b
00000290: fe06 0fbc edf5 e8bd f1b9 c4bd 3a2a eabd
000002a0: 014c b3bc 2ac8 febd d104 223c f10f 693c
000002b0: bb32 8dbd 0493 c0bd 2cad 3cbc c8aa b63c
000002c0: e6a0 313d 6120 c53c f7a8 043d 3228 7abd
000002d0: f6c1 183c 02c2 2dbd 3a2b 0e3d ef7d ecbd
000002e0: 6687 d7bc 0894 a5bc 864e 02bb b59d 7cbd
000002f0: 628d d2bd ee16 edbd 3669 d5bc adee f3bd
00000300: aadd d4bd 04de 993c efd7 3b3c b8c7 adbd
00000310: f659 e33b a20f 423c 991c cfbd e2ed c13b
00000320: e09b 26bc c563 ad3c ae07 423c 530e c33b
00000330: 547d 59bc 98be 953b bffc 3a3d 2012 ec38
00000340: ae7d 193b ca98 033d 3ebd e53c 6a40 fd3b
00000350: e3d0 d9bc ef22 87bd bbec bf3c aa32 e6bd
00000360: 891a 0fbb 370d 0f3d 0c6c d2bd a82c c7bd
00000370: cdb8 efbc dd14 c5bd e775 85bd e567 b0bd
00000380: deba 70bd 4c69 33bd fd90 bbbd 6c18 783d
00000390: 80ac bcbd 0d59 d0bd 199b 80bd d938 67bd
000003a0: aa46 d4bd ebdd b4bd 1622 3e3d d93e 8a3d
000003b0: e752 b93c 6e51 83bd 2d0f 50bd 18a8 a8bd
000003c0: 5755 3ebd b6eb 16bd 905d 83bd 731b 60bd
000003d0: 772e c7bd 7fb0 6fbd 0317 6ebd c817 42bd
000003e0: c72d df3c 0fde e93c 5f5b 39bc 0a63 173b
000003f0: cfb0 5ebd 49c5 70bc a524 26bd 32be 243d

network.6.bias f4 [64]
-0.003581953 -0.048372403 -0.051519133 0.06615253 -0.045582764 0.03822094 0.039978594 -0.06336133
-0.080196805 -0.06042947 0.036419407 0.025133885 0.07624027 0.050443996 0.00027170428 0.061624307
0.036388442 0.0031080265 -0.0060763834 -0.006591901 0.009432998 -0.042044412 -0.08455728 -0.0032528809
-0.034119558 -0.023447497 0.028889772 -0.11247532 0.08584806 -0.057075106 -0.025453603 0.045275852
0.023025649 0.032363735 -0.020337863 -0.073888086 -0.047896698 -0.020958759 0.09703874 0.06112223
-0.026797272 0.0063625947 -0.07639278 -0.049082827 -0.052394334 -0.050011072 0.00016977765 -0.0018601229
-0.008799909 -0.09606651 -0.029698737 0.020508504 -0.040100563 -0.011774155 0.07100301 0.03849515
-0.051525187 0.07354616 0.02834463 -0.023800677 0.026730768 0.039346397 -0.10182351 -0.0026713987
00000000: 33bf 6abb 2422 46bd ba05 53bd fa7a 873d
00000010: feb4 3abd 8f8d 1c3d 98c0 233d 96c3 81bd
00000020: 393e a4bd e484 77bd 842c 153d 94e5 cd3c
00000030: dc23 9c3d 5d9e 4e3d 8873 8e39 c569 7c3d
00000040: 0c0c 153d 08b0 4b3b 661c c7bb e000 d8bb
00000050: dc8c 1a3c c336 2cbd 5e2c adbd 492e 55bb
00000060: f3c0 0bbd f714 c0bc 3eaa ec3c 7659 e6bd
00000070: 1cd1 af3d 96c7 69bd 1384 d0bc 2c73 393d
00000080: 49a0 bc3c d68f 043d 979b a6bc a352 97bd
00000090: 542f 44bd b4b1 abbc 3fbc c63d 4e5b 7a3d
000000a0: f485 dbbc 507d d03b d173 9cbd 130b 49bd
000000b0: 719b 56bd 69d8 4cbd 5706 3239 5ecf f3ba
000000c0: 7e2d 10bc 85be c4bd c44a f3bc 7301 a83c
000000d0: 7d40 24bd 63e8 40bc 076a 913d 17ad 1d3d
000000e0: 130c 53bd 5e9f 963d ff32 e83c a3f9 c2bc
000000f0: 7cfa da3c b029 213d d888 d0bd a212 2fbb

network.9.weight f4 [1, 64]
0.0819257 -0.017092137 -0.041378014 -0.080436565 -0.054423597 -0.11066655 0.090274334 -0.02432704
0.023310322 -0.035284344 -0.09783958 -0.012662929 -0.06786003 -0.07955598 -0.040540785 -0.082207605
0.03917451 -0.010003122 -0.025822572 0.061355103 -0.039080568 0.07504321 -0.020365197 -0.124463275
-0.0323065 -0.028266504 0.007244454 0.0427516 -0.048948023 0.02799123 -0.049911376 0.05430752
0.016146986 -0.011384972 -0.09858096 -0.018539919 -0.0022195333 -0.09440647 -0.07696194 -0.110790506
-0.036625344 -0.11477299 0.084856555 0.040029615 -0.06664531 0.07084516 0.001308276 0.032376517
-0.0075218845 0.071498245 0.009450108 -0.06461161 0.08597106 0.06740527 0.08890015 -0.044367656
0.06720735 -0.015644794 0.03732343 -0.029122956 -0.077056736 0.06193492 -0.009212267 -0.08633964
00000000: a9c8 a73d cf04 8cbc fe7b 29bd edbb a4bd
00000010: 47eb 5ebd 25a5 e2bd c0e1 b83d 8049 c7bc
00000020: 4af5 be3c 5186 10bd 1e60 c8bd 2c78 4fbc
00000030: 33fa 8abd 3fee a2bd 180e 26bd 765c a8bd
00000040: 7375 203d 22e4 23bc dc89 d3bc 7d4f 7b3d
00000050: f212 20bd 41b0 993d ead4 a6bc 9ae6 febd
00000060: d253 04bd 288f e7bc e362 ed3b 4d1c 2f3d
00000070: b97d 48bd dd4d e53c df6f 4cbd 9071 5e3d
00000080: af46 843c 0988 3abc d0e4 c9bd 07e1 97bc
00000090: 9775 11bb 2e58 c1bd 399e 9dbd 22e6 e2bd
000000a0: 7504 16bd 1a0e ebbd 46c9 ad3d 18f6 233d
000000b0: 567d 88bd 4417 913d 757a ab3a 3d9d 043d
000000c0: 247a f6bb ac6d 923d a0d4 1a3c 1753 84bd
000000d0: 9811 b03d c60b 8a3d 4811 b63d dcba 35bd
000000e0: 02a4 893d 8329 80bc 74e0 183d 4493 eebc
000000f0: eccf 9dbd 78af 7d3d 0cef 16bc d6d2 b0bd
