projekt1/wandb/run-20251108_163524-7imfwhld/files/best_model.pth (torch, 482573 bytes, 7 tensors)

network.0.weight f4 [384, 70]
00000000: 5934 9b3d 24d3 803d df09 a3bd 914e 533c
00000010: 8287 593d b60d 29bc 0cc9 c4bd ff8e 78bd
00000020: d638 1c3d 229b c13c 1290 e23d 6cad dcbd
00000030: 4dd5 863d 3e22 ebbd 17d7 cd3d e866 10be
00000040: 0b8b 26bd fcc1 3cbd 9eb9 053d d877 dfbd
00000050: 9152 6d3c ac08 cf3d 6cd9 843d 5727 ca3d
00000060: 9e2c 923c e316 86bd b37f dabc 0d85 18bc
00000070: 2de7 453d 16ec 153c 1eea d8bd 8a8c 903d
00000080: 7845 5abd be35 7c3d 773e 57bd 74a6 1f3c
00000090: 2412 b53d 3273 b2bd 77b2 72bc c896 dcbd
000000a0: d2f1 fa3c 9c34 033d f68a f8bd 579e ba3a
000000b0: 7a32 c13d 6108 263d 9317 1d3d 02c1 8e3c
000000c0: 31dc af3d 08d9 0b3d 9a83 6fbc af52 51bd
000000d0: 7772 0b3d 5f68 f4bc 0967 a1bd c6c5 613d
000000e0: 2f9e 913d 81a0 f83c 427f b2bc bcc2 f9bd
000000f0: ac4b af3d dd98 823d ae44 c53d a71d d2bd
00000100: 0cec c0bd f742 2a3d e93f a8bd 0faf a03d
00000110: 87a5 933d b6bd a73d 6f08 d8bd bd52 57bd
00000120: 7009 e13d b883 bb3d dbc5 973d 2eb0 39bd
00000130: 979e 083e 40bf 3d3d eb2f de3d 79b9 15bd
00000140: 71a5 4dbd fa4a ae3d d43f a6bd 7a7e 913d
00000150: 4a00 a8bc e762 06be 09fa d0bd 614f 823d
00000160: 0d0c b33d baf3 b8bd 2057 bcbc a375 fcbc
00000170: 4010 68bd bbf8 c3bc 4e9a dcbd 60dd f93c
00000180: fab0 9e3d 7d2c 273c a08f 903d e59a 8c3c
00000190: ec64 a2bc 98ba 74bc a2b5 ce3d 251e a0bd
000001a0: d044 633d e9ac a2bd 8d35 873d 4436 31bd
000001b0: 4b79 b3bd 732f d7bc a282 d43d cecd 813d
000001c0: 270a ae3d 1bb0 7fbd 9e48 a4bd 06bb c1bd
000001d0: 20be 68bb bdf3 8e3c 76a5 c8bc 3f5e 16bb
000001e0: f198 6c3d baa9 bcbd 947c babd badf 883d
000001f0: edd2 c2bc ba1a e4bd cdc7 cabd 00ce 00bd
00000200: 68ff 313d d37b 193b 7c4f aabd 07ed c43d
00000210: 8453 eebd 0a4f 883c ac4c af3d 502a 14bd
00000220: 08ae ddbc b1e5 0a3b 27ea e9bd d72e c6bd
00000230: ef63 cdbb 35f3 39bd c8a1 a73d 1492 32bd
00000240: addc 993d 3f2d 8dbc 5702 3e3d fa00 88bd
00000250: 84f0 6abc 8ecd 623d 462f e03d dbf9 223d
00000260: 9396 013d 3b82 f3bb 61bf be3d 15a4 19bd
00000270: dabf 0f3d 8f9e e1bd 267d a83d 11f1 bd3c
00000280: 40d3 49bc ea47 69bd 378d 2e3d 848f a8bd
00000290: 37ab 59bd 12eb 233d 84af 94bd aa12 b53d
000002a0: fcd3 dabd 1274 04be 50e8 c9bd c4fd fdbd
000002b0: bdd1 293b 9c61 b9bd 5728 a2bd 333e b7bd
000002c0: cf31 0b3e d1c4 01bd fbc6 abbd 7ac2 29bd
000002d0: 4fbb 83bd 1c3c 623c b11f 0a3d 1860 37bc
000002e0: 92c0 00be 4a89 d53d b60c b7bd 3783 843c
000002f0: 49d4 da3d aff2 ebb8 7ae4 9b3d e694 843d
00000300: 250f d0bb 1a39 84bc 1812 83bd 49a9 2cbd
00000310: 8f29 f3bd 3f31 6bbd adb5 98bd 961f 22bd
00000320: e452 e23d 9684 333c bed6 a3bb cbb9 a0bb
00000330: e566 af3d 6f2a a33b 2b1e c33c 021f 4fbb
00000340: 21f8 2e3d 9c21 1bbd 8600 01be 0b33 7ebd
00000350: f084 b9bd c80e 6a3d 6b59 083d 6acd 023d
00000360: fb68 973d 3e16 b7bd 5bad d0bc b288 893d
00000370: cbfd 1b3e dc5f 46bd b16b 1bbe 0f26 08be
00000380: dbf6 9ebd 3137 03be f4cb d23d 2567 dabd
00000390: 7185 3a3d 502e 623d cbc2 d03b 18a2 ff3c
000003a0: 1040 1dbc 5ef5 ae3d 363d 80bd 9c58 c8bd
000003b0: dfec cb3d ce70 313d 3189 04bc 15ea 683d
000003c0: 197c 28bc a140 b0bd 4ee8 89bb fe32 93bd
000003d0: 6afb 803d 8488 92bd dfd0 dbbd 228a 7ebc
000003e0: 87d6 97bd af74 b43d a07c 50b7 8e90 853c
000003f0: ae53 b63d 80a0 aabd 2262 b13d f768 9f3c
0.07578344 0.06290272 -0.07960867 0.01289715 0.053107746 -0.01031821 -0.09608659 -0.060683247
0.03814014 0.023633543 0.110626355 -0.10775265 0.06583653 -0.114811406 0.10050791 -0.14101756
-0.040659945 -0.046083435 0.03264772 -0.1091153 0.014485017 0.10109076 0.064867824 0.09870785
0.01784354 -0.06547334 -0.02667222 -0.0093090655 0.04831617 0.009150526 -0.10591529 0.07058056
-0.053288907 0.06157469 -0.052549805 0.009744275 0.08841351 -0.08713378 -0.014813057 -0.10770947
0.030632887 0.032032594 -0.1213588 0.0014237863 0.09433456 0.040535334 0.03835256 0.017426018
0.0858692 0.034142524 -0.014618779 -0.051104244 0.03404471 -0.029834924 -0.078809805 0.055120252
0.07110249 0.030349972 -0.021789197 -0.12195346 0.08559355 0.063768126 0.0963224 -0.10259562
-0.09420022 0.04156777 -0.08215315 0.0784589 0.07209306 0.08190481 -0.105484836 -0.05256914
0.10988128 0.09155983 0.07410785 -0.045334034 0.13341747 0.04632497 0.108489834 -0.036553834
-0.050206605 0.085103944 -0.08117643 0.071042016 -0.02050795 -0.13123666 -0.102039404 0.063627966
0.08742533 -0.09030862 -0.022990763 -0.030817812 -0.056656122 -0.023922315 -0.10771619 0.030501068
0.07748599 0.010203478 0.07058644 0.017163703 -0.019823514 -0.014937066 0.100932375 -0.078182496
0.055485547 -0.07943136 0.06602011 -0.043264642 -0.08763369 -0.026267743 0.10376479 0.06338082
0.0849803 -0.062423807 -0.08021663 -0.094595 -0.0035513714 0.017450208 -0.02449296 -0.0022944359
0.057763044 -0.0921206 -0.09105793 0.066832975 -0.023782218 -0.1113791 -0.0990139 -0.031446457
0.043456465 0.0023419752 -0.08315942 0.09615522 -0.11637023 0.016639251 0.08559546 -0.036173165
-0.027060524 0.0021194036 -0.11421614 -0.09676903 -0.0062680165 -0.045397956 0.08185154 -0.043596342
0.07512794 -0.01723349 0.04638895 -0.06640811 -0.01433957 0.055371813 0.10946517 0.039789062
0.03163774 -0.007431296 0.093138464 -0.037509996 0.035095073 -0.11016571 0.08226995 0.023186238
-0.012318432 -0.05695335 0.04261514 -0.082304984 -0.0531418 0.040019102 -0.072600394 0.088414505
-0.10684964 -0.12934902 -0.09858763 -0.124019176 0.0025912367 -0.09051821 -0.079178505 -0.089474104
0.13593219 -0.03168184 -0.08387562 -0.041445233 -0.06432211 0.0138082765 0.03372163 -0.011192344
-0.1257346 0.104265764 -0.08937971 0.01617585 0.106850214 -0.000112508766 0.07611938 0.064737126
-0.0063494616 -0.01614051 -0.063999355 -0.04215363 -0.11873161 -0.05742001 -0.07456527 -0.039580904
0.110509664 0.010956904 -0.0049999645 -0.0049049607 0.085645474 0.0049794237 0.023818096 -0.0031604175
0.042717103 -0.03787385 -0.12597856 -0.062060397 -0.09058559 0.057143003 0.0332884 0.03193418
0.0739307 -0.08939789 -0.025473287 0.06715526 0.15233533 -0.048431262 -0.151778 -0.13295768
-0.07761928 -0.12814023 0.10292807 -0.106642045 0.045537416 0.05521995 0.0063708774 0.031205222
-0.009597793 0.08542894 -0.06261675 -0.09782526 0.09957289 0.04332047 -0.00808935 0.056863863
-0.010283493 -0.08606077 -0.004208601 -0.0718746 0.062979534 -0.071549445 -0.107331984 -0.015535863
-0.07413965 0.08811318 -1.2426783e-05 0.01630428 0.089026794 -0.08331394 0.086612955 0.01945923

network.0.bias f4 [384]
00000000: ddec 833c b646 60bd 1d56 69bd 7574 92bd
00000010: d78e bdba 7d7c bd3b db1b 18bd ccbe c13c
00000020: 622b 333d d507 99bd 9d56 8b3c b86e 893d
00000030: 4bd3 21bd 1171 f43c 9a7a 02bd 739b d2bd
00000040: 8405 f23d 6a11 78bd 6f26 5e3d 6bb5 a63d
00000050: 918f be3d 5dcc 6fbd 9605 fbbd ed4a 0bbd
00000060: e79d f33c 8c0d 9b3d 19f0 a33c 4967 ddbd
00000070: 13aa dfbc 7733 0e3c 1548 3c3d e899 98bd
00000080: 19fe a03c 951d efbc 317b bbbb bbd5 0c3d
00000090: aabf ce3d 27d9 233d 8d5d 233d afc1 9bbc
000000a0: b389 833d 6432 803d 8a80 613d 07bb f83d
000000b0: 72e0 26bd 5eb3 58bd b06b 823d 75a8 8ebc
000000c0: 634f 5b3d 890b d3bd 7599 a73d 90a5 a93c
000000d0: 1d3c c0bc 1712 ec3c 78de 303d 19c7 b43d
000000e0: 8c0a e23d 4e3f f43d 76a1 9b3d 8565 8bbd
000000f0: 1609 d3bd e617 aebd fb4b 98bd e476 8a3d
00000100: 13fc 5abc 0257 1a3d a431 da3d 45b0 2cbd
00000110: d0af 16bd e468 9abd 40ed f4bc df5d 50bd
00000120: a61c 99bd 465b 8b3d ceac d7bd 9cdb b23d
00000130: 9452 b3bd bb11 733c c0f9 83bd 3c60 61bd
00000140: 8bc6 2e3d 1c49 3fbd b06a c7bd 7685 55bd
00000150: 8116 1a3d f2c7 e0bd 3cdb cc3d 0cc1 17bd
00000160: 96bd c4bd 6bdc ec3c b058 acbd 35e3 643d
00000170: 0b9c 8abd 4258 bc3d 6b67 23bc c7c3 c1bd
00000180: 189a 90bc 9aa9 3ebc 79c5 c6bd 00d9 eabd
00000190: a792 39bd 62d7 a7bd a4e4 9b3d c914 7d3d
000001a0: 4d65 e6bc ec41 b9bd 3453 2ebd d3d0 8abd
000001b0: 021f 91bd e7ef 9b3d 29f1 ebbd 9326 02be
000001c0: 96ef 67bd 7640 5f3d 55fa c03a edde 933d
000001d0: 02bf 683d 9e0b 213c 509b 033d df7b 8fbd
000001e0: 6bce d8bc c8a4 27bd a2ae ed3b 1597 c1bd
000001f0: 37a7 a1bd 4a25 b2bd 8478 a53c f6d5 e83d
00000200: 0f7d 913b bd2a a73b a4a7 a4bc d10e ecbd
00000210: 96dc 953d 6ee2 aabd dd3e d7bc 14af ba3c
00000220: 7d82 08bd f9b0 83bd 38d6 a6bc aa51 e23d
00000230: 5530 0c3d 7016 2c3c 9354 bf3d 9a62 c9bd
00000240: 8104 0ebc 0deb 9ebd bcd8 103d baa7 10bd
00000250: f9aa d2bd ca01 69bd f8f1 e4bd e8a7 873d
00000260: f9b8 2abd 5ef8 de3b a5bb 5e3d ad4a 8cbd
00000270: f327 88bd 302f 74bc 4eb9 9abd 0289 b63d
00000280: 0d1a 8f3c d45a 1c3c 19fe 93bd e9bb e83c
00000290: bd24 cb3d 0de7 b43c 7c7c f03d eef6 d23d
000002a0: 7967 0c3d 5a67 dcbb 93a4 adbd 8a0f 51bd
000002b0: 56f4 f33d 664d 0fbd 92a1 8dbd 69d4 a33d
000002c0: ccb7 d63c 9de3 ddbd 45fa fc3d 34e6 99bd
000002d0: f8f0 6cbd 9b53 40bb 9d4f 0e3d 63be 393d
000002e0: f0ed b23c de0e 0abe fa2a e7bb 67f7 1cbd
000002f0: 6bd7 56bd 3227 f33d 67e8 3dbd 579e 673d
00000300: b923 403c 9349 0e3d 9eeb 89bd ca9b 8cbd
00000310: d8f9 a7bd d2cd 37bd 617e 9abb 6b15 d83d
00000320: beb5 d3bd c430 29bd a4dd 473d f562 e0bd
00000330: bdd0 d53d 29a8 bd3c 652e c6bd 9167 b3bd
00000340: b186 8b3c 6a1b e3bb ebce df3d 8305 673d
00000350: e918 de3d 71f2 87bd 07e2 e73d 8b74 a2bd
00000360: d253 143d 920a 97bc ed3a 7cbd 1b00 b3bd
00000370: 794f b3bd a6f2 b63c 0ff3 263c 0303 c73d
00000380: af0e 5abc 4ed3 073d ee7c e3bc 6554 de3d
00000390: 2b05 8d3c 8e44 a43d 8817 ad3d 8030 f6bb
000003a0: 48b6 d2bd b9ed 6bbd 7d24 8fbd e741 91bd
000003b0: 8714 50bd b688 8c3d 083e aabd 48cf 003d
000003c0: 7d74 373d e356 ddbb 3b69 6a3c a30c 933d
000003d0: b683 fc3d 6817 01be 5c43 23bd 6375 11bd
000003e0: dc6f 2ebd 6a17 cabd 965f 183d 67c0 69bc
000003f0: 1906 dbbc 52fc 97bd d18d 033d 0f54 2c3d
0.016104156 -0.054754935 -0.05696689 -0.07151119 -0.0014462125 0.0057826624 -0.03713594 0.02365055
0.043742545 -0.07472197 0.017009074 0.06710571 -0.039508145 0.02983907 -0.031855203 -0.10283556
0.11817458 -0.060563482 0.054235872 0.081400715 0.09304727 -0.058544505 -0.12256925 -0.034007
0.02973838 0.07570943 0.020011948 -0.10810716 -0.027302777 0.008679262 0.04596718 -0.0745123
0.019652413 -0.02918891 -0.0057214727 0.034383517 0.10095151 0.040002014 0.03988414 -0.019013254
0.064227484 0.06259611 0.055054225 0.12145048 -0.04074139 -0.052905433 0.06368196 -0.017414311
0.053542506 -0.103049345 0.081835665 0.02070883 -0.023466164 0.02881722 0.043180913 0.08827037
0.11037168 0.11926137 0.075991556 -0.06806473 -0.103044674 -0.08500652 -0.07436367 0.06760958
-0.013365763 0.037680633 0.106539994 -0.04216029 -0.03678876 -0.075395375 -0.029898286 -0.050870772
-0.074761674 0.068045184 -0.10531007 0.087332934 -0.08755985 0.01483577 -0.064441204 -0.055023417
0.042669814 -0.046700582 -0.09737146 -0.05212923 0.037619118 -0.109756365 0.10002753 -0.03704934
-0.09606473 0.028913697 -0.08415353 0.055880744 -0.06768044 0.09196521 -0.009973387 -0.0946117
-0.017651603 -0.011637116 -0.09705634 -0.11467171 -0.045305874 -0.08195378 0.07611969 0.0617874
-0.028124476 -0.09045777 -0.042559817 -0.06778111 -0.070859924 0.07614117 -0.11520607 -0.12710027
-0.05662497 0.054504834 0.0014723042 0.07220254 0.056822784 0.00982943 0.03213054 -0.070060484
-0.026465615 -0.040928632 0.007253484 -0.09452645 -0.07893222 -0.086985186 0.020199068 0.11368935
0.004439957 0.0051015303 -0.020099469 -0.115262635 0.07317464 -0.08343969 -0.026275093 0.022788562
-0.03332757 -0.06430239 -0.02036582 0.110507324 0.03422578 0.010503396 0.09342303 -0.0983326
-0.008668066 -0.07759676 0.035362944 -0.035316207 -0.10286517 -0.05688647 -0.111789644 0.066238225
-0.04168031 0.00680451 0.05437817 -0.06850181 -0.06648245 -0.0149038285 -0.07554875 0.08912851
0.017468477 0.0095431395 -0.072262 0.028409915 0.09919117 0.02208283 0.117424935 0.10301004
0.034278367 -0.0067261877 -0.08478656 -0.05104021 0.11911838 -0.034985922 -0.06915583 0.079994984
0.026210688 -0.108344294 0.123524226 -0.07514611 -0.057846993 -0.0029346708 0.034743894 0.045347583
0.021841973 -0.13482234 -0.0070546838 -0.03832188 -0.052451532 0.1187271 -0.046364214 0.05654749
0.011727267 0.034738135 -0.067343935 -0.06865652 -0.08201951 -0.04487402 -0.0047147726 0.1055096
-0.10337399 -0.041306272 0.048795357 -0.109563746 0.10440204 0.023151474 -0.09676818 -0.08759988
0.017032 -0.0069307582 0.10928138 0.05640174 0.10844595 -0.06638039 0.11322408 -0.07932385
0.03621275 -0.018437658 -0.061579634 -0.087402545 -0.087553926 0.0223325 0.010189786 0.09717371
-0.013309165 0.0331605 -0.027769532 0.10855941 0.017214378 0.08020888 0.08451754 -0.007513106
-0.10288674 -0.057599757 -0.069893815 -0.07092648 -0.050800826 0.06862013 -0.08312613 0.03144768
0.044788826 -0.0067547425 0.014307315 0.07180145 0.12329809 -0.12606585 -0.03985916 -0.03551234
-0.042587146 -0.09867747 0.037200533 -0.014267064 -0.026736306 -0.07421173 0.03211767 0.042072352

network.3.weight f4 [192, 384]
00000000: 21d1 6f3c 8ab8 353c 96a2 8dbb 6647 a63c
00000010: 113f d439 9769 aabc 400d 7cbd 9130 adbc
00000020: 6d65 773d 2fd0 1bbd cd80 37bd 6989 82b8
00000030: 0089 473c fa22 083d 8f4c 06bc a80e 683d
00000040: 0bb6 213b abd8 0ebd 6030 913c 0668 cdbc
00000050: 5043 fdbc be2e 51bd ab6b 58bd 7c44 76bc
00000060: 69a9 6c3d 9492 63bc 605b b3bc 26ca febc
00000070: 5f17 263d 1cdd f9bc a200 28bd 0991 96bc
00000080: 0dbb 07bd a629 9f3c 0803 083d 778c 31bd
00000090: 5506 443b 9b07 f4bc 5c06 b63c 8ad1 38bd
000000a0: 1372 5ebc fa47 1ebd 2b9c 19bd a139 073c
000000b0: eab3 33bb 5006 f0bb d83e 8ebc 559a 9b3c
000000c0: 880b cf3c d075 03bd 39d6 edbc 8eb7 d1bc
000000d0: 8640 9f3b 7348 763d 3df9 36bc 5673 a63c
000000e0: d5c3 39bc e56b 2d3c f5e8 413d 303a 1f3d
000000f0: 9b74 843d b224 1dbd 1584 9c3d e1d7 463b
00000100: 7334 213d 42d9 b8bb 7c38 18bd 41fd 03bd
00000110: 1f2d 353d e0a2 233b 78ba 68bc 2dab aebc
00000120: 8f46 803b 3e42 17bc 2ea1 8bbc f9ae a3bc
00000130: c8aa 1bbd 472a 203d 961e 6f3d 0d39 bd3a
00000140: f287 703b 4094 443c 1c42 18ba 1d0b e33c
00000150: cabd 5cbd fdfc 7fbc 595b 7cbc d541 0f3d
00000160: c46c 22bd 261f eebb 831e 06bd 6fe2 83bc
00000170: 669a 833c 963b 303c 9145 58bc f463 b83c
00000180: a8f2 46bd 281b cebc 3642 04bc bdb3 053d
00000190: 0906 13bc 0d78 cfbc e97d 743d f19d c33c
000001a0: 7118 d8bb 6887 3c3d f2bb 82bc c09b 57bd
000001b0: 9de6 a83b 5b31 7c3c 2091 563c e124 85bc
000001c0: d288 c0bc 9d1f 943b b53c eb3c be62 e33c
000001d0: 712e f4bc 47c7 5fbd f974 673b b212 11bd
000001e0: 388a 4d3c c7ab faba 0489 f8bc da69 dc3c
000001f0: 4a97 37bd df53 42bd f514 ae3c ee11 173d
00000200: 6ead b8bc 16fc 55bd 4d22 e5bc 98b1 2cbc
00000210: 3ea3 b1bb 1574 583c 8b3a 39bd 18ae 9ebc
00000220: 9094 013d bfd0 3e3d a688 0f3d f3d4 bdbc
00000230: 3cab d13c 0e90 553d 36ce 043d 58ee b5bb
00000240: c8aa 1b3c 39da 9ebc ee76 173d 8a9f 80bc
00000250: d1b3 833c 932a 003d a974 84bd 0f68 663b
00000260: d4d2 09bc afa5 04bd 94a1 b43c 7f42 11bd
00000270: f23c 133c e8c6 a2bc 02ae d0bc 1e51 84bd
00000280: a15a 823d de39 10bd 77a5 95bc 737c 793c
00000290: f36f 1e3c 870b a53c 2546 e93b 2171 e5bb
000002a0: cf8a 42bc 411a 0cbd d841 84bc f9ec f53c
000002b0: 7358 303d 7b58 55bd c5e8 2dbd f936 033c
000002c0: 8027 cbbc 077b 053c 8747 59bc 22cd 783c
000002d0: 2265 d5bc 9bcc d2bc 7e3e 10bd c14e eeba
000002e0: 26ec d63c 0df4 173b cf69 41bc 6ef5 a13c
000002f0: 1b63 dfba 2917 cbbc 2778 afbc c19f 563c
00000300: 0612 bebb 81ee e53c 2dde 1abd 3860 883c
00000310: 11d5 e0bb 984e 223d 71ce 9a3b 1b75 96bb
00000320: 5b96 1f3d 882d 103d bfa7 143b b64c 77bc
00000330: 7106 003d f9e8 94bc cd2d b83c eeec 76bc
00000340: 9aa7 193d 88c5 09bc 4ec0 083b e1d4 72bd
00000350: ad57 0a3d c188 2a3d 7bd1 b3bc e5fa c3bb
00000360: c1a2 a93c 5cb0 8dbb 07a5 313d 712e db3b
00000370: de01 76bc 0ecb 85bc 09ce 46bc 347c 063d
00000380: f0a6 313d 940f 1c3d bfef 43bd a54f 093d
00000390: 084c 0b3d a91a e33c 74f0 9b3c 8435 143d
000003a0: e51e 0ebd b025 033d 0d37 0a3d 6364 0e3c
000003b0: 2531 a73c 92a1 e1bc b8d4 b9bc 031c 603c
000003c0: afe3 e93c ce73 e43c 70bb 9e3c f746 6eba
000003d0: 2b20 243d 6c87 8ebc b4cf 68bd 37ea 05bb
000003e0: 7fa6 f13b 2d80 593d 8fb8 843c f408 7a3c
000003f0: 1768 6e3c 782c 023d 835f e9ba 08db 1c3d
0.014637263 0.011091361 -0.0043223603 0.020297717 0.0004048278 -0.020802302 -0.061536074 -0.021141322
0.06039946 -0.038040336 -0.04480057 -6.224478e-05 0.012178659 0.03323648 -0.008196964 0.056654602
0.0024675156 -0.0348746 0.017723262 -0.025074016 -0.030915886 -0.051069967 -0.052837055 -0.015030976
0.05777875 -0.013889927 -0.021894157 -0.031102251 0.040549632 -0.030500941 -0.04101623 -0.018379705
-0.03313737 0.01942904 0.033206016 -0.04334685 0.0029911 -0.029788783 0.02221983 -0.045121707
-0.013577002 -0.03864286 -0.03750245 0.008253486 -0.002742047 -0.0073249713 -0.01736395 0.01899449
0.025274053 -0.032094777 -0.029032813 -0.025600221 0.0048599867 0.060127687 -0.0111678215 0.020318668
-0.011338194 0.010584806 0.047341306 0.03887385 0.06467553 -0.038365074 0.0764238 0.0030341076
0.03935666 -0.0056411335 -0.037163243 -0.032223944 0.044232484 0.0024968907 -0.014204614 -0.021321857
0.0039146612 -0.009232102 -0.01704463 -0.019980894 -0.038004667 0.03910282 0.05837878 0.0014436558
0.0036702123 0.011998236 -0.0005808191 0.02771526 -0.053891934 -0.015624282 -0.015402638 0.03497489
-0.03965451 -0.007266897 -0.032743942 -0.016099183 0.016064834 0.010756394 -0.01320018 0.022508599
-0.04857126 -0.025159433 -0.008072427 0.032642115 -0.008973607 -0.0253258 0.05969039 0.023879023
-0.0065947105 0.04602757 -0.01595876 -0.05263877 0.0051544444 0.015392627 0.013096124 -0.016252937
-0.023502741 0.00452037 0.02871547 0.027757045 -0.029807301 -0.054633405 0.0035317524 -0.03541822
0.012545161 -0.001912468 -0.030338772 0.026905943 -0.044822015 -0.047443267 0.021250227 0.036882333
-0.022543635 -0.05224236 -0.027970457 -0.0105403885 -0.0054210713 0.01321127 -0.045221847 -0.019370124
0.03163582 0.046585795 0.035042427 -0.023172831 0.025594346 0.052139334 0.03242322 -0.0055520944
0.009501167 -0.019391166 0.036978655 -0.015701074 0.016076954 0.031290602 -0.06467564 0.0035157239
-0.008412082 -0.03238457 0.022049703 -0.035463806 0.008986698 -0.019870237 -0.025473598 -0.064607844
0.06364942 -0.035211436 -0.018267376 0.015227425 0.009670245 0.020147098 0.0071189576 -0.0070020114
-0.011873915 -0.034204725 -0.016144678 0.030020224 0.0430531 -0.052086335 -0.042458314 0.008008712
-0.024799109 0.008147008 -0.013261682 0.015185626 -0.0260492 -0.02573233 -0.035215847 -0.001818143
0.026235651 0.0023186237 -0.011805012 0.01977035 -0.0017043086 -0.024791317 -0.021419598 0.013099612
-0.0058004884 0.02806783 -0.03780954 0.016647443 -0.006861337 0.039625734 0.0047243168 -0.004591597
0.03896175 0.035199672 0.0022682992 -0.015093973 0.031256143 -0.018177496 0.022482777 -0.015071137
0.037513353 -0.0084089115 0.0020866576 -0.05928505 0.03377502 0.041634325 -0.021950474 -0.0059808367
0.02070749 -0.004324002 0.043370273 0.006688886 -0.015015094 -0.016332176 -0.012134084 0.032833293
0.043372095 0.038100794 -0.04783606 0.03352322 0.034008056 0.027722673 0.019035555 0.03618385
-0.034697432 0.032018363 0.033743907 0.008690926 0.020409176 -0.027542863 -0.02268444 0.0136785535
0.02855095 0.027887251 0.019376487 -0.0009089554 0.04006974 -0.017398559 -0.056838706 -0.0020433792
0.007374584 0.053100754 0.016201286 0.015260924 0.014551184 0.03178069 -0.0017804954 0.038294822

network.3.bias f4 [192]
00000000: fd28 533c 024c 933c 71bb e7bc 3275 1c3d
00000010: 0d5f 37bd 0406 c33b 273c f03c a07e 0abd
00000020: f2dc 40bc 25f9 41bd 780a 9fbc c718 d73a
00000030: 2ded f23c 5ca5 f43c ab90 2dbb a450 80bc
00000040: 42a6 8f3d d14c 47bc 124d 3e3d 43e1 843c
00000050: 8959 30bc f061 43bd 12ab e0bc aace 783c
00000060: 2b1f 5abd 0b52 0bbc 8f00 cf3c 5695 9d3c
00000070: 8760 cbbc d2ab 273d c1fc 0bbd 88fa 4cbb
00000080: 12b1 83bc 82cc 04bc 42f5 5cbc 4a94 0ebd
00000090: dcce b2bc 47f3 b83a eb0e 25bd 3a71 893b
000000a0: 6014 f0bc e11c 3c3d 0301 84bc 0ae8 363d
000000b0: d810 353c 084d d3bc 9cb4 7bbd d2b1 673d
000000c0: 0e38 50bc 3ba5 49bd 07b8 c7bb 69b2 4abd
000000d0: c0c8 76bd 983f dabc 4a9c 5abd 4b27 e0bc
000000e0: 64fa 4ebd 4d88 613d 18a4 913c c9d1 fc3c
000000f0: abac 2dbd c0c4 d8bc cc91 c23c 4a9e 5c3d
00000100: 846b 023c 91a4 06bd 1cd9 1a3c 3b7a 8a3c
00000110: 4e77 95bc fc03 3bbc 8371 21bd cbb2 21bd
00000120: df3f 29bd e19f 66bc eee9 283d d238 ff3c
00000130: 1037 21bd a33e 2c3d a99c ca3c e3f3 27bc
00000140: 78f4 e5bc c5c9 113c 9584 153d 0481 4b3d
00000150: cf45 82bb bfe3 603d 09ba ae3c fe7c 82bc
00000160: 1864 d03c b8d4 1dbd f85a 48bc f089 96bc
00000170: 87bf 003a c622 833c 48a7 3f3d 470b 1e3b
00000180: de7f b43c 631c b23c f0a5 cfbc de40 c9bc
00000190: 6b3a 173d 92d7 313c 3320 3c3b f725 bfba
000001a0: 2501 43bc a04a 9d3c dd60 023c 23eb ccbc
000001b0: 7ee5 043d 1c24 7aba e8c3 8ebc 76d2 9f3c
000001c0: 6cd4 e0bc 164c 3e3c efa8 1dbc 0593 543c
000001d0: f96a 61bc ca1b 2cbc 3105 86bd b730 f53b
000001e0: 567f 05bd 9480 163d 8220 123d c3a8 02bd
000001f0: c6c8 b3bc b096 66bd 934c 6d3d eca3 7e3c
00000200: 6991 2ebd f452 2abd 89ba 113d f27e 5f3d
00000210: 4903 9ebb 647e 63bc 8aa0 8d3c 4413 f93b
00000220: 7d79 bb3b 21a4 fdba fd23 2cbc dc39 f53c
00000230: d2b8 39bd cfa2 04bd 1a34 3ebc 580b 8ebc
00000240: ad6f 293d 0f34 0b3d f11a 1cbd 2ab3 06bc
00000250: 3559 1e3c 232b 193d 9a67 893c 54eb c93b
00000260: 5cc5 043d da67 043d f2e9 753d 7632 25bd
00000270: a2c9 3c3c 20dd 933c bc6d 1dbb d5b4 003c
00000280: f4ce 643c 6e44 99bc 042a e2bc acde fcbc
00000290: e423 afbc 452a b23a 0868 443d 082d 3ebd
000002a0: 2a13 58bd 2c29 483c e7fe af3c e50c 31bd
000002b0: e354 c93c 6478 7cbb dc10 f8bc 183f 06bb
000002c0: fc88 34bc 3685 f9bb f069 d43c e911 603d
000002d0: 3b65 f1bb ee38 173d 1948 bc3b 5333 143d
000002e0: 4ea6 54bd ff07 9abc fc3b 1b3c 9265 e83c
000002f0: 8a87 45bd 4894 21bc 3993 fe3c 424b 653c
0.01288819 0.01798058 -0.028287621 0.038197704 -0.044768382 0.005951645 0.029325558 -0.033812165
-0.0117714275 -0.047356743 -0.019414172 0.0016410582 0.02965411 0.029864006 -0.0026483934 -0.015663452
0.07014133 -0.012164311 0.04646022 0.016220694 -0.010763534 -0.047700822 -0.027425323 0.015185991
-0.05325238 -0.008503447 0.025268821 0.019236248 -0.024826301 0.040935345 -0.03417659 -0.0031277258
-0.016075645 -0.008105399 -0.013486208 -0.03480939 -0.021827154 0.0014110588 -0.04029743 0.004194406
-0.02930659 0.04592598 -0.016113764 0.044654883 0.011051379 -0.025793567 -0.06145154 0.056566067
-0.012708677 -0.04922984 -0.006094936 -0.04948655 -0.060250044 -0.026641652 -0.053371705 -0.027362486
-0.05053176 0.055061627 0.017778441 0.030861752 -0.042400997 -0.026461005 0.023751162 0.053861894
0.007960204 -0.032871787 0.009451177 0.016903987 -0.018245365 -0.011414524 -0.039414894 -0.03947715
-0.041320678 -0.014076204 0.041238718 0.031155024 -0.039359152 0.042051923 0.024732905 -0.010251018
-0.028070673 0.008898203 0.036503393 0.049683586 -0.003975607 0.054904696 0.021328943 -0.015928742
0.025438353 -0.038532943 -0.01222872 -0.01837632 0.00049113523 0.016007792 0.04679039 0.0024115609
0.022033628 0.021742051 -0.02534768 -0.024567064 0.036920946 0.010854619 0.0028705716 -0.0014583458
-0.011902128 0.019200623 0.007957664 -0.025014466 0.032445423 -0.0009542124 -0.0174274 0.019509535
-0.02744504 0.01161482 -0.009622796 0.012974505 -0.013758414 -0.010504672 -0.06543959 0.007482614
-0.03259214 0.036743715 0.035675533 -0.031899225 -0.021946322 -0.05629605 0.057934355 0.015542012
-0.042619143 -0.041583017 0.035578284 0.054564424 -0.004822169 -0.013885114 0.017288465 0.0076011736
0.0057212696 -0.0019351282 -0.010506627 0.029934816 -0.045342274 -0.03238183 -0.011609102 -0.017339393
0.041366268 0.033985194 -0.03811163 -0.008221427 0.009664823 0.037394654 0.016773034 0.0061620865
0.03241478 0.032325603 0.06003756 -0.040331326 0.011522682 0.018049777 -0.0024021706 0.007855614
0.013965357 -0.018709388 -0.027607925 -0.030867897 -0.021379419 0.001359292 0.047950774 -0.046429664
-0.05275265 0.012216847 0.021483852 -0.043225188 0.02457661 -0.0038523907 -0.030281477 -0.0020484384
-0.011018988 -0.007614757 0.025929421 0.05470458 -0.007366804 0.036919527 0.0057458994 0.03618176
-0.051916413 -0.018802641 0.009474751 0.028368745 -0.048224963 -0.009862013 0.03107606 0.013994994

network.6.weight f4 [96, 192]
00000000: 0ab8 85bd 6543 1e3d 1c78 95bd a023 0fbd
00000010: 2c3f 1fbc 1734 8c3d 4a96 e33c f0d3 77bc
00000020: 9098 2b3c 0bf0 643d 0781 7e3d b289 a03d
00000030: da2d 1cbd 7059 323d 7151 463d 1a6f dabc
00000040: b0e5 7fbd 5f78 14bc 327c 63bc 7a66 dcbc
00000050: 084d c53c 6072 9a3d e1ae 473d 17fd d1bc
00000060: 76f5 cdbc 91bd 113d 2373 df39 4ff2 513c
00000070: c68a 0fbd 1cdc 873d d7b6 9a3d c639 5f3d
00000080: de12 e23b eb49 af3c 14f0 3e3d 053d df3b
00000090: 0cb3 d13c c5a0 ba3d e5a2 ebbb 89c7 8e3d
000000a0: d88f 123d 3e37 0b3d ba44 cd3b c73b 7ebd
000000b0: dde6 e53b 4c83 e7bc 1b60 2cbc fb44 07bc
000000c0: 569d 2f3d e56d 27bd d005 463d 3049 693d
000000d0: 1530 41bd 1481 f13c ab9e d73b 23d4 24bd
000000e0: 3158 e93c 6d5b b33d 6632 20bc 60b4 d5bc
000000f0: b9e0 2a3d e77e a53c 658a cbbc 56bb f5bc
00000100: 1b7e b4bc af44 803c 5ad4 2a3d f12c 483d
00000110: 2f10 523d 3bbf ab3c 1ccf bc3d e898 ed3c
00000120: 214d b03d 83ed 973d 38ed 153d 3049 a63c
00000130: 1270 69bc a6f4 513d 622d 893d e38c 3c3c
00000140: 5de2 17bd 5cda 74bd a83e 253c 96bc 9eba
00000150: 7cfe 1ebd 91a3 2f3d e907 933c 21eb 16bd
00000160: c381 1dbd 710a a23b f182 b93c 2e76 e9bc
00000170: 5aa6 07bd 0aac 4fbd c232 2d3d ec24 26bd
00000180: aefc f63c 9232 e9bc 32c7 a7bc e5ab 233d
00000190: ea94 923c 050f 62bc e6c7 17bd 67eb 8c3d
000001a0: a65e 183d a047 6d3d 847e 31bd 62c4 783d
000001b0: ea05 82bd 8483 db3c 5992 063d cb15 5a3d
000001c0: 3502 bf3c 8ec6 073c 327a 273d 0819 333d
000001d0: a2e6 43bd 4820 8a3d 07f1 193d 8e95 a9bc
000001e0: de3d f7bc 8ec4 e53c 21ea adbc 04c1 0f3d
000001f0: 85ac a03d dd32 813d 835d 9f3d a63e 8e3c
00000200: b4ce 21bd ed21 6ebb a2f2 8c3b 3d70 3d3d
00000210: ba9f 0a3d 1c1c 51bb cd15 08bd ab26 bb3c
00000220: 614c 7b3d 49fa 9b3d c22c b8bc fd5e 233d
00000230: 11b4 933d ae86 643d 07f1 c43c 43dc 54bc
00000240: 396f 2cbc a960 943d c2d3 983d f597 5cbb
00000250: 3de3 763d 1497 b8bc 5708 253d f699 5bbc
00000260: 3dfb 0a3d 8942 00bd eeff 0abc 899a 0f3d
00000270: 983e 563d 679f 663d 4b06 bbbb dc96 30bb
00000280: c855 5ebd 6d05 2fbd 0fa2 1abd 4a93 75bd
00000290: 19fe bc3b 1ae8 303d 5fef 703d 0f84 af3b
000002a0: a2a0 3c3d 58d9 98bd 6348 e53c 8805 043d
000002b0: 1954 a13b 63ea 25bb 25cb 03bd 6302 06bd
000002c0: 7aa6 963b c94b 363d 52ae 16bd f2ca baba
000002d0: e633 70bd 8524 bcbc a8c6 8a3d 6570 543d
000002e0: 7491 3fbc 94f0 a83c b5e4 87bc a12e ab3d
000002f0: f5d9 8b3c 6727 713d 1f3e 3c3d 588b 03bd
00000300: 19c9 53bd 15f7 273b 3e5b 9cbd d621 d13c
00000310: c830 973d bac8 72bd 9cbf 113d 647b c9bc
00000320: 0d86 0d3d 7b9f ad3c 7730 f33c 777f 033d
00000330: 0920 ba3c 381d 04bd ab03 a7bc 24eb 803d
00000340: 3f4f 8d3b 2f7f 573d 8021 9bbd 5f80 663c
00000350: 7fe0 f3bc cdca 1dbd 5aaf 6bbd 40db a33c
00000360: d16c 21bb 6fb9 a5bc 71e0 433d 65f0 75bd
00000370: 8d9e 883d 510a 9d3d 9d4d 813d c5df ddbb
00000380: abea 0c3d c8d2 043d 0ab8 f4bb 55ce 07bd
00000390: aa47 a83d eaab 123d edff 19bd b27c 78bd
000003a0: 08d2 9f3c 9de3 503c 66ab 313d 765a b5bc
000003b0: ae7d 203d 1d5c af3d 24f9 0b3d bdd1 483d
000003c0: 3cba 2f3d eaff 2fbd 5f0f 6f3c 29cd 313d
000003d0: bc95 4fbd 3bef 4fbc 2ad9 05bd 779d 0e3b
000003e0: 2e6e f6bc 5683 22bd 5644 503d d3e0 72bd
000003f0: 5ed9 bb3c 70d1 e23b daad 5fbd 8184 03bd
-0.06529243 0.03863849 -0.072983 -0.034946084 -0.009719651 0.06845873 0.027781624 -0.015126213
0.010473385 0.055892985 0.06213477 0.07838763 -0.038129665 0.043542325 0.048417512 -0.026664305
-0.062474906 -0.009061902 -0.013884591 -0.026904333 0.024084583 0.075413465 0.048750762 -0.025633378
-0.025141459 0.035581175 0.00042619658 0.0128141185 -0.035044454 0.066337794 0.07554405 0.054498456
0.006899222 0.021397552 0.046615675 0.006812694 0.025598072 0.091126956 -0.0071910494 0.06971652
0.03578171 0.03398823 0.0062642964 -0.062068727 0.0070160464 -0.02826085 -0.01052096 -0.008256192
0.042874657 -0.040876288 0.048345387 0.056954563 -0.047164995 0.029480495 0.006580194 -0.04024137
0.028484436 0.087576725 -0.009777641 -0.026086986 0.04171822 0.020202113 -0.024846265 -0.029996555
-0.022032788 0.01565775 0.04170642 0.048870984 0.051284965 0.02096521 0.092191905 0.029003575
0.08608461 0.07418349 0.036603183 0.02029857 -0.014247911 0.051258706 0.06698109 0.011508199
-0.03708111 -0.059778556 0.010085739 -0.0012110646 -0.038816914 0.0428806 0.017948108 -0.03684533
-0.03845383 0.0049450924 0.022645446 -0.028498735 -0.03311763 -0.05070118 0.042284735 -0.040562555
0.030149784 -0.028466497 -0.020480726 0.039958853 0.017893273 -0.013797526 -0.037055872 0.06880837
0.03719964 0.057929635 -0.043333545 0.06073416 -0.06348784 0.02679611 0.03285441 0.05324344
0.023316482 0.008287085 0.04088802 0.043725044 -0.04782737 0.067444384 0.037583377 -0.020701196
-0.030180868 0.028047826 -0.021229805 0.035096183 0.078454055 0.063085295 0.07781508 0.017363857
-0.039503768 -0.003633614 0.004301385 0.046249617 0.033843733 -0.0031907624 -0.033223916 0.022845587
0.061352137 0.076160975 -0.02248228 0.03988551 0.07212079 0.055792503 0.024040712 -0.012991968
-0.010524564 0.07244999 0.074622646 -0.003365991 0.060275305 -0.022532977 0.040291157 -0.013403406
0.033931006 -0.031313453 -0.00848387 0.035059486 0.052305788 0.05630436 -0.0057075373 -0.0026945388
-0.054281026 -0.042729784 -0.037752207 -0.05995492 0.0057675955 0.0431901 0.058822032 0.005356319
0.04605163 -0.0746333 0.027988618 0.032231838 0.0049233553 -0.0025316707 -0.032176156 -0.03271712
0.0045974823 0.044505868 -0.03678734 -0.0014251156 -0.058643244 -0.022966633 0.06776172 0.051865
-0.011692394 0.02062253 -0.016588548 0.08358503 0.017071703 0.058875468 0.04595768 -0.03211531
-0.051705454 0.002562945 -0.076345906 0.02552883 0.07382351 -0.05927346 0.035583124 -0.02459497
0.03455167 0.02119421 0.029686196 0.03210398 0.022720354 -0.032254428 -0.020387491 0.062948495
0.0043124254 0.052611526 -0.07574749 0.014068692 -0.029770134 -0.038523484 -0.057540275 0.020002007
-0.002463151 -0.020230023 0.047821466 -0.06004371 0.06670866 0.07667983 0.06313632 -0.00677106
0.034403484 0.03242758 -0.007468228 -0.033155758 0.08216794 0.03580848 -0.037597585 -0.060665794
0.01950933 0.01274958 0.04337635 -0.022137862 0.039182357 0.08562491 0.034173146 0.049028147
0.042902216 -0.042968668 0.014591067 0.043408547 -0.050679907 -0.012691314 -0.032677807 0.0021761337
-0.030081835 -0.039676033 0.05084642 -0.05929644 0.022930797 0.0069219396 -0.054609157 -0.032108787

network.6.bias f4 [96]
00000000: 8d4d 4abc fe00 503d c828 2abd 3699 fd3b
00000010: 50f0 a33c 94c8 483c 28e7 6a3d cfea 823b
00000020: 9f5a 323d dad6 a3bc ca65 14bd ec25 c33c
00000030: 5bf7 38bd 24e3 313d 6db6 fb3c 8eae 49bd
00000040: 5cf5 283c 944c a03d b197 473d 5b60 993d
00000050: 8764 533b a006 a03c 69ce 2bbd 8a9e 053c
00000060: 9203 2b3d 069f 803d f0bf 1d3d 6392 a9bb
00000070: 12ad 2f3b 38fa 44bd 381b ffbc bb11 24bc
00000080: 6773 e23c f60a 6bbd dea8 d3bb 7008 253d
00000090: 2320 573d 821b 6e3b 1b95 71bd fb9a 84bd
000000a0: dc85 0fbd 9c24 f4ba 7545 7cbd 9bc0 463d
000000b0: b13c 273d 53e0 713d f973 39bd a54a 7c3d
000000c0: 669c cabc 7b48 86bd ae96 cb3c 95b4 413d
000000d0: 7616 9b3d 1686 573d 0172 a53d e94f d43b
000000e0: 3cab 293d 8536 853d 364f 133c ba30 b83d
000000f0: 69cd e0bb 99a6 f6bc 893a f63c cc84 eb3c
00000100: 2e4d 9c3d 5773 c4bc a004 1ebc 7408 3dbc
00000110: a693 2a3d 8639 ac3d bf68 ce3a 77fc 88bd
00000120: 88db 1dbd 1251 d03c bc2e 82bc 9312 f0bb
00000130: b890 6a3d 595f 21bb 2821 38bd e0ac 1fbd
00000140: f1a9 1b3d c682 2e3d 83f0 5e3d ee6d 313d
00000150: d847 41bd a4c8 e83c 3cf3 9b3d 1df0 7a3d
00000160: ac8a 8fbd cecf b73b 60b9 52bd 62fd 81bd
00000170: 327f a43d be46 f73b e638 45bb f10f 33bd
-0.012347591 0.050782196 -0.0415428 0.0077392114 0.02001205 0.012254853 0.057349354 0.0039952765
0.043543454 -0.01999991 -0.036229886 0.023821793 -0.04515777 0.04342951 0.030726636 -0.049238734
0.0103124045 0.07827106 0.04872865 0.074890815 0.0032255964 0.019534409 -0.041944895 0.008155474
0.04175145 0.06280331 0.038513124 -0.0051749214 0.0026806039 -0.04809019 -0.031140909 -0.010013993
0.027642919 -0.0573835 -0.0064593395 0.04029125 0.052520882 0.0036332314 -0.05898009 -0.06474873
-0.035039768 -0.0018626633 -0.061589677 0.048523527 0.040829364 0.059051823 -0.045276616 0.061594624
-0.02473278 -0.06556793 0.024852123 0.047291357 0.075726435 0.05261811 0.08078385 0.0064792526
0.041423067 0.065045394 0.008991053 0.08993669 -0.0068604243 -0.030108737 0.030057209 0.028749846
0.07631908 -0.02398078 -0.009644657 -0.01153766 0.041644715 0.08409409 0.001574777 -0.06688779
-0.03853944 0.025429282 -0.015891425 -0.007326433 0.05726692 -0.0024623482 -0.044953495 -0.038983226
0.038003866 0.042605184 0.05442859 0.043317728 -0.047187656 0.028415985 0.07614753 0.061264146
-0.070088714 0.005609489 -0.05144632 -0.06347157 0.08032073 0.007546275 -0.0030093729 -0.043716375

network.9.weight f4 [1, 96]
00000000: a854 53bd 93df b8bd 7452 bc3c 3675 afbd
00000010: ea12 ac3d 7842 953d 5fbf 9bbd 56c2 c8bc
00000020: cf64 ebbc 0d46 183d 9b5a 49bd 3488 c4bd
00000030: 0a88 3bbd 9a24 cdbd 52e7 6d3d 0959 a63d
00000040: b735 09bd ee5d f73d b490 40bd a5e1 f73d
00000050: f948 c2bd 60ee c4bd d6f6 a2bc 05c6 b0bd
00000060: 7028 873d 4a5a cf3d 1fb8 6f3d 4de6 babd
00000070: 3eea 4bbd 82df a1bb 1785 9fbd 2eba c83d
00000080: 8524 afbd 0193 b9bc 964c f83d b1e1 533d
00000090: beb0 9ebd 78af 4abd 23ba 42bd 6345 9fbd
000000a0: 12bf 643d 54b5 babd e9d5 5bbd 61ce 9bbd
000000b0: 8acb ba3b 7342 ba3d eb6a 82bd 23f3 af3d
000000c0: 037a ae3d 50b7 b53d 2515 c6bd 37eb 82bd
000000d0: b12b d23d a3f2 95bc 8dc3 d63d 7146 913d
000000e0: 8271 a73d 92a0 dcbd 4f56 fd3d 1376 883d
000000f0: 122a a03d dff4 79bd 4f37 98bd 2170 603d
00000100: d882 293d c89a d63d 8194 523d c4aa ce3d
00000110: 8b4c 973d ada3 e73d faab c3bc 2854 9d3d
00000120: 9472 8ebd 2036 4bbd 934a ea3d e83c 05bd
00000130: 9c64 a8bd 3f46 83bd 23ab 403d c275 303d
00000140: a1ad d53d a337 6ebd 3436 b0bd a2e7 d6bd
00000150: 2ebc 43bd 1f2c 8dbc cf43 b03d ff05 cfbd
00000160: 48ac 283d 6f64 163d ae62 47bd 89b0 9e3d
00000170: a5a9 083e 1c38 9e3d 41be a0bd 277e a03c
-0.051594406 -0.090270184 0.022988535 -0.08567278 0.08402045 0.072880685 -0.076048605 -0.02450673
-0.028734593 0.03717618 -0.049158674 -0.09596291 -0.045784034 -0.10016747 0.058081932 0.08122451
-0.033498492 0.120784625 -0.047013 0.12103585 -0.09486575 -0.09615779 -0.019893091 -0.08631519
0.0659951 0.10124643 0.0585252 -0.09125958 -0.049783938 -0.0049399743 -0.07789057 0.09801136
-0.085518874 -0.022653105 0.121239826 0.051728908 -0.07748555 -0.049483746 -0.047540795 -0.07776906
0.05584628 -0.09116617 -0.053670797 -0.07607723 0.0057005333 0.090947054 -0.06368049 0.085912965
0.08519366 0.08872855 -0.09672002 -0.0639252 0.1026224 -0.018304175 0.10486517 0.07093514
0.08175947 -0.10772814 0.12369978 0.06663146 0.07820524 -0.061024543 -0.07432424 0.054794434
0.041384548 0.10478741 0.051411156 0.10091165 0.07387646 0.113105156 -0.023885716 0.07682067
-0.06955448 -0.049612164 0.11440005 -0.032528788 -0.08222315 -0.06409883 0.04703821 0.043081053
0.10433508 -0.058158528 -0.086040884 -0.10493399 -0.047786884 -0.017232953 0.086066835 -0.101085655
0.041179925 0.036716875 -0.048678093 0.07748515 0.13345964 0.07725546 -0.07848788 0.019591404
