projekt1/wandb/run-20251108_191842-u4zqtnai/files/best_model.pth (torch, 839365 bytes, 9 tensors)

network.0.weight f4 [512, 70]
0.07203018 0.06775296 -0.072246194 0.015304721 0.083322614 0.026273098 -0.11489999 -0.045777317
0.044088632 0.015084011 0.10807223 -0.079734586 0.080774 -0.093935095 0.09199435 -0.15158373
-0.077479415 -0.05744188 0.06258207 -0.07270654 -0.02477903 0.07643283 0.038410958 0.07491864
0.002697811 -0.011437722 -0.07324798 -0.00892462 0.061053813 -0.007465419 -0.15372467 0.04951538
-0.077272914 0.03364351 -0.06377518 0.0050019464 0.06783128 -0.082352534 -0.03759884 -0.13405108
-0.0025994864 0.061896462 -0.12786852 -0.013513433 0.10635271 0.009926683 0.021629583 -0.0013289766
0.04211063 0.0017559362 -0.07815414 -0.06559386 0.017951684 -0.057652943 -0.11111847 0.053492464
0.059764445 0.02931583 -0.043497458 -0.106609546 0.066870876 0.05633113 0.10588336 -0.08070844
-0.11844742 0.01898037 -0.11661809 0.059836198 0.06432157 0.08306127 -0.14145999 -0.04739194
0.11253759 0.08127032 0.10301276 -0.039511107 0.14544778 0.04681784 0.09123921 -0.045712914
-0.03653041 0.06915605 -0.0639278 0.04294074 -0.05908961 -0.09481545 -0.09676185 0.0776664
0.084904015 -0.1013701 0.00049586856 -0.026175108 -0.05184979 -0.039004005 -0.06684768 0.02064405
0.10504776 -0.003374685 0.091201946 -0.009358893 -0.034548085 -0.05854091 0.08770014 -0.091834664
0.044077277 -0.074622974 0.08081454 -0.038911235 -0.08206577 -0.027393391 0.09434363 0.05955815
0.07575391 -0.058481876 -0.10938679 -0.09618905 0.010797563 0.008855657 -0.009149109 0.008123984
0.07706231 -0.09161313 -0.102796145 0.062428854 -0.04734629 -0.15960401 -0.124205865 -0.046822723
0.07184167 0.0197919 -0.06467929 0.13741466 -0.1213859 0.028946986 0.12551337 -0.026149621
-0.0068721366 0.030904055 -0.104436606 -0.09506518 -0.004563021 -0.10183504 0.09249623 -0.044352956
0.073526606 -0.0051653916 0.024483418 -0.044576414 -0.030548096 0.07019908 0.1185224 0.03691743
0.029897867 -0.00060818886 0.06989604 -0.02233584 0.026960319 -0.10587913 0.120373175 -0.008727715
-0.011043464 -0.063262075 0.02432935 -0.09514282 -0.038903292 0.060437385 -0.08444056 0.09978042
-0.12872855 -0.15397707 -0.08193206 -0.116525285 0.031610392 -0.07018276 -0.06180287 -0.088222295
0.15816222 -0.019752113 -0.08700128 -0.04818899 -0.06793531 0.030227192 0.031577427 -0.0036745586
-0.120415896 0.119203515 -0.07563094 -0.009616144 0.107783824 0.004127458 0.06504811 0.040948313
-0.023994407 -0.03124298 -0.07152515 -0.042169213 -0.0879222 -0.07504075 -0.07076418 -0.030901436
0.10535177 -0.017235478 -0.010420384 -0.002678653 0.09644397 -0.0036278646 -0.008006083 -0.02465271
0.03490388 -0.05572028 -0.106211066 -0.078448035 -0.049241923 0.032505523 0.010531776 0.024980852
0.057701845 -0.07112621 -0.017844433 0.059684493 0.15595311 -0.0173693 -0.13579924 -0.06787668
-0.042040475 -0.09969468 0.15286304 -0.09735336 0.054045018 0.06292088 -0.007615363 0.03604448
-0.02239665 0.07683327 -0.078028 -0.09311497 0.12785302 0.029464522 0.0038166177 0.10039312
0.0008764447 -0.068266235 0.04486252 -0.05503649 0.061040577 -0.07138242 -0.11306902 -0.042397343
-0.05741519 0.08466067 -0.012564998 0.026541922 0.10800015 -0.04862083 0.06686014 0.027363973
00000000: 8f84 933d 10c2 8a3d d0f5 93bd a7c0 7a3c
00000010: 0ca5 aa3d ae3a d73c b050 ebbd ff80 3bbd
00000020: 4896 343d ed22 773c f954 dd3d e34b a3bd
00000030: d76c a53d 0b61 c0bd 8967 bc3d c438 1bbe
00000040: 87ad 9ebd 2d48 6bbd 072b 803d 2be7 94bd
00000050: 64fd cabc d188 9c3d cf54 1d3d f26e 993d
00000060: c2cd 303b 4865 3bbc 0903 96bd 9238 12bc
00000070: 9013 7a3d 79a0 f4bb 006a 1dbe a4d0 4a3d
00000080: 4341 9ebd c7cd 093d 909c 82bd 5ee7 a33b
00000090: 20eb 8a3d 72a8 a8bd 3e01 1abd b044 09be
000000a0: 255c 2abb 2587 7d3d f7ef 02be 7267 5dbc
000000b0: 73cf d93d 87a3 223c 8630 b13c 0e31 aeba
000000c0: 327c 2c3d 7127 e63a 470f a0bd 1356 86bd
000000d0: 690f 933c 7e25 6cbd 1592 e3bd ea1a 5b3d
000000e0: 90cb 743d c027 f03c 642a 32bd 1b56 dabd
000000f0: 99f3 883d 79bb 663d 60d9 d83d 774a a5bd
00000100: 9094 f2bd b97c 9b3c 77d5 eebd cd16 753d
00000110: 07bb 833d 071c aa3d e3da 10be 0d1e 42bd
00000120: 1c7a e63d 0e71 a63d 5bf8 d23d 66d6 21bd
00000130: 43f0 143e 10c4 3f3d 9fdb ba3d 773d 3bbd
00000140: e9a0 15bd b0a1 8d3d 94ec 82bd a1e2 2f3d
00000150: f207 72bd 9a2e c2bd 142b c6bd 900f 9f3d
00000160: 28e2 ad3d 219b cfbd 2dfd 013a 2e6d d6bc
00000170: 7260 54bd aac2 1fbd 70e7 88bd b61d a93c
00000180: 4823 d73d d229 5dbb 16c8 ba3d 0b56 19bc
00000190: 4b82 0dbd 98c8 6fbd 229c b33d d013 bcbd
000001a0: 608a 343d eed3 98bd 1882 a53d 6361 1fbd
000001b0: 1912 a8bd 1b68 e0bc 3c37 c13d 3ff3 733d
000001c0: de24 9b3d b18a 6fbd 2e06 e0bd c4fe c4bd
000001d0: 43e8 303c 5117 113c 25e6 15bc 751a 053c
000001e0: d8d2 9d3d aa9f bbbd c986 d2bd 66b5 7f3d
000001f0: 2fee 41bd 3c6f 23be a55f febd 2fc9 3fbd
00000200: ba21 933d 9f22 a23c 9376 84bd 6eb6 0c3e
00000210: 2c99 f8bd 3b22 ed3c 9486 003e bb37 d6bc
00000220: a92f e1bb 802a fd3c dce2 d5bd 88b1 c2bd
00000230: 6585 95bb e48e d0bd aa6e bd3d 72ab 35bd
00000240: 1e95 963d 7242 a9bb 7391 c83c c295 36bd
00000250: 0040 fabc 89c4 8f3d dfbb f23d bb36 173d
00000260: 5fec f43c dd6e 1fba a825 8f3d a7f9 b6bc
00000270: e3db dc3c 28d7 d8bd 3686 f63d b1fe 0ebc
00000280: a5ef 34bc 8c8f 81bd 584e c73c 3dda c2bd
00000290: 0f59 1fbd 318d 773d 2cef acbd ad59 cc3d
000002a0: 6bd1 03be 2aac 1dbe ffcb a7bd cfa4 eebd
000002b0: e679 013d fbbb 8fbd 0225 7dbd e4ad b4bd
000002c0: 47f5 213e 2fcf a1bc ba2d b2bd d261 45bd
000002d0: ab21 8bbd 049f f73c 5557 013d ddd0 70bb
000002e0: 9c9c f6bd f920 f43d 65e4 9abd 088d 1dbc
000002f0: c4bd dc3d a13f 873b f237 853d 6bb9 273d
00000300: eb8f c4bc 47f1 ffbc c77b 92bd a0b9 2cbd
00000310: 8e10 b4bd f7ae 99bd cfec 90bd 0225 fdbc
00000320: abc2 d73d 6b31 8dbc 42ba 2abc 578c 2fbb
00000330: 6b84 c53d 78c1 6dbb f22b 03bc 7bf4 c9bc
00000340: 5ff7 0e3d f33a 64bd 3085 d9bd 5da9 a0bd
00000350: e6b1 49bd 8324 053d 788d 2c3c a5a4 cc3c
00000360: c558 6c3d 9eaa 91bd 7d2e 92bc ba77 743d
00000370: 2cb2 1f3e 104a 8ebc f50e 0bbe ee02 8bbd
00000380: a232 2cbd b92c ccbd 2188 1c3e 3361 c7bd
00000390: 4f5e 5d3d aadc 803d 4c8a f9bb 60a3 133d
000003a0: 2e79 b7bc c35a 9d3d 25cd 9fbd 10b3 bebd
000003b0: e7eb 023e 955f f13c 3820 7a3b e89a cd3d
000003c0: 35c1 653a 2bcf 8bbd c3c1 373d f16d 61bd
000003d0: af05 7a3d f230 92bd bb90 e7bd d6a8 2dbd
000003e0: 312c 6bbd 9362 ad3d 6cdd 4dbc 726e d93c
000003f0: 2f2f dd3d a326 47bd f8ed 883d 692a e03c

network.0.bias f4 [512]
-0.06622412 -0.019732056 -0.036666483 -0.12565063 -0.0485402 0.12563843 0.001108467 -0.0613303
-0.072533876 -0.05576601 -0.0056592 0.08607952 -0.04200269 -0.06215418 -0.017513236 0.04337103
-0.0016552671 0.09005003 0.052522745 0.09838278 -0.09351232 0.020931704 -0.032835457 0.010189807
0.020590775 0.0862889 0.00388944 0.09842898 -0.0791042 0.028551754 -0.0795144 0.10413706
-0.09806289 -0.056194093 0.00074530713 0.04846844 0.096298315 -0.10671662 -0.089502774 -0.120571494
-0.10531486 -0.12711996 0.072218046 -0.0897157 -0.022164531 0.015606244 0.09289408 -0.082694404
0.034397352 -0.007340936 -0.012516527 0.030281395 0.035967916 -0.11879443 0.104137756 0.0063026627
-0.012664056 0.04509779 0.09114871 0.06843723 -0.0076482436 0.084117055 0.01679802 0.0040662894
-0.0073397835 -0.043090053 0.1034007 -0.090282194 -0.04490382 -0.04803194 -0.08039279 -0.04714725
0.09184968 0.026750006 -0.01950577 0.012696644 -0.12977453 -0.09959524 0.09785363 -0.0064834305
0.06107241 -0.123441674 -0.07935537 -0.022266455 -0.010615047 -0.02092661 0.006383329 -0.013376337
-0.10614092 0.08189278 -0.014487102 0.040665682 -0.095648766 0.07051214 0.0049774777 -0.081173256
-0.033523828 -0.042368628 0.08770981 0.016914295 -0.12805367 -0.01919054 0.06839413 -0.037702013
0.047786303 -0.027208338 -0.053818084 -0.08364848 0.080579035 0.05864676 -0.12343495 -0.027777746
0.08223354 -0.03654882 -0.03622963 0.07588489 -0.10474141 -0.03666114 -0.119131476 -0.06659944
0.009904491 0.01827577 -0.0253772 0.041290853 0.09444619 0.08980967 -0.088103384 -0.020593846
-0.033524893 -0.12563735 0.04334384 0.067002244 -0.059385814 -0.08919095 0.0020561246 0.0129665
0.045598656 -0.052392565 0.069738194 -0.12503643 0.046248194 0.059935853 -0.08756882 -0.061961308
-0.01144799 0.052037895 0.079947226 -0.05092168 0.092660174 -0.15257612 0.014514053 -0.09554762
0.025497226 -0.06847145 -0.067583784 -0.13331136 0.101890326 0.02917922 0.09176089 -0.075103305
-0.097042955 0.033765025 0.07514479 -0.08811431 0.091458045 -0.0105504105 -0.028812151 0.016437342
-0.06273543 0.09461322 -0.070289545 0.03404637 -0.033715274 0.004856121 0.03572977 -0.096648216
-0.05429962 -0.022236057 0.052704904 0.0404818 -0.11853972 -0.01331422 0.010638658 -0.0871861
-0.12873842 -0.009191947 -0.13201834 -0.07228198 0.048257075 -0.074365266 0.04011597 0.08322145
-0.027727755 0.06256272 0.053724155 -0.06437936 -0.002233872 -0.12825075 0.065342076 0.08694873
-0.033098135 0.024933117 0.081484444 0.04868808 0.09620424 0.055798847 -0.051654257 -0.05423341
-0.023686973 -0.046806533 0.009567812 -0.07521799 0.05227458 -0.034720454 0.06029026 -0.0579502
0.087351725 -0.11921262 -0.0858371 0.03726261 -0.007117125 -0.06542473 0.009724521 0.037962187
-0.006795993 -0.07537457 0.011720048 0.016603116 -0.025800044 -0.078339286 -0.05714854 0.07132265
-0.009596435 -0.0066555445 -0.090504654 -0.08182964 -0.0006618063 -0.0069487747 -0.092319176 0.03952259
0.020706637 -0.06254206 -0.1170227 -0.12040302 0.012391563 0.008167345 -0.08411474 -0.04324182
0.042210072 0.06475065 -0.060931884 -0.074551076 0.10477322 -0.0670011 0.02318729 -0.037262283
00000000: 83a0 87bd 1fa5 a1bc 982f 16bd 8faa 00be
00000010: 17d2 46bd 5ca7 003e fb49 913a 7b35 7bbd
00000020: a48c 94bd e66a 64bd cf70 b9bb 764a b03d
00000030: 030b 2cbd 6295 7ebd eb77 8fbc d2a5 313d
00000040: 8cf5 d8ba 266c b83d 1722 573d e97c c93d
00000050: 6383 bfbd f778 ab3c 797e 06bd 26f3 263c
00000060: fcad a83c 3cb8 b03d fae5 7e3b 2295 c93d
00000070: 6201 a2bd 5ee5 e93c 72d8 a2bd d045 d53d
00000080: 32d5 c8bd c72b 66bd b760 433a d886 463d
00000090: 0d38 c53d 3e8e dabd 3b4d b7bd 30ee f6bd
000000a0: 51af d7bd bc2b 02be 0ee7 933d ddbc b7bd
000000b0: 6492 b5bc 55b1 7f3c 403f be3d af5b a9bd
000000c0: 3de4 0c3d 3c8c f0bb 1f12 4dbc b010 f83c
000000d0: 1853 133d 7e4a f3bd 2d46 d53d 9186 ce3b
000000e0: e77c 4fbc 76b8 383d 2dac ba3d d228 8c3d
000000f0: 1e9e fabb 9045 ac3d 009c 893c 823e 853b
00000100: 9182 f0bb 327f 30bd bfc3 d33d dfe5 b8bd
00000110: 11ed 37bd 24bd 44bd faa4 a4bd 7a1d 41bd
00000120: af1b bc3d d422 db3c 91ca 9fbc 9605 503c
00000130: 9de3 04be 97f8 cbbd 7c67 c83d f572 d4bb
00000140: 1027 7a3d fdce fcbd 1185 a2bd 2468 b6bc
00000150: bcea 2dbc 486e abbc 3f2b d13b 6c28 5bbc
00000160: 6960 d9bd 67b7 a73d 4f5b 6dbc 0f91 263d
00000170: 80e3 c3bd ab68 903d 1c1a a33b 2a3e a6bd
00000180: 4850 09bd ba8a 2dbd 33a1 b33d d98f 8a3c
00000190: 8020 03be 7b35 9dbc 3912 8c3d 6d6d 1abd
000001a0: 92bb 433d 05e4 debc 5a70 5cbd e54f abbd
000001b0: 9f06 a53d 9637 703d 77cb fcbd 288e e3bc
000001c0: 0f6a a83d 37b4 15bd 8565 14bd 8a69 9b3d
000001d0: aa82 d6bd fe29 16bd 34fb f3bd 4a65 88bd
000001e0: 7246 223c 11b7 953c d9e3 cfbc 9920 293d
000001f0: 016d c13d 22ee b73d 8c6f b4bd 6db4 a8bc
00000200: 6651 09bd 14a7 00be 4f89 313d 7938 893d
00000210: 8a3e 73bd bfa9 b6bd 0cc0 063b 7171 543c
00000220: a8c5 3a3d 9699 56bd e6d2 8e3d 8d09 00be
00000230: bf6e 3d3d 4c7f 753d 4857 b3bd 24cb 7dbd
00000240: 5a90 3bbc b025 553d 5fbb a33d 4093 50bd
00000250: 9ec4 bd3d ea3c 1cbe 5acc 6d3c 78ae c3bd
00000260: 8fdf d03c c23a 8cbd 5e69 8abd c682 08be
00000270: e0ab d03d 4209 ef3c 22ed bb3d c3cf 99bd
00000280: 75be c6bd 324d 0a3d 83e5 993d 4675 b4bd
00000290: 5b4e bb3d a1db 2cbc 7607 ecbc 9ba7 863c
000002a0: 6f7b 80bd 93c4 c13d f7f3 8fbd 3574 0b3d
000002b0: 0719 0abd 1820 9f3b 6159 123d 80ef c5bd
000002c0: 4769 5ebd 6428 b6bc 19e1 573d 3ed0 253d
000002d0: f4c4 f2bd e323 5abc c44d 2e3c a08e b2bd
000002e0: 01d4 03be d299 16bc d12f 07be 9308 94bd
000002f0: 36a9 453d d14c 98bd a550 243d 0270 aa3d
00000300: 5125 e3bc e220 803d dc0d 5c3d 53d9 83bd
00000310: 2766 12bb 2a54 03be 11d2 853d 2d12 b23d
00000320: e991 07bd 8940 cc3c 51e1 a63d 276d 473d
00000330: bb06 c53d 558d 643d 6a93 53bd da23 5ebd
00000340: 2f0b c2bc 35b8 3fbd 50c2 1c3c e40b 9abd
00000350: df1d 563d 0937 0ebd ebf2 763d 305d 6dbd
00000360: 76e5 b23d bf25 f4bd 5dcb afbd aea0 183d
00000370: c636 e9bb 67fd 85bd 9953 1f3c 3d7e 1b3d
00000380: ecb0 debb fc5d 9abd 7205 403c 4203 883c
00000390: 9d5a d3bc 5970 a0bd 9614 6abd 9c11 923d
000003a0: 5e3a 1dbc c116 dabb 815a b9bd 4c96 a7bd
000003b0: 127d 2dba 8cb2 e3bb d611 bdbd 70e2 213d
000003c0: f7a0 a93c 0d16 80bd 99a9 efbd dc95 f6bd
000003d0: fb05 4b3c 54d0 053c 5944 acbd 561e 31bd
000003e0: 78e4 2c3d fd9b 843d b693 79bd 3cae 98bd
000003f0: 5893 d63d df37 89bd 46f3 bd3c 56a0 18bd

network.3.weight f4 [256, 512]
0.009530839 -0.022501457 0.045423422 -0.027576052 -0.017386613 -0.007843017 -0.032351978 -0.030677516
-0.019474514 -0.059109785 0.025221279 -0.02033555 0.045300715 0.046342343 0.0052150143 -0.014257891
-0.0034019167 -0.0050356523 0.014673365 0.029252592 0.05260187 -0.032357935 -0.0075164125 -0.028310245
-0.036414277 0.05079666 0.034319486 -0.0015905969 -0.016847054 -0.026056593 -0.049506217 0.010137463
0.030482464 -0.003598906 0.027869713 -0.036346335 0.0050472226 -0.030829309 0.034532346 -0.01782397
0.004836267 -0.03968141 0.012062428 0.0024966826 -0.04831296 -0.021995097 0.010884653 0.0025240683
0.039349694 0.049907506 -0.019965963 -0.012567174 -0.02741545 -0.053668443 0.01561555 0.031469755
-0.06062592 0.046572268 -0.023783842 0.032036997 0.01429425 9.4359246e-05 0.05377955 0.043328363
-0.01569242 0.028783688 0.04456807 -0.055164654 0.042420723 0.011390602 0.0055839387 0.021631123
0.018635606 -0.030671563 -0.045689516 0.009588872 -0.051233497 0.071837425 -0.045461208 0.0022680159
-0.03354973 -0.0107221855 0.01532992 0.0503271 0.02259901 0.045063198 0.014327529 -0.043757666
-0.00965075 0.019807002 0.04200397 -0.012053686 -0.013903657 -0.0056694434 -0.005962329 -0.0026178213
0.009344906 -0.030852439 0.046987902 -0.011266636 0.028207077 0.020742552 -0.005154494 -0.039097488
0.024394548 0.02456042 0.011090253 -0.039523695 -0.018168904 -0.005134377 0.0017212603 0.009547161
0.0061011654 0.049676478 -0.017022766 0.054137256 -0.040464446 -0.008017797 -0.009869507 0.05134927
-0.0019209499 0.035554938 -0.016781215 -0.037873603 -0.07742953 -0.04758477 -0.031159252 -0.014791112
-0.049399253 0.023955787 -0.02704821 -0.033210218 -0.03903552 -0.0033823329 -0.029643282 -0.009166213
-0.01669592 -0.04048255 -0.028896153 0.03331687 -0.051917028 0.008702301 -0.028145505 0.011708064
-0.036831193 -0.006291387 -0.019734 -0.011241283 0.007807996 0.0033702063 -0.027391626 0.0673718
0.006479022 0.04351592 0.019770453 0.04978212 0.055388935 0.0019356868 0.0065459576 0.0617067
0.014381202 0.00094780006 -0.004822025 0.026489398 -0.016708944 0.008972165 0.029795948 0.061905023
0.051600248 0.027939174 0.0067867665 -0.02108671 0.0020578885 0.008010797 -0.037371337 0.026756078
0.01435336 -0.013634019 -0.00033075045 -0.022309845 0.029928103 0.026010513 0.027633023 0.005679732
-0.03203458 -0.0012353512 0.050599873 0.055227492 -0.0022395346 0.001922026 -0.014725101 0.017351594
-0.012225964 0.0363333 -0.019809654 0.050865065 0.013835172 -0.060820058 -0.029562239 0.01590536
0.045445524 0.038004577 0.0032442624 -0.008579382 -0.00703793 -0.011560648 0.015480487 0.041145544
0.013960287 0.003393497 -0.006209075 -0.052900985 0.005018346 0.011674692 0.02763955 0.026929023
0.06298952 0.032128345 -0.005949969 0.013363831 0.016293662 0.043513853 0.0239507 0.023990616
0.065036364 0.035075776 -2.0290143e-05 -0.025950909 -0.033927 -0.0165344 -0.018518558 0.009612231
0.057404246 0.033583425 -0.03177944 0.083091535 -0.018494306 0.002771976 0.012514737 0.035565827
-0.017139439 -0.0015275779 0.035817083 -0.054842938 -0.023633795 -0.012834456 0.034330804 -0.011652459
-0.04905544 0.0053283796 0.00679618 0.02789957 -0.05754021 -0.042104866 -0.0029492904 0.033173468
00000000: 3c27 1c3c fa54 b8bc e90d 3a3d 2ce7 e1bc
00000010: 5f6e 8ebc ff7f 00bc 8283 04bd 6a4f fbbc
00000020: 0489 9fbc 1a1d 72bd db9c ce3c bd96 a6bc
00000030: 3e8d 393d 78d1 3d3d b6e2 aa3b ee99 69bc
00000040: b1f2 5ebb 1d02 a5bb 8e68 703c 22a3 ef3c
00000050: 0f75 573d c189 04bd 3d4c f6bb e3ea e7bc
00000060: 2327 15bd 2910 503d 9792 0c3d 937b d0ba
00000070: d502 8abc a374 d5bc 08c7 4abd 9a17 263c
00000080: 5cb6 f93c a0db 6bbb 064f e43c e5df 14bd
00000090: 2c63 a53b bf8d fcbc ca71 0d3d 9303 92bc
000000a0: 8c79 9e3b f988 22bd 7da1 453c 629f 233b
000000b0: cfe3 45bd 102f b4bc 8b55 323c d76a 253b
000000c0: 252d 213d d06b 4c3d a98f a3bc 8ce6 4dbc
000000d0: 5e96 e0bc 71d3 5bbd 5dd8 7f3c 6ee6 003d
000000e0: e252 78bd 90c2 3e3d 55d6 c2bc 3a39 033d
000000f0: 6e32 6a3c bce2 c538 f247 5c3d 1579 313d
00000100: 648d 80bc c5cb eb3c 028d 363d 55f4 61bd
00000110: 5ac1 2d3d a69f 3a3c 79f9 b63b c133 b13c
00000120: b3a9 983c ee42 fbbc ee24 3bbd a51a 1d3c
00000130: 37da 51bd 801f 933d 8835 3abd fea2 143b
00000140: 716b 09bd 1bac 2fbc 582a 7b3c ca23 4e3d
00000150: 8f21 b93c 3094 383d 03be 6a3c 3d3b 33bd
00000160: 2e1e 1ebc 4b42 a23c 5b0c 2c3d d37c 45bc
00000170: 2acc 63bc bdc6 b9bb a45f c3bb c18f 2bbb
00000180: 601b 193c 41be fcbc 6376 403d b297 38bc
00000190: 8712 e73c 49ec a93c 08e7 a8bb b024 20bd
000001a0: 13d7 c73c ef32 c93c e4b3 353c 99e3 21bd
000001b0: f4d6 94bc 473e a8bb e99b e13a b26b 1c3c
000001c0: 49ec c73b 9079 4b3d 5473 8bbc 07bf 5d3d
000001d0: 0cbe 25bd 145d 03bc b6b3 21bc 9d53 523d
000001e0: 62c8 fbba 0ea2 113d c278 89bc 5a21 1bbd
000001f0: 6093 9ebd 3fe8 42bd b041 ffbc 6c56 72bc
00000200: df56 4abd ed3e c43c 3594 ddbc 7007 08bd
00000210: b6e3 1fbd 21aa 5dbb 78d6 f2bc e22d 16bc
00000220: e2c5 88bc 08d1 25bd a0b7 ecbc 4577 083d
00000230: f3a6 54bd 1994 0e3c 6791 e6bc 2ed3 3f3c
00000240: 4edc 16bd fb27 cebb 33a9 a1bc 5c2d 38bc
00000250: 38da ff3b aede 5c3b 6764 e0bc 3afa 893d
00000260: fa4d d43b c03d 323d a5f5 a13c 56e8 4b3d
00000270: 82df 623d dfb6 fd3a 797f d63b 2ac0 7c3d
00000280: 229f 6b3c c975 783a 1402 9ebb 4b00 d93c
00000290: 32e1 88bc fdff 123c a216 f43c 1f90 7d3d
000002a0: c85a 533d b2e0 e43c 8663 de3b 09be acbc
000002b0: a4dd 063b b83f 033c b012 19bd 902f db3c
000002c0: 5b2a 6b3c 3861 5fbc 9368 adb9 23c3 b6bc
000002d0: c82b f53c 0014 d53c a65e e23c 0c1d ba3b
000002e0: b136 03bd 82eb a1ba d041 4f3d 3936 623d
000002f0: 28c5 12bb 7eec fb3a 8d41 71bc ee24 8e3c
00000300: 694f 48bc 3ad2 143d db47 a2bc e357 503d
00000310: ebac 623c 741e 79bd 822c f2bc f54b 823c
00000320: 1625 3a3d b0aa 1b3d b19d 543b 8990 0cbc
00000330: 709e e6bb df68 3dbc dea1 7d3c 3b88 283d
00000340: b0b9 643c 6f65 5e3b 7f75 cbbb b4ae 58bd
00000350: f070 a43b 3547 3f3c 566c e23c 419a dc3c
00000360: a600 813d 0399 033d f5f7 c2bb f8f3 5a3c
00000370: 497a 853c 953b 323d 4234 c43c f887 c43c
00000380: c931 853d 9eab 0f3d c034 aab7 0097 d4bc
00000390: 0af7 0abd 2673 87bc 3bb4 97bc 9e7c 1d3c
000003a0: b720 6b3d c68e 093d 282b 02bd e52b aa3d
000003b0: 5f81 97bc 0aaa 353b 9d0a 4d3c 79ad 113d
000003c0: 0268 8cbc 0239 c8ba efb4 123d fda2 60bd
000003d0: a99b c1bc 9c47 52bc 759e 0c3d f5e9 3ebc
000003e0: 5bee 48bd b099 ae3b 7db2 de3b a48d e43c
000003f0: 49af 6bbd 2776 2cbd e248 41bb e7e0 073d

network.3.bias f4 [256]
0.041938152 0.016767122 0.0050254357 -0.03379212 -0.03133754 -0.050012127 0.026153287 0.008622659
0.023017175 0.0058164443 -0.026703985 -0.013225289 -0.014126267 0.041672844 -0.04111235 0.022484686
0.036188908 0.006945197 -0.0446507 -0.04230518 0.03274691 0.036791332 0.004661707 0.012112509
-0.016127344 -0.0291755 -0.0055018235 0.0155952135 0.020259498 -0.026117422 8.1638515e-05 0.03235952
-0.02730815 -0.022524733 -0.0044207643 0.029939475 -0.026590832 -0.033563692 0.0040122475 0.0027401012
-0.037999667 0.038707424 0.033405315 -0.02215268 0.052294664 0.027894083 -0.028242879 -0.041085426
0.00093507825 0.03548548 0.016743869 0.032503285 -0.04080971 0.046344753 -0.029461605 -0.04019748
0.014845351 -0.05009004 -0.02680274 -0.006572653 -0.061311662 -0.053559657 -0.0033601597 -0.016379086
-0.025058 -0.037132345 -0.0004970862 0.035014078 0.03870488 0.021100482 -0.0041377004 0.0077101085
-0.048233002 0.04268445 -0.02857822 0.008661856 -0.03592095 0.0069590253 -0.05725654 0.0042279446
0.0030467699 -0.0005446745 -0.023992224 -0.016673628 -0.040894315 -0.030621799 -0.011736994 -0.015914867
-0.028309312 0.0060481275 0.0084382845 0.026964236 0.05206794 0.026797665 0.04653934 -0.04277341
-0.009454605 -0.03645403 -0.025163827 0.017013637 0.032772217 0.02819708 -0.0064434474 0.0069685266
0.0014914622 0.016447376 -0.021178914 -0.004579584 0.0043430286 -0.009356169 0.029802013 -0.020916566
-0.06608087 0.020730684 -0.03981852 -0.04758398 0.013736279 -0.0084615685 -0.02803932 -0.030805986
-0.017697986 0.039821453 -0.04711635 0.037563495 0.029412778 0.011947567 0.00720535 -0.026181651
-0.0012017334 0.024851967 -0.030704884 -0.044353142 0.029545737 -0.017476302 0.017210446 -0.045389768
-0.037541825 0.033007167 0.010351301 -0.047120906 -0.00081689697 -0.021637939 0.038765464 0.028830517
-0.0377002 0.017368264 -0.008082553 0.052868273 -0.03784965 -0.05251424 0.037103534 0.020121228
0.01929928 0.027679734 0.03344138 -0.005204021 -0.02187724 0.007418388 -0.035738006 0.01579492
0.029318383 -0.019507091 -0.01448329 -0.039899882 -0.041665513 0.046031456 -0.008886033 0.005624547
0.004594653 0.026649378 0.028246094 -0.034593288 0.01870261 0.022884434 -0.0384611 0.023578372
0.032053307 -0.017306196 -0.032836616 0.020635 0.018677533 0.015189788 -0.018804954 -0.0353322
-0.027657514 0.03642196 -0.033868 -0.011236207 0.003447839 0.03365299 0.0045661284 -0.019596256
0.0014411145 0.005151239 0.018147666 -0.028630393 0.0055828476 0.02265169 0.009683865 -0.037117597
-0.025244728 0.00970429 0.0009492769 0.035685163 -0.008891621 -0.03712481 -0.042912956 -0.004304207
0.004373844 -0.035257526 -0.0013518406 0.0063870205 0.014794771 0.028729977 0.02886292 0.027251313
0.0060866564 -0.03872441 0.012242336 0.011500391 -0.035828933 -0.0012226291 -0.0437767 0.038277768
-0.005935632 0.0002224993 0.014138208 -0.040784016 0.005535487 -0.028669974 0.030885788 0.0010005338
-0.022254497 0.00017267512 0.017214721 -0.052297514 0.02208292 -0.043809332 -0.06066864 0.034959964
-0.00044090417 0.0065362137 -0.027774666 -0.028456097 0.010562586 0.024501689 -0.043946274 -0.031246783
-0.00794498 0.012279442 0.048293546 -0.024561532 -0.032986607 -0.03491312 0.020205181 0.038212802
00000000: 57c7 2b3d 345b 893c 69ac a43b 9b69 0abd
00000010: cb5b 00bd 84d9 4cbd 6b3f d63c 0e46 0d3c
00000020: 848e bc3c df97 be3b 51c2 dabc e2ae 58bc
00000030: dc71 67bc 25b1 2a3d 6c65 28bd ce31 b83c
00000040: d23a 143d 8994 e33b a7e3 36bd 3248 2dbd
00000050: a021 063d 82b2 163d 3cc1 983b 8c73 463c
00000060: 7e1d 84bc 7501 efbc a448 b4bb 1183 7f3c
00000070: 3ff7 a53c 34f4 d5bc 5835 ab38 6b8b 043d
00000080: 57b5 dfbc ca85 b8bc 0fdc 90bb a143 f53c
00000090: 04d5 d9bc 157a 09bd 2c79 833b 4593 333b
000000a0: 8aa5 1bbd ad8b 1e3d 03d4 083d 8a79 b5bc
000000b0: ee32 563d 2282 e43c 9c5d e7bc 3149 28bd
000000c0: 0a20 753a 3959 113d 702a 893c 2a22 053d
000000d0: 1528 27bd ffd3 3d3d 7759 f1bc 1da6 24bd
000000e0: ea39 733c 372b 4dbd 6b91 dbbc 695f d7bb
000000f0: f021 7bbd 5f61 5bbd 2036 5cbb 6f2d 86bc
00000100: 6f46 cdbc 1618 18bd e44e 02ba ec6a 0f3d
00000110: 0289 1e3d ebda ac3c 8c95 87bb 14a5 fc3b
00000120: f88f 45bd e4d5 2e3d df1c eabc 75ea 0d3c
00000130: d921 13bd 8908 e43b d585 6abd 928a 8a3b
00000140: 51ac 473b 7dc8 0eba 578b c4bc 2297 88bc
00000150: cc80 27bd 91da fabc 854c 40bc e55f 82bc
00000160: eee8 e7bc 5f2f c63b bb40 0a3c 1ae4 dc3c
00000170: 3145 553d c786 db3c 09a0 3e3d 2c33 2fbd
00000180: 7de7 1abc d250 15bd 5f24 cebc 2f60 8b3c
00000190: 293c 063d 90fd e63c 8e23 d3bb 3d58 e43b
000001a0: 2b7d c33a a6bc 863c 677f adbc 5610 96bb
000001b0: f74f 8e3b 9e4a 19bc 5a23 f43c 3859 abbc
000001c0: 6855 87bd 65d3 a93c bf18 23bd 6be7 42bd
000001d0: 210e 613c 64a2 0abc b7b2 e5bc d65c fcbc
000001e0: 5efb 90bc d21b 233d 13fd 40bd 2edc 193d
000001f0: 11f3 f03c babf 433c db1a ec3b e77a d6bc
00000200: 7b83 9dba 5a96 cb3c cf88 fbbc a4ab 35bd
00000210: e709 f23c 762a 8fbc ecfc 8c3c 9fea 39bd
00000220: 75c5 19bd 8632 073d 8198 293c da01 41bd
00000230: 0725 56ba 0c42 b1bc 89c8 1e3d fa2d ec3c
00000240: 866b 1abd e447 8e3c af6c 04bc 678c 583d
00000250: 3c08 1bbd 2c19 57bd e0f9 173d 46d5 a43c
00000260: 8619 9e3c 9cc0 e23c d4f9 083d 7e86 aabb
00000270: e637 b3bc f315 f33b 0462 12bd 5964 813c
00000280: 1b2d f03c 56cd 9fbc 524b 6dbc 0f6e 23bd
00000290: 75a9 2abd 7b8b 3c3d b996 11bc 1f4e b83b
000002a0: be8e 963b cc4f da3c 5a64 e73c b1b1 0dbd
000002b0: 3736 993c 2378 bb3c 6389 1dbd 6e27 c13c
000002c0: 544a 033d b9c5 8dbc b07f 06bd bb0a a93c
000002d0: a001 993c 97de 783c d90c 9abc 7fb8 10bd
000002e0: 0392 e2bc 312f 153d 2cb9 0abd 1118 38bc
000002f0: 24f5 613b b8d7 093d 769f 953b 5488 a0bc
00000300: c7e3 bc3a bacb a83b 6aaa 943c 498a eabc
00000310: 52f0 b63b 0990 b93c 13a9 1e3c 9f08 18bd
00000320: 08ce cebc befe 1e3c e5d8 783a 9b2a 123d
00000330: 29ae 11bc 2f10 18bd 7fc5 2fbd 4e0a 8dbb
00000340: 7652 8f3b 326a 10bd 3e30 b1ba 364a d13b
00000350: c465 723c 215b eb3c ee71 ec3c 253e df3c
00000360: 9372 c73b 7d9d 1ebd 1494 483c 236c 3c3c
00000370: 5cc1 12bd a040 a0ba 324f 33bd 26c9 1c3d
00000380: b17f c2bb b34e 6939 f1a3 673c 240d 27bd
00000390: 0863 b53b 4bdd eabc 3104 fd3c 5824 833a
000003a0: 104f b6bc 2010 3539 e305 8d3c eb35 56bd
000003b0: 3de7 b43c 6a71 33bd ae7f 78bd 2e32 0f3d
000003c0: 2829 e7b9 bc2d d63b b287 e3bc c31c e9bc
000003d0: b20e 2d3c c4b7 c83c 0201 34bd 41f9 ffbc
000003e0: a92b 02bc b62f 493c 74cf 453d 4435 c9bc
000003f0: f71c 07bd 0f01 0fbd 5685 a53c 0785 1c3d

network.6.weight f4 [128, 256]
0.032903533 -0.003413423 0.037119474 0.0014814464 0.03618882 -0.021594001 0.010225045 0.06957756
0.0133513585 0.016153004 0.047598403 -0.05376261 0.032438245 -0.018498942 -0.010552484 -0.06554101
0.11812124 0.049055766 -0.020062467 0.013109873 -0.010665272 -0.053408522 -0.02030299 0.018784728
-0.016936641 -0.06138299 0.0473498 0.048589893 -0.013283154 0.06373179 0.05274095 -0.027369801
0.058042157 0.07315294 -0.06295721 0.035385318 -0.0054636467 0.048451565 0.053454243 -0.026076997
0.019305183 0.007441642 0.0034291414 -0.008502408 -0.02248066 -0.06381018 -0.047294993 0.009303581
-0.040104512 -0.0051386175 0.009129955 -0.006166921 0.03747461 0.05215546 0.05103996 -0.011469219
0.016156472 -0.0012125939 -0.03229896 -0.048946436 0.039816156 -0.030897893 0.0043252707 0.05288045
0.06219325 -0.017932419 -0.055243097 -0.009073585 0.026893077 0.013040497 0.03520363 0.059510868
0.023979124 -0.051919963 -0.0021695541 -0.0131250555 0.040390883 0.026326165 -0.063885555 -0.018207736
0.010632289 0.011441177 0.043442667 0.013954612 0.05592046 -0.064538755 0.018229892 0.050379336
0.0016210207 -0.01160466 0.03309833 0.049570147 -0.0041301483 -0.050438385 -0.05123192 0.041416734
-0.02966545 0.036647517 -0.013219474 0.032765146 -0.0051781475 -0.0012245319 -0.042278245 0.03113471
0.057276357 -0.051591277 -0.0016980153 -0.045001905 -0.008326011 -0.0077222665 0.044321172 0.024452755
0.00338349 -0.02736223 0.024916554 0.08148899 -0.03598946 0.028016506 -0.030191673 -0.028744766
0.017196521 0.0066649183 0.03433077 0.0047388705 0.025666468 -0.02434991 -0.026265197 -0.035613827
-0.03901524 -0.033687674 0.07475675 -0.07018451 -0.045480255 0.055263393 -0.034294035 0.021470895
0.05825643 -0.0026056147 -0.013616585 0.055241447 0.024710117 -0.0057698246 0.02790288 0.026658941
0.027779302 0.0351792 0.031108696 0.040050425 0.019866364 0.011326715 -0.03084999 -0.028959252
0.037022706 0.029765377 0.027569074 -0.021359311 0.03414617 -0.02343674 0.065016486 -0.012603679
0.06165229 -0.032764323 0.05039687 -0.037022576 -0.028774707 -0.06949053 0.038508736 0.022996679
-0.07022086 0.061648052 -0.03225431 0.04248129 0.040456414 0.014888816 0.029676324 0.053839386
0.05368066 -0.021454928 -0.004929444 -0.053456523 -0.047436196 -0.015652332 -0.013745915 -0.02717147
0.053053215 0.039146487 0.029240062 -0.048233826 0.03612164 0.07218443 -0.052711375 0.027910938
-0.030052777 0.042024057 -0.040999282 0.0007388253 0.028260337 0.021014158 0.017727323 -0.005846277
0.062195558 -0.04251479 0.017176786 0.04894862 0.06109225 0.070115425 0.0407482 -0.0033380191
-0.0016345722 -0.028506316 -0.020700539 0.005888072 0.015081876 0.03800487 0.07011353 0.031037735
-0.05071639 -0.0012501489 0.09232336 -7.178585e-05 -0.05099242 0.00074407086 0.03252901 -0.053079
-0.00027269477 0.023076609 -0.022128902 0.061881073 0.03427525 0.035564866 0.034052867 0.030505085
0.03837022 0.014394426 0.02192603 0.053313114 0.03566869 -0.0012486583 -0.045590315 0.00025682652
-0.038027138 0.07162644 -0.071226135 0.05725298 0.017537747 -0.040399216 -0.04468044 0.0056408206
-0.003438837 -0.04305962 -0.023799637 -0.038205396 -0.014538116 0.04713208 0.041184824 -0.04721842
00000000: dbc5 063d bcb3 5fbb 970a 183d 182d c23a
00000010: ba3a 143d e7e5 b0bc f286 273c ae7e 8e3d
00000020: a8bf 5a3c 4e53 843c 8bf6 423d 2f36 5cbd
00000030: f7dd 043d 188b 97bc 53e4 2cbc 5d3a 86bd
00000040: 8ce9 f13d b3ee 483d 0b5a a4bc cbca 563c
00000050: 65bd 2ebc e5c2 5abd 7552 a6bc 6ee2 993c
00000060: b6be 8abc bb6c 7bbd ddf1 413d 3206 473d
00000070: 96a1 59bc d085 823d e506 583d a236 e0bc
00000080: 9dbd 6d3d 35d1 953d b6ef 80bd 32f0 103d
00000090: 6408 b3bb 2675 463d d6f2 5a3d 6d9f d5bc
000000a0: e725 9e3c 05d9 f33b 72bb 603b af4d 0bbc
000000b0: 5c29 b8bc e9ae 82bd 65b8 41bd 0c6e 183c
000000c0: a144 24bd d961 a8bb cf95 153c e213 cabb
000000d0: fa7e 193d f7a0 553d 470f 513d 64e9 3bbc
000000e0: 945a 843c e6ef 9eba ea4b 04bd 0f7c 48bd
000000f0: 4416 233d 941d fdbc 00bb 8d3b 2c99 583d
00000100: 59be 7e3d 02e7 92bc 9646 62bd 60a9 14bc
00000110: df4e dc3c cfa7 553c ae31 103d abc1 733d
00000120: de6f c43c 07aa 54bd 142f 0ebb 790a 57bc
00000130: e970 253d f8a9 d73c 6ed6 82bd 6428 95bc
00000140: 0d33 2e3c c673 3b3c f0f0 313d e3a1 643c
00000150: da0c 653d e52c 84bd db56 953c 905a 4e3d
00000160: 6e78 d43a 7921 3ebc 1d92 073d 110a 4b3d
00000170: 3256 87bb 7b98 4ebd 90d8 51bd 98a4 293d
00000180: f504 f3bc b51b 163d 7e96 58bc bf34 063d
00000190: 73ad a9bb 7980 a0ba f42b 2dbd 380e ff3c
000001a0: 9d9a 6a3d 6051 53bd f08f deba eb53 38bd
000001b0: d269 08bc 110b fdbb 1e8a 353d 2551 c83c
000001c0: 8bbd 5d3b c126 e0bc cd1d cc3c b3e3 a63d
000001d0: af69 13bd df82 e53c 8754 f7bc 257a ebbc
000001e0: b8df 8c3c 6365 da3b 6c9e 0c3d 8748 9b3b
000001f0: 7c42 d23c 7679 c7bc 1c2a d7bc cedf 11bd
00000200: 72ce 1fbd 16fc 09bd 111a 993d e5bc 8fbd
00000210: 8149 3abd de5b 623d e777 0cbd bbe3 af3c
00000220: 4b9e 6e3d f6c2 2abb 1918 5fbc db44 623d
00000230: df6c ca3c cc10 bdbb 9594 e43c da63 da3c
00000240: 6b91 e33c 1118 103d aad7 fe3c ea0b 243d
00000250: c9be a23c b093 393c 1eb9 fcbc f43b edbc
00000260: 1fa5 173d 85d6 f33c 8ad8 e13c b9f9 aebc
00000270: dbdc 0b3d 68fe bfbc 5d27 853d a97f 4ebc
00000280: 1d87 7c3d e233 06bd f36c 4e3d fca4 17bd
00000290: efb8 ebbc 0d51 8ebd 56bb 1d3d 8863 bc3c
000002a0: f4cf 8fbd ab82 7c3d 181d 04bd dc00 2e3d
000002b0: a0b5 253d 38f0 733c c31b f33c b086 5c3d
000002c0: 40e0 5b3d 3fc2 afbc 2c87 a1bb 3af5 5abd
000002d0: 754c 42bd 5239 80bc 8c36 61bc b496 debc
000002e0: 544e 593d 1158 203d db88 ef3c d590 45bd
000002f0: 49f4 133d 6ed5 933d e2e7 57bd 7ba5 e43c
00000300: 3e31 f6bc 6b21 2c3d ddee 27bd baad 413a
00000310: 3982 e73c e225 ac3c e438 913c 2092 bfbb
00000320: c5c0 7e3d fd23 2ebd 55b6 8c3c 597e 483d
00000330: de3b 7a3d ad98 8f3d 96e7 263d abc2 5abb
00000340: 243f d6ba 1486 e9bc 2d94 a9bc baf0 c03b
00000350: f919 773c ffaa 1b3d af97 8f3d d942 fe3c
00000360: fdbb 4fbd 09dc a3ba 0814 bd3d bc8b 96b8
00000370: 6edd 50bd c00d 433a 243d 053d 5e69 59bd
00000380: 79f8 8eb9 280b bd3c ac47 b5bc 0277 7d3d
00000390: 3464 0c3d 77ac 113d 057b 0b3d cde5 f93c
000003a0: 182a 1d3d 99d6 6b3c 389e b33c da5e 5a3d
000003b0: 5519 123d 05aa a3ba e9bc 3abd aca6 8639
000003c0: 58c2 1bbd e2b0 923d 02df 91bd 1a82 6a3d
000003d0: 52ab 8f3c a679 25bd d602 37bd a2d6 b83b
000003e0: 1c5e 61bb 495f 30bd 75f7 c2bc 437d 1cbd
000003f0: 4731 6ebc 910d 413d 6bb1 283d 1a68 41bd

network.6.bias f4 [128]
-0.055037253 -0.020811643 -0.03381501 0.011252745 -0.06322145 -0.047877382 0.036781866 -0.0247164
-0.01059726 -0.012479902 -0.07083159 0.02234348 -0.048131887 0.053389866 0.05050786 0.02771514
0.011999345 -0.0045459047 0.0065773674 0.009705086 0.012095003 0.015809732 -0.024011355 0.02541256
-0.062666565 -0.030253982 0.023002533 -0.05013336 -0.022914026 -0.01272644 -0.0067133945 0.0148320515
-0.030305225 -0.06238421 0.03062882 -0.00028474286 -0.036652926 0.013373479 0.05305378 0.06695688
-0.038705118 -0.047349405 -0.029229295 0.09758972 -0.027718984 -0.047023132 -0.058026165 -0.0517411
-0.06136808 0.028118312 -0.01593426 -0.034329433 -0.028184256 -0.024756547 0.033820823 -0.06528274
-0.07093444 -0.054552753 -0.025494933 -0.0016802864 -0.022812527 -0.020704111 0.028491564 0.024947803
-0.035602868 -0.004263987 -0.058779772 -0.07555402 0.035027992 -0.0017018269 0.04089004 -0.04329775
-0.05707552 -0.06182953 0.04367268 0.043270927 -0.04913162 -0.014618244 -0.024283472 0.028061615
-0.07728337 -0.048487324 -0.022565894 0.048235573 0.11913359 -0.014860667 -0.0063054888 0.0785879
0.0060959854 -0.028190717 0.092828065 -0.041913826 -0.030099338 0.019672975 -0.058891613 -0.00816404
-0.046908922 -0.03546515 0.038225632 -0.03299338 0.006527774 -0.022929307 -0.0091996 -0.018182337
0.015922565 0.0024834303 -0.061971795 -0.028796013 0.026501812 -0.0028155632 0.01167584 0.0034468912
0.0022276524 0.03205776 -0.043695435 -0.0020176396 0.012850745 0.0347474 0.0066278046 -0.008660341
0.036471803 0.010700363 -0.007409515 0.030819453 -0.010181606 0.031275287 0.039054483 0.029430361
00000000: be6e 61bd 2e7d aabc 9c81 0abd 6f5d 383c
00000010: 3f7a 81bd 131b 44bd 95a8 163d 0c7a cabc
00000020: 21a0 2dbc 8178 4cbc 2710 91bd ac09 b73c
00000030: f125 45bd 55af 5a3d 54e1 4e3d dc0a e33c
00000040: e798 443c d0f5 94bb f586 d73b 1502 1f3c
00000050: 1f2a 463c 6983 813c 76b3 c4bc 002e d03c
00000060: 5457 80bd 33d7 f7bc cf6f bc3c a358 4dbd
00000070: 32b6 bbbc 8f82 50bc 09fc dbbb 2202 733c
00000080: aa42 f8bc 9686 7fbd 4be9 fa3c 8a49 95b9
00000090: 6121 16bd 701c 5b3c ec4e 593d b020 893d
000000a0: 4289 1ebd 73f1 41bd 4672 efbc 1edd c73d
000000b0: ec12 e3bc 549b 40bd d8ac 6dbd 7aee 53bd
000000c0: 195d 7bbd 6058 e63c 9188 82bc 059d 0cbd
000000d0: abe2 e6bc 3ece cabc b487 0a3d f5b2 85bd
000000e0: 1346 91bd b572 5fbd c0da d0bc 0e3d dcba
000000f0: 56e1 babc ab9b a9bc 2467 e93c 565f cc3c
00000100: 50d4 11bd eab8 8bbb 0fc3 70bd 11bc 9abd
00000110: 8379 0f3d d60f dfba 517c 273d fb58 31bd
00000120: 05c8 69bd f640 7dbd 20e2 323d db3c 313d
00000130: 3d3e 49bd 5c81 6fbc 22ee c6bc 79e1 e53c
00000140: be46 9ebd a59a 46bd 1cdc b8bc aa92 453d
00000150: 50fc f33d 287a 73bc 469e cebb b1f2 a03d
00000160: d5c0 c73b 38f0 e6bc a41c be3d d5ad 2bbd
00000170: e392 f6bc 3829 a13c 5538 71bd 77c2 05bc
00000180: 9223 40bd e843 11bd 7b92 1c3d 1124 07bd
00000190: f0e6 d53b 3ed6 bbbc ebb9 16bc 20f3 94bc
000001a0: 0a70 823c 0cc1 223b 23d6 7dbd 9ee5 ebbc
000001b0: 541a d93c 5085 38bb 064c 3f3c 3de5 613b
000001c0: cefd 113b ff4e 033d fcf9 32bd 603a 04bb
000001d0: ee8b 523c 4a53 0e3d 0e2e d93b 1ae4 0dbc
000001e0: 7563 153d 9350 2f3c 84cb f2bb 1479 fc3c
000001f0: c0d0 26bc 841a 003d 98f7 1f3d f117 f13c

network.9.weight f4 [64, 128]
0.03604396 -0.09119322 -0.011431641 0.05188285 0.045070335 -0.075377144 0.15248927 -0.057018403
-0.058789242 -0.013309323 -0.035687663 0.040582616 -0.068442434 -0.037727427 0.052470207 -0.016888006
0.018061347 -0.052491274 0.06253206 -0.0018007603 -0.021743806 -0.045505486 -0.060947854 -0.048009917
0.07502196 0.04414394 -0.087577835 0.0032020817 0.035461668 0.07277363 0.011107221 -0.065508
-0.03205025 -0.0675065 0.0076561626 0.07928126 -0.0835964 0.044450495 0.058733772 -0.0020280336
-0.038381975 0.0059668277 -0.03227297 0.13559856 -0.008810556 -0.050150637 0.0421672 -0.05354682
-0.0047231745 0.06464644 0.0018271039 -0.06497469 0.07059667 0.009899111 0.12372009 0.09345817
0.07386954 -0.04736965 -0.017296731 -0.035433244 -0.08082075 -0.039321512 -0.06758738 -0.077015534
-0.049168795 -0.0029948014 -0.0014814484 0.029723402 -0.0019400306 0.007718029 0.029541027 -0.048471436
0.02805495 0.0067509394 -0.06882251 -0.087466784 0.036189727 -0.05449309 0.0036995097 -0.025750527
0.0031571598 -0.061830405 0.003727367 0.004648902 0.06172667 0.015098971 0.036537316 0.07716114
-0.033575095 0.10249608 0.12214778 0.030220734 0.0052306037 -0.024688719 -0.020437993 0.027290227
-0.065537676 -0.09741898 0.024169808 -0.08945912 0.059351806 -0.04470059 -0.049780354 0.0068325675
0.053869717 -0.086001374 0.051624622 0.040698715 -0.06399932 -0.06317374 0.0506511 0.028654255
-0.07343043 0.024560466 0.006973739 -0.09229295 0.025966503 -0.058807828 -0.041769043 0.015957205
0.035776664 -0.08924557 -0.09894063 -0.022054357 -0.0015889733 -0.048504062 -0.06078932 -0.01358302
-0.0014478314 0.026831573 0.042971235 0.042257838 5.0546107e-05 0.024730118 0.11165374 -0.025339043
-0.02934289 -0.020328615 0.046136945 0.03380927 0.029189799 -0.058942515 -0.013115202 0.048344724
-0.026173797 0.054484293 -0.0066455156 -0.04286148 0.01855018 0.00229938 0.044862237 0.053926546
-0.04529498 -0.03975864 -0.08499695 0.04990165 -0.026214318 0.07059309 -0.07571574 -0.08714186
-0.06362471 0.043542944 -0.036411636 -0.08824201 -0.0409018 -0.016279392 -0.033772193 -0.010816735
0.0068158307 -0.045566846 -0.001214369 0.0061252746 0.037477177 -0.017736983 0.01857147 -0.04499094
-0.051045418 0.025444347 0.060311776 -0.034252796 0.03893181 -0.020969763 0.032172307 -0.036770333
0.0072767315 -0.020189209 0.01814904 -0.08151198 -0.01107415 0.06446003 0.05517661 -0.076265454
0.04282466 -0.101735614 -0.07889335 0.035869595 -0.07869627 -0.061189823 -0.0010572664 -0.0010230616
0.0524247 0.005435178 -0.09237886 0.05435948 0.033710025 0.046205692 0.0068261595 0.033575684
0.073671706 -0.096514404 -0.037030753 0.043860268 0.16259909 -0.060869895 0.0023277325 0.15148771
-0.08497196 0.06658246 0.12175112 0.062279377 -0.10246921 -0.09056549 -0.05890757 -0.009221385
0.02214072 -0.09972817 0.02991106 -0.1042724 0.07973048 -0.09025188 -0.046136647 -0.036909983
-0.037389718 0.027582604 0.013281965 0.00090462307 0.031915624 -0.006986379 0.013606201 0.037996735
-0.042122707 0.05611529 -0.008933623 -0.020002482 -0.056912065 -0.032354247 -0.058348943 0.005010705
-0.03496527 -0.0904741 0.06767864 0.014081854 -0.0666859 -0.08819912 -0.11098073 0.019001197
00000000: d5a2 133d 83c3 babd c74b 3bbc 1c83 543d
00000010: ac9b 383d 555f 9abd 2626 1c3e 218c 69bd
00000020: fdcc 70bd 590f 5abc 3a2d 12bd f539 263d
00000030: 8c2b 8cbd 1388 1abd 00eb 563d b758 8abc
00000040: 64f5 933c 1701 57bd cf10 803d 7d07 ecba
00000050: 1120 b2bc f663 3abd 75a4 79bd 0ca6 44bd
00000060: 1da5 993d 47d0 343d 025c b3bd 04da 513b
00000070: 4140 113d 570a 953d 10fb 353c 0f29 86bd
00000080: 1f47 03bd d940 8abd 8ce0 fa3b 375e a23d
00000090: 9734 abbd b911 363d d392 703d c2e8 04bb
000000a0: 6b36 1dbd 6185 c33b a930 04bd 59da 0a3e
000000b0: 265a 10bc c16a 4dbd 84b7 2c3d e953 5bbd
000000c0: dcc4 9abb 5a65 843d 6f7b ef3a 7311 85bd
000000d0: fd94 903d e22f 223c f560 fd3d ff66 bf3d
000000e0: ea48 973d ae06 42bd e0b1 8dbc 7322 11bd
000000f0: 5985 a5bd 980f 21bd 416b 8abd 52ba 9dbd
00000100: 3865 49bd 6e44 44bb 292d c2ba 7e7e f33c
00000110: a048 feba 85e7 fc3b 0600 f23c fc89 46bd
00000120: 7fd3 e53c fc36 dd3b d1f2 8cbd c921 b3bd
00000130: ae3b 143d 2534 5fbd 7973 723b c5f2 d2bc
00000140: 5ae8 4e3b e141 7dbd d746 743b d155 983b
00000150: 1bd5 7c3d ad61 773c 27a8 153d a906 9e3d
00000160: 0a86 09bd 77e9 d13d 9e28 fa3d 7991 f73c
00000170: 7c65 ab3b ff3f cabc 946d a7bc c18f df3c
00000180: 9e38 86bd 9a83 c7bd c3ff c53c 5836 b7bd
00000190: e11a 733d f717 37bd 7ce6 4bbd bbe3 df3b
000001a0: 7ea6 5c3d 7d21 b0bd 5774 533d b2b3 263d
000001b0: 1312 83bd 3c61 81bd 8777 4f3d 54bc ea3c
000001c0: b162 96bd 0833 c93c f683 e43b 1604 bdbd
000001d0: b4b7 d43c 7ae0 70bd 0416 2bbd afb8 823c
000001e0: 8d8a 123d 62c6 b6bd 63a1 cabd 57ab b4bc
000001f0: 1945 d0ba 32ac 46bd 39fe 78bd 518b 5ebc
00000200: 29c5 bdba e3cd db3c 9b02 303d 8e16 2d3d
00000210: 7801 5438 d196 ca3c b7aa e43d d393 cfbc
00000220: 8060 f0bc 3288 a6bc 18fa 3c3d 977b 0a3d
00000230: 721f ef3c b56d 71bd 25e1 56bc 1e05 463d
00000240: 6e6a d6bc ec2a 5f3d a0c2 d9bb 858f 2fbd
00000250: 8cf6 973c 32b1 163b 77c1 373d 15e2 5c3d
00000260: 3b87 39bd f5d9 22bd e212 aebd ac65 4c3d
00000270: 69bf d6bc 1c93 903d db10 9bbd 6e77 b2bd
00000280: ac4d 82bd 165a 323d 5e24 15bd 3ab8 b4bd
00000290: a588 27bd 5c5c 85bc b654 0abd ad38 31bc
000002a0: 5557 df3b 4da4 3abd 762b 9fba 87b6 c83b
000002b0: ab81 193d 264d 91bc 3223 983c 6b48 38bd
000002c0: 0015 51bd aa70 d03c 7b09 773d a94c 0cbd
000002d0: f676 1f3d c8c8 abbc 1cc7 033d 7d9c 16bd
000002e0: a671 ee3b d763 a5bc 4cad 943c c1ef a6bd
000002f0: 5a70 35bc 9f03 843d de00 623d 1031 9cbd
00000300: e968 2f3d c35a d0bd d692 a1bd ffeb 123d
00000310: 832b a1bd 2ea2 7abd f993 8aba 4018 86ba
00000320: 48bb 563d 9419 b23b 2131 bdbd 0ca8 5e3d
00000330: 8613 0a3d 2e42 3d3d faad df3b a886 093d
00000340: 31e1 963d 58a9 c5bd 8fad 17bd d3a6 333d
00000350: 6080 263e b652 79bd df8c 183b 981f 1b3e
00000360: c705 aebd 635c 883d a758 f93d a918 7f3d
00000370: 61db d1bd 667a b9bd 1049 71bd 4b15 17bc
00000380: 7560 b53c 483e ccbd 0a08 f53c c58c d5bd
00000390: bc49 a33d fad5 b8bd c8f9 3cbd ec2e 17bd
000003a0: f625 19bd eaf4 e13c 999c 593c 3a24 6d3a
000003b0: f5b9 023d ffed e4bb 8bec 5e3c 77a2 1b3d
000003c0: dc88 2cbd 25d9 653d 555e 12bc 3fdc a3bc
000003d0: a01c 69bd e385 04bd 4dff 6ebd d730 a43b
000003e0: be37 0fbd 7c4a b9bd 199b 8a3d 94b7 663c
000003f0: 9e92 88bd bda1 b4bd dd49 e3bd 66a8 9b3c

network.9.bias f4 [64]
0.11695701 0.023969121 -0.06625357 0.02375472 0.10099564 -0.07250184 -0.020323748 -0.06099717
-0.029570041 -0.03716736 -0.01228222 -0.046345934 -0.08194669 0.06636497 -0.0042394297 -0.053542905
0.13666673 -0.03991137 0.06102851 0.075919084 0.04444177 0.036747627 0.0034607896 0.11931882
0.036726363 0.07604316 0.047172405 -0.006785183 -0.06575251 -0.03291515 -0.051201392 0.0024711723
0.113864906 0.016315527 -0.025701506 -0.08639113 0.063532256 -0.09698801 -0.010430052 0.0654423
-0.03507523 0.06493805 0.013700111 0.10993902 -0.07076448 0.034042273 -0.024146045 0.034026705
0.09284903 -0.0075763334 -0.06901914 -0.04971364 0.10997404 0.014512898 -0.0698703 -0.06193561
0.06607134 0.07990494 -0.016289411 0.024557918 0.059005696 0.035408117 -0.059698977 0.04925042
00000000: 2887 ef3d e45a c43c f4af 87bd 4299 c23c
00000010: cdd6 ce3d d87b 94bd fd7d a6bc 2bd8 79bd
00000020: df3c f2bc cd3c 18bd 5d3b 49bc 3cd5 3dbd
00000030: abd3 a7bd 5bea 873d eaea 8abb ce4f 5bbd
00000040: 5df2 0b3e 1b7a 23bd 08f9 793d 777b 9b3d
00000050: 9308 363d ae84 163d 6ace 623b 6d5d f43d
00000060: 626e 163d 84bc 9b3d da37 413d 3e56 debb
00000070: 41a9 86bd 09d2 06bd 8db8 51bd 64f3 213b
00000080: 0132 e93d 24a8 853c f78b d2bc d5ed b0bd
00000090: 331d 823d a6a1 c6bd cfe2 2abc 9d06 863d
000000a0: 0bab 0fbd 3efe 843d 6e76 603c b527 e13d
000000b0: f8ec 90bd e96f 0b3d edcd c5bc 965f 0b3d
000000c0: a227 be3d e442 f8bb e859 8dbd 88a0 4bbd
000000d0: 123a e13d 82c7 6d3c 2918 8fbd 32b0 7dbd
000000e0: 6950 873d 34a5 a33d 5f71 85bc b02d c93c
000000f0: f5af 713d 1a08 113d ea86 74bd cfba 493d

network.12.weight f4 [1, 64]
0.117617466 0.086567394 0.059005257 -0.08021912 0.12786688 -0.047331132 -0.06719906 0.10539161
0.044785522 -0.11030477 0.03338124 -0.033642724 -0.012831689 -0.04495947 0.10169417 -0.07247275
0.15073779 -0.106281824 -0.06447178 0.11385663 0.11189207 -0.041272026 -0.08263449 0.055267353
-0.06806577 0.01993401 -0.0638334 0.05896589 0.09500581 -0.06364588 -0.09781265 -0.048971362
0.06341103 0.02486099 -0.034298513 0.10329398 0.10358942 0.017836642 0.103740156 0.14566141
-0.05930928 0.026651371 0.04491765 0.07972368 -0.050686743 -0.04240592 -0.07094579 0.113866225
0.19586745 0.04906241 -0.12229515 0.06507992 0.10724341 -0.08517356 -0.044802647 -0.1100928
0.03302835 -0.07479052 -0.10540332 -0.09736223 -0.035293713 0.083411045 -0.06495973 -0.06662228
00000000: 6de1 f03d 3f4a b13d 7faf 713d ec49 a4bd
00000010: 89ef 023e 4ade 41bd a99f 89bd 8ed7 d73d
00000020: 0671 373d 78e7 e1bd c4ba 083d f4cc 09bd
00000030: 013c 52bc 6c27 38bd 0845 d03d 986c 94bd
00000040: 025b 1a3e 49aa d9bd c809 84bd aa2d e93d
00000050: ab27 e53d db0c 29bd 463c a9bd 0560 623d
00000060: 1166 8bbd a64c a33c 16bb 82bd 3886 713d
00000070: 6892 c23d c558 82bd 0052 c8bd 3296 48bd
00000080: a4dd 813d 46a9 cb3c 997c 0cbd cb8b d33d
00000090: b126 d43d 261e 923c b875 d43d 4428 153e
000000a0: 4aee 72bd fa53 da3c 92fb 373d 2b46 a33d
000000b0: e79c 4fbd d4b1 2dbd 074c 91bd b232 e93d
000000c0: 7a91 483e aaf5 483d e175 fabd 9f48 853d
000000d0: 6fa2 db3d 7a6f aebd fb82 37bd 5578 e1bd
000000e0: bc48 073d c62b 99bd b2dd d7bd d965 c7bd
000000f0: 2490 10bd 69d3 aa3d 9b09 85bd 4371 88bd
