projekt1/wandb/run-20251108_202135-z2aw7ed1/files/best_model.pth (torch, 860297 bytes, 25 tensors)

network.0.weight f4 [512, 70]
000000 04 82 98 3d bc 1d ae 3d a2 89 a4 bd 96 b6 0c bc
       0.074466735 0.08501765 -0.08034064 -0.008588454
000010 10 39 0c 3d a9 ba ca bb be cf eb bd c7 02 85 bd
       0.034234107 -0.0061868024 -0.11514233 -0.0649467
000020 4e e1 4c 3d 24 2a 17 3d 8b 46 fc 3d 83 a6 e6 bd
       0.050019555 0.036905423 0.123181425 -0.11262228
000030 f6 02 21 3e b1 6b de bd 6e d7 ea 3d a4 0a 5f bd
       0.15723786 -0.10860384 0.11466871 -0.054453507
000040 4e cf bc bc 19 9d b0 3c eb af 45 3d 48 52 f7 bd
       -0.02304807 0.021559285 0.04826347 -0.12076241
000050 9d 63 54 3c 7d b1 05 3e b5 f5 04 3d 0d f4 8e 3d
       0.012963203 0.13055988 0.032460887 0.06980143
000060 7d 20 ab 3c 29 11 ec bc 67 d3 03 bd fa d3 c4 bb
       0.020889515 -0.028816776 -0.03218403 -0.006006715
000070 9a 10 3e 3d 5a f0 6f 3d 76 70 ec bd 9d d5 99 3d
       0.04640255 0.058578826 -0.11544888 0.075114466
000080 fb 4d f1 bb 2c cc 53 3d ba f9 5a bc 0c 7c 97 3c
       -0.0073640323 0.051708385 -0.0133652035 0.018491767
000090 f8 3b 51 3d 5a 12 a8 bd af d3 8f 3c 3d f2 03 be
       0.05108258 -0.08206625 0.017556993 -0.12885375
0000a0 db 76 b6 3c f8 24 16 3d 34 a2 ec bd 31 34 75 3b
       0.022273472 0.03665635 -0.11554375 0.0037415142
0000b0 11 81 d8 3d be 1b 9f 3c ae c7 cc 3b 5e ad 22 bd
       0.105714925 0.019422408 0.0062493896 -0.039716117
0000c0 a6 21 e3 3c fd b1 80 bc 69 95 38 bd 15 ef d9 bc
       0.027726006 -0.015709871 -0.045064364 -0.026603261
0000d0 10 ac 70 3d 23 14 cc bc 40 fd 73 bd 67 b5 f0 3d
       0.05875784 -0.024911946 -0.05956769 0.1175335
0000e0 05 ff bc 3d e0 23 15 3d 7b 7c 66 3b 47 a6 e3 bd
       0.092283286 0.036411166 0.003516941 -0.11115699
0000f0 a0 65 7d 3d 58 dd 98 3d 96 64 03 3e 96 9a 62 bd
       0.061864495 0.07464093 0.12831339 -0.055323206
000100 c9 d8 3f bd fd d5 f6 bb 4b 58 eb bd 37 ad ce 3d
       -0.0468376 -0.0075328336 -0.1149145 0.10091632
000110 52 ca 61 3d f3 28 49 3e 32 0e 01 be ac 54 7e bd
       0.05512459 0.19644527 -0.12603071 -0.06209247
000120 7a 5c a7 3d 83 6a b4 3d 3c df 82 3d f3 7c 5e bd
       0.081719354 0.08809378 0.06390235 -0.05431838
000130 e7 b3 d0 3d 8c 6a 8d 3d b2 6b df 3d e7 39 d0 bc
       0.10190564 0.06905088 0.10909213 -0.025418235
000140 06 6c 60 bd f1 61 d9 3d 9f 56 5f bd 1c 0b d7 3d
       -0.05479052 0.10614384 -0.054525968 0.10500166
000150 12 4c ce 3c 6c 08 d3 bd 54 1f d3 bd fa cf ac 3d
       0.025182758 -0.10304341 -0.1030871 0.08438106
000160 db 8e b0 3d c0 f7 d3 bd fa 57 3e bb a3 4a 0b bd
       0.086209975 -0.10349989 -0.0029044137 -0.034006726
000170 6c f0 83 bd 37 30 2f bc 72 cd d3 bd fd a7 52 3c
       -0.06442341 -0.010692648 -0.1034192 0.012857434
000180 b6 b2 bb 3d 35 5a ab 3c 85 81 a4 3d d2 5e f3 3c
       0.09164946 0.020917038 0.080325164 0.0297083
000190 cc 5f 09 bd 8b ba 23 bd 83 8a d0 3d 88 91 e0 bd
       -0.033538625 -0.039972823 0.10182669 -0.10965258
0001a0 06 ba 23 3d 4a 20 c7 bd aa fa 09 3d 90 38 98 bd
       0.039972328 -0.097229555 0.033686318 -0.074326634
0001b0 20 1f ab bd 65 65 9f bc 5a ae f2 3d b9 33 9a 3d
       -0.08355546 -0.019457528 0.11849661 0.075293966
0001c0 2c 32 76 3d 4d 78 8f bd 78 84 5a bd 3d 1b 07 be
       0.06010644 -0.070053674 -0.05334899 -0.13193984
0001d0 32 f1 05 bd 7b bd b1 bb f2 31 c3 bc 12 a6 31 bc
       -0.032700725 -0.005424199 -0.023827527 -0.010842817
0001e0 30 7d 42 3d 67 14 92 bd 0d ca c5 bd 89 7a 2d 3d
       0.04748267 -0.07132798 -0.09657679 0.042353187
0001f0 5b 37 f8 bc 3e cf be bd 89 8b ce bd f6 c4 ff bc
       -0.030299833 -0.09316872 -0.10085208 -0.031221848
000200 69 8b f9 3b 31 19 90 3c a6 fa a3 bd b7 f6 da 3d
       0.007615496 0.017590137 -0.08006792 0.10691588
000210 11 94 c3 bd c9 a5 ea 3c 39 d0 ca 3d df db 8c bd
       -0.09549726 0.028643506 0.099029966 -0.068778746
000220 8d 3c b4 bb c7 9b bb 3c 62 ce 01 be a1 1b ed bd
       -0.0055003823 0.022901429 -0.12676385 -0.115775354
000230 21 01 12 bc de 89 76 bd 96 f4 ad 3d 35 81 00 bd
       -0.008911402 -0.060190074 0.08493917 -0.03137322
000240 4a 92 53 3d e5 fc 2e bc fd d6 31 3d e7 66 a5 bd
       0.051653184 -0.010680412 0.04341792 -0.08076268
000250 38 06 0b bc 26 52 4c 3d b2 3d dd 3d 6e 54 32 3d
       -0.008485369 0.04988303 0.10802783 0.04353755
000260 ba 54 6d 3d e9 fd 87 3c b0 0b e2 3d aa fd 45 3c
       0.05794213 0.016600566 0.110373855 0.012084404
000270 e4 e6 33 3d 00 d5 a1 bd f4 58 ab 3d 8a 39 34 3c
       0.043921366 -0.07901955 0.08366576 0.0110000465
000280 59 6b 20 bc 60 6b 5b bd 6f a3 31 3d e9 2c 97 bd
       -0.009791219 -0.053569198 0.043368753 -0.07381613
000290 86 67 62 bd 8d ca 19 3d d9 6c a0 bd 70 9a c1 3d
       -0.05527451 0.037546683 -0.07833261 0.09453285
0002a0 03 58 ef bd 0c be f5 bd b3 a2 b4 bd 5b 19 c1 bd
       -0.11686709 -0.11999139 -0.08820095 -0.09428664
0002b0 cc 54 4d 3d 8d e6 4f bd 71 38 02 bd af 3f 9a bd
       0.050129697 -0.05075698 -0.031792108 -0.07531678
0002c0 b3 74 21 3e d8 67 ea bc a9 c6 ab bd 16 67 3a bd
       0.15767173 -0.02861397 -0.08387501 -0.045508467
0002d0 07 62 82 bd 67 49 3c bc 7b e0 e1 3c a0 f8 9e bb
       -0.063663535 -0.01149211 0.027572861 -0.0048514158
0002e0 5d 82 f9 bd 2c e7 e7 3d 70 d5 90 bd 3a b0 19 3c
       -0.12183068 0.113233894 -0.0707196 0.009380395
0002f0 0a 2c ea 3d 00 f8 84 3b da 61 a0 3d 9a a8 9f 3d
       0.11434181 0.004057884 0.07831164 0.0779583
000300 e8 f8 a8 bc e4 5d bb ba eb e9 87 bd d9 f4 c5 3b
       -0.0206265 -0.0014294949 -0.06636413 0.006041151
000310 bf dd d3 bd bf 35 90 bd 3c 4d c4 bd 8a 38 64 bd
       -0.10345029 -0.07041501 -0.09585044 -0.055717982
000320 ff cd c8 3d 31 fb b6 ba 4f a0 fc bc f0 f8 73 bc
       0.09804916 -0.0013960359 -0.03083816 -0.014890894
000330 03 d6 8b 3d b6 41 fd 3a e8 91 ea ba da 70 d0 bc
       0.06827929 0.0019321952 -0.0017896267 -0.025444437
000340 96 f2 01 3d 98 c4 fc bd 2b 14 f5 bd 89 f1 8c bd
       0.03172549 -0.12342185 -0.11966737 -0.06882007
000350 fc c0 ac bd cf db 1b 3d 88 7d da bb 2a db dd 3c
       -0.08435246 0.038051423 -0.0066677965 0.027082045
000360 82 6f 9b 3d 36 49 d4 bd 1c 88 90 bc c8 df 9d 3d
       0.07589628 -0.103655264 -0.017643027 0.077086985
000370 7e 5e 00 3e 98 c3 1b bd 8f bd ff bd 11 50 90 bd
       0.12536046 -0.03802833 -0.12487327 -0.070465215
000380 ce 6e 88 bc 0c 7d c6 bd 69 ae f6 3d 2d 60 a0 bd
       -0.016654398 -0.096918195 0.12044985 -0.07830844
000390 27 a9 0a 3d c3 73 7a 3d 0b 9c d7 3b 22 18 db 3c
       0.033852722 0.061145555 0.006579881 0.026744906
0003a0 83 26 ee bc f7 ec e6 3d 13 22 bd bd e3 92 09 be
       -0.029071098 0.11275666 -0.09235015 -0.13434939
0003b0 a3 f9 bc 3d 25 25 22 3c 07 61 33 bd 76 e9 88 3d
       0.09227302 0.009896551 -0.043793704 0.06685154
0003c0 a0 b2 b3 3b 97 b3 7d bd 1f 57 49 3b 06 ca b4 bd
       0.0054839402 -0.06193885 0.0030722094 -0.088275954
0003d0 df 6a 8e 3d 81 99 99 bd b9 53 b8 bd 0f 11 60 bd
       0.06953978 -0.07499982 -0.09000344 -0.05470377
0003e0 59 56 a7 bd 04 7e 9b 3d 9c 7e a8 3b f5 c2 85 b9
       -0.081707664 0.07592395 0.005142046 -0.0002551299
0003f0 ae 15 bd 3d 58 79 ab bd 9c 88 c6 3d 61 4a 1a 3d
       0.09232651 -0.08372754 0.09694025 0.03766859

network.0.bias f4 [512]
000000 e5 66 45 bd ac 0e 18 bd 7c 25 25 bd 1d 55 e0 bd
       -0.04819383 -0.037123367 -0.04031895 -0.10953734
000010 48 79 b2 bc 1d 98 e0 3d d2 64 f6 3c 4d b9 a3 bd
       -0.021786347 0.10966513 0.030077372 -0.07994328
000020 bf 77 6b bd e2 44 56 bd 18 1c 4a 3b d6 17 c7 3d
       -0.057487246 -0.052311786 0.00308395 0.09721343
000030 e0 85 2e bd 0b 41 c2 bb 21 93 e2 3a 8a 04 7e 3d
       -0.042608142 -0.005928164 0.001728628 0.062016048
000040 72 8a bf 3c d9 6f 8f 3d cf b6 8b 3d b0 11 cf 3d
       0.023381446 0.07003755 0.06821977 0.101107955
000050 9e 70 9d bd 3f 90 84 3d d8 85 ff bc c4 11 0f 3d
       -0.07687496 0.06472825 -0.031191751 0.034929052
000060 4c 85 6d 3d a5 31 b7 3d 8b c1 c6 3b f4 17 ad 3d
       0.05798845 0.08945016 0.0060655526 0.08451834
000070 07 56 62 bd 62 a3 8c 3d f4 27 bc bd 50 08 d6 3d
       -0.055257823 0.068671 -0.09187308 0.10450804
000080 49 dd dc bd 55 0a ab bd da 5b c1 3a 60 53 9a 3d
       -0.10784394 -0.0835158 0.0014752105 0.07535434
000090 d3 72 c6 3d 33 1b 9e bd a1 0a 8b bd 06 72 d4 bd
       0.0968987 -0.077200316 -0.06789137 -0.10373311
0000a0 38 84 bd bd 34 2e e6 bd 54 f6 b7 3d 68 30 e6 bd
       -0.09253734 -0.11239281 0.0898253 -0.112397015
0000b0 54 4d d1 bc 4f 16 63 3d 4f 48 67 3d 6f df 7c bd
       -0.025549568 0.055441197 0.056465443 -0.06173652
0000c0 51 eb 9b 3d 15 6d 4f bc 7b 51 87 3c 42 fc 68 3d
       0.076132424 -0.0126602845 0.016518345 0.056881197
0000d0 95 4d 52 3d 4e 90 a3 bd e1 75 e4 3d 01 fe 56 3a
       0.05134352 -0.07986508 0.11155296 0.00082013017
0000e0 5b 3c a1 bc d6 dd 8a 3c 00 e7 d3 3d 12 34 b2 3d
       -0.0196821 0.016951483 0.10346794 0.08701338
0000f0 86 46 db 3c 3a df ef 3d 1a 31 12 3d 91 f8 80 3c
       0.026767027 0.11712499 0.03569136 0.015743526
000100 aa 5a bc 3c d1 14 3d bd 24 8b bf 3d a2 a2 c2 bd
       0.02299245 -0.04616243 0.09352711 -0.09503676
000110 d5 b9 50 bd db 88 66 bd 9d d7 b2 bd db 50 4a bd
       -0.050958473 -0.05628286 -0.08732531 -0.049393516
000120 ac 5e ad 3d f6 cb 0b 3d 65 a4 9f bc aa 2d bd 3c
       0.08465323 0.03413006 -0.01948757 0.023093063
000130 a1 e0 e6 bd b6 28 dd bd 05 b5 ee 3d 0e 73 15 3d
       -0.11273313 -0.107987806 0.116556205 0.036486678
000140 a2 f8 86 3d 5e 13 be bd 6c f4 b2 bd cf b5 3b bd
       0.06590392 -0.09281038 -0.08738026 -0.045827683
000150 d4 e4 5d 3c 15 b0 2c bb 2d 52 01 3d 16 fb 26 3d
       0.013543326 -0.002635007 0.03157251 0.040766798
000160 80 83 b2 bd 4b 0e dc 3d 34 d7 9e 3c 17 55 4e 3d
       -0.08716488 0.10744914 0.019389726 0.050374117
000170 f6 a2 cd bd 8c 4b d2 3d 9c a6 dd bb af 60 cd bd
       -0.10040848 0.10268316 -0.006764246 -0.100282066
000180 8f 1f 9e bc e0 be 22 bd e0 2b e5 3d 89 59 56 3d
       -0.019302158 -0.039732814 0.11190009 0.05233148
000190 bb 16 eb bd 88 dd bc ba 3f b2 9e 3d 5e cf b0 bc
       -0.11478945 -0.0014409283 0.077488415 -0.021583255
0001a0 2a 5a 81 3d b4 9f de bc 69 c7 38 bd a4 c1 81 bd
       0.063160256 -0.027175762 -0.045112047 -0.06335762
0001b0 e0 d9 dd 3d 1c 0c 9b 3d 1e 83 e4 bd 7c ce 7e bd
       0.10832572 0.07570669 -0.11157821 -0.062208638
0001c0 4a 5a 81 3d f1 30 16 bd cc e3 a9 bc b9 2a b2 3d
       0.063160494 -0.036667768 -0.020738505 0.08699555
0001d0 1c c1 a4 bd e2 e3 f3 bb 9a 8b ea bd 7a c0 5c bd
       -0.08044645 -0.007442937 -0.11452408 -0.053894497
0001e0 5b cf 99 3c 36 11 36 3d 41 7e e9 bc 5b db 06 3d
       0.018775633 0.044450007 -0.028502585 0.032924037
0001f0 2a 9a dc 3d 4f 4c c1 3d 17 60 84 bd 89 ab b3 3a
       0.10771592 0.09438383 -0.0646364 0.0013707738
000200 f5 10 95 bb 53 26 eb bd 44 ba 5c 3d 07 ce b6 3d
       -0.0045491406 -0.11481919 0.053888574 0.08926015
000210 01 39 85 bd 95 5a aa bd e5 53 d8 bc 50 c9 ac 3c
       -0.06505013 -0.083180584 -0.026407192 0.021092087
000220 27 85 2d 3d 94 97 02 bd 7d 88 d4 3d e7 b7 f0 bd
       0.042363312 -0.031882837 0.103775956 -0.117538266
000230 e7 30 1c 3d 22 ec 66 3d a7 c6 d0 bd 88 b3 3e bd
       0.038132574 0.056377538 -0.1019414 -0.046557933
000240 c9 1f 47 bb d0 ed 50 3d e5 aa c5 3d f3 8b 65 bd
       -0.0030383936 0.051008046 0.09651736 -0.05604167
000250 c8 93 e9 3d 71 e6 ce bd d1 1a 4a 3d d6 08 a0 bd
       0.1140514 -0.10102547 0.04934198 -0.07814185
000260 91 23 17 3d 5d aa 66 bd 7f ca 3b bd 1e cd d5 bd
       0.036899153 -0.056314815 -0.045847412 -0.104395136
000270 ed 0a c4 3d 0f 3b 44 3d 65 77 c2 3d a3 eb cb bd
       0.095723964 0.047907885 0.09495429 -0.099570535
000280 77 45 8e bd 41 86 67 3d e3 98 a6 3d 3e f6 8d bd
       -0.06946843 0.05652452 0.081346296 -0.069317326
000290 21 08 cc 3d 5b 01 01 3c c9 4e 1f bd cc cd d4 3c
       0.09962488 0.007873858 -0.038893495 0.025977038
0002a0 3f 84 75 bd 9e cb bc 3d 59 91 32 bd 94 e9 2a 3d
       -0.059940573 0.092185244 -0.043595646 0.041726664
0002b0 84 bc 19 bd 8e 59 c4 3c 43 30 7b 3d bb ac c1 bd
       -0.037533298 0.023968484 0.061325323 -0.09456774
0002c0 72 20 00 bd ba f4 1e bc aa a7 70 3d ad 86 45 3d
       -0.031280942 -0.009701902 0.058753647 0.04822414
0002d0 7e 0b ef bd 18 88 07 3d 86 11 cb 3c e4 f3 cd bd
       -0.11672114 0.033088773 0.02478863 -0.10056284
0002e0 73 5c de bd 2c 57 ab 3c 53 1a f4 bd c9 b7 53 bd
       -0.10857477 0.02091559 -0.119190834 -0.051688943
0002f0 2d cb 88 3d 87 7a 8a bd fa 14 73 3d 1e ea b7 3d
       0.06679378 -0.067616515 0.059346177 0.08980201
000300 bf fc 45 bc 71 00 a6 3d 9e 04 96 3d 58 de 1f bd
       -0.012084185 0.08105553 0.073250994 -0.039030403
000310 08 43 b7 bb 92 98 d0 bd d9 39 a7 3d 11 1b a1 3d
       -0.0055927075 -0.101853505 0.081653304 0.07866491
000320 16 36 df bc 5f df bb 3c 91 39 c3 3d d9 53 85 3d
       -0.02724747 0.02293366 0.09532464 0.06510133
000330 ea 3c ab 3d 73 05 98 3d 2c d5 85 bd 85 ce dd bc
       0.08361228 0.07422914 -0.065348 -0.027076015
000340 79 39 5a bc 87 c6 79 bc 86 30 aa 3c 15 70 48 bd
       -0.013319367 -0.0152450865 0.02077509 -0.048935015
000350 ec 34 91 3d b7 45 06 bd 1c 2b 97 3d 03 78 2a bd
       0.07090172 -0.03278133 0.07381269 -0.04161836
000360 c8 1f a9 3d 70 f0 d9 bd ae 87 80 bd 5e d2 53 3d
       0.08258015 -0.10641563 -0.06275879 0.051714294
000370 f6 6c bf 3b 2c 96 b7 bd a1 38 f9 bb ec 02 81 3d
       0.0058418466 -0.0896419 -0.0076056276 0.062993854
000380 dd 4c 11 3c f7 66 a7 bd 0e 76 22 3d 1b df 05 3d
       0.008868423 -0.08173936 0.039663367 0.032683473
000390 1c 26 0e ba f7 97 be bd bb f2 61 bd 7a 39 b4 3d
       -0.0005422549 -0.09306329 -0.055163126 0.08800025
0003a0 64 e6 44 bc 1f b5 a3 3c d7 7d ae bd b0 76 96 bd
       -0.01201782 0.019983826 -0.08520096 -0.073468566
0003b0 3e e8 ac 3b f9 ff 58 bc ac f3 de bd 10 3b 8f 3d
       0.005276709 -0.013244622 -0.108863205 0.06993687
0003c0 44 c4 7f 3d 1d da 5a bd 9c b0 e6 bd 73 eb f0 bd
       0.062443033 -0.053430665 -0.11264154 -0.117636584
0003d0 9b 03 3b 3b 6d 42 2f 3c 12 80 9a bd b5 34 04 bd
       0.0028536085 0.0106969895 -0.07543959 -0.032276828
0003e0 c3 73 6d 3d ab d7 b1 3d 83 a9 45 bd b2 87 7e bd
       0.057971727 0.086837135 -0.048257362 -0.062141128
0003f0 f1 0d e7 3d cf 5b 87 bd 34 82 3b 3d fe d3 a6 bc
       0.11281956 -0.06609308 0.04577847 -0.020364758

network.1.weight f4 [512]
000000 c8 60 81 3f 69 a8 7f 3f fa 8c 82 3f f8 d4 82 3f
       1.010766 0.9986635 1.0199273 1.0221243
000010 e2 41 82 3f e3 41 80 3f f9 f5 7f 3f a3 21 7c 3f
       1.0176356 1.0020107 0.999847 0.98488826
000020 b5 f3 7a 3f 81 46 80 3f 70 c8 7f 3f 1e 9d 7e 3f
       0.9802812 1.0021516 0.9991522 0.9945849
000030 e1 23 7e 3f 6e 2a 80 3f aa 1f 86 3f ab 48 81 3f
       0.99273497 1.0012949 1.0478413 1.0100302
000040 b8 3f 7b 3f e7 30 7c 3f 39 be 7b 3f 1e b7 81 3f
       0.981441 0.9851212 0.9833713 1.0134008
000050 97 19 80 3f c4 82 81 3f e9 1c 80 3f f2 1e 80 3f
       1.0007809 1.0118032 1.0008823 1.0009444
000060 1c 46 81 3f f3 42 83 3f bb 4a 82 3f 57 7b 78 3f
       1.0099521 1.0254806 1.0179056 0.970632
000070 f3 5e 81 3f e6 5a 75 3f 55 78 7b 3f 89 f2 78 3f
       1.0107101 0.95841825 0.9823049 0.9724508
000080 9d 2d 7a 3f 3d d1 86 3f 0a 6d 7c 3f b3 0b 7c 3f
       0.9772585 1.0532604 0.9860388 0.9845535
000090 a2 97 80 3f 84 e6 7e 3f e6 19 81 3f ef 62 80 3f
       1.0046275 0.9957049 1.0086029 1.0030192
0000a0 aa 7a 80 3f e7 5c 7b 3f c5 b4 78 3f 35 78 80 3f
       1.0037434 0.9818863 0.9715083 1.0036684
0000b0 e8 bd 80 3f fa 00 83 3f af 30 83 3f fa 70 81 3f
       1.0057955 1.0234673 1.0249232 1.0112603
0000c0 c5 bd 80 3f ad e9 76 3f 71 e0 7e 3f 0c 34 85 3f
       1.0057913 0.9645031 0.9956122 1.0406508
0000d0 f3 b7 7d 3f c3 32 80 3f 6c 1c 7d 3f 11 51 75 3f
       0.9910881 1.0015491 0.98871493 0.9582682
0000e0 8e 33 7a 3f e1 8e 80 3f 58 f5 7f 3f 04 85 80 3f
       0.97734916 1.0043603 0.9998374 1.0040593
0000f0 31 2f 81 3f 17 73 81 3f 06 0a 7a 3f 3e 4c 78 3f
       1.0092527 1.0113248 0.97671545 0.96991336
000100 1e 6b 7d 3f 3e 66 7e 3f 3e df 83 3f a1 e2 81 3f
       0.9899157 0.9937476 1.0302503 1.0147287
000110 b8 7f 83 3f 1d 7c 78 3f ce 42 81 3f 79 f3 7c 3f
       1.0273352 0.9706438 1.0098512 0.9880901
000120 87 2d 7e 3f 91 18 84 3f d1 6c 7e 3f ac 69 7f 3f
       0.9928822 1.0319997 0.9938479 0.9977062
000130 8d 18 81 3f 16 d1 7d 3f b0 ca 7e 3f 91 67 81 3f
       1.0085617 0.99147165 0.99528027 1.0109731
000140 d3 64 7e 3f 77 d6 82 3f a5 92 78 3f 0f dc 83 3f
       0.99372596 1.02217 0.9709876 1.0301532
000150 8d bd 7c 3f 28 8d 81 3f 2f 3a 7a 3f 3d 45 7b 3f
       0.9872673 1.0121202 0.9774503 0.98152524
000160 9d db 7d 3f b9 9e 7f 3f 80 a8 7a 3f d7 2a 7a 3f
       0.9916323 0.99851567 0.9791336 0.9772162
000170 02 3d 82 3f f4 98 7f 3f f6 e2 81 3f 19 69 81 3f
       1.0174868 0.9984276 1.0147388 1.0110198
000180 fb fd 83 3f 5b 62 80 3f 09 b6 7d 3f 12 da 7a 3f
       1.0311884 1.0030016 0.9910589 0.97989
000190 34 13 79 3f 72 47 82 3f 82 3e 7c 3f 24 94 80 3f
       0.97294927 1.0178053 0.9853288 1.0045209
0001a0 f9 ab 7d 3f c9 0a 77 3f 4a 08 81 3f db 2c 80 3f
       0.99090534 0.9650083 1.0080655 1.0013689
0001b0 99 af 7f 3f 91 37 7a 3f 98 07 83 3f a8 0c 81 3f
       0.99877316 0.9774104 1.0236692 1.0081987
0001c0 bd 05 80 3f 92 b6 81 3f 61 f6 83 3f af 5e 82 3f
       1.0001751 1.0133841 1.0309564 1.0185145
0001d0 d9 79 78 3f 36 9a 7c 3f c1 d5 7b 3f c9 ce 7f 3f
       0.97060925 0.9867281 0.9837304 0.99924904
0001e0 de 63 82 3f 8f 72 7d 3f 4c 35 78 3f 84 08 7f 3f
       1.0186727 0.9900293 0.96956325 0.9962237
0001f0 df 67 82 3f 23 47 83 3f 41 da 7d 3f e4 c6 82 3f
       1.0187949 1.0256084 0.99161154 1.0216947
000200 02 3a 84 3f ba be 80 3f 89 dd 80 3f 8d cc 7c 3f
       1.0330203 1.0058205 1.0067607 0.9874962
000210 64 09 84 3f 7d bc 82 3f 85 0d 83 3f 1f 40 7e 3f
       1.0315366 1.0213772 1.0238501 0.9931659
000220 15 82 77 3f 16 42 7f 3f 62 dc 7d 3f 22 5a 7f 3f
       0.96682864 0.99710214 0.991644 0.99746907
000230 ab 49 80 3f 5b d8 80 3f e4 2f 7f 3f a7 e2 7d 3f
       1.0022482 1.0066026 0.9968245 0.9917397
000240 40 25 7f 3f 54 df 80 3f 2c 07 83 3f 45 55 7b 3f
       0.99666214 1.0068154 1.0236564 0.98176986
000250 83 cc 7d 3f f4 7e 7d 3f 3c 62 7f 3f aa 84 7e 3f
       0.99140185 0.9902184 0.9975927 0.9942118
000260 f4 e5 7c 3f 17 49 82 3f da 00 7a 3f 42 97 81 3f
       0.9878838 1.0178555 0.9765755 1.0124285
000270 86 25 81 3f 90 c5 7a 3f 14 0d 80 3f 9d a0 7d 3f
       1.0089576 0.97957706 1.0003991 0.990732
000280 98 5e 77 3f 43 38 7e 3f ce a4 81 3f 51 4d 7c 3f
       0.96628714 0.993046 1.0128419 0.98555475
000290 26 ab 80 3f 78 0d 82 3f f6 9e 82 3f 68 c3 80 3f
       1.005223 1.016036 1.0204761 1.0059633
0002a0 33 ac 81 3f bc c6 7e 3f c4 84 7b 3f 63 ad 80 3f
       1.0130676 0.99521995 0.9824946 1.0052913
0002b0 29 63 7f 3f 94 50 7e 3f e2 83 7b 3f be 30 84 3f
       0.9976068 0.993417 0.9824811 1.0327375
0002c0 27 31 81 3f 8f 73 81 3f cf 37 84 3f 6d 65 7d 3f
       1.0093125 1.0113391 1.0329531 0.9898289
0002d0 ce ab 81 3f 43 73 82 3f 81 bb 84 3f 3b 38 81 3f
       1.0130556 1.0191425 1.0369722 1.0095285
0002e0 57 8e 7a 3f 62 ad 7f 3f d3 ec 7c 3f 94 52 80 3f
       0.97873443 0.99873936 0.98798865 1.0025201
0002f0 13 63 7f 3f bf fb 7d 3f bb e7 80 3f 29 d7 80 3f
       0.9976055 0.9921226 1.0070719 1.0065662
000300 5d 5f 7a 3f 8e 97 84 3f db c6 81 3f 7a 46 7f 3f
       0.9780176 1.0358751 1.0138811 0.99716914
000310 a4 df 7f 3f 33 df 7d 3f c6 c7 78 3f 87 f5 82 3f
       0.99950624 0.991687 0.9717983 1.0231179
000320 6e 51 7e 3f 4f 42 7e 3f 1c ce 84 3f 54 96 7d 3f
       0.99343 0.9931993 1.03754 0.9905751
000330 0d e5 81 3f 96 ab 80 3f f0 90 7a 3f 81 65 75 3f
       1.0148026 1.0052364 0.9787741 0.9585801
000340 15 1b 80 3f fb 74 7a 3f 10 c7 7d 3f 72 17 83 3f
       1.0008265 0.9783475 0.9913187 1.024153
000350 4c 96 7b 3f 71 9f 7f 3f 31 39 7d 3f 40 13 81 3f
       0.9827621 0.99852663 0.9891539 1.0084
000360 04 a3 83 3f 6e 43 7f 3f bf 11 7e 3f f5 56 80 3f
       1.0284123 0.99712265 0.9924583 1.0026537
000370 f9 57 81 3f 5d 60 81 3f 32 32 7f 3f 50 30 7a 3f
       1.0104972 1.0107533 0.99685967 0.9772997
000380 c1 4f 80 3f df 92 7f 3f 5c 70 76 3f 74 b5 80 3f
       1.0024339 0.9983348 0.96265197 1.0055375
000390 a9 42 78 3f 07 f9 85 3f ec 87 7a 3f c8 1c 7d 3f
       0.96976715 1.0466622 0.9786365 0.9887204
0003a0 a1 02 82 3f 6e ae 7f 3f ec a0 83 3f 08 95 83 3f
       1.0157052 0.99875534 1.0283484 1.0279856
0003b0 ea 04 7f 3f 53 cf 7e 3f 51 08 7d 3f 1e b4 80 3f
       0.99616873 0.995351 0.98840815 1.0054967
0003c0 d7 d8 7a 3f fd 53 7d 3f e3 b7 7f 3f f3 8d 83 3f
       0.9798712 0.9895628 0.99889964 1.0277694
0003d0 03 7b 81 3f 4d ae 82 3f 4a 30 81 3f 86 a4 83 3f
       1.0115665 1.0209442 1.0092862 1.0284584
0003e0 4c 92 7f 3f 79 32 80 3f 45 a8 74 3f 6e bd 7d 3f
       0.99832606 1.0015403 0.9556926 0.9911717
0003f0 8c 71 7e 3f 45 b6 7f 3f 92 3a 80 3f 1a 80 80 3f
       0.9939201 0.99887496 1.0017874 1.0039093

network.1.bias f4 [512]
000000 d0 4e 64 3b 9a da fc 3a 9c c7 25 3d 5a ad 60 3b
       0.0034837015 0.0019291223 0.040473565 0.0034283013
000010 7a 2b 95 3b e9 d3 2e 3c 49 4d b3 bb aa e6 1b 3c
       0.004552302 0.0106706405 -0.0054718596 0.009515444
000020 64 57 d6 bb 11 51 f4 ba 71 a4 5c bc 1f 38 7b 3b
       -0.0065411795 -0.0018639882 -0.01346694 0.0038333011
000030 4c ae 93 bc 9a 23 7a 3b df 14 2b bc 35 18 55 bb
       -0.018027447 0.0038168193 -0.010441988 -0.003251565
000040 45 f0 5e bc a7 92 b1 bb ec 16 da bc c9 ad d5 3a
       -0.013607089 -0.0054190936 -0.026622258 0.0016302402
000050 77 c1 56 3c 24 8d 36 bb 53 c9 13 3c c7 b3 69 3b
       0.013107649 -0.0027855122 0.009020167 0.0035660134
000060 27 e7 da bb 8b 66 a7 3c f0 14 92 3c e4 ef 86 bc
       -0.0066803875 0.020434638 0.01783225 -0.01647181
000070 1a 45 18 3b 59 03 1f bd 94 04 67 bc 45 16 c4 bc
       0.0023234547 -0.038821552 -0.014100213 -0.0239364
000080 c2 9a 2d bb 79 1e 15 3c da 58 cc bb 3d 18 4a bc
       -0.0026489948 0.0091015035 -0.006236178 -0.01233488
000090 40 64 9b bb f4 1a af bc 85 be a3 3c cd 37 c3 bb
       -0.0047421753 -0.021375157 0.019988308 -0.0059575797
0000a0 15 3e ab bc 58 3b 86 bc 64 75 40 bc 71 26 8e 3c
       -0.020903626 -0.01638572 -0.011746738 0.017352315
0000b0 fe 55 88 b9 99 e8 a1 3c 7e 22 6e 3c 30 fe 43 bb
       -0.0002600401 0.019764232 0.014534591 -0.0029906146
0000c0 b2 33 53 3c 28 06 d0 bc c8 93 9e bc ec 5d 04 3d
       0.012890743 -0.02539356 -0.019357577 0.032316133
0000d0 f7 22 d5 bc 6b 04 67 3c 53 d2 6f bc 1c 71 18 bd
       -0.02601765 0.014100174 -0.014637548 -0.037217245
0000e0 a2 10 93 bc 67 99 a5 3b e9 73 c7 bb 00 4b 74 bc
       -0.017952267 0.0050536874 -0.0060868156 -0.0149104595
0000f0 a1 ea 0b 3d 05 83 5d 3c 49 00 32 bc 7a 88 01 bd
       0.034159306 0.013520007 -0.010864326 -0.031624295
000100 34 a1 b8 bb 1b 1f 29 3a 6a 48 fb bb 90 1f 27 bc
       -0.0056344513 0.00064514735 -0.0076685445 -0.010200396
000110 5c 08 9d 3c b1 37 f6 bc 7e f9 d6 3c 97 55 a0 3c
       0.019169025 -0.030055853 0.026242014 0.019572062
000120 10 f3 8c bb 10 f9 1c 3a 21 0b 27 3b 97 0e d9 39
       -0.0043014362 0.0005988041 0.002548881 0.00041400336
000130 98 44 8f bb 38 b0 b5 3a 95 a9 11 bc 98 f5 95 bb
       -0.0043721907 0.0013861721 -0.008890529 -0.004576396
000140 22 4f f6 3b 88 3a a9 bb 93 86 cc bc 00 f6 05 3d
       0.0075167576 -0.005164448 -0.024966514 0.032705307
000150 2c f7 90 bc 2d ce f1 3c e5 7d 34 bc f1 38 08 bd
       -0.017695986 0.029517258 -0.011016344 -0.03325743
000160 d2 3c ff ba e7 72 03 3b 8b 0c 52 bd 8b b2 8f bc
       -0.0019473082 0.00200575 -0.051281493 -0.01754119
000170 52 45 07 bc b0 ad 73 3c ea 9f 91 bb 0e 85 2d 3c
       -0.008256273 0.014872953 -0.004444112 0.010590805
000180 f9 e1 a0 bb 66 85 ad 3c a0 98 a8 bc 06 47 13 bd
       -0.0049097505 0.021181773 -0.02058059 -0.035956405
000190 c4 df 02 bd df 94 ab 3b 6c 8b 69 3b f5 a6 12 3c
       -0.03195168 0.0052362527 0.003563608 0.0089509385
0001a0 45 60 e0 bb e5 1f 77 bc 62 a4 24 3c 06 4b 07 bc
       -0.0068474137 -0.015083288 0.010048958 -0.008257633
0001b0 34 88 02 3c 6d ff 07 bd ca 18 0d bb e2 c9 e2 3c
       0.007967044 -0.033202577 -0.0021529668 0.027684156
0001c0 77 84 aa bb 40 e2 91 3c d8 81 51 3c 7d 0f 05 bb
       -0.0052037793 0.01780808 0.012787305 -0.0020303421
0001d0 5e a8 f1 bb bc 21 3b bc 4a e2 68 3b 61 28 4d bc
       -0.0073748073 -0.011421617 0.003553527 -0.012521834
0001e0 f4 c7 86 bc ac f5 5c bb 79 89 92 bc e4 d3 0e bb
       -0.016452767 -0.0033715768 -0.017887818 -0.0021793777
0001f0 ee 8e b5 3b 8c f8 41 3c cc ba ad bc 47 e4 ea 3c
       0.00554072 0.011839043 -0.021207236 0.028673304
000200 61 02 9a 3b 7a 6a 13 ba b4 98 9b bb ad b8 9c bb
       0.0046999906 -0.0005623471 -0.0047484282 -0.0047827573
000210 1c 03 6a 3c f4 b8 1a bc 69 26 b1 3c 83 98 9a bb
       0.014282968 -0.00944351 0.02162476 -0.004717888
000220 c4 0e 3a bc 35 05 28 3c 4a a3 21 bd 9d 00 ab 3c
       -0.011356059 0.010255148 -0.039462365 0.020874316
000230 0e 7e 20 bc c2 1e ba 3c cc de 84 bc 80 a6 95 bc
       -0.009795679 0.022719745 -0.01621952 -0.01826787
000240 31 a2 81 ba b3 ee e9 ba 9b 90 dd 3c 80 6d 8b bc
       -0.0009890256 -0.0017847627 0.027046492 -0.017019987
000250 73 f1 6a bc 0f 96 a1 bc 0c 1c df bc 3c 7e a3 bc
       -0.014339793 -0.019724874 -0.027235053 -0.019957654
000260 ef 77 00 bc c3 fe 0d 3c 04 67 b3 bc 11 0e 33 3b
       -0.007841094 0.008666697 -0.021899708 0.0027321617
000270 c3 68 b1 3c 45 de 59 bb a9 f9 3d ba c9 66 a9 bc
       0.0216564 -0.0033244055 -0.000724698 -0.020678895
000280 7d 4a e9 bc a8 a5 25 bc ef a6 df 3b d4 26 9f bc
       -0.028477902 -0.010110296 0.00682532 -0.019427694
000290 1b 24 e0 3b b3 35 a2 3b 0c c8 04 3b e2 5e d6 3b
       0.0068402416 0.004950249 0.0020260839 0.0065420726
0002a0 1c 73 66 b9 9a 2b a5 3c a1 63 9b bc 2a 7a 7d bb
       -0.00021977391 0.020162392 -0.018968405 -0.0038677552
0002b0 13 ad 82 bc c1 7a 2b 3c b3 ab f0 bb d3 80 35 3c
       -0.015951669 0.0104662785 -0.007344687 0.011078077
0002c0 ea ba 82 3c 77 f0 4f 3c 74 cd df 3b 29 b6 91 3b
       0.015958268 0.012691609 0.006829912 0.004446764
0002d0 bc 54 64 bc 51 34 25 bc b1 6a 13 bc 47 b3 14 3c
       -0.013936218 -0.010083274 -0.008997605 0.009075946
0002e0 28 fc 70 bc d2 12 0a bc e4 aa 0e bc 2a 62 29 bc
       -0.014708556 -0.008427339 -0.008707736 -0.010338346
0002f0 cf f8 be 3a bc 8a 5a bc ad 27 be 3b 4a 6a 7a 3c
       0.001457 -0.013338741 0.0058030696 0.01528413
000300 b6 61 2d bc f9 45 a0 3c 10 2c b0 bc 41 1e d6 bb
       -0.010582378 0.019564616 -0.021505386 -0.0065343683
000310 28 de 8b b9 6b d2 95 bc 2f 27 e2 bc 4f 90 59 3c
       -0.00026677665 -0.018288812 -0.027606575 0.013279035
000320 a7 ab 30 3b 2f 5d a4 bc 18 1d 3f bb 7f 9f 68 bc
       0.0026957782 -0.020063965 -0.0029161628 -0.014198183
000330 cf 91 a1 3c 1c d1 52 3a c0 4e 11 bb ea c2 14 bd
       0.019722847 0.0008042024 -0.0022172183 -0.036318697
000340 ee 4f f4 bb cb cf 3e bc 47 dd b4 bb 1d 66 2d 3c
       -0.0074558174 -0.011646221 -0.0055195424 0.010583428
000350 34 41 85 3b d3 a9 2d 3c e1 c3 9b 3b b0 38 09 3c
       0.0040666107 0.010599571 0.004753575 0.008375332
000360 7c 7d 84 3c cc 93 04 bd d1 c2 98 3b 1a 0c be ba
       0.016173117 -0.032367513 0.004661896 -0.0014499456
000370 15 0e c8 bb 9d 1d ce 3c 9e ee 6f bb e0 5a 6f bc
       -0.0061051943 0.025160605 -0.0036610733 -0.014609069
000380 0e ad ea 3a 62 a2 a5 bc 43 67 2d bd 5a 7d 6d bc
       0.0017904358 -0.020219032 -0.042334806 -0.014495218
000390 5a b1 33 bd 1f a9 00 3c af fb 80 bc 05 8f 29 bc
       -0.043870308 0.007852822 -0.015745012 -0.01034904
0003a0 0a bd d6 bb 12 24 77 3a 35 7b 9c 3c 95 cd 32 3b
       -0.006553297 0.0009427677 0.019101718 0.002728318
0003b0 79 aa 81 3b 8a 33 8e 3b 0b ed 51 bc 69 90 d6 bc
       0.0039570895 0.00433964 -0.012812863 -0.026191907
0003c0 3c 81 06 bd eb f4 93 bb 8f 65 3e bc d7 2b b7 bc
       -0.03283809 -0.0045152805 -0.011620893 -0.022359772
0003d0 21 b0 a5 3c 0a c3 34 3c b4 cb 58 3b f3 20 09 3c
       0.020225586 0.011032829 0.00330804 0.008369672
0003e0 75 03 67 3b a4 01 9a bb c1 be e6 bc a3 e1 88 3a
       0.0035249863 -0.0046999026 -0.02816713 0.0010443222
0003f0 0e 43 8d 3c 2b 14 0b ba 3b 64 af bb a0 9a 84 bc
       0.017243888 -0.00053054345 -0.0053525246 -0.016187012

network.1.running_mean f4 [512]
000000 65 76 eb 3d b8 cc 4e be ec 08 f7 bc 07 7a 5c bd
       0.11497191 -0.20195282 -0.030155621 -0.05382731
000010 bc a4 bd bd e8 30 98 3c 32 5b 74 3d 6f d1 01 be
       -0.09259936 0.018578008 0.059657283 -0.12677549
000020 2d 8f 15 be 0d 2d 12 3d 8e 72 89 3d 27 4c 11 3e
       -0.14605398 0.035687495 0.06711303 0.14189206
000030 6d 56 c6 3b cd 74 5e bd 42 c0 2e bd c1 95 8f bc
       0.006052783 -0.05431061 -0.04266382 -0.017527463
000040 5e cf 6d 3d 21 48 c5 bd fc 6c d4 bb 0d ed 07 3e
       0.05805909 -0.09632898 -0.0064827185 0.13274021
000050 9e 45 fc bd 7e ca 4c 3d 07 ab c3 bc 34 06 3c bb
       -0.12317966 0.0499978 -0.023885263 -0.002869022
000060 bb cf 06 bd 83 0e d0 3d ba 9f 07 3e e6 5e 06 3e
       -0.03291295 0.10159018 0.13244525 0.13122138
000070 34 ac f6 bc b5 bc 82 bd 16 d3 32 3d 7b 43 2b 3e
       -0.03011141 -0.06383649 0.04365834 0.1672496
000080 e6 c1 95 be bf 64 0a be a2 83 3c be 95 7e 0e bd
       -0.29249495 -0.13514994 -0.18409589 -0.034788687
000090 8a 17 55 bd ac 50 a7 bd 59 24 87 bd 23 ec b1 bd
       -0.0520244 -0.08169684 -0.0659873 -0.08687618
0000a0 51 de bd bd bd 96 18 be ae af 25 3e e5 f2 12 be
       -0.09270919 -0.14901252 0.16180298 -0.1435047
0000b0 c5 26 cf 3a 72 0b d1 3d 9b 7f 0f be 32 c1 6e bd
       0.0015804401 0.10207261 -0.14013521 -0.058289714
0000c0 ee 4d 32 3e 3e 38 d5 bd c3 ff 00 bd ae af f1 3d
       0.1741254 -0.10411118 -0.031493913 0.11801086
0000d0 c2 4d 38 bd 97 00 cf bd b3 12 14 3e 96 6d a2 bd
       -0.04499603 -0.101075344 0.14460258 -0.07931058
0000e0 4d 4d 6d bd 19 a6 b0 3d a7 59 81 3e 93 c3 dd 3d
       -0.057935048 0.086254306 0.25263712 0.108283184
0000f0 12 f2 97 3a 74 1d 15 3e f9 50 88 3d 94 e2 7e 3d
       0.0011592528 0.14562017 0.06656069 0.0622278
000100 73 4c 56 bd e4 bd 40 be e0 8b a2 3d b0 25 2a be
       -0.052319 -0.18822438 0.07936835 -0.16615939
000110 24 44 b3 3c 03 b0 06 be 3d 0b 01 be fd a2 f5 bd
       0.021883078 -0.1315308 -0.12601943 -0.11993978
000120 2d 80 d9 3d ee 7c ef 3c 38 b5 79 bd f5 c6 d8 3d
       0.10620151 0.029234376 -0.06096384 0.10584823
000130 78 9c 56 bc 6d 5c a6 bd 07 92 e3 3d 60 ef 19 3e
       -0.0130988285 -0.081230976 0.11111837 0.1503272
000140 5a 90 f3 3d cc a6 18 be a7 29 21 bd 64 60 25 be
       0.11892767 -0.14907378 -0.039346363 -0.16150051
000150 a6 db 17 3d c4 70 d6 3d 2a 74 fb 3c 96 2f 16 3e
       0.037074707 0.10470727 0.03069504 0.1466659
000160 d8 2b ec bc 45 8a 62 3e de 2e d7 3d 7c bb 9a bc
       -0.0288295 0.22123058 0.10506986 -0.018888228
000170 0f b3 41 be 80 69 07 3d f9 06 4b 3d c0 5e 7a be
       -0.18915962 0.033059597 0.049567197 -0.24450207
000180 bd d6 c6 bd 3f 7a b3 3c a4 5f 43 3e 97 07 eb 3d
       -0.09708927 0.021908877 0.19079453 0.11476057
000190 70 df 3a be 74 22 9b bc 2d 94 34 3e 31 38 9b bd
       -0.18249297 -0.018937327 0.1763465 -0.07579077
0001a0 22 39 05 3d 33 3b 7b be f6 ec 4e 3d d6 b7 e7 bd
       0.03252519 -0.24534301 0.050518952 -0.11314361
0001b0 c5 34 90 bd 21 ca 5a 3e f1 b3 06 3a 25 82 70 bd
       -0.07041315 0.21366169 0.00051385077 -0.058717865
0001c0 9f cb 5e bd 9d 43 8f 3d fb d3 8b 3d 65 9a 19 3e
       -0.054393407 0.06995318 0.068275414 0.15000303
0001d0 ac 3b fb bd 0f b5 8b bd aa 90 21 be 8b 43 1c be
       -0.12267241 -0.068216436 -0.15777841 -0.1526014
0001e0 ef b2 af 3c 15 cb e1 3c a3 79 d6 3d dc a2 ee bd
       0.021447627 0.027562657 0.10472419 -0.11652157
0001f0 04 49 55 3e fd 2c eb 3c 14 69 31 bd 22 77 b9 bd
       0.20828635 0.028707976 -0.0433131 -0.09055926
000200 7a 54 c7 bd 68 e7 92 bd 4f f2 99 bd 0a 3d 16 3e
       -0.097329095 -0.071730435 -0.0751692 0.14671722
000210 3a 5a 26 bb f8 ac e6 bd 94 9b c5 bd c6 67 41 3d
       -0.002538337 -0.1126346 -0.09648815 0.047218107
000220 38 e9 64 b8 25 bd 61 be 5c 7e 06 3e f5 73 b8 3c
       -5.4576638e-05 -0.22044809 0.1313414 0.02251623
000230 14 5b 92 bd d4 63 e2 3c 9c cc 4c be 04 8d 59 bd
       -0.07146278 0.027635492 -0.19999927 -0.053113
000240 9b a9 15 bd 47 3a 35 be 52 69 3a 3e 12 a8 1f be
       -0.0365387 -0.17698012 0.18204239 -0.15591457
000250 5f 93 d1 3d 58 ed ee bd fc 20 0f 3e ae 8e 2d be
       0.10233187 -0.116663635 0.13977426 -0.16948959
000260 d4 c8 e9 bc 0b 60 e9 bd 94 22 2c be 66 8a 1e be
       -0.028538145 -0.11395272 -0.16810066 -0.15482482
000270 9a f4 af 3b 94 8d c2 3d 29 4e ee 3d 74 8a 30 be
       0.005369735 0.0949966 0.116360016 -0.17240316
000280 d8 df b2 3d 71 b1 97 bc af 62 89 3d 87 5f 16 be
       0.08734101 -0.018517228 0.067082755 -0.14684878
000290 8b dd f9 3d 16 15 38 3d a6 1e 32 be 5a da 80 3c
       0.12200459 0.044941984 -0.17394504 0.015729118
0002a0 a1 ee a9 bc a1 7d 2f 3d 14 76 04 bd 9a 6b 18 bd
       -0.02074367 0.04284442 -0.03233917 -0.03721199
0002b0 17 b4 81 bd 2c b7 0d be 70 ed ad 3d 24 ea b3 bd
       -0.063331775 -0.13839406 0.08492553 -0.08784893
0002c0 36 11 5b bd b3 fc 84 bd 52 0e 33 3e 32 e5 09 bd
       -0.05348321 -0.06493511 0.17485932 -0.033665843
0002d0 93 b9 1e be 41 27 46 3d ff fa 13 3c b9 98 99 bd
       -0.15500478 0.04837728 0.00903201 -0.07499833
0002e0 88 24 3d 3d 4f 2c bf 3d df 53 5c be cf a0 2c be
       0.046177417 0.09334623 -0.2151637 -0.16858219
0002f0 1e e4 88 3d 3b 8c 8b bd 2a 67 eb 3d 83 1e 39 3e
       0.06684135 -0.06813856 0.11494286 0.18078046
000300 b5 b4 61 b9 a6 88 3c 3e f8 19 4f 3d c1 2f ba bd
       -0.00021524991 0.18411502 0.050561875 -0.090911396
000310 0f 64 d4 bd fa 72 f4 bd 64 e6 4f bd 0d a3 b9 bd
       -0.10370647 -0.119359925 -0.050756827 -0.090643026
000320 75 17 87 bd 7f 4e 1a bd ce cf 27 3d e4 4b f6 3c
       -0.06596271 -0.037672516 0.040969662 0.030065484
000330 c0 ba e0 3d 4f 13 4e 3c fa 20 b2 bd 2b d6 a5 bc
       0.1097312 0.012577846 -0.08697696 -0.020243725
000340 28 0e 70 ba 1a ab 02 bd 26 3a 83 bd 6d 40 5d bd
       -0.0009157383 -0.031901456 -0.06407575 -0.05401652
000350 c8 7e 55 3e e8 dd ef bb d2 80 d9 3d 92 ea 0f be
       0.20849144 -0.0073201545 0.10620274 -0.14054325
000360 af a7 0a 3e 7e 48 c8 bd 50 48 e5 bb f7 c5 b4 bb
       0.13540529 -0.09779452 -0.0069971457 -0.0055167633
000370 3f a5 c6 bd d1 97 3f be 80 c2 7e bd 44 6c 35 3e
       -0.09699487 -0.18710257 -0.06219721 0.17717081
000380 5e 89 09 be aa db 2a bd d6 94 4c 3c 55 90 b4 3b
       -0.13431308 -0.041713394 0.012486657 0.00551037
000390 64 49 19 3a 8a 62 4c bd 8f 9f b6 bd 63 7e cd 3d
       0.0005847423 -0.04989866 -0.08917152 0.10033872
0003a0 de 78 23 be 1d 8f 50 3e 53 66 53 bd 39 b2 fe bd
       -0.15964076 0.20367093 -0.051611256 -0.12436337
0003b0 80 2a 6f bd ba 40 14 3e e1 7d 64 bd d9 56 11 3e
       -0.05839014 0.14477816 -0.05578411 0.14193286
0003c0 cd 39 ef bd f7 0d 98 bc 28 17 21 3d 6a f4 98 bd
       -0.116809465 -0.018561346 0.039328724 -0.07468493
0003d0 33 6e 03 3d f6 35 d3 3d fb d6 f6 bd 0f ba e2 bd
       0.032087516 0.103130266 -0.12052723 -0.11070644
0003e0 7f 33 9f 3d e9 30 e1 3d 4a fd c6 3d d2 96 13 bd
       0.07773494 0.10995657 0.0971628 -0.036032505
0003f0 9c 57 f5 3d 07 b2 00 bd 7c 1b ee bc f0 c9 29 3d
       0.11979601 -0.03141978 -0.02906584 0.04145235

network.1.running_var f4 [512]
000000 11 1e 76 3e 79 ec 73 3e d7 78 a6 3e 95 55 b1 3e
       0.24034907 0.23820676 0.32514068 0.34635606
000010 42 6f c5 3e ff 88 c0 3e a1 df 60 3e 07 f9 9d 3e
       0.38561445 0.3760452 0.21960308 0.30854055
000020 c7 8c 9b 3e 78 81 7e 3e f2 cb b8 3e ae 8e 8c 3e
       0.30380842 0.24854076 0.36093098 0.27452606
000030 a1 bf 8b 3e bf 94 99 3e 1f f8 6f 3e 85 b0 41 3e
       0.2729464 0.29996297 0.23434494 0.18914993
000040 9c dd 9e 3e 33 4c 68 3e 64 fb 7a 3e 12 5b 60 3e
       0.3102845 0.22685318 0.2450996 0.2190974
000050 4f de 96 3e 68 3a 83 3e 0e 67 93 3e fa d4 80 3e
       0.29466483 0.25630498 0.28789562 0.25162488
000060 ed 4a 9f 3e 61 ca ce 3e 49 4d 5d 3e 1f 17 67 3e
       0.3111185 0.40388778 0.21611513 0.22567414
000070 d7 81 75 3e 9b 49 a9 3e 18 c4 8d 3e dc 73 70 3e
       0.23975311 0.3306397 0.2768867 0.23481697
000080 23 cb ce 3e 2f ce 82 3e 6b ee b1 3e 4b 10 99 3e
       0.40389356 0.2554793 0.3475221 0.29895243
000090 a6 9f 97 3e 4c 04 90 3e 4b 2c 7a 3e f6 9b e2 3e
       0.2961399 0.28128278 0.24430959 0.44259614
0000a0 5a ac c2 3e f2 a8 e8 3e a2 42 92 3e c9 54 81 3e
       0.3802212 0.45441395 0.28566462 0.25259998
0000b0 4f fe 82 3e eb 8d 94 3e 16 a0 ac 3e cc 6a a5 3e
       0.25584647 0.29014525 0.33715886 0.32308042
0000c0 d8 88 cb 3e 0c 06 9d 3e c9 48 88 3e 98 d6 e8 3e
       0.3975284 0.30668676 0.2661803 0.45476222
0000d0 45 39 86 3e c9 31 90 3e 1e 9a cd 3e 71 06 a9 3e
       0.26215568 0.28162983 0.40156645 0.33012727
0000e0 cf eb 73 3e 7c b0 9b 3e 21 2b dc 3e 07 08 89 3e
       0.23820423 0.30408084 0.43001655 0.26763937
0000f0 0b 63 68 3e 81 e1 b2 3e 6a cc 8b 3e 0b 79 64 3e
       0.22694032 0.3493767 0.27304393 0.22311799
000100 a1 02 94 3e 31 d9 a6 3e 2a d5 aa 3e 9a fb be 3e
       0.28908256 0.3258758 0.33365756 0.37301332
000110 17 3c 82 3e e9 ce 88 3e b9 80 89 3e 66 a6 88 3e
       0.2543647 0.2672036 0.2685602 0.26689452
000120 6b 43 5d 3e fb 58 b3 3e 87 6f a7 3e 69 d2 d1 3e
       0.21607749 0.35028824 0.32702276 0.40980843
000130 80 d2 6a 3e 9b 12 1c 3e 6b ed 75 3e 89 75 80 3e
       0.22931862 0.15241472 0.24016349 0.25089672
000140 75 98 a1 3e 1c 84 b8 3e ce 5b 96 3e 89 85 b5 3e
       0.31561628 0.3603829 0.29366916 0.35453442
000150 2f b0 cb 3e 79 6c 9a 3e 44 c1 62 3e 21 8e 87 3e
       0.39782855 0.30160883 0.22144037 0.26475623
000160 e2 6f b1 3e f4 9a 7a 3e 24 c6 80 3e ba 35 d5 3e
       0.34655672 0.24473172 0.2515117 0.41642553
000170 7a 8f 8b 3e 80 7e bf 3e 80 73 90 3e 65 7f 8b 3e
       0.272579 0.374012 0.2821312 0.27245632
000180 c2 48 0e 3f d9 c3 85 3e 3d 88 a3 3e 37 b0 cb 3e
       0.5557977 0.26125982 0.3193988 0.3978288
000190 a0 16 74 3e 98 cf 70 3e 16 aa d3 3e 32 c5 8f 3e
       0.23836756 0.2351669 0.41340703 0.28080136
0001a0 4a be 6d 3e 7f cc 8b 3e 17 0f a1 3e 31 30 b7 3e
       0.23217121 0.27304456 0.31456825 0.35778955
0001b0 83 a4 83 3e 40 dc b3 3e cd d5 90 3e 93 3d a0 3e
       0.2571145 0.35128975 0.28288117 0.31296977
0001c0 2c c2 8c 3e ce 10 af 3e bb 94 af 3e c5 da a4 3e
       0.2749189 0.34192508 0.3429316 0.32198158
0001d0 e7 15 60 3e 5c 20 c2 3e 4c 4b aa 3e 2b b9 bc 3e
       0.21883355 0.37915313 0.33260572 0.36860022
0001e0 68 0f e5 3e 6c 7e 85 3e e4 bc 76 3e 84 e8 9b 3e
       0.44738317 0.26073015 0.24095494 0.30450833
0001f0 2d fb 88 3e f7 14 bd 3e 14 1a e1 3e f2 c8 aa 3e
       0.26754132 0.36930057 0.4396521 0.33356434
000200 76 d6 e7 3e 8a 76 8d 3e 83 d1 a0 3e a5 18 8b 3e
       0.45280808 0.276295 0.31409845 0.2716724
000210 3d eb 92 3e 0b b7 82 3e 4d e5 ab 3e f5 9b 72 3e
       0.28695098 0.25530276 0.3357338 0.23692305
000220 df 7f 92 3e 52 9e 93 3e 7e fb a6 3e ba 85 5f 3e
       0.28613183 0.28831726 0.32613748 0.21828356
000230 e5 14 c7 3e 2b 6b 69 3e e8 20 8f 3e 6e af 83 3e
       0.3888313 0.22794788 0.27954793 0.2571978
000240 95 1e 87 3e bc 33 88 3e 0c 72 ed 3e 94 0d 99 3e
       0.2639052 0.2660197 0.46376073 0.29893172
000250 d7 f1 98 3e 27 c6 94 3e b3 e1 9b 3e a7 49 bf 3e
       0.2987201 0.29057428 0.30445632 0.3736088
000260 40 5c 93 3e 63 71 ac 3e 62 a0 88 3e 95 4b b2 3e
       0.2878132 0.33680257 0.26684862 0.3482329
000270 6d 81 c6 3e 4c 89 81 3e a4 0c c3 3e e0 a8 a7 3e
       0.3877062 0.25300062 0.38095582 0.3274603
000280 c4 eb 99 3e 45 11 9e 3e e0 49 8c 3e 6c d7 b3 3e
       0.30062687 0.3087255 0.27400112 0.3512529
000290 9f e7 87 3e 0b a5 ab 3e 30 52 a1 3e 9b bb 80 3e
       0.265439 0.33524355 0.31508017 0.25143132
0002a0 25 21 9b 3e 67 4e d4 3e 26 e6 a2 3e 68 29 7a 3e
       0.30298725 0.41466066 0.31816214 0.24429858
0002b0 bf e8 cb 3e 7e eb aa 3e a0 b0 73 3e bb 49 ec 3e
       0.3982601 0.3338279 0.23797846 0.46150002
0002c0 69 7e af 3e 51 5d 4d 3e 6d 54 8d 3e 50 15 9c 3e
       0.3427613 0.20055129 0.27603474 0.3048501
0002d0 ec c3 a3 3e d5 93 e5 3e 2c 35 b2 3e 63 da b4 3e
       0.31985414 0.4483935 0.34806192 0.35322866
0002e0 e3 82 8d 3e dd 2b 04 3f e7 d2 9a 3e e4 2c b2 3e
       0.2763892 0.5162943 0.3023903 0.34799874
0002f0 36 a4 6f 3e c6 79 6c 3e d0 02 8a 3e 85 38 cc 3e
       0.23402485 0.23093328 0.2695527 0.3988687
000300 39 e5 94 3e b7 19 a4 3e fb ce 9c 3e 24 fe ec 3e
       0.29081133 0.3205087 0.30626664 0.46287644
000310 ae 58 80 3e 81 57 7a 3e 56 d4 9d 3e f3 8c b1 3e
       0.25067657 0.24447443 0.30826062 0.34677848
000320 6d c6 85 3e 4e 57 6f 3e c0 99 bd 3e 20 b7 9d 3e
       0.2612795 0.23373148 0.37031364 0.30803776
000330 b1 d1 ad 3e 8c 8a a0 3e 72 96 d7 3e 65 09 c5 3e
       0.33949044 0.31355703 0.42106968 0.3848373
000340 9f 93 93 3e f1 7c af 3e a5 fc 8c 3e 51 e5 a7 3e
       0.28823563 0.3427501 0.27536502 0.32792142
000350 4e 38 9b 3e 70 0e d8 3e ae 36 c6 3e a1 51 8e 3e
       0.30316395 0.42198515 0.38713592 0.27796653
000360 68 bf c5 3e 17 82 7e 3e 2b 73 6c 3e 43 1b c6 3e
       0.38622594 0.24854313 0.23090808 0.38692674
000370 68 b7 e8 3e 27 08 8c 3e bb bf 46 3e 5b 7e 9c 3e
       0.45452428 0.2734997 0.19409077 0.30565152
000380 ef 92 9a 3e 2f f8 a2 3e 4a 52 89 3e 1e ad 89 3e
       0.30190226 0.31829974 0.26820594 0.2688989
000390 ff 1c b8 3e 4c 51 9f 3e f3 4d 8d 3e f2 98 ca 3e
       0.35959622 0.31116712 0.27598533 0.39569813
0003a0 87 c7 73 3e 0b 5c 98 3e 48 43 8e 3e 56 b7 b4 3e
       0.23806582 0.29757723 0.27785707 0.35296124
0003b0 2c 92 c7 3e 21 44 a8 3e 07 2d c2 3e 75 a2 95 3e
       0.38978708 0.32864478 0.37924978 0.29225507
0003c0 4d 53 16 3f c5 1a b2 3e ff 9d 89 3e fc 62 4f 3e
       0.58720857 0.3478605 0.26878354 0.20252603
0003d0 e0 f9 cb 3e 11 26 96 3e 39 da a6 3e 01 67 17 3f
       0.39839077 0.29325917 0.32588366 0.59141546
0003e0 b4 69 64 3e a0 6f a3 3e f7 d8 81 3e 92 e9 83 3e
       0.22305948 0.319211 0.25360844 0.25764138
0003f0 38 12 a7 3e 6b 0f a6 3e 7e a8 bd 3e a8 f0 7b 3e
       0.32631087 0.32433638 0.37042612 0.24603522

network.4.weight f4 [256, 512]
000000 29 43 b7 bb ac ff 81 bc bd 7c 4e 3d 1c 88 48 bd
       -0.005592723 -0.015868984 0.05041193 -0.04895793
000010 0a d9 fd bc 1d 57 07 3b cd 12 be bc df 7e b3 bc
       -0.030987281 0.0020651289 -0.023202324 -0.021911083
000020 ab 4f d9 bc 58 db 52 bd 4e 2c 0c 3d b5 eb 5f bc
       -0.026527246 -0.051478714 0.03422194 -0.013667037
000030 3f 19 a2 3c 01 9e 30 3d 37 9e 91 3c b6 e7 0f 3c
       0.019787429 0.043119434 0.017775638 0.008783272
000040 33 21 73 3a 61 8f 9f bc 87 0c 7b 3c ae 45 cf 3c
       0.00092746614 -0.019477548 0.015322811 0.02530178
000050 1d d1 b3 3c e0 01 10 bd 09 61 ee 3c be 0d 62 3b
       0.021950299 -0.03515804 0.029099004 0.0034493054
000060 4b e2 02 bd e9 37 f3 3c 46 0f 4c 3c 0b 33 df 3b
       -0.03195409 0.029689746 0.012454813 0.0068115047
000070 e2 18 1d bd ab 4c c2 bb 06 9a 51 bd 62 2f 39 3b
       -0.03835381 -0.0059295497 -0.05117228 0.0028257002
000080 6c 34 ea 3c 66 6a f1 bb e7 ec 8c 3c 3b b7 44 bd
       0.02858945 -0.00736742 0.017202808 -0.048026305
000090 ed 9f cd bb b0 1f cb bc 62 7d f3 3c ed e3 7d ba
       -0.006275168 -0.024795383 0.029722873 -0.00096851477
0000a0 c8 49 66 bb 47 91 0b bd f0 1f a7 3b 86 b7 f6 bc
       -0.0035139192 -0.034074094 0.005100243 -0.030116808
0000b0 d2 5a f8 bc 28 ff 09 bd 4b 4c 4a 3c 26 72 5e 3c
       -0.030316744 -0.0336906 0.012347291 0.01357702
0000c0 d8 25 3c 3d 2c 7c 02 3d 30 fa 36 3c 19 29 4d bd
       0.045934528 0.0318567 0.011168048 -0.050088022
0000d0 58 c0 e7 bc 33 af 48 bd 10 07 09 3c 78 a7 10 3d
       -0.028289959 -0.048995208 0.0083635 0.03531596
0000e0 2a 59 92 bd b8 02 5f 3d 83 35 9d bc 08 f0 d7 3c
       -0.07145913 0.054445952 -0.019190555 0.026359573
0000f0 84 ac 09 bb 10 de e4 bb af 8a 85 3c f2 f0 45 3d
       -0.0021007368 -0.0069844797 0.016301481 0.048325486
000100 f7 8a c1 bc d1 09 c9 3b 32 b6 95 3c d6 3d 09 bd
       -0.023625834 0.0061352034 0.018275354 -0.033506237
000110 b2 b0 b8 3c 92 1b 9a 3c 6a b2 9d 3c 49 79 6f bc
       0.022545192 0.018811975 0.019250114 -0.014616319
000120 9d 0e 95 3b 93 88 1c bd c2 fb 5c bc 57 5c 53 3c
       0.004548861 -0.038216185 -0.013487758 0.0129004335
000130 cc 74 34 bd 79 2d 19 3d c1 3b 2d bd 60 0e 04 ba
       -0.0440567 0.03739688 -0.042293314 -0.00050375424
000140 ba 4e 10 bd 75 22 33 3c 7e ce f4 3a 9a 51 df 3c
       -0.03523133 0.010933508 0.0018677262 0.02726059
000150 37 78 c6 3c 00 3d 0b 3d b4 84 73 3c d5 c3 25 bd
       0.024227245 0.03399372 0.014863182 -0.040469963
000160 49 9e 8b bc ab 16 47 3c 27 41 f3 3c 70 08 8f bc
       -0.01704325 0.012151401 0.029694153 -0.017460078
000170 36 03 ca bc 92 88 87 bc da f8 b3 bc 94 6e 85 bc
       -0.024659734 -0.016544614 -0.021969248 -0.01628808
000180 46 f2 46 3c cb 6a 04 bd 7d 96 1d 3d a0 8a eb bc
       0.012142723 -0.03232841 0.038473595 -0.028752625
000190 51 8b 90 3c 40 5a a4 b9 dc 15 31 bc 86 a6 41 bd
       0.017644556 -0.0003134776 -0.010808434 -0.04727795
0001a0 e7 ea c1 3c 8f 6f 93 3b 69 a5 15 3d 05 d4 19 bd
       0.02367158 0.004499383 0.0365347 -0.037555713
0001b0 f5 86 12 bc 4d 49 8c bc 2e 69 94 3c cc 88 20 3c
       -0.008943309 -0.017124796 0.01811656 0.00979824
0001c0 32 d4 0f 3c 13 38 43 3d e5 97 75 bc 72 09 04 3d
       0.008778619 0.0476609 -0.014989828 0.03223557
0001d0 5a d9 04 bd b3 4f e0 bb 07 de dc bb 10 64 2b 3d
       -0.032433845 -0.0068454384 -0.006740335 0.041843474
0001e0 31 d9 b6 bb ef f3 18 3d 9b 84 91 bc ae 63 11 bc
       -0.0055800905 0.03734201 -0.017763427 -0.008873863
0001f0 a7 e5 64 bd 4c e1 6c bd 3a 90 10 bd ad 2c 53 bd
       -0.055883076 -0.057832047 -0.035293795 -0.051556278
000200 b8 41 06 bd 5e 8f f2 3c f7 01 c7 bb a9 4a f9 bc
       -0.032777518 0.029609378 -0.0060732323 -0.030431109
000210 e1 58 86 bc 0a bd b0 b8 c3 8c 01 bd 51 71 f0 bc
       -0.016399803 -8.427545e-05 -0.03162838 -0.029350908
000220 18 07 98 bc 90 e8 fe bc 2c 21 ec bc 33 aa e5 3c
       -0.01855807 -0.031116754 -0.028824411 0.028035259
000230 66 7a 69 bd 87 c4 84 bc 33 6a fd bc 8c 78 3c 3c
       -0.057001494 -0.016206993 -0.030934429 0.01150335
000240 0f 46 93 bc 1f a5 95 bc 8f 89 2d bd 17 e6 cf bc
       -0.017977742 -0.018267212 -0.042367514 -0.02537827
000250 a0 24 d3 ba 5c 7a aa 3c f8 12 34 bd ef 08 71 3d
       -0.0016108938 0.020810299 -0.043963403 0.05884641
000260 71 57 ae 3c 04 98 11 3d 1f 16 ad 3c 86 50 39 3d
       0.02128193 0.035545364 0.021128712 0.04524281
000270 8d 3b 0d 3d cf cc 8d bc f3 c9 09 3d 11 44 39 3d
       0.03448062 -0.017309574 0.03363986 0.04523093
000280 fc 4f 69 3c 5f be fd bc 37 26 13 bd 5d 0e ed 3c
       0.014240261 -0.030974565 -0.035925116 0.028937513
000290 8c 1a 02 bd 07 61 6c bc 3d 28 96 3c 1e a5 e9 3c
       -0.0317636 -0.01442743 0.018329734 0.028521117
0002a0 35 95 16 3d 42 b6 42 3b 94 0d 31 bc a3 35 fa bc
       0.03676339 0.0029710685 -0.01080646 -0.030543154
0002b0 a2 e7 a9 bc 35 42 09 3d 1f 28 ea bc 55 73 37 3d
       -0.020740334 0.033510406 -0.028583584 0.044787724
0002c0 de ac 81 b9 6e 3a 20 bd 35 3d 93 bb 42 0b 14 bd
       -0.00024733593 -0.039118223 -0.0044933804 -0.03614355
0002d0 59 4f dc 3c d8 8c a6 3c c4 ac f2 3c 4f 37 13 bc
       0.026893305 0.020330831 0.029623397 -0.008985355
0002e0 47 24 18 bd f4 77 99 3b df d7 67 3d 82 2c 37 3d
       -0.03714397 0.004683489 0.056602355 0.04472018
0002f0 9a 7f 6b bb d0 c9 10 3c 92 f0 2b bd 25 6e 07 3d
       -0.003593421 0.008837178 -0.041977473 0.033064026
000300 e2 6b b5 bc 1e 58 1c 3d 5f 81 08 3d 93 bd 2f 3d
       -0.02214617 0.038169973 0.033326503 0.0429054
000310 03 57 98 3c 28 c7 5c bd ad aa c6 bc 24 04 c6 bb
       0.018596178 -0.053900868 -0.024251306 -0.006042974
000320 26 ca d1 3c 5f 86 af 3b af 99 e0 bc e8 d7 bb ba
       0.025609087 0.0053565945 -0.027417032 -0.0014331313
000330 15 e3 34 bc 4b 64 6b bc b5 80 4d 3c 7b aa f3 3c
       -0.011040469 -0.014367173 0.012542893 0.029744377
000340 57 f6 2a 3d 01 23 4d 3b c1 55 fd 3b a6 f8 68 bd
       0.041738834 0.0031301382 0.00773117 -0.056877755
000350 e0 64 48 3c fb 2a 1a 3d 29 18 e3 3c a3 58 a8 bb
       0.012231082 0.037638646 0.027721481 -0.0051375194
000360 92 46 8b 3d 1f 87 00 3d e4 6f 03 3c ed 24 ab 3c
       0.068005696 0.03137886 0.008022282 0.020891631
000370 19 5f 67 bc 18 b3 2c 3d b3 d2 21 3d c5 54 e0 3c
       -0.014121794 0.042162985 0.03950758 0.027384171
000380 0d 48 3e 3d 50 e2 fb 3c f4 24 08 3d 9d 8b 06 bd
       0.04645543 0.030747563 0.033238366 -0.03284799
000390 45 eb 16 bd c8 3b af bc c2 d8 7e 3c 63 c9 a8 3c
       -0.036845464 -0.02139081 0.015554609 0.020603841
0003a0 e6 7d 60 3d 1c 75 95 3c 8a 0c 56 bd f2 37 49 3d
       0.054807566 0.018244319 -0.052258052 0.04912562
0003b0 3d 69 0f bd d0 05 1b 3b 9d ad 12 bc d1 01 7d 3c
       -0.035012472 0.0023654588 -0.008952525 0.015442328
0003c0 dd ae 4d bc 88 6d 31 3c fa 8a 39 3d bb ef ec bc
       -0.012553898 0.010829337 0.045298554 -0.028922906
0003d0 b3 77 ac bc 26 36 d8 3b 99 4d ad 3c 00 20 89 3c
       -0.02105317 0.006598252 0.021155166 0.016738892
0003e0 ee d4 56 bd d0 09 cc bc 98 04 3e 3c 82 8a 13 3d
       -0.05244916 -0.024907023 0.011597775 0.036020763
0003f0 70 32 33 bd e0 e9 25 bd 87 1d 13 bc 4e 6d 15 3d
       -0.043749273 -0.040506244 -0.008979208 0.036481194
