wandb/run-20251108_170258-27mob7za/files/best_model.pth (torch, 29461 bytes, 5 tensors)

network.0.weight f4 [64, 70]
0.08393425 0.07700912 -0.120555945 -0.0019295083 0.016317794 -0.020848958 -0.11485272 -0.031374652
0.035486117 0.037777096 0.12273398 -0.16431162 0.2294229 -0.118375875 0.08277578 -0.0083923405
-0.032146204 0.079629846 0.025045728 -0.13095535 0.052691743 0.11178952 0.043651626 0.0505531
0.011369564 -0.123034246 -0.0741485 -0.061587505 0.060016494 0.10062664 -0.123693794 0.045720056
0.020217698 0.0056360494 0.007880872 -0.031614743 0.07584822 -0.08198029 -0.0009238499 -0.09982698
0.038700182 -0.019038524 -0.031979475 0.09392557 0.078881845 0.07641317 0.050732076 -0.029148443
0.08501859 0.00967363 -0.02363976 -0.014910843 0.020651761 -0.0757146 -0.002706559 0.15967277
0.17270358 0.0117815295 0.011647781 -0.06788327 0.07864657 0.052767966 0.09023061 -0.03440374
-0.057676397 0.030150546 -0.10161657 0.10831006 0.084059805 0.18385081 -0.04151741 -0.10220287
0.037907682 0.07835014 0.008690784 -0.03649972 0.11251974 0.070792265 0.15011768 -0.008923734
-0.056829423 0.045565117 -0.002145472 0.15188445 0.04368924 -0.06837197 -0.04966546 0.11374616
0.049735624 -0.0890511 -0.009900962 -0.018225932 -0.04982784 0.017999131 -0.07846042 0.032213148
0.11104724 0.026713656 0.048007745 0.10260509 0.010807918 0.040356483 0.13833252 -0.074865155
0.06999191 -0.032440253 0.02502502 -0.09162721 -0.034359094 -0.0058927713 0.1350396 0.13002907
0.0547843 -0.06248037 0.0218456 -0.12497045 0.00592655 -0.030434761 -0.027221696 0.012777599
0.009700279 -0.09782473 -0.06686886 0.050876748 0.025388326 -0.041456055 -0.05263923 -0.065778434
-0.0020442177 0.002514137 -0.14703165 0.082306616 -0.14677198 0.043923125 0.06149314 -0.10217076
-0.057025325 -0.02892509 -0.17200851 -0.1276932 0.004576874 -0.081751734 0.085804276 -0.0126567045
0.090210244 0.0137602575 0.056541067 -0.11189089 -0.029029148 0.0573849 0.15843156 0.032670457
-0.026516443 0.003476204 0.059616987 -0.06796239 0.008783263 -0.1647271 0.09870102 -2.4574223e-05
-0.0911941 -0.058743056 0.09314219 -0.070594996 0.0037791855 0.007918303 -0.05568032 0.11676668
-0.0919611 -0.2350447 -0.1243499 -0.15939328 -0.06478425 -0.077374235 -0.11081205 -0.048516404
0.15834889 -0.009820715 -0.069229476 -0.06277632 -0.080182925 0.00969639 0.013182145 -0.01678085
-0.124251254 0.087608755 -0.14716014 -0.0024027592 0.069301575 -0.017336963 0.073128454 0.0069663757
0.029464768 -0.041964464 -0.112141155 -0.09939672 -0.17880481 -0.056085832 -0.08222784 0.003156559
0.1607416 -0.0006976009 0.03824399 -0.016061166 0.06231419 0.050020188 -0.030162213 0.042972755
0.05808732 -0.04546322 -0.08378001 -0.07632472 -0.06371597 0.09789975 0.06108683 0.07245238
0.11285624 -0.1394436 -0.03338071 0.023015186 0.21223162 -0.060337532 -0.19959506 -0.09735611
-0.061546724 -0.17002748 0.07683666 -0.16354582 0.06021071 0.09797758 -0.016155021 -0.030960288
-0.0027970755 0.08117444 -0.04350558 -0.05944375 0.11035009 0.07340332 -0.0078124804 -0.048572768
-0.018599223 -0.10087737 -0.10126258 -0.08517104 0.001080579 -0.05747441 -0.07135114 0.042854484
-0.10743197 0.08248845 -0.022954494 0.015721573 0.0784766 -0.09313625 0.09252753 0.00048264713
00000000: b8e5 ab3d f5b6 9d3d 09e6 f6bd 8ee7 fcba
00000010: e5ac 853c 6fcb aabc e737 ebbd b582 00bd
00000020: e459 113d 28bc 1a3d f45b fb3d 4e41 28be
00000030: d6ed 6a3e 0d6f f2bd 5986 a93d 0780 09bc
00000040: bdab 03bd f914 a33d b32c cd3c 2919 06be
00000050: 4cd3 573d e7f1 e43d 0ccc 323d c410 4f3d
00000060: 6847 3a3c 61f9 fbbd 2bdb 97bd 2e43 7cbd
00000070: dbd3 753d 5715 ce3d 2c53 fdbd f444 3b3d
00000080: 969f a53c 9cae b83b c61e 013c 767e 01bd
00000090: 5056 9b3d 48e5 a7bd 842e 72ba 1672 ccbd
000000a0: 1584 1e3d aef6 9bbc e9fc 02bd 0d5c c03d
000000b0: ce8c a13d 827e 9c3d 70cc 4f3d b7c8 eebc
000000c0: 3a1e ae3d 257e 1e3c 2ca8 c1bc 9c4c 74bc
000000d0: e22d a93c 4210 9bbd 8660 31bb 4281 233e
000000e0: 35d9 303e 5107 413c 56d6 3e3c 6206 8bbd
000000f0: 7411 a13d 3923 583d d3ca b83d f0ea 0cbd
00000100: 163e 6cbd 47fe f63c 591c d0bd aad1 dd3d
00000110: 8c27 ac3d 6343 3c3e 290e 2abd bd4f d1bd
00000120: 1645 1b3d 0a76 a03d ca63 0e3c bb80 15bd
00000130: c070 e63d 89fb 903d 73b8 193e da34 12bc
00000140: f8c5 68bd 7da2 3a3d 0c9b 0cbb 9987 1b3e
00000150: 7df3 323d 9a06 8cbd 026e 4bbd bff3 e83d
00000160: 95b7 4b3d 6c60 b6bd a537 22bc 8d4e 95bc
00000170: 4718 4cbd ea72 933c dbaf a0bd eff1 033d
00000180: bc6c e33d 99d6 da3c c5a3 443d 9e22 d23d
00000190: b213 313c d74c 253d 0aa7 0d3e e752 99bd
000001a0: eb57 8f3d 12e0 04bd 4501 cd3c 0ca7 bbbd
000001b0: 1fbc 0cbd 2618 c1bb d247 0a3e 5726 053e
000001c0: 8165 603d 6beb 7fbd 8bf5 b23c 82f0 ffbd
000001d0: 8133 c23b 5252 f9bc 0900 dfbc 2259 513c
000001e0: ebed 1e3c 5558 c8bd 8af2 88bd 2364 503d
000001f0: 2efb cf3c d3cd 29bd 3c9c 57bd d8b6 86bd
00000200: 48f8 05bb 38c4 243b 778f 16be 5f90 a83d
00000210: 654b 16be bce8 333d 3be0 7b3d e73e d1bd
00000220: 6393 69bd 4ff4 ecbc 0023 30be 02c2 02be
00000230: 9af9 953b 746d a7bd 27ba af3d 115e 4fbc
00000240: 26c0 b83d b472 613c 9b97 673d 0d27 e5bd
00000250: 89ce edbc 6e0c 6b3d e23b 223e 75d1 053d
00000260: 0339 d9bc 06d1 633b f130 743d de2f 8bbd
00000270: ade7 0f3c 39ae 28be c323 ca3d be24 ceb7
00000280: f9c3 babd 8f9c 70bd 55c1 be3d 1c94 90bd
00000290: 36ac 773b c5bb 013c 0c11 64bd 5e23 ef3d
000002a0: 1a56 bcbd 8faf 70be 29ab febd fe37 23be
000002b0: 9bad 84bd 6276 9ebd 6ef1 e2bd 23b9 46bd
000002c0: 3626 223e 10e7 20bc 2fc8 8dbd df90 80bd
000002d0: f236 a4bd 9bdd 1e3c ecf9 573c fe77 89bc
000002e0: 7177 febd 386c b33d 26b1 16be 9c77 1dbb
000002f0: fced 8d3d 3f06 8ebc 5fc4 953d 3246 e43b
00000300: 1960 f13c eee2 2bbd 43aa e5bd 8290 cbbd
00000310: 9c18 37be 42ba 65bd 1267 a8bd 46de 4e3b
00000320: 7299 243e 34df 36ba bba5 1c3d b592 83bc
00000330: 2a3d 7f3d f8e1 4c3d bf16 f7bc 3304 303d
00000340: f8ec 6d3d a437 3abd db94 abbd 2350 9cbd
00000350: 857d 82bd aa7f c83d 2f36 7a3d ea61 943d
00000360: 2c21 e73d 4eca 0ebe 36ba 08bd 588a bc3c
00000370: 3f53 593e 7d24 77bd a662 4cbe a462 c7bd
00000380: 6b18 7cbd af1b 2ebe 8a5c 9d3d 8e78 27be
00000390: 819f 763d 78a8 c83d 8957 84bc 6ea0 fdbc
000003a0: 244f 37bb c93e a63d e832 32bd 4a7b 73bd
000003b0: 3aff e13d 7b54 963d d6ff ffbb 3df4 46bd
000003c0: 665d 98bc cb98 cebd c162 cfbd 276e aebd
000003d0: 37a2 8d3a 496a 6bbd 8c20 92bd 2f88 2f3d
000003e0: 4b05 dcbd b4ef a83d 100b bcbc 87ca 803c
000003f0: 57b8 a03d 38be bebd 137f bd3d cd0b fd39

network.0.bias f4 [64]
0.03770794 -0.029941132 0.028571425 0.05019419 -0.0038895602 0.20890798 0.0663361 -0.02834541
0.00497602 0.101068705 -0.058565915 0.028164616 0.08827549 -0.07467672 -0.024043167 0.08922464
-0.049319312 -0.044899173 0.031662803 0.1697836 0.056324236 -0.036816783 0.03229686 -0.06335905
0.019399319 0.11233955 -0.06507454 0.08877377 0.031488337 -0.009409494 -0.066002086 0.06530634
0.07123583 -0.12359453 0.026754044 0.056031886 -0.06519181 0.020198911 0.02845425 -0.051745266
-0.14212142 -0.0031924262 -0.039680436 0.012879443 0.04345046 -0.059299633 -0.10686311 0.10034192
-0.1340903 0.06118985 0.008139085 0.09799425 0.03756065 -0.05127323 -0.09520366 0.037668105
0.06651816 0.122255296 -0.07327122 -0.081015006 -0.017386846 -0.052778356 0.17253225 -0.002001524
00000000: a473 1a3d 1b47 f5bc 9f0e ea3c 6c98 4d3d
00000010: fee7 7ebb f9eb 553e 39db 873d a234 e8bc
00000020: e20d a33b 1cfd ce3d d0e2 6fbd 7bb9 e63c
00000030: c8c9 b43d 1cf0 98bd 2df6 c4bc 68bb b63d
00000040: 0c03 4abd 32e8 37bd dbb0 013d c1db 2d3e
00000050: 3eb4 663d 32cd 16bd b649 043d 64c2 81bd
00000060: 52eb 9e3c 4712 e63d cd45 85bd 06cf b53d
00000070: eaf9 003d 472a 1abc 1a2c 87bd 55bf 853d
00000080: 17e4 913d 211f fdbd 4c2b db3c b181 653d
00000090: 4983 85bd 3078 a53c e318 e93c d8f2 53bd
000000a0: 4788 11be 0638 51bb f487 22bd 4d04 533c
000000b0: 1cf9 313d 2ce4 72bd 0cdb dabd 1180 cd3d
000000c0: f84e 09be 35a2 7a3d cc59 053c 36b1 c83d
000000d0: 32d9 193d e103 52bd 23fa c2bd df49 1a3d
000000e0: ac3a 883d fc60 fa3d 390f 96bd 32eb a5bd
000000f0: dc6e 8ebc 1e2e 58bd 4bac 303e 002c 03bb

network.3.weight f4 [32, 64]
0.033107206 -0.072811864 -0.096165836 -0.026416238 -0.15293902 -0.14719988 -0.15921406 -0.13504267
-0.022507932 0.109593704 0.048327994 0.014566043 0.0916836 -0.10556494 -0.2124532 0.1019923
0.010629924 0.10624238 0.033252474 -0.1556259 0.018471755 0.06832921 0.13786113 -0.02990076
-0.101189576 -0.041644193 -0.032634247 0.056653276 0.056179434 0.15181778 0.06691249 0.12703373
0.058353283 0.0110861035 0.03439329 0.041390933 -0.110540316 0.086679876 -0.0053350017 0.05699981
0.029965164 0.057894044 0.053499244 -0.041175246 -0.024989735 0.067948826 -0.10509837 0.14405678
0.031143991 0.07682539 -0.003904508 0.06837812 -0.12988926 0.06880392 0.13486533 0.035816167
-0.04417341 -0.02067472 -0.0012058581 -0.08124994 -0.1462114 0.035018772 -0.04837125 0.10694591
-0.12683818 -0.10680008 -0.18754572 -0.17388767 -0.0573347 -0.13475311 0.09995092 -0.04843011
0.05431093 -0.10440924 -0.0906833 -0.04666543 -0.11082663 -0.1555724 0.048609536 -0.13317339
0.060344554 0.028021963 -0.06259729 0.114601724 -0.053082798 -0.041943777 -0.06095092 -0.07528625
0.025799053 -0.17214754 0.058435436 -0.16809916 -0.08790445 -0.10386469 0.10588834 0.019830298
-0.037508823 0.071615115 -0.063563004 -0.099405356 0.0011255576 -0.12610917 -0.10134829 0.004239883
-0.10432738 0.050366417 0.068082675 0.08611968 0.010911177 0.046670604 0.062160444 -0.057177626
-0.008218397 -0.03505806 -0.06425066 0.011777392 0.06392331 -0.035483025 -0.00019020383 0.042394314
0.003930699 0.019988144 -0.08076293 0.08519148 -0.15835777 0.077155 -0.06348591 -0.119096115
0.049474478 0.0054664044 -0.17208414 -0.1529066 -0.118022926 -0.018621586 -0.088594176 -0.004916883
-0.16348667 -0.022895195 -0.03859541 0.024308296 0.07964169 0.037980735 -0.0407769 0.113884285
-0.04236874 0.025938597 -0.09415348 0.014331241 -0.015240292 -0.11292851 0.116757125 0.015971579
0.07345508 -0.04622868 0.010177016 0.04268944 -0.027990676 0.10598821 0.15205851 -0.005979875
0.027538083 -0.08231263 0.035066392 -0.07908637 -0.14923492 0.15992244 -0.03943423 0.06226373
0.07609788 -0.076689176 0.018670866 -0.10331934 -0.0802673 -0.08193877 -0.10273611 0.0013173553
-0.033131056 -0.09414603 0.1670077 0.119006164 -0.103420146 0.010352874 0.16282895 -0.00795697
0.0333238 -0.08463104 0.09203941 0.016571803 -0.10026926 0.057162523 -0.033720132 0.10708586
0.07932144 -0.11057455 0.027295118 0.00051071215 0.07126973 -0.08040555 -0.04229714 0.046850413
-0.020830438 -0.08062053 0.016260484 0.09632762 -0.08493949 -0.020645967 -0.0921852 -0.16773179
0.0077393996 -0.033284575 -0.14911611 -0.15965874 0.006051723 -0.08547225 0.014505363 -0.06396167
0.08922554 -0.1801962 -0.13468412 -0.09364177 -0.046192255 -0.07554482 -0.089286365 -0.12712336
-0.0806715 0.010780534 -0.007436104 -0.03582606 -0.006167249 0.051546372 -0.03726173 -0.15452363
-0.03828785 -0.14193696 -0.0032778208 -0.06768625 -0.14490864 -0.100708954 0.03973002 -0.064499095
0.05284468 -0.1185737 -0.06466791 -0.05189057 -0.10416931 -0.16353759 -0.13358933 -0.02765874
-0.066003814 -0.02810467 -0.099335074 -0.12798658 0.016217828 0.008767049 -0.07650751 -0.11299566
00000000: 6c9b 073d 631e 95bd 98f2 c4bd de66 d8bc
00000010: 0c9c 1cbe 91bb 16be 0309 23be a048 0abe
00000020: 8e62 b8bc aa72 e03d 93f3 453d 6aa6 6e3c
00000030: 9cc4 bb3d 6e32 d8bd 558d 59be 57e1 d03d
00000040: 2229 2e3c 9b95 d93d bf33 083d 655c 1fbe
00000050: 1452 973c 2ff0 8b3d 782b 0d3e 70f2 f4bc
00000060: 7b3c cfbd 1a93 2abd 7dab 05bd 440d 683d
00000070: 681c 663d 1f76 1b3e 6a09 893d 2115 023e
00000080: da03 6f3d 7da2 353c fadf 0c3d 8a89 293d
00000090: f662 e2bd 3885 b13d 3dd1 aebb a278 693d
000000a0: 8179 f53c 4e22 6d3d 0622 5b3d 60a7 28bd
000000b0: 46b7 ccbc c128 8b3d d03d d7bd 9f83 133e
000000c0: af21 ff3c a156 9d3d c6e2 7fbb d409 8c3d
000000d0: b101 05be 12e9 8c3d 231a 0a3e f9b3 123d
000000e0: 2def 34bd 085e a9bc e20d 9eba 5e66 a6bd
000000f0: 71b8 15be d86f 0f3d ef20 46bd 7506 db3d
00000100: dee1 01be 00ba dabd fc0b 40be 9c0f 32be
00000110: cad7 6abd b8fc 09be 11b3 cc3d a75e 46bd
00000120: 2375 5e3d 83d4 d5bd 2ab8 b9bd 4024 3fbd
00000130: 12f9 e2bd 5f4e 1fbe cb1a 473d 9b5e 08be
00000140: da2b 773d 518e e53c 0233 80bd 4fb4 ea3d
00000150: 596d 59bd 3dcd 2bbd aca7 79bd ad2f 9abd
00000160: 8958 d33c 7247 30be ff59 6f3d 3022 2cbe
00000170: 4007 b4bd 03b7 d4bd fcdb d83d 2673 a23c
00000180: daa2 19bd f2aa 923d 522d 82bd 0995 cbbd
00000190: 7287 933a c322 01be b18f cfbd b7ee 8a3b
000001a0: 98a9 d5bd 044d 4e3d ee6e 8b3d 845f b03d
000001b0: cbc4 323c ad29 3f3d f39b 7e3d 1633 6abd
000001c0: 75a6 06bc 0a99 0fbd da95 83bd f6f5 403c
000001d0: 39ea 823d a656 11bd 7471 47b9 a9a5 2d3d
000001e0: 18cd 803b 2dbe a33c 0967 a5bd df78 ae3d
000001f0: 8a28 22be 7103 9e3d e704 82bd aae8 f3bd
00000200: c0a5 4a3d 861f b33b d336 30be 8c93 1cbe
00000210: 01b6 f1bd 4c8c 98bc dd70 b5bd ce1d a1bb
00000220: 0d69 27be b48e bbbc 3816 1ebd 3122 c73c
00000230: 2f1b a33d b091 1b3d ae05 27bd 2a3c e93d
00000240: d88a 2dbd 2e7d d43c 8ad3 c0bd 95cd 6a3c
00000250: 6bb2 79bc 1047 e7bd 5c1e ef3d d4d6 823c
00000260: 9e6f 963d 495a 3dbd 80bd 263c 1fdb 2e3d
00000270: b44c e5bc 5910 d93d 3ab5 1b3e d4f2 c3bb
00000280: 8c97 e13c 8693 a8bd c7a1 0f3d 09f8 a1bd
00000290: 0ad1 18be b5c2 233e ca85 21bd 4108 7f3d
000002a0: 35d9 9b3d 370f 9dbd a5f3 983c 1799 d3bd
000002b0: 2f63 a4bd 84cf a7bd 4f67 d2bd 1cab ac3a
000002c0: 6eb4 07bd a2cf c0bd 1104 2b3e 81b9 f33d
000002d0: f1cd d3bd 1a9f 293c a2bc 263e f35d 02bc
000002e0: 897e 083d 0a53 adbd 287f bc3d 97c1 873c
000002f0: f859 cdbd 4023 6a3d 1f1e 0abd d54f db3d
00000300: 4773 a23d e974 e2bd 039a df3c 50e1 053a
00000310: ddf5 913d aaab a4bd c43f 2dbd 38e6 3f3d
00000320: 98a4 aabc 601c a5bd b534 853c 6a47 c53d
00000330: c1f4 adbd bb21 a9bc 98cb bcbd e2c1 2bbe
00000340: ca9a fd3b 6855 08bd e5b1 18be 957d 23be
00000350: 884d c63b 130c afbd e7a7 6d3c 56fe 82bd
00000360: e1bb b63d 5a85 38be a2ea 09be 42c7 bfbd
00000370: 1734 3dbd 3eb7 9abd c5db b6bd a02c 02be
00000380: 1937 a5bd d6a0 303c 90aa f3bb 59be 12bd
00000390: a216 cabb 4a22 533d c19f 18bd 713b 1ebe
000003a0: b8d3 1cbd ec57 11be b5d0 56bb 179f 8abd
000003b0: ee62 14be 7f40 cebd f2bb 223d 1a18 84bd
000003c0: aa73 583d c5d6 f2bd 9c70 84bd 358b 54bd
000003d0: b856 d5bd 6676 27be a4cb 08be 9594 e2bc
000003e0: 022d 87bd c43b e6bc 3070 cbbd ea0e 03be
000003f0: 40db 843c aba3 0f3c f8af 9cbd 456a e7bd

network.3.bias f4 [32]
0.06474008 -0.10249383 0.05040115 -0.009369375 0.016677814 0.04107165 0.03800862 0.08473126
0.075425096 -0.059696916 0.0074330433 0.1860649 -0.047250394 -0.04441072 -0.08755018 -0.01505926
0.07100671 0.013898065 0.16311584 0.043038186 -0.015608152 0.15533969 0.05591224 0.018158432
-0.044408992 -0.115974985 -0.16604105 -0.018820012 0.044307902 -0.06328012 -0.08153 0.07470357
00000000: 7296 843d 49e8 d1bd 7071 4e3d 0282 19bc
00000010: e99f 883c bf3a 283d edae 1b3d 9587 ad3d
00000020: 7978 9a3d c184 74bd e390 f33b cc87 3e3e
00000030: a189 41bd 04e8 35bd 824d b3bd 1dbb 76bc
00000040: f76b 913d b6b4 633c d707 273e cf48 303d
00000050: 56b9 7fbc 5e11 1f3e 3c04 653d fec0 943c
00000060: 34e6 35bd 4b84 edbd aa06 2abe 6d2c 9abc
00000070: 347c 353d 0299 81bd 33f9 a6bd 2ffe 983d

network.6.weight f4 [1, 32]
0.13336606 0.038510963 0.062890925 0.018810073 -0.15652508 -0.1418632 -0.010127505 -0.10081333
0.15657775 0.13284296 0.18696776 -0.11895267 -0.19711149 0.0884949 0.09724982 -0.08324909
0.17834629 -0.09464135 -0.15744233 0.08834563 -0.1760851 -0.14112996 0.08450398 -0.09753296
0.16123249 0.06987053 -0.026083166 -0.09916715 -0.15454333 0.090815075 0.039021734 -0.12430647
00000000: 1d91 083e acbd 1d3d f5cc 803d 9517 9a3c
00000010: 1c48 20be 9644 11be d6ed 25bc 3877 cebd
00000020: eb55 203e fc07 083e 7a74 3f3e 759d f3bd
00000030: 98d7 49be d03c b53d ea2a c73d 807e aabd
00000040: 69a0 363e 53d3 c1bd 9038 21be 8eee b43d
00000050: a74f 34be 5f84 10be 6c10 ad3d 5cbf c7bd
00000060: 211a 253e 4818 8f3d 5dac d5bc 2618 cbbd
00000070: 9b40 1ebe 41fd b93d 41d5 1f3d 6494 febd
