projekt1/wandb/run-20251109_185342-t86yjod3/files/best_model.pth (torch, 860297 bytes, 25 tensors)

network.0.weight f4 [512, 70]
00000000: d7e0 af3d f85c c13d 6b1e e8bd e302 6ebd
00000010: 9cb5 353c 65d1 d1bd e7ba 15be 4db0 86bd
00000020: 25c5 cd3d 468c 8e3d a9e7 803d 98aa f8bd
00000030: a9d2 dc3d 0873 39be b6e0 183d 0132 f4bd
00000040: 5884 263b bf83 9ebd cfce 93bc 4cd1 83bd
00000050: 6320 383d 8094 8f3d 4651 043e 58f9 8e3d
00000060: bdea 0d3e 6e99 f03c 9b1f 8dbd cc44 8f3d
00000070: 60bb e73d fac3 b1bc 3b81 0cbe 7221 0b3e
00000080: fe9b 98bd e409 693c bdfd eebd 247c 30bb
00000090: 3653 a1bc f67c 2abe 5a82 82bd 949e 2dbe
000000a0: 14ff 02bd c14d 9f3c 93e2 0dbe 92bf 02bd
000000b0: 015a 053e 364a be3b 6ec7 9a3c 5201 87bd
000000c0: 9128 96bd f02d 7ebd 822c d0bd 5171 f9bd
000000d0: 8a11 57bd e202 ebbd 14fc b7bd d09a c53c
000000e0: 9375 3a3e 7f85 f03b abc4 c93c 5218 25be
000000f0: 4eb0 ee3d 9ab3 603b 669c 983d c50b 2cbe
00000100: 877a e7bd d161 c03d 5479 a8bc 9895 013e
00000110: c29c f13c 0033 8e3d 7fda fdbd 6159 c6bd
00000120: 117f aa3d bf3a 0f3e 3e48 db3d f1b5 49bd
00000130: 7613 5d3d 3706 453d 8bf6 0f3e e536 843d
00000140: 78fd a03b cd75 213e d706 09be ca2a 213b
00000150: be89 84bd c9e5 68be 0ed6 b4bd 6d13 32bd
00000160: 7583 b23d a8f1 0abe 7d69 073c 0c10 debd
00000170: fca7 23bc a447 af3c cdae 00be d430 b43c
00000180: 3cc1 623d a6bd be3d 75bc e33d 881c aa3d
00000190: 8a38 313d 88cf 453d a98c 143e 03ff f2bc
000001a0: dd86 e03d ffc1 dfbd b0ba e63d 7468 20be
000001b0: e494 efbc 2322 573d d3b0 0b3e 5308 283c
000001c0: 87b7 0c3e 5f1e b9bd 4483 0cbd 0cc9 b7bd
000001d0: 91f1 c73a 4cff 46bd 9c22 e1bd 52ba b9bc
000001e0: 6b45 c93d 5f75 30be fde1 6fbe 2408 a13d
000001f0: 12ba 933d bdf5 5abd a8fd 8dbd 075f d1bd
00000200: abee 70bc 1b82 f1bc e354 5bbd ef86 5e3e
00000210: 1733 1ebe 88d7 56bd 0203 e23d 30fe 823d
00000220: 3bbd 01be 7d75 bfbd c402 2abc 93df 50be
00000230: a5e4 0f3d 128e 91bd eb5e f63d 8f96 c3bd
00000240: 42df 083e c0d6 af3b af62 f83c 644a fbbc
00000250: 1ff5 c4bc 41b4 1e3d a787 043e 84a0 853d
00000260: 006a e73d 427a ddbc e00e 243e 8cb8 a43d
00000270: da59 423d 30d9 333d 876d 7e3d 03ef 0ebd
00000280: 79cc c6bd 8cc6 9ebd 6f9f a93d 04e6 5d3d
00000290: 4421 02be 9171 d13d e36c 24be 14a3 3f3c
000002a0: 50a6 d5bd 7826 f3bd 87e4 d7bd 7a90 03be
000002b0: 664e 8f3d b02e 70bd c63a 79bd 365c 91bd
000002c0: 5e45 453e c1e9 a0bd 243f c7bd 3d41 1cbd
000002d0: fa29 9dbd a39d 9dba 6caf a2bd d282 e0bd
000002e0: c520 27be 6928 303e efbe 00be d200 82bd
000002f0: 9fc1 773d a067 8dbd 202b 963d 3478 6e3d
00000300: 23a8 01bc 8bcc 39bd b8e0 48be 18d0 4fbd
00000310: 7b10 15be 0d34 80bd f9f1 02be bc95 2f3c
00000320: 8b42 3f3d ccff 773d 262f 36bc acc7 a1bd
00000330: 5919 313e ea0e 6dbd c759 013d 492d 65bd
00000340: 74e7 7e3d ad9c 3bbe a2f5 06be ee58 c9bd
00000350: 22f8 fbbd 5072 8c3c 195c 30bd ede3 68bd
00000360: be6e 113e eb34 2abe 3ac3 8e3c ebc6 1b3e
00000370: 4ffe 1f3d 2ca6 50be d215 08be f883 33bc
00000380: 70cd dab8 c6f9 bfbd 4675 2d3e 917f 7fbd
00000390: a9b6 363d ad2e 8f3d 89e4 0cbd ba84 e13d
000003a0: 6653 3cbd c8e9 b63d 0ca1 febd 50a5 1abe
000003b0: 043e b93d c4fc 6dbc 3fc1 31bd 952a 363e
000003c0: 2601 5d3d 13f7 45bc 1b3d a63d b77a 7e3c
000003d0: 9b04 0c3e bf4a f1bd adf4 26be ebf0 70bd
000003e0: 87b4 b4bc 10f9 323d 7ad1 7cbd 66c6 8f3d
000003f0: 1a3f 353e 42e5 b5bd 02f6 8a3d e6f1 aa3c
0.08587807 0.094415605 -0.11333927 -0.05810822 0.011090662 -0.10245017 -0.14622079 -0.065765955
0.10047368 0.06960349 0.06294186 -0.12141913 0.10782368 -0.18110287 0.037323676 -0.119236
0.0025408473 -0.07739972 -0.01804295 -0.064364046 0.04495276 0.07010746 0.12921628 0.06981152
0.13859077 0.029370036 -0.06890794 0.06995544 0.11315036 -0.021699894 -0.13721173 0.13586977
-0.07451628 0.0142235495 -0.116694905 -0.0026929462 -0.019692998 -0.16649231 -0.06372519 -0.16955024
-0.031981543 0.019446256 -0.13855962 -0.031920977 0.13022615 0.0058071865 0.018893924 -0.06592049
-0.07331956 -0.06205553 -0.10164739 -0.121798165 -0.05250696 -0.11475159 -0.08983627 0.024121672
0.18208914 0.0073401327 0.024629911 -0.16122559 0.11654721 0.0034286738 0.07451706 -0.16801365
-0.11302667 0.09393657 -0.020565666 0.12654722 0.029493693 0.06943321 -0.123951904 -0.096850164
0.08325017 0.13987254 0.107071385 -0.04924578 0.053973638 0.04810163 0.14058892 0.06455783
0.0049130283 0.15767594 -0.13381515 0.0024592155 -0.06471585 -0.22743906 -0.0882989 -0.043475557
0.0871648 -0.13568747 0.008264896 -0.108429044 -0.009988781 0.021396466 -0.12566681 0.02199594
0.055360064 0.09313516 0.1111993 0.08306223 0.04326681 0.04829362 0.14506783 -0.029662615
0.10963223 -0.10925674 0.112660766 -0.15664846 -0.029245801 0.05252279 0.13641672 0.010255891
0.13741885 -0.09038996 -0.034304872 -0.089738935 0.0015254488 -0.048583314 -0.10992929 -0.022671852
0.098276936 -0.17232274 -0.23426051 0.07862881 0.072132245 -0.05345701 -0.06933147 -0.10223203
-0.01470534 -0.029480984 -0.05354775 0.2173116 -0.15449177 -0.05245164 0.1103573 0.06396139
-0.12669842 -0.09348581 -0.010376636 -0.20397787 0.03513016 -0.07107176 0.12029823 -0.09550201
0.13366416 0.0053661764 0.030320494 -0.03067512 -0.024042664 0.038746122 0.12942372 0.065247566
0.11299515 -0.027035836 0.160213 0.08043012 0.04744897 0.043908298 0.062116172 -0.034895908
-0.09706969 -0.077527136 0.08282363 0.054174438 -0.12708002 0.10226739 -0.16057162 0.011696596
-0.10432112 -0.11872572 -0.10541635 -0.12848082 0.06997375 -0.058638275 -0.060847066 -0.07097666
0.19264743 -0.07857085 -0.0972884 -0.038148154 -0.07674022 -0.0012025129 -0.07943615 -0.10962452
-0.16321094 0.17202915 -0.12572835 -0.06347813 0.060487386 -0.069045305 0.07332444 0.058220103
-0.007913622 -0.045361083 -0.19616973 -0.050735563 -0.14557068 -0.06259928 -0.12787618 0.010716852
0.04669432 0.06054668 -0.0111196395 -0.078994125 0.17294826 -0.05787555 0.03157976 -0.05595139
0.06223245 -0.18321486 -0.13179639 -0.09831415 -0.12303187 0.017144352 -0.04305658 -0.056857992
0.14202401 -0.16621749 0.017427076 0.152126 0.039060887 -0.2037589 -0.13289574 -0.010956757
-0.00010433316 -0.093738124 0.16939268 -0.062377516 0.044607792 0.069913246 -0.034397636 0.11011644
-0.045977972 0.08931309 -0.12433061 -0.15102124 0.09045032 -0.014525596 -0.043397184 0.17789681
0.053956173 -0.012082833 0.08117124 0.015532187 0.13673632 -0.11781835 -0.16304274 -0.058823507
-0.022058738 0.043694556 -0.06172321 0.070202634 0.17699853 -0.08881618 0.067852035 0.0208673

network.0.bias f4 [512]
00000000: 39ab 44bd 4ce4 18bd 5a97 23bd 4192 e1bd
00000010: bd28 babc a032 de3d ee43 fa3c 7ecf a1bd
00000020: 5336 6bbd 4b63 57bd 2d09 553b f7d3 ca3d
00000030: 77ad 2abd 77d6 9abb 8956 4a3b 53d9 7f3d
00000040: 292c bf3c 4a77 8d3d 4813 8f3d 2306 cf3d
00000050: a48d 9abd 0f2e 833d 760b fdbc a357 113d
00000060: 2073 6f3d 8632 b63d 41ab 983b 32bc ad3d
00000070: 55f1 5ebd 282a 8d3d 5dc5 bbbd a881 d03d
00000080: d1a3 ddbd 11da a7bd 1014 a33a 8553 9c3d
00000090: 4555 c73d 5bd7 9cbd 60e6 8bbd 79d9 d3bd
000000a0: 0537 bdbd 51a8 e7bd 3679 bb3d 0fb6 e4bd
000000b0: 6219 ddbc 4ed1 5e3d 55c3 6a3d cb61 78bd
000000c0: 899a 9b3d 7ece 44bc 0be1 873c 64a7 683d
000000d0: 795e 4f3d cdc0 a4bd 2bc6 e23d 06cf fa39
000000e0: 03f5 a6bc 4c5d 813c a217 d73d c2d5 af3d
000000f0: aa20 df3c e3d9 ec3d a740 163d af28 8e3c
00000100: 4702 bf3c a4ee 39bd afce bf3d 7c4b c2bd
00000110: 0969 52bd f6f1 69bd 7780 b3bd b88f 4ebd
00000120: 031d ae3d 1df2 133d f41f b0bc ffda be3c
00000130: be1c e3bd fbaa dbbd 4e03 ee3d 0e18 0f3d
00000140: e20d 893d 97f0 bdbd 07d8 b2bd e65f 35bd
00000150: 8b71 5c3c f817 51bb 4304 023d c919 2a3d
00000160: 041d b2bd 084e de3d ea90 993c 280f 513d
00000170: 3b6c cebd a2d2 d23d a8f6 c9bb bf0a cebd
00000180: e422 95bc 70d4 1bbd 2703 e73d 8b1c 543d
00000190: 1b18 efbd 2d86 53b9 10dd 9e3d 5f15 c3bc
000001a0: 3ff3 7e3d 25e6 dfbc 4109 35bd 574c 81bd
000001b0: f2cb dd3d d57a 9d3d 3b0b e6bd 9c53 80bd
000001c0: fb4c 833d b42e 10bd bc92 a5bc 3ebb b03d
000001d0: 2abd a2bd aee7 debb 970d eabd c5a1 57bd
000001e0: 2de3 953c 8f37 353d a7b3 f3bc b367 0a3d
000001f0: 41c1 db3d 05f1 be3d 5c0a 87bd 5d0a 2d3b
00000200: 4d85 abbb fc0f ebbd f7b7 593d 6749 b73d
00000210: b3fb 84bd 9f21 a8bd 1ae6 d6bc 4af5 a13c
00000220: 6bd9 2d3d 092b 06bd d654 cf3d 3513 f0bd
00000230: 6268 1e3d 0d09 623d 676a d1bd 2e68 3ebd
00000240: 1966 41bb a483 563d 070a c63d b562 66bd
00000250: a1c2 ea3d a1e7 ccbd 2965 4a3d 5adf a0bd
00000260: cc12 163d dae9 64bd 112a 39bd c52f d8bd
00000270: 09ca c63d 4b4d 453d 7539 c23d a41e cabd
00000280: 2f4d 8cbd 4915 673d b16f a63d 4a2f 88bd
00000290: b37c ca3d 587b fe3b 1266 1abd fe51 c63c
000002a0: f8a9 76bd a60e be3d c2b7 2cbd 78ed 1f3d
000002b0: 0c5d 1cbd 246f c83c 807d 7b3d bd05 c2bd
000002c0: a900 01bd e906 18bc 100a 6b3d 5f42 483d
000002d0: 9b50 f0bd 386b 073d a676 ca3c 9c9a cdbd
000002e0: 547e dfbd 9d17 af3c 97c7 f5bd 90a7 54bd
000002f0: 7a8d 8b3d 0a88 8abd a100 723d e572 b53d
00000300: 7a5e 5abc b570 a33d 6a27 983d 46e1 18bd
00000310: f12c c3bb 46cc d1bd c20a aa3d 6ad2 a33d
00000320: 91e2 e1bc 47f4 b33c 3c05 c23d 5c02 833d
00000330: 416f ad3d a2be 993d 2121 85bd 0457 dabc
00000340: 05ab 53bc 8eaf 83bc 9391 aa3c 2128 4abd
00000350: 430d 933d f4aa 01bd 0477 973d 26e6 27bd
00000360: 4115 a73d 16a3 dbbd eac0 82bd d94e 4d3d
00000370: cd04 b23b fce9 b9bd 23d2 cbbb af98 7e3d
00000380: 6b7d 383c 936e a8bd 2012 233d e2e9 073d
00000390: 1f53 4839 1054 bdbd 33da 64bd 97e0 b23d
000003a0: 2384 18bc a235 a03c a301 b0bd 73df 92bd
000003b0: 9664 4d3b 022c 5abc 4ad1 e2bd d14c 8e3d
000003c0: b0fa 803d a8ea 56bd 208e e5bd a0e0 ebbd
000003d0: c3fa 203b 41c0 2f3c 5770 98bd e41d 00bd
000003e0: a462 683d d026 b03d 93da 4abd b583 7bbd
000003f0: 81e8 e33d 0997 86bd 5dc2 3b3d 7e48 a9bc
-0.048014853 -0.037327096 -0.039939262 -0.11014224 -0.022724504 0.108495 0.03054997 -0.07900904
-0.057424854 -0.052584928 0.003250669 0.0990371 -0.041669335 -0.0047252732 0.0030874333 0.062463116
0.023336487 0.06907518 0.069860995 0.10108592 -0.07546547 0.06405269 -0.030889254 0.035483968
0.0584594 0.08896355 0.004659087 0.08483161 -0.05442937 0.06892806 -0.091685034 0.1018098
-0.10822261 -0.0819589 0.0012441892 0.076331176 0.09733061 -0.07658263 -0.0683105 -0.10344214
-0.0923901 -0.11311401 0.091539785 -0.111675374 -0.026989643 0.054398827 0.05731519 -0.060640138
0.075978346 -0.012012122 0.016586801 0.05680026 0.050627206 -0.08044586 0.11072954 0.0004783796
-0.020380503 0.015791558 0.105025545 0.08585693 0.027237255 0.11564996 0.03668275 0.017353384
0.023316516 -0.0453936 0.09365594 -0.09487054 -0.0513697 -0.057115518 -0.08764737 -0.05043003
0.08501627 0.03611957 -0.021499611 0.023297785 -0.110894665 -0.10725971 0.11621724 0.03493505
0.06692101 -0.092744045 -0.0873261 -0.04428091 0.013454805 -0.0031905156 0.031742346 0.041528497
-0.086969405 0.10854727 0.018745858 0.051039845 -0.10079237 0.10294081 -0.006163437 -0.100606434
-0.018205114 -0.038044393 0.11279898 0.051785033 -0.1167452 -0.00020172512 0.07757008 -0.023813901
0.062243696 -0.027331421 -0.04419828 -0.06313389 0.10829915 0.07689444 -0.11232611 -0.06265947
0.06411167 -0.03520079 -0.02021157 0.086294636 -0.079462364 -0.0068025207 -0.11428373 -0.05264451
0.018296802 0.044242438 -0.02974875 0.0337903 0.1073022 0.093233146 -0.06593773 0.0026403882
-0.0052343966 -0.11477658 0.05315396 0.08949547 -0.0649332 -0.08209538 -0.026232768 0.019770283
0.042443674 -0.032755885 0.10123603 -0.117224135 0.038673766 0.055184413 -0.10225373 -0.046486072
-0.0029510318 0.052371636 0.09669881 -0.056246478 0.11462904 -0.10005117 0.04941288 -0.07855101
0.03663902 -0.05588708 -0.045206133 -0.10555986 0.09706504 0.048169415 0.09483615 -0.098691255
-0.06850659 0.056416783 0.08126772 -0.06649645 0.09887066 0.0077661686 -0.037694998 0.024209019
-0.06022069 0.09280138 -0.042167433 0.039044827 -0.038174674 0.024467058 0.061398983 -0.09473751
-0.03149477 -0.009278991 0.057382643 0.04889142 -0.11734124 0.033061236 0.02471478 -0.10039255
-0.10912767 0.021373564 -0.12000959 -0.051917613 0.06814094 -0.06764229 0.05908263 0.08859805
-0.013328189 0.079804815 0.07429393 -0.037324212 -0.005956285 -0.1024404 0.08302833 0.07999118
-0.027573856 0.021967066 0.09473655 0.063969344 0.084684856 0.075070634 -0.065004595 -0.02665282
-0.012919192 -0.016074922 0.020821368 -0.049354676 0.07180264 -0.031657174 0.07395747 -0.04099097
0.08158351 -0.107244655 -0.06384452 0.050124023 0.005432701 -0.09077832 -0.0062201186 0.06215733
0.011260371 -0.08224215 0.039812207 0.033182032 0.00019104451 -0.09244549 -0.055872153 0.08734243
-0.009308848 0.019556824 -0.08594062 -0.07171526 0.0031340471 -0.013316156 -0.11075075 0.06948245
0.06297815 -0.05246988 -0.11208749 -0.11517453 0.0024563528 0.010726989 -0.07443302 -0.031278506
0.056734696 0.08601153 -0.049524855 -0.061404902 0.11128331 -0.065717764 0.045839656 -0.02066445

network.1.weight f4 [512]
00000000: ef4b 753f 48d3 6a3f 3425 873f e09c 7e3f
00000010: 5a82 803f f417 693f cc8d 693f bdee 6b3f
00000020: a4b9 5d3f 334b 823f a496 883f c9e4 623f
00000030: 80a3 683f aa95 853f 6e5d 7f3f ef5e 803f
00000040: d05a 823f 6230 6d3f 532f 883f f18d 683f
00000050: c585 7c3f 3370 863f 7799 8f3f afd3 743f
00000060: 8126 793f b863 8e3f 6a3f 8a3f 916c 7a3f
00000070: 4e8f 873f 9955 723f 05f5 653f ef33 843f
00000080: 1d4e 793f 5c7a 853f adf4 853f fe61 753f
00000090: a53c 7a3f 0447 843f d282 8a3f 0e62 723f
000000a0: c70c 7b3f a7d3 613f b2bd 853f fa32 813f
000000b0: 003c 7e3f 86cd 7e3f 2777 7e3f d11a 803f
000000c0: 7e91 6d3f ef35 693f 7ece 623f 5073 753f
000000d0: 28d4 643f c7c7 863f 681a 713f f4dc 693f
000000e0: 6caf 7e3f 953e 823f 331a 893f 2eb1 813f
000000f0: 0916 813f c8ff 873f 45b6 683f c142 6a3f
00000100: 6268 793f 5cf1 813f 8b00 8c3f 4405 833f
00000110: 45f7 8b3f 7bfb 8a3f 760a 8d3f 2a1f 843f
00000120: b8bb 8d3f c73a 873f e6cd 793f 44f8 833f
00000130: 8ff0 803f 1c46 7e3f 7ff9 7c3f c08f 883f
00000140: 9cad 773f b0f8 7e3f fcad 7d3f 0ee5 863f
00000150: b554 7e3f bcb4 773f df23 763f 0914 783f
00000160: c598 903f 1eb7 803f 087d 733f 85c3 6e3f
00000170: c874 5d3f 3117 783f 3743 823f 2e81 8b3f
00000180: 52e6 863f 50e8 7d3f 44d0 733f 3362 7d3f
00000190: b5f3 883f 8dcf 823f 8251 743f 3032 853f
000001a0: c8fa 793f 7aeb 793f 5f7d 853f f3c3 823f
000001b0: 447f 8b3f fe8e 833f 3424 703f 614d 883f
000001c0: 7c97 803f 6e54 883f f3b7 6d3f 592e 8a3f
000001d0: c395 6d3f f3d5 813f fe5b 633f ab98 733f
000001e0: 3a03 823f 0edd 673f 3d95 623f 07e7 7c3f
000001f0: edd8 8c3f 7782 893f 79d9 823f 659b 853f
00000200: e34e 843f cbdb 753f c0c1 833f a19b 843f
00000210: 78ab 883f b314 813f 14cd 6d3f 0bad 783f
00000220: 8625 713f cd20 883f 91f5 823f 894d 733f
00000230: 6210 853f 5e96 7d3f d06f 6a3f a7fe 853f
00000240: d8aa 7e3f 2a91 833f 596f 813f 8dda 813f
00000250: 90c7 883f c676 5d3f bd8b 883f 1f7b 703f
00000260: 492a 7a3f 7d28 8c3f 3bc9 733f aefe 8b3f
00000270: 9ee8 6d3f bb58 633f a9c3 743f 26d3 843f
00000280: 047c 6c3f edba 8e3f 5306 7d3f 1a8f 803f
00000290: f407 853f 421d 893f 8ef8 713f ebd4 723f
000002a0: 4e42 733f f532 873f 2f6a 893f 1709 853f
000002b0: d144 6f3f 9627 6e3f acde 763f 783e 883f
000002c0: 7457 7f3f 3c9f 743f 0d4c 8d3f b6ac 533f
000002d0: 54a2 8a3f 1ef4 823f e1d9 893f ba5e 813f
000002e0: 9953 593f b736 833f 2f6d 883f ccf0 843f
000002f0: 47d3 853f ed2d 723f fc54 6f3f 6756 8b3f
00000300: 056f 7e3f 505a 863f f74c 833f 5ea9 803f
00000310: 4211 813f 2f5d 783f e594 813f 92ef 8b3f
00000320: d570 6b3f 0cc6 7e3f 360d 803f 318d 703f
00000330: c8fe 743f e4be 743f 2a12 7c3f ef63 653f
00000340: 01bf 883f 222c 7f3f 79cc 833f 6a77 863f
00000350: c6e9 703f 155c 863f 056a 8f3f a280 883f
00000360: 9ce3 8a3f 0fa6 803f aa98 7a3f 0f92 763f
00000370: 6820 763f 5dc0 7a3f a9b5 7e3f 78ef 773f
00000380: 588c 863f 0002 7e3f 2959 823f 9336 893f
00000390: ac87 753f b420 8f3f a721 553f 1724 703f
000003a0: c4a1 823f b373 813f c322 8b3f fc95 6c3f
000003b0: f721 773f acf4 813f d761 803f f4f4 633f
000003c0: 7e95 7a3f 71f5 873f 8ed8 5d3f ac19 873f
000003d0: 47b4 843f 6360 843f a36b 6a3f aaa5 803f
000003e0: 1f7b 8a3f 26db 833f 6882 893f 1b43 843f
000003f0: 613f 8f3f e55c 733f 41c7 833f 33de 703f
0.9581899 0.9172864 1.0558228 0.9945812 1.003978 0.91052175 0.9123199 0.9216116
0.8661139 1.0179199 1.0670972 0.8863035 0.9087448 1.0436299 0.9975194 1.0028971
1.0183964 0.9265195 1.0639442 0.90841585 0.98641616 1.050299 1.1218709 0.95635504
0.9732438 1.1124182 1.0800602 0.9782191 1.0590608 0.9466186 0.89826995 1.0328349
0.97384816 1.0427966 1.0465294 0.9585265 0.97748786 1.0334172 1.0821173 0.9468087
0.9806637 0.8821358 1.0448515 1.0093682 0.993103 0.99532354 0.9940056 1.0008184
0.9280013 0.9109792 0.8859633 0.9587908 0.89386225 1.0529717 0.9418092 0.9135277
0.9948642 1.0175349 1.071112 1.0132196 1.008485 1.0624933 0.9090312 0.9150811
0.974249 1.0151782 1.0937666 1.0235982 1.0934836 1.0857996 1.1018817 1.032201
1.1072912 1.0564812 0.975798 1.031014 1.0073413 0.9932573 0.988182 1.0668869
0.9674928 0.99598217 0.99093604 1.0538652 0.99348 0.96760154 0.96148485 0.9690557
1.1296622 1.0055883 0.9511266 0.9326709 0.8650632 0.9691039 1.0176762 1.0898798
1.0539038 0.99182606 0.95239663 0.98977965 1.0699373 1.021959 0.9543687 1.0405941
0.97648287 0.97624934 1.0428885 1.0216049 1.0898213 1.0278013 0.9380524 1.0648614
1.0046229 1.0650766 0.9285881 1.0795394 0.92806643 1.0143417 0.88812244 0.9515483
1.0157235 0.9057168 0.8850897 0.9879002 1.10037 1.074294 1.0222617 1.0438048
1.0336574 0.960385 1.0293503 1.0359994 1.0677328 1.0084442 0.9289105 0.9713904
0.9419788 1.063501 1.0231191 0.95040184 1.0395625 0.9905757 0.9157686 1.0468339
0.99479437 1.0278676 1.0112106 1.0144821 1.0685902 0.8650936 1.0667645 0.9393787
0.9772077 1.0949856 0.9522893 1.0937097 0.9293307 0.88807267 0.95611054 1.0376937
0.9237673 1.1150795 0.98837775 1.0043671 1.0393052 1.0712054 0.9451989 0.9485614
0.9502305 1.0562426 1.073553 1.0393399 0.9346438 0.93029153 0.9643352 1.0644064
0.9974282 0.9555547 1.1038834 0.8268541 1.0830789 1.0230749 1.0769616 1.0107033
0.84893185 1.0251073 1.065832 1.0385985 1.0455102 0.9460133 0.9348905 1.0885743
0.9938815 1.0496311 1.0257863 1.0051687 1.0083392 0.97017187 1.0123564 1.0932486
0.91969043 0.99520946 1.0004032 0.9396544 0.95701265 0.95603776 0.98465216 0.8960561
1.068329 0.99676716 1.0296775 1.0505192 0.9410671 1.0496851 1.120423 1.0664256
1.0850711 1.0050677 0.97889197 0.9631662 0.961432 0.97949773 0.9949594 0.96849775
1.051158 0.992218 1.018346 1.071978 0.95910144 1.1181855 0.83254474 0.9380507
1.0205617 1.0113434 1.0869983 0.9241636 0.965362 1.0152793 1.0029858 0.89045644
0.97884357 1.0621778 0.8665856 1.055471 1.0367516 1.0341915 0.9157049 1.0050557
1.0818824 1.0301254 1.0742922 1.0332979 1.1191217 0.9506362 1.0295182 0.9408905

network.1.bias f4 [512]
00000000: 7ae3 6cbd 422f 86bd 770b 7d3d 7416 9ebc
00000010: 9250 91bd 5192 74bd eaf7 3b3c 04c4 c1bd
00000020: 0672 05be a814 88bd e2c0 a5bb 343e 8ebd
00000030: b303 bebd 0850 4d3c 0113 4fbd d856 94bc
00000040: 1119 353a 5ac0 7bbd f6e4 a93d bafd 17bd
00000050: ce20 8b3d 90fc 173d a3e0 91bc e101 87bd
00000060: 4b20 88bc ce0d b73d 525b 123d 53d9 f5bc
00000070: ffea 663d b780 15bd b67a d4bd fe3e a43d
00000080: 7055 fabb 2470 bfbc cc56 aa3c 63f8 eabc
00000090: 5db8 39bc 7a09 f4b9 dcc4 8ebc e760 7cbd
000000a0: 8ddc 16be 2232 d9bd b347 6e3d ddab e83d
000000b0: 5f8d 5f3c 1ea6 b9bd 4eae 8f3d da3f 0ebd
000000c0: 7e9a b1bd 2980 e5bd 4143 d9bd 92c2 8ebc
000000d0: e0f9 c0bd 1408 b33c c8d3 bcbd e1c0 c5bd
000000e0: b1d9 6c3c 4a8d d7bb e8b4 c73c eb1a 003d
000000f0: 3ed0 78bb 5683 a43d 3c50 77bc 90cd d8bd
00000100: e284 5cbd 23fd b9bc 971a 303d 111d c93d
00000110: 2468 8dbb 07a4 81bd 2414 1bbc 681f adba
00000120: fbbf 633d 7e93 143d e079 ac3d b5bd 4bbd
00000130: 4ff4 41bc f952 6d3d dc55 20bc eceb 5fbc
00000140: 0239 0abd b5b8 85bd 967d c0bb 3abf ac3c
00000150: adf9 c03b d533 30bd 1705 8c3d bf32 d3bc
00000160: c264 c83d b1e3 91bc 5d75 a9bd bd5d f0bc
00000170: 811a 15be d00c ecbc ce3d 033d c282 243d
00000180: 4968 02bd bb35 cc3d fe6b 85bd 44dc 473d
00000190: 6a1e e7bc 18ac e4bd 0d4a 91bd 64b4 64bd
000001a0: e45c 0e3c 7c85 7cbb 1418 d13c d3af 57bd
000001b0: 3e5a b13d 5df0 5b3d 75b1 87bd 2311 443d
000001c0: ecf1 2d3c 96f6 713d e04a 9cbd af0d 6a3d
000001d0: c27d 9dbb 368c 67bd d33a dabd eb09 69bd
000001e0: 7cd9 9ebd e83a 96bd 032b aebd a660 f9bc
000001f0: 907d d33c 7aab a23d c3bd 363c 8193 05bc
00000200: 2747 24bd 2ede 1ebb 4cb0 bc3b 0ca7 a33b
00000210: 3cb5 2d3b ea97 3fbc 5dd3 8dbd 9cf1 e1bd
00000220: e2b8 0f3d 6182 7a3d 86a1 203c aa51 d3bd
00000230: a832 873d 1fed ea3c 37e8 36bd f300 50bd
00000240: 4193 aabd 7924 413d 5273 5cbc 660e 3fbd
00000250: 4b2b 2a3d 5332 3abc 092e 1a3d 6a5b 8dbd
00000260: 4cfe 85bd e763 353b c24b 79bd 228d 6d3d
00000270: f7ff fcbd f361 073d 3449 93bd 779e 103d
00000280: 7034 29bd 9806 ccbc 2695 07bd de28 a83c
00000290: b6cf 83bc e75e 853d 9def 1cbd e54f 2bbd
000002a0: ed7c 5dbd 981f 063e 18d7 2abc be7d 8c3c
000002b0: fd94 b5bd e8d2 35bd 8a87 f4bc 7bf8 3c3d
000002c0: b046 df3d c878 b9bd 62c5 90bd 03bf c3bd
000002d0: dfb4 9c3c 87cf 373d da11 c2bb a347 fcbd
000002e0: cd72 1cbe 1ccd 0abc e2b2 a13c fddb 903c
000002f0: 4f71 123b bbf6 afbd 5e69 8abd bc0e 223d
00000300: 6526 733c 1c7d a33c 8394 36bd 7c0a 2abd
00000310: 34d0 0e3d 845e e73a 0afe 253d d33f 9f3d
00000320: 2ee8 87bd 2414 05bd b22b 8bbd a29a 92bd
00000330: f10d abbd c336 9dbd 7f30 56bd 45b1 a3bd
00000340: fefa 283d e94b adbb 39c0 acbc a50a f03b
00000350: a826 11bd 84d8 a83d 88be 7f3d b2e0 c53c
00000360: 70dd 8c3d a5ae 48bd e2d8 ad3d d0e2 5f39
00000370: fa62 6fbd 8549 9f3d 9582 07bc 8eee 11bd
00000380: 4f34 40bd 9279 9abd 7aa3 d73c 1b7f ef3d
00000390: b321 00bd 64e7 dc3d cd27 a1bc b5cd 933d
000003a0: a967 1fbd 722d 39bd 8ecb 083e 53d2 d2bd
000003b0: 2aff d1bd 9dac 1abb 8f1c 23bd 6537 ebbd
000003c0: 426a 97bd d5e1 6a3d bd23 b3bd 0cbf 133d
000003d0: 525e 343d e4d1 d83d 8e5a b13c e5ff a8bc
000003e0: 6edd 963c 50a5 5d3d ec22 75bb bcbe 283d
000003f0: 879f e83d 4366 3fbb 099d 2dbc dccd 09ba
-0.057834126 -0.065519825 0.06177851 -0.019297816 -0.07095446 -0.05970985 0.011472682 -0.09461215
-0.13031778 -0.06644565 -0.005058394 -0.06945458 -0.09278049 0.012531288 -0.050555233 -0.018107817
0.0006908337 -0.061462738 0.08295624 -0.037107207 0.067933664 0.037106097 -0.01780731 -0.06592155
-0.016616961 0.0893818 0.03573162 -0.030010855 0.056376453 -0.036499705 -0.10374968 0.08019827
-0.0076395795 -0.023368903 0.020793341 -0.028682893 -0.01133546 -0.00046546367 -0.017427854 -0.06161585
-0.14732571 -0.10605265 0.058173846 0.11360905 0.013644545 -0.090648875 0.07015668 -0.034728862
-0.08672045 -0.11206085 -0.10608531 -0.017426763 -0.0942266 0.021854438 -0.092200816 -0.09655929
0.014456199 -0.0065781223 0.024378255 0.03127567 -0.003796592 0.08032863 -0.015094813 -0.10586083
-0.053837664 -0.022703713 0.042994108 0.09819997 -0.004315393 -0.06330114 -0.009465251 -0.0013208212
0.05560301 0.036273472 0.08421683 -0.049741466 -0.011838033 0.057940457 -0.0097860955 -0.013667088
-0.033745773 -0.06529371 -0.005874346 0.021087278 0.0058891387 -0.04301818 0.06836908 -0.025781034
0.09784843 -0.017808767 -0.082743384 -0.029341573 -0.14560892 -0.028814703 0.032041363 0.040163763
-0.031837735 0.09971186 -0.065147385 0.048794046 -0.028212745 -0.11165637 -0.07094202 -0.055836096
0.008689139 -0.0038531711 0.025524177 -0.052657913 0.086597905 0.053696025 -0.06625644 0.047867905
0.010616761 0.059073053 -0.07631469 0.057141956 -0.0048062513 -0.0565302 -0.10655751 -0.056894224
-0.077563256 -0.07335454 -0.085042976 -0.030441593 0.025816709 0.07942863 0.011153641 -0.008152843
-0.04010692 -0.0024241316 0.005758321 0.004994279 0.002650573 -0.011693934 -0.0692508 -0.110324115
0.035088427 0.061159495 0.009804135 -0.103183106 0.06601459 0.028677521 -0.04465505 -0.050782155
-0.08328868 0.047153924 -0.013455229 -0.04664459 0.041545194 -0.011364537 0.03764156 -0.069022015
-0.06542644 0.0027677955 -0.060863264 0.057995923 -0.12353509 0.033052396 -0.07191697 0.035307374
-0.041309774 -0.024905488 -0.033101223 0.0205273 -0.016090255 0.06512242 -0.03831445 -0.04182424
-0.054074217 0.1309799 -0.010427259 0.017149802 -0.08866308 -0.04439059 -0.029849786 0.046135407
0.109021544 -0.0905624 -0.07068898 -0.09557917 0.019129215 0.044875648 -0.005922538 -0.12318351
-0.15278168 -0.008471753 0.019738618 0.017683024 0.002234537 -0.08591982 -0.067583784 0.039564833
0.014840697 0.019957118 -0.044575226 -0.041513905 0.034866527 0.0017652069 0.040525474 0.077758454
-0.06636082 -0.03248991 -0.067954436 -0.071584 -0.083522685 -0.076764606 -0.052292343 -0.07992796
0.04125499 -0.00528859 -0.021087753 0.0073254877 -0.035437256 0.08244422 0.062437564 0.024154995
0.06878173 -0.04899468 0.08488633 0.00021351431 -0.058444 0.077776946 -0.008270879 -0.035627894
-0.046924885 -0.07542719 0.026323069 0.11694165 -0.031282138 0.10786322 -0.019672299 0.0721697
-0.038917217 -0.045209356 0.133589 -0.102940224 -0.10253747 -0.002360142 -0.039822157 -0.11485175
-0.07393314 0.057344276 -0.08747051 0.03607087 0.044035263 0.105869085 0.021649625 -0.020629833
0.018416133 0.054112732 -0.0037404848 0.041197523 0.113585524 -0.002920524 -0.010596522 -0.00052568107

network.1.running_mean f4 [512]
00000000: d710 0e3e bd9e 1fbe 530a 6dbd ac5d 3dbd
00000010: 2ac6 c0bd 40d9 023d bca3 223d bda0 21be
00000020: d613 d9bd b192 013c 3dd2 4c3d 87fe 183e
00000030: c140 0d3b e256 63bd b0e1 aebd 48a7 edbc
00000040: 2c92 d13b e8be b3bb 5b37 a5bc b0b6 1a3e
00000050: a400 d2bd 5591 2a3d 5d96 4fbd 4cb1 8bbc
00000060: fe3a 8abb dbb9 e03d f36e 233e 1350 2d3e
00000070: 88e1 edbc a7a4 17bd 7c4d 933d 003b 3e3e
00000080: 5199 82be c251 eebd 08db 56be e63a 04bd
00000090: e822 8fbd 220e 63bc f8f4 70bd 1e1e cdbd
000000a0: f604 49bd 888c 27be e57f 243e d62f f7bd
000000b0: 73e3 b83c 217b ce3d 39ef c6bd 769a a0bd
000000c0: c1c4 1d3e 88da aebd cf31 13bd de08 a43d
000000d0: db50 bebd 884c a4bd e019 fa3d 1c2a 81bd
000000e0: 9877 23bd c48c 403d 0ea6 533e dc8b 873d
000000f0: 0735 14bd c4aa 493e 5add 0e3d 8c0e bd3c
00000100: eb34 54bd 0c08 1bbe 9e63 973d e244 14be
00000110: d00d 893d 1bb4 f6bd b85b 08be 56ea cebd
00000120: cd41 c03d 7d0f 793d 9fdb dabd 411b cb3d
00000130: 0aad 5fbc 5683 e3bc fa97 f23d 048d 0e3e
00000140: 2a09 0f3e e3f2 0ebe b057 50bd c47b 0bbe
00000150: fd7a 213d d4a2 ca3d ecec 1d3d 4a94 053e
00000160: 2655 6abd 6b15 5e3e 7565 b73d 31d7 95bd
00000170: 2859 3cbe 65ee 923d 6d7b 573d 32e1 80be
00000180: f915 efbd be09 913d 830f 3b3e 1dea ea3d
00000190: e44d 24be 2ae2 d3bc 00de 3c3e fe6a 8dbd
000001a0: 3a0e 4b3d c467 51be 1ecb 473c 433e 1abe
000001b0: d2ca d4bd 0ebc 663e 98a1 b23b 4042 25bd
000001c0: 7f32 adbd 4fb5 a43c 256a 883d be9a ee3d
000001d0: 4c54 a7bd 665d a6bd 2e47 39be 6e90 27be
000001e0: ec07 f93a 93bc 203a cc6d c43d 19ab 62bd
000001f0: eeb5 4d3e bdd2 263d 444e fabd 4e46 03be
00000200: 9970 1fbe d5a4 eebd 2303 94bd ebfc 203e
00000210: aef3 adbb 5dd1 dfbd 5e05 c7bd c340 5e3d
00000220: f106 9b3c f61b 55be 683f 153e 2188 d1bb
00000230: 285f c0bd b8e2 203d 95b6 3cbe 44bb 08bd
00000240: 4649 1dbd c7ee 33be 2ad0 333e bc19 24be
00000250: e988 c63d 2378 2bbe b275 ae3d 00ac 23be
00000260: 6248 aebc e523 d3bd 1efe 45be fd47 21be
00000270: 94fc 5c3a 2e1a bb3d 803a 083e 1048 15be
00000280: e8cd f13d 7ce1 99bc e814 263d 0a64 10be
00000290: 9cf0 fc3d 78c9 533d b269 33be 5f37 5dbb
000002a0: 6074 62bd 0ff3 473d 1e7c 7cbd 0b6c 6cbc
000002b0: d4a5 8ebd fd7e 20be c3c1 903d 9400 84bd
000002c0: 66e2 1bbd aa77 99bd abad 0f3e e2f9 86bc
000002d0: 51bd 0abe 8a80 923d 72ea b43b 2c1d 45bd
000002e0: 25bb cd3d 4a6b 053e ac74 2cbe 4041 3cbe
000002f0: bcb1 aa3d 85e2 9fbc 03f2 943d 3c8a 1b3e
00000300: 4bb5 d4bc 324b 4e3e 9a5f cd3d a424 85bc
00000310: e83f eabd e132 a7bd 10cc 41bd 1a6a 80bd
00000320: f95a 71bd a60b 51bc b4bb b53c 181e 703d
00000330: 141b 423d 3574 35bd 97b2 cabd 780f 22bd
00000340: c99a 09bc d4dc 10bc 6ce9 ba3a 9c84 cfbc
00000350: f73f 453e 07fa 35bc 5daf ac3d 4ade 0dbe
00000360: 4c0a 0f3e b786 01be 501a f939 a3b8 dabc
00000370: 3a02 b1bd f418 3abe abc0 68bd 3ab9 2d3e
00000380: 6140 babd 0b47 fcbc 27b9 1ebd d6ac e4bb
00000390: dc5b df3c a74e 25bd c43b 4dbd 76e4 cd3d
000003a0: 1ed8 15be 1801 503e ef46 babd 250d 1cbe
000003b0: c043 e9bd 01c2 133e 3722 26bd 54d5 2e3e
000003c0: 4719 6ebd 0652 a13c ab64 eb3c f8b9 afbd
000003d0: 7ee6 8e3c 8420 9b3d c4f4 18be e94a b6bd
000003e0: e643 893d c6f9 d13d 1661 c33d a050 12bd
000003f0: 78aa 0c3e e974 57bd 76a6 d63c 287d 6f3d
0.13873611 -0.15587898 -0.057871174 -0.04623191 -0.09412797 0.031945467 0.03970693 -0.15783973
-0.105994865 0.007908509 0.050005186 0.14940844 0.002155349 -0.05550278 -0.0853914 -0.02901043
0.006395599 -0.0054854043 -0.020167997 0.15108752 -0.102540284 0.041642506 -0.050680507 -0.017052315
-0.004218458 0.10972949 0.15960293 0.16925077 -0.029038206 -0.03702226 0.07192513 0.18577194
-0.25507596 -0.11636688 -0.20981991 -0.032282732 -0.0698908 -0.01385835 -0.05882737 -0.1001551
-0.049076997 -0.16362202 0.16064413 -0.12069671 0.022569394 0.10082079 -0.09713597 -0.07841961
0.15407087 -0.08537775 -0.035936173 0.08009504 -0.09292766 -0.0802241 0.122119665 -0.0630686
-0.039908975 0.047009245 0.20668814 0.06618473 -0.036183383 0.19694048 0.034879066 0.023078226
-0.05180828 -0.15139788 0.07392047 -0.14479402 0.06692088 -0.12046071 -0.13316238 -0.1010329
0.093875505 0.060805786 -0.10686421 0.09917308 -0.013652096 -0.027772587 0.118453935 0.1392098
0.1396834 -0.13959841 -0.050864875 -0.13621432 0.03942393 0.09894338 0.038556024 0.13044849
-0.05721011 0.21687858 0.08954898 -0.07316435 -0.18393385 0.071743764 0.052607942 -0.2517181
-0.11674113 0.07081936 0.18267636 0.11470435 -0.16045338 -0.02586468 0.18444061 -0.06905173
0.049574114 -0.2044974 0.012194423 -0.15062813 -0.103902474 0.22532675 0.0054513924 -0.040346384
-0.08456897 0.020105986 0.066608705 0.116506085 -0.08170375 -0.08123283 -0.18093559 -0.1636369
0.0018999553 0.00061316154 0.095912546 -0.055338953 0.20088932 0.04072832 -0.12221959 -0.12819788
-0.15570296 -0.11652533 -0.07227161 0.1572148 -0.00530859 -0.10928605 -0.097178206 0.05426098
0.018924208 -0.20811448 0.14574969 -0.0063944017 -0.093931496 0.039278716 -0.18429025 -0.033381715
-0.038399957 -0.17571555 0.17559877 -0.16025442 0.09694082 -0.16745047 0.08518542 -0.15983582
-0.02127475 -0.10309581 -0.1933522 -0.15750118 0.0008429971 0.09135853 0.13303566 -0.14578271
0.118068516 -0.018784277 0.04054728 -0.14100662 0.1235058 0.051705807 -0.17520788 -0.0033754928
-0.055286765 0.048815783 -0.061641805 -0.014430056 -0.06965223 -0.15673442 0.07068207 -0.06445423
-0.038057707 -0.07493527 0.14031093 -0.016476575 -0.13548781 0.07153423 0.005521112 -0.048123524
0.100454606 0.13029209 -0.16841382 -0.18384266 0.083346814 -0.019517193 0.072727226 0.15189451
-0.025965353 0.20145872 0.10028 -0.016252823 -0.114379704 -0.08164001 -0.04731375 -0.06270237
-0.05892465 -0.012759125 0.02218423 0.05862245 0.047389105 -0.044300277 -0.098973446 -0.039565533
-0.00839872 -0.008841712 0.0014260239 -0.025331788 0.19262682 -0.011106974 0.084318854 -0.13854328
0.13968772 -0.12649046 0.00047512585 -0.02669937 -0.08643003 -0.18173581 -0.056824367 0.1696519
-0.090943106 -0.030795595 -0.038750794 -0.0069786115 0.027265482 -0.04035821 -0.050105825 0.10053341
-0.14633223 0.20312917 -0.09095561 -0.15239389 -0.113898754 0.14429475 -0.040559974 0.17073566
-0.058129575 0.019692432 0.028734526 -0.085803926 0.017443892 0.07574561 -0.1493712 -0.08901007
0.06702404 0.102527186 0.09540002 -0.03572142 0.13736904 -0.05260173 0.026202422 0.058468968

network.1.running_var f4 [512]
00000000: ec25 fc3e 9dfb 243f 36ce 3e3f c6d2 193f
00000010: c342 243f 1256 183f 4dec 213f 2674 df3e
00000020: f435 1d3f 805a ec3e bff5 3c3f ba4b 243f
00000030: 555b 1e3f 4542 283f a96d f83e fea2 cd3e
00000040: 8a6a 1c3f a611 093f 5d14 063f 98d7 ec3e
00000050: 4808 0e3f 5002 fc3e faa9 023f 136d 0f3f
00000060: 68ca 303f 1f75 133f dd51 033f a5a7 f43e
00000070: 5b2b 2a3f 2fe5 2d3f 0a97 1c3f dc41 123f
00000080: 42da 1a3f 09de fb3e 57e7 153f 8ab6 f43e
00000090: f19e 113f 7f94 153f f4d9 113f 6ff4 173f
000000a0: 4912 393f 7b11 603f 6852 e73e f7e8 063f
000000b0: 254c f43e 3dff 2b3f f163 273f b77d f73e
000000c0: b165 383f f4a6 373f 8d5b 1b3f 7291 1b3f
000000d0: 1d2c 1c3f ced3 653f 0ec0 1e3f 26f8 093f
000000e0: 4383 153f d4d6 163f 06b3 2b3f 6b3b 143f
000000f0: 046a 0e3f d6b0 3c3f b0c4 643f 3e18 f63e
00000100: 01af 283f 0d55 6c3f 2f66 163f 051f 263f
00000110: 2f05 093f f40a fe3e 4d16 1f3f 8506 113f
00000120: 770a 093f a2d9 0a3f fb00 333f 4d93 3a3f
00000130: 824e eb3e dd75 cc3e c5e3 163f a4a7 3a3f
00000140: 38df 273f ae94 0c3f 0713 f43e 1ea0 0a3f
00000150: 4336 503f 004e 293f 8eca e23e 56dc 393f
00000160: 5b41 193f e6c5 0b3f 531d c63e a36d 3c3f
00000170: 38fa 2a3f 47c1 313f e361 523f dcd2 d43e
00000180: ed96 6f3f fa4d 2d3f d8b2 103f 0aa9 1a3f
00000190: 252f f43e 75cf 183f f75c 3a3f 809a 0b3f
000001a0: 1f68 ed3e 8162 1f3f d135 093f 9fc2 233f
000001b0: 030f 3a3f 9dfb 333f 741c 203f c37f 063f
000001c0: 0c51 333f fdc2 423f e6ba 103f 1f8d 183f
000001d0: b37b f73e 0992 fc3e 966b 223f e4aa 4c3f
000001e0: a237 323f 9c30 f63e fe4f 103f 6529 033f
000001f0: 9a4f f93e e94f 393f 951f 393f 7710 d53e
00000200: c482 4f3f 33de e23e 27b2 0c3f 407c fe3e
00000210: a393 033f b0ab 073f 6620 353f f9da ca3e
00000220: ba36 253f fa6e 273f 992d 223f 26c5 fe3e
00000230: 97dc 343f 5838 e03e 9f8b 123f c7b7 ef3e
00000240: 7e8c 113f 4db7 193f f3eb 263f f965 073f
00000250: d577 f53e 21f3 143f 1501 5c3f 9608 343f
00000260: b21b 353f 7993 023f 603a 193f 27bf 1e3f
00000270: 0eb8 253f dc11 2b3f 114c 393f 0102 ef3e
00000280: 8603 143f a789 143f 3e49 043f bfe8 0e3f
00000290: c90f 103f 7ac8 2d3f be3a 203f 8969 f03e
000002a0: 4ad1 1f3f 2090 393f 6e3e 133f 9d4d 3e3f
000002b0: 0573 f63e eb42 203f cb23 1b3f bc82 403f
000002c0: a1da 363f a2f7 f53e 7b36 153f e248 513f
000002d0: 3119 033f d10f 2c3f 41ee 023f d7d5 633f
000002e0: 47e9 373f de34 2a3f b38c 103f 03c0 213f
000002f0: 88a5 1f3f 19da f93e 2516 263f d6e7 2f3f
00000300: 000f 5d3f eb4e 263f 43d7 1a3f b609 283f
00000310: 98ba eb3e f791 ef3e caf6 293f 1329 183f
00000320: 6414 d03e 3871 f13e 27aa 473f 1b61 213f
00000330: 1a89 233f 2811 113f fdd9 213f 0057 543f
00000340: 77b0 1d3f 2735 103f a260 263f ce91 1c3f
00000350: de6c 103f 460d 5d3f a73e 2c3f 5122 0d3f
00000360: 68b9 083f 1458 183f ca9f 063f b2e9 0c3f
00000370: 2690 3a3f 8226 f43e a8ca 0c3f 5a66 243f
00000380: 6ef6 f03e 4538 253f 352d 093f 30a4 1b3f
00000390: e6eb 223f 7512 103f 86cc e93e 92e6 613f
000003a0: b5cc eb3e ab63 233f da9b 0e3f 579d 1a3f
000003b0: 4429 3e3f 8f07 263f 5f23 073f 5f12 483f
000003c0: 99cb 6e3f 552c 213f 44b1 303f 7179 f63e
000003d0: e458 393f 2515 1c3f 96ed 0f3f e839 853f
000003e0: c6c2 0e3f 340c e53e 4e55 203f 920e d93e
000003f0: 3c69 d83e 82ca 053f a5bd 0d3f 9e22 073f
0.49247682 0.6444643 0.745334 0.6008724 0.6416437 0.5950633 0.6325119 0.43643302
0.6141045 0.46162796 0.7381248 0.6417805 0.6185811 0.6572612 0.48521164 0.40163416
0.61100066 0.53542554 0.5237482 0.46258235 0.55481386 0.49220514 0.51040614 0.5602581
0.6905885 0.5760059 0.5129679 0.47784153 0.66472405 0.6792783 0.6116797 0.57131743
0.60489285 0.49192837 0.5855612 0.47795516 0.5688315 0.5842971 0.56973195 0.5935735
0.72293526 0.87526673 0.45180058 0.52699226 0.47714344 0.6718634 0.65386873 0.483381
0.7203017 0.71739125 0.6068657 0.60768807 0.6100481 0.89776313 0.620118 0.5389427
0.58403414 0.5892155 0.67070043 0.57903165 0.55630517 0.7370733 0.8936262 0.4806537
0.65892035 0.9231728 0.5874967 0.6489108 0.53523535 0.49617732 0.62143403 0.56650573
0.53531593 0.5423833 0.6992337 0.72881013 0.45958334 0.39933673 0.589413 0.7291205
0.6557498 0.5491437 0.47670767 0.5415057 0.81332797 0.66134644 0.44295162 0.7260183
0.5986535 0.54598844 0.38694248 0.7360479 0.66788054 0.6943554 0.82180613 0.41567123
0.9358967 0.6769711 0.56522894 0.60414183 0.47692218 0.59691554 0.72798103 0.54532623
0.463685 0.6225968 0.5359774 0.63968843 0.72679156 0.70305806 0.62543416 0.525387
0.7004554 0.7607878 0.56535184 0.59590334 0.48336563 0.49330166 0.63445413 0.7994826
0.6961614 0.4808396 0.5637206 0.5123504 0.48693544 0.7238756 0.72313815 0.41614124
0.8105891 0.4431015 0.5495934 0.4970417 0.5139715 0.5299635 0.7075256 0.39620188
0.6453663 0.6540371 0.63350827 0.49759787 0.70649093 0.43792987 0.57244295 0.46819898
0.56855 0.6004532 0.6520378 0.5288997 0.47942987 0.58183485 0.8593915 0.703256
0.70745385 0.51006275 0.598547 0.62010425 0.6473397 0.66824126 0.72381693 0.46681216
0.57817876 0.5802254 0.5167426 0.5582389 0.56274086 0.6788403 0.62589633 0.46955517
0.62428725 0.7248554 0.57517135 0.7433718 0.48134628 0.6260211 0.6060149 0.75199485
0.7142735 0.4804049 0.58286256 0.81751835 0.51210314 0.67211634 0.51144797 0.8899817
0.7184033 0.6648692 0.5646469 0.6318361 0.62361956 0.48799208 0.6487754 0.6871313
0.86351013 0.6496417 0.60484713 0.6563982 0.46040797 0.4679105 0.66392195 0.59437674
0.40640557 0.47156692 0.77994007 0.63038796 0.63881075 0.56666803 0.6322325 0.8294525
0.6159739 0.56331104 0.649912 0.6115998 0.5641612 0.8634838 0.672831 0.5513049
0.5340791 0.59509397 0.5258757 0.5504409 0.72876203 0.4768563 0.5499673 0.64218676
0.4706301 0.64538985 0.53584605 0.60797405 0.636412 0.56278163 0.45663851 0.8824245
0.46054617 0.63823956 0.5570656 0.6039633 0.74281716 0.64855283 0.52788347 0.7815303
0.93279415 0.6295827 0.69020486 0.48139527 0.7240126 0.60969764 0.562219 1.0408297
0.5576595 0.44735873 0.62630165 0.4239393 0.42267787 0.5226213 0.553675 0.52787197

network.4.weight f4 [256, 512]
00000000: 7fc3 dabc d460 4bbd 082a b93d 9024 e2bd
00000010: b96c a03c 37de 643d ddea fa3c e653 aebd
00000020: 8fd0 8c3d 5295 67bd 0fc9 abbc 807a 963d
00000030: f1cd 52bd 87c7 5d3d e6cf 6fbd bd20 2d3d
00000040: cdc7 e03d c47d 963d 6744 23bd 4625 39bd
00000050: d963 493d 4beb f2bc 2f71 803c a95c afbd
00000060: a7ec 76bd e703 f5ba ffe6 833c eeb8 a4bc
00000070: 1409 6dbd 59b0 723d f3cf 343d 78da a73d
00000080: bb06 e93c ceac c5bd 01e1 11bd d6ae b0bb
00000090: d058 25bd 8466 86bd 047a a2bb 8201 893d
000000a0: 9a1d 5f3b 0512 1cbe a8ec f03c 82ef dfbb
000000b0: 1231 b9bd dfb2 89bd 20a4 4c3d 8572 303d
000000c0: 1d23 a53d 87aa 103c 4d97 913c b515 afbd
000000d0: a255 d1bd 974c 793c ca6b e93d ec04 2dbc
000000e0: a292 c0bd a223 ff3d 00bd 243d 0bbc e63d
000000f0: 20dc be3d b02a 7d3d fd8e 9dbb a967 80bc
00000100: ce50 7e3d cc6e 183c 78d5 4ebc 51a9 8cbd
00000110: dd2c b8bd 94c0 8b3c 3119 ac3d c2a8 98bd
00000120: 1417 96bd cf73 5e3d 5db6 a1bd bb41 ed3c
00000130: 8cf6 3c3c cc65 ef3b a725 a73d a9a5 4abd
00000140: 350f 14bd 3448 6a3d 9945 c8bb 3dee 3d3c
00000150: 9985 f63d 4366 1d3c 1630 9dbd 5cb5 85bd
00000160: 4f2d ecbd b6c0 9d3d 3f2e 153e ddc4 293d
00000170: 7bc2 fcbd ef33 ef3c fe41 68bd 60cd 67bd
00000180: 02da 663d 1c17 f5bd 4dc9 963d aa3c 1cbd
00000190: 91a9 bf3c cd72 d13c 3362 e03d f173 2b3b
000001a0: b96b 0dbd 91e4 86bd 0c9e b8bc 7ba6 ca3c
000001b0: 1aa3 d3bd 1f94 063d d2ae 9c3c 48b6 df3d
000001c0: e0fb 45bd 08e4 003d 79cc c13c 229b 433d
000001d0: c79d 5bbd 3de5 5a3d 33e8 34bd d192 283e
000001e0: eda5 003d e5d3 ac3d 77de cbbd 3b4b 78bd
000001f0: 599e 4ebd 4787 563c 8126 afbd 2463 d4bd
00000200: 8964 583d 8c2a 7b3d a196 8e3d 2693 f4b8
00000210: b0bd 3dbd e56f 74bd 3b95 0abd 97be 86bd
00000220: 5b32 bbbd 6ad8 d1bc e5b1 0e3d 9c66 e93d
00000230: da70 6fbd d522 56bd f3ba 5a3d e468 f03c
00000240: 5f87 e1ba 2246 51b9 cc00 2b3d 47ab 48bc
00000250: 88d5 6fbd c659 7c3d 1de7 493d fe23 863d
00000260: 65e2 48bd 27fc 103e c154 b3bd dc72 bb3d
00000270: 54c2 333d 7fd8 b0bc 02e2 02bd 6bd9 6b3d
00000280: a2be 5e3d 2bb1 66bd 2766 b5bd 2160 93bc
00000290: 48a8 b6bc 1e7e 96bd 8983 81bd 8cd8 033c
000002a0: 6547 32bd 4809 2f3d 614f 213d 0609 143d
000002b0: 73ee 22be 907b c33d 061b 7abd d439 023e
000002c0: 3f67 843d dde4 903d fbbd a23d ffd7 e1bd
000002d0: 156e 9c3d 62ec cabc 996c 36bd 7ba7 5bbc
000002e0: 6200 d1bc c19d 48bd f7f0 e53d ac54 d63b
000002f0: d411 413d c759 413d 3e94 383d d0c5 84bd
00000300: bbd9 863c 2c82 ef3c 7d3e 1b3c 73c5 a73d
00000310: 4798 a43d be6d 86bd 9a2f f2bd 8853 d03c
00000320: 88bc f03c eaa6 54ba 0558 993d 1faa 9dbd
00000330: a0e0 fabc b242 b83a b3e7 c7bc 1683 c43c
00000340: bc6d 6f3d 2da4 883c 5747 62bd 06fa f33c
00000350: 6c07 d83c 1194 a73d 4edb 983d 00d2 9dbd
00000360: e710 8d3b 6dca 303d 4f22 573d 7624 45bc
00000370: 729c a33c 0792 12bd 1476 a83d ce18 1c3d
00000380: 529a d83d 7aad 8d3d 21ac 293c b038 333d
00000390: c7f1 ff3c aeb2 23bd a1dd 8c3d 270a e63d
000003a0: 91ff aa3d 3e88 4c3d 086b 89bd 7868 9fbb
000003b0: 477b c93b a54f 333d 3540 31bd cc3e ee3c
000003c0: da76 243d 5e6f e13d 9694 b93c 46b2 c9bc
000003d0: 6d72 9ebd c6b0 ac3d 1b9e 573d 8b72 10bd
000003e0: 9662 e6bc 44f8 0bbb 8f8f 573d d39f 7c3d
000003f0: 2cf8 87bc 90b1 063d be3d 6dbd a892 a53d
-0.026704548 -0.04965289 0.0904122 -0.1104213 0.019583093 0.055875983 0.03062957 -0.08512096
0.06875717 -0.056538887 -0.020969896 0.07347584 -0.051465932 0.054145362 -0.058547877 0.04226755
0.10975609 0.07348207 -0.039860155 -0.045201562 0.049167488 -0.029653212 0.01567897 -0.085625954
-0.060284283 -0.001869318 0.016101358 -0.020107713 -0.057869986 0.05925021 0.04414363 0.081959665
0.028445592 -0.096521005 -0.03561497 -0.005391936 -0.0403679 -0.06562522 -0.004958393 0.06689741
0.0034044744 -0.15241249 0.029409721 -0.0068339715 -0.090425625 -0.0672357 0.04996121 0.043077964
0.08063338 0.008829719 0.017772341 -0.08549062 -0.10221411 0.015216014 0.11397512 -0.0105602555
-0.09402968 0.12457968 0.040219307 0.11266335 0.09319329 0.061808288 -0.0048083053 -0.015674429
0.06208878 0.00930376 -0.012624137 -0.06868232 -0.08992932 0.017059602 0.084032424 -0.07454063
-0.073286206 0.054309662 -0.07896111 0.028962007 0.011533391 0.0073058363 0.081614785 -0.049474392
-0.036147315 0.057197765 -0.0061118123 0.011592445 0.120372005 0.009606901 -0.07675187 -0.06528732
-0.115320794 0.07702772 0.14568423 0.04144751 -0.12341782 0.029199569 -0.05670356 -0.056592345
0.056360252 -0.119672984 0.07362614 -0.03814379 0.023396285 0.025567437 0.1095623 0.0026161636
-0.03452656 -0.06586564 -0.0225363 0.024737587 -0.103338435 0.032856103 0.01912633 0.10923439
-0.04833591 0.031467468 0.02365707 0.047755368 -0.053617265 0.053441275 -0.044166755 0.16462256
0.03140824 0.08438853 -0.09954541 -0.06061862 -0.05044398 0.013093776 -0.08552266 -0.10370472
0.052830253 0.061319873 0.06962324 -0.00011662235 -0.04632348 -0.059677023 -0.033833724 -0.06579321
-0.09140464 -0.02561589 0.034837622 0.11396524 -0.058457233 -0.052279312 0.053400945 0.02934689
-0.0017206481 -0.0001995792 0.041748807 -0.012247867 -0.05855325 0.061609052 0.049292672 0.06549834
-0.04904403 0.14158688 -0.087564 0.09152767 0.043886498 -0.021587608 -0.03195382 0.057580393
0.05438102 -0.056321304 -0.08857375 -0.017990174 -0.02229704 -0.07348274 -0.063239165 0.008047234
-0.04352512 0.04273346 0.039382342 0.036141418 -0.15911274 0.09545052 -0.061060928 0.12717372
0.06465005 0.07074902 0.07946392 -0.11027526 0.07638184 -0.02477092 -0.04453716 -0.01340663
-0.025512878 -0.04897857 0.11227601 0.0065408554 0.047136143 0.04720476 0.04506325 -0.06483042
0.016461244 0.029236875 0.009475348 0.08191957 0.08036857 -0.065639004 -0.118254855 0.025430456
0.029386774 -0.00081120303 0.074874915 -0.07698464 -0.030624688 0.0014057963 -0.024402475 0.023988288
0.05845426 0.016679848 -0.055243816 0.029782306 0.026370727 0.08182538 0.07463704 -0.0770607
0.0043049934 0.0431618 0.052522954 -0.012032619 0.01997206 -0.035783794 0.082256466 0.038109593
0.10576309 0.06917854 0.01035598 0.043755233 0.031243218 -0.039965324 0.0687821 0.11232405
0.08349527 0.04993462 -0.06709868 -0.0048647486 0.006148729 0.043777127 -0.043274123 0.029082678
0.04015241 0.1100757 0.02265386 -0.02462114 -0.07736669 0.08432154 0.052641015 -0.035265487
-0.028123181 -0.0021357695 0.052627143 0.061675858 -0.01659783 0.03288418 -0.05792021 0.08084613

network.4.bias f4 [256]
00000000: 421a 0d3d b287 b43c b462 1fbb dc1e f0bb
00000010: 5f6f debb caf0 2abd 31cb c53c ccd5 d53c
00000020: f138 043d 11b8 3f3b 8c0b 4cbc da68 583b
00000030: 2927 d9bc f849 133d c68d e2bc 5367 093d
00000040: 19e8 243d eaca 9e3c 17bf 0dbd 4b85 1ebd
00000050: 0ee1 133c 330f 1b3d 89d8 03bb f01f dd3c
00000060: d57a 43bc 954d abbc 16a0 0dbb 0120 e13c
00000070: 9ebd 963c 7877 c9bc d499 fbbb e8e1 d43c
00000080: 2dfc 87bc 889c a0bc b638 a03c f430 1f3d
00000090: d11c 25bd 9014 c1bc 2cac 973c 43af f33a
000000a0: 10f0 bebc eeb2 133d fe3a 263d 54fc 35bd
000000b0: 9086 193d 1b65 233d 97c4 dfbc 1274 f9bc
000000c0: 2d89 b73c 713e d73c 9cb4 173c d911 973c
000000d0: 61e1 13bd 6d50 343d 7c61 f1bc 5a42 f5bc
000000e0: 7574 e93c 541c 2bbd 7b4c c0bc 5727 1f3c
000000f0: f7e6 24bd e861 ffbc 2566 07bc f264 b7bc
00000100: 1002 46bc 69cc fbbc 39af c9bb 1634 283d
00000110: d938 b73c a887 ab3c c0e0 3fbb 9189 e1bb
00000120: 24dd 0ebd c8ef 1b3d 4cba f6bb 07f2 a7bc
00000130: 6934 d3bc 8668 063c 6d74 1fbd 9ec2 9d3b
00000140: 566b a03a da63 f4bb 075e a9bc 097f 3b3b
00000150: e885 c3bc 21a8 3dbc 2ffc b63b 5b7d 8abc
00000160: 5edc b0bc 18f0 363c 2c9d b13b 7133 7a3c
00000170: e750 233d e7b2 ef3c 24d8 263d 7484 1ebd
00000180: f8d6 553c bcc6 f5bc 91d8 94bc 5cd2 eb3c
00000190: 0bb7 263d 8813 023d 9e17 fc39 19d9 853b
000001a0: a602 fd3b bd5b 8a3c a105 d6bc 0b7e c6bc
000001b0: 6de9 3d3c 1680 7ebc ecd9 d83c dbc7 72ba
000001c0: 8f94 1dbd 6314 d73c 0c0d 32bd bac5 1bbd
000001d0: c689 043d 732c b4bb c452 10bd e51a 00bd
000001e0: cf1d fbbb 022b 2b3d 4fa0 1fbd 62d5 2f3d
000001f0: 9848 003d a032 5e3c e25c 993b a8f9 c3bc
00000200: cd73 8f3c ea0d de3c d292 c3bc 0062 24bd
00000210: 1ccc 2b3d 27f5 0ebd 53f9 4239 ce98 12bd
00000220: df5d efbc c7b4 143d d429 933b 89cb 2bbd
00000230: c7da 1b3c db30 89bc b44c 1f3d f600 0b3d
00000240: 8ae6 e1bc 917b 073d dd50 0b3c 7aef 273d
00000250: 7083 38bd aed9 11bd 82b6 973c adbf 053d
00000260: 15c6 943c e49c 3a3c e52f 1e3d 995c 683c
00000270: 96b1 a1bb ab5c a23c f153 eebc 2aa8 333c
00000280: 4771 e53c 3a08 c2bc 7d7b 4fbc 1c5d cdbc
00000290: 38d4 efbc fc87 df3c 26d8 98bb 9bb9 783c
000002a0: 986c 313c 953f b23c c71f 313d 7ccf 07bc
000002b0: 1080 073d 88f8 a73c f85c 28bd dcd5 f43c
000002c0: 81eb e23c 98ce 8fbb 404f 8abc e692 943c
000002d0: fa80 cf3c b99c 183d eb65 fe3a 3e7b 18bd
000002e0: aee8 09bd fb22 0e3d 0be3 c9bc 8ae7 b3bb
000002f0: 0274 b43a b58f 123d 5439 573b 7fe3 80bc
00000300: 36df 803c 5000 65bb 8296 f63c 86f1 e6bc
00000310: fd73 3cba 4cb9 d03c 8ea3 ae3c b49b 95bc
00000320: 0ca7 d5bc b7a9 163b 161f 55ba 81cd fd3c
00000330: 8acc 70ba 5c8d e7bc 40a3 d0bc 1011 e73b
00000340: 197d f2ba ab4e c3bc 3b7c 5dbb 9f94 ae3c
00000350: ee65 0d3d f306 ce3c b6d3 1f3d b63b d33c
00000360: 7341 b7bc 3f04 2abd 6229 ea3c fa7e 7f3c
00000370: 1e8a 6bbc 6fbd b7bb 3a30 2bbd 7291 2e3d
00000380: f995 63bc 9dd9 813b 7152 033b c171 eabc
00000390: 926c 8f3c 12a1 d2bc 089f 313d 54ac 9b3c
000003a0: 3328 06bd 9173 133c 66f1 f13c af8b 21bd
000003b0: 4d93 a63c 31a3 26bd d773 01bd c2be ee3c
000003c0: eb88 003c 91ed 143c bc54 5cbc 18c8 b1bc
000003d0: a86c 143d 4093 003d 487d e5bc a9f6 4cbc
000003e0: b5f2 6abc ddba 463c e5af 283d 5e71 27bc
000003f0: cf3e 9bbc 3589 d4bc 81bf a33c 69f7 133d
0.03444887 0.02203736 -0.0024320306 -0.0073278975 -0.006788179 -0.04173354 0.02414474 0.026102923
0.032280866 0.0029254 -0.012453925 0.003302148 -0.02650793 0.035959214 -0.027655493 0.033545803
0.040260408 0.019383866 -0.034606066 -0.038701337 0.009025825 0.037856292 -0.0020118079 0.026992768
-0.011931141 -0.020911017 -0.0021610311 0.027481081 0.018400963 -0.0245931 -0.00767825 0.025986627
-0.016599739 -0.01960589 0.019558292 0.038865045 -0.040310685 -0.023569375 0.018514715 0.0018591661
-0.02330783 0.036059313 0.040583603 -0.044430092 0.037481844 0.039891344 -0.027315421 -0.030450854
0.022404278 0.026274892 0.009259369 0.018441128 -0.03610361 0.044022013 -0.02946543 -0.029938865
0.028497914 -0.041775063 -0.023473969 0.009713969 -0.040259328 -0.031174615 -0.008264099 -0.022387002
-0.012085453 -0.030737119 -0.0061549214 0.041065298 0.022365974 0.02093871 -0.0029278249 -0.0068828543
-0.034878865 0.03807047 -0.0075295325 -0.02050115 -0.025781827 0.008203631 -0.03892939 0.00481446
0.001223902 -0.0074581923 -0.020674719 0.0028609654 -0.023867562 -0.01157573 0.005584262 -0.016905477
-0.021589454 0.011165641 0.0054203477 0.015271054 0.039872076 0.029260112 0.04073347 -0.038700536
0.013051741 -0.03000199 -0.018169673 0.02878683 0.040701907 0.031756908 0.00048082782 0.004084718
0.007721263 0.016889447 -0.026125731 -0.024230024 0.011591298 -0.015533468 0.0264711 -0.0009261348
-0.038471755 0.026254838 -0.043469474 -0.038030364 0.032357953 -0.005498463 -0.03523518 -0.03127565
-0.0076634656 0.041789062 -0.03897124 0.042928107 0.03131923 0.013561875 0.004680262 -0.023922756
0.017511273 0.027106244 -0.02387372 -0.040132523 0.0419427 -0.034901764 0.00018594162 -0.035790257
-0.029219566 0.036305215 0.0044910703 -0.041942153 0.00951261 -0.016746929 0.03889151 0.033936463
-0.02757575 0.033076826 0.008503166 0.040999867 -0.045047224 -0.035607986 0.018519644 0.0326535
0.01816086 0.011389945 0.038619895 0.014182233 -0.0049345 0.019819578 -0.02909276 0.010965386
0.028008116 -0.023685563 -0.012663719 -0.025068812 -0.029275998 0.027286522 -0.004664439 0.015180971
0.010829113 0.021758834 0.043243196 -0.008289214 0.033081114 0.020504251 -0.041104287 0.029887132
0.027700188 -0.0043886416 -0.016883492 0.018136453 0.025330056 0.037258837 0.0019409036 -0.037226908
-0.033669166 0.03470133 -0.024644395 -0.005490248 0.0013767483 0.03578158 0.0032840567 -0.015733479
0.015731435 -0.0034942813 0.030101065 -0.02819134 -0.00071889145 0.025478981 0.021318223 -0.018262722
-0.02608063 0.0022989342 -0.00081299373 0.030981781 -0.0009185752 -0.028265648 -0.025468469 0.0070515946
-0.0018500417 -0.023841223 -0.003379597 0.021311102 0.034521036 0.025149798 0.039020263 0.025785308
-0.022370076 -0.041507956 0.028584186 0.015594238 -0.014376191 -0.005607299 -0.04179404 0.042619176
-0.013890737 0.003962709 0.0020038153 -0.028618695 0.017507825 -0.02571157 0.043364555 0.01900307
-0.03275318 0.008999721 0.029534053 -0.039439853 0.02033391 -0.040682975 -0.031604614 0.029143695
0.007845144 0.009089843 -0.013447937 -0.021701857 0.036236435 0.03139043 -0.02801384 -0.01250998
-0.014340092 0.012129513 0.04118337 -0.0102199 -0.018950848 -0.025944332 0.019988777 0.03612462
