projekt1/wandb/run-20251108_175115-kjhtfglh/files/best_model.pth (torch, 838968 bytes, 9 tensors)

network.0.weight f4 [512, 70]
0	0x3e2342b7	0.15943418
1	0x3e2f98a9	0.17148079
2	0xbcbf29ab	-0.023335299
3	0xbd91132e	-0.07083736
4	0x3db15ffe	0.08660887
5	0x3cf5a72f	0.029986946
6	0xbdf404dc	-0.11914989
7	0xbc530aff	-0.01288104
8	0x3d5e99f0	0.054346025
9	0x3b28e4b4	0.0025771083
10	0x3d96bb4c	0.07359943
11	0xbd3d1998	-0.046166986
12	0x3b6d487c	0.0036206534
13	0xbe218c94	-0.15776283
14	0x3dae7f1a	0.085203364
15	0xbe4abf38	-0.19799507
16	0xbd12bd6c	-0.035825178
17	0xbdd13e04	-0.10216907
18	0x3d230e48	0.03980854
19	0xbdcf9e85	-0.10137657
20	0x3cc08d2f	0.023504822
21	0x3d87007e	0.06591891
22	0x3cebca93	0.028783118
23	0x3e11c941	0.14236929
24	0x3ced2f78	0.028953299
25	0xbdd1eb63	-0.102499746
26	0xbce15217	-0.027504964
27	0x3de49215	0.111606754
28	0x3c729fef	0.014808639
29	0xbd16aae8	-0.036784083
30	0xbddc1c46	-0.1074758
31	0x3d818fa8	0.063262284
32	0xbda04957	-0.078264885
33	0x3d7e8d75	0.062146623
34	0xbda0d19c	-0.0785248
35	0x3c0bf6dc	0.008542743
36	0x3e02151c	0.12703365
37	0xbce69bad	-0.028150404
38	0xbd899403	-0.06717684
39	0xbdb1484a	-0.08656366
40	0x3c0e8a0b	0.008699904
41	0xbc9c40ca	-0.019073863
42	0xbe4c0d44	-0.19926935
43	0xbd4251b4	-0.0474412
44	0x3e03351c	0.12813228
45	0x3d21f02d	0.03953569
46	0x3cc91f59	0.02455108
47	0x3d84987b	0.06474396
48	0x3daf561a	0.085613444
49	0x3d8f23b1	0.069892295
50	0xbdc125fc	-0.09431073
51	0xbdfb85e6	-0.122813985
52	0x3d539d86	0.051663898
53	0xbd855e62	-0.06512143
54	0xbdedb3c4	-0.11606553
55	0x3c3e3601	0.011609555
56	0x3cc0525d	0.023476774
57	0x39b78ccc	0.00035009382
58	0xbd6bfbb8	-0.057613105
59	0xbe1b3c85	-0.15159805
60	0x3d915d65	0.07097892
61	0x3d4aa5fb	0.049474698
62	0x3d904543	0.070444606
63	0xbdf08a9e	-0.11745189
64	0xbde27b1a	-0.11058636
65	0x3ca27105	0.019829283
66	0xbdf7c707	-0.12098508
67	0x3d216d81	0.03941107
68	0x3d856494	0.065133244
69	0x3d5af32f	0.053454574
70	0xbe0bc1ce	-0.1364815
71	0xbdc6d472	-0.097084895
72	0x3e0bc981	0.13651086
73	0x3db26c51	0.08712066
74	0x3d876bdf	0.06612372
75	0xbd507fed	-0.05090325
76	0x3e54c4c0	0.20778179
77	0x3dc536ff	0.0962963
78	0x3db12901	0.08650399
79	0xbde7c259	-0.11316366
80	0xbc20b396	-0.009808442
81	0xbc61d605	-0.013783936
82	0xbe21fc45	-0.1581889
83	0x3ccbd290	0.024880677
84	0xbda11948	-0.0786615
85	0xbe618287	-0.22022448
86	0xbdfa7540	-0.12229395
87	0xbce332f9	-0.027734267
88	0x3de3f48f	0.1113063
89	0xbdf43b10	-0.11925328
90	0xbd4bfda8	-0.049802452
91	0xbd93c29d	-0.07214854
92	0xbc18e1c3	-0.00933117
93	0x3ca3c4e2	0.019991342
94	0xbdb85aee	-0.090017185
95	0x3b98b51d	0.0046602623
96	0x3db1ce1e	0.08681892
97	0x3c9f623c	0.019456021
98	0x3dd52578	0.10407537
99	0xbd2b06fc	-0.041754708
100	0xbd0d363a	-0.034475543
101	0xbd23cc4e	-0.039989762
102	0x3d2660f0	0.04061979
103	0xbd69a622	-0.057043202
104	0x3b4705fa	0.0030368553
105	0xbd7fc280	-0.06244135
106	0x3df82df4	0.1211814
107	0x3c156f98	0.009120844
108	0xbdd3c37b	-0.10340019
109	0x3c4fdc72	0.012686836
110	0x3e118403	0.14210515
111	0x3d2ffc51	0.042965237
112	0x3db515ed	0.08842073
113	0xbd6dbcd0	-0.058041394
114	0xbd85e612	-0.06538023
115	0xbe16da4e	-0.14731714
116	0x3da712a1	0.0815785
117	0x3d836af4	0.06416884
118	0x3b803e5c	0.003913684
119	0xbc392364	-0.011299942
120	0x3d7c07d3	0.0615309
121	0xbe22de28	-0.15905058
122	0xbd99cefa	-0.07510181
123	0x3d016665	0.03159179
124	0xbda1eb9d	-0.07906268
125	0xbe3c92fe	-0.18415448
126	0xbe1c93bc	-0.15290731
127	0xbc8a717d	-0.016899819
128	0x3d70e485	0.058811683
129	0x3d222653	0.03958733
130	0xbd956de8	-0.072963536
131	0x3dba4991	0.09096063
132	0xbe042243	-0.12903695
133	0x3db097af	0.08622681
134	0x3dc83e1d	0.09777472
135	0xbcd61527	-0.026133133
136	0xbd00f042	-0.031479128
137	0xbb556f9d	-0.0032567747
138	0xbdde799a	-0.108630374
139	0xbdc907ab	-0.09815916
140	0xbad64bf8	-0.0016349545
141	0xbe1352bb	-0.14387028
142	0x3e125f3c	0.14294142
143	0xbd553377	-0.052051034
144	0x3df50f48	0.11965805
145	0x3b38f37a	0.0028221295
146	0xbb2b6c08	-0.002615692
147	0xbd9a9ec1	-0.07549811
148	0xbaf45c5e	-0.001864325
149	0x3bdcac14	0.0067343805
150	0x3e429866	0.19003448
151	0x3dfd8838	0.12379497
152	0xbd24e312	-0.040255614
153	0xbb3461ea	-0.0027524182
154	0x3dc499f4	0.09599677
155	0xbdcc1b80	-0.09966183
156	0x3d1c0775	0.03809305
157	0xbe388f55	-0.18023427
158	0x3dc82f7a	0.097746804
159	0x3c22ed4a	0.009944269
160	0xbdde5f1b	-0.10857984
161	0xbc639635	-0.013890793
162	0x3d7482d2	0.059695072
163	0xbdb257f2	-0.087081805
164	0xbd4fee1e	-0.050764196
165	0x3d11623a	0.035494067
166	0xbd974d21	-0.07387758
167	0x3dab6f49	0.08370835
168	0xbe1de604	-0.15419775
169	0xbe513c5c	-0.20433182
170	0xbdcdf2a6	-0.10056047
171	0xbddc6ff8	-0.10763544
172	0xbd458ad3	-0.048228096
173	0xbda36357	-0.07977932
174	0xbe1defeb	-0.15423553
175	0xbdc776eb	-0.09739479
176	0x3e1efc05	0.15525825
177	0xbcde09f1	-0.02710435
178	0xbe132084	-0.14367872
179	0xbd5a2064	-0.053253546
180	0xbdbb6a78	-0.09151167
181	0x3a826e88	0.0009951154
182	0xbad02ae8	-0.0015881928
183	0xbd500dd5	-0.05079444
184	0xbe2e6fe8	-0.17034876
185	0x3e3675b3	0.17818336
186	0xbd937df4	-0.07201758
187	0x3d0e5799	0.03475151
188	0x3d88e2fe	0.0668392
189	0xbd1e08fc	-0.038582787
190	0x3d60ef1e	0.05491554
191	0x3b90692a	0.004407068
192	0xbd47e408	-0.048801452
193	0xbd10602a	-0.03524796
194	0xbe1fdc11	-0.15611292
195	0xbdef176b	-0.116743885
196	0xbe46fede	-0.19433162
197	0xbcf99e18	-0.030470893
198	0xbd602ff7	-0.054733243
199	0x3c454268	0.012039758
200	0x3e04fb36	0.12986454
201	0xbd288252	-0.041139908
202	0xbce9630d	-0.028489614
203	0x3cf16aa0	0.029469788
204	0x3d799574	0.060933545
205	0x3d502293	0.050814223
206	0x3bed19e7	0.007235754
207	0x3c8b7659	0.017024206
208	0x3d86ad54	0.065760285
209	0xbcbe3447	-0.023218287
210	0xbdd2bcfe	-0.10289954
211	0xbdceab2f	-0.100912444
212	0xbd9c568d	-0.07633696
213	0x3d2e277d	0.042518128
214	0x3d997869	0.074936695
215	0x3dafff6b	0.08593639
216	0x3d492d22	0.049115308
217	0xbd99c533	-0.07508316
218	0xbd00c53f	-0.03143811
219	0x3d2654e2	0.040608294
220	0x3e355704	0.17708975
221	0x3d18c6d8	0.037299007
222	0xbe540bf8	-0.2070769
223	0xbdbd8fac	-0.09255919
224	0xbc5ddd25	-0.0135414945
225	0xbe268325	-0.16260965
226	0x3def1055	0.11673037
227	0xbe2a6c21	-0.1664281
228	0x3a7320ac	0.0009274583
229	0x3d0d5406	0.03450396
230	0xbcd03481	-0.02541566
231	0x3b86358c	0.0040957388
232	0x3d68e162	0.056855567
233	0x3dac0e4d	0.08401165
234	0xbd51c612	-0.051214285
235	0xbdc600ca	-0.09668119
236	0x3df6d088	0.12051493
237	0x3d093c68	0.033504874
238	0x3ccc99fa	0.024975765
239	0x3d423e8c	0.04742293
240	0x3cf2631b	0.029588273
241	0xbd36bd32	-0.044614024
242	0xbccce20f	-0.025010137
243	0xbd6801a7	-0.0566422
244	0x3d0235c7	0.031789567
245	0xbdc35795	-0.09538189
246	0xbe097f38	-0.13427436
247	0x3c8394c5	0.01606215
248	0xbdb38aae	-0.087666854
249	0x3d8ef041	0.069794185
250	0xbbf86be6	-0.007581222
251	0x3c034ccd	0.008013916
252	0x3e0aa479	0.13539304
253	0xbdbb43da	-0.09143801
254	0x3d9af0e3	0.07565477
255	0x3d5200b3	0.051270198

network.0.bias f4 [512]
0	0xbd94f34a	-0.07272966
1	0xbd2a3f72	-0.041564412
2	0xbbe745db	-0.007057888
3	0xbe11857a	-0.14211074
4	0xbd917423	-0.071022294
5	0x3dafd968	0.08586389
6	0x3afb1a62	0.0019157643
7	0xbe036afc	-0.1283378
8	0xbdb08eaa	-0.08620961
9	0xbdf9359c	-0.12168428
10	0xbb8a5755	-0.0042218366
11	0x3d122f5a	0.03568969
12	0xbd6ce958	-0.05783972
13	0xbd3e622c	-0.046480343
14	0xbcc971a1	-0.024590315
15	0x3b4c6173	0.0031186014
16	0xbd05f2dc	-0.032702312
17	0x3d743ebd	0.059630144
18	0x3d4b81b1	0.04968423
19	0x3dc6fd47	0.097162776
20	0xbe17cc5f	-0.14824055
21	0x3d7c5eae	0.06161373
22	0xbd8e426b	-0.06946262
23	0xbcfe2ca6	-0.03102715
24	0x3c31e21b	0.01085713
25	0x3df2e2ce	0.11859666
26	0xbd3b7b65	-0.045771975
27	0x3d8ebe49	0.06969888
28	0xbd9c76ff	-0.07639884
29	0x3be6035d	0.007019444
30	0xbe188b4f	-0.14896892
31	0x3dc4d375	0.09610645
32	0xbe16ca46	-0.14725599
33	0xbd84872a	-0.06471093
34	0xbcfab656	-0.030604523
35	0x3bab301b	0.0052242405
36	0x3d628796	0.055305086
37	0xbdee2b08	-0.11629301
38	0xbdfa032b	-0.122076355
39	0xbe18e804	-0.14932257
40	0xbdd75ad4	-0.10515371
41	0xbe19bd8d	-0.15013714
42	0x3d8bb5db	0.068217956
43	0xbd91f236	-0.07126276
44	0xbd59f181	-0.05320883
45	0x3d4b4547	0.049626615
46	0x3d811bb0	0.06304109
47	0xbdeb92a2	-0.11502577
48	0x3d114068	0.035461813
49	0xbce75f04	-0.02824355
50	0xbd6070e7	-0.054795172
51	0xbc691ee1	-0.0142285535
52	0xbd0b4228	-0.03399864
53	0xbe1544a9	-0.14576973
54	0x3cba3fee	0.022735562
55	0xbceaa7f0	-0.028644532
56	0x3cc1b3ea	0.02364536
57	0x3d1aafd8	0.037765354
58	0x3dd90b54	0.10597864
59	0x3d3c9d71	0.046048585
60	0xbc9e49fb	-0.019322386
61	0x3cd03dee	0.025420155
62	0xbc7117dc	-0.014715161
63	0xbc0af85a	-0.008482063
64	0xbd2f8212	-0.042848654
65	0xbd86d2a6	-0.06583147
66	0x3dc079d8	0.0939824
67	0xbe128486	-0.14308366
68	0xbcd6f5fe	-0.026240345
69	0xbdf10763	-0.11768987
70	0xbd88774d	-0.0666338
71	0xbdf0fbdd	-0.11766789
72	0x3dda23b4	0.10651341
73	0x3b67d472	0.003537443
74	0xbd845036	-0.064606115
75	0xbd3c32fc	-0.04594706
76	0xbe1e64cd	-0.1546814
77	0xbda312ce	-0.07962571
78	0x3d59b08d	0.053146888
79	0xbd13a0c7	-0.036042
80	0xbc205337	-0.009785465
81	0xbdf471db	-0.11935779
82	0xbe05e4ab	-0.13075511
83	0xbdb060f7	-0.086122446
84	0xbd929e8a	-0.07159145
85	0xbd19ef31	-0.037581626
86	0xbd568663	-0.052374255
87	0x3b04dc5d	0.0020272948
88	0xbd753ab2	-0.05987043
89	0x3dca7cc0	0.098870754
90	0xbd10a008	-0.035308868
91	0x3bd2476d	0.006417206
92	0xbd9a7d10	-0.07543385
93	0x3d42c829	0.04755417
94	0xbbf3072a	-0.0074166255
95	0xbd72488b	-0.059151214
96	0xbdabaa4b	-0.0838209
97	0xbd319f72	-0.04336495
98	0x3d4647a9	0.048408184
99	0x3bd53471	0.0065064956
100	0xbe163acd	-0.14670868
101	0xbbd5a821	-0.0065202867
102	0x3d142644	0.036169305
103	0xbda339d3	-0.079700135
104	0xbc24046c	-0.01001082
105	0xbd2e1df5	-0.042509038
106	0xba9146b1	-0.001108369
107	0xbdbd5980	-0.092455864
108	0x3d4b2b9b	0.049602132
109	0x3bc0ddbe	0.0058858087
110	0xbe2c5fef	-0.16833471
111	0xbdcb3a40	-0.0992322
112	0x3cf75b2c	0.030194841
113	0xbd1c9fc5	-0.038238306
114	0xbcc572cc	-0.024102591
115	0x3d2fc191	0.04290921
116	0xbe13ef1e	-0.14446685
117	0xbd542752	-0.05179531
118	0xbe15aec6	-0.14617452
119	0xbdecb630	-0.11558187
120	0xbc826037	-0.01591502
121	0x3c5d7fec	0.0135192685
122	0xbd9d0fda	-0.07669039
123	0xbc217e65	-0.009856795
124	0x3d8159b5	0.063159384
125	0x3d575d61	0.052579287
126	0xbdc881d3	-0.09790387
127	0x3cb869d2	0.022511397
128	0xbd26f49d	-0.040760625
129	0xbe2dd08f	-0.1697409
130	0x3c7fe7e6	0.015619254
131	0x3c3b4b15	0.011431475
132	0xbddf07e9	-0.108901806
133	0xbdbc3ef1	-0.091916926
134	0xbd7c4bfe	-0.06159591
135	0xbc497e55	-0.012298186
136	0x3ce77e52	0.028258476
137	0xbd5b7b60	-0.053584456
138	0x3d1f1f22	0.03884805
139	0xbde7b66c	-0.11314091
140	0x3c5ffc5a	0.013671005
141	0x3c0c0eea	0.008548478
142	0xbe082cae	-0.13298294
143	0xbd5a4f6a	-0.05329839
144	0xbd7df9b1	-0.062005702
145	0xbc26ddc9	-0.010184714
146	0x3ded6c8a	0.11592968
147	0xbe058e42	-0.13042548
148	0x3e0636ed	0.1310689
149	0xbe1b3039	-0.15155114
150	0x3cadc5bd	0.021212453
151	0xbde0aa80	-0.1097002
152	0xbd645cba	-0.055752493
153	0xbdf4b075	-0.11947719
154	0xbdb0a3d4	-0.08624998
155	0xbdb1e67f	-0.08686542
156	0x3d6852a8	0.056719452
157	0xbbf81f00	-0.007572055
158	0x3d844288	0.06458002
159	0xbdb9fe4d	-0.09081707
160	0xbdf84d22	-0.12124087
161	0x3ccf2594	0.025286473
162	0x3d9643fe	0.07337187
163	0xbe103449	-0.14082445
164	0x3d90c68d	0.070691206
165	0x3c9a9304	0.01886893
166	0xbd30593f	-0.04305386
167	0x3ca488e7	0.020084811
168	0xbd972cc7	-0.073815875
169	0x3dd58ddc	0.10427448
170	0xbdd371e7	-0.103244595
171	0xbc373275	-0.0111814635
172	0xbd93474f	-0.071913354
173	0xbd3dbc03	-0.04632188
174	0x3c1404b0	0.009034321
175	0xbe18ce46	-0.14922437
176	0xbda00a30	-0.07814443
177	0xbdac4749	-0.08412034
178	0x3da3aed5	0.07992331
179	0x3d1ee0d4	0.03878863
180	0xbd950903	-0.072771095
181	0xbbf5ee03	-0.00750518
182	0x3c5cccdc	0.013476577
183	0xbdfe7d11	-0.12426198
184	0xbdc58774	-0.09644976
185	0xbc9cfefc	-0.019164555
186	0xbe1d8293	-0.15381841
187	0xbdd84b8b	-0.10561284
188	0xbcca7f8c	-0.024719022
189	0xbdc86100	-0.09784126
190	0x3cef6725	0.029223988
191	0x3d44c702	0.04804135
192	0xbd94607a	-0.07244964
193	0x3d8fde9d	0.07024882
194	0x3cf2089c	0.02954512
195	0xbd92536d	-0.071448185
196	0xbc057d15	-0.008147498
197	0xbe463e3c	-0.19359678
198	0x3d9b140e	0.075721845
199	0x3db5f196	0.088839695
200	0xbd58941f	-0.052875634
201	0x3c5da449	0.013527938
202	0x3d43e46e	0.04782527
203	0x3d8e128c	0.06937131
204	0x3d6418c7	0.055687692
205	0x3c217975	0.009855618
206	0xbd61258c	-0.054967448
207	0xbd9994a1	-0.07499052
208	0xbd8222c2	-0.06354286
209	0xbd8078ca	-0.06273039
210	0xbd8291a4	-0.06375435
211	0xbde40a3a	-0.11134763
212	0x3a97d1e0	0.0011582933
213	0xbdcd32fd	-0.10019491
214	0x3d8aa67f	0.06770038
215	0xbcf3dee2	-0.029769365
216	0x3d366b0a	0.044535674
217	0xbe0ee0fe	-0.13953015
218	0xbda78d01	-0.08181191
219	0xbac0ceb2	-0.0014710038
220	0xbc988993	-0.018620288
221	0xbd484f3e	-0.048903696
222	0xbd926ac8	-0.07149273
223	0x3c01496d	0.007891041
224	0x3c6a828b	0.01431335
225	0xbdd5bed3	-0.104367875
226	0x3c816776	0.015796404
227	0xbd2e92f1	-0.042620603
228	0xbd2d81b1	-0.04236001
229	0xbdc5184b	-0.09623774
230	0xbe026112	-0.12732342
231	0x3c4b2e0c	0.012401115
232	0xbd8f251e	-0.069895014
233	0xbccdd263	-0.025124734
234	0xbdf570f5	-0.119844355
235	0xbd7996cb	-0.060934823
236	0xbd150dca	-0.036390103
237	0xbcf06aba	-0.029347766
238	0xbdcd8fd4	-0.10037199
239	0x3ca5921c	0.020211272
240	0x3ccf7e22	0.0253287
241	0xbde3f056	-0.11129825
242	0xbe0fc50f	-0.14040016
243	0xbe1bae96	-0.15203318
244	0xbb132ea4	-0.002245822
245	0xbd2982ce	-0.04138451
246	0xbdaef49f	-0.085427515
247	0xbdc1c017	-0.09460466
248	0x3bb9823b	0.0056612766
249	0x3d1fbeb6	0.039000235
250	0xbdf0e7d6	-0.11762969
251	0xbdc3f8b1	-0.095689185
252	0x3d8c9b54	0.06865564
253	0xbe14d88e	-0.14535734
254	0x3bbe3b52	0.0058054114
255	0xbdbc9104	-0.09207347

network.3.weight f4 [256, 512]
0	0x3c8a9d06	0.016920578
1	0x3c234b3d	0.009966669
2	0x3d9fc3df	0.07801031
3	0x3c8ea2f7	0.017411692
4	0xbd125e6e	-0.035734586
5	0x3bbcbd56	0.0057598753
6	0xbd2f10e1	-0.042740706
7	0x3bb416f6	0.005495901
8	0xbd1cab5b	-0.038249355
9	0xbd9e1817	-0.077194385
10	0x3ce1cd8a	0.027563829
11	0xbd095c28	-0.033535153
12	0x3d1ba232	0.03799648
13	0x3d0ac53a	0.033879496
14	0xbd160235	-0.0366232
15	0xbb99e956	-0.0046970053
16	0xbcc34526	-0.023836683
17	0xbc24f3eb	-0.01006792
18	0xbc093096	-0.0083734
19	0x3ce9c5ef	0.028536765
20	0x3c296a90	0.010340348
21	0xbd1c7494	-0.038197115
22	0xbc09cdc7	-0.008410878
23	0xbcbcbaf8	-0.023038372
24	0xbc890889	-0.016727703
25	0x3daa7e50	0.083248734
26	0xbc3f914f	-0.011692359
27	0x3c6cf7c9	0.014463373
28	0xbd23b3de	-0.039966457
29	0xbd6627c2	-0.05619026
30	0xbd85c281	-0.06531239
31	0x3bb73ac5	0.0055917227
32	0x3cf0d322	0.029397551
33	0x3d5fc913	0.05463512
34	0xbc6089f8	-0.013704769
35	0xbd87ee70	-0.06637275
36	0xbce2b642	-0.027674798
37	0xbd3c35ed	-0.045949865
38	0x3a4fe482	0.00079304737
39	0xbcbfe210	-0.023423225
40	0xbc32ce60	-0.010913461
41	0xbd6fc231	-0.058534805
42	0xbb904d1c	-0.0044037234
43	0x3caa3978	0.020779356
44	0xbd7614e2	-0.06007851
45	0x3c498b20	0.012301236
46	0x3cf13315	0.029443303
47	0xbd58dd6e	-0.052945547
48	0x3c26d937	0.010183624
49	0x3d219fa1	0.039458875
50	0xbd6db9ae	-0.058038406
51	0xbd861506	-0.06546979
52	0xbcfc7a21	-0.030819954
53	0xbda009f2	-0.07814397
54	0xbd3a2f6e	-0.04545539
55	0x3ae6d8f1	0.0017612261
56	0x3b56e992	0.0032793027
57	0x3c714079	0.014724844
58	0x3d2f5cb2	0.04281301
59	0x3cca6d1d	0.024710232
60	0xbc3a58a1	-0.01137367
61	0xbd34d571	-0.044148866
62	0x3ccfda5d	0.025372678
63	0x3c70fe62	0.014709087
64	0xbd6974a7	-0.056996014
65	0x37cb59c0	2.4241279e-05
66	0x3cc8a0e4	0.024490781
67	0xbd487254	-0.048937157
68	0x3d35a86f	0.044350084
69	0xbc99cf6c	-0.018775664
70	0x3d1a16ca	0.03761939
71	0xbcb4a8ac	-0.022053085
72	0x3cb6000e	0.022216823
73	0xbd830a0c	-0.06398401
74	0xbd815989	-0.063159056
75	0xbc6670a2	-0.01406494
76	0xbdb7e5e9	-0.08979399
77	0x3d8d3753	0.06895318
78	0xbd8e4adc	-0.06947872
79	0xbcd45abd	-0.025922174
80	0xbd3fdfe8	-0.046844393
81	0xbcb033ce	-0.021509077
82	0xbd181f19	-0.037139032
83	0xbbad53fb	-0.0052895523
84	0x3ba0c292	0.004906007
85	0x3c80b44f	0.015710978
86	0xbc8e49ea	-0.01736923
87	0xbda146cb	-0.07874831
88	0x3d70e38a	0.05881075
89	0xbc786f41	-0.015163244
90	0x3afadec8	0.001913988
91	0xbd29799d	-0.041375745
92	0x3ae3aff7	0.0017371167
93	0xbd401332	-0.046893306
94	0xbd035f01	-0.032073025
95	0x3cdfd944	0.02732528
96	0xbcfc6d6b	-0.030813893
97	0xbc75773c	-0.014982041
98	0x3ce618df	0.028088031
99	0xbd441558	-0.047871917
100	0x3c406c88	0.011744626
101	0xbc2fe62a	-0.010736028
102	0xbd0d5c25	-0.034511704
103	0xbd73dfd3	-0.059539627
104	0xbb900db0	-0.004396163
105	0x3d8f21a8	0.06988841
106	0x3d8f816d	0.07007108
107	0xbd6299f5	-0.055322606
108	0xbd75b882	-0.059990413
109	0xbcee9cf0	-0.029127568
110	0xbccf1f24	-0.025283404
111	0xbc937f82	-0.018005136
112	0xbcda0ec0	-0.026618361
113	0x3dafca6c	0.08583531
114	0xbc8123cf	-0.015764145
115	0x3bb9e9c2	0.005673618
116	0xbd6d9a39	-0.058008406
117	0xbce6a2e6	-0.028153848
118	0xbd23194a	-0.03981904
119	0x3bd920f8	0.0066262446
120	0xbcf6de49	-0.03013529
121	0xbc883e78	-0.01663135
122	0xbd6851e3	-0.05671872
123	0xbd2ace19	-0.041700456
124	0xbd88a0aa	-0.06671269
125	0xbd96010c	-0.073244184
126	0xbc272d0f	-0.010203614
127	0xbb91098e	-0.004426188
128	0xbdcb0ea0	-0.09914899
129	0xbc8e61d1	-0.017380627
130	0xbce90b63	-0.028447812
131	0xbd2a2f93	-0.041549277
132	0xbd2ed025	-0.04267897
133	0x3b60a262	0.0034276475
134	0xbd5a156b	-0.053243082
135	0xbd242e6a	-0.040083326
136	0xbced27dd	-0.028949672
137	0xbc840577	-0.016115887
138	0xbd261353	-0.040545773
139	0x3d3a4a15	0.045480806
140	0xbd7d1856	-0.061790787
141	0x3c443763	0.011976096
142	0xbdbe46f3	-0.09290876
143	0x3c643953	0.013929683
144	0xbd6b3fd5	-0.05743392
145	0xbd36db10	-0.044642508
146	0x3c98a27b	0.018632164
147	0xbd1fc1db	-0.039003234
148	0x3c1a0c0d	0.009402287
149	0xbd41d85c	-0.047325477
150	0xbd61f5dd	-0.055166114
151	0x3c910d60	0.017706573
152	0xbc602f8d	-0.013683212
153	0x3cbc2137	0.022965057
154	0xbb354e1a	-0.002766496
155	0x3dba4a5d	0.09096215
156	0x3c9f3eb4	0.019439079
157	0xb99b46fe	-0.00029616797
158	0x3bbe5b70	0.00580924
159	0x3c2c5bb0	0.010519907
160	0xbcaf736f	-0.021417348
161	0xbd375258	-0.044756263
162	0x3d2879a8	0.041131645
163	0x3ca11e2a	0.019667704
164	0xbd0e4113	-0.03473003
165	0x3cf13ecf	0.029448895
166	0xb9f3d9a3	-0.00046510724
167	0xbc23df28	-0.010001935
168	0x3de87534	0.1135048
169	0x3ca727f7	0.020404799
170	0xbb9379df	-0.004500612
171	0xbd87e7a6	-0.0663598
172	0xbc16effb	-0.009212489
173	0xbd0e65cf	-0.03476506
174	0xbd53fd55	-0.051755268
175	0xbc80fd93	-0.015745914
176	0xbcb2ff95	-0.021850387
177	0xbcde7ce5	-0.027159164
178	0x3ca02768	0.01955004
179	0xbd003d1d	-0.031308282
180	0x3dcbb166	0.099459454
181	0x3b3062e5	0.0026914414
182	0xbced7bf6	-0.028989773
183	0xbc381aac	-0.011236828
184	0xbcf9b2bc	-0.030480735
185	0xbd020709	-0.03174499
186	0x3c06bda2	0.008223923
187	0x3b4463a6	0.0029966622
188	0xbc349f9c	-0.011024382
189	0xbd2cb1ab	-0.042161625
190	0xbdacf686	-0.08445458
191	0x3a4481d7	0.0007496154
192	0xbdb1e746	-0.0868669
193	0x3c83f4dd	0.01610797
194	0xbcbd4a84	-0.02310682
195	0x3d47f2bd	0.048815478
196	0x3a3d9501	0.0007231981
197	0xbd8e50e7	-0.06949025
198	0x3c9fd6e0	0.01951164
199	0x3cff80b6	0.031189304
200	0x3ce2b7a0	0.02767545
201	0xbbd4a1fb	-0.006489036
202	0xbd692292	-0.056917734
203	0xbc9aeb22	-0.018910948
204	0xbcd38a96	-0.025822919
205	0xbcdf6d1c	-0.027273707
206	0x3c868a67	0.016423417
207	0x3c291fc8	0.010322519
208	0x3b9a02db	0.0047000474
209	0xbc9c8c50	-0.019109875
210	0xbbc085c0	-0.0058753192
211	0xbdc1b6f2	-0.09458722
212	0xbc314bd0	-0.010821298
213	0xbcaab98a	-0.020840425
214	0x3cb89b01	0.02253485
215	0x3d4ad35b	0.04951797
216	0x3d0e3605	0.034719486
217	0x3c96a597	0.018389506
218	0xbc469c49	-0.012122222
219	0x3aa8a738	0.0012867218
220	0x3c39813d	0.011322317
221	0x3dc91041	0.09817553
222	0x3ca812b6	0.020516735
223	0xbbd0db38	-0.006373789
224	0x3dcfe276	0.10150616
225	0x3c2d7aec	0.010588389
226	0xbbd66714	-0.0065430496
227	0xbd5d263d	-0.053991545
228	0xbd603bb3	-0.054744434
229	0xbca86a25	-0.020558426
230	0xbca1e15d	-0.019760782
231	0xbd184961	-0.037179355
232	0x3c38c5de	0.011277644
233	0x3b099ea4	0.0020999098
234	0xbd147c72	-0.036251493
235	0x3e10926c	0.14118356
236	0xbd5c8830	-0.053840816
237	0xbc100438	-0.008790068
238	0x3c2a91f3	0.010410774
239	0x3c21f9df	0.009886234
240	0xbca1cf67	-0.019752217
241	0xbc46b174	-0.012127269
242	0x3c2b4117	0.01045253
243	0xbd339bb1	-0.04384965
244	0x3d90cbbd	0.0707011
245	0xbbf020f1	-0.0073281457
246	0x3c896dff	0.016776083
247	0xbd365e2c	-0.044523403
248	0xbd71d8e1	-0.059044722
249	0xbd4d078e	-0.050056033
250	0xbd449121	-0.04798997
251	0x3ba6a0a3	0.0050850674
252	0xbd942288	-0.07233149
253	0xbd905aec	-0.07048592
254	0xbd3ab41f	-0.045581933
255	0xbbce47f6	-0.0062951995

network.3.bias f4 [256]
0	0x3c583e0c	0.013198387
1	0xbcf9caa8	-0.030492142
2	0x3b496a1a	0.0030733407
3	0xbd848dd5	-0.06472365
4	0xbd7a4bd7	-0.061107483
5	0xbd7b4f2c	-0.0613548
6	0xbcec1718	-0.028819606
7	0x3c7f9552	0.015599566
8	0xbcd72dc4	-0.02626694
9	0x3b792312	0.0038015288
10	0xbbadfc27	-0.0053096
11	0xbd4ce4bb	-0.050022822
12	0xbda07842	-0.07835437
13	0x3c6dae90	0.014506951
14	0xbd67948d	-0.056538153
15	0xbc947733	-0.018123245
16	0xbcaccc4b	-0.021093508
17	0xbd0e8b4c	-0.034800813
18	0xbd698aa4	-0.057016984
19	0xbdb97e60	-0.09057307
20	0xbd390273	-0.04516835
21	0x3cec819b	0.028870394
22	0xbd2ed87b	-0.04268692
23	0x3d141fbf	0.036163088
24	0xbd348ec1	-0.044081453
25	0xbd6a823a	-0.0572531
26	0xbd628c41	-0.055309538
27	0xbcea4ab7	-0.02860008
28	0xbd07a73c	-0.03311847
29	0xbd9b496f	-0.07582366
30	0xbd7c1356	-0.061541878
31	0x3b23df64	0.0025004977
32	0x3aa6719e	0.0012698655
33	0xbd587d13	-0.052853655
34	0xbc9cac67	-0.019125177
35	0x3bac2efa	0.0052546235
36	0xbd8e65b8	-0.06952995
37	0xbdbdfde7	-0.09276944
38	0x3d127216	0.035753332
39	0x3cbf32a9	0.023339586
40	0xbd99a231	-0.07501639
41	0x3d312d75	0.04325624
42	0x3bc68272	0.0060580308
43	0xbdd16c4e	-0.102257356
44	0xbc7bafea	-0.015361765
45	0x3d4dfe4a	0.050291337
46	0xbda49399	-0.080359645
47	0xbc7e951e	-0.015538482
48	0xbcf90b9c	-0.030401044
49	0x3d202355	0.039096195
50	0xbd349675	-0.0440888
51	0x3ced7acd	0.02898922
52	0xbdb5deac	-0.08880362
53	0x3d4bf95c	0.049798355
54	0xbcda8989	-0.02667691
55	0xbda9d043	-0.08291676
56	0x3c970d38	0.01843892
57	0xbdc16e29	-0.094448395
58	0xbd9db72d	-0.07700954
59	0x3b86b144	0.004110487
60	0xbdbfa3f5	-0.09357444
61	0xbdaf19b5	-0.08549825
62	0xbd724668	-0.059149176
63	0xbd5fc60d	-0.054632235
64	0xbd787df7	-0.060667004
65	0xbdd16f00	-0.1022625
66	0xbd72973d	-0.059226263
67	0x3ce09cf1	0.027418585
68	0xbd12aa8c	-0.035807177
69	0xbc4ce794	-0.012506384
70	0xbcfa1fe5	-0.030532787
71	0x3bb86beb	0.005628099
72	0xbdf5933b	-0.119909726
73	0xbc45a25a	-0.012062633
74	0xbd7c83fc	-0.061649308
75	0xbb64e558	-0.0034926739
76	0xbdaf8a1a	-0.08571263
77	0xbce8b2e3	-0.028405612
78	0xbdbb695b	-0.09150954
79	0xbd478c64	-0.04871787
80	0xbce71dec	-0.02821251
81	0xbd79e247	-0.06100681
82	0x3b24ee74	0.0025166543
83	0xbd75a574	-0.05997224
84	0xbd9d2303	-0.076726936
85	0xbd5b0188	-0.053468257
86	0xbc5875c3	-0.01321167
87	0xbd61fd77	-0.055173364
88	0xbc74bf36	-0.014938166
89	0xbd29afef	-0.04142755
90	0xbd416071	-0.047211114
91	0x3c5a3133	0.013317394
92	0x3d62d12c	0.055375263
93	0x3d0fc1ed	0.03509705
94	0xbc3e0e6c	-0.011600118
95	0xbd279ff0	-0.040924013
96	0xbd2ae09c	-0.04171811
97	0xbdc5bea8	-0.096555054
98	0x3b2364ff	0.0024932025
99	0xbb6d92a9	-0.0036250746
100	0x3d5a1059	0.053238247
101	0x3d204009	0.03912357
102	0xbd51b055	-0.051193554
103	0x3bb4b764	0.005515026
104	0x3cb12893	0.021625793
105	0xbd0b2601	-0.03397179
106	0xbc5bb6c2	-0.013410272
107	0xbdb45fc4	-0.08807328
108	0xbd429e4c	-0.047514245
109	0xbdb8f156	-0.09030406
110	0xbc44286f	-0.011972531
111	0xbcffde13	-0.031233823
112	0xbdbbf793	-0.091780804
113	0x3cd6bc5b	0.026212862
114	0xbdbfc86e	-0.09364401
115	0xbdbf0f5a	-0.093291
116	0xbcad8f0d	-0.021186376
117	0x3bbe18a2	0.0058012763
118	0xbcce524f	-0.025185732
119	0xbd8e4c27	-0.06948119
120	0xbd7b6df2	-0.06138415
121	0x3d1f198b	0.03884272
122	0xbcf39ff7	-0.029739363
123	0xbc23e9b4	-0.01000445
124	0x3d1bd6af	0.038046535
125	0xbd239b3c	-0.039942965
126	0xbd3bf4a0	-0.04588759
127	0xbc5ab600	-0.013349056
128	0xbd096327	-0.033541825
129	0xbcc6ac15	-0.024251977
130	0xbd1d0ab8	-0.0383403
131	0xbd66b810	-0.05632788
132	0xbd0d16f0	-0.034445703
133	0xbd935c9b	-0.071953975
134	0xbd54824f	-0.051882084
135	0xbdb56eb0	-0.088590026
136	0xbdab3ed9	-0.083615966
137	0xbc9bc775	-0.019016007
138	0x3ca4e646	0.020129334
139	0xbdc20b66	-0.0947483
140	0x3cad5f86	0.021163713
141	0xbd2e7458	-0.042591423
142	0xbc35c735	-0.011094858
143	0xbc9690d8	-0.018379614
144	0xbcab7515	-0.020929853
145	0x3d1b9c25	0.037990708
146	0xbd3962e2	-0.045260318
147	0xbd0d91de	-0.034562938
148	0xbd4e506c	-0.050369665
149	0xbd8ef26f	-0.06979834
150	0xbdbae3e5	-0.09125499
151	0x3d3d7f4f	0.04626399
152	0xbd11e38e	-0.035617404
153	0xbd47f95f	-0.048821803
154	0xbae91474	-0.0017782585
155	0xbd197f44	-0.037474886
156	0xbcd76a9b	-0.02629595
157	0xbd314019	-0.04327402
158	0xbdab46b2	-0.083630934
159	0xbd2daaab	-0.04239909
160	0x39a31120	0.00031102542
161	0xbda943bc	-0.082648724
162	0xbd893033	-0.066986464
163	0xbda1c76f	-0.07899367
164	0xbdc597c4	-0.096480876
165	0xbcfe14e8	-0.031015828
166	0xbba5cf80	-0.0050601363
167	0xb7f618c0	-2.933701e-05
168	0xbd4a45c5	-0.049382944
169	0x3cfa1dcd	0.030531788
170	0x3d4aed6e	0.049542837
171	0xbd7a655f	-0.06113183
172	0xba9575d8	-0.0011402918
173	0xbd07bf3d	-0.033141363
174	0xbcb0831c	-0.021546893
175	0xbb810b9a	-0.0039381506
176	0x3d1e276b	0.03861181
177	0xbd6656d9	-0.056235168
178	0xbd405506	-0.046956085
179	0xbd5c08f2	-0.05371947
180	0xbd0acbbf	-0.033885714
181	0xbc94d910	-0.01816991
182	0xbd51b328	-0.051196247
183	0xbc8d0734	-0.017215349
184	0xbcf72684	-0.030169733
185	0x3cf3229b	0.029679587
186	0xbda29550	-0.07938635
187	0xbd6b651d	-0.057469476
188	0xbcd54a31	-0.026036354
189	0x3d247880	0.04015398
190	0x3caa217f	0.020767925
191	0xbca58077	-0.020202858
192	0xbd1d8602	-0.038457878
193	0xbca7fb61	-0.020505609
194	0x3d0cebe1	0.03440464
195	0xbda7324b	-0.081638895
196	0xbd0f2bb5	-0.03495379
197	0x3d2afc76	0.04174467
198	0xbce238c7	-0.027614964
199	0xbd8fcc63	-0.070214055
200	0xbda04a28	-0.07826644
201	0x3c8435b6	0.016138893
202	0xbd5a76af	-0.05333584
203	0xbd10840b	-0.035282176
204	0xbccc0556	-0.024904888
205	0xbc0ad0c0	-0.008472621
206	0xbd9eb225	-0.07748822
207	0xbc86d373	-0.016458249
208	0x3c9b163a	0.018931497
209	0xbd21c1c4	-0.03949143
210	0xbd686659	-0.05673823
211	0x3d2a5680	0.0415864
212	0xbc5fb0c2	-0.013652982
213	0x3cce1223	0.025155133
214	0xbc9f7e62	-0.019469444
215	0xbc263d6e	-0.010146482
216	0xbdd4ce46	-0.10390906
217	0xbcbb15d1	-0.022837551
218	0xbce01351	-0.02735296
219	0x3cd87de3	0.026427215
220	0xbd89735d	-0.06711457
221	0xbd6edfbb	-0.058318835
222	0xbd8dd7f4	-0.069259554
223	0xbc1d326a	-0.009594539
224	0xbc14fa36	-0.009092858
225	0x3cb534bc	0.022119872
226	0x3c5432d7	0.012951574
227	0xbda6650d	-0.08124743
228	0xbd0d4626	-0.034490727
229	0xbce9ad9f	-0.028525172
230	0x3d3010d4	0.0429848
231	0xbce728d9	-0.02821772
232	0xbdb00ae6	-0.08595829
233	0xbc89c5ef	-0.016818015
234	0xbcb0ff82	-0.02160621
235	0xbdbe9157	-0.09305065
236	0xbd02f7d0	-0.031974614
237	0xbdbd6f3e	-0.092497334
238	0xbc480ce6	-0.0122101065
239	0x3d366195	0.044526655
240	0xbd319541	-0.04335523
241	0x3bcbe664	0.006222533
242	0xbd89cb93	-0.06728282
243	0xbd351152	-0.04420597
244	0xbc645e8a	-0.0139385555
245	0x3cccdfe3	0.025009101
246	0xbda5a96a	-0.08088954
247	0xbd86d010	-0.065826535
248	0xbbfa7f27	-0.0076445523
249	0xbd032610	-0.03201872
250	0x3d548969	0.051888857
251	0xbd83a05c	-0.064270705
252	0xbd2d2784	-0.042274013
253	0xbd85abb3	-0.0652689
254	0xbd08a7f0	-0.033363283
255	0xbc93c4ad	-0.018038118

network.6.weight f4 [128, 256]
0	0xbd0c9da1	-0.034330014
1	0xbd9cd454	-0.07657686
2	0xbcb9bcec	-0.022673093
3	0xbd6e75ab	-0.058217686
4	0xbc2e83f5	-0.010651578
5	0xbd99a15d	-0.07501481
6	0xbda6a18d	-0.08136282
7	0x3ad34d87	0.0016121127
8	0xbd5c9e73	-0.053862046
9	0xbd1a50c2	-0.037674673
10	0x3de388dd	0.11110089
11	0x3ae36710	0.0017349441
12	0xbcac3c45	-0.021024833
13	0xbdb0792d	-0.086168624
14	0xbd877e2f	-0.066158645
15	0xbde16dce	-0.11007272
16	0xbb545748	-0.0032400656
17	0x3b051b13	0.0020310327
18	0xbda74977	-0.08168309
19	0x3c9c4404	0.019075401
20	0xbd5cb609	-0.05388454
21	0xbde16163	-0.11004903
22	0xbdabd262	-0.08389737
23	0xbd5dae56	-0.054121338
24	0xbdab301b	-0.08358785
25	0xbde0671f	-0.10957169
26	0xbd3849ad	-0.044992138
27	0x3aeebe50	0.0018214677
28	0xbdc1886f	-0.09449851
29	0xbd1a7f01	-0.037718777
30	0xbc893c9e	-0.016752537
31	0xbdf890c5	-0.121369876
32	0x3b99ff00	0.004699588
33	0x3988ab66	0.00026067643
34	0xbde35514	-0.11100212
35	0xbc7d6568	-0.015466072
36	0xbdb5db93	-0.08879771
37	0x3c4302e5	0.011902546
38	0x3a6be976	0.0008999327
39	0xbd891b62	-0.06694676
40	0xbcf5e64b	-0.030017039
41	0xbd770ca4	-0.06031479
42	0xbda90ffa	-0.082550004
43	0xbd866854	-0.06562868
44	0xbdadc680	-0.084851265
45	0xbdde24cf	-0.108468644
46	0xbde152af	-0.11002099
47	0xbd5b80bb	-0.053589564
48	0xbddfd28c	-0.109288305
49	0xbd9a3120	-0.07528901
50	0xbd1e9673	-0.0387177
51	0xbd9f7310	-0.07785618
52	0xbd313c46	-0.04327037
53	0x3c561b48	0.013068028
54	0xbd3b6d87	-0.04575875
55	0xbd917b19	-0.07103557
56	0xbdb94570	-0.09046447
57	0xbd5be9b0	-0.05368966
58	0xbdd1ab68	-0.10237771
59	0xbbf765fc	-0.0075499993
60	0xbd21490b	-0.0393763
61	0xbdabd567	-0.08390313
62	0xbd2b2732	-0.041785426
63	0xbc230cf1	-0.009951816
64	0xbbab16e0	-0.005221233
65	0xbdd4db09	-0.1039334
66	0xbdb1b211	-0.086765416
67	0xbdae94d8	-0.085244834
68	0x3be20168	0.0068971403
69	0xbd1b76bc	-0.03795503
70	0xbcc70867	-0.024295999
71	0xbc3209a5	-0.010866557
72	0x3dc1aa61	0.09456325
73	0xbdbdc116	-0.09265344
74	0xbd462007	-0.048370387
75	0xbda3dcfd	-0.080011345
76	0x3aee4784	0.0018179272
77	0xbd37ca99	-0.044870947
78	0xbdbbf5ca	-0.0917774
79	0xbda1a675	-0.07893077
80	0xbd53e676	-0.051733457
81	0xbd6b3db6	-0.0574319
82	0xbc872155	-0.016495386
83	0xbd282fc6	-0.041061185
84	0x3c08bd6b	0.008345942
85	0xbdddc73b	-0.10829016
86	0xbcf3bc8c	-0.029752992
87	0xbbc8bd06	-0.006126049
88	0xbd1fec05	-0.039043445
89	0xbdc58b1e	-0.09645675
90	0xbcf98d0c	-0.030462764
91	0xbd1288f1	-0.03577513
92	0xbcfc078d	-0.03076532
93	0xbdb932a8	-0.09042865
94	0xbdebdb01	-0.11516381
95	0xbd325f32	-0.043547817
96	0xbd9648ca	-0.07338102
97	0xbd1953b9	-0.03743336
98	0xbda0b3e8	-0.078468144
99	0xbcd50522	-0.026003424
100	0xbdb311f3	-0.08743658
101	0xbdc31c4e	-0.09526883
102	0xbddcb2a3	-0.1077626
103	0xbd33da1a	-0.04390917
104	0xbc5b7591	-0.013394729
105	0xbde78648	-0.11304909
106	0xbd314064	-0.0432743
107	0xbd9b8d92	-0.07595362
108	0xbd823c51	-0.06359161
109	0xbbba520e	-0.005686051
110	0xbc8e3759	-0.017360376
111	0xbd085b80	-0.033290386
112	0xbd233540	-0.039845705
113	0xbdb299cf	-0.08720743
114	0xbd4ba4b6	-0.049717627
115	0xbc46a4e6	-0.012124276
116	0xbda794e6	-0.08182697
117	0xbcf6e045	-0.030136237
118	0xbe048968	-0.12943041
119	0xbdb5e74b	-0.08882006
120	0xbd678556	-0.056523643
121	0xbdb6005f	-0.088867895
122	0xbcdf2f24	-0.027244158
123	0xbd46d3a7	-0.04854169
124	0xbcb6384a	-0.022243638
125	0xbdca75af	-0.098857276
126	0xbd941965	-0.07231406
127	0xbdf2e38c	-0.11859807
128	0xbdada827	-0.08479338
129	0xbdb0d67d	-0.086346604
130	0xbc8890cf	-0.016670613
131	0xbdeb330b	-0.11484345
132	0xbdda39e8	-0.10655576
133	0xbcfdfaef	-0.031003444
134	0x3cfe45d5	0.031039158
135	0x3d90dc60	0.07073283
136	0xbcba15c9	-0.022715466
137	0xbd30212c	-0.043000385
138	0xbdd09d5b	-0.10186263
139	0xbc78fb7f	-0.01519668
140	0xbd138050	-0.03601104
141	0xbd99a8f3	-0.07502928
142	0xbd810a22	-0.06300761
143	0xbccf8da1	-0.025336089
144	0xbcc9ff28	-0.0246578
145	0xbd360ff3	-0.044448804
146	0xbbaeea51	-0.0053379913
147	0xbc4aff6c	-0.012389999
148	0xbd96fc8c	-0.07372388
149	0xbcfffdd3	-0.031248963
150	0xbd923a41	-0.07140017
151	0xbda2e527	-0.079538636
152	0xbd293f55	-0.041320164
153	0xbc98b018	-0.018638656
154	0xbd176fbc	-0.036971793
155	0xbd9e8201	-0.0773964
156	0xbcdfcf5c	-0.027320556
157	0xbdbc5023	-0.09194972
158	0x39025140	0.00012428034
159	0xbd9f62e2	-0.07782532
160	0xbd019310	-0.03163439
161	0x3d06aa80	0.032877445
162	0xbd50f8d8	-0.051018566
163	0xbdafead7	-0.08589714
164	0xbdad542d	-0.08463321
165	0xbdacf5d7	-0.08445328
166	0xbd46e4c9	-0.04855803
167	0xbd41f57e	-0.04735326
168	0xbdc7b3db	-0.097511016
169	0xbc787ae6	-0.01516602
170	0xbda76440	-0.08173418
171	0xba4c3246	-0.0007789474
172	0xbc2629fc	-0.010141846
173	0xbd214d20	-0.039380193
174	0xbd0e532a	-0.03474728
175	0xbd79122a	-0.06080834
176	0xbb3edfb7	-0.0029125044
177	0xbd3cd59c	-0.04610215
178	0xbd5d4974	-0.05402513
179	0xbdebfbba	-0.115226224
180	0xbddcfc2d	-0.10790286
181	0xbd8dfa67	-0.06932526
182	0xbd5f3dae	-0.05450218
183	0xbdb71aef	-0.08940684
184	0xbced53a3	-0.028970545
185	0xbc2f9db3	-0.010718751
186	0xbd0ab530	-0.0338642
187	0xbdcb1efa	-0.09918018
188	0xbcd3e89f	-0.025867758
189	0xba9d91d4	-0.001202161
190	0xbdf5ec44	-0.12007955
191	0xbd7e79b2	-0.062127776
192	0xbda4d684	-0.08048728
193	0xbcd3ed00	-0.025869846
194	0xbddff525	-0.109354295
195	0xbd5577c2	-0.052116163
196	0xbd335993	-0.043786597
197	0xbd3692bc	-0.04457353
198	0xbcf946ab	-0.030429205
199	0xbd939e5f	-0.07207941
200	0xbc87a6c5	-0.016559014
201	0xbdd6fb4d	-0.104971506
202	0xbdc59f9a	-0.09649582
203	0x3bf22243	0.007389338
204	0xbbba834a	-0.0056919204
205	0xbbc757e5	-0.006083476
206	0xbbfc33a2	-0.007696585
207	0xbd833914	-0.06407371
208	0xbd268d07	-0.040661838
209	0xbdbc110b	-0.09182938
210	0xbdbd53ce	-0.092445
211	0xbd7a0ee6	-0.061049365
212	0xbd1d8fd6	-0.03846725
213	0xbb8b5d57	-0.0042530703
214	0x3c1958ae	0.009359522
215	0xbd4aaad2	-0.049479313
216	0xbdab4389	-0.08362491
217	0xbdd294b3	-0.102822684
218	0x3c045d63	0.008078906
219	0xbd4f466b	-0.050604265
220	0xbddb4246	-0.10706
221	0xbd9b0819	-0.07569904
222	0xbca34b80	-0.019933462
223	0xbde2aaba	-0.1106772
224	0xbd997446	-0.074928805
225	0xbd3b1b7a	-0.0456805
226	0xbd9c594d	-0.0763422
227	0x3c048f59	0.008090817
228	0xbcb03762	-0.021510784
229	0xbb90f88d	-0.004424161
230	0xbb8802ed	-0.0041507394
231	0xbd317ea9	-0.043333683
232	0xbcf12475	-0.02943633
233	0xbd022573	-0.031773996
234	0xbd18f0a8	-0.037338883
235	0xbc5f40a7	-0.013626254
236	0xbd409092	-0.047012873
237	0xbd76e872	-0.06028027
238	0xbdaceee0	-0.08443999
239	0xbd63e5e4	-0.055639163
240	0xbd9f4bd2	-0.077781335
241	0xbb839fed	-0.0040168674
242	0xbdddbf43	-0.10827496
243	0xbce923c2	-0.028459433
244	0xbcb3dc7e	-0.021955725
245	0xbe03200a	-0.1280519
246	0xbdbda68c	-0.09260282
247	0xbd311db1	-0.043241207
248	0xbdac8b75	-0.08425037
249	0xbdbdbab2	-0.09264125
250	0xbdea5eb6	-0.11443846
251	0x3cc406dc	0.023929052
252	0xbd74fc7c	-0.0598111
253	0xbd260d80	-0.04054022
254	0xbd417f5d	-0.047240604
255	0xbdcec6e9	-0.10096533

network.6.bias f4 [128]
0	0xbde4bf80	-0.11169338
1	0x3d0e0ad1	0.034678284
2	0xbd868564	-0.06568411
3	0x3d603751	0.054740254
4	0xbdc92c84	-0.09822944
5	0xbd939bee	-0.072074756
6	0xbd93daee	-0.07219492
7	0xbd51f11f	-0.05125534
8	0x3d89fd82	0.06737806
9	0xbd140ed7	-0.036146965
10	0xbdba6480	-0.091012
11	0xbc69e0de	-0.014274804
12	0xbd8e68d3	-0.069535874
13	0x3d7ae30d	0.06125169
14	0x3d7dc18d	0.061952163
15	0x3c4032cc	0.011730861
16	0x3da5c6ac	0.08094534
17	0xbd0cdbf3	-0.034389447
18	0x3d78c154	0.060731247
19	0xbcbfb702	-0.023402695
20	0xbcf8b48d	-0.03035953
21	0xbc870c49	-0.01648535
22	0xbd7b66b9	-0.06137726
23	0xbcb8d0e2	-0.02256054
24	0xbb3f2b7b	-0.0029170203
25	0x3b2274a8	0.002478877
26	0xbd104a36	-0.035227023
27	0xbdb9c7d4	-0.09071317
28	0xbccf38c8	-0.02529563
29	0xbd3686e2	-0.044562228
30	0x3c48d03a	0.012256676
31	0x3d200645	0.03906848
32	0x3c7e7be3	0.015532467
33	0xbce7dc96	-0.028303426
34	0x3dad9ebd	0.084775425
35	0xbc06ee95	-0.008235593
36	0xbd10ada2	-0.03532184
37	0x3d268045	0.04064967
38	0x3da08d90	0.07839501
39	0xbc073d7c	-0.008254405
40	0xbc062deb	-0.008189659
41	0xbce6b75f	-0.02816361
42	0x3c2ed047	0.010669774
43	0xbb3a2f0a	-0.0028409385
44	0xbd9d2ac7	-0.07674175
45	0xbdc22442	-0.09479572
46	0xbdbb831e	-0.09155868
47	0xbde25df4	-0.110530764
48	0xbdbc8db3	-0.092067145
49	0xbc4d51f0	-0.012531742
50	0xbd3e2c6c	-0.046429083
51	0x3c93e666	0.018054198
52	0x3ab8c094	0.0014095479
53	0xbd049e50	-0.03237754
54	0xbd831fae	-0.06402527
55	0xbddf6bea	-0.10909255
56	0xbc575324	-0.013142381
57	0xbcc9c4a9	-0.024629908
58	0x3cabfefc	0.02099561
59	0x3d657e00	0.056028366
60	0xbd9b7b35	-0.07591859
61	0xbd419931	-0.047265235
62	0xbbfa094c	-0.007630503
63	0x3c1d8df2	0.009616362
64	0xbdbac865	-0.091202535
65	0xbc3aedcc	-0.011409234
66	0xbdb4ddb4	-0.08831349
67	0xbdd1f92b	-0.10252603
68	0xbc86ff27	-0.016479088
69	0x3d105ab3	0.035242748
70	0xbca35dee	-0.01994225
71	0xbc552ca4	-0.013011131
72	0xbddae186	-0.106875464
73	0xbdbe1f87	-0.09283357
74	0x3d9074d5	0.07053534
75	0xbd3ea69f	-0.04654562
76	0xbd2419ab	-0.04006354
77	0x3d3be7bc	0.045875296
78	0xbd74049d	-0.059574712
79	0x3dd81179	0.10550208
80	0xbd409059	-0.04701266
81	0xbdbc81ce	-0.09204446
82	0x3d8b5a07	0.06804281
83	0x3da75a96	0.08171575
84	0xbb010ab0	-0.0019690208
85	0xbb2f9ead	-0.002679746
86	0xbceb3b1c	-0.028714709
87	0xbbf3ccfa	-0.0074402066
88	0x3d117202	0.035509117
89	0xbd93f0ac	-0.07223639
90	0xbc493dc9	-0.012282797
91	0xbdbfaec3	-0.09359505
92	0xbbd4e221	-0.006496683
93	0xbd0d086d	-0.034431864
94	0xbbbbb715	-0.005728612
95	0xbd44c67a	-0.048040845
96	0xbcfc8a68	-0.030827716
97	0x3cebb2db	0.028771808
98	0xbbed4c38	-0.007241752
99	0xbd947d21	-0.07250429
100	0xbc49c7ac	-0.012315672
101	0xbd661df0	-0.056180894
102	0x3d0ed795	0.034873564
103	0xbd8ff151	-0.07028449
104	0x3d9cef2a	0.076628044
105	0xbc7d74a4	-0.015469704
106	0xbde4ded2	-0.11175312
107	0xbc852dfd	-0.01625728
108	0x3d8d2835	0.068924345
109	0x3d1efdd0	0.038816273
110	0x3c5ac443	0.0133524565
111	0x3d2281fb	0.03967474
112	0xbad758c8	-0.0016429657
113	0xbccd7395	-0.025079528
114	0xbd1abb78	-0.03777644
115	0x3c9fc97e	0.019505259
116	0x3d5e9819	0.05434427
117	0x3d90143d	0.0703511
118	0xbd81c8d0	-0.0633713
119	0x3d6525b7	0.05594417
120	0x3d3c824b	0.046022695
121	0xbcef954f	-0.029246
122	0x3d072964	0.032998458
123	0xbbfb5a0b	-0.007670646
124	0xbd613f3f	-0.054991957
125	0xbcb1bebb	-0.021697393
126	0x3c619488	0.013768323
127	0xbda43690	-0.080182195

network.9.weight f4 [64, 128]
0	0x3c50e5fe	0.012750147
1	0xbe0e1a89	-0.1387731
2	0xbd2022b0	-0.03909558
3	0x3b300cdf	0.002686314
4	0xbb9ddba4	-0.004817443
5	0xbe0d0fd0	-0.13775563
6	0x3ca93132	0.020653341
7	0xbddc991a	-0.10771389
8	0xbdb9e0ec	-0.090761036
9	0xbdc78f02	-0.097440735
10	0xbd9947c7	-0.074843936
11	0xbc266b17	-0.010157368
12	0xbe0824fb	-0.13295357
13	0xbdc60d2f	-0.09670483
14	0x3ce05f2b	0.02738913
15	0xbd7129b5	-0.058877666
16	0xbc22b2e6	-0.009930348
17	0xbdeb04ea	-0.11475547
18	0x3bb84837	0.005623843
19	0xbd5505a5	-0.052007336
20	0xbdac16a9	-0.084027596
21	0xbdd120b4	-0.10211316
22	0xbdc382d4	-0.09546438
23	0xbda345b2	-0.07972278
24	0x3d48930a	0.048968352
25	0xbbeefeba	-0.0072935494
26	0xbe0de22e	-0.13855812
27	0xbd6f16f0	-0.058371484
28	0xbc3a7866	-0.011381244
29	0xbaae2084	-0.0013284837
30	0xbcff5715	-0.031169454
31	0xbdbd52a6	-0.092442796
32	0xbddcbd55	-0.107783
33	0xbe037c8c	-0.1284048
34	0xbd30573c	-0.043051943
35	0x3b170630	0.002304446
36	0xbdf3af5d	-0.11898682
37	0xbc8263a0	-0.015916646
38	0x3c2ed772	0.010671483
39	0xbdb273e5	-0.087135114
40	0xbdd31a65	-0.10307769
41	0xbd86d666	-0.06583862
42	0xbd95a6ed	-0.07307229
43	0x3cd9d578	0.026591048
44	0xbdefad1d	-0.117029406
45	0xbdbd5d5e	-0.09246324
46	0xbb65bd5d	-0.0035055496
47	0xbde17a67	-0.110096745
48	0xbd677cc1	-0.05651546
49	0x3c961ff2	0.01832578
50	0xbd283036	-0.041061603
51	0xbdba8d70	-0.09109008
52	0x3c903eac	0.01760801
53	0xbcb3db93	-0.021955287
54	0xbb8f61a8	-0.004375655
55	0xbcc48b5a	-0.02399223
56	0x3cc7c148	0.024384156
57	0xbd959f4f	-0.07305776
58	0xbd8e4942	-0.069475666
59	0xbda34fc9	-0.07974202
60	0xbdcbb07a	-0.099457696
61	0xbdbe5621	-0.092937715
62	0xbdb3507f	-0.08755588
63	0xbe066b1b	-0.13126795
64	0xbdbdcf7b	-0.092680894
65	0xbcb8ee82	-0.022574667
66	0xbd9fe1bc	-0.07806727
67	0xbcb869e9	-0.02251144
68	0xbc16bf06	-0.009200817
69	0xbcda9224	-0.026681013
70	0xbd0acc1d	-0.033886064
71	0xbd8c2f10	-0.06844914
72	0xbd39e58b	-0.045384925
73	0xbd46d65c	-0.048544273
74	0xbe048d70	-0.12944579
75	0xbdf8e4a7	-0.12152987
76	0xbcd33ba7	-0.02578528
77	0xbdf3b7f8	-0.11900324
78	0xbd21fe56	-0.039549194
79	0xbd9ccedb	-0.07656642
80	0xbd940c0a	-0.07228859
81	0xbdfa8b19	-0.12233562
82	0xbd6a2367	-0.05716267
83	0xbc5916d6	-0.013250073
84	0xbd96811c	-0.073488444
85	0xbd03facf	-0.03222161
86	0xbc248481	-0.010041357
87	0xbd8d30b6	-0.068940565
88	0xbdc2c512	-0.095102444
89	0x3ce8c269	0.028413014
90	0xbcdbcdb1	-0.02683148
91	0xbc36bc8a	-0.01115335
92	0xbceb0183	-0.028687244
93	0xbd9b6e58	-0.07589406
94	0xbd55d36a	-0.052203573
95	0xbcbfc3c2	-0.023408774
96	0xbda8067a	-0.0820436
97	0xbdf50fc2	-0.11965896
98	0xbd665e10	-0.05624205
99	0xbe0aeb56	-0.13566336
100	0xbd8c83d8	-0.06861085
101	0xbdceb4be	-0.100930676
102	0xbdb940bf	-0.090455525
103	0xbd16b27d	-0.036791313
104	0x3be4501f	0.006967559
105	0xbdf9d99c	-0.12199709
106	0xbc1269cd	-0.008936358
107	0xbd2db164	-0.0424055
108	0xbdc26130	-0.09491193
109	0xbddc66d5	-0.10761801
110	0xbc01f97e	-0.007933019
111	0x3c4904eb	0.012269239
112	0xbdf41d97	-0.11919706
113	0x3c7b7922	0.0153487045
114	0xbd81a318	-0.06329936
115	0xbe066e98	-0.13128126
116	0xbcb19a28	-0.021679953
117	0xbddb0b44	-0.10695508
118	0xbda0749d	-0.07834742
119	0xbcfd8d5e	-0.030951198
120	0x3c01ad05	0.007914786
121	0xbddaa9b7	-0.10676902
122	0xbe0971cb	-0.13422315
123	0xbd78f21c	-0.06077777
124	0xbd339848	-0.0438464
125	0xbdbd327b	-0.09238144
126	0xbddf1b25	-0.10893849
127	0xbde69a80	-0.11259937
128	0xbc7abd61	-0.0153039405
129	0x3c0fb182	0.0087703485
130	0x3ca6a12d	0.020340526
131	0x3c1c5be1	0.00954339
132	0xbd598b11	-0.05311114
133	0xbc5c87a2	-0.013460072
134	0xbc53c3d3	-0.012925106
135	0xbd6a6d6e	-0.057233267
136	0xbd5ee2eb	-0.054415625
137	0xbd965f34	-0.07342377
138	0x3b1b9f87	0.0023746209
139	0xbc7489eb	-0.01492546
140	0xbcdc8738	-0.026919946
141	0xbdd14b57	-0.10219448
142	0xbd51f16b	-0.051255625
143	0x3c592fe9	0.013256052
144	0xbd6ff109	-0.05857948
145	0x3c396c0c	0.011317264
146	0xbd50546d	-0.050861765
147	0xbdb9c620	-0.090709925
148	0xbcfa763b	-0.030573955
149	0xbd36877a	-0.044562794
150	0x38d78620	0.000102769816
151	0x3c2cce42	0.010547223
152	0xbdd33df4	-0.10314551
153	0xbdbb4cc1	-0.09145499
154	0xbdf466a3	-0.11933639
155	0x3c3e065a	0.011598194
156	0xbd93cb63	-0.07216527
157	0x3b84ff23	0.004058735
158	0xbdc34cd0	-0.09536135
159	0xbe0563f5	-0.13026412
160	0xbdcfbaff	-0.101430885
161	0x3a807b7e	0.0009802429
162	0xbda5dc13	-0.080986165
163	0xbe07d5d9	-0.1326517
164	0xbdaecc2b	-0.08535036
165	0xbd8324b8	-0.06403488
166	0xbd9b2fea	-0.07577498
167	0xbdab5c76	-0.08367245
168	0xbce046f9	-0.027377592
169	0xbdab6474	-0.08368769
170	0xbd2a2564	-0.041539565
171	0xbd98e111	-0.07464803
172	0xbcd6fdfe	-0.02624416
173	0xbd483da6	-0.048886918
174	0xbd041afd	-0.0322523
175	0xbdb2d760	-0.08732486
176	0xbdb3ce29	-0.08779556
177	0xbc9655bf	-0.018351434
178	0x3c8fdd49	0.017561572
179	0xbd9cc129	-0.0765403
180	0xbc3f038a	-0.011658559
181	0xbd77e22b	-0.060518425
182	0xbda3a05d	-0.07989571
183	0xbe0732bb	-0.13202946
184	0xbd2191df	-0.039445754
185	0xbd4af620	-0.04955113
186	0xbc5db174	-0.013531078
187	0xbdea6327	-0.11444693
188	0xbd6f9d07	-0.058499362
189	0x3cdd39eb	0.027005157
190	0x3cb23cd9	0.02175753
191	0xbe08d9d2	-0.13364342
192	0x39e9e17a	0.00044609216
193	0xbe030f8b	-0.12798898
194	0xbde56efa	-0.11202808
195	0xbc19bee9	-0.009383895
196	0xbdf47c75	-0.11937801
197	0xbddccc9b	-0.10781213
198	0xbd70ee21	-0.058820847
199	0xbd0a9233	-0.033830833
200	0x3cd0b0a5	0.025474856
201	0xbd00a8d7	-0.03141102
202	0xbe08b976	-0.13351998
203	0x3cbb1cf0	0.022840947
204	0xbd47e12b	-0.04879872
205	0x3b81a5da	0.0039565386
206	0xbd107bef	-0.035274442
207	0x3c7b528e	0.015339507
208	0x3cdf6d2e	0.02727374
209	0xbe1044f4	-0.14088804
210	0xbd944a96	-0.07240789
211	0x3c8fa6a1	0.01753551
212	0x3cb105fe	0.021609303
213	0xbdb71da3	-0.089412
214	0xbd480e1a	-0.048841573
215	0x3ce551cc	0.027993105
216	0xbdf266ba	-0.11836
217	0x3cd27f56	0.025695484
218	0xbae6f862	-0.0017621631
219	0x3cd9ea9d	0.02660113
220	0xbe0b5846	-0.13607892
221	0xbe070f48	-0.13189423
222	0xbdb9a9f5	-0.0906562
223	0xbd84fc9c	-0.06493494
224	0x3b640bc5	0.0034797054
225	0xbe0dcd56	-0.1384786
226	0xbc47e7e0	-0.012201279
227	0xbdf748dc	-0.12074444
228	0x3b2ae405	0.0026075852
229	0xbe05da86	-0.13071641
230	0xbdb3c483	-0.08777716
231	0xbdc70f45	-0.09719709
232	0xbd981c84	-0.07427314
233	0x3b920b81	0.004456938
234	0xbcf98e1a	-0.030463267
235	0xbda131aa	-0.07870801
236	0xbc4cac6e	-0.012492282
237	0xbd189eba	-0.03726075
238	0xbd08ae04	-0.03336908
239	0x3c69e390	0.0142754465
240	0xbdaf5a15	-0.08562104
241	0x3ccbb2a4	0.024865456
242	0xbd1e134d	-0.038592625
243	0xbd53aa62	-0.05167616
244	0xbdbc83ef	-0.09204852
245	0xbd8c39fe	-0.06846999
246	0xbdba688b	-0.09101971
247	0xbd09d3ce	-0.03364926
248	0xbd919f52	-0.07110466
249	0xbe0c2e59	-0.13689555
250	0x3cfaf863	0.030636018
251	0xbcc0ca38	-0.023533925
252	0xbdc95761	-0.09831119
253	0xbe05692d	-0.13028403
254	0xbe0f819a	-0.14014283
255	0xbd94d64b	-0.07267436

network.9.bias f4 [64]
0	0xbc83d0a1	-0.016090693
1	0xbd64e80e	-0.055885367
2	0xbdcee946	-0.10103087
3	0x3d482dc6	0.048871778
4	0x3c04d0a6	0.008106386
5	0xbd6184f0	-0.05505842
6	0x3d21eb9d	0.03953134
7	0xbdd5f870	-0.10447776
8	0xbd994fb5	-0.07485906
9	0xbd112183	-0.03543235
10	0xbd507084	-0.050888553
11	0xbda71701	-0.081586845
12	0xbdead541	-0.11466456
13	0x3e18975f	0.14901493
14	0xbd830574	-0.063975245
15	0xbdc872d7	-0.09787529
16	0x3d000ecf	0.031264123
17	0xbdcdc91b	-0.100481234
18	0x3e0ea9c1	0.13931943
19	0xbcd7881d	-0.026310021
20	0xbcae972d	-0.02131232
21	0x3de38e0d	0.111110784
22	0x3d779a53	0.06044991
23	0x3cbdccb2	0.023168895
24	0x3ddf2418	0.10895556
25	0x3ca05dfd	0.019576067
26	0x3deed5e2	0.11661889
27	0xbd83148b	-0.06400403
28	0xbdcf9fda	-0.10137911
29	0xbdda21b5	-0.1065096
30	0xbdc7ce81	-0.09756184
31	0xbd971734	-0.073774725
32	0x3cb8c628	0.022555426
33	0xbd205450	-0.039142907
34	0xbd3bfe90	-0.045897067
35	0xbe14be36	-0.14525685
36	0xbc2366e5	-0.009973262
37	0xbe0c848a	-0.13722435
38	0xbd86e3f9	-0.06586451
39	0xbd5c8922	-0.053841718
40	0xbda8f7b6	-0.08250372
41	0x3c1e3b5f	0.00965771
42	0xbd5db847	-0.05413082
43	0x3c8fc273	0.017548775
44	0xbe103859	-0.14083995
45	0x3c573b58	0.013136707
46	0xbda53578	-0.08066839
47	0xbd2ea4e9	-0.04263774
48	0xbd223c7f	-0.039608475
49	0xbdab365f	-0.0835998
50	0xbd733176	-0.05937334
51	0xbdddf517	-0.10837763
52	0x3cd2da0c	0.025738738
53	0x3da9a3d9	0.082832046
54	0xbe143ab0	-0.14475513
55	0xbd71a8d2	-0.05899889
56	0x3ac95792	0.0015361181
57	0x3dd5cb39	0.10439152
58	0x3d371295	0.044695456
59	0x3cff7371	0.031182976
60	0x3e02979f	0.12753151
61	0xbbd3cd8e	-0.006463713
62	0xbcb026d9	-0.021502899
63	0x3df6483a	0.12025495

network.12.weight f4 [1, 64]
0	0xbbcb2b59	-0.006200236
1	0xba642f92	-0.00087045983
2	0x3cf873c4	0.030328639
3	0xbcf24cd3	-0.029577648
4	0x3d20d876	0.039268933
5	0xbb3ff181	-0.0029288235
6	0xbd0935f0	-0.033498704
7	0x3d6c54d2	0.05769808
8	0x3c240803	0.010011676
9	0xbd95a2ae	-0.07306419
10	0x3b4b9416	0.0031063608
11	0xbd369040	-0.04457116
12	0xbd1e8e1b	-0.03870974
13	0xbcd0924a	-0.025460381
14	0x3d430e86	0.047621273
15	0xbc854ae5	-0.016271064
16	0x3d3e9ec0	0.046538115
17	0xbd80201c	-0.062561244
18	0xbd503cd8	-0.050839275
19	0x3cdd95d3	0.02704898
20	0x3d8859a5	0.06657723
21	0xbcb6c369	-0.022309976
22	0xbda2fd32	-0.079584494
23	0xbcb4af78	-0.022056326
24	0xbd926ec4	-0.07150033
25	0xbd235bee	-0.039882593
26	0xbd8c42e6	-0.06848697
27	0x3c11cbd0	0.00889869
28	0x3d841847	0.06449943
29	0x3b16385a	0.0022921772
30	0xbd8e22d7	-0.06940239
31	0xbd55c546	-0.052190088
32	0xbbc157ca	-0.005900358
33	0xbca61c5f	-0.0202772
34	0x3bb70240	0.005584985
35	0x3d6c56dc	0.057700023
36	0x3d25fae0	0.040522456
37	0xbc9267a7	-0.01787169
38	0x3d58c5be	0.052922957
39	0x3d346cf5	0.044049222
40	0xbc87cb49	-0.016576426
41	0xbcf45ca8	-0.029829338
42	0xbc6d6ff8	-0.014492027
43	0xbc27615d	-0.010216084
44	0x3cf85c68	0.0303175
45	0xbd4c2ace	-0.04984551
46	0xbd1213d1	-0.03566343
47	0x3d412042	0.047149904
48	0x3d846f77	0.06466573
49	0x3bdbcd0c	0.006707793
50	0xbdb39159	-0.08767957
51	0x3ca711a7	0.02039416
52	0x3cc41c96	0.023939412
53	0xbd971f8d	-0.07379065
54	0x3c92cab9	0.017918931
55	0xbdaf580b	-0.08561715
56	0xbca4d2cf	-0.020120053
57	0xbc6d2e54	-0.0144763775
58	0xbdaf0c83	-0.08547308
59	0xbd5f5b51	-0.054530445
60	0xbbafb1c5	-0.005361768
61	0x3d52209d	0.051300634
62	0xbce7f6d9	-0.028315948
63	0xbda42e51	-0.08016647
