projekt1/wandb/run-20251109_192003-9h8sl0xz/files/best_model.pth (torch, 860297 bytes, 25 tensors)

network.0.weight f4 [512, 70]
0.09316791 0.07953187 -0.079361565 0.0040147705 0.03428212 -0.026990121 -0.12790294 -0.0548699
0.06437968 0.04663711 0.11097233 -0.12896907 0.118757896 -0.09307293 0.13106845 -0.09050777
-0.02017613 0.004072747 0.046237253 -0.12563896 0.014015475 0.11799605 0.034574036 0.08947982
0.018051108 -0.054568477 -0.047823317 -0.015352322 0.053372905 0.04524921 -0.10234303 0.06508312
-0.023638338 0.036412735 -0.03504843 0.011085104 0.05910824 -0.088479385 -0.0020672127 -0.12463644
0.012375868 0.045292802 -0.09996863 0.0062222406 0.0873232 0.02027659 0.01174922 -0.023069484
0.041500356 -0.0060749045 -0.04511589 -0.032078266 0.054216895 -0.023546984 -0.06948735 0.09142542
0.10536197 0.024662843 -0.004842175 -0.108558975 0.07024729 0.07706045 0.09438151 -0.06232787
-0.054815795 0.012692976 -0.09838441 0.077197194 0.078843705 0.14093721 -0.086988516 -0.06904356
0.11354622 0.09460269 0.0751657 -0.05014273 0.120627515 0.0490863 0.10968394 -0.01468072
-0.063663915 0.09238373 -0.059877537 0.06913914 -0.0060919933 -0.12300386 -0.09718782 0.072705716
0.09150948 -0.09960031 -0.01050307 -0.04220683 -0.057154946 -0.012906713 -0.086125925 0.01849941
0.07258888 0.0048239776 0.06657377 0.03161066 -0.033193495 -0.043729126 0.09969016 -0.1107301
0.023224287 -0.08339255 0.05992987 -0.050259303 -0.0965964 -0.022256112 0.10728647 0.058186494
0.07074207 -0.08140468 -0.08436671 -0.09590039 -0.0127726 0.01054276 -0.024936618 -0.00013978394
0.06047325 -0.07885703 -0.092596635 0.046847157 -0.042355757 -0.12420679 -0.103961095 -0.03295815
0.0141566675 0.01603702 -0.08789771 0.115353 -0.118788235 0.028585736 0.0920855 -0.041858334
-0.014077739 0.024864258 -0.1287266 -0.10812129 -0.028636383 -0.063540146 0.0743554 -0.02396602
0.0756139 -0.0027867209 0.03588261 -0.064697355 -0.00915749 0.065818936 0.097246595 0.05032199
0.03565058 0.0007643714 0.07819296 -0.02857095 0.014359972 -0.09316074 0.078446805 -0.0010944799
-0.0010677091 -0.03241688 0.027043378 -0.0818605 -0.046927653 0.045395367 -0.07895342 0.08587066
-0.11860337 -0.13267809 -0.10356287 -0.09839672 0.02984781 -0.07797559 -0.0585019 -0.079264395
0.13475123 -0.03940294 -0.09367088 -0.037155125 -0.05123037 0.010516705 0.04355739 -0.02476882
-0.10465812 0.11251626 -0.08484287 0.006782255 0.120817356 0.012666413 0.072485216 0.071232624
-0.026660357 -0.00033726217 -0.060044646 -0.012945386 -0.09892608 -0.08107657 -0.10797345 -0.052726507
0.106029265 0.010088947 -0.022657365 -0.0057722894 0.05228903 0.004232619 -0.0060770526 -0.026456987
0.032738026 -0.09329591 -0.12057829 -0.057940587 -0.07835332 0.041854125 -0.0076832734 0.019853026
0.071300365 -0.08611699 -0.006031488 0.07272692 0.12835176 -0.060749944 -0.122726314 -0.095748246
-0.027634392 -0.116100445 0.110076524 -0.07670891 0.040416885 0.06834212 -0.00016726811 0.042798918
-0.03322012 0.085796855 -0.060428273 -0.12253987 0.09894421 0.02400558 -0.028578617 0.03762224
-0.024965987 -0.06836891 -0.007865 -0.09356596 0.050739326 -0.0777653 -0.09998176 -0.040016893
-0.09595531 0.06124899 -0.010911095 0.007650624 0.093345076 -0.073923685 0.08599866 0.028262284
00000000: d1ce be3d 9be1 a23d 5188 a2bd 568e 833b
00000010: 696b 0c3d 631a ddbc fdf8 02be 43bf 60bd
00000020: 7ed9 833d 8e06 3f3d 7645 e33d 7810 04be
00000030: 5737 f33d 059d bebd cf36 063e 235c b9bd
00000040: 6948 a5bc ae74 853b 4663 3d3d 80a7 00be
00000050: 2aa1 653c eaa7 f13d 819d 0d3d 3241 b73d
00000060: ebdf 933c 3283 5fbd 62e2 43bd 4e88 7bbc
00000070: 8c9d 5a3d 3c57 393d 3999 d1bd 4c4a 853d
00000080: 30a5 c1bc 8525 153d f18e 0fbd 4c9e 353c
00000090: 7b1b 723d ae34 b5bd 137a 07bb 6441 ffbd
000000a0: 27c4 4a3c f284 393d 5abc ccbd f0e3 cb3b
000000b0: 82d6 b23d 171b a63c cd7f 403c 37fc bcbc
000000c0: 47fc 293d fe0f c7bb 71cb 38bd 8064 03bd
000000d0: 8912 5e3d 9be5 c0bc 624f 8ebd 403d bb3d
000000e0: 04c8 d73d bb09 ca3c 1cab 9ebb 2b54 debd
000000f0: d0dd 8f3d dfd1 9d3d 184b c13d 824b 7fbd
00000100: 8786 60bd 33f6 4f3c c47d c9bd 9019 9e3d
00000110: cf78 a13d d851 103e 0927 b2bd b666 8dbd
00000120: ec8a e83d 0ebf c13d 79f0 993d 7762 4dbd
00000130: 8f0b f73d b70e 493d f9a1 e03d 6787 70bc
00000140: 3a62 82bd ae33 bd3d 2642 75bd d298 8d3d
00000150: 589f c7bb 73e9 fbbd 680a c7bd bce6 943d
00000160: 5269 bb3d 3ffb cbbd 1215 2cbc 12e1 2cbd
00000170: 4e1b 6abd ae76 53bc ca62 b0bd 138c 973c
00000180: 7ba9 943d 7512 9e3b d457 883d 2e7a 013d
00000190: e7f5 07bd 501d 33bd 5b2a cc3d 76c6 e2bd
000001a0: dc40 be3c b7c9 aabd 0679 753d b3dc 4dbd
000001b0: 55d4 c5bd 7352 b6bc 02b9 db3d f654 6e3d
000001c0: 38e1 903d 7fb7 a6bd 74c8 acbd 6c67 c4bd
000001d0: 2b44 51bc 8abb 2c3c e147 ccbc f792 12b9
000001e0: ccb2 773d cb7f a1bd 4ea3 bdbd cee2 3f3d
000001f0: 3b7d 2dbd 2160 febd 8ee9 d4bd 20ff 06bd
00000200: 5ef1 673c 1260 833c b703 b4bd 323e ec3d
00000210: 3f47 f3bd a22c ea3c 5397 bc3d a573 2bbd
00000220: 51a6 66bc 21b0 cb3c e8d0 03be b26e ddbd
00000230: d996 eabc 5621 82bd a547 983d 6354 c4bc
00000240: 76db 9a3d 6ba1 36bb a5f9 123d 0c80 84bd
00000250: 4c09 16bc 14cc 863d 3929 c73d 6e1e 4e3d
00000260: 5806 123d 1960 483a a123 a03d a00d eabc
00000270: 1746 6b3c 0fcb bebd b8a8 a03d a774 8fba
00000280: 5ff2 8bba 90c7 04bd 138a dd3c 7aa6 a7bd
00000290: 3637 40bd 7ef0 393d 55b2 a1bd f5dc af3d
000002a0: 53e6 f2bd c4dc 07be c518 d4bd 3884 c9bd
000002b0: 6583 f43c abb1 9fbd b09f 6fbd 5f55 a2bd
000002c0: 3afc 093e fa64 21bd 85d6 bfbd f92f 18bd
000002d0: f0d6 51bd 424e 2c3c 3c69 323d fbe7 cabc
000002e0: ff56 d6bd ed6e e63d 19c2 adbd ae3d de3b
000002f0: 176f f73d c986 4f3c 2173 943d 69e2 913d
00000300: d266 dabc 90d2 b0b9 60f1 75bd e218 54bc
00000310: c299 cabd 790b a6bd 2f21 ddbd c0f7 57bd
00000320: df25 d93d 1c4c 253c f09b b9bc 7925 bdbb
00000330: 062d 563d c8b1 8a3b 0322 c7bb 53bc d8bc
00000340: 4f18 063d ed11 bfbd c0f1 f6bd 1c53 6dbd
00000350: b577 a0bd 3b6f 2b3d f8c3 fbbb d0a2 a23c
00000360: ed05 923d 1b5e b0bd caa3 c5bb daf1 943d
00000370: a56e 033e efd4 78bd ef57 fbbd a817 c4bd
00000380: 8561 e2bc 12c6 edbd cd6f e13d 9019 9dbd
00000390: 2d8c 253d f4f6 8b3d b164 2fb9 eb4d 2f3d
000003a0: d211 08bd 43b6 af3d a383 77bd 2ff6 fabd
000003b0: 43a3 ca3d 5aa7 c43c b41d eabc c719 1a3d
000003c0: 7885 ccbc 0005 8cbd 33dc 00bc 839f bfbd
000003d0: 0ad4 4f3d 6a43 9fbd 3dc3 ccbd c1e8 23bd
000003e0: 3884 c4bd 39e0 7a3d 73c4 32bc 16b2 fa3b
000003f0: b42b bf3d 4d65 97bd 1120 b03d 4e86 e73c

network.0.bias f4 [512]
-0.047785763 -0.03778797 -0.040668044 -0.109691136 -0.021435773 0.10910419 0.030075772 -0.079128936
-0.057029672 -0.052494247 0.002712062 0.096517466 -0.042617325 -0.005433063 0.0034701761 0.0618254
0.023741692 0.0689713 0.068111055 0.10041863 -0.07688713 0.06423199 -0.030704034 0.036633458
0.057792313 0.08963744 0.0040375046 0.08513386 -0.054352697 0.06851096 -0.0914479 0.10462232
-0.10771529 -0.08370459 0.00084839785 0.075738154 0.096505664 -0.07639384 -0.06863683 -0.10413275
-0.09265342 -0.111952186 0.090856895 -0.11376123 -0.026021933 0.055527557 0.056718823 -0.06105589
0.076186456 -0.013015575 0.016969698 0.05638726 0.05173566 -0.07988414 0.110604405 0.0013042109
-0.019335184 0.016730482 0.10325423 0.08733148 0.026671441 0.11762155 0.034428924 0.016596664
0.023575474 -0.045706175 0.09295711 -0.09452339 -0.050627574 -0.056222416 -0.08802387 -0.04826842
0.0849964 0.034142416 -0.0201521 0.022886395 -0.11281938 -0.10810945 0.11736824 0.036390282
0.06552742 -0.09280103 -0.0874749 -0.04542433 0.013360067 -0.0024323952 0.030957347 0.041347235
-0.08720068 0.107174195 0.019112933 0.051074922 -0.101576224 0.10271698 -0.006744248 -0.10256559
-0.020914422 -0.038977727 0.11253601 0.0529872 -0.115102135 -0.0015202487 0.07708456 -0.020712472
0.064212546 -0.02647124 -0.046400532 -0.06411448 0.10959232 0.075690724 -0.111663364 -0.061630882
0.06353991 -0.03702719 -0.020662451 0.08785063 -0.07927625 -0.008026077 -0.11410912 -0.055308763
0.01847524 0.04391724 -0.029717995 0.03333758 0.107944585 0.09341041 -0.06347965 0.0008972254
-0.0034575523 -0.1146041 0.054153554 0.089278966 -0.06410332 -0.082537696 -0.02635879 0.021284098
0.040995117 -0.0317969 0.10355278 -0.118205905 0.038197074 0.05570391 -0.10228613 -0.046845414
-0.0028638595 0.051217854 0.09716694 -0.056088198 0.11420351 -0.10196741 0.04942093 -0.07904316
0.037452515 -0.056072135 -0.045690764 -0.10521097 0.096228644 0.04752645 0.09427101 -0.10083933
-0.06916753 0.05670095 0.08127846 -0.06931824 0.099864475 0.006946163 -0.0389509 0.026100894
-0.06071586 0.092149206 -0.043976482 0.041775834 -0.03778471 0.024730856 0.061002377 -0.09420357
-0.031994928 -0.010170412 0.058352146 0.047689553 -0.11698538 0.0352683 0.025801988 -0.10090588
-0.10928587 0.021548485 -0.11983236 -0.051660374 0.06662426 -0.06736119 0.058397703 0.08938082
-0.012067496 0.08079262 0.072769105 -0.039009653 -0.0065571973 -0.102266885 0.081291184 0.07929213
-0.026797954 0.02311768 0.09337502 0.06482239 0.08361445 0.07418809 -0.0657328 -0.027093485
-0.013352839 -0.014351436 0.021237154 -0.048302565 0.07153913 -0.032209143 0.07297918 -0.041819043
0.08203202 -0.106088154 -0.064203724 0.05173783 0.005573057 -0.08971017 -0.008287667 0.06274589
0.009642204 -0.081412084 0.03946823 0.032401014 -0.00028957587 -0.093159005 -0.05515636 0.08823196
-0.01151363 0.020445414 -0.085185535 -0.07354877 0.004650641 -0.01303326 -0.1080241 0.06971397
0.06225436 -0.05254772 -0.11230657 -0.11865423 0.0029802453 0.010739362 -0.07612672 -0.03222381
0.05718918 0.0860495 -0.04865777 -0.061696153 0.11206965 -0.06560921 0.045883454 -0.020182993
00000000: 01bb 43bd 8fc7 1abd 8993 26bd bfa5 e0bd
00000010: 139a afbc 0472 df3d 7761 f63c 5a0e a2bd
00000020: f297 69bd 3504 57bd dabc 313b f3aa c53d
00000030: 818f 2ebd d607 b2bb e56b 633b a13c 7d3d
00000040: f07d c23c d340 8d3d cf7d 8b3d 48a8 cd3d
00000050: 0077 9dbd 108c 833d 0787 fbbc f70c 163d
00000060: a2b7 6c3d d693 b73d 0b4d 843b a95a ae3d
00000070: efa0 5ebd 794f 8c3d 0949 bbbd 3a44 d63d
00000080: d599 dcbd 506d abbd 0467 5e3a 9b1c 9b3d
00000090: c3a4 c53d 6074 9cbd 7791 8cbd 8d43 d5bd
000000a0: 14c1 bdbd 3047 e5bd 2e13 ba3d a6fb e8bd
000000b0: f32b d5bc dd70 633d ff51 683d be15 7abd
000000c0: a507 9c3d 473f 55bc 0904 8b3c 54f6 663d
000000d0: c5e8 533d 4c9a a3bd 9084 e23d 0ef2 aa3a
000000e0: d264 9ebc 5d0e 893c f476 d33d d9da b23d
000000f0: 117e da3c 91e3 f03d 5805 0d3d baf5 873c
00000100: 5a21 c13c 6636 3bbd 4c60 be3d 7b95 c1bd
00000110: dc5e 4fbd 7a49 66bd dc45 b4bd 1bb5 45bd
00000120: 9812 ae3d ebd8 0b3d 0416 a5bc 407c bb3c
00000130: d90d e7bd 7d68 ddbd c35e f03d fa0d 153d
00000140: 3d33 863d 770e bebd 0a26 b3bd dd0e 3abd
00000150: 2fe4 5a3c d268 1fbb 439a fd3c b85b 293d
00000160: 4596 b2bd 257e db3d ba92 9c3c f033 513d
00000170: 3207 d0bd 485d d23d dafe dcbb e80d d2bd
00000180: b954 abbc 1ca7 1fbd 4879 e63d 1b09 593d
00000190: abba ebbd 1543 c7ba 83de 9d3d 34ad a9bc
000001a0: de81 833d 37da d8bc 7c0e 3ebd 744e 83bd
000001b0: f071 e03d bd03 9b3d c3af e4bd aa70 7cbd
000001c0: 3621 823d d3a9 17bd 4d44 a9bc 08eb b33d
000001d0: 965b a2bd cf7f 03bc 0bb2 e9bd 718b 62bd
000001e0: 6359 973c 90e2 333d 2773 f3bc fc8c 083d
000001f0: 0d12 dd3d f54d bf3d 9e01 82bd c733 6b3a
00000200: 1a98 62bb 8eb5 eabd 1ed0 5d3d e4d7 b63d
00000210: 9a48 83bd 8609 a9bd 64ee d7bc fd5b ae3c
00000220: 7fea 273d 773d 02bd 7b13 d43d f015 f2bd
00000230: 8974 1c3d c829 643d 647b d1bd fae0 3fbd
00000240: 97af 3bbb d0c9 513d 76ff c63d bdbc 65bd
00000250: 88e3 e93d 4ad4 d0bd 9a6d 4a3d 61e1 a1bd
00000260: cf67 193d e5ab 65bd 3d26 3bbd d978 d7bd
00000270: 8613 c53d 18ab 423d 2911 c13d da84 cebd
00000280: b5a7 8dbd 413f 683d 5275 a63d b9f6 8dbd
00000290: bf85 cc3d a39c e33b fb8a 1fbd 8bd1 d53c
000002a0: 32b1 78bd b9b8 bc3d af20 34bd 231d 2b3d
000002b0: 24c4 1abd 5d98 ca3c a1dd 793d cded c0bd
000002c0: 1d0d 03bd cda1 26bc a902 6f3d 1f56 433d
000002d0: 0896 efbd 7e75 103d b15e d33c bea7 cebd
000002e0: 45d1 dfbd 7386 b03c ab6a f5bd d499 53bd
000002f0: 4d72 883d aaf4 89bd 6e32 6f3d 4b0d b73d
00000300: bfb6 45bc 9a76 a53d f807 953d 96c8 1fbd
00000310: c2dd d6bb 4d71 d1bd fe7b a63d ea63 a23d
00000320: 6287 dbbc 4a61 bd3c 673b bf3d 9ac1 843d
00000330: 0e3e ab3d edef 973d eb9e 86bd 28f3 ddbc
00000340: dec5 5abc 4922 6bbc 8af9 ad3c e9d8 45bd
00000350: 1b83 923d bced 03bd 1c76 953d 724a 2bbd
00000360: 6700 a83d bf44 d9bd 3e7d 83bd 0ceb 533d
00000370: 319e b63b f7b9 b7bd ffc8 07bc eb80 803d
00000380: 56fa 1d3c 61bb a6bd 70a9 213d edb6 043d
00000390: 37d2 97b9 26ca bebd a3eb 61bd f5b2 b43d
000003a0: aaa3 3cbc 247d a73c c175 aebd bda0 96bd
000003b0: 6864 983b 7489 55bc bd3b ddbd 33c6 8e3d
000003c0: 6efe 7e3d 473c 57bd fd00 e6bd fd00 f3bd
000003d0: 3850 433b 26f4 2f3c 53e8 9bbd 1dfd 03bd
000003e0: 343f 6a3d b83a b03d 5f4d 47bd 1bb5 7cbd
000003f0: c684 e53d 1f5e 86bd 4af0 3b3d ce56 a5bc

network.1.weight f4 [512]
0.99608654 0.9930715 1.0355024 1.00438 1.0072451 1.0082772 0.9927116 1.0008692
0.98629457 0.99247724 1.0110768 0.9835906 0.9843678 1.0105065 1.0276377 0.9781596
0.990734 0.9845489 1.0045379 1.0075476 0.99446136 0.99033207 1.0074744 1.0029442
0.98736113 1.0033191 1.0291001 0.9799791 1.0303763 0.97829694 1.001398 0.9818422
0.9928663 1.0444801 0.9833096 0.9847718 0.981969 1.0008022 0.97339535 0.9929308
1.0069686 0.9947571 1.0016048 0.9997356 0.99141484 0.98710066 1.0148072 1.007487
1.0076355 0.98453534 0.98653793 1.013814 0.99637735 1.004981 0.9852836 0.995847
0.988817 1.0229113 1.0106109 1.0066724 0.995334 0.9957682 1.0027803 0.972988
1.003368 0.9951179 1.013929 1.0016885 1.00648 0.97485584 1.0075673 0.99140984
0.9866267 1.0186523 0.99750185 0.9948654 0.98606867 1.0125691 0.99757475 1.011269
1.0008531 1.0124618 1.0002075 1.0132964 0.98278487 0.99635476 0.9880072 0.99650216
0.9966798 1.0071712 0.9770712 0.99918526 0.9889965 1.015094 0.98071194 1.032645
1.0298237 0.9987825 0.99605703 0.9835367 0.9879857 0.9978941 0.9952304 0.9940061
1.0001123 0.9879196 1.0236033 1.0079919 0.98584574 0.987925 1.0159638 0.9956907
0.9994058 1.0031439 1.0013186 1.0286319 0.976085 0.99377954 0.99418384 0.9851114
1.0228689 0.9913109 0.9876741 0.99330723 1.007106 1.0119807 0.98929477 0.99573183
1.0194355 0.99130505 1.0177361 0.99053717 1.01807 1.0054077 1.0123188 0.98979855
0.9798824 1.019224 1.0014344 0.98257136 0.98736346 1.010393 1.0030576 0.97892815
0.9909922 1.0019646 1.017318 0.97457635 1.0099568 1.0014122 1.0009774 0.98554754
0.99807346 1.0043777 0.9812996 1.0111653 1.0069966 0.9867947 1.0100919 0.9893262
0.97921294 0.9907023 1.0038409 1.0056546 1.0034975 1.013336 1.013347 1.00058
1.0096561 1.0110966 0.98555684 1.0048369 0.98907405 1.0016785 1.0015213 1.0115753
0.99510324 0.99753046 1.0150902 0.9889248 1.0256816 1.0193143 1.0416503 0.99693143
0.974786 0.98696333 0.988343 0.99734193 0.9870526 0.9714122 1.0003219 0.9877014
0.9844149 1.0370142 0.99048746 1.0114689 1.0035021 0.999607 0.99005866 1.0223382
0.9844935 0.98861134 1.0351979 0.9866813 0.9913162 0.99605614 0.98629075 0.969374
0.997506 0.9829574 0.98474455 1.0219989 0.98020047 0.9884801 0.9902673 1.0214498
1.009039 1.0136617 0.97156876 0.9974582 0.9963134 1.001871 0.98920804 1.0083878
0.9920123 0.9978534 0.9792563 1.0121499 0.96739036 1.0471523 0.9920707 0.99775773
1.0108271 1.0081719 0.9990189 1.0240452 0.9858997 1.0038617 1.000203 1.0101392
0.9861379 1.0044988 0.9933326 1.0294929 1.0128423 1.0083809 0.9996477 1.0270983
1.0078522 1.0179211 0.9628936 0.9956981 1.0049256 0.99268425 1.0010147 1.0001928
00000000: 87ff 7e3f ef39 7e3f 588b 843f 868f 803f
00000010: 68ed 803f 3a0f 813f 5922 7e3f 7b1c 803f
00000020: cd7d 7c3f fd12 7e3f f76a 813f 98cc 7b3f
00000030: 87ff 7b3f 4758 813f a289 833f ab68 7a3f
00000040: bea0 7d3f 660b 7c3f b394 803f 52f7 803f
00000050: 0595 7e3f 6786 7d3f ecf4 803f 7a60 803f
00000060: b3c3 7c3f c36c 803f 8db9 833f e9df 7a3f
00000070: 5fe3 833f ab71 7a3f cf2d 803f 035a 7b3f
00000080: 7c2c 7e3f 86b1 853f 2eba 7b3f 011a 7c3f
00000090: 5262 7b3f 491a 803f 7030 793f b730 7e3f
000000a0: 59e4 803f 67a8 7e3f 9634 803f acee 7f3f
000000b0: 5dcd 7d3f a1b2 7c3f 34e5 813f 56f5 803f
000000c0: 33fa 803f 820a 7c3f c08d 7c3f a8c4 813f
000000d0: 9612 7f3f 38a3 803f 8c3b 7c3f d4ef 7e3f
000000e0: 1c23 7d3f c2ee 823f b35b 813f a4da 803f
000000f0: 36ce 7e3f aaea 7e3f 1b5b 803f be15 793f
00000100: 5d6e 803f 0cc0 7e3f 6dc8 813f 5437 803f
00000110: 56d4 803f 2790 793f f7f7 803f 09cd 7d3f
00000120: 9193 7c3f 3363 823f 485c 7f3f 80af 7e3f
00000130: ff6e 7c3f dd9b 813f 0f61 7f3f 4371 813f
00000140: f41b 803f 5998 813f cd06 803f b2b3 813f
00000150: ca97 7b3f 1b11 7f3f 0aee 7c3f c41a 7f3f
00000160: 6826 7f3f fcea 803f 5721 7a3f 9bca 7f3f
00000170: e02e 7d3f 9aee 813f f00f 7b3f b62d 843f
00000180: 43d1 833f 36b0 7f3f 98fd 7e3f 10c9 7b3f
00000190: a1ec 7c3f fd75 7f3f 6bc7 7e3f 2f77 7e3f
000001a0: ae03 803f 4de8 7c3f 6f05 833f e105 813f
000001b0: 6360 7c3f a7e8 7c3f 1a0b 823f 96e5 7e3f
000001c0: 0fd9 7f3f 0567 803f 352b 803f 36aa 833f
000001d0: b5e0 793f 5668 7e3f d582 7e3f 4330 7c3f
000001e0: 5eed 823f 8dc6 7d3f 36d8 7c3f 6249 7e3f
000001f0: d9e8 803f 9588 813f 6c42 7d3f 48e8 7e3f
00000200: dd7c 823f 2bc6 7d3f 2d45 823f d893 7d3f
00000210: 1e50 823f 33b1 803f aa93 813f 7063 7d3f
00000220: 93d9 7a3f ef75 823f 012f 803f cc89 7b3f
00000230: dac3 7c3f 8f54 813f 3164 803f 099b 7a3f
00000240: aab1 7d3f 6040 803f 7a37 823f d67d 793f
00000250: 4446 813f 462e 803f 0720 803f d84c 7c3f
00000260: be81 7f3f 738f 803f 7336 7b3f dd6d 813f
00000270: 44e5 803f 949e 7c3f b14a 813f 7b44 7d3f
00000280: b3ad 7a3f aa9e 7d3f dc7d 803f 4ab9 803f
00000290: 9b72 803f feb4 813f 5bb5 813f 0113 803f
000002a0: 693c 813f 9d6b 813f 744d 7c3f 7f9e 803f
000002b0: f533 7d3f 0037 803f da31 803f 4d7b 813f
000002c0: 16bf 7e3f 285e 7f3f 7aee 813f 2d2a 7d3f
000002d0: 8949 833f e478 823f cc54 853f e636 7f3f
000002e0: 938b 793f a1a9 7c3f 0c04 7d3f cd51 7f3f
000002f0: 7baf 7c3f 78ae 783f 8c0a 803f 00da 7c3f
00000300: 9d02 7c3f e2bc 843f 9690 7d3f d077 813f
00000310: c272 803f 3fe6 7f3f 7c74 7d3f fadb 823f
00000320: c407 7c3f a215 7d3f 5d81 843f 2597 7c3f
00000330: e6c6 7d3f 89fd 7e3f 8d7d 7c3f e528 783f
00000340: 8e5c 7f3f 19a3 7b3f 3818 7c3f dcd0 823f
00000350: 6bee 7a3f 080d 7d3f 2882 7d3f debe 823f
00000360: 3128 813f abbf 813f bbb8 783f 6c59 7f3f
00000370: 650e 7f3f 4f3d 803f bd3c 7d3f da12 813f
00000380: 85f4 7d3f 5273 7f3f 8ab0 7a3f 218e 813f
00000390: e5a6 773f 1609 863f 58f8 7d3f 0d6d 7f3f
000003a0: c862 813f c70b 813f b4bf 7f3f ea13 833f
000003b0: ec63 7c3f 8a7e 803f a706 803f 3e4c 813f
000003c0: 8973 7c3f 6b93 803f 0c4b 7e3f 6cc6 833f
000003d0: d1a4 813f a012 813f e9e8 7f3f f577 833f
000003e0: 4d01 813f 3d4b 823f 3280 763f 12e6 7e3f
000003f0: 67a1 803f 8e20 7e3f 4021 803f 5106 803f

network.1.bias f4 [512]
0.0010387213 0.00285049 0.047795694 -0.0070061823 0.014979212 0.014917324 -0.012426861 0.0057111895
-0.0005738708 -0.012162189 0.0003350169 -0.012650653 -0.014798384 0.012963548 0.00424958 -0.02720578
-0.008535707 -0.01829243 0.013250716 0.007852017 0.0050207567 -0.015995346 0.008812774 0.0045353174
-0.02098317 -0.00313248 0.0213521 -0.0014069951 0.024976576 -0.026326418 0.0067115817 -0.006978294
-0.007510287 0.013465357 -0.0079495525 -0.0047370214 -0.012795983 -0.012480287 -0.01734496 -0.0013906134
-0.013858992 -0.011130745 0.013847787 0.015149908 -0.003286546 -0.008539052 0.0099317795 -0.001979744
0.0062976927 -0.014234255 -0.014218469 0.015745606 -0.0076313005 -0.0004330471 -0.0057157516 0.0034354988
0.012253523 0.025391432 0.009163257 -0.015089563 -0.0056695384 -0.0022380075 -0.0034294433 -0.013512735
0.017826466 0.0020507616 0.0016287016 -0.013681594 -0.0021496157 -0.026748301 0.009123495 0.0007447097
-0.011524091 0.00251766 -0.010266551 0.0017987186 -0.011684358 0.013089836 -0.020686017 0.001626093
0.008267176 -0.0035116724 -0.017205708 0.014508824 -0.010714832 0.004464429 -0.0043969247 -0.0077388706
-0.012730034 0.007298598 -0.03133406 -0.0043343017 -0.0044040373 0.017644262 -0.02406481 0.037331577
0.009725562 -0.0034886517 -0.01929468 -0.028679153 -0.015954232 -0.00078997214 0.009558963 -0.0048477314
0.0046296534 -0.004373827 0.011535658 -0.006444537 -0.0073474506 -0.0220586 0.0021391134 0.00936573
0.0074990415 0.011156356 -0.010653292 0.0068723983 -0.02371313 -0.0067490414 0.013566021 -0.019343019
0.003368047 -0.011997015 -0.006363362 -0.0015651428 0.0043293964 0.014774296 -0.0074963523 -0.015169814
0.013836345 0.0004925628 0.014788137 -0.011027043 0.005961329 -0.0046418053 0.011490245 -0.011894228
0.004986245 0.02971097 -0.0075740796 -0.009091552 -0.018005384 0.026585734 -0.015157406 -0.012690887
-0.01091824 7.3001196e-05 0.02144304 -0.004333273 0.007429355 -0.017474387 -0.011426925 -0.030027376
0.0026764644 -0.006815186 -0.031870298 0.011267479 0.00077497854 -0.0150318695 0.0059014326 -0.0031067345
-0.01626717 -0.013977987 0.0075502773 0.0017832207 0.012163973 0.009829416 0.00752906 0.0047006337
0.001815996 0.025029553 -0.011125635 0.008656037 -0.0026895704 0.014433006 -0.0008810928 0.0075713038
-0.008916351 -0.0077243373 -0.0028660053 0.006417683 0.0020988379 -0.0074956734 0.019102274 0.010480708
-0.018404722 -0.013802603 -0.004056033 -0.004515489 -0.0053602913 -0.026629057 0.0006628148 -0.009856071
-0.0020053864 0.026717251 -0.02013415 0.0067213173 0.0035794084 -0.0053570047 -0.016972536 0.010271175
-0.006512803 -0.021290762 0.0013040325 -0.010965613 -0.0073458464 0.0058784443 0.0030314615 -0.02830708
0.0027968942 -0.014665538 -0.0069793095 0.008202856 0.0024589736 0.015664935 -0.0024031291 0.013587146
0.014028254 0.0029548458 -0.012127431 -0.0015971328 -0.019868415 0.012632979 0.00014063224 -0.00011868363
-0.008113436 -0.006088607 -0.022967547 -0.003833775 -0.031783227 0.033968367 -0.00861536 0.0007441273
0.0012732316 0.008832735 -0.005328991 0.011545368 0.003892987 0.013338826 -0.0044342903 0.0018872364
-0.02408667 0.00018213014 -0.0010462798 0.020666074 0.018552793 0.0011338687 0.005600808 0.015722355
0.018792843 0.010478104 -0.030288408 -0.002884879 0.027564416 -0.0026236789 0.0009980864 -0.00066348456
00000000: b425 883a 49cf 3a3b 6bc5 433d 1e94 e5bb
00000010: 5e6b 753c cb67 743c 089a 4bbc ee24 bb3b
00000020: d16f 16ba eb43 47bc 35a5 af39 af44 4fbc
00000030: ec74 72bc 1065 543c 1040 8b3b a8de debc
00000040: 5ad9 0bbc 02da 95bc 8819 593c bfa5 003c
00000050: 2985 a43b ac08 83bc 7463 103c 009d 943b
00000060: e6e4 abbc 4b4a 4dbb 99ea ae3c ec6a b8ba
00000070: ad9b cc3c 80aa d7bc d4ec db3b 2caa e4bb
00000080: db18 f6bb cd9d 5c3c d73e 02bc 0439 9bbb
00000090: 3ea6 51bc 1e7a 4cbc 0417 8ebc 3e45 b6ba
000000a0: d310 63bc ba5d 36bc d4e1 623c 5237 783c
000000b0: 1863 57bb 61e7 0bbc e7b8 223c 98be 01bb
000000c0: e05c ce3b cb36 69bc 95f4 68bc eefc 803c
000000d0: fd0f fabb 990a e3b9 334b bbbb 1b26 613b
000000e0: 00c3 483c b101 d03c 7c21 163c 373a 77bc
000000f0: 89c7 b9bb 89ab 12bb 83c0 60bb 8564 5dbc
00000100: cf08 923c 1266 063b 287a d53a c428 60bc
00000110: 91e0 0cbb 411f dbbc b67a 153c 9f38 433a
00000120: 8acf 3cbc 53ff 243b 0935 28bc fbc2 eb3a
00000130: c06f 3fbc c076 563c b975 a9bc a122 d53a
00000140: 0d73 073c 1624 66bb fcf2 8cbc 6bb6 6d3c
00000150: 438d 2fbc 584a 923b 1414 90bb 5a96 fdbb
00000160: a291 50bc 1429 ef3b 2558 00bd c206 8ebb
00000170: be4f 90bb b38a 903c 9023 c5bc ffe8 183d
00000180: f757 1f3c dda1 64bb e00f 9ebc 8bf0 eabc
00000190: 73b2 82bc 2216 4fba 329d 1c3c b8d9 9ebb
000001a0: 59b4 973b 5252 8fbb 0e00 3d3c b22c d3bb
000001b0: e2c2 f0bb 3db4 b4bc 5e30 0c3b b872 193c
000001c0: 85ba f53b 26c9 363c 258b 2ebc db31 e13b
000001d0: 0a42 c2bc 1027 ddbb 0444 5e3c 4075 9ebc
000001e0: 74ba 5c3b 218f 44bc c083 d0bb 7a25 cdba
000001f0: 9cdd 8d3b e40f 723c f6a3 f5bb d08a 78bc
00000200: d6b1 623c 541f 013a f149 723c c5aa 34bc
00000210: 4157 c33b 491a 98bb 9541 3c3c 02e0 42bc
00000220: a863 a33b 6c64 f33c fc2f f8bb bcf4 14bc
00000230: 0780 93bc 53ca d93c c556 78bc 70ed 4fbc
00000240: 6be2 32bc 3818 9938 50a9 af3c 21fe 8dbb
00000250: f271 f33b 7226 8fbc ff37 3bbc f9fb f5bc
00000260: 9f67 2f3b ec51 dfbb 6e8a 02bd 3b9b 383c
00000270: ee27 4b3a 3b48 76bc ce60 c13b 5b9a 4bbb
00000280: ba42 85bc ed03 65bc 5168 f73b f5ba e93a
00000290: 674b 473c 8f0b 213c 55b6 f63b c607 9a3b
000002a0: b706 ee3a c70a cd3c 4c48 36bc 0dd2 0d3c
000002b0: 8143 30bb 6a78 6c3c 23f9 66ba b318 f83b
000002c0: e315 12bc 701c fdbb 97d3 3bbb 6d4b d23b
000002d0: a88c 093b 449e f5bb 5f7c 9c3c 47b7 2b3c
000002e0: 80c5 96bc 5024 62bc 79e8 84bb abf6 93bb
000002f0: 62a5 afbb 2e25 dabc c0c0 2d3a 5c7b 21bc
00000300: cd6c 03bb 23de da3c 5ff0 a4bc 7f3e dc3b
00000310: 8294 6a3b d089 afbb fd09 8bbc 6e48 283c
00000320: 5a69 d5bb f769 aebc 12ec aa3a 1da9 33bc
00000330: 6db5 f0bb f79f c03b 7cab 463b 40e4 e7bc
00000340: 194c 373b ba47 70bc b1b2 e4bb 4665 063c
00000350: bb26 213b c053 803c d17d 1dbb 9f9c 5e3c
00000360: c3d6 653c 16a6 413b 22b2 46bc e256 d1ba
00000370: 16c3 a2bc 8efa 4e3c ae76 1339 cae5 f8b8
00000380: 38ee 04bc f082 c7bb 7026 bcbc 1240 7bbb
00000390: 212f 02bd 6a22 0b3d 7027 0dbc 8a11 433a
000003a0: 90e2 a63a 2db7 103c d19e aebb c828 3d3c
000003b0: 7c21 7f3b 178b 5a3c 864d 91bb 255d f73a
000003c0: 6851 c5bc 30fa 3e39 5323 89ba e64b a93c
000003d0: 07fc 973c 529e 943a fc86 b73b 2bcc 803c
000003e0: 73f3 993c 5bac 2b3c 651f f8bc 3d10 3dbb
000003f0: c5ce e13c 07f2 2bbb 39d2 823a b2ed 2dba

network.1.running_mean f4 [512]
0.10999979 -0.19900618 -0.021615636 -0.04364615 -0.08098429 0.020531572 0.06610104 -0.1271186
-0.15005052 0.03142887 0.07566155 0.14781347 -0.0038482517 -0.043265134 -0.03235164 -0.030862903
0.055499867 -0.100382194 0.009352804 0.12727527 -0.11164434 0.056720316 -0.031626876 0.014721245
-0.033685975 0.11689939 0.1420943 0.12919623 -0.03295001 -0.059631944 0.028904077 0.17113206
-0.2826959 -0.14418635 -0.17118081 -0.040697947 -0.044440817 -0.09037543 -0.08314232 -0.08702517
-0.105287485 -0.15430555 0.17080685 -0.13940144 -0.0014990651 0.1131056 -0.1309604 -0.056358863
0.17330511 -0.10040136 -0.042778555 0.10322137 -0.05481258 -0.096714646 0.14195374 -0.08621577
-0.056436125 0.09934328 0.25413394 0.120748535 0.011531926 0.14175814 0.04675682 0.06827586
-0.052448526 -0.18491733 0.0994289 -0.17373446 0.025200771 -0.13095416 -0.13262157 -0.11308572
0.10204853 0.026227387 -0.05981075 0.11018292 -0.025824212 -0.089105204 0.11668581 0.1417344
0.119775996 -0.14349735 -0.031149052 -0.1568735 0.034193885 0.10101983 0.025868988 0.14438389
-0.03549502 0.22002324 0.10540985 -0.034310732 -0.18417156 0.030032739 0.040118195 -0.24133535
-0.102536164 0.018808521 0.1952463 0.112386316 -0.18135895 -0.00898161 0.17762794 -0.07277215
0.04010272 -0.24746749 0.04278758 -0.10880674 -0.0653013 0.2093101 0.0036045827 -0.057673316
-0.050438553 0.07894546 0.07402593 0.14787512 -0.12127015 -0.05574793 -0.15579927 -0.1685858
0.017184118 0.018045552 0.10331402 -0.10720148 0.20892698 0.04578822 -0.04755177 -0.09692579
-0.10046961 -0.07376846 -0.07350431 0.1416437 0.0009278696 -0.1046188 -0.09564424 0.04736011
0.0011065092 -0.22460406 0.13403262 0.018545441 -0.07204332 0.03651911 -0.19706059 -0.057259925
-0.03720325 -0.1712054 0.18466347 -0.16905327 0.119410776 -0.1123064 0.13320665 -0.1656343
-0.03072582 -0.10454989 -0.16124894 -0.15918392 0.0223125 0.10399589 0.13058668 -0.17924891
0.087031536 -0.01153801 0.0681712 -0.14420162 0.1189941 0.052378926 -0.17224477 0.015349628
-0.0118431365 0.07387048 -0.01926321 -0.046094216 -0.047190677 -0.13997443 0.09129831 -0.08259617
-0.054958127 -0.08604 0.18148686 -0.02538307 -0.14109111 0.046046257 0.0024842008 -0.090904914
0.049933054 0.06984843 -0.21628436 -0.1653093 0.06353902 -0.07348114 0.11128148 0.19399315
0.004216266 0.18863136 0.05092672 -0.09307851 -0.109570526 -0.12324997 -0.050238673 -0.084383175
-0.066627756 -0.042201802 0.036673047 0.04397882 0.08648277 0.011950853 -0.07863638 -0.026719391
-0.007955121 -0.037825447 -0.055244043 -0.05363894 0.19753388 -0.0015939779 0.10965697 -0.1373384
0.14399475 -0.09568448 -0.011893934 -0.002162883 -0.09143324 -0.18732642 -0.06810706 0.16753265
-0.14105809 -0.04638678 0.003983365 -0.0017668445 -0.015245909 -0.04777146 -0.0874614 0.09303747
-0.15860097 0.21456668 -0.04306343 -0.13053387 -0.07217375 0.14509973 -0.049305744 0.15048008
-0.12626825 -0.023905687 0.048819005 -0.086065754 0.035487667 0.09174677 -0.12810574 -0.11618501
0.07985832 0.10489299 0.09900741 -0.031274814 0.11250004 -0.045267947 -0.026772013 0.028351983
00000000: 9247 e13d 47c8 4bbe 4613 b1bc 4ec6 32bd
00000010: 17db a5bd d431 a83c fb5f 873d 612b 02be
00000020: d8a6 19be 8fbb 003d 71f4 9a3d 6a5c 173e
00000030: f332 7cbb c836 31bd 2783 04bd 33d4 fcbc
00000040: d453 633d 2e95 cdbd 813c 193c 7354 023e
00000050: caa5 e4bd 9053 683d 2f8b 01bd 6031 713c
00000060: 4efa 09bd f368 ef3d 2b81 113e 044c 043e
00000070: 97f6 06bd a040 74bd 3ec8 ec3c 3e3d 2f3e
00000080: 84bd 90be 96a5 13be 064a 2fbe e4b2 26bd
00000090: 9307 36bd c116 b9bd 8546 aabd 413a b2bd
000000a0: f7a0 d7bd 4602 1ebe fee7 2e3e 40bf 0ebe
000000b0: 477c c4ba e9a3 e73d 7c1a 06be 8dd8 66bd
000000c0: e576 313e 3a9f cdbd 9138 2fbd ba65 d33d
000000d0: 2883 60bd 5412 c6bd 525c 113e e591 b0bd
000000e0: 9129 67bd 7d74 cb3d d81d 823e 024b f73d
000000f0: 67f0 3c3c 0c29 113e 1484 3f3d 37d4 8b3d
00000100: 44d4 56bd f85a 3dbe 61a1 cb3d 72e7 31be
00000110: d971 ce3c d918 06be f3cd 07be 7c99 e7bd
00000120: d2fe d03d d1da d63c 1efc 74bd 95a7 e13d
00000130: 4c8d d3bc ca7c b6bd f8f8 ee3d d322 113e
00000140: 1e4d f53d f8f0 12be 4c2c ffbc 72a3 20be
00000150: e30e 0c3d 7ce3 ce3d 33eb d33c 5fd9 133e
00000160: 3a63 11bd c64d 613e 1fe1 d73d 6989 0cbd
00000170: 7897 3cbe 3807 f63c fa52 243d 9d20 77be
00000180: 7bfe d1bd 5414 9a3c a5ee 473e cc2a e63d
00000190: 29b6 39be 9a27 13bc 19e4 353e 9109 95bd
000001a0: c042 243d 1e68 7dbe 0842 2f3d 11d6 debd
000001b0: b0bc 85bd 6355 563e dd3a 6c3b db3a 6cbd
000001c0: a898 4ebd 28ae a13d e89a 973d 936c 173e
000001d0: 7c5c f8bd f157 64bd d889 1fbe c2a1 2cbe
000001e0: b5c5 8c3c 44d4 933c 4d96 d33d 738c dbbd
000001f0: f4f0 553e 6e8c 3b3d a5c5 42bd 0781 c6bd
00000200: 03c3 cdbd eb13 97bd 6d89 96bd 0c0b 113e
00000210: 463c 733a 6242 d6bd 21e1 c3bd adfc 413d
00000220: 4a08 913a 9bfe 65be d93f 093e 9cec 973c
00000230: 738b 93bd 1095 153d 40ca 49be 6289 6abd
00000240: 6f62 18bd 7850 2fbe 6c18 3d3e 4d1c 2dbe
00000250: a38d f43d e600 e6bd 5367 083e 0a9c 29be
00000260: b7b4 fbbc 411e d6bd 711e 25be 1c01 23be
00000270: b4c8 b63c ccfb d43d 84b8 053e 078d 37be
00000280: 973d b23d ec09 3dbc 589d 8b3d 97a9 13be
00000290: 2eb3 f33d 498b 563d ef60 30be 027d 7b3c
000002a0: b709 42bc 6849 973d e1cd 9dbc 4acd 3cbd
000002b0: 034b 41bd 7555 0fbe 9cfa ba3d 2e28 a9bd
000002c0: c61b 61bd bd35 b0bd b1d7 393e 28f0 cfbc
000002d0: 307a 10be 009b 3c3d f9cd 223b 5b2c babd
000002e0: 9a86 4c3d b20c 8f3d a679 5dbe d746 29be
000002f0: bf20 823d 487d 96bd 8be7 e33d 24a6 463e
00000300: 9a28 8a3b 9428 413e 8998 503d f29f bebd
00000310: 8366 e0bd 7b6a fcbd 11c7 4dbd 16d1 acbd
00000320: 2274 88bd ccdb 2cbd 7a36 163d 2323 343d
00000330: e11d b13d 83cd 433c 1c0c a1bd a0e2 dabc
00000340: 3256 02bc dbee 1abd 9447 62bd 81b4 5bbd
00000350: 5246 4a3e 06ed d0ba d593 e03d 70a2 0cbe
00000360: 5c73 133e 3af6 c3bd c6de 42bc 28bf 0dbb
00000370: 5a41 bbbd 7fd2 3fbe b77b 8bbd ae8d 2b3e
00000380: 8871 10be 1000 3ebd e386 823b 7795 e7ba
00000390: fac9 79bc 02ac 43bd f61e b3bd 6e8a be3d
000003a0: 4b68 22be 5eb7 5b3e 4763 30bd acaa 05be
000003b0: d5cf 93bd 0695 143e d2f4 49bd 7317 1a3e
000003c0: 774c 01be dcd5 c3bc 70f6 473d 3e43 b0bd
000003d0: 845b 113d bbe5 bb3d 272e 03be 68f2 edbd
000003e0: c28c a33d 23d2 d63d 66c4 ca3d 051a 00bd
000003f0: 6c66 e63d e26a 39bd fb50 dbbc 6b42 e83c

network.1.running_var f4 [512]
0.21861242 0.2739734 0.3819209 0.3683864 0.333883 0.3748184 0.2106911 0.29305312
0.30477187 0.24542554 0.3577149 0.27826113 0.21820053 0.30163658 0.2274507 0.19658723
0.28397623 0.23975499 0.252599 0.22041494 0.26677293 0.26393956 0.2847289 0.23865439
0.30338868 0.42094812 0.22806366 0.22124918 0.23965186 0.32134008 0.2720283 0.24816287
0.3718034 0.24138255 0.30934522 0.27575538 0.29161802 0.29543844 0.24338925 0.48334983
0.3936007 0.47669187 0.2923855 0.2547997 0.23561193 0.32614493 0.3335663 0.31081653
0.37264162 0.29302853 0.25449893 0.38441268 0.23810494 0.28446352 0.37568304 0.32351983
0.22447748 0.32095435 0.41733724 0.2689579 0.22849815 0.26258323 0.28822333 0.2411751
0.27610236 0.3159501 0.2987307 0.37222394 0.24341284 0.26091722 0.27653414 0.27232257
0.24611658 0.3148891 0.3126311 0.37521306 0.2136219 0.14679682 0.25113413 0.25743884
0.27582547 0.34937346 0.27659577 0.3668981 0.3861525 0.29125834 0.21496215 0.26702264
0.31861326 0.24536869 0.21915513 0.4161597 0.28620264 0.41160598 0.2598968 0.27794278
0.62645596 0.24476454 0.29943162 0.4092435 0.23749717 0.24693404 0.4075203 0.25542414
0.22962628 0.27741307 0.321042 0.3787438 0.2456102 0.36713877 0.27091438 0.30896693
0.2842905 0.33598587 0.32879403 0.3258602 0.20957771 0.34566575 0.24641366 0.30410194
0.42739487 0.22947603 0.22048602 0.29664546 0.22030419 0.37910426 0.40941602 0.2932649
0.42724794 0.25808635 0.3201126 0.2648736 0.295404 0.2540311 0.29629955 0.23346514
0.27899733 0.27118456 0.323612 0.20021051 0.40785512 0.2785053 0.26861218 0.24252883
0.26048616 0.3066563 0.42875573 0.29857403 0.2806767 0.2724146 0.31535053 0.347601
0.26862437 0.3516481 0.27814147 0.338225 0.37565842 0.2515067 0.3348429 0.31000128
0.30777147 0.29339805 0.28396368 0.3369501 0.250502 0.34495115 0.27880877 0.24809581
0.27919385 0.43241394 0.31927568 0.28449765 0.39141777 0.34227753 0.23246394 0.41478032
0.33317414 0.1911251 0.27509975 0.28285447 0.33207738 0.41819742 0.3499246 0.32423148
0.3136029 0.46878958 0.2834202 0.3439417 0.2363311 0.23879904 0.2493024 0.4440394
0.28850043 0.32152018 0.31737396 0.4529447 0.2416562 0.2296463 0.32377234 0.3798415
0.2723677 0.22786362 0.32388818 0.2644321 0.3435294 0.3221943 0.39802766 0.42201847
0.26670554 0.36179864 0.26491445 0.29461795 0.30928302 0.3644529 0.37741873 0.28080884
0.3520425 0.28299698 0.28481933 0.3845184 0.43710312 0.24678382 0.20717573 0.3031515
0.27827537 0.32239884 0.25914428 0.31071597 0.32309905 0.3497848 0.2808218 0.39663926
0.222708 0.25468373 0.34489545 0.34020773 0.37490678 0.33585697 0.3226319 0.28290284
0.59899473 0.34095505 0.2952832 0.1936805 0.3950004 0.34549275 0.3352159 0.5522877
0.2508464 0.2801183 0.25275052 0.2670261 0.32010585 0.31309327 0.3766 0.22618614
00000000: efdb 5f3e 3e46 8c3e 238b c33e 249d bc3e
00000010: b6f2 aa3e 33e8 bf3e 68bf 573e 0f0b 963e
00000020: 0f0b 9c3e d550 7b3e 6826 b73e 3e78 8e3e
00000030: f66f 5f3e 1c70 9a3e d6e8 683e 2a4e 493e
00000040: 5565 913e 5582 753e a854 813e 74b4 613e
00000050: 7696 883e 1623 873e fdc7 913e d161 743e
00000060: c355 9b3e 8386 d73e 8589 693e 258f 623e
00000070: 4c67 753e b086 a43e 4b47 8b3e 681e 7e3e
00000080: 045d be3e fd2c 773e 7f62 9e3e cf2f 8d3e
00000090: f54e 953e b543 973e 083b 793e a179 f73e
000000a0: 0886 c93e f510 f43e 8db3 953e 1b75 823e
000000b0: 4144 713e 78fc a63e 34c9 aa3e 5823 9f3e
000000c0: e2ca be3e d607 963e af4d 823e bdd1 c43e
000000d0: c8d1 733e 34a5 913e 8759 c03e 64a4 a53e
000000e0: 6ddd 653e 2154 a43e 3aad d53e dab4 893e
000000f0: 6bfb 693e 4f71 863e 0292 933e 9bf6 763e
00000100: 4a5d 8d3e 36c4 a13e 3bf3 983e 2394 be3e
00000110: 3741 793e f196 853e e295 8d3e dd6d 8b3e
00000120: fc05 7c3e 2539 a13e 2f11 a03e ed1b c03e
00000130: b3bf 5a3e e851 163e a794 803e 06cf 833e
00000140: ff38 8d3e 14e1 b23e f69d 8d3e 11da bb3e
00000150: c8b5 c53e d01f 953e 0a1f 5c3e 31b7 883e
00000160: 4721 a33e ee41 7b3e 346a 603e e212 d53e
00000170: 2789 923e 05be d23e 3211 853e 844e 8e3e
00000180: 6b5f 203f 8ea3 7a3e 1a4f 993e 5d88 d13e
00000190: 7532 733e 47dc 7c3e 80a6 d03e f4c6 823e
000001a0: 2723 6b3e 1609 8e3e 9e5f a43e b5ea c13e
000001b0: 3e81 7b3e 9df9 bb3e 4ab5 8a3e ea30 9e3e
000001c0: 868e 913e 5706 ac3e b157 a83e 26d7 a63e
000001d0: 8a9b 563e 1afb b03e dd53 7c3e 40b3 9b3e
000001e0: 80d3 da3e c4fb 6a3e 16c7 613e eae1 973e
000001f0: 6c97 613e f419 c23e fa9e d13e d126 963e
00000200: 3ec0 da3e e523 843e cce5 a33e 839d 873e
00000210: 313f 973e 5d10 823e 93b4 973e 7c11 6f3e
00000220: bdd8 8e3e b4d8 8a3e 79b0 a53e fc03 4d3e
00000230: 63d2 d03e 3f98 8e3e 8987 893e 7a59 783e
00000240: 715e 853e 0e02 9d3e df85 db3e b2de 983e
00000250: dbb4 8f3e ed79 8b3e a075 a13e c2f8 b13e
00000260: 2289 893e 380b b43e 8f68 8e3e d42b ad3e
00000270: 4d56 c03e 7cc5 803e 8770 ab3e 7db8 9e3e
00000280: 3994 9d3e 4538 963e b063 913e b984 ac3e
00000290: cc41 803e 709d b03e 06c0 8e3e d40c 7e3e
000002a0: 7ff2 8e3e 5c65 dd3e 1a78 a33e ada9 913e
000002b0: e967 c83e 003f af3e 070b 6e3e 165e d43e
000002c0: cd95 aa3e 4cb6 433e e0d9 8c3e 4dd2 903e
000002d0: 0c06 aa3e f91d d63e 5129 b33e ab01 a63e
000002e0: 8f90 a03e 3005 f03e 741c 913e 2019 b03e
000002f0: c800 723e bc87 743e 2149 7f3e 2259 e33e
00000300: 54b6 933e 4b9e a43e d77e a23e 5ee8 e73e
00000310: b974 773e 6628 6b3e 7dc5 a53e 967a c23e
00000320: c773 8b3e 1555 693e acd4 a53e a563 873e
00000330: 16e3 af3e a7f6 a43e 48ca cb3e ce12 d83e
00000340: a18d 883e ac3d b93e dea2 873e 2ad8 963e
00000350: 585a 9e3e 9299 ba3e 073d c13e 2dc6 8f3e
00000360: ea3e b43e fbe4 903e d7d3 913e 99df c43e
00000370: fbcb df3e e6b4 7c3e e025 543e ac36 9b3e
00000380: 1c7a 8e3e 7611 a53e 8fae 843e 2a16 9f3e
00000390: 3d6d a53e fe16 b33e e0c7 8f3e 4d14 cb3e
000003a0: 910d 643e e865 823e 2396 b03e b52f ae3e
000003b0: c8f3 bf3e 72f5 ab3e 0230 a53e a4d8 903e
000003c0: b857 193f a991 ae3e 5c2f 973e 2e54 463e
000003d0: 7e3d ca3e 6de4 b03e 6ba1 ab3e ba62 0d3f
000003e0: f06e 803e aa6b 8f3e 8468 813e a5b7 883e
000003f0: eae4 a33e c34d a03e b7d1 c03e 579d 673e

network.4.weight f4 [256, 512]
0.02593133 -0.013514784 0.018184874 -0.03878966 -0.026471704 0.0040567936 -0.026754748 -0.038824577
-0.019086009 -0.058051616 0.033989437 -0.010556674 0.014446888 0.05604407 0.007260003 0.0013040093
0.0024828564 -0.012957467 0.025967617 0.024549814 0.013809532 -0.016070023 0.01271062 0.00018893878
-0.02718883 0.020683704 0.019063838 0.0099985255 -0.025136892 -6.345451e-05 -0.03690194 0.001961909
0.03964351 -0.0093455715 0.0063570086 -0.044767294 0.013303631 -0.019340506 0.022869254 0.0032785938
0.0108337635 -0.03173248 0.014359917 -0.00953181 -0.03737768 -0.024700534 -0.01290835 -0.0015128095
0.02779817 0.032120276 -0.015012994 -0.041175324 -0.015563081 -0.052759178 0.013607291 0.03561303
-0.052858565 0.028374001 -0.05217537 0.028408665 -0.012445085 -0.012036236 0.038909655 0.0416382
-0.035957888 0.015407529 -0.0016804007 -0.034001563 0.018138079 -0.0031556508 0.039251145 0.014820185
-0.007675124 -0.022145921 -0.032954115 0.031967554 -0.04178861 0.03694495 -0.039989896 0.0022056247
-0.041216396 -0.0060792333 0.022038434 0.03771335 0.034335017 0.024197755 -0.0012645756 -0.04381566
-0.012377489 0.031385314 0.028398491 -0.009659793 -0.027441546 -0.0043130317 0.0069458634 -0.018634107
0.0017270943 -0.027903572 0.04239893 -0.0009814738 0.018451063 -0.008625161 -0.017068733 -0.030198982
0.020468786 0.0073804557 0.03481718 -0.027344769 -0.024932612 -0.031677134 -0.0019565108 0.013027912
-0.003552659 0.039737586 -0.016618408 0.036512382 -0.04575219 -0.0036847028 0.007078315 0.042861395
-0.0047354987 0.014876055 -0.026164034 -0.01520334 -0.047561795 -0.050694022 -0.015649231 -0.044810236
-0.03958072 0.023251822 -0.008452278 -0.0361356 -0.015160834 0.00084070466 -0.021015514 -0.036326624
-0.015482517 -0.015309665 -0.013469103 0.029208494 -0.043417446 -0.011010374 -0.045255877 0.016007407
-0.030259622 -0.016445938 -0.03708848 0.0037897045 0.006450139 0.019126065 -0.030694347 0.06482359
0.010905257 0.054825824 0.012543777 0.025736673 0.03759888 0.00450603 0.025509387 0.049924318
0.015270969 -0.030337065 -0.0151327085 0.034088943 -0.017005341 -0.001884175 0.010035126 0.025704358
0.052303664 2.6284659e-05 -0.019817207 -0.03208716 -0.017728318 0.01481197 -0.02519332 0.016899468
0.0016169553 -0.015622897 -0.018866222 -0.031760838 0.029306911 0.028112216 0.030721864 0.014072396
-0.042191707 -0.008109837 0.048170015 0.04890831 0.0037759896 0.012270336 -0.049707428 0.02129513
-0.012759582 0.029222138 0.028669024 0.0487616 0.011461702 -0.06671998 -0.030323073 0.0026691828
0.018127859 0.00775286 -0.0095391655 -0.011752699 -0.00952207 -0.019285057 0.0076298807 0.036878902
0.036757417 -0.00080737605 0.019725043 -0.036426935 0.026330547 0.029586833 0.037296094 -0.00894546
0.037743 0.0432931 0.013781288 0.0047426126 0.0123794675 0.041659705 0.043146115 0.011447439
0.026321702 0.03339329 0.017560234 -0.021717543 -0.034279853 -0.03185288 0.02315593 0.021575257
0.03765506 0.020247893 -0.041004613 0.03614205 -0.03550689 0.0046231514 0.007391051 0.020356633
-0.0042732474 0.028022867 0.040610895 -0.029953057 -0.020732954 0.011767575 0.05278951 0.016168905
-0.03846052 -0.02287903 -0.0016801986 0.012525353 -0.043996863 -0.019266035 0.007636 0.03958724
00000000: f16d d43c 1d6d 5dbc 72f8 943c e8e1 1ebd
00000010: 30db d8bc daee 843b c62c dbbc 8506 1fbd
00000020: 435a 9cbc 88c7 6dbd 8238 0b3d e6f5 2cbc
00000030: a4b2 6c3c 778e 653d 52e5 ed3b 4beb aa3a
00000040: 6bb7 223b 8e4b 54bc 0aba d43c b11c c93c
00000050: 6041 623c 48a5 83bc 3440 503c de1d 4639
00000060: 1cbb debc df70 a93c c42b 9c3c dbd0 233c
00000070: e2eb cdbc e112 85b8 7d26 17bd 5f93 003b
00000080: 3c61 223d 2b1e 19bc 744e d03b e95d 37bd
00000090: 79f7 593c fb6f 9ebc 4d58 bb3c addd 563b
000000a0: 1980 313c ebf9 01bd db45 6b3c 4f2b 1cbc
000000b0: 5719 19bd c658 cabc 8b7d 53bc 7749 c6ba
000000c0: fdb8 e33c 8d90 033d 10f9 75bc 75a7 28bd
000000d0: 4bfc 7ebc 021a 58bd 1df1 5e3c f8de 113d
000000e0: 3982 58bd 9870 e83c d7b5 55bd 4ab9 e83c
000000f0: 78e6 4bbc a233 45bc bb5f 1f3d d18c 2a3d
00000100: 9448 13bd dc6f 7c3c e440 dcba 3945 0bbd
00000110: 4f96 943c 09cf 4ebb cfc5 203d 5cd0 723c
00000120: 9b7f fbbb 5d6b b5bc e5fa 06bd 69f0 023d
00000130: 892a 2bbd 9753 173d 72cc 23bd 3e8c 103b
00000140: 86d2 28bd 4e34 c7bb f289 b43c 5079 1a3d
00000150: e0a2 0c3d 5f3a c63c 1ec0 a5ba 0d78 33bd
00000160: f4ca 4abc e38d 003d f4a3 e83c 1c44 1ebc
00000170: 18cd e0bc 5554 8dbb 209a e33b 8ea6 98bc
00000180: ab5f e23a 0896 e4bc 80aa 2d3d cca4 80ba
00000190: af26 973c 8c50 0dbc bad3 8bbc db63 f7bc
000001a0: 28ae a73c c0d7 f13b 769c 0e3d 2302 e0bc
000001b0: 7a3f ccbc e2bf 01bd ce38 00bb 0673 553c
000001c0: bad3 68bb e1c3 223d 5423 88bc 028e 153d
000001d0: a666 3bbd 0e7b 71bb 36f1 e73b 6e8f 2f3d
000001e0: 3e2c 9bbb b2ba 733c f555 d6bc 6e17 79bc
000001f0: 28d0 42bd 89a4 4fbd d132 80bc f08a 37bd
00000200: 651f 22bd 9b7a be3c 6c7b 0abc ec02 14bd
00000210: 2665 78bc bc62 5c3a ba28 acbc 3acb 14bd
00000220: 62aa 7dbc 64d5 7abc 83ad 5cbc a746 ef3c
00000230: 7ed6 31bd db64 34bc 3a5e 39bd f721 833c
00000240: 07e3 f7bc a2b9 86bc 17ea 17bd b15c 783b
00000250: b05b d33b 44ae 9c3c b672 fbbc 3bc2 843d
00000260: f7ab 323c 0b91 603d 6a84 4d3c b7d5 d23c
00000270: 4801 1a3d 52a7 933b 10f9 d03c 717d 4c3d
00000280: 1633 7a3c 7085 f8bc 2eef 77bc d9a0 0b3d
00000290: c94e 8bbc 6cf6 f6ba 5e6a 243c f291 d23c
000002a0: 5e3c 563d e07d dc37 b257 a2bc d36d 03bd
000002b0: fa3a 91bc e8ad 723c 3962 cebc c170 8a3c
000002c0: 04f0 d33a 2ef7 7fbc 568d 9abc a717 02bd
000002d0: 0c15 f03c 974b e63c 6bac fb3c e88f 663c
000002e0: 36d1 2cbd 1fdf 04bc ec4d 453d 1454 483d
000002f0: 9876 773b 8509 493c 049a 4bbd 2073 ae3c
00000300: 910d 51bc 4463 ef3c 4ddb ea3c 3eba 473d
00000310: ddc9 3b3c 7ca4 88bd 1868 f8bc 75ed 2e3b
00000320: e080 943c b40b fe3b 294a 1cbc 648e 40bc
00000330: 7502 1cbc b2fb 9dbc 1404 fa3b 550e 173d
00000340: f28e 163d 17a6 53ba 6a96 a13c 6934 15bd
00000350: 29b3 d73c 1660 f23c cac3 183d fb8f 12bc
00000360: 6798 1a3d 1b54 313d e9ca 613c eb67 9b3b
00000370: 40d3 4a3c 5ea3 2a3d fbb9 303d 0a8e 3b3c
00000380: 9ca0 d73c 67c7 083d 7bda 8f3c fde8 b1bc
00000390: 0869 0cbd 2a78 02bd 81b1 bd3c 98be b03c
000003a0: 313c 1a3d e9de a53c 74f4 27bd b009 143d
000003b0: ac6f 11bd ce7d 973b a130 f23b f4c2 a63c
000003c0: 9906 8cbb 3690 e53c 9c57 263d 1d60 f5bc
000003d0: 28d8 a9bc c9cc 403c d039 583d a774 843c
000003e0: c788 1dbd ce6c bbbc 1c3a dcba 2337 4d3c
000003f0: 0e36 34bd ced3 9dbc 6937 fa3b 3b26 223d

network.4.bias f4 [256]
0.03317987 0.021545338 -0.0048586223 -0.009045356 -0.008207246 -0.04219503 0.023965646 0.027654722
0.031764876 0.00372188 -0.012557743 0.0038370253 -0.025311042 0.038720977 -0.02586899 0.03381718
0.038305964 0.018204402 -0.032276884 -0.040073987 0.007591993 0.03860576 -0.0032581098 0.027448436
-0.012408207 -0.019781573 -0.0016843177 0.027639171 0.01913417 -0.023879578 -0.008680454 0.025552548
-0.016995544 -0.019384786 0.020266905 0.040947862 -0.03800863 -0.022935925 0.01729305 0.0035708898
-0.021550206 0.03625551 0.041382916 -0.042812023 0.038162157 0.039962035 -0.027839206 -0.030973066
0.023431856 0.029309701 0.008721608 0.017976277 -0.03638754 0.041820616 -0.028492652 -0.030028902
0.030305296 -0.040355705 -0.024074849 0.01117044 -0.03928765 -0.032375317 -0.0065220604 -0.021453002
-0.013161848 -0.031141805 -0.0055011963 0.03901215 0.023320423 0.021546185 -0.0020092013 -0.006942523
-0.036386423 0.040204536 -0.0092221955 -0.019280126 -0.0270662 0.00876448 -0.03902571 0.005146229
-0.0011380977 -0.0072303517 -0.021123352 0.002249526 -0.023211453 -0.00877567 0.004776726 -0.01981452
-0.020609777 0.01011104 0.00633849 0.015136541 0.03991262 0.028182132 0.042034432 -0.03908493
0.010992628 -0.03130513 -0.019971836 0.028782215 0.04085629 0.031226315 0.0020953899 0.0038708665
0.0060182223 0.018541874 -0.02556194 -0.027678384 0.0107889315 -0.013872384 0.025332777 -0.0018802766
-0.039164025 0.028536418 -0.04052678 -0.040896 0.031526413 -0.0042248066 -0.034322556 -0.031854708
-0.00766238 0.040110353 -0.039849214 0.043660503 0.032041658 0.014347245 0.007430337 -0.022043914
0.020373112 0.02917288 -0.023987424 -0.040892575 0.03929162 -0.03595958 0.0010852593 -0.036242243
-0.0311855 0.03395748 0.005215286 -0.042568758 0.0094811525 -0.01621969 0.042369958 0.034662087
-0.027604522 0.03218329 0.0073393458 0.04077598 -0.041846745 -0.03499781 0.018793222 0.032787234
0.018014029 0.009296108 0.037875216 0.015625209 -0.0055778325 0.019209454 -0.031370755 0.011353529
0.02849799 -0.024782402 -0.014000779 -0.025575263 -0.029699264 0.030305555 -0.001625822 0.0137891555
0.0121468995 0.021291707 0.04315368 -0.008304978 0.034535464 0.020756284 -0.039609924 0.02831206
0.030003099 -0.0038226552 -0.01817923 0.018930756 0.027268505 0.035091206 0.0014095708 -0.036084708
-0.03313249 0.034835845 -0.026844714 -0.004394617 0.0017637172 0.034489624 0.004154521 -0.018546563
0.014369637 -0.0033639425 0.031650558 -0.027465668 0.00010601475 0.026966356 0.024690678 -0.01632171
-0.02482665 -0.0006154683 -0.001850383 0.03182066 -0.0012567783 -0.027004551 -0.023493657 0.006548229
-0.0014559857 -0.025177965 -0.0036502553 0.023224164 0.03603236 0.025719352 0.038660385 0.02711689
-0.020359477 -0.04056079 0.026481576 0.017044289 -0.012481569 -0.005191986 -0.04202281 0.043487735
-0.012445199 0.0043620537 0.0025856155 -0.028501805 0.01890329 -0.024088133 0.042773 0.018289007
-0.03307458 0.008069737 0.031618394 -0.040667746 0.021292746 -0.038712908 -0.032673538 0.028783044
0.0095577445 0.008817272 -0.014655087 -0.021567373 0.039503694 0.033003468 -0.02883095 -0.012159795
-0.013779506 0.013937697 0.04143777 -0.011291942 -0.019008402 -0.029147653 0.020942608 0.034365416
00000000: 9ee7 073d d97f b03c 1435 9fbb f932 14bc
00000010: af77 06bc b2d4 2cbd 9a53 c43c 288c e23c
00000020: e31b 023d c9ea 733b febe 4dbc 9a76 7b3b
00000030: 1a59 cfbc e399 1e3d 34eb d3bc e283 0a3d
00000040: b7e6 1c3d 6621 953c c434 04bd 9f24 24bd
00000050: 41c6 f83b 1321 1e3d 0386 55bb 8bdb e03c
00000060: cb4b 4bbc f70c a2bc 53c4 dcba 8b6b e23c
00000070: 43bf 9c3c 1b9f c3bc 7738 0ebc 9453 d13c
00000080: 3d3a 8bbc d8cc 9ebc c806 a63c f2b8 273d
00000090: f0ae 1bbd 1fe4 bbbc 28aa 8d3c 9705 6a3b
000000a0: 0f8a b0bc a880 143d 2281 293d a95b 2fbd
000000b0: ec4f 1c3d 3baf 233d 0c0f e4bc 3abb fdbc
000000c0: 2af4 bf3c e61a f03c 13e5 0e3c fc42 933c
000000d0: 1a0b 15bd 184c 2b3d 6c69 e9bc 2cff f5bc
000000e0: d042 f83c 064c 25bd 9e38 c5bc 3904 373c
000000f0: 16ec 20bd fb9b 04bd 02b7 d5bb 35be afbc
00000100: cba4 57bc 191d ffbc 6143 b4bb 34cb 1f3d
00000110: 790a bf3c a081 b03c ceac 03bb 1b7e e3bb
00000120: ee09 15bd 83ad 243d b118 17bc 5bf1 9dbc
00000130: efb9 ddbc e598 0f3c 6cd9 1fbd b3a1 a83b
00000140: 392c 95ba 96ec ecbb e10a adbc c96c 133b
00000150: f225 bebc d4c7 0fbc 1586 9c3b 0f52 a2bc
00000160: d6d5 a8bc c7a8 253c 1cb3 cf3b 41ff 773c
00000170: 6a7b 233d 37de e63c 4c2c 2c3d 8517 20bd
00000180: 6c1a 343c cf39 00bd fa9b a3bc aec8 eb3c
00000190: ed58 273d 54ce ff3c cf52 093b 5dae 7d3b
000001a0: 8234 c53b 21e5 973c 4667 d1bc c7bd e2bc
000001b0: 0fc4 303c ff48 63bc af86 cf3c 9d73 f6ba
000001c0: 756a 20bd 35c5 e93c 69ff 25bd 9082 27bd
000001d0: d721 013d 3f70 8abb cf95 0cbd 157a 02bd
000001e0: b414 fbbb c14a 243d ee38 23bd 5bd5 323d
000001f0: 1d3e 033d b510 6b3c 2f7a f33b 7095 b4bc
00000200: 83e5 a63c f7fb ee3c 4681 c4bc f97e 27bd
00000210: 40f0 203d 5a4a 13bd 423f 8e3a bf72 14bd
00000220: bc78 ffbc 0017 0b3d fde4 aa3b 945c 2ebd
00000230: d656 1b3c 28df 84bc 1f8c 2d3d d5f9 0d3d
00000240: e122 e2bc a0d2 033d e57e f03b b704 273d
00000250: 7e67 2bbd dd59 0fbd 3ef4 993c e84b 063d
00000260: 2892 933c b44e 183c 0b23 1b3d 7000 803c
00000270: 40c6 b6bb 255d 9d3c 9f7e 00bd 2704 3a3c
00000280: 9e74 e93c 7704 cbbc 8663 65bc 3783 d1bc
00000290: df4b f3bc 5b43 f83c 8919 d5ba e9eb 613c
000002a0: ca03 473c f26b ae3c eac1 303d 9a11 08bc
000002b0: 0f75 0d3d 1509 aa3c 043e 22bd b1ee e73c
000002c0: 0fc9 f53c 8385 7abb 9cec 94bc ac14 9b3c
000002d0: 3362 df3c ccbb 0f3d 59c1 b83a 8fcd 13bd
000002e0: efb5 07bd 08b0 0e3d 72e9 dbbc b800 90bb
000002f0: 872c e73a fe44 0d3d a622 883b f6ee 97bc
00000300: a06e 6b3c 9775 5cbb 04a4 013d aeff e0bc
00000310: 3c54 de38 8ce8 dc3c 1b44 ca3c 1bb5 85bc
00000320: 4261 cbbc 6157 21ba 8d88 f2ba 6156 023d
00000330: 7bba a4ba a638 ddbc c575 c0bc 8792 d63b
00000340: c6d6 beba 0542 cebc 1f39 6fbb 9a40 be3c
00000350: ab96 133d 64b1 d23c 5a5a 1e3d 3d24 de3c
00000360: ebc8 a6bc 1223 26bd e4ef d83c 77a0 8b3c
00000370: 7f7f 4cbc 8921 aabb 1c20 2cbd 3220 323d
00000380: f3e6 4bbc 8fef 8e3b 6e73 293b 9e7c e9bc
00000390: 13db 9a3c 7a54 c5bc be32 2f3d d4d2 953c
000003a0: 3679 07bd ee36 043c 4a82 013d 3993 26bd
000003b0: 206e ae3c 6d91 1ebd b0d4 05bd 6bca eb3c
000003c0: 1698 1c3c 5276 103c e41b 70bc 0fae b0bc
000003d0: a0ce 213d a52e 073d e22e ecbc e039 47bc
000003e0: 70c3 61bc f05a 643c a7ba 293d d601 39bc
000003f0: 82b7 9bbc 0fc7 eebc d58f ab3c c0c2 0c3d
