projekt1/wandb/run-20251108_170904-x6k3nkwc/files/best_model.pth (torch, 29461 bytes, 5 tensors)

network.0.weight f4 [64, 70]
000000 82 23 72 3d ee 7b 58 3d a9 6c 2d be 9a 8d e3 bc
       0.059115894 0.052852564 -0.16935982 -0.027777482
000010 c7 fc 75 bc 84 ad a2 bd ff 38 e9 bd bd 05 6e bd
       -0.01501388 -0.07943252 -0.11387824 -0.05811094
000020 0a 0c 55 3d 3c ed 84 3d 3d ae 9b 3d ef 3d 19 be
       0.052013434 0.06490561 0.07601593 -0.14965032
000030 ff 47 80 3e 96 ab a2 bd 45 35 0e 3e 62 e9 1c 3d
       0.2505493 -0.07942884 0.13887508 0.03830851
000040 f1 b0 b5 3b 5e b3 09 3e 79 a8 57 bc 35 29 14 bd
       0.0055447747 0.1344733 -0.013162726 -0.03617211
000050 2b 61 bd 3d b0 ec e0 3d bd 57 55 3d 05 3e 95 3c
       0.09247049 0.109826446 0.052085627 0.01821805
000060 71 f2 8d bd 4a 5c 85 bd 94 07 be bd aa 28 cf bd
       -0.06931008 -0.06511743 -0.09278789 -0.10115178
000070 32 07 b8 3d a9 9f 10 3e bb 4a ee bd 81 0f 8e 3d
       0.089857474 0.14123406 -0.116353475 0.06936551
000080 4a 60 97 3d 58 97 ff 3c 64 35 5f 3d b6 ef fb bb
       0.073914126 0.031200096 0.054494277 -0.007688488
000090 f9 a0 51 3d 7c d6 60 bd 55 75 ac 3d 60 26 a1 bd
       0.051178906 -0.05489205 0.08420817 -0.078686476
0000a0 2f cb 8d 3d 63 00 e9 3b 0d a8 df bc 5d 88 e5 3d
       0.0692352 0.007110642 -0.027301813 0.1120765
0000b0 89 91 e8 3d 0d f9 c7 3d b1 12 90 3c 82 34 b0 bd
       0.11355884 0.097642995 0.017587038 -0.08603765
0000c0 19 8e 1c 3d 6b ef 0b bd 26 7f 8d bc 82 aa fc bc
       0.038221452 -0.034163874 -0.017272543 -0.030843023
0000d0 2a 58 b1 3c 1c e9 3b bd 04 98 8c 3d b4 80 43 3e
       0.021648485 -0.045876607 0.06864932 0.19092065
0000e0 f5 c9 51 3e 0d bf 43 3d 38 a7 e3 3c 0c e4 a3 bd
       0.20487197 0.047789622 0.027789697 -0.08002481
0000f0 b0 93 dc 3d 9a 35 b7 3d c4 a9 ef 3d 1f 5b 6b bc
       0.10770357 0.089457706 0.11702302 -0.014364987
000100 79 15 04 bd 4c aa 50 3d 51 40 72 bd af 7e 01 3e
       -0.03224704 0.050943658 -0.05914337 0.12645982
000110 1b 33 e3 3d 1e 7c 37 3e b7 b7 bf bc 03 ab 79 bd
       0.11093732 0.1791844 -0.023403032 -0.060954105
000120 40 24 a4 3c 0d 4c a8 3c 90 b7 8b 3b ca 75 c1 bc
       0.020036817 0.020544076 0.0042638257 -0.023615737
000130 a0 0e 63 3d bf 96 a0 3d 53 55 d7 3d d9 25 6d 3d
       0.05543387 0.078412525 0.10514321 0.057897422
000140 38 c9 15 bd ba dc 00 3e e0 f0 3c bc ef 00 ba 3d
       -0.03656885 0.125842 -0.011532038 0.09082209
000150 9a 42 af bc 2f 2f c1 bd 8e 6a 93 bd b1 a5 62 3d
       -0.021394063 -0.09432828 -0.07198058 0.055333797
000160 e9 29 55 3c 18 8d 4e bd 3b 4a 7b 3c 8e ee 91 bc
       0.01301048 -0.050427526 0.015337522 -0.017813947
000170 90 af 9f bc 38 b7 58 3d 07 f9 71 bd 7a 49 25 3d
       -0.019492894 0.052909106 -0.05907538 0.040353276
000180 de 61 84 3d 4d 04 a1 bc 16 42 5f 3d 42 fe 52 3d
       0.06463979 -0.019655371 0.054506384 0.05151201
000190 9b 67 35 bd 63 76 03 bd 1d c1 a2 3d 2d af 05 be
       -0.04428826 -0.032095324 0.0794699 -0.13055106
0001a0 6f 4e 6f bb 3a f8 5f bd 56 96 45 3b 4f 96 3c bc
       -0.0036515256 -0.054680087 0.0030149422 -0.011510446
0001b0 e3 6a 9b 3b b6 46 8e bb ae 48 da 3d 64 ed 5a 3d
       0.0047429665 -0.0043419255 0.10658394 0.05344905
0001c0 0d 42 15 bc 12 74 2a bd 74 78 61 3c 24 f1 47 bd
       -0.009109986 -0.0416146 0.013761628 -0.048813954
0001d0 38 f2 1e 3d 5a e6 8d bc c6 96 2b bc b0 cc 4d 3c
       0.038805217 -0.017321754 -0.010472959 0.012561008
0001e0 18 13 78 3d 46 16 7d bd f7 ab 30 bc 53 9e 0e bd
       0.060565084 -0.06178882 -0.010783187 -0.03481896
0001f0 f5 4e 0b 3d 99 6c c2 bd 9b 35 1c bd 21 9d e1 bd
       0.034010846 -0.094933696 -0.03813706 -0.11016298
000200 78 47 95 bd 5c a4 88 bd 46 03 3c be c2 97 3a 3d
       -0.07289022 -0.06671974 -0.18360624 0.045554884
000210 17 e6 42 be 6f a8 5c 3c 55 95 80 3c 39 4a 1a be
       -0.19033085 0.013467892 0.015696207 -0.15067376
000220 33 d9 ee bd e2 a7 a6 bd 4b bf 5b be 34 cd 21 be
       -0.11662521 -0.0813749 -0.21459691 -0.15800935
000230 a8 d6 e6 bc 50 ec fb bd a1 61 2f 3e 35 73 92 bd
       -0.028178528 -0.123009324 0.17127086 -0.0715088
000240 fe 72 c4 3d 59 02 80 bb a6 8d 9d 3d d4 17 8a bd
       0.095922455 -0.00390653 0.07693033 -0.06742826
000250 11 f1 8e bd 2a 32 ac 3c 90 f3 34 3e b3 0a 2a 3d
       -0.069795735 0.021020014 0.17671037 0.04151411
000260 3d dc 04 be 11 20 b3 bd 87 f7 0c bd 38 29 30 be
       -0.12974639 -0.087463506 -0.034415748 -0.17203224
000270 e6 8d 8a bc 3b 44 84 be ec 9f 00 3e 82 0d 45 bc
       -0.016913366 -0.25833306 0.12561005 -0.012027146
000280 a5 c7 85 bd 56 0a 86 bd cf e9 bf 3d 45 9d f7 bd
       -0.0653222 -0.0654494 0.09370767 -0.12090544
000290 83 45 0c 3d d8 42 03 3d c6 d7 2e ba c8 ec 08 3e
       0.03424598 0.03204617 -0.0006669726 0.13371575
0002a0 ff 97 a6 bd d9 75 a7 be ef 47 ba bd c5 2e 1a be
       -0.0813446 -0.32707098 -0.090957515 -0.15056904
0002b0 cf ec 17 be a3 2f ad bd ef ee 04 be 3e c0 bb bd
       -0.14836429 -0.084563516 -0.12981771 -0.09167527
0002c0 a8 11 f9 3d 03 b0 99 3b 42 a9 79 bd d4 bb 47 bc
       0.12161571 0.0046901717 -0.060952432 -0.012190778
0002d0 84 6c 00 bd 30 32 21 3d 29 33 c4 3c 44 25 64 3c
       -0.03135349 0.039354503 0.023950176 0.0139249
0002e0 86 e1 c9 bd bb 7c fb 3d ec ff a4 bd a2 fa 33 3d
       -0.09857468 0.1227965 -0.08056626 0.043940194
0002f0 60 1f f5 3d b4 fe 02 3d 1a 5c e3 3d d4 65 e8 3c
       0.11968875 0.031981185 0.11101551 0.028368868
000300 2c ca 5e 3d 41 da 6b bd 19 9f 12 be 54 e1 42 be
       0.054392025 -0.05758119 -0.14318503 -0.19031268
000310 83 8a 61 be ac bc 8c bd 7b bb 29 bd c1 aa 8b bc
       -0.22025494 -0.06871924 -0.04143856 -0.017049195
000320 0f fc e9 3d 7e a7 ce bb 30 0c bd 3c 31 ff a0 bc
       0.114250295 -0.0063065877 0.0230771 -0.019652935
000330 34 5f b3 3d 62 5f 57 3c aa b4 92 bd c0 d8 cd 3b
       0.08758393 0.0131453 -0.07163365 0.006281942
000340 ac 5f 15 3d 34 8d 5f bd b3 57 bf bd 80 21 3f bd
       0.036468193 -0.05457802 -0.09342899 -0.046662807
000350 bf bb 18 3c f9 aa b0 3c e8 64 91 3d 10 1b 71 3d
       0.009322106 0.021565901 0.070993245 0.0588637
000360 81 6f df 3d 0d df 83 bd 88 85 8a bd 82 0f 50 bc
       0.109099396 -0.06439028 -0.0676375 -0.01269901
000370 db 47 6a 3e a2 06 2f bc 62 c6 83 be eb 2c 12 be
       0.22878973 -0.010682734 -0.25737292 -0.14274947
000380 95 03 c5 bd 17 90 7c be d7 2b aa 3d ea 5a 77 be
       -0.09619824 -0.24664341 0.08309143 -0.24155775
000390 f3 51 c3 3d 48 cb 67 3d 25 4d 34 bd fe 65 57 bd
       0.09537115 0.05659035 -0.044018883 -0.0525875
0003a0 0d 65 40 3d 6c f5 25 3d 31 b9 bc 3b 49 66 86 bd
       0.04697137 0.040517256 0.005759381 -0.06562478
0003b0 d4 41 29 3e bc b2 de 3d fe b1 9c 3c 1b 40 ee bd
       0.16529018 0.108739346 0.019127842 -0.11633321
0003c0 90 bc ba b9 e1 f8 de bd 2c d5 2c be 47 f7 96 bd
       -0.00035617175 -0.10887314 -0.16878194 -0.07371383
0003d0 55 96 2f bd 66 ea 09 bd a8 10 71 bd 8b a5 a4 3d
       -0.042867977 -0.033670805 -0.058853775 0.08039387
0003e0 09 44 01 be 22 51 ee 3d 9f 20 3d 3b 73 01 bf bb
       -0.1262361 0.116365686 0.0028858555 -0.00582903
0003f0 06 85 63 3d 44 c5 29 bd 70 ef 9a 3d fc 0a 5b 3c
       0.055546783 -0.041447893 0.075652 0.013369318

network.0.bias f4 [64]
000000 2a 55 82 3d d2 68 90 bd c0 db e9 38 4b a4 2b 3c
       0.063639 -0.07051243 0.000111512374 0.010476182
000010 05 ee 07 bd f6 69 10 3e 34 e8 c9 3c bc 26 60 bd
       -0.033185977 0.14102921 0.024646856 -0.05472444
000020 f5 8b b6 bd b6 a6 0e 3e aa 10 2c be 3c a5 58 bd
       -0.089134134 0.13930783 -0.16803232 -0.052891955
000030 a1 7e 67 3d 46 23 18 be 3d f6 81 bd 4f 6b 8c 3d
       0.056517247 -0.14857206 -0.06345794 0.06856405
000040 f8 71 dc bd 40 89 24 bd 62 bd 3c 3d c2 84 fa 3d
       -0.10763925 -0.040169954 0.046079047 0.12232353
000050 21 35 d7 bc 1a 66 0c be e6 34 9d 3d 7e a5 41 bd
       -0.026270451 -0.13710824 0.07676105 -0.047276966
000060 21 9a 71 bd c0 4f 48 3d e3 8d 1d be 8a 42 b2 bc
       -0.05898488 0.04890418 -0.15386157 -0.021760244
000070 f2 1b 53 bd 27 4b e6 bd b7 de fd bc 8a eb af 3d
       -0.051540323 -0.11244803 -0.030989988 0.085898474
000080 5f bb ad 3c bd ac 39 be e3 62 05 3d f0 35 dd 3b
       0.02120751 -0.181323 0.03256501 0.0067508146
000090 1e 62 0f be 3b 0f 7e bd 74 be a4 bd 1c c3 8e bb
       -0.14002272 -0.062026244 -0.080441386 -0.004356755
0000a0 3c ab 76 be d5 af 84 bd c7 93 bb bd d0 68 93 bd
       -0.24088758 -0.0647885 -0.09159046 -0.07197726
0000b0 09 db f6 bc 05 62 05 be 6f 06 09 be 35 a5 0a 3e
       -0.030133741 -0.13025673 -0.1338136 0.13539584
0000c0 fc ed 52 be 33 f4 91 3d de 25 fc 3c 88 30 16 3e
       -0.20598596 0.071266554 0.030779775 0.1466695
0000d0 ad e3 98 bc 36 25 65 bd e2 14 a6 bd 24 6c 0c bb
       -0.018663252 -0.05594369 -0.08109452 -0.0021426762
0000e0 db cf 91 3c 2f 8b 10 3e fa 3e b2 bd f4 fe b1 bd
       0.017799309 0.14115594 -0.08703418 -0.086912066
0000f0 d5 0e 88 bd e3 2f ad bc 01 e8 94 3d 10 b9 b2 3c
       -0.06643454 -0.021140998 0.07270814 0.02181676

network.3.weight f4 [32, 64]
000000 a2 c7 84 3d dc c3 a3 bd 03 e7 f3 bd f5 85 ee bc
       0.064833894 -0.079963416 -0.11909296 -0.02911661
000010 43 68 2c be 0b 36 0b be 07 f5 31 be ef c9 2c be
       -0.16836648 -0.13594835 -0.17378627 -0.16873907
000020 64 b7 11 bd f6 8b 18 3e e2 2d 66 3d e0 c3 97 3c
       -0.035575286 0.14897141 0.0561961 0.018526018
000030 67 0e ab 3d 76 00 d7 bd 3d 13 79 be 7a d3 9a 3d
       0.083523564 -0.10498135 -0.24323745 0.07559867
000040 69 cd 90 3b c3 96 c8 3d e4 da 65 3d 82 52 34 be
       0.004419018 0.097943805 0.056116953 -0.17609599
000050 f8 47 94 3b 3e 0e 8d 3d 84 c8 41 3e 89 7c 1a bd
       0.004525181 0.06887482 0.18924147 -0.037716422
000060 ef 35 aa bd 8c 8c 53 bd 8b 80 29 bd 6f 92 63 3d
       -0.08311068 -0.051647708 -0.041382354 0.05555957
000070 fa da 60 3d e9 ce 19 3e e0 79 d0 3d 9f 1d 10 3e
       0.054896332 0.15020336 0.10179496 0.140738
000080 72 d1 1d 3d 55 27 66 3d 07 96 6f 3d 6e 99 96 3c
       0.03852982 0.056189854 0.058492687 0.018383708
000090 d9 22 d9 bd 24 8c 83 3d 1a c8 7a bc 92 68 dc 3d
       -0.1060235 0.06423214 -0.015306497 0.10762133
0000a0 77 1b 33 3c 96 7e 2d 3d 17 80 34 3c 61 7c 8c bc
       0.010931841 0.04235705 0.011016867 -0.017149152
0000b0 e9 c1 10 bc 73 e6 7a 3d e0 a2 0f be a5 d1 3d 3e
       -0.008835294 0.06125493 -0.14026976 0.18537004
0000c0 0b 02 03 3d 68 fb b1 3d ca 0a 5e 3c 6e 1b e1 3d
       0.03198437 0.0869053 0.013552377 0.1099156
0000d0 c5 3c 1b be 60 32 aa 3d 47 0f 35 3e 00 df ca 3c
       -0.151599 0.083103895 0.17681609 0.024764538
0000e0 20 f2 65 bd ce 2a 79 3c ca 8e 8c bc a8 ce 9d bd
       -0.05613911 0.015207959 -0.01715793 -0.07705432
0000f0 f6 1f 08 be 38 7f 89 3d fd 32 4d bd d3 1e 08 3e
       -0.13293442 0.06713718 -0.050097454 0.13293009
000100 7d 2e 0e be 8b 1f f3 bd 1d ec 49 be 30 ee 30 be
       -0.13884921 -0.11871251 -0.19718976 -0.17278361
000110 e1 5b 74 bd 62 f3 15 be ec cb cb 3d 9e 17 52 bd
       -0.059657935 -0.14643624 0.099510044 -0.051292054
000120 a1 3d 6d 3d 36 e7 dd bd d9 fb b8 bd 5c d7 3a bd
       0.057920102 -0.108351156 -0.09032411 -0.04561554
000130 73 31 02 be 86 ae 1f be bd f0 66 3d fa cd 09 be
       -0.12714176 -0.15593919 0.05638193 -0.1345748
000140 9f fe 6c 3d 55 48 89 3c 09 70 b4 bd a0 fe f8 3d
       0.057860013 0.016758123 -0.088104315 0.12157941
000150 8f e6 42 bd c2 25 27 bd 0b 7f 87 bd 25 5d b9 bd
       -0.04758316 -0.040807493 -0.066160284 -0.09050969
000160 c3 01 bd 3c 14 99 2e be 1d 5d 66 3d 51 dc 2b be
       0.02307213 -0.17050582 0.056241143 -0.16783263
000170 95 47 ba bd 09 78 d9 bd 63 f2 c8 3d 76 cd 07 3c
       -0.090956844 -0.10618598 0.098118566 0.008288732
000180 8f f8 37 bd 77 e0 9c 3d 91 33 6f bd 44 a7 b0 bd
       -0.04491478 0.07660001 -0.058398787 -0.086256534
000190 0a e1 b0 3a ae 8a 0c be 68 3a d0 bd 6f be 83 bc
       0.0013494801 -0.13724777 -0.1016739 -0.016082017
0001a0 8d 3d da bd 21 c9 4d 3d 53 fb 5f 3d 98 e8 bf 3d
       -0.10656271 0.05024064 0.05468304 0.093705356
0001b0 4d 15 24 3c b6 d7 32 3d db 76 70 3d 2d ac 9a bd
       0.010014844 0.04366275 0.0587071 -0.07552371
0001c0 3a a9 82 bc 64 0e 4e bd 87 fa 91 bd 1d 7a 3d 3c
       -0.015949834 -0.050306693 -0.071278624 0.011564759
0001d0 d7 ed 86 3d cb d7 5f bd 50 f1 ca bc be b5 76 3d
       0.06588333 -0.054649156 -0.02477327 0.060231917
0001e0 03 f0 9b 3a 9e 31 32 ba 6c 64 b7 bd 78 93 82 3d
       0.0011897091 -0.00067975547 -0.08954701 0.06375784
0001f0 f2 18 26 be 08 75 85 3d 5b 10 87 bd 5f 0b e8 bd
       -0.16220453 0.065164626 -0.065949164 -0.11330294
000200 22 03 72 3d 1a 8e 88 bb 94 41 23 be 25 51 23 be
       0.05908502 -0.0041673305 -0.15942985 -0.15948923
000210 63 00 23 be 99 3e c5 bc b2 12 ff bd 7e 24 27 bd
       -0.15918116 -0.0240777 -0.12454738 -0.040806286
000220 33 fb 3f be 50 80 44 b9 b2 ae 59 bd 9e 9e 84 3c
       -0.18748169 -0.00018739817 -0.053145118 0.016188916
000230 0a 35 78 3d 0e 83 c0 3c 67 c6 37 bd 9b 6d 8a 3d
       0.060597457 0.023499992 -0.044866946 0.06759187
000240 07 3d 61 bd c3 d1 84 3b e7 a9 9d bd ec 92 16 3b
       -0.05498984 0.004053326 -0.07698422 0.0022975756
000250 d7 83 39 bd f3 55 f7 bd d1 5a 08 3e ae fa c7 3a
       -0.045291748 -0.120769404 0.13315894 0.0015257203
000260 5b 1d 97 3d 84 0a 74 bd aa c1 02 bc 19 85 3b 3d
       0.07378646 -0.05958034 -0.007980743 0.04578123
000270 8a 59 29 bd 49 d2 cf 3d 65 50 35 3e 58 e9 9b bc
       -0.041345157 0.101475306 0.1770645 -0.019032165
000280 a8 73 65 bc 7d 5b 2e bd d6 08 19 3d 05 3f f0 bd
       -0.014004625 -0.04256772 0.037361942 -0.1173077
000290 be 93 22 be 44 61 ff 3d 5a d8 60 bd cd d6 b7 3d
       -0.15876672 0.12469724 -0.05489383 0.08976517
0002a0 52 7e 5e 3d 0f e4 ca bd d4 47 0e bd d2 99 c3 bd
       0.054319687 -0.0990678 -0.03473647 -0.09550823
0002b0 f7 c0 a1 bd c0 d3 c8 bd c5 9d fb bd 26 d3 c4 3c
       -0.07898133 -0.09806013 -0.122859515 0.024026465
0002c0 11 b7 5e bd 3b 6b d8 bd 16 e6 28 3e 53 87 1f 3e
       -0.054373804 -0.105673276 0.16494021 0.15578966
0002d0 6d af 08 be 2f a2 4b bc c0 26 38 3e a9 a4 be bc
       -0.1334817 -0.012428804 0.17983532 -0.023271875
0002e0 58 12 fb 3b 89 da 89 bd c2 bc 80 3d 12 0f 68 3a
       0.007662099 -0.067311354 0.06286003 0.00088523433
0002f0 09 ef cf bd 5a 64 85 3d 03 0b 59 bd d7 5f fd 3d
       -0.10153014 0.06513281 -0.052989017 0.123717956
000300 a1 0f 9f 3d 33 85 e4 bd 97 17 d0 3c f3 e6 84 ba
       0.07766653 -0.11158218 0.025401874 -0.0010139629
000310 1d c2 8e 3d 17 f6 a6 bd b0 62 33 bd ca 71 35 3d
       0.06970618 -0.08152407 -0.043795288 0.04429797
000320 85 d7 b8 bc 58 67 a4 bd 80 a2 73 3c 65 ca c2 3d
       -0.022563705 -0.08027524 0.014870286 0.0951126
000330 11 b1 b1 bd 20 0e b0 bc 32 45 be bd 4c da 2c be
       -0.08676351 -0.02149111 -0.09290542 -0.16880149
000340 b3 1e e0 3b 21 62 0b bd 7d ec 19 be d0 32 25 be
       0.006839597 -0.03402913 -0.1503162 -0.16132665
000350 cf bb a6 3b a8 e5 b0 bd 68 a5 5b 3c 80 b3 85 bd
       0.0050883065 -0.086375535 0.013406135 -0.065283775
000360 e6 f7 b4 3d 6c f1 39 be e9 6d 0b be 53 ef c2 bd
       0.088363454 -0.18158501 -0.13616146 -0.09518304
000370 e7 49 44 bd ff 01 99 bd 10 d0 b6 bd e8 e5 02 be
       -0.04792204 -0.07471084 -0.089264035 -0.12783015
000380 61 ce a8 bd 35 7f 1a 3c c5 fa 0b bc 6f 17 1a bd
       -0.08242489 0.009429743 -0.008543675 -0.037620004
000390 cd ec f8 bb 5a a0 50 3d 22 70 1c bd b5 56 1f be
       -0.007596588 0.050934173 -0.038192876 -0.1556042
0003a0 53 5c 20 bd 48 f8 12 be 4b 98 91 bb fc 5d 8c bd
       -0.039150547 -0.14352524 -0.0044432036 -0.068538636
0003b0 ed d0 15 be 67 65 d0 bd ad e1 1a 3d 1f 1d 83 bd
       -0.1463048 -0.10175591 0.037812877 -0.06402039
0003c0 ea 6a 58 3d 6f 74 f6 bd 22 38 86 bd ac e4 57 bd
       0.052836336 -0.12033927 -0.06553675 -0.052708313
0003d0 fc 2d d9 bd 78 fd 28 be f2 91 0a be da c0 f0 bc
       -0.10604474 -0.1650294 -0.13532236 -0.029388834
0003e0 4c 79 8b bd ba 81 e7 bc 1f bf cd bd 6c 1f 04 be
       -0.06810245 -0.0282601 -0.10046219 -0.12902611
0003f0 c2 5a 79 3c 82 f5 fa 3b a8 f3 9e bd 7e e0 e7 bd
       0.015219392 0.0076586613 -0.077613175 -0.11322115

network.3.bias f4 [32]
000000 64 57 e0 3d f2 81 d1 bd f2 3e 82 3d 6a d4 37 bc
       0.109541684 -0.10229863 0.06359662 -0.011220077
000010 8a 51 d3 bc 13 a4 b1 3b 7f 24 80 bb 86 14 16 3d
       -0.025795717 0.0054211705 -0.0039106007 0.036640666
000020 88 76 fb 3d 09 56 28 bd e9 62 45 3d c4 45 05 3e
       0.122784674 -0.041097675 0.04819003 0.13014895
000030 f4 48 b5 bd 6e 3e d0 bc 81 7b 67 bd 5b 59 ae bd
       -0.08851805 -0.025420394 -0.056514267 -0.08513137
000040 90 73 f4 3d c3 ff 24 bd 85 2d f0 3d 99 6a ab 3c
       0.11936104 -0.040282976 0.11727432 0.020924853
000050 8a 33 84 bd 84 46 df 3d 6c 9a 8a 3d f0 0c d8 bc
       -0.06455143 0.10902122 0.06767735 -0.026373357
000060 90 c2 ef 3a 11 ea e4 bd 4d 7b 2b be da 81 ac bd
       0.0018292237 -0.11177457 -0.16746254 -0.08423205
000070 f9 98 97 3b e7 71 e4 bc d2 6b eb bd 6e 0d 03 3d
       0.00462639 -0.027886344 -0.114951745 0.03199523

network.6.weight f4 [1, 32]
000000 0b 95 20 3e c2 1f 2c 3d 7b 12 8f 3d 28 dc 87 3c
       0.15681855 0.042022474 0.06985947 0.01658447
000010 07 37 0d be 00 9a 07 be cb 38 c7 3c ef 80 96 bd
       -0.13790523 -0.1324234 0.024319073 -0.07348811
000020 b7 44 41 3e 9e 23 d4 3d 2e 57 49 3e 1e 5d d1 bd
       0.18873869 0.10358356 0.19662163 -0.10222839
000030 58 f6 42 be 83 8c a1 3d f6 bc d9 3d 21 6f 6d bd
       -0.19039285 0.078881286 0.106317446 -0.05796731
000040 58 8c 58 3e 61 93 a3 bd d0 ae 0f be 3f 94 3b 3d
       0.21147287 -0.07987095 -0.1403153 0.045795675
000050 f0 e7 21 be d5 56 ec bd 77 a7 be 3d 2b fb ac bd
       -0.15811133 -0.115399994 0.09309285 -0.08446344
000060 61 c4 42 3e 5f 0e 9b 3d f9 d3 ec bc 46 1f 6c bd
       0.19020225 0.075711004 -0.02890967 -0.057647012
000070 d0 66 09 be 88 1b d9 3d 31 1a 19 bc 27 b7 e5 bd
       -0.13418126 0.10600954 -0.009344623 -0.11216574
